checkpoints/noise_rate_0.2/models/tsf/epoch153.pth (torch, 250639 bytes, 10 tensors)

feature_extractor.0.weight f4 [6, 1, 5, 5]
00000000: 90ec 113e fa97 53bd 4f75 02bd 1f85 983d
00000010: 89f3 5bbe f2f8 3e3e 21b0 183d dfa5 2d3e
00000020: 09e5 8e3d 49de 57b8 7d5c e03d 05f4 be3d
00000030: ae90 2a3e 9404 ca3b 7222 5c3d e5ca fbbc
00000040: 108b 333d d69d 283d 5dc7 733e ea87 113e
00000050: 9056 08be b936 31be 0da5 80bd 52c6 9bbd
00000060: 1d52 97bc f703 d63d 85fb 843e b301 423e
00000070: 91bf 60be 72f6 4b3d 5569 283e 4471 b13e
00000080: b859 4b3e 4408 79be 0b78 8fbe a7af c73c
00000090: aac2 ad3e ec11 4b3d afb0 753d a3ff 0cbe
000000a0: 8639 923e f08e 4a3d c7f2 853e a973 5a3d
000000b0: fdfb 97bd 38f3 163e 7964 9dbc 724b 393e
000000c0: ba4c 583d ab43 ac3d 7abf 80be 9cc1 15be
000000d0: 3dc2 7d3d 4ae8 1dbd c075 803e bb65 173e
000000e0: def6 9dba 6143 b0bd 16a6 653e d0cd 2b3e
000000f0: c914 9cbd 6b85 513e dd1e 6b3e aeea 953e
00000100: 96fc 29bd 7b10 7a3d 41c4 b93d f900 eb3d
00000110: 27eb d4bd f7bc 0bbe b7af 443e 76a0 e43c
00000120: 3506 173e 0aff ba3c 87af 423d 38fd 1a3d
00000130: 3bce b23d 1efd e33d b37b 3cbe 1912 d33d
00000140: df77 1dbe 2e2e 17be 6400 f53c 8089 653b
00000150: 9bd9 3a3e 9479 04be 3d98 2dbe 8e4c 453e
00000160: 0de7 453d 1454 4e3e 2858 823d bf23 fcbd
00000170: d319 d23d e09c f73d 5ff7 a7bd bf7a b6bd
00000180: 829d ce3d b0dd a93d 8f79 44bd eb8e 55bd
00000190: f617 773e 7e43 d73d c587 803e 76df 2e3e
000001a0: 10fa f8bd f043 89bd 4260 e63e 3094 8d3e
000001b0: 9f50 943e bc1f df3d 7a71 903e b732 033f
000001c0: 5abc f93e 45d4 c23c 5850 e13d d961 bf3e
000001d0: 1204 e03e 0a7a b23e b382 7cbc f1d8 39bd
000001e0: 0d8d 05bb 76e9 1e3e 75b2 9a3e 21f1 babc
000001f0: 0646 5f3e 1aac e5bd c408 1ebe e4f3 d63c
00000200: ab55 793e 81fa 9a3e ef24 98bd 723f 283e
00000210: 8060 c33e e968 cc3e 324f a23e 5a95 803e
00000220: 5cb0 943e e8bc 953e e868 093e 7401 993c
00000230: e1f6 70bc 3687 a43d f7af 233d 321f 8e3e
00000240: ec06 633e aa0b dbbc 1d1e cf3d 832d 083e
00000250: 4cbc 743e fe6d 783e
0.14250398 -0.051658608 -0.031850155 0.07447266 -0.2147962 0.18649653 0.037277345 0.16957806
0.06977279 -5.1467014e-05 0.10955141 0.09323887 0.16656753 0.0061650965 0.053743787 -0.030736396
0.043833792 0.04116615 0.2380652 0.14212003 -0.13314271 -0.17306031 -0.06281481 -0.07606186
-0.018471772 0.10449975 0.25973144 0.1894596 -0.21948077 0.049795575 0.16446431 0.34656727
0.19858444 -0.2431956 -0.28021273 0.02437575 0.3393758 0.04957764 0.05998295 -0.13769393
0.28559512 0.049452722 0.26161787 0.05333296 -0.0742111 0.14741218 -0.019212948 0.18095186
0.052807547 0.08411344 -0.25146085 -0.14624637 0.06195282 -0.038551606 0.25089836 0.14784901
-0.0012051722 -0.086066015 0.22426638 0.1677773 -0.07621152 0.20461051 0.22960992 0.2928061
-0.04150065 0.061050873 0.090706356 0.11474795 -0.10396414 -0.13646303 0.19207655 0.027908545
0.14748462 0.02282669 0.047530677 0.037839144 0.087307416 0.11132263 -0.18406563 0.10306186
-0.15377758 -0.1476371 0.029907413 0.0035024583 0.18247072 -0.12937003 -0.16952606 0.19267485
0.04831605 0.20149261 0.06364471 -0.123115055 0.10258832 0.120904684 -0.08201479 -0.08910131
0.10088636 0.08294237 -0.04796749 -0.05213825 0.24130234 0.1051092 0.25103584 0.17077431
-0.12157071 -0.06702411 0.44995314 0.2765212 0.2896776 0.10894725 0.28211576 0.5124926
0.48776513 0.023782859 0.110016525 0.3737934 0.43753105 0.34858733 -0.0154120205 -0.045372907
-0.0020378262 0.15518746 0.30214277 -0.022820057 0.21804056 -0.112144664 -0.15433031 0.026239343
0.24349086 0.30269244 -0.074289195 0.16430452 0.3815956 0.3992379 0.31701046 0.25113946
0.29040802 0.29245687 0.13418925 0.01867745 -0.014707298 0.08033602 0.039962735 0.27758175
0.22170609 -0.02673896 0.101131655 0.13298611 0.23899955 0.24260709

feature_extractor.0.bias f4 [6]
00000000: d04d 16bd 5caf 763e c9d4 923c 270f cf3c
00000010: f17a 51bd 819c 833c
-0.0366953 0.24090332 0.01792373 0.02527578 -0.051142637 0.016065838

feature_extractor.3.weight f4 [16, 6, 5, 5]
00000000: 5f98 15bd 22a6 f3bc 2864 703d 0d53 c5bc
00000010: 68fa 5bbd 72ea 4b3d 5c01 3c3d d79d 893d
00000020: 959d 11bd 754f c73c 1adf 02bd 60b9 37bc
00000030: 9450 8abd ace0 36bd f755 fcbc 2c56 073d
00000040: d293 953c 14f5 633c ed11 8f3d 7a34 953d
00000050: 6408 6b3d d554 b23b c14b 88bd 10c8 583d
00000060: 3ce7 8ebc 3909 70bc 6915 42bd d5b5 bf3c
00000070: 2641 2ebd ccd7 893d b830 c6bd 0a65 04bd
00000080: f068 133d 66ff 3dbd a29c 5f3c 205f 4ebd
00000090: 4cc9 91bc 5a9a 1c3d 2e05 2f3d 4288 a4bd
000000a0: 41f8 083d c7c6 b93d 880b cb3d 22c1 afbd
000000b0: 8c3b 9cbb a559 99bd 0c74 c43d 2d2f 3cbc
000000c0: 90ab 543c 33d7 26bc cca3 0cbc edc4 d53b
000000d0: b68d 413c 31cf 0b3d 1d12 543c 666d fd3c
000000e0: 7845 6fbd 3451 703d 2dfe 883d a3e2 923d
000000f0: 6bd2 903d 78fd 24bd 32ee 28bd 9def 503d
00000100: e1ae 88bd 4ebd b23d b303 90bd 8849 9cbd
00000110: 75af 6f3c 3fc5 79bd 230e 75bc c2f1 803d
00000120: cbd0 3c3d 7fc2 8e3d eeb0 3abc 3dbb 88bd
00000130: f558 a03d 8f33 b4bc 1d60 1cbd 7545 ac3c
00000140: e747 58bd 8fcc 613d 182c 333d 3e94 95bd
00000150: 168f 84bd d793 8c3b 0f4f 023d db75 2cbc
00000160: 535c 4abd e451 703b d3cf 96bd 243e 67bd
00000170: 9396 8abd dafa 833d 26a1 9a3d a3c2 e2bc
00000180: ea91 7b3b cb26 ef3c c76d 4e3c a8eb 16bd
00000190: 27a2 3e3d 7a6c c33d 2e22 3d3d 6560 a2bb
000001a0: 7456 ae3d a19e 9e3d c37a a43c e32d 183e
000001b0: 9653 7f3c 9756 60bd 2486 843d 7e04 26bc
000001c0: 8ed3 e13d 7d55 c6bd 178b 6ebc 03ab d13c
000001d0: 4cc5 8a3d fd37 413d 2a3f ccbd 9ae8 89bd
000001e0: 2e8c a5bd 9c08 a13c e1fa f1bc b86f 31bd
000001f0: c36b 85bc d0ab 863d 834b f33d e79d ec3c
00000200: ea12 febc 29e9 a9bc ddcf 00bd 8b82 ee3d
00000210: a2c5 86bc 08e0 5a3c 3bbd e33c 023f b4bc
00000220: 8af6 a83d 7811 aa3c d613 edbc cd1b 38bd
00000230: ab9a 86b9 0bc3 63bb 4424 c9bd 4354 abbd
00000240: 6b54 25bc 3806 a53b 917e 023d 9fdd 85bd
00000250: 8c54 ddbc 650b 83bc 2615 9bbd 93cd a53d
00000260: 7cd9 f23c ac4c ab3d 44cc 823b 29ef a6bc
00000270: 21ea 76bd 73d4 8eba 8260 8c3d f455 9ebd
00000280: c807 ebbc d806 6b3d bb23 793d 812a 2d3d
00000290: 7429 5dbc 06bf cfbc edb3 2bbd c82d 32bd
000002a0: 2c6a 523d b364 233a bc9f 03bd 32d4 ce3c
000002b0: 1a95 4fbd cbc7 ca3b bbd6 893d 9163 733c
000002c0: 9147 a13d a12e 39bd b37d 923c bfd0 83bc
000002d0: afa4 33bd 6e92 d7bc 2a1b 933d bcb3 4b3d
000002e0: 2303 41bd 8ff7 3abd 79d3 99bd b2eb cd3d
000002f0: 188c 5f3c 6e62 863b b77c 9cbc 2f97 78bd
00000300: 5842 afbd 192b a0bc 77bf be3d d324 b03c
00000310: 6bb7 07bd 6dae 33bb 4dc1 973d b83b ab3d
00000320: 9cc6 9a3d c088 cc3c 2495 693d 150c 373c
00000330: a1a6 66bd 1704 89bd f8d9 9c3d 64fb 433b
00000340: 940f a63c 9780 00bb 4e3b 5ebd 344d 00bd
00000350: 89ae 0e3c 2ab2 ccbc 0629 89bd 4a7e 253c
00000360: 9ba4 efba 0ac2 843b 81a9 8b3d 151b 223d
00000370: b6d9 adbc 4e3a 013e c7ea e53d d693 073d
00000380: 9d6f 70bc ba34 8bbd ebb6 933d 1ee7 4fbc
00000390: 2331 72bd 5645 623d 39ef 393d 94d2 313d
000003a0: 0898 54bc 1ef3 18bd c41a 853c e5c9 8f3d
000003b0: c684 443c d225 f6bc a0d8 b03d 95cc 483b
000003c0: bb6e 733d a4ce 0e3d 499d df3d 3ba5 8d3d
000003d0: 5d99 26bd b0b9 953d 8fbf b43c b75f 6cbd
000003e0: 63d1 e3bc 9492 9cbd 6b2d 9ebd 1f7a 9cbd
000003f0: c13c 913d 851c b23b ed16 90bc ba75 493d
-0.036522266 -0.029742304 0.058689266 -0.024087453 -0.053705603 0.04978413 0.045899734 0.06719559
-0.035550673 0.02432988 -0.031951047 -0.01121363 -0.0675365 -0.044647858 -0.03080271 0.033041164
0.018258963 0.013913412 0.06985841 0.072854 0.05738105 0.0054422417 -0.06655074 0.05292517
-0.017444246 -0.014650636 -0.0473837 0.023402134 -0.0425426 0.06730613 -0.09677261 -0.03232292
0.035988748 -0.046386145 0.013648184 -0.050383687 -0.017796181 0.03823314 0.04272955 -0.080338016
0.03343988 0.09071117 0.09914309 -0.08581759 -0.0047678407 -0.074878015 0.09592447 -0.011485857
0.012980357 -0.010183143 -0.008583974 0.0065237195 0.011813572 0.03413314 0.012943772 0.030935954
-0.05841586 0.05867119 0.06689105 0.07172134 0.07071384 -0.04028079 -0.041242786 0.051009763
-0.066739805 0.08727513 -0.070319556 -0.076312125 0.014629235 -0.060979124 -0.014956984 0.06296112
0.046097558 0.06970691 -0.011394722 -0.06676338 0.07829467 -0.021997241 -0.0381776 0.021029213
-0.052802946 0.055126723 0.043743223 -0.073036656 -0.06472604 0.004290085 0.031813677 -0.010526146
-0.049404453 0.0036669904 -0.07363858 -0.056455746 -0.06767001 0.064443305 0.07550268 -0.0276807
0.0038386532 0.029193303 0.012599415 -0.036845833 0.04654136 0.09542175 0.046175174 -0.004955339
0.085125834 0.077451 0.020078069 0.14861254 0.015583893 -0.05477008 0.06470898 -0.010132907
0.11026679 -0.09684274 -0.014559529 0.02559424 0.06775913 0.047172535 -0.09972985 -0.06733818
-0.08083378 0.019657426 -0.029538574 -0.043319434 -0.016286736 0.065757394 0.11879637 0.028883887
-0.031014878 -0.020741062 -0.031448234 0.11645993 -0.01645166 0.013359077 0.027800193 -0.0220027
0.082501486 0.020760283 -0.028940123 -0.044948388 -0.00025673708 -0.0034753706 -0.0982137 -0.08365681
-0.010090928 0.0050361417 0.031858984 -0.065364115 -0.027017854 -0.015996644 -0.07572393 0.08095851
0.02964472 0.083642334 0.0039916355 -0.020377712 -0.060281876 -0.0010897055 0.06854345 -0.07731238
-0.028690234 0.057379574 0.06082509 0.042276863 -0.013498653 -0.025359642 -0.041919637 -0.04350069
0.051370785 0.0006232962 -0.032134756 0.025247667 -0.050679304 0.006188368 0.0673041 0.014855281
0.07874978 -0.045210484 0.017882204 -0.016090749 -0.043858226 -0.02631494 0.071829155 0.049731955
-0.047122132 -0.045646247 -0.07511038 0.10054721 0.013644241 0.004101089 -0.019102437 -0.060691055
-0.08557576 -0.0195518 0.09313863 0.021501934 -0.033133905 -0.0027417198 0.07409916 0.08361
0.07557413 0.024967551 0.057026997 0.011172314 -0.056311253 -0.06690233 0.07658762 0.002990448
0.0202711 -0.0019607896 -0.054255776 -0.031323627 0.008708605 -0.024987299 -0.06697278 0.01010091
-0.0018283309 0.0040514516 0.0681944 0.03957661 -0.021221977 0.12619898 0.11226421 0.03309997
-0.014675048 -0.06797166 0.07212623 -0.01268938 -0.05912889 0.055241905 0.045394156 0.043413714
-0.0129757 -0.03734123 0.016248114 0.0702093 0.011994546 -0.030047331 0.08635068 0.0030639519
0.059431773 0.034865037 0.10918672 0.06916281 -0.040673602 0.07310808 0.022063999 -0.05770847
-0.027809804 -0.07645145 -0.077235065 -0.0764048 0.07091666 0.0054355287 -0.017589057 0.04918454

feature_extractor.3.bias f4 [16]
00000000: a748 a8bc 3b44 2abd f330 ab3b 3eb7 fb3c
00000010: 1ae3 3d3d e741 9cbc c2d0 2b3c da4c 18bd
00000020: 2209 84bd b735 43bd b44f 48bd 97fd 4dbd
00000030: 449f 903c 044d c8bc 7a31 8a3d 9982 a83d
-0.020542456 -0.041568976 0.005224341 0.030727025 0.04635916 -0.019074393 0.010486783 -0.037182666
-0.064470544 -0.04765865 -0.048904136 -0.05029067 0.017654069 -0.024450786 0.06747718 0.082280345

feature_extractor.7.weight f4 [120, 400]
00000000: 9db1 30bd 83b2 3f3c b3b7 f63c d6f2 42bd
00000010: 99ed 95bc 29e7 063d c0fd 16bd dafb 3c3d
00000020: 4c21 90bb d849 643c a133 463d 56e8 06bd
00000030: 57e1 2f3d 15ef 27bd dd52 233d a5a2 94ba
00000040: 89df 293d 359c 53ba b3e5 27bd 8924 993c
00000050: e69d f73c 0a5e 2ebc 4f61 5dbd a975 e1bb
00000060: a129 183c 9a79 0d3c 3d83 f83c 6177 c3bb
00000070: 631d fd3a 94eb db3a 258e c63c 99dd c03c
00000080: f7c8 b53c 0e22 d13b 1167 2d3c 6983 153d
00000090: eb6f 5b3c 7d62 1fbd 0e4e 663c f7a9 603d
000000a0: 95a1 64bc c389 f73c 4654 3ebd b20a 59bb
000000b0: 4224 d03c c66c 18bd 4e5c 68bc a886 62bb
000000c0: 07a1 4cbc 17b4 fcbc a9bd 173d 696c b7bb
000000d0: b27f 91bc dc77 cf3c f5f1 213c 4c86 77bc
000000e0: 3f58 063d 60d4 9cbc 063f 543d 0a38 083d
000000f0: 5498 5e3b d08d 993c 8e8b 11bc 710e febc
00000100: dbe1 c1bc 45aa 683c 17e7 ab3c 25df e2bb
00000110: 6d9d 4dbc b96f a5bc 99be cfbc 352a a2bc
00000120: 6c17 0b3d 718c 4bbd f100 a43c 1959 ef3c
00000130: 4a46 15bc ef25 893b 8909 a0bb 6657 29bd
00000140: ba4b 323c 81db 8fbc 6861 b43c e8f8 853b
00000150: 2f4c e5bc 50b5 6cbd 25e9 e33c 7807 463d
00000160: e860 093d 62d9 a53c ab45 3a3c c540 a43c
00000170: d46b f33c df08 c5ba 996c 91b9 d916 2a3c
00000180: 626d da3c 7904 05bc 37dd 023d 24c9 f53c
00000190: 4164 f3bc 5d45 44bd 24c3 7dbc b654 f5bc
000001a0: 7355 613d f776 a8bc d6c2 11bd 3499 9b3c
000001b0: 8a52 b33c 0da3 be3c d4c7 383d eae4 61bd
000001c0: 3e08 d03c fb02 87bc 09ac 5e3c 2b51 fabc
000001d0: a76a 593d aa3d 22bc 734d 573c 9896 2fbd
000001e0: 7d55 923c f82f 18bd cdd3 2c3c 4950 403d
000001f0: 7516 153d e34f d03c 8d35 9dbc 546b f13b
00000200: 073a ff3b 7593 63bd 7a58 bc3c 2b96 1cbd
00000210: 2493 a23c e931 523d 9cc3 85bc 5f54 5d3c
00000220: 3439 5c3d cae0 4e3d d216 6c3d 20a6 bbbc
00000230: e052 6b3b b4cc 51bd 909d 893a e7ea 52bd
00000240: 3dbe 7a3b 1998 843c 8767 4abd 0073 a3bb
00000250: cfb4 d3bc 4ff3 fe3c 162f 1bbc 11af b63c
00000260: 2f22 05bd 66b6 b33b 3e16 033d d52d 8c3b
00000270: 9b44 45bc 7e75 bfbc 0c4b b13c 15d5 903c
00000280: c761 223c 7798 1a3d 1b9a bebb 6eaf 88bc
00000290: 2316 6c3c 3a37 e83c 544e 79bd 5dac f2bc
000002a0: da0d c23b 087c 153d e732 da3c a457 1a3c
000002b0: 355d 5abd 3def 05bd ec16 ae3c 82ee e13b
000002c0: 968d c73c f2eb 1b3d 0dfe d33c 163e b3bc
000002d0: 80cd e3bc cc70 4cbc 29f3 26bb 550a d2bb
000002e0: 5fc0 3abc e1d8 313b c99d 053d 889a fcbc
000002f0: 4cd9 c03c 8018 40bd 4dfc a639 be8c 41bd
00000300: c310 323d d07f 1dbd 98a7 c4bc 60be a83c
00000310: f405 923c 6583 1a3d 3d5e 693c 5535 2cbd
00000320: 150f 0fbd f5b4 0b3d 42d7 46bd ee79 373d
00000330: f03a 09bc 49d9 143c ce13 0cbb d097 4cbc
00000340: b9d3 47bc e3e7 6f3c 6b37 0fbc 8042 0a3c
00000350: ef3a 2b3d 3a1a 943b c431 1fbd 21b3 19bd
00000360: 6608 043d 3ba6 8e3c 8a2a 1d3c 5962 c8bc
00000370: e79e 26bd 3b8f 313d e496 3fbd 029e c8bc
00000380: d427 a93c 71aa 243d 5ef0 b6bb 6fbe 21bd
00000390: cdb1 963c 5174 a03b 72ae acbb 4ab3 44bd
000003a0: 03e2 203d c962 043c c7bf af3c 6d6e 933c
000003b0: d0b2 233d be6a c0bc 8aee 82b9 539d 25bd
000003c0: e77b 5bbd 3549 b2bc 0e78 9f3c 9a14 eebc
000003d0: 367c 023d 5fdc fa3b 41dd 9ebc bde1 c23c
000003e0: 44c3 0b3d d5a6 b2bc 21fd ea3c a6a3 e33c
000003f0: 542b 1e3d 9698 f2bc 5a6f 583d 926b 873b
-0.043138135 0.011700275 0.030116891 -0.047594868 -0.018301772 0.032935295 -0.03686309 0.046138622
-0.0043985005 0.013933621 0.04838908 -0.032936417 0.04293951 -0.04099949 0.039873946 -0.0011339976
0.041472945 -0.0008072288 -0.040990543 0.01869418 0.030226659 -0.010642538 -0.05404788 -0.0068804813
0.009287269 0.008634949 0.030336017 -0.005965159 0.0019311126 0.0016778582 0.024237702 0.023543166
0.022190554 0.0063822335 0.010583655 0.036502276 0.013393383 -0.038912285 0.014056696 0.05484959
-0.01395454 0.030217057 -0.04646709 -0.0033117947 0.025407914 -0.03721311 -0.014182163 -0.0034565125
-0.012489564 -0.030847592 0.03704611 -0.0055976403 -0.017761085 0.025325708 0.009884347 -0.015107702
0.032799 -0.019144237 0.051817916 0.033256568 0.0033965306 0.01874438 -0.00888337 -0.031012746
-0.023667267 0.014200752 0.020984216 -0.0069235736 -0.01254974 -0.020194875 -0.025359439 -0.019795517
0.033957884 -0.049694482 0.02001998 0.02921729 -0.0091109965 0.0041854302 -0.004883949 -0.041343115
0.010882312 -0.017560722 0.022019103 0.00408851 -0.027990429 -0.0577901 0.027821133 0.048346967
0.033539683 0.020245258 0.011369149 0.020050416 0.029714502 -0.0015032551 -0.00027737467 0.010381424
0.026663486 -0.008118742 0.03194925 0.030003138 -0.02971089 -0.047917712 -0.01548842 -0.02994762
0.05501313 -0.02056454 -0.0355862 0.018993951 0.021889944 0.023271108 0.045112446 -0.05514995
0.025394555 -0.016480913 0.013590821 -0.030556282 0.053080227 -0.009902397 0.013141024 -0.042868227
0.01786303 -0.03715512 0.010548544 0.046951566 0.03639837 0.025428718 -0.019190574 0.007367531
0.0077889 -0.055560548 0.022991408 -0.03822915 0.019845553 0.05131713 -0.016328625 0.013508885
0.05376549 0.050507344 0.05763895 -0.022906363 0.0035907552 -0.05122061 0.0010499228 -0.05149355
0.0038260364 0.016185807 -0.049415138 -0.0049880743 -0.025843052 0.031121878 -0.009471675 0.022300275
-0.032503303 0.00548439 0.032003634 0.0042779245 -0.012040283 -0.023371454 0.02164223 0.01767973
0.009911007 0.037743058 -0.0058167106 -0.016685214 0.014409575 0.028346647 -0.060865715 -0.029623205
0.0059220614 0.03649524 0.0266356 0.009420309 -0.053311545 -0.03269886 0.021251164 0.0068948874
0.024359506 0.03806681 0.025877977 -0.02188019 -0.027807951 -0.012478065 -0.0025474525 -0.006409923
-0.011398404 0.0027137327 0.03262118 -0.030835405 0.023541115 -0.046898365 0.00031849966 -0.047253363
0.043473016 -0.03845197 -0.024005696 0.02059859 0.017825104 0.037722964 0.01424366 -0.04204305
-0.034926493 0.03410812 -0.04854513 0.044794016 -0.008375868 0.009085008 -0.002137411 -0.012487367
-0.012196475 0.014642688 -0.00874124 0.008438706 0.04180425 0.004519728 -0.03886582 -0.037524346
0.032234572 0.01741325 0.009592662 -0.024460958 -0.040678885 0.043349486 -0.04677476 -0.024489406
0.020648874 0.040201608 -0.005582853 -0.039488252 0.018395329 0.0048966785 -0.005269819 -0.048022546
0.03927804 0.008080193 0.021453751 0.017996991 0.03996545 -0.023488399 -0.00024973258 -0.04043324
-0.05358496 -0.021763423 0.019466426 -0.029062558 0.031856738 0.007655665 -0.019392611 0.023789281
0.034121767 -0.021808067 0.028685154 0.027787995 0.03861554 -0.029613774 0.052840568 0.0041326964

feature_extractor.7.bias f4 [120]
00000000: 8987 aa3c f9aa 113d ea4a ad3c b05e 063d
00000010: ffeb 2b3d dd0f fbbc 594c 183d 5ecc b4ba
00000020: 587c f4bc 3077 843b 3464 bd3c 665e e2bc
00000030: 96b6 17bd 45db 49bd 3adb d9bc 543e 24bd
00000040: cc10 f33c db27 aebc 67c8 36bd 9a2c ecbc
00000050: ccb4 2abc 04e3 fb3c b419 123d 211e 883c
00000060: 043b 2d3d 6619 21bd b0b9 aabc c4b0 173d
00000070: bc0f 84bc 42d9 6f3c 36f4 55bc c219 cc3c
00000080: a58f 45bd 85b2 c43c 64a1 e3bc beb8 e4bc
00000090: 1e67 193d beed d0bc 76af d63b a2a7 8e3a
000000a0: f26b 14bd 138a e33c 9c99 15bd 4209 91bc
000000b0: 6b22 45bd cbd1 3dbc 7390 833c 11db 573c
000000c0: 815f be3c 9d18 8bbc 715c 993c 7488 49bc
000000d0: 307e 283d 6f5b f0bc 1cc7 22bb d10d b33a
000000e0: 2fc5 143d d08c 70bc 182f 1fbd 9171 813c
000000f0: c859 423d 99af 06bd 23fe 87bc 3cc9 70bc
00000100: a847 0b3d cad5 df3b b49b 2cbd 0c54 1d3d
00000110: 7457 56bc 9e53 40bd cc91 413d ea3b 2cbc
00000120: 3e07 af3c 0640 59b9 eeca 163d b858 afbc
00000130: 1f8f 71bc bd9d c3bc 1fb3 01bd c9f8 01bd
00000140: 7f0e e33c e327 08bd d86f 7237 adff f93b
00000150: b167 553d 3d09 91bc 89f0 83bc 8bf9 d63c
00000160: 8c18 3b3c 7b54 bc3c 6b83 2a3d 2b8d 26bd
00000170: 977e 5c3c 1479 4c3a f9e0 38bd 0280 cfbb
00000180: 8fad 733c 9c93 eb3c 02b7 283b 495e 0cbd
00000190: 60fe 53bc 709e 323d 3f76 cb3c e26f 14bd
000001a0: dae3 5b3c c3ed 20bc 840b 373c 8dcd 023d
000001b0: f572 d8bc 66ee 02bb 7b38 263d 2788 dfbb
000001c0: 9884 483d 8c58 5dba 7277 113c e548 0dbc
000001d0: f055 b03c 093f 71bc e2c9 573d 0dfe 363d
0.020816581 0.035563443 0.021153886 0.032805145 0.04197311 -0.030647213 0.037182186 -0.0013793816
-0.029844448 0.0040425286 0.02311907 -0.027632903 -0.037039362 -0.049281377 -0.026593793 -0.040098503
0.029671095 -0.021259239 -0.044624712 -0.028829861 -0.010419082 0.030747898 0.035669044 0.01661593
0.04229261 -0.039330862 -0.020840496 0.03703381 -0.016120784 0.014639201 -0.013058713 0.024914626
-0.048232693 0.024010906 -0.027786918 -0.027920123 0.037451856 -0.02550399 0.0065516783 0.0010883699
-0.036235757 0.0277758 -0.036523446 -0.01770461 -0.048128527 -0.011585663 0.01606009 0.013174788
0.0232389 -0.01697951 0.018720837 -0.012300599 0.041135967 -0.029340474 -0.0024837917 0.0013660734
0.03632086 -0.01468201 -0.03886327 0.015801223 0.047448903 -0.032882307 -0.016600674 -0.0146964155
0.034003884 0.0068309056 -0.042140678 0.03841023 -0.013082374 -0.046954744 0.047258183 -0.0105123315
0.021365758 -0.00020718583 0.036814623 -0.02140461 -0.014743595 -0.023878926 -0.031664964 -0.0317314
0.027716873 -0.033241164 1.4450365e-05 0.007629356 0.05210084 -0.0177046 -0.016105907 0.026242038
0.011419427 0.022989502 0.041629236 -0.040661972 0.013457916 0.00078000245 -0.045136426 -0.0063323984
0.014872923 0.02875691 0.0025743847 -0.034269605 -0.012939066 0.04360813 0.024836658 -0.036239512
0.013421023 -0.009822312 0.011172179 0.03193431 -0.026422003 -0.0019978522 0.040581208 -0.0068216505
0.048954576 -0.00084436755 0.008878576 -0.008623336 0.021525353 -0.014724501 0.052682765 0.044675875

classifier.0.weight f4 [84, 120]
00000000: 915f 673c df52 5fbd b914 bf3c dd5d 99bb
00000010: 9ca8 9cbd e828 073d cd95 7dbd cc94 34bd
00000020: c8e6 8ebd 9cfc 843d 53aa 673d 44ab 5abd
00000030: b638 893d 1856 8bbd 7cc4 063c ab83 73bd
00000040: d907 803d ee3d 19bd 88d0 34bc 55d9 163d
00000050: 60d5 a9bd 1f23 893d 38e0 bf3b b3a9 60bd
00000060: 1190 103b 6be9 14bd 5f52 9c3c cd30 693d
00000070: a211 a8bd f24c 8f3d f421 c9bc 38b6 9b3d
00000080: e869 ae3b b12f 153d 203a 33bd 6fa0 8e3c
00000090: d246 503a 4b7f 99bc e0fd 28bd 1003 1c3b
000000a0: c069 c5bd 873b 57bd 0989 d3bc 2b84 163b
000000b0: a02e 72bd ae83 2cbd 91de 783c cc82 8c3b
000000c0: 206b 9e3c 2d2d 4abd 55e2 953d 44e0 babc
000000d0: 95a6 acbd 4e40 623d eb60 063c 663a f3bb
000000e0: 1549 a8bd bdaa 37bd e971 4c3d cfc0 80bc
000000f0: 5c92 5ebd 8647 8c3d 7249 97bd 8ecf 913d
00000100: 7f25 fbbc bded 1c3d 1ef2 383c 4da3 d23d
00000110: 6ad4 ee3c 8e83 c9bb f4dc af3d 6a5e 94bd
00000120: dca7 833c f165 eb3c d908 57bd 3129 5cbd
00000130: 8e51 3ebd f42d 44bd 52f0 51bc 4e9b 66bd
00000140: 4c7b 843d c0c6 0cbb 06e4 c63d 6bbe 803c
00000150: 1572 b6ba 7b47 023c b9f0 26bd 6e9a 14bd
00000160: 7b13 1c3d 7ed1 39bc f2f2 173c c6f0 e6bb
00000170: c053 c03d c1c3 d0bd f076 74bd 7aa2 43bd
00000180: bba7 e4bc 107c 923d 20ad 7f3d b1ab 60bd
00000190: e8c3 dabc e4a2 d03d 7348 99bd 5c11 1a3c
000001a0: fbc3 0c3d 10db 333d 4d69 d03d 8b86 733d
000001b0: b766 5d3c a7c4 b4bd f017 27bd ce31 7dbc
000001c0: 9034 88bd a8b5 16bd b09f ac3b deeb 10bd
000001d0: 5af7 5c3c a4f4 1a3d 3e92 823d 83c7 8ebd
000001e0: 2e6f a53d 1e9d 143d bd35 f13b 77ab d3bc
000001f0: 0ca8 e2bc aae3 833b 43b9 41bc ec64 b1bd
00000200: 92dc 6b3c 3110 76bd fe8e 9dbd a153 5c3d
00000210: ea3d 82bc 54fb c3bc f537 4cbc a51a 1ebd
00000220: 62f0 403d 2bca 51bb e341 25bd cb92 ab3d
00000230: eea3 863d 7457 8a3d 03a6 b9bd 7e48 953c
00000240: 7bf3 6f3b 64f9 9f3d 8dd5 c73c b1e8 933c
00000250: 8316 763d 7c8a 223d 7de1 a7bd 2ff8 b2bd
00000260: 93c3 50bd 2554 a2bc a2ce b23c 92f0 6a3d
00000270: b535 a9bd 87db 61bc fd14 92bd 2450 a13d
00000280: 3a6b 713d bc9f 563d 638a 2fbc 0d8f 6bbd
00000290: f110 3cbd 4a08 a2ba 5b45 263a 30e9 05bb
000002a0: 0c7d 9e3d f460 41bd 0c99 8e3d d22c 253d
000002b0: bb9e 93bd f5c6 2abd 186f 62bd 04f8 433a
000002c0: 720f 463d 863e 533d d92c 9ebc e057 a03d
000002d0: 7479 2f3d 143f 5f3c c42a 97bd 2b1c 9ebd
000002e0: d4a3 693d 162a 473d ad75 33bd 7492 8bbd
000002f0: df20 903b 8c6a aabd f129 7b3d 2666 433d
00000300: a955 ce3c 4852 86bd c7bb 5dbc 0702 3ebd
00000310: b245 3b3d 37b1 b13d f2ac 203b 050c c0bc
00000320: 5480 803d 50a7 adbc 94b9 2bbd b948 9cbd
00000330: c78c 493c 613f 933d 556a 683d 48c3 003d
00000340: 8e72 7f3d acd1 94bd ecd0 b63d 671d f5bc
00000350: caa6 b5bd b334 2a3d c4bf ba3c 7e7d 96bc
00000360: f718 b1bd b8f2 803a 910f 3cbd 70ba 5cbd
00000370: 7521 a73d 7cda 2d3d 164f a3bd 8790 20bd
00000380: 4f8f 34bd f7e3 a7bd d3e0 96bd 1d69 b93d
00000390: 3914 dd3b 60c2 973d bd71 773c 7fef b33d
000003a0: 0705 62bd 0f02 b83c 1ec2 39bd 3a95 043d
000003b0: 7cf2 8f3d 2231 8c3d 3f57 7cbd 31c8 67bb
000003c0: bf71 4e3c da55 d23c 2c31 18bd 7123 073d
000003d0: f08c 92bd a381 0fbd 3c70 a0bc e406 81bc
000003e0: b4d3 a0bd c900 713d ffb9 39bc 61a2 313d
000003f0: ef34 f2ba 0e09 a53b ee82 aa3d a150 8b3d
0.014121906 -0.05452239 0.023325311 -0.004680379 -0.07649347 0.032997996 -0.06191044 -0.044087216
-0.06977612 0.06493494 0.05655892 -0.053385988 0.0670027 -0.068035305 0.008225556 -0.05945174
0.06251497 -0.037412576 -0.011036046 0.036828358 -0.08292651 0.06696152 0.0058555864 -0.054849338
0.0022058527 -0.036355417 0.019082246 0.056931306 -0.08206488 0.06997098 -0.024552323 0.07603115
0.0053226836 0.036422435 -0.043756604 0.017410485 0.00079451234 -0.018737456 -0.04125774 0.0023805536
-0.09639311 -0.052547004 -0.02582218 0.0022966962 -0.059126496 -0.042117767 0.015189783 0.004288053
0.01933819 -0.04935949 0.0731856 -0.022812016 -0.084302105 0.055237107 0.008201818 -0.007422733
-0.08217064 -0.044840563 0.04991332 -0.015716938 -0.054338798 0.068495795 -0.073870555 0.07119666
-0.030657528 0.038312662 0.011288194 0.102850534 0.029154021 -0.0061497157 0.08587065 -0.072445706
0.016071253 0.028735133 -0.052498672 -0.05375022 -0.046464495 -0.047895387 -0.0128136445 -0.056300454
0.064688295 -0.002148077 0.09711461 0.015715798 -0.0013919497 0.007951613 -0.040756915 -0.036280088
0.038104516 -0.011341451 0.009274231 -0.0070477454 0.09390974 -0.10193587 -0.05968374 -0.04776237
-0.027912011 0.07152569 0.062420964 -0.054851238 -0.026704744 0.10187319 -0.07484522 0.009403553
0.03436659 0.043910086 0.101763345 0.059454482 0.013513259 -0.08826571 -0.040794313 -0.015453769
-0.066506505 -0.036794335 0.0052680597 -0.03538119 0.013486708 0.037830964 0.0637555 -0.069716476
0.080778465 0.03628265 0.0073611424 -0.025838597 -0.027668022 0.0040249424 -0.011823955 -0.086618274
0.01439585 -0.060074035 -0.07693289 0.053790692 -0.015898664 -0.023923554 -0.012464513 -0.03859963
0.047104247 -0.003201137 -0.040346038 0.08377608 0.06574236 0.067549616 -0.09064867 0.018223044
0.0036613632 0.07811239 0.024393821 0.018055292 0.060080063 0.03968285 -0.08197305 -0.087387435
-0.050967764 -0.019815514 0.021827046 0.057358332 -0.08262197 -0.01378525 -0.071329094 0.07876614
0.05894015 0.05239843 -0.010714146 -0.05750947 -0.045914594 -0.001236209 0.0006342732 -0.002043318
0.077386945 -0.047211602 0.06962785 0.040325947 -0.0720801 -0.041693646 -0.05528173 0.0007475617
0.048354574 0.0515733 -0.019308494 0.07829261 0.042840436 0.013625879 -0.07381204 -0.07720216
0.057041004 0.04862412 -0.043813396 -0.06815043 0.00439845 -0.083211035 0.061319295 0.04770484
0.02518733 -0.06558663 -0.013533539 -0.046388652 0.045720764 0.08676379 0.0024517146 -0.023443231
0.06274477 -0.021197945 -0.041925028 -0.07631058 0.01230163 0.07189823 0.05674203 0.031436235
0.062365107 -0.07266554 0.089265674 -0.029921247 -0.08869703 0.041554164 0.02279652 -0.018370386
-0.0864734 0.0009837961 -0.045913283 -0.05388874 0.08160678 0.04244469 -0.07974069 -0.039200332
-0.044081982 -0.08197778 -0.073671006 0.09053252 0.0067467955 0.07410121 0.015102801 0.08785915
-0.055180576 0.02246192 -0.04535114 0.032368876 0.07028672 0.06845309 -0.06160664 -0.0035367126
0.012600361 0.025675703 -0.03715627 0.032992784 -0.07155788 -0.03503574 -0.019584768 -0.015750356
-0.07852879 0.05883864 -0.011335849 0.043367747 -0.001847891 0.00503648 0.08325754 0.06802488

classifier.0.bias f4 [84]
00000000: 24f4 f9bb f8bc b0bd 8677 2e3d b5f5 b03d
00000010: 9007 b53c 8120 273d 0c90 a23d d684 5e3d
00000020: a433 23bd f932 413d 833a 99bd 7907 bc3d
00000030: 2f6f 7b3d 5abe 46bd 3743 dfbc 652f 64bd
00000040: 4048 0fbd 6ca4 6dbd 21cc a9bd 4677 53bc
00000050: 8c73 183d 59b0 673d bf53 f7bc 442d 8abd
00000060: 8aa6 5f3d 9653 7d3b 9464 c7ba c2f3 403d
00000070: 314e d5bc 6113 313d 414e 023d 7944 65bc
00000080: 2f01 213b 1114 c1bc 4887 24bd 34af c9bb
00000090: a72a 9abd ac21 91bd ab1b 943a 62bb b1bd
000000a0: f82b 17bc 4a50 a6bd 6ea7 fc3c b6c1 8f3c
000000b0: 8741 2cbd 3e8e 5eba 7bbb 383d 29e4 9dbd
000000c0: a732 9cbd ea57 ba3c c648 be3c 213f 393d
000000d0: d42f 4c3c b4b8 babd 6186 48bd fba4 ca3a
000000e0: d721 33bd 0b49 0cbd 1f71 a73c 270d 56bd
000000f0: fd5b 293c d343 ca3d c742 b63d b44a 3fbc
00000100: f9bb 6c3d 8261 98bd b02f 533d 3d10 453c
00000110: c9bc a63d f0b1 863d 7830 acbd 674f ae3d
00000120: e16d 873d 8ad8 9d3d 2b51 5d3d 9319 37bd
00000130: 5a29 6cbb 53fd a2bb 4aac 303d df2b 333d
00000140: 6e97 1abd 1bd3 a2bc 8dc4 18bd 449d 653b
-0.007627981 -0.08629793 0.042594455 0.08640615 0.022098333 0.040802483 0.07937631 0.0543259
-0.03984417 0.047167752 -0.07481863 0.09181113 0.06138533 -0.048521377 -0.02725373 -0.05570926
-0.034981012 -0.058018133 -0.082908876 -0.012906855 0.03721957 0.056564663 -0.0301913 -0.06746915
0.054602183 0.0038654557 -0.001521247 0.047107466 -0.026038261 0.04323137 0.03181291 -0.013993376
0.0024567356 -0.023569139 -0.040168077 -0.006154919 -0.075276665 -0.070865005 0.001129975 -0.086783186
-0.009226792 -0.08120783 0.030841555 0.017548423 -0.04205468 -0.00084898237 0.04510067 -0.07709534
-0.07626849 0.022746999 0.02322806 0.04522622 0.012462575 -0.091172606 -0.04895628 0.0015460545
-0.043733444 -0.034249347 0.020439683 -0.052258637 0.010336873 0.09876218 0.088994555 -0.011675525
0.057796452 -0.07440473 0.05155915 0.012027797 0.08141477 0.06576908 -0.08407682 0.085112385
0.066127546 0.07707317 0.054032486 -0.044702124 -0.003603539 -0.0049740463 0.043133058 0.04374301
-0.03774207 -0.019876054 -0.03729682 0.0035036365

classifier.2.weight f4 [10, 84]
00000000: 8873 debd 8aa3 b1bd bdeb c03d 1ec2 e9bc
00000010: 8bbd 123c d911 36bd cca6 bd3b 005e cd3c
00000020: 114b a6bd f5d4 cd3d 1fbc adbd 9fe3 b3bc
00000030: 050e 573d 60e2 debd 4236 c13d 2e07 d33d
00000040: caa3 42be a833 a9bc e6ac b5bd c7d4 343e
00000050: 42d9 06be c6b3 24be de79 9dbd a431 793d
00000060: 17dc b23c d386 ebbd d099 ebbc e3a7 8abd
00000070: 21c9 1e3e 4519 e0bd ab3d e33c eebe 663d
00000080: d097 34be 7d8d e13c 1ce7 2cbc 7c07 c33c
00000090: 9e4e 73bd 3616 0ebe 3c26 79bb 7848 43bc
000000a0: f122 41bd 1c5d 2c3e f6ce 84bd 5cce d5bd
000000b0: 359a ba3c a3d1 e3bd b330 e63d 7ebc 4b3e
000000c0: ff53 0f3e 1aea b93d 293b 54be e346 1a3d
000000d0: 12e0 21be 75bb 29bd b28a c9bd f46b afbd
000000e0: 054d 8f3d 3dfd 9a3d a352 423d 0733 4f3d
000000f0: da06 3b3e e09a 6f3d 0aed acbd 9c8a a13d
00000100: 9f03 1cbd 9891 02bc 69f9 483d 23cd 373c
00000110: cbf7 8c3d 3dc3 e8bc 9cc6 70bd b721 8d3c
00000120: c501 bd3d 25e2 20be a007 15be 8096 fd3c
00000130: 115c 763d 346d b93c a9e6 22be 28c9 0bbe
00000140: cf60 8dba df01 0e3d c3fe 3dbe 4100 de3d
00000150: 82eb e3bd 2fbd 0a3d e695 dcbc c345 c5bd
00000160: 7201 c23c 7b05 a53c 82c7 de3d 70df 1e3e
00000170: 56d7 4c3e 6c63 0b3e 72e0 18be b474 1e3e
00000180: b6ec 4f3e edd4 9bbd fcd3 fb3d 6e76 7cbe
00000190: d344 05be 112b d53d 8c39 e93d 82ec 843c
000001a0: 83b3 c7bd 3482 ccba 702b b03d 06bc e53c
000001b0: ee35 a93d a864 27bd 63e9 b03d 5f87 1abd
000001c0: 69d0 4d3d e8d6 213d 6f11 16be 23a9 cc3d
000001d0: e202 d13d 69c1 02be d3a7 bdbb cbd7 d63d
000001e0: 7862 a13d d1e5 003e f0ed a83d 0259 2fbd
000001f0: 47eb 263d 66f4 d4bd a2d5 8fbc 2884 63bd
00000200: ea9b 8bbd 03b1 413e 73ed d2bd b57e 253e
00000210: 3535 e03d f552 983d ed86 053e f67e e0bd
00000220: 7fa3 c33d 09ad c5bc 920b efbd 48ba 53bc
00000230: 04ab f83c c9e4 b7bd c0fd 74bd d347 c13d
00000240: 295f 8ebd 3bde e63d 54f9 bcbd a687 00be
00000250: 8962 ca3d 00d5 d23d 9b2e 043e 32dd fd3d
00000260: 49bf 273e 4148 863d 0eef 1d3c fb86 f83c
00000270: eacb 993d 61fc 943d 25a2 87bd 66b8 743d
00000280: f385 aabd aef8 e4bd d49d ea3c b65f fe3d
00000290: bc4f 2d3c 7ebf 073e 5abe b6bd 4fe4 21be
000002a0: 8d69 c8bc 66aa c9bd 605a 093e 94f6 31be
000002b0: df29 ff3d 316b 193e 48c3 bf3d deda ce3d
000002c0: 5d8a 273b d852 38bc ec70 123e d361 aebd
000002d0: c4cf 00bd b1b4 913d ad82 ddbd 4686 263d
000002e0: 3a64 183e c08f 3e3d 39d1 cabd fe63 abbc
000002f0: 69c2 35be 578c 873d 1e4c 103e 8115 d33d
00000300: c9a7 c83b d3a3 a73d fd53 e83d ea33 453e
00000310: 42b8 4cbb 2f32 f43d 8688 b7bd fd09 5f3d
00000320: c6b9 0bbe 22c7 c7bd 4cff f9bd 0292 60bd
00000330: 1b8b a9bc 5e54 a9bd 25da 4bbe 7e66 a43d
00000340: c2fe 8dbc af3e 3b3d 57eb 243e ef77 fe3d
00000350: 1a95 29be b598 87bd ba07 67bd f841 103d
00000360: 50c7 713c 0e47 ee3b e317 cf3c c25c 4b3e
00000370: 51d1 603d b77d cd3d b36c 39be b913 0a3c
00000380: 31e3 753d f275 9b3d c715 f8bd d198 2abd
00000390: b264 b63d d574 433d d8e0 44be b4fb 16be
000003a0: 6d0a 4dbd d36b 3bbd 5c01 06be c488 d8bd
000003b0: 498b 513e d112 3ebd 8acb 613d 5cf1 e53d
000003c0: 84c2 103c c6d6 0abc 69fa 0e3e 5875 193e
000003d0: 29c4 7f3c 65e1 febc 874b e63c a399 b5bc
000003e0: daa9 cdbd 9ef3 69bd 6f96 103e 776f 1bbe
000003f0: 30df ce3d 29ed 37bb 5416 8a3c 7945 debd
-0.108618796 -0.08673771 0.094199635 -0.028534945 0.008956323 -0.044450615 0.005787706 0.025069237
-0.081197865 0.10050384 -0.08483147 -0.021959124 0.052503604 -0.10883021 0.09434177 0.10304104
-0.19007793 -0.020654514 -0.088708684 0.17659293 -0.13168815 -0.16084203 -0.0768926 0.060838357
0.021833463 -0.11500325 -0.028759867 -0.06770303 0.15506412 -0.1094232 0.027739367 0.05633443
-0.17636037 0.027533287 -0.010553148 0.02380728 -0.059401147 -0.1387566 -0.0038017174 -0.011919133
-0.047152463 0.16832393 -0.06484787 -0.104397506 0.02277861 -0.111239694 0.112397574 0.19896123
0.13996886 0.090778545 -0.20725693 0.03766526 -0.15808132 -0.04143854 -0.09840907 -0.08565512
0.06997112 0.075678326 0.04744209 0.050585773 0.18264332 0.05849731 -0.08443649 0.07887766
-0.03808939 -0.007969283 0.04906598 0.011218342 0.068832 -0.02841341 -0.05878316 0.01722799
0.09228853 -0.15711267 -0.1455369 0.030955553 0.060146395 0.02263508 -0.15908302 -0.13650954
-0.0010786297 0.034669753 -0.18554215 0.10839892 -0.11128904 0.033871826 -0.026926946 -0.096324466
0.02368233 0.020144215 0.10877897 0.15514922 0.20004019 0.13612145 -0.14929369 0.15474206
0.20305142 -0.07608972 0.12296292 -0.24654552 -0.13014536 0.10408605 0.11387929 0.016226057
-0.09751036 -0.0015602768 0.08602035 0.028043758 0.082622394 -0.040867478 0.08638265 -0.037726756
0.050247584 0.03951159 -0.14655088 0.09993198 0.10205628 -0.12769093 -0.0057878285 0.10490378
0.078801095 0.12587668 0.08248508 -0.042809494 0.04075172 -0.10398178 -0.017557923 -0.055545956
-0.068168476 0.18915181 -0.10299196 0.16161616 0.109476484 0.07437698 0.13039751 -0.10961716
0.09552669 -0.024130361 -0.11672129 -0.012922831 0.030354984 -0.08979184 -0.059812307 0.094375275
-0.06951744 0.11272856 -0.09227243 -0.12551746 0.09882075 0.10294533 0.12908404 0.12395705
0.16381563 0.0655675 0.009639515 0.030337801 0.07509597 0.072747 -0.066227235 0.05974617
-0.0832633 -0.111802444 0.028639711 0.12420599 0.010578092 0.13256642 -0.089230254 -0.15809749
-0.024464393 -0.09846954 0.13413382 -0.17379218 0.12459158 0.14982297 0.09363419 0.10100339
0.0025564649 -0.01125022 0.14300889 -0.08514752 -0.03144814 0.07114542 -0.1081594 0.040655397
0.14881983 0.04652381 -0.09903187 -0.020921703 -0.17749943 0.066185646 0.14091536 0.10306836
0.006123517 0.08185544 0.113441445 0.19258085 -0.0031237756 0.11923634 -0.08961587 0.054452885
-0.13645086 -0.097547784 -0.12206897 -0.054826744 -0.020696213 -0.08268045 -0.19907434 0.08027361
-0.017333392 0.045714077 0.161054 0.12425219 -0.16560784 -0.066209234 -0.056403853 0.035219163
0.014756992 0.007271654 0.025279945 0.19859603 0.05488712 0.10033744 -0.18107872 0.008427554
0.06003112 0.07590856 -0.12113529 -0.041649643 0.08905925 0.04771884 -0.19226396 -0.14744455
-0.05005877 -0.045757126 -0.13086456 -0.10572961 0.2046329 -0.046404663 0.05512575 0.11227676
0.008835439 -0.008474058 0.13962711 0.1498617 0.015610733 -0.031113336 0.028112186 -0.022167986
-0.10042162 -0.057117097 0.14119886 -0.15179239 0.101011634 -0.0028064942 0.01685635 -0.108530946

classifier.2.bias f4 [10]
00000000: 5422 a0bc b0f6 32bc 1a6f d8bc 45ba ca3c
00000010: ee31 1bbd bfad 7c3d d8eb 613d 7bba f0bc
00000020: 50cc 89bd 6ded 683d
-0.019547619 -0.010923073 -0.026420165 0.024747023 -0.037889414 0.061689135 0.05515656 -0.029385796
-0.06728423 0.056867052
