checkpoints/noise_rate_0.2/models/tsf/epoch98.pth (torch, 250639 bytes, 10 tensors)

feature_extractor.0.weight f4 [6, 1, 5, 5]
0	0x3e0da1a2	0.1383119
1	0xbd73472f	-0.059394058
2	0xbd01c96e	-0.03168624
3	0x3da26f1b	0.07931348
4	0xbe5900db	-0.21191733
5	0x3e3808c4	0.17972094
6	0x3cd319fd	0.025769228
7	0x3e2533d9	0.1613306
8	0x3d846e56	0.064663574
9	0xbbcc645f	-0.006237551
10	0x3dd1af02	0.10238458
11	0x3da5f34d	0.081030466
12	0x3e1e3601	0.15450288
13	0xbba97514	-0.0051714275
14	0x3d322aa4	0.043497697
15	0xbcd119bb	-0.025524965
16	0x3d391d94	0.045194224
17	0x3d247a9e	0.040156
18	0x3e6f0d63	0.2334495
19	0x3e066617	0.13124882
20	0xbdf3e8bd	-0.11909626
21	0xbe202853	-0.15640382
22	0xbd450ab4	-0.04810591
23	0xbd9008ab	-0.07032903
24	0xbcbbf840	-0.022945523
25	0x3dc37c42	0.09545185
26	0x3e75ceab	0.24004619
27	0x3e39f730	0.18160701
28	0xbe58c806	-0.21170053
29	0x3d78078f	0.060554083
30	0x3e231fd9	0.15930118
31	0x3ea8f5d6	0.33000058
32	0x3e49dd02	0.19713214
33	0xbe675780	-0.22591972
34	0xbe86d2b4	-0.2633263
35	0x3c93fc5a	0.018064667
36	0x3ea476bb	0.32121834
37	0x3d3937f5	0.04521938
38	0x3d94271d	0.07234023
39	0xbdfeed46	-0.124476
40	0x3e91dda4	0.2848941
41	0x3d13349f	0.035938855
42	0x3e7fd6bb	0.24984257
43	0x3d551c13	0.052028727
44	0xbd939824	-0.07206753
45	0x3e1eda97	0.15513073
46	0xbcb3a6a2	-0.021930043
47	0x3e2ad338	0.16682136
48	0x3d2c46fd	0.042059887
49	0x3d97f0bd	0.07418964
50	0xbe7a5000	-0.2444458
51	0xbe1431c4	-0.14472109
52	0x3d8bc253	0.06824174
53	0xbd28c303	-0.041201603
54	0x3e78ffc1	0.24316312
55	0x3e193f9a	0.14965668
56	0xbb4f6725	-0.0031647172
57	0xbdbeb147	-0.09311157
58	0x3e524d36	0.20537266
59	0x3e1901c1	0.14942075
60	0xbda87f88	-0.0822745
61	0x3e490a61	0.19632865
62	0x3e5b8ec5	0.21441181
63	0x3e8ca6e8	0.2747109
64	0xbd525ab9	-0.05135605
65	0x3d3c8aff	0.046030995
66	0x3d9f7309	0.07785613
67	0x3dd400b0	0.10351694
68	0xbddb00b8	-0.106934965
69	0xbe074a70	-0.1321199
70	0x3e363b23	0.17795996
71	0x3c80ea77	0.015736802
72	0x3e11b600	0.14229584
73	0x3ce203be	0.027589675
74	0x3d70cb0c	0.05878739
75	0x3d0ec377	0.03485438
76	0x3da53267	0.08066254
77	0x3ddea0b3	0.10870495
78	0xbe39977e	-0.18124196
79	0x3ddb8232	0.10718192
80	0xbe1ca037	-0.15295492
81	0xbe18b595	-0.14913018
82	0x3ce424da	0.027849603
83	0xbb0ca2d2	-0.0021459353
84	0x3e2fe267	0.1717621
85	0xbdffd2ef	-0.12491404
86	0xbe2c42ee	-0.16822407
87	0x3e3d0b55	0.18461354
88	0x3d08ee70	0.033430517
89	0x3e3e3339	0.18574227
90	0x3d825f93	0.063658856
91	0xbe01f495	-0.12690957
92	0x3dba7399	0.0910408
93	0x3dde996a	0.10869105
94	0xbdb1f429	-0.08689148
95	0xbdb9898c	-0.09059438
96	0x3dc38df1	0.095485575
97	0x3d9c3901	0.0762806
98	0xbd4f74c9	-0.050648484
99	0xbd3c899e	-0.04602968
100	0x3e7675f4	0.24068433
101	0x3dc1a105	0.0945454
102	0x3e7befa0	0.24603128
103	0x3e2c5588	0.16829503
104	0xbdfa3706	-0.12217526
105	0xbd89d6fd	-0.06730459
106	0x3ed8d899	0.4235275
107	0x3e7d44df	0.24733303
108	0x3e8cf99a	0.2753418
109	0x3dcc0bd2	0.09963192
110	0x3e888e5e	0.26671118
111	0x3ef05a9d	0.46944132
112	0x3ee99441	0.4562092
113	0x3bda6a02	0.006665469
114	0x3dcb0a0e	0.09914027
115	0x3eb81b47	0.3595831
116	0x3ed03cfe	0.40671533
117	0x3ea6a1dc	0.32545364
118	0xbcfeeeae	-0.03111967
119	0xbd6fbe2b	-0.058530968
120	0x39cebe71	0.00039433272
121	0x3e18b62b	0.14913242
122	0x3e989d4d	0.2980751
123	0xbd0a1ab4	-0.033716872
124	0x3e53dc99	0.2068962
125	0xbde73914	-0.11290184
126	0xbe240b2c	-0.16019887
127	0x3cd382fe	0.025819298
128	0x3e724d75	0.2366236
129	0x3e9836b8	0.29729247
130	0xbda00491	-0.07813371
131	0x3e1dafb5	0.15399058
132	0x3eba5b75	0.363979
133	0x3ebe239e	0.3713655
134	0x3e99e7a9	0.30059555
135	0x3e749cb2	0.238879
136	0x3e8e489d	0.27789775
137	0x3e899301	0.26869968
138	0x3dd08e07	0.101833396
139	0xbac77549	-0.0015217449
140	0xbcb4f044	-0.022087224
141	0x3d9bd613	0.07609191
142	0x3ce0e6c8	0.027453795
143	0x3e83270c	0.25615728
144	0x3e53c6c7	0.20681296
145	0xbce2d868	-0.027691081
146	0x3dda1078	0.106476724
147	0x3e09bf31	0.1345184
148	0x3e6a2f4c	0.22869605
149	0x3e6fe8e7	0.23428689

feature_extractor.0.bias f4 [6]
0	0xbd216e62	-0.03941191
1	0x3e74d530	0.2390945
2	0x3c4d6425	0.012536083
3	0x3c921739	0.017833339
4	0xbd838e29	-0.06423599
5	0xb7685fba	-1.3850566e-05

feature_extractor.3.weight f4 [16, 6, 5, 5]
0	0xbd2067e2	-0.03916157
1	0xbcfe368f	-0.031031875
2	0x3d6e12c7	0.058123376
3	0xbcce0185	-0.025147209
4	0xbd66be61	-0.056333903
5	0x3d3a3b62	0.045466788
6	0x3d3081c3	0.0430925
7	0x3d8956fc	0.06706044
8	0xbd0a487e	-0.03376054
9	0x3cc9e57f	0.024645565
10	0xbcf3cf64	-0.029761977
11	0xbc38bafd	-0.01127505
12	0xbd8804c8	-0.06641537
13	0xbd2fdadb	-0.042933326
14	0xbcf8a888	-0.0303538
15	0x3d0e25d4	0.034704044
16	0x3c9fd211	0.019509347
17	0x3c868f06	0.01642562
18	0x3d91f7d7	0.0712735
19	0x3d958cad	0.073022224
20	0x3d632423	0.055454385
21	0x3bc9cb6e	0.006158284
22	0xbd7b6655	-0.06137689
23	0x3d64da75	0.0558724
24	0xbc99392b	-0.018704018
25	0xbc5d1462	-0.013493629
26	0xbd4db005	-0.050216693
27	0x3c8f2202	0.01747227
28	0xbd2420ea	-0.04007045
29	0x3d8a6c1b	0.06758901
30	0xbdb4524b	-0.08804759
31	0xbd11681e	-0.035499685
32	0x3d0f02b5	0.03491469
33	0xbd35e5fe	-0.04440879
34	0x3c6f3866	0.014600849
35	0xbd2c34dc	-0.042042598
36	0xbc50468a	-0.01271213
37	0x3d121e7d	0.035673607
38	0x3d3ab4e3	0.045582663
39	0xbda3091b	-0.07960721
40	0x3d0fe82f	0.035133537
41	0x3db31dc1	0.087459095
42	0x3dcce6ff	0.100049965
43	0xbda2c3fd	-0.07947538
44	0xbb198e2d	-0.002343069
45	0xbd93f0c5	-0.072236575
46	0x3dc1ecab	0.09468969
47	0xbc27c170	-0.01023899
48	0x3cbbf90d	0.022945905
49	0xbbfbd5d3	-0.007685402
50	0xbc18088e	-0.009279383
51	0x3bc53e88	0.006019417
52	0x3c74e144	0.014946286
53	0x3d0a7254	0.033800438
54	0x3c1cacf7	0.009562722
55	0x3d083195	0.03325041
56	0xbd662f60	-0.056197524
57	0x3d770988	0.060311824
58	0x3d86990b	0.065721594
59	0x3d92a40f	0.07160198
60	0x3d95e50e	0.07319079
61	0xbd342ef5	-0.043990094
62	0xbd27c8fa	-0.04096315
63	0x3d5ca78f	0.053870734
64	0xbd87b25c	-0.06625816
65	0x3dabc409	0.08387
66	0xbd89362c	-0.066997856
67	0xbd94054e	-0.07227574
68	0x3c924f78	0.01786016
69	0xbd804508	-0.06263167
70	0xbc59c5ed	-0.013291818
71	0x3d82ec57	0.063927345
72	0x3d478af1	0.04871649
73	0x3d8ef211	0.06979764
74	0xbc6b8fac	-0.014377516
75	0xbd85a2ba	-0.06525178
76	0x3da3b117	0.079927616
77	0xbc9dd18c	-0.019264959
78	0xbd1cbc7b	-0.038265686
79	0x3ca7b7ff	0.020473478
80	0xbd518ce0	-0.05115974
81	0x3d68141c	0.056659803
82	0x3d39d935	0.04537316
83	0xbd924232	-0.07141532
84	0xbd84449e	-0.064584
85	0x3b612cd5	0.0034358997
86	0x3d088c8e	0.03333717
87	0xbc024011	-0.007949845
88	0xbd3f428f	-0.046694335
89	0x3b73d96c	0.003720845
90	0xbd90f3b5	-0.070777334
91	0xbd64dfcc	-0.05587749
92	0xbd840438	-0.06446117
93	0x3d861178	0.06546301
94	0x3d9a361e	0.07529853
95	0xbcc36c42	-0.023855332
96	0x3b8ce3bc	0.004299609
97	0x3cfc01f9	0.03076266
98	0x3c559405	0.013035779
99	0xbd16e712	-0.03684146
100	0x3d3de016	0.046356283
101	0x3db3fce8	0.087884724
102	0x3d24675b	0.04013763
103	0xbb98ce69	-0.004663278
104	0x3d95e688	0.07319361
105	0x3da994fd	0.082803704
106	0x3c8ab549	0.016932147
107	0x3e0b0ff4	0.13580304
108	0x3c828136	0.015930753
109	0xbd747279	-0.059679482
110	0x3d84a2cb	0.06476363
111	0xbc524f88	-0.012836345
112	0x3dcfc8c3	0.10145714
113	0xbdbe431b	-0.09290143
114	0xbc3ccb49	-0.011523076
115	0x3ccc6d9c	0.02495461
116	0x3d78d8c1	0.060753588
117	0x3d626bbb	0.05527852
118	0xbdbb7cae	-0.0915464
119	0xbd893b5f	-0.06700777
120	0xbda67c12	-0.08129133
121	0x3ca55d2d	0.020186031
122	0xbcedf2c2	-0.02904642
123	0xbd0962bc	-0.033541426
124	0xbcaf30dc	-0.021385603
125	0x3d678ead	0.05653255
126	0x3ddf9a82	0.10918142
127	0x3cd5ffdc	0.02612298
128	0xbd110653	-0.035406422
129	0xbd088922	-0.033333905
130	0xbd0bd0de	-0.03413474
131	0x3ddfe799	0.109328456
132	0xbc805ca7	-0.01566918
133	0x3c175d30	0.009238526
134	0x3ca69421	0.020334305
135	0xbca44223	-0.020051068
136	0x3d9b0cd9	0.0757081
137	0x3caaa10c	0.020828746
138	0xbcdb2ba5	-0.02675421
139	0xbd3d9585	-0.04628517
140	0xbb9d4ca1	-0.0048003946
141	0x3a7d919b	0.0009672881
142	0xbdb69000	-0.089141846
143	0xbda73c0b	-0.08165749
144	0xbc867dd6	-0.016417425
145	0x3a1ce320	0.0005984772
146	0x3d05ad1e	0.0326358
147	0xbd649778	-0.055808514
148	0xbce667e5	-0.028125713
149	0xbccc3f11	-0.024932416
150	0xbd9b9201	-0.075962074
151	0x3da3bfba	0.07995553
152	0x3cd8ffd3	0.026489174
153	0x3da886a3	0.08228805
154	0xba0b9bc1	-0.00053256383
155	0xbc919fc5	-0.01777638
156	0xbd75ff7f	-0.060058113
157	0xbbac0529	-0.0052496386
158	0x3d8a5e68	0.06756288
159	0xbd9c7106	-0.07638745
160	0xbcda269e	-0.026629742
161	0x3d717e8e	0.058958583
162	0x3d7885d6	0.06067451
163	0x3d38aa08	0.04508403
164	0xbc0bce10	-0.008533016
165	0xbc9309d4	-0.017949022
166	0xbd17cbcb	-0.037059586
167	0xbd2306d7	-0.039801445
168	0x3d4c01ad	0.049806286
169	0xbaa4cad1	-0.0012572651
170	0xbcfd6852	-0.030933533
171	0x3ccc8643	0.024966365
172	0xbd4b576f	-0.04964393
173	0x3b583282	0.003298909
174	0x3d88a9aa	0.06672986
175	0x3c979312	0.018502746
176	0x3da2a606	0.07941823
177	0xbd230134	-0.03979607
178	0x3c88f0d5	0.0167164
179	0xbc8e4472	-0.017366622
180	0xbd13f674	-0.036123708
181	0xbcd277a1	-0.02569181
182	0x3d891612	0.06693663
183	0x3d408eca	0.047011174
184	0xbd1aebd2	-0.037822552
185	0xbd31b1f0	-0.043382585
186	0xbd947876	-0.072495386
187	0x3dca81a8	0.09888011
188	0x3c50e74a	0.012750456
189	0x3c197003	0.009365085
190	0xbca905eb	-0.020632705
191	0xbd76c52b	-0.060246628
192	0xbda1f1a4	-0.079074174
193	0xbc99ca2d	-0.018773163
194	0x3dbf50ad	0.093415596
195	0x3c92ce08	0.017920509
196	0xbcf8953b	-0.030344596
197	0xbb4ee755	-0.003157099
198	0x3d9d0312	0.07666601
199	0x3daa346d	0.08310781
200	0x3da654cb	0.08121642
201	0x3cf29fec	0.029617272
202	0x3d55e898	0.05222377
203	0x3b84fb58	0.004058283
204	0xbd68d005	-0.056839008
205	0xbd8333fb	-0.06406399
206	0x3d914612	0.07093443
207	0x394a5554	0.00019296008
208	0x3cc6a31c	0.024247698
209	0xbb9e17b7	-0.0048246044
210	0xbd6b79dc	-0.05748926
211	0xbd08cec4	-0.033400312
212	0x3c79afaa	0.0152396355
213	0xbca2756e	-0.019831385
214	0xbd90545c	-0.0704734
215	0x3c42859a	0.011872673
216	0x3a298cc8	0.00064678164
217	0x3b1921e0	0.0023366138
218	0x3d84663d	0.06464813
219	0x3d2d46c4	0.042303815
220	0xbcc27946	-0.023739468
221	0x3df8e46f	0.12152945
222	0x3dd2fdb8	0.10302299
223	0x3d229e2d	0.03970163
224	0xbbed2160	-0.0072366446
225	0xbd8800a6	-0.06640749
226	0x3d8f763d	0.07004974
227	0xbc7f6cd6	-0.015589913
228	0xbd6cf6fd	-0.057852734
229	0x3d55686e	0.052101545
230	0x3d2bbbfa	0.041927315
231	0x3d1639fd	0.036676396
232	0xbc61ec96	-0.013789317
233	0xbd096e61	-0.03355253
234	0x3c4f8d49	0.012667962
235	0x3d892fc5	0.066985644
236	0x3c8103b4	0.015748836
237	0xbcefc7b8	-0.029270038
238	0x3dae76a4	0.08518723
239	0x3b7193ed	0.0036861852
240	0x3d6fd468	0.058552176
241	0x3d0dc5d8	0.034612507
242	0x3dd48e1f	0.1037867
243	0x3d89b1c9	0.06723363
244	0xbd1821cb	-0.037141602
245	0x3d8e583c	0.06950423
246	0x3c97eeb5	0.018546442
247	0xbd6871c1	-0.05674911
248	0xbcb1d6dc	-0.021708898
249	0xbd9ab9a3	-0.07554939
250	0xbd760470	-0.060062826
251	0xbd8091e5	-0.06277827
252	0x3d96830f	0.07349216
253	0xb903833a	-0.00012542019
254	0xbca69b98	-0.020337865
255	0x3d7ee951	0.062234227

feature_extractor.3.bias f4 [16]
0	0xbca2a866	-0.01985569
1	0xbd327c6f	-0.0435757
2	0x3bb21390	0.005434461
3	0x3d0e543b	0.034748297
4	0x3d51009f	0.051025983
5	0xbca57169	-0.02019568
6	0x3c0484cf	0.008088305
7	0xbd1bf1ff	-0.038072582
8	0xbd83e11f	-0.06439423
9	0xbd468af1	-0.04847235
10	0xbd4496cf	-0.047995385
11	0xbd4d6f09	-0.05015472
12	0x3ca06417	0.019578977
13	0xbcc3ba83	-0.023892647
14	0x3d893343	0.066992305
15	0x3da48879	0.080338426

feature_extractor.7.weight f4 [120, 400]
0	0xbd2e818e	-0.04260402
1	0x3c4121e8	0.011787869
2	0x3cf7bd9a	0.030241776
3	0xbd3dfd26	-0.046384
4	0xbc8bf7fa	-0.017086018
5	0x3d0bf541	0.03416944
6	0xbd1788d9	-0.036995742
7	0x3d3b8566	0.045781516
8	0xbb8dcf20	-0.0043276697
9	0x3c3c1617	0.011479876
10	0x3d4a11b6	0.049333297
11	0xbd12500c	-0.03572087
12	0x3d2dbd9a	0.042417146
13	0xbd328110	-0.043580115
14	0x3d1dd66e	0.038534574
15	0xb9922b17	-0.00027879394
16	0x3d308883	0.043098938
17	0xbaf79be4	-0.0018891064
18	0xbd31608d	-0.04330497
19	0x3c987cef	0.01861426
20	0x3cf5c9ee	0.030003514
21	0xbc2ef079	-0.01067745
22	0xbd55cd0f	-0.052197512
23	0xbb83c843	-0.004021676
24	0x3c235c6c	0.009970766
25	0x3c37f127	0.011226929
26	0x3cd37bd4	0.025815882
27	0xbc2816fd	-0.010259387
28	0xba9d727a	-0.0012012266
29	0xb9c0f4f3	-0.00036803595
30	0x3cc08d92	0.023505006
31	0x3cacb70a	0.021083374
32	0x3cb734d9	0.022364067
33	0x3baf457e	0.0053488603
34	0x3c3187fd	0.010835645
35	0x3d1581c1	0.036500696
36	0x3c46cc06	0.012133604
37	0xbd23d057	-0.03999361
38	0x3c6ff464	0.01464567
39	0x3d6a6775	0.05722757
40	0xbc6dccfe	-0.014514206
41	0x3cfe4a73	0.03104136
42	0xbd2c807b	-0.042114716
43	0xbb2fdd76	-0.0026834882
44	0x3cf99b5f	0.030469595
45	0xbd14e059	-0.036346767
46	0xbc53da3e	-0.012930451
47	0xbb2fd63c	-0.0026830574
48	0xbc67ecf8	-0.014155619
49	0xbce74a24	-0.028233595
50	0x3d0a9cda	0.03384099
51	0xbc2acf71	-0.010425434
52	0xbc965981	-0.018353226
53	0x3cdd1df1	0.026991816
54	0x3c214ef8	0.009845488
55	0xbc8cadc2	-0.017172698
56	0x3d04d9e4	0.03243436
57	0xbcc130c9	-0.023582833
58	0x3d4c949f	0.049946424
59	0x3d196cc0	0.037457228
60	0x3babc92c	0.0052424874
61	0x3c9931ab	0.018700441
62	0xbc58e45e	-0.013238041
63	0xbd07e78e	-0.033179812
64	0xbcc9c11e	-0.024628218
65	0x3c6d84f2	0.014497029
66	0x3cafcd4e	0.021460202
67	0xbba9d920	-0.005183354
68	0xbc5a0991	-0.013307945
69	0xbc937ba8	-0.0180033
70	0xbccc9ae5	-0.024976203
71	0xbc9ed831	-0.019390197
72	0x3d084955	0.03327306
73	0xbd49f562	-0.04930628
74	0x3ccf4615	0.025301972
75	0x3d0188ad	0.031624485
76	0xbc283672	-0.010266887
77	0xbb87e99f	-0.004147723
78	0xbc2688d2	-0.010164456
79	0xbd2de74c	-0.04245691
80	0x3c31c3a2	0.010849865
81	0xbca98ac7	-0.020696057
82	0x3cb8521c	0.02250009
83	0x3ad91052	0.001656065
84	0xbce47385	-0.027887115
85	0xbd644493	-0.05572946
86	0x3cfa26cf	0.030536084
87	0x3d44e0d5	0.04806598
88	0x3d20bd16	0.039242826
89	0x3c9711ff	0.018441198
90	0x3c5891c5	0.013218348
91	0x3ca261f8	0.019822106
92	0x3d04245b	0.032261234
93	0x397e84d2	0.00024272807
94	0x3b1dc713	0.0024074956
95	0x3c66a09e	0.01407638
96	0x3cd0c379	0.025483834
97	0xbc3f3787	-0.011670954
98	0x3cddc6ff	0.027072428
99	0x3d0dbb8b	0.034602683
100	0xbcd661a9	-0.026169615
101	0xbd409945	-0.04702117
102	0xbc123243	-0.008923116
103	0xbce0a32e	-0.02742156
104	0x3d5556f0	0.052084863
105	0xbc7d5542	-0.015462222
106	0xbce77268	-0.028252795
107	0x3cc15e09	0.02360441
108	0x3c9458df	0.018108783
109	0x3c9dbc65	0.019254873
110	0x3d418bcf	0.047252472
111	0xbd5023f7	-0.05081555
112	0x3cd977ea	0.026546437
113	0xbc96c190	-0.018402845
114	0x3c94f0f6	0.018181305
115	0xbcdd6d51	-0.027029665
116	0x3d52b705	0.051444072
117	0xbc2edc97	-0.01067271
118	0x3c1a31f4	0.009411324
119	0xbd1af2f3	-0.03782935
120	0x3c9e838e	0.01934984
121	0xbd2316b8	-0.03981659
122	0x3c8c86f3	0.017154193
123	0x3d42875c	0.04749237
124	0x3d23d81b	0.040001016
125	0x3cc79444	0.02436269
126	0xbcb15c78	-0.021650538
127	0x3bcf9737	0.006335165
128	0x3c18db07	0.009329564
129	0xbd5a571e	-0.053305738
130	0x3cc33beb	0.023832282
131	0xbd2519ea	-0.040307917
132	0x3ca7ae1e	0.020468768
133	0x3d4aa203	0.049470913
134	0xbc924581	-0.017855408
135	0x3c7005b3	0.014649796
136	0x3d5efc5a	0.05443988
137	0x3d4a869b	0.049444776
138	0x3d59f88d	0.053215552
139	0xbccb8cc7	-0.024847401
140	0x3b9239a2	0.004462437
141	0xbd4dc921	-0.05024064
142	0x3abef2b0	0.0014568176
143	0xbd554d48	-0.052075654
144	0x3bb4c296	0.0055163605
145	0x3c88e55d	0.016710931
146	0xbd483ba3	-0.048885
147	0xbb26c2e8	-0.0025445763
148	0xbcba5329	-0.022744732
149	0x3d1ba079	0.037994836
150	0xbc3a9f49	-0.011390516
151	0x3cb1472d	0.021640385
152	0xbd13800e	-0.036010794
153	0x3ba0a1f5	0.0049021193
154	0x3d04f423	0.03245939
155	0x3b97ae5f	0.004628941
156	0xbc8b2c3a	-0.016988862
157	0xbccb2a6a	-0.024800498
158	0x3cb24df5	0.021765688
159	0x3c8ecaa9	0.01743062
160	0x3c32e3c6	0.010918563
161	0x3d1f00d4	0.03881915
162	0xbc25462f	-0.010087534
163	0xbcaee558	-0.021349594
164	0x3c352773	0.011056769
165	0x3ce7de66	0.02830429
166	0xbd75a9df	-0.059976455
167	0xbcee124b	-0.029061457
168	0x3c140949	0.009035417
169	0x3d12f157	0.03587469
170	0x3cd6978c	0.02619531
171	0x3c3168da	0.010828221
172	0xbd4ec500	-0.050480843
173	0xbce83cff	-0.028349398
174	0x3cc9be11	0.024626764
175	0x3c0886f5	0.0083329575
176	0x3ccd4cac	0.025060974
177	0x3d1ad08b	0.03779654
178	0x3cdd48d2	0.027012262
179	0xbcaca54d	-0.021074915
180	0xbcddba4e	-0.027066376
181	0xbc2c868e	-0.010530127
182	0xbad19d50	-0.0015992317
183	0xbbab5a4f	-0.0052292715
184	0xbc317a16	-0.01083233
185	0x3bbb1dac	0.0057103243
186	0x3d089482	0.033344753
187	0xbcff68a7	-0.031177832
188	0x3cc085bc	0.02350127
189	0xbd4236ee	-0.047415666
190	0x3b2ae187	0.0026074366
191	0xbd3a34f7	-0.045460667
192	0x3d3b0876	0.045662366
193	0xbd26b557	-0.040700283
194	0xbccea94c	-0.025227211
195	0x3cc2b80e	0.023769405
196	0x3c9ac97c	0.018894903
197	0x3d1bcb5a	0.038035728
198	0x3c71cc65	0.014758204
199	0xbd29a30c	-0.04141526
200	0xbd0f36a0	-0.034964204
201	0x3d0bd97b	0.034142952
202	0xbd47016b	-0.048585337
203	0x3d37c020	0.04486096
204	0xbc09ea0e	-0.008417619
205	0x3c151226	0.009098565
206	0xbb0c3673	-0.002139476
207	0xbc4d6865	-0.012537097
208	0xbc48bf17	-0.012252591
209	0x3c707d04	0.014678244
210	0xbc0f673c	-0.00875264
211	0x3c09c960	0.008409828
212	0x3d2b3511	0.041798655
213	0x3b93489c	0.0044947397
214	0xbd1fc50c	-0.039006278
215	0xbd1a0e21	-0.03761113
216	0x3d0334f5	0.032032926
217	0x3c8ecd2d	0.01743182
218	0x3c1ca863	0.009561631
219	0xbccab700	-0.024745464
220	0xbd26b787	-0.04070237
221	0x3d311bd3	0.043239426
222	0xbd3faed9	-0.046797607
223	0xbcca1d14	-0.024672069
224	0x3ca6144d	0.020273352
225	0x3d3340ea	0.04376308
226	0xbc15577a	-0.009115094
227	0xbd26a554	-0.040685013
228	0x3c89154f	0.016733794
229	0x3b79b4df	0.0038102192
230	0xbbd93774	-0.006628925
231	0xbd3628f8	-0.044472665
232	0x3d28da9b	0.041224103
233	0x3c0c5069	0.008564093
234	0x3cb276af	0.021785108
235	0x3ca39a05	0.019970903
236	0x3d1f2c7c	0.038860783
237	0xbcaf9f6d	-0.021438325
238	0x3ad6964a	0.0016371694
239	0xbd152e5c	-0.036421165
240	0xbd49d06a	-0.049271025
241	0xbcb340bd	-0.021881456
242	0x3c9c0a00	0.019047737
243	0xbce6a773	-0.028156018
244	0x3d08d4ba	0.033405997
245	0x3c0fb437	0.008770994
246	0xbca353b6	-0.019937377
247	0x3cabea83	0.020985847
248	0x3d08bb3e	0.033381693
249	0xbcb6bdd6	-0.022307318
250	0x3ce41da6	0.027846169
251	0x3d050740	0.032477617
252	0x3d34113a	0.04396174
253	0xbcf0cd95	-0.029394904
254	0x3d4e21f2	0.05032534
255	0x3bba4a6c	0.0056851413

feature_extractor.7.bias f4 [120]
0	0x3ca95bc4	0.02067364
1	0x3d139cd9	0.036038253
2	0x3ca5e28b	0.020249626
3	0x3d0391fb	0.03212164
4	0x3d2c3f8b	0.042052787
5	0xbd023c1d	-0.03179561
6	0x3d13a5f2	0.03604693
7	0xb8bd1718	-9.016524e-05
8	0xbcffc01d	-0.031219536
9	0x3b7cc854	0.0038571553
10	0x3cbc0c6e	0.022955146
11	0xbce537ad	-0.02798065
12	0xbd1b8147	-0.037965085
13	0xbd4a0e3a	-0.049329974
14	0xbcdacb28	-0.0267082
15	0xbd255a24	-0.040369168
16	0x3cf557db	0.02994912
17	0xbcb0afc4	-0.021568187
18	0xbd3907ff	-0.04517364
19	0xbcf2be78	-0.029631838
20	0xbc35c443	-0.011094156
21	0x3cfc2867	0.030780984
22	0x3d12814e	0.035767846
23	0x3c865d86	0.016402017
24	0x3d2bbc23	0.041927468
25	0xbd226599	-0.039647672
26	0xbcb1f0a7	-0.021721197
27	0x3d12490c	0.035714194
28	0xbc8ac487	-0.016939415
29	0x3c77360b	0.015088568
30	0xbc4e0a27	-0.012575663
31	0x3cd2c106	0.025726806
32	0xbd473e0e	-0.048643164
33	0x3cb65e1d	0.022261674
34	0xbce836c0	-0.02834642
35	0xbceecb15	-0.029149571
36	0x3d1afac7	0.037836816
37	0xbcd3172c	-0.025767885
38	0x3bde3281	0.006780923
39	0x3a897f2d	0.0010490172
40	0xbd116882	-0.035500057
41	0x3ce46029	0.027877884
42	0xbd127237	-0.035753455
43	0xbc91a1df	-0.017777381
44	0xbd44128f	-0.04786926
45	0xbc40ac91	-0.011759893
46	0x3c7d44ed	0.015458328
47	0x3c58d5bd	0.013234553
48	0x3cc0f9da	0.023556639
49	0xbc8b7d6a	-0.017027576
50	0x3c96dd5b	0.018416097
51	0xbc491912	-0.012274044
52	0x3d29ba1e	0.04143726
53	0xbceef4fa	-0.029169548
54	0xbb600647	-0.003418343
55	0x3a83ffce	0.0010070743
56	0x3d15515e	0.03645455
57	0xbc7ae280	-0.015312791
58	0xbd1de718	-0.038550466
59	0x3c761d3b	0.0150216175
60	0x3d3da5b6	0.046300612
61	0xbd0d3c24	-0.034481183
62	0xbc87a0fc	-0.016556256
63	0xbc712477	-0.014718167
64	0x3d0a9ad1	0.03383905
65	0x3be14502	0.0068746815
66	0xbd2f22fb	-0.04275797
67	0x3d1eb0d4	0.038742855
68	0xbc5c753b	-0.013455684
69	0xbd406716	-0.04697331
70	0x3d41f84a	0.047355928
71	0xbc2fc4ae	-0.010728044
72	0x3cb18d71	0.02167389
73	0x3a1afed3	0.00059126056
74	0x3d13aab7	0.03605148
75	0xbcb30cea	-0.021856744
76	0xbc77fa6b	-0.015135388
77	0xbcc8f8c8	-0.02453269
78	0xbd02ef8f	-0.031966742
79	0xbd01de92	-0.0317064
80	0x3ce252d7	0.027627392
81	0xbd07f96e	-0.03319686
82	0xba6988e8	-0.0008908645
83	0x3bdccddc	0.0067384075
84	0x3d51f379	0.051257584
85	0xbc912ede	-0.017722543
86	0xbc86beae	-0.016448345
87	0x3cc8bdc5	0.024504552
88	0x3c39c6a7	0.011338866
89	0x3cb25068	0.021766856
90	0x3d2c0043	0.041992437
91	0xbd25deda	-0.04049573
92	0x3c654982	0.013994576
93	0xba9e65fe	-0.0012084839
94	0xbd392c50	-0.045208275
95	0xbbc10662	-0.0058906535
96	0x3c71229f	0.014717727
97	0x3cec16c4	0.02881945
98	0x3b279449	0.0025570563
99	0xbd09da36	-0.033655368
100	0xbc5eab89	-0.013590702
101	0x3d2e329e	0.04252874
102	0x3cc648a4	0.02420456
103	0xbd1477f3	-0.036247205
104	0x3c5949e7	0.013262249
105	0xbc24de7f	-0.010062813
106	0x3c25026f	0.010071381
107	0x3d02f08e	0.031967692
108	0xbcd0524f	-0.025429873
109	0xbb1145e8	-0.0022166912
110	0x3d2382fb	0.039919835
111	0xbbe1ef61	-0.0068949913
112	0x3d48b986	0.049005054
113	0xba84ee4e	-0.0010141821
114	0x3c00aebd	0.007854161
115	0xbc0d3334	-0.008618165
116	0x3cb4af92	0.022056375
117	0xbc6cd0b2	-0.014454054
118	0x3d552929	0.052041207
119	0x3d33f8e8	0.043938547

classifier.0.weight f4 [84, 120]
0	0x3c1de66c	0.009637456
1	0xbd55b637	-0.052175727
2	0x3ccadb15	0.02476267
3	0xbba764ef	-0.005108468
4	0xbd9cc672	-0.07655038
5	0x3cf3134e	0.029672291
6	0xbd7e1509	-0.06203178
7	0xbd24eec6	-0.040266775
8	0xbd873fc7	-0.066039614
9	0x3d83b559	0.06431074
10	0x3d5262b5	0.051363666
11	0xbd55fe76	-0.052244626
12	0x3d86207e	0.06549166
13	0xbd8b7a7a	-0.0681047
14	0x3c06e739	0.008233839
15	0xbd82c0b2	-0.0638441
16	0x3d66aa17	0.056314554
17	0xbd22b832	-0.039726444
18	0xbc85b002	-0.016319279
19	0x3d086d1a	0.033307172
20	0xbda8ef75	-0.08248798
21	0x3d822a7a	0.06355758
22	0x3bc1771b	0.005904091
23	0xbd62b0b4	-0.0553443
24	0x3a8f2cc1	0.0010923372
25	0xbd2ba98d	-0.041909743
26	0x3cba1452	0.022714768
27	0x3d52d4b2	0.051472373
28	0xbda077eb	-0.078353725
29	0x3d9074bc	0.07053515
30	0xbcccf18a	-0.025017519
31	0x3d9dbf05	0.0770245
32	0x3b8edf1f	0.004360094
33	0x3d1c5401	0.03816605
34	0xbd2f46cd	-0.04279213
35	0x3c8ad388	0.01694657
36	0xbb8abb89	-0.0042337817
37	0xbc9dc328	-0.019258097
38	0xbd334719	-0.043768976
39	0x3b2c70d3	0.0026312366
40	0xbdb82651	-0.08991683
41	0xbd577399	-0.052600477
42	0xbcef3a95	-0.029202739
43	0x3b1185ca	0.0022204989
44	0xbd7770f0	-0.06041044
45	0xbd35ee7a	-0.044416882
46	0x3c4dce28	0.0125613585
47	0x3b074e54	0.0020646052
48	0x3c3efc80	0.01165688
49	0xbd4718a7	-0.048607495
50	0x3d9816f4	0.07426253
51	0xbcba86dc	-0.022769384
52	0xbd9e1c78	-0.07720274
53	0x3d567772	0.052360006
54	0x3c377eff	0.011199712
55	0xbb49d40b	-0.0030796553
56	0xbda8736f	-0.08225142
57	0xbd4dcc4d	-0.050243665
58	0x3d47b94a	0.04876069
59	0xbc82be28	-0.015959814
60	0xbd69b1d9	-0.057054374
61	0x3d897e30	0.067135215
62	0xbd97b0ed	-0.07406793
63	0x3d883347	0.066504054
64	0xbcfc8ad4	-0.030827917
65	0x3d1d1658	0.038351387
66	0x3c46812d	0.012115759
67	0x3dcbf49a	0.099587634
68	0x3cfe9f2a	0.031081755
69	0xbbc9b1a1	-0.006155208
70	0x3dafdcdc	0.085870475
71	0xbd94bbc6	-0.072623774
72	0x3c608426	0.013703382
73	0x3cf3f882	0.029781584
74	0xbd5a74a5	-0.053333897
75	0xbd532e94	-0.051558092
76	0xbd33b8ce	-0.043877415
77	0xbd437409	-0.04771808
78	0xbc4a7a1d	-0.012358216
79	0xbd66db4f	-0.056361493
80	0x3d8ff3e3	0.070289396
81	0xbb13da9b	-0.002256072
82	0x3dbfe6b2	0.093701735
83	0x3c9fdf48	0.019515648
84	0xbbe679b9	-0.0070335534
85	0x3c02696d	0.007959706
86	0xbd36efbb	-0.04466222
87	0xbd246338	-0.040133685
88	0x3d17fc8d	0.037106086
89	0xbc39fd0f	-0.011351838
90	0x3c24b625	0.010053192
91	0xbc0e1cd0	-0.008673862
92	0x3db63fc7	0.08898883
93	0xbdc34159	-0.095339485
94	0xbd6d158f	-0.057881888
95	0xbd4126c2	-0.047156103
96	0xbcebeb1a	-0.028798629
97	0x3d9323d8	0.07184571
98	0x3d7da219	0.061922166
99	0xbd6e88d6	-0.058235966
100	0xbce949fc	-0.028477661
101	0x3dcd2bfb	0.10018154
102	0xbd912f38	-0.070890844
103	0x3c1a8860	0.009431928
104	0x3d16c8ba	0.03681252
105	0x3d2c234b	0.042025845
106	0x3dba9c49	0.0911184
107	0x3d73c5ec	0.059514925
108	0x3c8021d5	0.015641132
109	0xbdb451ad	-0.08804641
110	0xbd260952	-0.040536232
111	0xbc81454e	-0.015780117
112	0xbd883def	-0.06652438
113	0xbd2532ef	-0.040331777
114	0x3c1f1bd1	0.009711222
115	0xbd111146	-0.035416864
116	0x3c6e49e7	0.014543987
117	0x3d152eee	0.03642171
118	0x3d760918	0.060067266
119	0xbd8f0f1e	-0.06985305
120	0x3da55d0b	0.08074387
121	0x3d148b47	0.036265638
122	0x3bfa819b	0.0076448447
123	0xbcd94182	-0.026520494
124	0xbce2e358	-0.027696297
125	0x3b5b48d5	0.003346016
126	0xbc3c6825	-0.011499439
127	0xbdb11059	-0.08645696
128	0x3c69e025	0.014274632
129	0xbd765c29	-0.060146485
130	0xbd9ee0d2	-0.07757725
131	0x3d5c8abd	0.05384325
132	0xbc7a4bee	-0.015276892
133	0xbcc42e9b	-0.023948004
134	0xbc4c5206	-0.012470728
135	0xbd1f029b	-0.038820844
136	0x3d424c4d	0.047436047
137	0xbb520c8f	-0.0032050943
138	0xbd271845	-0.04079463
139	0x3daf0d09	0.08547408
140	0x3d87bed5	0.06628195
141	0x3d8c77e0	0.06858802
142	0xbdb9d6c8	-0.090741694
143	0x3c9034dd	0.017603332
144	0x3b991fdf	0.004672989
145	0x3da0b474	0.07846919
146	0x3cca5364	0.024697967
147	0x3c9710a6	0.018440556
148	0x3d720636	0.059087954
149	0x3d228d18	0.03968534
150	0xbda76eb3	-0.08175411
151	0xbdb556b8	-0.08854431
152	0xbd4c9b50	-0.049952805
153	0xbca4b8b8	-0.020107612
154	0x3cb2ce16	0.021826785
155	0x3d6aa6bb	0.057287913
156	0xbda776d2	-0.0817696
157	0xbc5f5a91	-0.013632433
158	0xbd9284c3	-0.071542285
159	0x3da142c8	0.07874066
160	0x3d680cd6	0.056652866
161	0x3d56d7cf	0.052451905
162	0xbc268114	-0.010162611
163	0xbd6c1a63	-0.05764235
164	0xbd3bcc68	-0.045849234
165	0xba9e1e74	-0.0012063519
166	0x3a1256f3	0.00055824145
167	0xbad8f645	-0.0016552886
168	0x3da104ad	0.0786222
169	0xbd421381	-0.04738188
170	0x3d8d5f82	0.06902982
171	0x3d256cda	0.040387012
172	0xbd926109	-0.07147414
173	0xbd2957d8	-0.04134354
174	0xbd6312fb	-0.055438023
175	0xba3502be	-0.00069050107
176	0x3d464302	0.048403747
177	0x3d546b1e	0.051859967
178	0xbc9d2a91	-0.019185336
179	0x3da0c725	0.07850484
180	0x3d30409d	0.04303037
181	0x3c71da6e	0.01476155
182	0xbd9751de	-0.07388662
183	0xbd9e4911	-0.0772878
184	0x3d68768e	0.056753688
185	0x3d475f5c	0.048674926
186	0xbd33a77c	-0.043860897
187	0xbd8c17c1	-0.06840468
188	0x3b821999	0.0039703366
189	0xbdaa9712	-0.083295956
190	0x3d7b6b0a	0.061381377
191	0x3d4473b5	0.04796191
192	0x3ccecbc5	0.02524365
193	0xbd85b831	-0.06529272
194	0xbc64d62f	-0.013967081
195	0xbd3c153d	-0.045918692
196	0x3d36c7d5	0.04462417
197	0x3db1df68	0.086851895
198	0x3b52fbbb	0.00321935
199	0xbcc03db4	-0.023466922
200	0x3d806f57	0.062712364
201	0xbcadb8bf	-0.021206258
202	0xbd2f3063	-0.042770755
203	0xbd9c966a	-0.07645877
204	0x3c46dc2c	0.012137454
205	0x3d93659f	0.07197117
206	0x3d68850e	0.056767516
207	0x3d04335f	0.032275554
208	0x3d809f32	0.06280364
209	0xbd954181	-0.072878845
210	0x3db5370c	0.0884839
211	0xbcf43d14	-0.02981428
212	0xbdb50070	-0.08837974
213	0x3d2843c2	0.041080244
214	0x3cb4cacc	0.022069357
215	0xbca2cd73	-0.019873356
216	0xbdb144e1	-0.08655716
217	0x3a8112c9	0.0009847517
218	0xbd39eba4	-0.04539074
219	0xbd6345d0	-0.0554865
220	0x3da74ccb	0.08168944
221	0x3d2f0b1d	0.042735208
222	0xbda3357e	-0.07969187
223	0xbd20ba35	-0.03924008
224	0xbd378f5b	-0.04481445
225	0xbda850c8	-0.08218533
226	0xbd94537f	-0.07242488
227	0x3db999e2	0.09062554
228	0x3bac16d9	0.005251747
229	0x3d972174	0.073794276
230	0x3c7bcaa7	0.01536814
231	0x3db4202d	0.087951995
232	0xbd623c2c	-0.055233166
233	0x3cbee429	0.023302155
234	0xbd39f77a	-0.045402028
235	0x3d04b808	0.03240207
236	0x3d901b22	0.07036425
237	0x3d8c5603	0.06852343
238	0xbd7b96bd	-0.061423052
239	0xbb6ec262	-0.003643178
240	0x3c66f483	0.014096382
241	0x3ccc5f84	0.02494789
242	0xbd101a1f	-0.03518116
243	0x3ce82cc1	0.028341653
244	0xbd92b29f	-0.071629755
245	0xbd0912cc	-0.03346519
246	0xbcbb94dc	-0.02289813
247	0xbc9a87c7	-0.018863572
248	0xbd8dacf8	-0.06917757
249	0x3d7b547e	0.061359875
250	0xbc6b5744	-0.014364067
251	0x3d323bab	0.043513935
252	0xbb21e9b4	-0.0024705948
253	0x3ba53422	0.005041615
254	0x3daad167	0.083407216
255	0x3d8d28d4	0.06892553

classifier.0.bias f4 [84]
0	0xbc0949f7	-0.008379451
1	0xbdb0fd9e	-0.08642124
2	0x3d31fc5e	0.043453567
3	0x3dac41b1	0.08410967
4	0x3cad01ca	0.021119017
5	0x3d2683de	0.040653102
6	0x3da1ab3d	0.07893989
7	0x3d5e85c5	0.05432679
8	0xbd270a19	-0.040781114
9	0x3d4472e5	0.047961134
10	0xbd9c17f0	-0.07621753
11	0x3db91c6b	0.090386234
12	0x3d796ac9	0.060892854
13	0xbd452299	-0.048128698
14	0xbcd8bdc7	-0.02645768
15	0xbd689f8b	-0.056792777
16	0xbd17b1cf	-0.037034806
17	0xbd6939b6	-0.056939803
18	0xbdae00a7	-0.08496218
19	0xbc62710a	-0.013820896
20	0x3d19d1c5	0.037553567
21	0x3d650e74	0.055921987
22	0xbcf4c613	-0.029879605
23	0xbd8ba147	-0.068178706
24	0x3d5af6fb	0.053458195
25	0x3b2f4d95	0.0026749123
26	0xbaa833d3	-0.0012832828
27	0x3d403027	0.04692092
28	0xbcd23550	-0.025660187
29	0x3d30c300	0.043154716
30	0x3cfcbaf0	0.030850857
31	0xbc61934b	-0.013768028
32	0x3a81e477	0.0009910007
33	0xbcc8106d	-0.024421895
34	0xbd248fbc	-0.04017614
35	0xbbb6972c	-0.0055722203
36	0xbd9b0348	-0.07568985
37	0xbd91ae8e	-0.07113372
38	0x39990f5b	0.00029193875
39	0xbdb16857	-0.08662479
40	0xbc25ab10	-0.010111585
41	0xbda78612	-0.08179869
42	0x3cf3abd1	0.029745014
43	0x3c82a72c	0.015948854
44	0xbd2d5200	-0.04231453
45	0xbab85442	-0.0014063197
46	0x3d3027be	0.04300665
47	0xbd9e1991	-0.0771972
48	0xbd9c52d9	-0.076329894
49	0x3cb29a5b	0.021802118
50	0x3cc99743	0.02460826
51	0x3d3aaf4c	0.045577332
52	0x3c49cc67	0.0123168
53	0xbdb8b2b1	-0.09018458
54	0xbd536a1d	-0.05161487
55	0xba641af2	-0.0008701525
56	0xbd34cd60	-0.044141173
57	0xbd0d4351	-0.034488026
58	0x3ca7215b	0.020401647
59	0xbd569713	-0.05239017
60	0x3c2d167d	0.010564444
61	0x3dc8ecd1	0.09810794
62	0x3db25619	0.08707828
63	0xbc3ebf0c	-0.011642229
64	0x3d6cf900	0.057854652
65	0xbd9965f5	-0.0749015
66	0x3d4e02b3	0.050295543
67	0x3c3ae138	0.011406235
68	0x3da55dcd	0.08074532
69	0x3d84b86c	0.06480488
70	0xbdad4fb7	-0.0846247
71	0x3daae73e	0.08344887
72	0x3d886710	0.066602826
73	0x3d9b662c	0.07587847
74	0x3d571883	0.05251361
75	0xbd379943	-0.044823896
76	0xbb81678b	-0.003949111
77	0xbb9987a8	-0.004685361
78	0x3d2d08c9	0.042244706
79	0x3d383c08	0.044979125
80	0xbd1ab550	-0.03777057
81	0xbca1bf14	-0.019744433
82	0xbd1e963b	-0.03871749
83	0x3b2ecd37	0.002667261

classifier.2.weight f4 [10, 84]
0	0xbdcf282a	-0.101150826
1	0xbdb0e1fc	-0.08636853
2	0x3da2af67	0.079436116
3	0xbccec7d6	-0.025241774
4	0x3c4f34ed	0.012646896
5	0xbd45a4e7	-0.048252966
6	0x3bb70acc	0.005586004
7	0x3d027d59	0.031857822
8	0xbda59f6e	-0.080870494
9	0x3dd2c0bc	0.102906674
10	0xbda14092	-0.07873644
11	0xbcbccd26	-0.023047041
12	0x3d461d13	0.04836757
13	0xbddc96bd	-0.107709385
14	0x3da2978f	0.07939064
15	0x3dbc9aad	0.092091896
16	0xbe2be858	-0.16787851
17	0xbc933fbe	-0.01797473
18	0xbdb06f6a	-0.086150005
19	0x3e23df7a	0.16003218
20	0xbdeda852	-0.1160437
21	0xbe18ce45	-0.14922436
22	0xbd9c97ab	-0.07646116
23	0x3d863f5a	0.06555052
24	0x3ca481fe	0.020081516
25	0xbde0e175	-0.109805025
26	0xbce1b804	-0.027553566
27	0xbd9177b0	-0.07102907
28	0x3e15b7a9	0.14620842
29	0xbdd6b882	-0.10484411
30	0x3cc54cab	0.02408441
31	0x3d799fae	0.060943298
32	0xbe23ddb6	-0.16002545
33	0x3cd1ba16	0.025601428
34	0xbc24e614	-0.0100646205
35	0x3cb4aada	0.022054125
36	0xbd672cb7	-0.056439128
37	0xbdff44e2	-0.1246431
38	0xbb831341	-0.004000098
39	0xbc8c1909	-0.017101781
40	0xbd164a4a	-0.03669194
41	0x3e1df7b5	0.15426524
42	0xbd874b80	-0.06606197
43	0xbdb4143e	-0.087929234
44	0x3cecbb5e	0.028897937
45	0xbdd06085	-0.1017466
46	0x3dd3e0be	0.103456005
47	0x3e341789	0.17587103
48	0x3df4d3f5	0.1195449
49	0x3db02371	0.0860051
50	0xbe434bd8	-0.19071901
51	0x3d1315d9	0.035909507
52	0xbe1442bc	-0.14478582
53	0xbd22de38	-0.039762706
54	0xbdaf9b5e	-0.08574556
55	0xbdb115bb	-0.08646723
56	0x3d945879	0.07243437
57	0x3d97e04e	0.074158296
58	0x3d356a2c	0.044290707
59	0x3d3a3181	0.045457367
60	0x3e2cbdc0	0.16869259
61	0x3d55396a	0.052056707
62	0xbd965d47	-0.0734201
63	0x3d9ea969	0.07747156
64	0xbd1c2c03	-0.03812791
65	0xbc1d4b42	-0.009600462
66	0x3d50ed0f	0.051007327
67	0x3c387285	0.011257772
68	0x3d99a780	0.07502651
69	0xbcadca5e	-0.02121466
70	0xbd680fe0	-0.056655765
71	0x3ccaab34	0.02473984
72	0x3dc16ddd	0.09444783
73	0xbe1ba819	-0.15200843
74	0xbe09d422	-0.13459828
75	0x3d00a270	0.031404912
76	0x3d73f9de	0.059564464
77	0x3ca478d5	0.020077148
78	0xbe0c98a7	-0.13730107
79	0xbe06094a	-0.13089481
80	0xbaa43b62	-0.0012529904
81	0x3d19018f	0.037355002
82	0xbe2dbb55	-0.16965993
83	0x3dd5f38b	0.10446843
84	0xbddc18ac	-0.10746893
85	0x3d0bb886	0.034111522
86	0xbcc8d3da	-0.024515081
87	0xbdc9e246	-0.09857611
88	0x3cd3ad60	0.025839508
89	0x3bcfda96	0.006343196
90	0x3dc620bb	0.096742116
91	0x3e121819	0.14267005
92	0x3e3b901d	0.18316694
93	0x3df47f6d	0.11938367
94	0xbe132944	-0.1437121
95	0x3e1606d0	0.14651036
96	0x3e3ad6a7	0.18245946
97	0xbd9beff8	-0.0761413
98	0x3dffcb27	0.1248992
99	0xbe5f2e09	-0.21794905
100	0xbdfef3ed	-0.12448869
101	0x3dd2031f	0.102545016
102	0x3dec10b7	0.115266256
103	0x3c816e21	0.015799584
104	0xbdbe671e	-0.09297012
105	0x3b0f3a87	0.0021854953
106	0x3da2cb56	0.079489395
107	0x3cdcb92f	0.026943771
108	0x3da059aa	0.07829602
109	0xbd33629c	-0.043795213
110	0x3daba11d	0.08380339
111	0xbd2d5824	-0.042320386
112	0x3d59fc37	0.053219046
113	0x3d2f1fce	0.04275494
114	0xbe03386a	-0.12814489
115	0x3dbf3020	0.09335351
116	0x3db1dc76	0.08684628
117	0xbdf3c33a	-0.11902471
118	0xbc22d9eb	-0.009939651
119	0x3dc553a4	0.09635094
120	0x3da16aab	0.078816734
121	0x3de4be11	0.11169065
122	0x3d90adde	0.070644125
123	0xbd28c3c2	-0.041202314
124	0x3d2cb380	0.042163372
125	0xbdc3f054	-0.09567323
126	0xbbca4578	-0.006172832
127	0xbd7d8418	-0.061893553
128	0xbd6fc4e6	-0.058537386
129	0x3e38fabd	0.18064399
130	0xbdb68d35	-0.08913652
131	0x3e20586c	0.1565873
132	0x3de426e5	0.11140231
133	0x3d88938e	0.06668769
134	0x3decf28b	0.11569699
135	0xbde04623	-0.109508775
136	0x3db71d5d	0.089411475
137	0xbc8f61d0	-0.017502695
138	0xbdd01d29	-0.10161812
139	0xbbf1030b	-0.007355099
140	0x3cc5da91	0.024152072
141	0xbdb2b8f5	-0.08726684
142	0xbd6188aa	-0.055061974
143	0x3dbbc23f	0.09167909
144	0xbd8e2464	-0.06940535
145	0x3ddf739c	0.109107226
146	0xbdb8dd92	-0.09026636
147	0xbde2fed9	-0.110837646
148	0x3dca96be	0.09892033
149	0x3dc943b0	0.098273635
150	0x3e026c04	0.12736517
151	0x3debd87e	0.11515902
152	0x3e1457bf	0.14486597
153	0x3d817852	0.063217774
154	0x3bf93744	0.007605465
155	0x3cb8c182	0.02255321
156	0x3d8113f4	0.06302634
157	0x3d8f5003	0.06997683
158	0xbd78a33f	-0.06070256
159	0x3d708e76	0.05872961
160	0xbda6c091	-0.08142198
161	0xbdd1637d	-0.10224054
162	0x3ccc0b80	0.024907827
163	0x3de8fba7	0.11376124
164	0x3c6a5916	0.014303466
165	0x3dfd41f4	0.12366095
166	0xbdb9b38d	-0.0906745
167	0xbe13046b	-0.14357154
168	0xbccd3ba4	-0.025052853
169	0xbdc9e7a8	-0.09858638
170	0x3df6da83	0.120533966
171	0xbe22f450	-0.1591351
172	0x3dee0d32	0.116236106
173	0x3df496a8	0.11942798
174	0x3dc08020	0.09399438
175	0x3dc19cd6	0.09453742
176	0x3c136e5b	0.008998479
177	0xbc200c3f	-0.009768545
178	0x3e067a5f	0.13132618
179	0xbd9fd2ec	-0.07803902
180	0xbd0c2a38	-0.03421995
181	0x3d912962	0.07087971
182	0xbdd52dcb	-0.10409125
183	0x3d0ca388	0.034335643
184	0x3df9b15b	0.12192031
185	0x3d413e19	0.04717836
186	0xbdb9b545	-0.090677775
187	0xbcb76de4	-0.022391267
188	0xbe2789ab	-0.1636111
189	0x3d80ff36	0.062986776
190	0x3e0495b7	0.12947737
191	0x3dd9f4af	0.10642373
192	0x3b94052a	0.004517217
193	0x3d8fd77e	0.07023524
194	0x3dd13e57	0.102169685
195	0x3e3442f9	0.17603673
196	0x3b403ebe	0.0029334272
197	0x3dd4cb25	0.10390309
198	0xbd9a34c4	-0.075295955
199	0x3d258388	0.04040864
200	0xbe093708	-0.13399899
201	0xbdaa0f5f	-0.08303713
202	0xbdee48c8	-0.11634976
203	0xbd5912ef	-0.052996572
204	0xbcace58b	-0.021105548
205	0xbda3901c	-0.07986471
206	0xbe34c3c2	-0.176528
207	0x3d9dc8f0	0.077043414
208	0xbc93656b	-0.017992696
209	0x3d00ab36	0.03141328
210	0x3e1caabd	0.15299506
211	0x3df7e17b	0.12103554
212	0xbe0f33ad	-0.13984556
213	0xbd61b832	-0.055107303
214	0xbd6ca852	-0.05777771
215	0x3d0dc979	0.034615967
216	0x3c7ad3a3	0.015309247
217	0x3c1d664c	0.009606909
218	0x3cc99080	0.024605036
219	0x3e2f280a	0.17105117
220	0x3d435f8b	0.04769854
221	0x3db31517	0.08744257
222	0xbe235490	-0.15950227
223	0x3c632cc8	0.013865657
224	0x3d53060b	0.051519435
225	0x3d9dfc64	0.07714155
226	0xbddf3a19	-0.10899753
227	0xbd2777d4	-0.04088576
228	0x3d9da76a	0.07697947
229	0x3d22d9e8	0.039758593
230	0xbe1f3c26	-0.15550289
231	0xbe178c54	-0.14799625
232	0xbd4d3f7e	-0.05010938
233	0xbd4c7d9c	-0.049924478
234	0xbdeb7713	-0.11497321
235	0xbdc6bbfa	-0.097038224
236	0x3e3f5ce0	0.18687773
237	0xbd2d2e3c	-0.04228042
238	0x3d57c93d	0.05268215
239	0x3dc8b7b9	0.09800667
240	0x3c0904a7	0.008362926
241	0xbc6eaccb	-0.014567564
242	0x3dfddd17	0.12395685
243	0x3dfaa275	0.122380175
244	0x3c8dd0ff	0.017311571
245	0xbca718a0	-0.020397484
246	0x3cf99c62	0.030470077
247	0xbcda42da	-0.026643205
248	0xbdcbdccc	-0.09954223
249	0xbd325f41	-0.043547872
250	0x3e04aeaf	0.12957262
251	0xbe0d9b29	-0.1382872
252	0x3dc0ee16	0.09420411
253	0xbb0e3988	-0.0021701772
254	0x3c3aab71	0.011393414
255	0xbdd0bf3a	-0.101927236

classifier.2.bias f4 [10]
0	0xbc93457a	-0.017977465
1	0xbc222db6	-0.009898594
2	0xbcd9a7ba	-0.026569236
3	0x3cb799bf	0.022412179
4	0xbd06786e	-0.032829694
5	0x3d7391c8	0.0594652
6	0x3d5bbc33	0.053646278
7	0xbcf943fc	-0.030427925
8	0xbd88a999	-0.06672973
9	0x3d651202	0.055925377
