checkpoints/noise_rate_0.2/models/tsf/epoch121.pth (torch, 250639 bytes, 10 tensors)

feature_extractor.0.weight f4 [6, 1, 5, 5]
0.13972811 -0.056357462 -0.032046776 0.07717396 -0.21332972 0.18242775 0.030520868 0.16488317
0.06698707 -0.0034492472 0.104949735 0.08601565 0.15945846 -0.00038433654 0.048252825 -0.02822688
0.04444044 0.040343076 0.2354228 0.13644092 -0.1259569 -0.16407114 -0.054728176 -0.07290879
-0.020828988 0.09874943 0.24812365 0.18497553 -0.21536443 0.05580459 0.16109629 0.33687633
0.19801028 -0.23337509 -0.27062425 0.020238096 0.32873425 0.04752533 0.06695074 -0.13012864
0.28411084 0.040886465 0.25447145 0.05181218 -0.07354537 0.15131201 -0.021030368 0.17262344
0.046231538 0.078413226 -0.24765734 -0.1460294 0.064409435 -0.041571956 0.24543762 0.14910203
-0.0026286014 -0.09077074 0.21279521 0.15750661 -0.079642475 0.19974035 0.22053677 0.28238723
-0.046685115 0.052547034 0.08298801 0.10771299 -0.10587462 -0.13384546 0.18383108 0.02021723
0.143451 0.024944033 0.053786937 0.035813265 0.083555095 0.109905235 -0.18286894 0.10506646
-0.15379274 -0.14851916 0.028634842 -0.00035457683 0.17592598 -0.12721425 -0.16883494 0.18776451
0.0393158 0.19237907 0.063610844 -0.1250931 0.09605661 0.11396935 -0.08432288 -0.08978607
0.09803429 0.07947842 -0.048853867 -0.047913782 0.2399354 0.097641446 0.24695379 0.16909823
-0.121779144 -0.068317205 0.43335932 0.25875875 0.2812119 0.103473745 0.27183697 0.48674414
0.4694047 0.014414381 0.104496785 0.36494732 0.41925722 0.3358719 -0.023351012 -0.051469874
-0.0010141596 0.15141597 0.30001235 -0.028401133 0.21296957 -0.11252358 -0.15787186 0.025214586
0.23851378 0.29842398 -0.07588928 0.15883753 0.37126958 0.38273215 0.3071052 0.2441887
0.2832972 0.2785878 0.115328826 0.007029609 -0.018757101 0.07798802 0.032699868 0.26544118
0.21338797 -0.027265329 0.10408914 0.13331175 0.23278673 0.23775935
00000000: e314 0f3e 15d7 66bd 7b43 03bd 620d 9e3d
00000010: 1b73 5abe 57ce 3a3e e606 fa3c 22d7 283e
00000020: 8430 893d c40c 62bb e3ef d63d f928 b03d
00000030: 1449 233e c780 c9b9 c1a4 453d 0f3c e7bc
00000040: 2e07 363d c83e 253d ad12 713e 2bb7 0b3e
00000050: d8fa 00be 4402 28be a72a 60bd 3451 95bd
00000060: 8ea1 aabc 243d ca3d 2014 7e3e 3a6a 3d3e
00000070: 7e88 5cbe 5b93 643d 6df6 243e 0e7b ac3e
00000080: 35c3 4a3e e1f9 6ebe 438f 8abe 5dca a53c
00000090: db4f a83e eca9 423d 781d 893d 7140 05be
000000a0: fa76 913e 9178 273d 154a 823e 0239 543d
000000b0: f49e 96bd 89f1 1a3e e147 acbc 33c4 303e
000000c0: 485d 3d3d 1d97 a03d e399 7dbe bb88 15be
000000d0: 18e9 833d 5b47 2abd 0054 7b3e 34ae 183e
000000e0: 9d44 2cbb 02e6 b9bd fde6 593e 6a49 213e
000000f0: 981b a3bd bc88 4c3e 64d4 613e 0f95 903e
00000100: e438 3fbd 8f3b 573d 9ef5 a93d a198 dc3d
00000110: cbd4 d8bd c90e 09be 373e 3c3e 9b9e a53c
00000120: d2e4 123e 6e57 cc3c b14f 5c3d eeb0 123d
00000130: ef1e ab3d ff15 e13d ff41 3bbe 162d d73d
00000140: d87b 1dbe 6815 18be 9e93 ea3c 7fe6 b9b9
00000150: f125 343e 7444 02be 11e3 2cbe 5745 403e
00000160: 9b09 213d 05ff 443e 6746 823d 6818 00be
00000170: 54b9 c43d c368 e93d 79b1 acbd c2e1 b7bd
00000180: 34c6 c83d 95c5 a23d fe1a 48bd 3e41 44bd
00000190: a0b1 753e 3df8 c73d 74e1 7c3e 1628 2d3e
000001a0: 5867 f9bd e4e9 8bbd 46e1 dd3e 077c 843e
000001b0: 02fb 8f3e 0bea d33d 372e 8b3e 8736 f93e
000001c0: d055 f03e 4c2a 6c3c 6902 d63d 60da ba3e
000001d0: e2a8 d63e 67f7 ab3e 9f4a bfbc 13d2 52bd
000001e0: 8ded 84ba ca0c 1b3e 389b 993e 7ea9 e8bc
000001f0: b214 5a3e c372 e6bd 29a9 21be d28e ce3c
00000200: f53c 743e 07cb 983e d76b 9bbd 4ea6 223e
00000210: 0c17 be3e 78f5 c33e e53c 9d3e 9a0c 7a3e
00000220: 550c 913e 0fa3 8e3e 8531 ec3d a258 e63b
00000230: 7ea8 99bc 2fb8 9f3d 4cf0 053d e8e7 873e
00000240: 6082 5a3e 8a5b dfbc b02c d53d e082 083e
00000250: a55f 6e3e 3077 733e

feature_extractor.0.bias f4 [6]
-0.03780964 0.23947768 0.01497394 0.021339227 -0.05856472 0.007514115
00000000: 48de 1abd a339 753e 4255 753c 9acf ae3c
00000010: 8fe1 6fbd f738 f63b

feature_extractor.3.weight f4 [16, 6, 5, 5]
-0.037807785 -0.03061539 0.05828405 -0.024686968 -0.055113573 0.04766493 0.044392526 0.06702798
-0.034738183 0.02428107 -0.030443594 -0.011055305 -0.066898525 -0.043449238 -0.030516226 0.03375109
0.018650413 0.015023762 0.07032386 0.07266119 0.05608606 0.0057977806 -0.063686445 0.05431275
-0.018551981 -0.013215585 -0.04861302 0.019548833 -0.040925946 0.067418136 -0.09121773 -0.033702593
0.03497172 -0.045222964 0.013976978 -0.045691513 -0.01467509 0.036599517 0.04436058 -0.08004579
0.033535328 0.0891527 0.09970068 -0.08241154 -0.0034988853 -0.07398163 0.09588859 -0.010258193
0.01840429 -0.00901032 -0.008855849 0.00631993 0.013780039 0.033864345 0.010857103 0.03207492
-0.057407174 0.059432752 0.066189595 0.07171661 0.07175471 -0.042913012 -0.041229386 0.05295842
-0.06632151 0.085111625 -0.06793472 -0.073657304 0.016255192 -0.06256064 -0.013758875 0.0638795
0.047158692 0.06960672 -0.0133672925 -0.06579031 0.07915361 -0.0203547 -0.038186483 0.020631457
-0.05204328 0.05579803 0.04462626 -0.07190008 -0.06452302 0.0037501382 0.03290937 -0.008722116
-0.047709055 0.0034088115 -0.07175625 -0.055732388 -0.06591185 0.06497913 0.075140335 -0.025063943
0.0040057153 0.029968314 0.012942492 -0.036983695 0.04753155 0.09166148 0.042239398 -0.0042572953
0.07769354 0.08092551 0.018409422 0.14037177 0.015644355 -0.057833046 0.06411277 -0.0116013605
0.10506219 -0.094812304 -0.012571238 0.02400245 0.06402622 0.052483637 -0.095934644 -0.06825765
-0.08161194 0.020606494 -0.029302541 -0.038561545 -0.019861383 0.061068963 0.11295055 0.027425187
-0.03377388 -0.028303582 -0.032468837 0.11176522 -0.01607383 0.010656179 0.023327807 -0.021015903
0.07795285 0.020343648 -0.027464727 -0.04594231 -0.0028588832 -0.00058467523 -0.09309297 -0.083035365
-0.015262472 0.0025775332 0.032829814 -0.060492232 -0.028384967 -0.022554938 -0.07589758 0.08001578
0.027324388 0.08253082 0.0015531316 -0.018801102 -0.05990575 -0.0035857372 0.06786438 -0.07628524
-0.027440473 0.058740716 0.06128064 0.044008344 -0.010526519 -0.020694185 -0.038862053 -0.04105563
0.050698556 -0.00031630485 -0.031389102 0.02497984 -0.04996692 0.0048695533 0.06770963 0.01706274
0.07853399 -0.04222252 0.01561807 -0.017211761 -0.039471716 -0.025556456 0.069399826 0.047099333
-0.04174729 -0.044754993 -0.07301231 0.100349426 0.012828924 0.0072933976 -0.019690199 -0.06068877
-0.08117232 -0.018904733 0.09342675 0.019039277 -0.031923298 -0.003097893 0.0752713 0.08272503
0.07794851 0.027526792 0.05345179 0.006921677 -0.055631764 -0.06535568 0.073468 0.0015254831
0.022803932 -0.0031749583 -0.05517306 -0.03215513 0.012568596 -0.021600852 -0.069192305 0.011245306
-0.00015732193 0.0029047744 0.06561348 0.040992748 -0.023224065 0.12331623 0.10706981 0.03700118
-0.010104333 -0.06730416 0.0707984 -0.014464502 -0.058367 0.05389263 0.043671925 0.039546475
-0.013624925 -0.034901876 0.0143036 0.068538025 0.014373387 -0.029481638 0.085666984 0.0032909494
0.05874904 0.034768555 0.10626447 0.06786461 -0.038477976 0.07105032 0.020211387 -0.05701805
-0.024260648 -0.0757488 -0.06741468 -0.069989234 0.0708133 0.00024625592 -0.018202057 0.0557762
00000000: 56dc 1abd 20cd fabc 42bb 6e3d 533c cabc
00000010: c5be 61bd 4d3c 433d f0d4 353d f745 893d
00000020: a049 0ebd 18e9 c63c d864 f9bc 4f21 35bc
00000030: 1802 89bd d4f7 31bd 2afd f9bc 953e 0a3d
00000040: c0c8 983c 3a26 763c f505 903d 64cf 943d
00000050: 7fba 653d 4ffb bd3b 0a6e 82bd 0c77 5e3d
00000060: 53fa 97bc 2e86 58bc 721e 47bd e024 a03c
00000070: f7a1 27bd 8512 8a3d 5cd0 babd bb0b 0abd
00000080: 823e 0f3d b73b 39bd b2ff 643c 0627 3bbd
00000090: ca6f 70bc 60e9 153d 71b3 353d 0cef a3bd
000000a0: 575c 093d b195 b63d df2f cc3d 62c7 a8bd
000000b0: 8e4d 65bb ae83 97bd 3d61 c43d fb11 28bc
000000c0: 98c4 963c 05a0 13bc 1f18 11bc 6a17 cf3b
000000d0: acc5 613c 57b5 0a3d fee1 313c fe60 033d
000000e0: c923 6bbd c26f 733d 698e 873d 28e0 923d
000000f0: 22f4 923d 8ec5 2fbd 25e0 28bd eeea 583d
00000100: 92d3 87bd 014f ae3d 5c21 8bbd a4d9 96bd
00000110: 9c29 853c cb1f 80bd e86c 61bc 41d3 823d
00000120: 7929 413d f88d 8e3d 7d02 5bbc 12bd 86bd
00000130: 4a1b a23d e6be a6bc 6e69 1cbd 4d03 a93c
00000140: 562b 55bd 7a8c 643d 06ca 363d 5940 93bd
00000150: a524 84bd e1c4 753b facb 063d 35e7 0ebc
00000160: 926a 43bd 5e66 5f3b f1f4 92bd a547 64bd
00000170: cbfc 86bd c713 853d 2de3 993d e652 cdbc
00000180: 6042 833b 1c80 f53c bf0c 543c 377c 17bd
00000190: 71b0 423d 04b9 bb3d 3803 2d3d c880 8bbb
000001a0: ca1d 9f3d 46bc a53d 5bcf 963c 9ebd 0f3e
000001b0: 9728 803c 58e2 6cbd 8e4d 833d a213 3ebc
000001c0: d82a d73d f42c c2bd 98f7 4dbc c9a0 c43c
000001d0: 2e20 833d 15f9 563d 6279 c4bd abca 8bbd
000001e0: 2924 a7bd f3ce a83c e20b f0bc b6f2 1dbd
000001f0: 57b4 a2bc 7323 7a3d 9e52 e73d c9aa e03c
00000200: 7b56 0abd eadc e7bc 0bfe 04bd 2ae5 e43d
00000210: 44ad 83bc 4197 2e3c f519 bf3c 8b29 acbc
00000220: bea5 9f3d b9a7 a63c b5fd e0bc 012e 3cbd
00000230: 1a5c 3bbb e444 19ba 87a7 bebd 720e aabd
00000240: 730f 7abc d5eb 283b 8e78 063d b4c6 77bd
00000250: 9787 e8bc 22c5 b8bc 3170 9bbd 50df a33d
00000260: 65d7 df3c eb05 a93d 7392 cb3a c504 9abc
00000270: bb5f 75bd b0fe 6abb 7bfc 8a3d 703b 9cbd
00000280: d8ca e0bc 1b9a 703d 6901 7b3d 1842 343d
00000290: 6c77 2cbc da86 a9bc d12d 1fbd f329 28bd
000002a0: 4aa9 4f3d b8d5 a5b9 dc91 00bd 85a2 cc3c
000002b0: 1daa 4cbd c690 9f3b 59ab 8a3d 29c7 8b3c
000002c0: 6ed6 a03d 85f1 2cbd efe2 7f3c aeff 8cbc
000002d0: 18ad 21bd c65b d1bc 7f21 8e3d 3beb 403d
000002e0: 35ff 2abd 0351 37bd 7a87 95bd 0084 cd3d
000002f0: 6830 523c 74fd ee3b 574d a1bc ca94 78bd
00000300: ac3d a6bd 19de 9abc 8656 bf3d 42f8 9b3c
00000310: 01c2 02bd 0506 4bbb d727 9a3d be6b a93d
00000320: 78a3 9f3d de7f e13c 44f0 5a3d 3ccf e23b
00000330: 22de 63bd 33d9 85bd 6476 963d b8f2 c73a
00000340: 50cf ba3c f612 50bb 26fd 61bd 19b5 03bd
00000350: 83ec 4d3c 45f4 b0bc b2b4 8dbd 3b3e 383c
00000360: c9f6 24b9 075e 3e3b 5c60 863d 03e8 273d
00000370: 6540 bebc 388d fc3d 6b47 db3d 8d8e 173d
00000380: a58c 25bc c3d6 89bd c0fe 903d 85fc 6cbc
00000390: 3c12 6fbd 85be 5c3d 55e1 323d 7cfb 213d
000003a0: 143b 5fbc 45f5 0ebd a659 6a3c aa5d 8c3d
000003b0: 5b7e 6b3c 7a83 f1bc 2c72 af3d f8ac 573b
000003c0: d5a2 703d 7969 0e3d 30a1 d93d 9afc 8a3d
000003d0: 159b 1dbd d582 913d 5a92 a53c c28b 69bd
000003e0: 44be c6bc 3022 9bbd b510 8abd 8456 8fbd
000003f0: 9006 913d e91b 8139 7b1c 95bc 9675 643d

feature_extractor.3.bias f4 [16]
-0.020161629 -0.04255768 0.005498231 0.032980613 0.048834916 -0.019485401 0.009232795 -0.037660025
-0.06438319 -0.047962815 -0.04837899 -0.050163176 0.018117078 -0.024472343 0.06675119 0.08137167
00000000: 002a a5bc f650 2ebd 812a b43b ae16 073d
00000010: 1f07 483d d99f 9fbc 2645 173c 6641 1abd
00000020: 55db 83bd a874 44bd 0c29 46bd e777 4dbd
00000030: 446a 943c 397a c8bc d9b4 883d 31a6 a63d

feature_extractor.7.weight f4 [120, 400]
-0.042641565 0.011808953 0.029562177 -0.04731931 -0.017416213 0.033954654 -0.037303373 0.0454171
-0.004489698 0.012633039 0.049352437 -0.035147823 0.042373393 -0.042375498 0.03938877 -0.00073473586
0.042314395 -0.0018987063 -0.042347297 0.018093819 0.029825734 -0.010841256 -0.053012725 -0.0060263826
0.0095241545 0.010188028 0.02745689 -0.008490344 0.00047293393 0.0010501312 0.023557516 0.021599649
0.022006353 0.0058405567 0.010970599 0.035849456 0.012068364 -0.039609063 0.014053279 0.056185033
-0.015036312 0.030003134 -0.04406703 -0.0033670971 0.028554976 -0.03667042 -0.0138952695 -0.0034532882
-0.013317072 -0.029072648 0.034732424 -0.009144484 -0.017822819 0.026238568 0.0099837575 -0.016053298
0.032427464 -0.021548858 0.05116413 0.036108308 0.004381378 0.019072445 -0.0113274 -0.032232523
-0.02395161 0.013316532 0.020468473 -0.0060717007 -0.013232047 -0.01893951 -0.025826482 -0.020307807
0.032928728 -0.049424402 0.02316591 0.0307535 -0.009479897 -0.0009700341 -0.007840196 -0.041639164
0.011107586 -0.019047488 0.021777777 0.0026042468 -0.027695652 -0.05706949 0.02838151 0.047803048
0.036346808 0.018737689 0.012313202 0.018313868 0.030359445 -0.00046597657 0.0016678537 0.012758577
0.025442969 -0.010630289 0.02916765 0.032682102 -0.026946878 -0.048480798 -0.012699131 -0.028414562
0.053319193 -0.017521087 -0.03194186 0.021575395 0.019422533 0.021187378 0.045784675 -0.053810608
0.026060678 -0.016790453 0.016462171 -0.028723838 0.05242202 -0.010448293 0.010389904 -0.040439706
0.018457955 -0.037353754 0.014189367 0.046327602 0.038610023 0.024887986 -0.020841032 0.006485339
0.008430588 -0.054315254 0.024053339 -0.039316338 0.020033611 0.05058722 -0.016801335 0.014676077
0.05465716 0.049915083 0.055117924 -0.02368858 0.0031662232 -0.052055534 0.00022049864 -0.05251364
0.0043680905 0.015856206 -0.04998131 -0.004001414 -0.024602363 0.03470263 -0.010901104 0.021528127
-0.034819912 0.005081223 0.032223187 0.004954974 -0.015360775 -0.024190692 0.022005605 0.017783234
0.0114126615 0.038630664 -0.008034706 -0.018764514 0.012921112 0.027249224 -0.060679026 -0.029236242
0.0071186554 0.035173513 0.025407525 0.009492489 -0.052152358 -0.030949786 0.022925803 0.0077135614
0.024702111 0.037801675 0.026536658 -0.021326961 -0.027637295 -0.011460522 -0.0020383783 -0.0057956437
-0.011005986 0.00455596 0.033149414 -0.030881021 0.023502534 -0.046922937 0.001762623 -0.04625146
0.044692446 -0.03954061 -0.024544058 0.022094639 0.018086376 0.038088422 0.014713765 -0.041847575
-0.03494866 0.034128387 -0.048571073 0.044838566 -0.008416842 0.009092478 -0.0021386233 -0.012519965
-0.012231745 0.014656876 -0.00874813 0.00842088 0.041798495 0.0044988114 -0.038949713 -0.037575442
0.032109093 0.017425936 0.009570173 -0.024621662 -0.040682513 0.043273676 -0.046791475 -0.024593309
0.020421404 0.042812143 -0.007832197 -0.040233456 0.017798979 0.0045558964 -0.006580565 -0.046079457
0.040350966 0.007683943 0.021070732 0.018320901 0.03881719 -0.022325791 0.0005019249 -0.038504086
-0.050819736 -0.02208183 0.018985331 -0.028347319 0.033049326 0.008214904 -0.019740906 0.021591667
0.03358437 -0.021831261 0.0282633 0.030089056 0.041465253 -0.028821357 0.051773474 0.004741858
00000000: eca8 2ebd 577a 413c 612c f23c e5d1 41bd
00000010: 72ac 8ebc 0914 0b3d 6ccb 18bd 4807 3a3d
00000020: 511e 93bb cefa 4e3c c825 4a3d 2af7 0fbd
00000030: b98f 2d3d ee91 2dbd 1e56 213d 4a9b 40ba
00000040: dc51 2d3d 03de f8ba 5c74 2dbd 7d39 943c
00000050: 1955 f43c 869f 31bc df23 59bd f678 c5bb
00000060: 330b 1c3c b0eb 263c 46ed e03c 151b 0bbc
00000070: 1ef4 f739 8ea4 893a b1fb c03c bff1 b03c
00000080: ab46 b43c 2462 bf3b 07be 333c e1d6 123d
00000090: 63ba 453c 1d3d 22bd b93f 663c 4722 663d
000000a0: dd5a 76bc 22c9 f53c a17f 34bd 84aa 5cbb
000000b0: 20ec e93c b933 16bd fca8 63bc 9050 62bb
000000c0: d92f 5abc c329 eebc 9643 0e3d bfd2 15bc
000000d0: 2901 92bc 44f2 d63c ea92 233c 3582 83bc
000000e0: a9d2 043d 3b87 b0bc 7b91 513d 4ee6 133d
000000f0: aa91 8f3b d13d 9c3c 8f96 39bc 4006 04bd
00000100: 2b36 c4bc 952d 5a3c 80ad a73c 1ef5 c6bb
00000110: 3acb 58bc 0827 9bbc 0f92 d3bc 8f5c a6bc
00000120: 46e0 063d 3e71 4abd 6fc6 bd3c c4ee fb3c
00000130: 9251 1bbc e349 7eba 2a74 00bc d48d 2abd
00000140: 98fc 353c 7a09 9cbc 4f67 b23c 03ac 2a3b
00000150: fee1 e2bc b3c1 69bd 5780 e83c 21cd 433d
00000160: 64e0 143d c87f 993c 50bd 493c f706 963c
00000170: 5fb4 f83c 514e f4b9 e29b da3a 5a09 513c
00000180: c66d d03c aa2a 2ebc fff0 ee3c abdd 053d
00000190: b3bf dcbc cd93 46bd 0410 50bc a8c5 e8bc
000001a0: 3a65 5a3d 6288 8fbc 78d5 02bd e2be b03c
000001b0: 011c 9f3c 2791 ad3c b688 3b3d 8368 5cbd
000001c0: 347d d53c 228c 89bc addb 863c 414e ebbc
000001d0: 79b8 563d 512f 2bbc 6a3a 2a3c 1ba4 25bd
000001e0: 2335 973c 4000 19bd 857a 683c 03c2 3d3d
000001f0: 8b25 1e3d e4e1 cb3c d0ba aabc f782 d43b
00000200: 7320 0a3c ac79 5ebd 820b c53c 2b0a 21bd
00000210: 871d a43c 8b34 4f3d f4a2 89bc ee73 703c
00000220: 30e0 5f3d c273 4c3d 55c3 613d 8e0e c2bc
00000230: 6980 4f3b 2f38 55bd a735 6739 8b18 57bd
00000240: 3322 8f3b e0e4 813c 34b9 4cbd 4b1e 83bb
00000250: e58a c9bc 5824 0e3d 8b9a 32bc c15b b03c
00000260: 539f 0ebd 6380 a63b 76fc 033d 565d a23b
00000270: c3ab 7bbc 8f2b c6bc 1945 b43c 25ae 913c
00000280: 2cfc 3a3c 303b 1e3d 00a4 03bc 0ab8 99bc
00000290: 12b3 533c c439 df3c 928a 78bd d880 efbc
000002a0: 9c43 e93b 1a12 103d 7123 d03c 6286 1b3c
000002b0: b69d 55bd 688a fdbc e5ce bb3c 0bc2 fc3b
000002c0: 155c ca3c eed5 1a3d 6863 d93c e1b5 aebc
000002d0: 9c67 e2bc eac4 3bbc 5096 05bb 62e9 bdbb
000002e0: 7352 34bc 2a4a 953b aec7 073d 32fa fcbc
000002f0: 6388 c03c 4432 40bd d007 e73a 2c72 3dbd
00000300: 6d0f 373d 56f5 21bd 9f10 c9bc d1ff b43c
00000310: e129 943c 9b02 1c3d 0112 713c 5d68 2bbd
00000320: 5326 0fbd 35ca 0b3d 76f2 46bd a5a8 373d
00000330: cbe6 09bc 9ef8 143c 2528 0cbb 8a20 4dbc
00000340: a867 48bc 6523 703c 5154 0fbc bbf7 093c
00000350: e634 2b3d c46a 933b bc89 1fbd b5e8 19bd
00000360: d384 033d d6c0 8e3c 37cc 1c3c 5eb3 c9bc
00000370: b5a2 26bd bd3f 313d 6ba8 3fbd e877 c9bc
00000380: ca4a a73c c95b 2f3d 9d52 00bc d6cb 24bd
00000390: 2acf 913c a149 953b c8a1 d7bb d0bd 3cbd
000003a0: 0e47 253d 96c9 fb3b 879c ac3c b715 963c
000003b0: c6fe 1e3d 94e4 b6bc 9c93 033a 76b6 1dbd
000003c0: 5b28 50bd f4e4 b4bc 2087 9b3c a338 e8bc
000003d0: bb5e 073d ce97 063c aeb7 a1bc 02e1 b03c
000003e0: c48f 093d 79d7 b2bc 7088 e73c 537d f63c
000003f0: 78d7 293d c41a ecbc 6c10 543d 9761 9b3b

feature_extractor.7.bias f4 [120]
0.020696372 0.03584501 0.020647086 0.032416828 0.04202688 -0.031337738 0.03642799 -0.0006380586
-0.030613298 0.003897337 0.023049785 -0.02783541 -0.03755114 -0.049309153 -0.026650678 -0.04026667
0.029748876 -0.021446606 -0.0451221 -0.02929993 -0.010852805 0.030842535 0.03571144 0.016523063
0.042134423 -0.039521877 -0.021431563 0.036310147 -0.016613062 0.014837021 -0.012726245 0.025275568
-0.048444696 0.022875331 -0.028199598 -0.028680597 0.037674163 -0.02575041 0.006708479 0.0010602119
-0.03570478 0.027840639 -0.036132433 -0.017752923 -0.048020627 -0.011697942 0.015780892 0.0131574385
0.02338176 -0.016976139 0.018520065 -0.012299736 0.04120546 -0.029289884 -0.0029764008 0.0012062502
0.03639667 -0.0150365755 -0.038718373 0.01539281 0.046894647 -0.033749234 -0.016578117 -0.014633591
0.03390502 0.0068557095 -0.04250598 0.03860763 -0.01336885 -0.046966836 0.047306508 -0.010592939
0.021614294 0.00020002249 0.036274865 -0.02165465 -0.014898721 -0.024283355 -0.03191442 -0.031721704
0.027558558 -0.03318524 -0.00048596595 0.0071466863 0.05159211 -0.017715087 -0.016159773 0.02534938
0.011358108 0.022343388 0.041800935 -0.04054229 0.013700923 -0.00037457043 -0.04514434 -0.0060657538
0.014754388 0.028789718 0.0025673353 -0.03391552 -0.013416451 0.043099176 0.024510277 -0.036246806
0.013321716 -0.010001175 0.010626793 0.031955514 -0.025892435 -0.0020932278 0.04020968 -0.006802125
0.04898942 -0.00094866345 0.008363945 -0.008621752 0.021828538 -0.014536294 0.052295215 0.04421809
00000000: 708b a93c 38d2 123d 1424 a93c 82c7 043d
00000010: 6124 2c3d 005c 00bd 8435 153d 6343 27ba
00000020: bdc8 fabc 776a 7f3b e7d2 bc3c 1607 e4bc
00000030: 39cf 19bd 65f8 49bd 8652 dabc aaee 24bd
00000040: eab3 f33c cbb0 afbc f3d1 38bd 6806 f0bc
00000050: f7cf 31bc 7ca9 fc3c 2946 123d 605b 873c
00000060: 2595 2c3d b1e1 21bd 3f91 afbc f3b9 143d
00000070: 1e18 88bc fa16 733c be81 50bc b50e cf3c
00000080: f26d 46bd 0c65 bb3c d802 e7bc 92f3 eabc
00000090: 3950 1a3d 86f2 d2bc cdd2 db3b cff6 8a3a
000000a0: 2d3f 12bd 0d12 e43c 9aff 13bd 946e 91bc
000000b0: 47b1 44bd baa8 3fbc ee46 813c 4c92 573c
000000c0: 1b8b bf3c 8b11 8bbc 64b7 973c d584 49bc
000000d0: 0ec7 283d 57f1 efbc b80f 43bb 0a1b 9e3a
000000e0: ad14 153d f85b 76bc 2897 1ebd 2032 7c3c
000000f0: 9a14 403d a33c 0abd d5ce 87bc bbc1 6fbc
00000100: fedf 0a3d dca5 e03b c01a 2ebd 0923 1e3d
00000110: 0509 5bbc 4c60 40bd 78c4 413d 028e 2dbc
00000120: 7610 b13c 21bd 5139 f494 143d 1865 b1bc
00000130: c419 74bc e3ed c6bc b2b8 02bd 9eee 01bd
00000140: 7cc2 e13c 3fed 07bd 3fc9 feb9 c02e ea3b
00000150: 4052 533d 3b1f 91bc 8061 84bc 81a9 cf3c
00000160: 5c17 3a3c 7b09 b73c 7537 2b3d ac0f 26bd
00000170: d679 603c fe61 c4b9 45e9 38bd 3bc3 c6bb
00000180: 63bc 713c 6ad8 eb3c bd40 283b 00eb 0abd
00000190: add0 5bbc c388 303d c7c9 c83c 8877 14bd
000001a0: 5443 5a3c f8db 23bc 001c 2e3c c9e3 023d
000001b0: 5f1c d4bc 892e 09bb e8b2 243d 5ce4 debb
000001c0: 21a9 483d baaf 78ba ee08 093c 4042 0dbc
000001d0: c3d1 b23c a329 6ebc 8233 563d 071e 353d

classifier.0.weight f4 [84, 120]
0.010738478 -0.053014588 0.024323765 -0.004923423 -0.076525904 0.03071444 -0.06165417 -0.04198395
-0.06747764 0.06429137 0.053711474 -0.05265399 0.06634187 -0.06807561 0.008230304 -0.0620978
0.059266925 -0.038475916 -0.0142371785 0.034713566 -0.082630016 0.06528977 0.0058894097 -0.05495443
0.0018854729 -0.039392836 0.020985173 0.054133452 -0.080311164 0.0701039 -0.024717642 0.07598501
0.0048556034 0.037462026 -0.043408252 0.017561924 -0.002025369 -0.019062156 -0.0425936 0.0025231175
-0.09311765 -0.052578114 -0.027650958 0.002233118 -0.06033234 -0.043487605 0.0139704645 0.0030851865
0.014748803 -0.04934027 0.07393586 -0.022767927 -0.08009862 0.053923093 0.009893904 -0.0047391434
-0.08221936 -0.047686797 0.0486848 -0.015761675 -0.055901136 0.06811432 -0.07399691 0.06880517
-0.030863047 0.038335193 0.011500118 0.101068705 0.030120742 -0.00615272 0.08586371 -0.07265568
0.014600418 0.029375788 -0.05279832 -0.0521986 -0.045146376 -0.047837142 -0.012640972 -0.05633417
0.06722581 -0.0022183366 0.09459743 0.017341252 -0.004762321 0.007956321 -0.04285548 -0.038313854
0.037246455 -0.011619812 0.009588441 -0.008239303 0.091252595 -0.09851034 -0.059060663 -0.04763472
-0.02839105 0.07171954 0.061929815 -0.056853257 -0.02796062 0.10090557 -0.07242822 0.009419985
0.03549131 0.04250463 0.09647757 0.05948965 0.01504151 -0.088325545 -0.040628247 -0.015696937
-0.06651795 -0.039160214 0.007715122 -0.035401955 0.013995714 0.036925253 0.061478082 -0.070069075
0.08091815 0.036383294 0.0075313756 -0.026130231 -0.027684473 0.0037912955 -0.0115322275 -0.08650673
0.014460215 -0.060118694 -0.07710756 0.053820543 -0.01562939 -0.023937766 -0.012468128 -0.03868602
0.047315165 -0.0032202739 -0.0404509 0.084761396 0.06617517 0.06836633 -0.090702794 0.017814305
0.0042920047 0.078581266 0.02459281 0.01832154 0.059521895 0.039664958 -0.08185654 -0.08803501
-0.050393283 -0.019771015 0.021959884 0.05743287 -0.08215433 -0.013709718 -0.071415745 0.0787521
0.05774317 0.052429542 -0.010300735 -0.057578288 -0.045880616 -0.0012230889 0.00053785084 -0.0017339074
0.07811989 -0.04735001 0.06923823 0.040358376 -0.07160107 -0.041461293 -0.055395465 -6.155663e-05
0.048383184 0.051872637 -0.019119393 0.07846824 0.04295965 0.014363867 -0.07385543 -0.07724695
0.05691003 0.04865406 -0.04384395 -0.06819503 0.0043761977 -0.08326039 0.061355416 0.04789575
0.025254587 -0.06537763 -0.013641786 -0.045818027 0.045195635 0.08681505 0.0030181082 -0.023457
0.06275339 -0.021204773 -0.04237904 -0.07641269 0.012328588 0.07194067 0.056720503 0.03199194
0.06263022 -0.072757706 0.08895786 -0.029715229 -0.08826212 0.041298192 0.02244177 -0.019178541
-0.0865435 0.0009843438 -0.04566742 -0.054682888 0.08165483 0.04256678 -0.07970774 -0.03922346
-0.04430108 -0.08208731 -0.07304548 0.09058664 0.0060736733 0.073960245 0.015270711 0.08791333
-0.055210344 0.02304492 -0.045392834 0.032388188 0.070327975 0.06850534 -0.06142399 -0.003534789
0.013570938 0.025524508 -0.035639536 0.029987618 -0.07159919 -0.03428397 -0.02118587 -0.017626887
-0.07334847 0.06007979 -0.014127844 0.043479696 -0.0026874754 0.0050394614 0.08337707 0.06858344
00000000: 71f0 2f3c d325 59bd a242 c73c aa54 a1bb
00000010: 9db9 9cbd d99c fb3c 1589 7cbd 5df7 2bbd
00000020: b831 8abd 32ab 833d 9000 5c3d b6ab 57bd
00000030: 3fde 873d 3a6b 8bbd 66d8 063c 435a 7ebd
00000040: e0c1 723d ec98 1dbd 0e43 69bc d02f 0e3d
00000050: ed39 a9bd a5b6 853d f3fb c03b e517 61bd
00000060: f921 f73a 625a 21bd 19e9 ab3c 0abb 5d3d
00000070: 2e7a a4bd a292 8f3d a77c cabc 079e 9b3d
00000080: c11b 9f3b c871 193d dacc 31bd 06de 8f3c
00000090: 0ebc 04bb 3d28 9cbc a076 2ebd e35a 253b
000000a0: 77b4 bebd 265c 57bd 4384 e2bc 8159 123b
000000b0: 0b1f 77bd 0f20 32bd 60e4 643c d730 4a3b
000000c0: f7a4 713c 0619 4abd af6b 973d ce83 babc
000000d0: bf0a a4bd 76de 5c3d 0b1a 223c d14a 9bbb
000000e0: a062 a8bd 3b53 43bd b669 473d a11e 81bc
000000f0: 97f8 64bd 857f 8b3d b18b 97bd bae9 8c3d
00000100: 80d4 fcbc 5d05 1d3d fe6a 3c3c 1cfd ce3d
00000110: c6bf f63c c29c c9bb 50d9 af3d 80cc 94bd
00000120: 9736 6f3c 7ea5 f03c 0d43 58bd 33ce 55bd
00000130: 68eb 38bd e1f0 43bd 141c 4fbc a9be 66bd
00000140: afad 893d 8361 11bb 4cbc c13d 3e0f 8e3c
00000150: 3e0d 9cbb 3b5b 023c 3a89 2fbd fdee 1cbd
00000160: bd8f 183d 0661 3ebc d618 1d3c 24fe 06bc
00000170: a4e2 ba3d cabf c9bd 98e9 71bd a01c 43bd
00000180: 5994 e8bc b2e1 923d 1eaa 7d3d f6de 68bd
00000190: ac0d e5bc 94a7 ce3d 3f55 94bd 4856 1a3c
000001a0: 565f 113d 5619 2e3d 0896 c53d 6bab 733d
000001b0: aa70 763c 06e4 b4bd ce69 26bd dd96 80bc
000001c0: 903a 88bd 7666 20bd 22cf fc3b a401 11bd
000001d0: 474e 653c ef3e 173d 71d0 7b3d 6080 8fbd
000001e0: 6ab8 a53d a606 153d c2c9 f63b 110f d6bc
000001f0: 8cca e2bc 6277 783b abf1 3cbc 712a b1bd
00000200: 8aea 6c3c 053f 76bd 92ea 9dbd ee72 5c3d
00000210: 3509 80bc 2219 c4bc 1f47 4cbc 3b75 1ebd
00000220: 8ccd 413d 3b0b 53bb d8af 25bd 6297 ad3d
00000230: d986 873d a503 8c3d 63c2 b9bd 4eef 913c
00000240: f2a3 8c3b 37ef a03d dc76 c93c 0e17 963c
00000250: 3bcd 733d b977 223d 67a4 a7bd b34b b4bd
00000260: 3069 4ebd d3f6 a1bc 37e5 b33c bb3e 6b3d
00000270: 8840 a8bd ba9e 60bc 6b42 92bd c848 a13d
00000280: 1a84 6c3d 5cc0 563d 6ac4 28bc 36d7 6bbd
00000290: 50ed 3bbd 0e50 a0ba 8ffe 0c3a 4744 e3ba
000002a0: 52fd 9f3d 16f2 41bd c6cc 8d3d d34e 253d
000002b0: 95a3 92bd 51d3 29bd 5be6 62bd f717 81b8
000002c0: 722d 463d 6778 543d 46a0 9cbc f5b3 a03d
000002d0: 75f6 2f3d 6d56 6b3c 8441 97bd a633 9ebd
000002e0: 7e1a 693d 7b49 473d b795 33bd d6a9 8bbd
000002f0: 3566 8f3b 6c84 aabd d14f 7b3d 552e 443d
00000300: b5e2 ce3c b5e4 85bd cc81 5fbc afab 3bbd
00000310: 0f1f 393d 17cc b13d 74cb 453b e528 c0bc
00000320: d984 803d a2b5 adbc a595 2dbd 427e 9cbd
00000330: d9fd 493c a155 933d c253 683d fb09 033d
00000340: 4644 803d fe01 95bd 8a2f b63d 5a6d f3bc
00000350: c5c2 b4bd 4b28 293d ced7 b73c 511c 9dbc
00000360: b83d b1bd 1905 813a c30d 3bbd 2afb 5fbd
00000370: a63a a73d 815a 2e3d d03d a3bd c7a8 20bd
00000380: 0d75 35bd 641d a8bd de98 95bd 7d85 b93d
00000390: aa05 c73b 7878 973d 0132 7a3c e70b b43d
000003a0: 3e24 62bd b3c8 bc3c d6ed 39bd 7aa9 043d
000003b0: 1d08 903d 874c 8c3d b997 7bbd eba7 67bb
000003c0: a458 5e3c c618 d13c c3fa 11bd 98a8 f53c
000003d0: 99a2 92bd 596d 0cbd fd8d adbc 4366 90bc
000003e0: b937 96bd 3a16 763d 7978 67bc c417 323d
000003f0: 5b20 30bb 1122 a53b 99c1 aa3d 7975 8c3d

classifier.0.bias f4 [84]
-0.008050468 -0.086327516 0.04306316 0.08518822 0.021657337 0.040929757 0.0792247 0.054479886
-0.04034319 0.047575388 -0.075775675 0.09104212 0.061311673 -0.048330445 -0.027065298 -0.0562668
-0.035970684 -0.057485987 -0.08403596 -0.013237662 0.037210222 0.05621391 -0.02980683 -0.06776422
0.05399424 0.003213723 -0.0013448239 0.047081746 -0.025798757 0.04317268 0.031128535 -0.014034448
0.0015775943 -0.024154458 -0.040218506 -0.0058591063 -0.07550002 -0.07118881 0.0006099961 -0.086637944
-0.009693478 -0.081604615 0.030330071 0.016801136 -0.042204835 -0.0011085925 0.044012375 -0.0772092
-0.076354474 0.022226354 0.024059784 0.04538663 0.012573557 -0.09057256 -0.050436966 4.6269844e-05
-0.04403392 -0.034361023 0.020309763 -0.052564908 0.010315732 0.09840795 0.08786782 -0.011624709
0.057830308 -0.07465693 0.050923426 0.011670887 0.08109294 0.06512101 -0.08434429 0.08420947
0.06644293 0.07629327 0.05354035 -0.04478026 -0.0037554174 -0.0048682825 0.04268148 0.044421338
-0.037880152 -0.019803459 -0.03798297 0.003026438
00000000: 1ce6 03bc 7bcc b0bd ff62 303d 2977 ae3d
00000010: ba6a b13c f6a5 273d 8f40 a23d 4d26 5f3d
00000020: e73e 25bd 69de 423d 4730 9bbd 4a74 ba3d
00000030: f321 7b3d 25f6 45bd 0bb8 ddbc 0478 66bd
00000040: ff55 13bd 6d76 6bbd 0c1b acbd c7e2 58bc
00000050: bf69 183d 8f40 663d 742d f4bc f8c7 8abd
00000060: 1029 5d3d 539d 523b cd44 b0ba cad8 403d
00000070: ea57 d3bc d6d5 303d 4501 ff3c bef0 65bc
00000080: 48c7 ce3a 92df c5bc 29bc 24bd bffd bfbb
00000090: c19f 9abd 70cb 91bd 25e8 1f3a 3c6f b1bd
000000a0: 65d1 1ebc 5220 a7bd c576 f83c 89a2 893c
000000b0: fade 2cbd 314e 91ba 5246 343d db1f 9ebd
000000c0: bc5f 9cbd 0b14 b63c 0619 c53c 55e7 393d
000000d0: 5201 4e3c 1b7e b9bd fe96 4ebd de11 4238
000000e0: e95c 34bd 25be 0cbd a960 a63c 4d4e 57bd
000000f0: 5103 293c 1b8a c93d 0bf4 b33d 9075 3ebc
00000100: 79df 6c3d bce5 98bd 1595 503d 3f37 3f3c
00000110: 0e14 a63d 2a5e 853d b3bc acbd 0476 ac3d
00000120: 3b13 883d a53f 9c3d 204d 5b3d 826b 37bd
00000130: 731d 76bb 1d86 9fbb c7d2 2e3d 26f3 353d
00000140: 3828 1bbd dd3a a2bc 0894 1bbd 3457 463b

classifier.2.weight f4 [10, 84]
-0.10436733 -0.086566865 0.087216936 -0.026999662 0.009716111 -0.046267048 0.0047894134 0.028239038
-0.081132606 0.10208423 -0.08062598 -0.023640573 0.04983991 -0.108080804 0.08602331 0.097106084
-0.17787282 -0.018677793 -0.08763161 0.16720596 -0.1235002 -0.15435784 -0.07647055 0.063195206
0.021317778 -0.112373844 -0.028138155 -0.06970772 0.1499567 -0.10653637 0.025935475 0.058253266
-0.1677607 0.02674521 -0.010890359 0.022848494 -0.057711996 -0.13118678 -0.004162789 -0.014896196
-0.040848766 0.15953785 -0.06514222 -0.09544492 0.02603201 -0.1063303 0.10603933 0.18602636
0.12794968 0.088014856 -0.19894055 0.03681014 -0.15104699 -0.039683037 -0.09134038 -0.08639165
0.071144246 0.07448336 0.045355268 0.047269728 0.17421362 0.055889767 -0.07887297 0.07831856
-0.038111802 -0.009038646 0.049910426 0.011217116 0.07240056 -0.023844395 -0.057732053 0.021287689
0.09318916 -0.15429315 -0.139231 0.031203292 0.05958868 0.021268405 -0.14712264 -0.1330615
-0.0012159572 0.036187258 -0.17667739 0.10641569 -0.109403834 0.034127437 -0.024583276 -0.09703182
0.025090378 0.012576442 0.1020317 0.1484605 0.19066605 0.1270765 -0.14663522 0.15175386
0.1916535 -0.07611524 0.12483559 -0.2302895 -0.12667972 0.103537545 0.11545496 0.01644172
-0.09403263 0.00044346228 0.08211375 0.02742912 0.07969435 -0.042221785 0.08509505 -0.040651035
0.052074444 0.041094854 -0.13493466 0.09644285 0.09331257 -0.12257747 -0.0072521023 0.09979066
0.078847885 0.11815678 0.07666195 -0.041690722 0.041565098 -0.09848487 -0.011021029 -0.05927734
-0.061773423 0.1847559 -0.09368012 0.159721 0.111703105 0.0697916 0.12296444 -0.10881416
0.09331298 -0.020393454 -0.10856376 -0.009076582 0.026634235 -0.08850849 -0.056648243 0.09294917
-0.06891027 0.11028241 -0.09072625 -0.116732694 0.09887869 0.10012493 0.12795451 0.118895575
0.1535514 0.064059414 0.008758 0.025685249 0.0686028 0.07077984 -0.062621675 0.059318714
-0.08176426 -0.106743336 0.027130848 0.11814978 0.012959559 0.12827468 -0.09004545 -0.1499188
-0.024411399 -0.0985374 0.12663338 -0.16465996 0.11902155 0.13124093 0.09390585 0.09639975
0.005977041 -0.010320844 0.13598299 -0.08197191 -0.031344105 0.070961475 -0.10569072 0.036865182
0.13332506 0.046411656 -0.0946475 -0.021812182 -0.17059438 0.0634086 0.13535027 0.10603498
0.0049986173 0.07465871 0.106333934 0.18385921 0.00095535204 0.11007239 -0.08244758 0.045240454
-0.13522813 -0.08821892 -0.11902712 -0.053179033 -0.021119317 -0.081784174 -0.18559456 0.077493384
-0.018021833 0.037039556 0.15738036 0.12311583 -0.15049087 -0.06077921 -0.057229202 0.0342994
0.014509917 0.009959405 0.024976844 0.18336867 0.051124837 0.09430448 -0.1686108 0.012346105
0.056806497 0.07686797 -0.11545492 -0.04131524 0.08227247 0.043974143 -0.1701151 -0.14808802
-0.050088216 -0.047708333 -0.12106933 -0.10075993 0.19312713 -0.04427591 0.05400993 0.104647785
0.008014517 -0.011627325 0.12965599 0.13458005 0.016562909 -0.024137188 0.028402703 -0.025859917
-0.09985931 -0.04962714 0.13584702 -0.14412305 0.09712258 -0.0024638572 0.013773091 -0.105132654
00000000: 8abe d5bd f849 b1bd cb9e b23d 652e ddbc
00000010: 5330 1f3c 8482 3dbd 83f0 9c3b 8e55 e73c
00000020: da28 a6bd 8911 d13d 3c1f a5bd e0a9 c1bc
00000030: ef24 4c3d 7859 ddbd fd2c b03d 8edf c63d
00000040: 4b24 36be 2c02 99bc 3478 b3bd 0a38 2b3e
00000050: aced fcbd fb0f 1ebe 979c 9cbd 7d6c 813d
00000060: 9fa2 ae3c 4224 e6bd fd81 e6bc ecc2 8ebd
00000070: 408e 193e be2f dabd a276 d43c fa9a 6e3d
00000080: 76c9 2bbe c518 db3c 7a6d 32bc c42c bb3c
00000090: 6a63 6cbd d455 06be 0168 88bb 2d0f 74bc
000000a0: 0951 27bd e45d 233e 4969 85bd a078 c3bd
000000b0: 1541 d53c b3c3 d9bd 262b d93d b27d 3e3e
000000c0: 3e05 033e 2241 b43d 12b7 4bbe 3bc6 163d
000000d0: 10ac 1abe ae8a 22bd aa10 bbbd 1bee b0bd
000000e0: 13b4 913d bb8a 983d 72c6 393d e79d 413d
000000f0: 0e65 323e abec 643d 2788 a1bd 7b65 a03d
00000100: 1f1b 1cbd d416 14bc e06e 4c3d ffc7 373c
00000110: bf46 943d 5255 c3bc 7278 6cbd 8563 ae3c
00000120: f5d9 be3d 06ff 1dbe 9292 0ebe 0c9e ff3c
00000130: 4213 743d 143b ae3c 51a7 16be 4641 08be
00000140: c160 9fba 1739 143d ebea 34be 78f0 d93d
00000150: 1e0f e0bd 36c9 0b3d de62 c9bc 9eb8 c6bd
00000160: 568a cd3c 6c0d 4e3c fff5 d03d 0806 183e
00000170: f63d 433e 5820 023e 8b27 16be 5d65 1b3e
00000180: d140 443e 4fe2 9bbd cda9 ff3d 03d1 6bbe
00000190: 54b8 01be 7e0b d43d a673 ec3d c9b0 863c
000001a0: 2e94 c0bd 8080 e839 412b a83d 09b3 e03c
000001b0: cb36 a33d c0f0 2cbd 5046 ae3d b381 26bd
000001c0: 034c 553d 1453 283d 502c 0abe d483 c53d
000001d0: a91a bf3d e609 fbbd 0ba3 edbb 0c5f cc3d
000001e0: 007b a13d 2ffc f13d f100 9d3d e4c3 2abd
000001f0: 2a40 2a3d 6fb2 c9bd 8c91 34bc cccc 72bd
00000200: 2106 7dbd a730 3d3e 5ddb bfbd e78d 233e
00000210: 99c4 e43d e6ee 8e3d c8d4 fb3d f5d9 debd
00000220: e01a bf3d 2c10 a7bc ad56 debd f2b5 14bc
00000230: 0a30 da3c f043 b5bd fd07 68bd 225c be3d
00000240: d420 8dbd bfdb e13d afce b9bd 8d11 efbd
00000250: e980 ca3d 4d0e cd3d 8206 033e 867f f33d
00000260: 943c 1d3e 9531 833d b77d 0f3c df69 d23c
00000270: a07f 8c3d 05f5 903d cb3f 80bd 2ef8 723d
00000280: 0574 a7bd 409c dabd 8341 de3c 83f8 f13d
00000290: 5554 543c 705a 033e c069 b8bd 5084 19be
000002a0: 6afa c7bc facd c9bd 2eac 013e 9f9c 28be
000002b0: 92c1 f33d 0664 063e b651 c03d 3b6d c53d
000002c0: 0edb c33b c218 29bc 203f 0b3e e4e0 a7bd
000002d0: ad62 00bd 4054 913d 6074 d8bd f2ff 163d
000002e0: 5d86 083e 261a 3e3d 8cd6 c1bd 76af b2bc
000002f0: 4bb0 2ebe 5edc 813d 4399 0a3e de28 d93d
00000300: 71cb a33b aae6 983d 9bc5 d93d 9745 3c3e
00000310: 9770 7a3a a26d e13d 47da a8bd 0e4e 393d
00000320: 3e79 0abe 1fac b4bd 7ec4 f3bd 42d2 59bd
00000330: 6b02 adbc 767e a7bd 800c 3ebe dab4 9e3d
00000340: 86a2 93bc cab6 173d 5128 213e 2724 fc3d
00000350: 471a 1abe 9ff3 78bd 2b69 6abd 877d 0c3d
00000360: 01bb 6d3c c62c 233c 3d9c cc3c ffc4 3b3e
00000370: 4768 513d b522 c13d 4fa8 2cbe 5147 4a3c
00000380: eead 683d f46c 9d3d a173 ecbd 2b3a 29bd
00000390: 787e a83d 3b1e 343d a732 2ebe 63a4 17be
000003a0: 4d29 4dbd d069 43bd 32f3 f7bd 395b cebd
000003b0: 1ec3 453e a85a 35bd 8439 5d3d 9451 d63d
000003c0: 524f 033c 8980 3ebc 8ac4 043e 5acf 093e
000003d0: f0ae 873c 5abb c5bc c9ac e83c 2dd8 d3bc
000003e0: 0a83 ccbd d445 4bbd 7b1b 0b3e fe94 13be
000003f0: 34e8 c63d aa78 21bb 88a8 613c ca4f d7bd

classifier.2.bias f4 [10]
-0.018846853 -0.010108116 -0.026037205 0.023240665 -0.03528304 0.06089082 0.053931855 -0.030094562
-0.06712811 0.056448083
00000000: b764 9abc 839c 25bc fa4b d5bc 3563 be3c
00000010: f384 10bd a768 793d a6e7 5c3d df88 f6bc
00000020: 767a 89bd 1b36 673d
