checkpoints/noise_rate_0.2/models/tsf/epoch50.pth (torch, 250639 bytes, 10 tensors)

feature_extractor.0.weight f4 [6, 1, 5, 5]
00000000: 8a9d 0a3e b059 80bd 89c2 eabc c0ab ae3d
00000010: 2006 54be fd8b 2f3e bf94 593c d20e 1c3e
00000020: d3ed 783d fa8b 16bc 1681 c43d 9e00 8b3d
00000030: 4d97 113e 46e7 7abc f661 0d3d 9530 9abc
00000040: 3eb7 403d 0ec8 253d c11c 6b3e a18d f83d
00000050: c10a d5bd f36c 0ebe 7402 07bd e1d9 83bd
00000060: a87b d6bc 43cc b83d 5dc6 643e e539 313e
00000070: 1f86 51be 67d1 943d e2a4 1e3e eafe 9f3e
00000080: 0173 443e 97d5 57be 1ad1 7bbe e75c 4f3c
00000090: 7248 9b3e bf7c 1c3d a2e5 ac3d a874 e3bd
000000a0: 9fff 913e 9832 cd3c 0ad6 753e fea7 5d3d
000000b0: 6261 8abd c265 233e f01f d2bc 9235 1d3e
000000c0: 72f4 fe3c 3cd2 803d 9273 6ebe 170e 0abe
000000d0: b60b a73d 9a70 1dbd 43c0 733e 8c60 1d3e
000000e0: 04d6 daba 21e0 c3bd 3919 433e 4715 073e
000000f0: 7141 b5bd d825 403e b8eb 4d3e eeb2 843e
00000100: c6cc 72bd 851a f93c 5330 843d e490 c23d
00000110: 6dc8 dabd 83a3 ffbd f65f 283e a271 bd3b
00000120: 68b9 0f3e 345a 0a3d 666d 903d 9a58 0c3d
00000130: ea1a 9c3d dd2b dd3d fb02 33be d805 eb3d
00000140: 2dd7 17be de44 17be 3903 f43c 9eb2 a5ba
00000150: 753e 2a3e 88f9 f2bd e7c3 2abe 7761 393e
00000160: 6f2b d43c b550 343e 6c96 853d 6611 06be
00000170: 1918 a93d e57e ce3d 7779 b6bd f3c2 bcbd
00000180: 639c b53d 3c46 8d3d ea7e 5bbd 6684 2abd
00000190: ffd0 793e c300 b83d 556c 7a3e 22f8 2c3e
000001a0: f95d efbd dc58 80bd 0616 ce3e 7261 643e
000001b0: 9cad 883e 204e c83d 9d98 813e a504 dc3e
000001c0: 9bba db3e db36 e3ba 75e5 c43d 04ba af3e
000001d0: ed51 c23e 43ca 9d3e 0be6 1dbd 9ce2 88bd
000001e0: e6e1 dbba a174 163e 0c43 993e 1bb6 24bd
000001f0: 7f5d 473e 205e e7bd d037 27be 2061 f53c
00000200: e3ac 723e c62f 993e 996c abbd ebc8 103e
00000210: 884f b03e b854 b03e 5c2a 933e a99e 673e
00000220: 0dd7 863e 1b4c 7b3e e0d6 953d c2ec 7cbc
00000230: 6eee d7bc 9698 963d f87f 8c3c 9a79 733e
00000240: 5c23 493e 1d96 bcbc 5df3 e93d eb14 0d3e
00000250: e6ce 623e af55 693e
0.13536659 -0.062671065 -0.028657215 0.085288525 -0.20705462 0.17143245 0.013280093 0.15240029
0.06077368 -0.009188646 0.09594934 0.06787227 0.14217873 -0.015313929 0.03451725 -0.018821994
0.047049753 0.04047399 0.22960187 0.121363886 -0.10402442 -0.13908748 -0.032961324 -0.064380415
-0.02618201 0.09023335 0.22341295 0.17307241 -0.2046132 0.07266503 0.15492585 0.31249171
0.19184496 -0.21077572 -0.24591485 0.012656427 0.3032871 0.038204905 0.084422365 -0.11106235
0.28515336 0.025048539 0.2400743 0.054115288 -0.067568555 0.15956786 -0.025649995 0.15352467
0.03112242 0.06290099 -0.23286274 -0.13481937 0.081565306 -0.038437463 0.23803811 0.15368861
-0.0016695862 -0.095642336 0.1905259 0.1319171 -0.088503726 0.18764436 0.20109451 0.25917763
-0.05927732 0.030408153 0.064545296 0.09500292 -0.106827594 -0.12482359 0.16442856 0.0057813684
0.1403557 0.03377743 0.07052116 0.034264185 0.07622321 0.10799382 -0.17481606 0.11475724
-0.14828177 -0.14772364 0.029786693 -0.0012641733 0.16625388 -0.118640006 -0.16676293 0.18103586
0.025899617 0.17608912 0.06522831 -0.13092574 0.082565494 0.10082797 -0.08909886 -0.09216871
0.08867719 0.06898162 -0.05358783 -0.04163017 0.24396132 0.0898452 0.24455388 0.1689153
-0.11687846 -0.062669486 0.40251178 0.22302797 0.26694953 0.09780526 0.25311747 0.42972293
0.42915806 -0.0017335074 0.09614078 0.34321606 0.3795313 0.30818376 -0.038549464 -0.06683847
-0.0016775697 0.14692928 0.29933965 -0.04021273 0.1946926 -0.1129725 -0.16329885 0.02995354
0.23698764 0.2991926 -0.08370323 0.14139144 0.34435678 0.34439635 0.28743255 0.22619118
0.26335946 0.2454075 0.07316375 -0.015437307 -0.02635881 0.07353322 0.017150864 0.23776856
0.19642395 -0.023020798 0.11423371 0.13777511 0.22149238 0.22786592

feature_extractor.0.bias f4 [6]
00000000: 2848 32bd 0f62 743e 0cd6 b23b 4d6e 0f3c
00000010: 6144 a3bd 97ce adbc
-0.043525845 0.23865531 0.0054576453 0.008754325 -0.079720266 -0.021216674

feature_extractor.3.weight f4 [16, 6, 5, 5]
00000000: 8129 29bd 449c 01bd 173a 703d 1486 d1bc
00000010: 4203 70bd 1426 2c3d 5fcd 263d 11cb 883d
00000020: a0aa 06bd eb4b c33c 273e dfbc a4e9 26bc
00000030: 35d8 82bd e017 28bd a293 f6bc 35e0 163d
00000040: 88cc b03c b0dc a23c acf4 973d a324 973d
00000050: 354e 603d 5e26 da3b dde3 67bd 2ac5 743d
00000060: 7900 a3bc 5b24 5cbc d82c 62bd f294 4b3c
00000070: 891b 25bd ade9 873d 4a42 a3bd b882 17bd
00000080: 1b02 0a3d a0a5 2bbd 75dd 7f3c 9438 0abd
00000090: 2358 1dbc 4abe 083d 28ac 4c3d 4238 9ebd
000000a0: e166 1d3d 5429 a83d 6e0a cc3d 0ad2 91bd
000000b0: 5269 19b8 064f 8fbd f17a b63d 7fc1 2abc
000000c0: d816 123d eac6 a4bb 3243 27bc df3d b23b
000000d0: b306 8e3c 3e80 073d 1f17 013c 27b3 113d
000000e0: fc37 61bd d9b5 7d3d a37d 853d 0c4c 8e3d
000000f0: 6c9b 993d 99b3 40bd 4658 23bd 6ca7 653d
00000100: bcec 89bd abdd a53d 7b29 89bd f7f8 8dbd
00000110: 064c b33c d9ef 83bd 7c57 78bc c8e8 823d
00000120: 3aa7 5b3d 0dbe 8f3d d6e4 8fbc 2ac8 83bd
00000130: 4641 a73d 0e5c 93bc b16d 1dbd 608f a23c
00000140: 04c4 4dbd ca0c 6a3d 01ab 3d3d e34f 90bd
00000150: 0eed 86bd 4d7a 003b d476 0a3d 0d96 d5bb
00000160: b841 37bd 9192 523b 4f76 91bd a3f3 65bd
00000170: 6813 7abd 7af5 873d ac23 983d c852 bbbc
00000180: 92ae bb3b 5e27 063d d027 4c3c 1eea 19bd
00000190: 1cc1 313d 4804 a03d 8ab2 0c3d e61a ccbb
000001a0: 2e86 843d 8147 b53d 4b27 613c 74b9 023e
000001b0: 756e 933c 56e1 84bd 20bd 893d 208f 81bc
000001c0: 3887 c33d 5e2d adbd e4e7 21bc 246a e13c
000001d0: 73b9 533d a185 823d 0214 a0bd 45ad 85bd
000001e0: 7d83 a9bd 8556 8b3c 76cf cdbc 6ac6 a5bc
000001f0: 3ace d3bc e87b 3d3d 5a2e ce3d 6a2f cc3c
00000200: c54c 1ebd 135d 31bd 7429 16bd 882d d73d
00000210: 6f01 59bc 86ea db3b bc1a 313c 4560 95bc
00000220: 16c2 903d 7aac c93c f570 ccbc 6e5e 55bd
00000230: 7246 1ebc ac73 583b a7f4 9fbd 17fc 9fbd
00000240: 3f94 afbc 355a ccbb 442d 023d 0344 30bd
00000250: 07b6 ddbc 2389 04bd aad7 9bbd fa34 a03d
00000260: fcad c33c 1c8e a43d dfe5 c0bb d71c 67bc
00000270: 506b 74bd df24 13bc d57c 883d cf75 9dbd
00000280: d84f c7bc e731 763d abea 743d 11ca 3a3d
00000290: 146c ccbb 80a4 77bc d212 fbbc 8ffc 10bd
000002a0: 4326 433d f479 8fbb cadb 11bd a768 c23c
000002b0: 3aff 45bd 0bef c13a acb6 853d 6927 b43c
000002c0: 83a8 a33d df51 13bd fdb9 a23c a259 98bc
000002d0: a172 07bd 20cf c3bc 4fd3 823d 49ff 3b3d
000002e0: f599 07bd 0cdf 37bd 6389 8abd 013c ce3d
000002f0: d6fe 553c e444 3a3c 2a2e e7bc 69cc 69bd
00000300: 4835 93bd 6fb4 93bc 8563 c03d 9cc9 553c
00000310: ecff f2bc f24c 54bb da0e a33d cd4c af3d
00000320: df88 ac3d 6708 0c3d f711 573d 1168 0f39
00000330: a651 6ebd 04ee 7ebd 2810 8d3d 1827 ef38
00000340: 0173 de3c ba6b 9fbb 5a45 7fbd 291a 09bd
00000350: 314e ac3c 0f31 82bc a9bd 91bd 14a8 663c
00000360: 0843 4a3b 8fe5 8e39 0e9e 823d c441 323d
00000370: 2ff9 c7bc 989d eb3d b8ca bc3d 77b9 2c3d
00000380: 74ce 86bb e1cd 85bd af5d 8e3d 69e9 8cbc
00000390: b597 68bd d70b 4b3d a2f4 1f3d f5a3 023d
000003a0: 3f44 6bbc fddd fdbc 88a2 393c c213 873d
000003b0: 58ed 923c 6807 fdbc 7fe9 ae3d e549 923b
000003c0: 9e2b 793d 60ec 0a3d b6d1 c83d b84e 863d
000003d0: f491 13bd 302f 883d 2ffa 813c 3cb0 66bd
000003e0: d647 97bc c616 9bbd 43ab 4fbd e9d2 45bd
000003f0: 8dcd a83d 5473 0f3b 3a35 c8bc c2ee 923d
-0.041299347 -0.031643167 0.05864915 -0.025576629 -0.058596857 0.0420285 0.0407232 0.06679357
-0.032877564 0.023839911 -0.027251316 -0.01018754 -0.063888945 -0.041038394 -0.030099694 0.036834914
0.021581903 0.019880623 0.07419714 0.07380035 0.054762084 0.0066574058 -0.05661379 0.059758343
-0.019897686 -0.013436402 -0.055218548 0.012425648 -0.040309463 0.06636367 -0.07971628 -0.036989897
0.033693414 -0.041906 0.015616764 -0.033745363 -0.009603533 0.0333846 0.04996887 -0.07725574
0.03842819 0.08211008 0.09962927 -0.0712014 -3.657613e-05 -0.069974944 0.08910168 -0.01042211
0.035666317 -0.005028595 -0.010208892 0.0054395045 0.017337179 0.033081286 0.007879048 0.035571244
-0.05498503 0.061941 0.06518104 0.069480985 0.075003475 -0.047046278 -0.039879106 0.05606787
-0.067346066 0.080989204 -0.06697365 -0.06932252 0.021886837 -0.06442232 -0.015157577 0.06392056
0.053626277 0.07018671 -0.017565172 -0.06434663 0.08166747 -0.017988231 -0.038434688 0.019843757
-0.050235763 0.057141103 0.04630566 -0.07046487 -0.06588183 0.0019604147 0.03380473 -0.0065181316
-0.04474041 0.0032130817 -0.07102644 -0.056140553 -0.061053663 0.06638618 0.07428679 -0.022866622
0.0057275975 0.032752387 0.012460664 -0.037576787 0.043397054 0.078133166 0.034349956 -0.0062287925
0.06470905 0.08851529 0.013742278 0.12766057 0.017997006 -0.06488292 0.06725526 -0.015815318
0.09547275 -0.08455919 -0.009881947 0.027516432 0.05169053 0.06373144 -0.07816316 -0.06527189
-0.082770325 0.01700903 -0.02512334 -0.020236213 -0.025855172 0.046260744 0.100674346 0.024924953
-0.038647432 -0.043301653 -0.036660627 0.10506731 -0.013244971 0.006711307 0.010809597 -0.018234381
0.07068269 0.024618376 -0.024956206 -0.05209201 -0.00966035 0.003302793 -0.078103356 -0.07811754
-0.021432994 -0.0062363395 0.03178145 -0.04303361 -0.027064336 -0.032357346 -0.07609494 0.078226045
0.023886673 0.08034918 -0.005886778 -0.014105997 -0.059672654 -0.008980959 0.06664435 -0.07688486
-0.024330065 0.060106184 0.05979411 0.04560286 -0.00623847 -0.015114903 -0.030648623 -0.03539711
0.04764391 -0.0043785516 -0.035609998 0.023731543 -0.048339106 0.0014795972 0.065289825 0.021991448
0.079911254 -0.03596675 0.019864077 -0.018597428 -0.033068303 -0.023902476 0.0638796 0.045897756
-0.03310581 -0.04489045 -0.06764486 0.100700386 0.013061246 0.011368964 -0.028220255 -0.057079706
-0.07187897 -0.018030373 0.09393982 0.013048556 -0.029663049 -0.0032394496 0.07961817 0.085595705
0.084245436 0.0341877 0.052507367 0.0001367631 -0.058183335 -0.06223871 0.06887847 0.0001140369
0.027154448 -0.004865137 -0.062322 -0.033472214 0.021033378 -0.015892534 -0.07116253 0.014078159
0.0030862708 0.00027255385 0.06377803 0.04351975 -0.024410812 0.11504668 0.09218353 0.04216906
-0.0041139666 -0.06533409 0.069514625 -0.017201142 -0.056785304 0.04957184 0.03905166 0.031894643
-0.014359533 -0.030989641 0.011330254 0.065955654 0.01793544 -0.03088732 0.085406296 0.0044643753
0.060832612 0.03391683 0.09805624 0.06557983 -0.036027864 0.06649625 0.015866367 -0.056320414
-0.018466871 -0.07572703 -0.050700437 -0.048296843 0.08242331 0.002188881 -0.024439443 0.07174446

feature_extractor.3.bias f4 [16]
00000000: 18cf a4bc d6e7 3ebd 8ddb cf3b 2a71 183d
00000010: bd92 643d 4769 bfbc 0771 943b 2ad4 22bd
00000020: 5ae1 83bd fde1 4dbd 2989 47bd b391 4dbd
00000030: 59d3 c93c d112 9fbc 62cb 893d 169d 9e3d
-0.020118281 -0.046607815 0.006343311 0.037217297 0.055804003 -0.02336563 0.0045300755 -0.039753117
-0.06439467 -0.050264347 -0.04871479 -0.050187778 0.024636911 -0.019418152 0.06728245 0.077448055

feature_extractor.7.weight f4 [120, 400]
00000000: 3aa5 2dbd 0480 413c db18 f63c 0203 39bd
00000010: 839c 88bc f6d5 0b3d 637d 16bd c0b7 3b3d
00000020: 4716 83bb e0a5 2e3c e1b8 453d 848a 19bd
00000030: 8694 313d af51 3fbd b44c 143d df5f 7839
00000040: 5968 353d 80d4 22bb 8894 41bd 42e9 923c
00000050: 07a1 fd3c dca7 1fbc 23dd 52bd e619 dcba
00000060: 4fce 1f3c 0428 3a3c b0ef ae3c a468 44bc
00000070: 2ab9 fdba 5daa 0cbb 2e01 b83c 52eb 993c
00000080: d7cd ab3c dd37 513b 4ad3 2e3c 7473 193d
00000090: 5a3d 3d3c 937a 33bd e61d 693c 6c9e 703d
000000a0: 49a8 2abc 643b 093d 91cf 21bd 6c68 6fbb
000000b0: c99a 063d 2e6a 02bd c803 03bc eb02 883a
000000c0: e709 58bc a054 cfbc 6839 073d b35b 3ebc
000000d0: 6d3e 93bc 9fd3 f73c d8a4 1e3c b9e3 a4bc
000000e0: 6c0c 043d 564c e3bc 1957 4e3d e473 263d
000000f0: 0e6e a13b 48f2 8c3c 45ce 8ebc ec81 09bd
00000100: 35b2 cfbc c579 883c 8b9a b93c 061c 9ebb
00000110: 3f38 68bc 8ad8 89bc 3ffd b7bc 08f1 9fbc
00000120: f963 053d e713 47bd fbb4 ea3c 3642 003d
00000130: 4353 6cbc a6d2 09bc 0cb8 48bc bca9 28bd
00000140: ecc0 083c 50f1 d6bc dc69 a23c dbd8 34bb
00000150: 8165 ecbc a407 5bbd c792 0a3d 5f8a 373d
00000160: 263b 2c3d b3bd 833c 022f 9a3c d005 cb3c
00000170: 28fc 183d 2ae6 ea38 123b a73a 268c aa3c
00000180: af02 fe3c a2a3 3fbc c45a d03c 259e 253d
00000190: a4b6 ccbc f8a2 3dbd 827e 8ebb 0ebc f1bc
000001a0: 9668 4b3d 9d08 55bc d86f b3bc 7711 ec3c
000001b0: 7f19 823c 084a 8c3c cec8 493d 1bbd 37bd
000001c0: c708 e03c 95aa c1bc 5cc4 ac3c 1245 c5bc
000001d0: 3e7d 473d 9c0c 55bc 9def f73b f11c 06bd
000001e0: 7b0e ba3c ee13 41bd 6adf ad3c a17d 4c3d
000001f0: 0c52 313d 38fb c13c 5f43 bfbc 34c0 a23b
00000200: 7628 313c 6307 55bd 9f93 b83c 3438 2ebd
00000210: 9e93 af3c 2d39 443d d4b7 89bc 7ed7 443c
00000220: 96ea 553d cf73 473d 7ad0 4d3d 301d dcbc
00000230: 742b ed3b 9f68 41bd 3208 733b 84dc 5abd
00000240: 474e ce3b 9eca a23c 9725 3dbd 5b8b 48bb
00000250: b195 afbc fc59 2b3d 8440 4ebc 0f8a ae3c
00000260: 7031 15bd f1f1 853b 0002 053d 3e14 1e3b
00000270: 52a8 9dbc 5440 c8bc c151 d03c 52e8 8b3c
00000280: 5563 f33b 1c04 1f3d 414c 5dbc 89af d4bc
00000290: 8476 ee3b e7e3 f03c 884f 6dbd e8b5 00bd
000002a0: 9dfb 2d3c 6f18 0a3d 1067 e43c e78d 4d3c
000002b0: 092e 48bd 6ed8 cebc 8ecc d33c 9048 153c
000002c0: fe15 d73c bf66 193d 08a9 e43c 384a a9bc
000002d0: b71f d7bc 8ec8 1fbc c132 bbba f81e 8ebb
000002e0: d4c5 29bc 61f3 db3b 9760 053d dbbe ffbc
000002f0: f2ec cb3c fa32 46bd 0cb7 393b e749 38bd
00000300: 94a6 433d b8d0 2bbd 4bcb d6bc 217d dd3c
00000310: 9efe ae3c dfae 1a3d a04a 663c 5ca2 29bd
00000320: 4957 0fbd 5bf9 0b3d dd21 47bd 1d05 383d
00000330: aca1 0abc 9145 153c 2856 0cbb f8c0 4dbc
00000340: ead1 48bc 4684 713c 0091 0fbc 87ae 093c
00000350: 8f46 2b3d eb4e 933b 3543 20bd 285f 1abd
00000360: 1dbb 023d aae7 8e3c 32a9 1c3c f8d7 cbbc
00000370: cef0 26bd 5afa 303d 33e6 3fbd 6201 cbbc
00000380: b017 a43c 9c8f 343d 5808 3bbc d0a0 2ebd
00000390: c104 753c b738 803b 48fa fcbb 981e 31bd
000003a0: a1f5 233d ecdb d63b ef98 af3c 0493 c73c
000003b0: 530b 243d a07c 9cbc 4914 093b 4600 0bbd
000003c0: 2ef2 39bd 1571 a0bc 6f5d 943c 91d4 e5bc
000003d0: b120 093d f6ef 373c 0a4c 96bc cd0f b93c
000003e0: 9b4a 113d 8a0b acbc a8b0 d53c 2bcd 133d
000003f0: 9f9f 423d 13e7 fbbc 3872 413d d11d c93b
-0.0423939 0.011810306 0.030041149 -0.045168884 -0.016676193 0.034139596 -0.03674067 0.045829535
-0.0040004584 0.010659665 0.048272017 -0.037485614 0.043354534 -0.04670876 0.036205962 0.00023686838
0.044288967 -0.0024845898 -0.04726079 0.017933492 0.030960573 -0.009744611 -0.051480424 -0.0016792386
0.009753778 0.0113620795 0.021354526 -0.011987839 -0.0019357551 -0.002146385 0.0224615 0.018788967
0.020972176 0.0031924166 0.010670492 0.03746362 0.011550272 -0.043818068 0.01422832 0.058744833
-0.010416099 0.033503905 -0.03950459 -0.0036530746 0.03286246 -0.031839542 -0.007996507 0.0010376846
-0.013185955 -0.025308907 0.03301373 -0.0116185425 -0.017974103 0.030252276 0.0096828565 -0.020128118
0.03223841 -0.02774636 0.05037603 0.040637866 0.0049264496 0.017205372 -0.017432341 -0.03357117
-0.02535353 0.016659627 0.0226567 -0.004825118 -0.014173566 -0.016826887 -0.022459624 -0.019524112
0.032566044 -0.048602965 0.028650751 0.031313144 -0.014424148 -0.008412039 -0.012250911 -0.041177496
0.008346777 -0.026238114 0.019825868 -0.0027595076 -0.028856995 -0.053474084 0.033831384 0.044809695
0.042048596 0.016081667 0.018821243 0.024783045 0.03734985 0.00011200861 0.0012758693 0.020818781
0.031007139 -0.011696728 0.025433905 0.04043402 -0.024989434 -0.046297997 -0.004348577 -0.029508617
0.049660288 -0.013002542 -0.021903917 0.028816922 0.015881298 0.017125145 0.049263768 -0.04485808
0.027347935 -0.02364091 0.021089725 -0.024080787 0.048703425 -0.013003495 0.007566406 -0.032742444
0.022711983 -0.047138147 0.021224696 0.049924497 0.043291137 0.02367936 -0.023347555 0.00496676
0.010812869 -0.052008998 0.022531329 -0.04253407 0.021432694 0.04790609 -0.016811289 0.012014268
0.05222567 0.048694428 0.050247647 -0.026869386 0.007237846 -0.047218915 0.0037083742 -0.053432956
0.0062959525 0.019872006 -0.046178427 -0.003060064 -0.021433683 0.041833863 -0.012588624 0.021306066
-0.0364241 0.0040876796 0.03247261 0.0024120952 -0.0192453 -0.024444737 0.025429608 0.017078552
0.007427613 0.03882228 -0.01350695 -0.025962608 0.0072773118 0.029405547 -0.057937175 -0.03142348
0.010619071 0.033714708 0.027881175 0.012546039 -0.048872028 -0.025249686 0.025854375 0.0091115385
0.026255604 0.037451502 0.027912632 -0.020665273 -0.02626024 -0.009752406 -0.0014282094 -0.004337188
-0.010362107 0.0067123626 0.03256282 -0.031218937 0.024893258 -0.04838846 0.0028337864 -0.044992354
0.047766283 -0.041947097 -0.026219985 0.027037205 0.021361645 0.037764426 0.014055878 -0.041414604
-0.03499535 0.03417335 -0.04861628 0.04492675 -0.008461397 0.009110824 -0.0021413658 -0.012558214
-0.012257079 0.014741009 -0.008762598 0.008403427 0.041815337 0.0044954917 -0.039126594 -0.037688404
0.031916726 0.01744445 0.009561824 -0.024883255 -0.040756993 0.043207504 -0.046850394 -0.024780933
0.020030826 0.04408227 -0.0114155635 -0.04263383 0.014954747 0.003913011 -0.0077202655 -0.043242067
0.04002917 0.0065569784 0.02143523 0.024362095 0.040049862 -0.019102395 0.0020916632 -0.033935808
-0.045396976 -0.019585172 0.018110959 -0.028055461 0.033478443 0.011226645 -0.018346805 0.022590542
0.03547154 -0.021001596 0.026085213 0.036084335 0.047515508 -0.030749833 0.047228068 0.0061375876

feature_extractor.7.bias f4 [120]
00000000: b1f0 a93c 5687 153d 65ff 9f3c 95d3 003d
00000010: b881 2c3d 92f9 06bd ddfe 113d 15ee 573a
00000020: a7d1 04bd c0d1 813b 5757 b83c a066 e7bc
00000030: 92b6 20bd ca3b 4abd 05df dabc 7b18 28bd
00000040: 4061 f53c 2311 b3bc 270f 35bd 908b f6bc
00000050: 9c2d 3ebc 2daf f83c fd6f 133d c878 803c
00000060: 59ff 273d aa65 22bd 73c5 afbc 7131 0d3d
00000070: d175 90bc f91c 763c dbf4 49bc 359f d93c
00000080: 48da 49bd 0bc0 ab3c ff7d e9bc 88fe f3bc
00000090: a0c8 1c3d f901 c9bc 18ce e13b c1a1 893a
000000a0: 2e71 10bd e092 e43c da5f 0ebd 764b 92bc
000000b0: cea0 42bd 1680 41bc 7483 703c 57e6 5b3c
000000c0: 68cd c23c 01ca 89bc 2cb2 953c 5aba 48bc
000000d0: fc7d 2c3d 3492 e7bc 9b61 95bb 0699 9439
000000e0: 7ddc 153d 17e4 81bc e4ec 1abd 507d 6f3c
000000f0: c3c8 363d 2339 13bd a1c4 87bc 9d42 73bc
00000100: 5832 0a3d 108b e13b 258c 31bd 2f19 203d
00000110: ce16 5bbc 8874 40bd 5758 423d 38c7 32bc
00000120: 61ae ae3c 3523 cd3a b2fe 113d 7409 b1bc
00000130: ead3 84bc f3a0 cbbc dc4f 03bd 05c5 01bd
00000140: 22cc e63c c6f6 07bd 02a6 b8ba c70e d23b
00000150: 9e30 4e3d 9b4f 91bc d1d0 8fbc 8095 b43c
00000160: e059 3f3c 3c81 a63c 2720 2c3d 88e8 24bd
00000170: efbc 6c3c 2ed9 2bbb e922 39bd d51f b0bb
00000180: 9e13 6e3c f8b9 ec3c c4ba 1b3b 88db 06bd
00000190: 0a2e 60bc 48d3 253d 2e9d bf3c db7f 14bd
000001a0: d480 533c ece2 24bc be87 0a3c fe0a 033d
000001b0: ca28 c5bc 18d8 30bb 0b9c 213d f403 e5bb
000001c0: 3cd4 483d 84a1 8dba ec66 e43b 9e0e 0dbc
000001d0: 20c6 b53c 9359 6ebc bf74 533d 60e9 323d
0.020744653 0.03650602 0.019530961 0.03145178 0.042115897 -0.032952853 0.035643447 0.0008237076
-0.032426503 0.0039617717 0.022502584 -0.028247178 -0.039236613 -0.049373426 -0.026717672 -0.04103897
0.029953599 -0.021858757 -0.044203904 -0.030095845 -0.011607554 0.030356968 0.035995472 0.015682593
0.041015003 -0.039647736 -0.021456456 0.03447098 -0.017634304 0.015021556 -0.0123264445 0.026565174
-0.049280435 0.020965597 -0.028502462 -0.029784456 0.03827727 -0.024537073 0.0068910234 0.0010500477
-0.035264187 0.027902067 -0.03475938 -0.017858248 -0.047516637 -0.011810323 0.014679778 0.0134216165
0.023779586 -0.016819956 0.018273436 -0.012251461 0.042112336 -0.028267957 -0.0045587546 0.0002834277
0.036587227 -0.015855832 -0.037823573 0.014617279 0.044625055 -0.03594316 -0.016573252 -0.014847425
0.033739418 0.0068830326 -0.043346543 0.039086517 -0.013372136 -0.046986133 0.04744753 -0.010911755
0.021323385 0.0015650751 0.035643287 -0.021610953 -0.01621433 -0.02485702 -0.03205858 -0.031682033
0.02817351 -0.033194326 -0.001408756 0.006410453 0.050339334 -0.017738154 -0.017555626 0.022043943
0.011679143 0.020325296 0.04202285 -0.04026082 0.014449342 -0.0026221978 -0.04519931 -0.0053748884
0.014531044 0.02889727 0.0023762444 -0.032924205 -0.013682852 0.040484697 0.023390379 -0.036254745
0.012909133 -0.010063868 0.008455215 0.031992905 -0.024067301 -0.002698427 0.039455455 -0.0069889966
0.049030527 -0.0010805582 0.006970277 -0.008609442 0.0221892 -0.014547723 0.05162501 0.043679595

classifier.0.weight f4 [84, 120]
00000000: 3051 de3b 998a 49bd 9f59 e03c 4e1a f1bb
00000010: 33e8 9cbd f9f3 b43c efa1 7ebd 92f3 0fbd
00000020: 9a26 85bd 8d99 8b3d 13bb 343d 5566 55bd
00000030: 0b1d 7b3d 5a9a 8bbd 2906 073c dfc1 8cbd
00000040: ae73 553d e642 37bd d15d abbc 9c4c ea3c
00000050: e83d aebd 1357 6e3d 2345 c53b 7b66 6cbd
00000060: 9fe1 86bb a890 42bd 7463 d53c 5c46 2e3d
00000070: 9ac0 9abd fba8 873d e1cc d7bc 2bf1 a13d
00000080: a7de d639 1833 0c3d 26b5 24bd 3557 413c
00000090: 6aa5 16bc e584 aabc b0f4 3cbd e7c9 383b
000000a0: 3e30 abbd 89a4 57bd e53a 06bd 1df1 173b
000000b0: 1d33 71bd 47db 36bd edb7 153c 58f8 333a
000000c0: d929 a73b ce50 40bd 108d 943d a8ed babc
000000d0: d5cd 92bd 4b98 523d 6665 463c 5760 6abb
000000e0: 3a91 a8bd cd83 5ebd 66bf 553d 59d8 94bc
000000f0: bfe2 7bbd b9d4 7b3d a2f2 97bd c8af 733d
00000100: f433 fdbc c839 1d3d 51e6 483c 3d45 c63d
00000110: 9a7b 0e3d b3dc c9bb 4fed af3d 2a66 95bd
00000120: ef84 523c 4979 f63c 1a86 73bd 5767 47bd
00000130: 0226 30bd 094c 41bd 369b 2dbc 5a35 67bd
00000140: bb14 a53d 51a9 15bb e79c bb3d cab1 c93c
00000150: 5bf4 3bbc 0d87 023c 2b43 47bd fbdb 43bd
00000160: 0821 143d ffc1 3abc 95e4 193c b348 f5bb
00000170: f077 a63d a229 babd 3b20 64bd 770b 42bd
00000180: 44a2 f2bc c8a1 933d e45b 7d3d 07fc 75bd
00000190: 6721 dfbc 04b7 b93d f1e4 8ebd 7fd5 1a3c
000001a0: 5ade 1b3d 1908 2f3d d333 9f3d 58fd 733d
000001b0: 4881 a43c ffb1 b2bd 078d 22bd 0562 81bc
000001c0: e152 88bd 7201 34bd 351d 8a3c e631 11bd
000001d0: 91cd 7d3c c8c8 0b3d 3479 633d 2255 8fbd
000001e0: 5200 a53d a911 153d c48d fc3b 4f99 dfbc
000001f0: 1817 e3bc 973f 273b 6786 41bc 2e4c b0bd
00000200: d622 673c 8393 76bd 43c4 a0bd b4bc 5c3d
00000210: e60c 76bc 6b5b c4bc af75 4cbc 4cc2 20bd
00000220: f5c3 423d 52c9 4bbb 4918 29bd 7af9 b03d
00000230: 24d5 873d 43fe 8c3d 5801 babd 7095 8d3c
00000240: 5b46 a73b 04d1 a03d 5a34 cc3c de6e 983c
00000250: 6011 6f3d cf2f 213d 3527 a7bd 4d13 b7bd
00000260: e2d6 4bbd c819 acbc 027b af3c b0a8 673d
00000270: 9089 a6bd 4ab9 5dbc f9ef 92bd b834 a13d
00000280: 46b2 613d bf08 573d 29c4 1cbc 93dc 6cbd
00000290: c8a8 3bbd a741 84ba 9eff 6739 0976 c5ba
000002a0: ae92 a23d 9101 44bd 99ee 8b3d 4da5 253d
000002b0: 83fb 91bd c6f1 27bd f28b 63bd 117c 04bb
000002c0: 1670 463d 8a11 553d 43a1 9bbc 11ab a03d
000002d0: 8d02 313d 0116 773c 1b75 97bd b482 9ebd
000002e0: a2ab 673d bf8c 473d 29d0 33bd 5aa1 8cbd
000002f0: 83cf 4b3b 12be aabd daa3 7b3d 91a7 443d
00000300: 7cb4 ce3c 4037 85bd 27dc 77bc 200e 3cbd
00000310: 6621 333d b807 b23d 03fa 693b 3469 c0bc
00000320: 47ba 803d c0a4 adbc f636 32bd eed9 9cbd
00000330: 314b 423c 1487 933d 130c 6a3d c0f1 053d
00000340: 3bd0 803d bb50 95bd 8569 b33d 4e7b f1bc
00000350: c282 b5bd 0948 273d 3fe7 ae3c 5ed6 adbc
00000360: ae3a b1bd ae2f 813a ceac 38bd cf91 69bd
00000370: e272 a73d ae93 2e3d 59f3 a2bd 95de 20bd
00000380: 1e8d 3bbd 927d a8bd c95c 93bd 72c4 b93d
00000390: d2e3 853b 1a9c 963d c2ee 7d3c dd48 b43d
000003a0: 8e69 62bd 0987 c03c b676 39bd 68d6 043d
000003b0: bb47 903d a29a 8c3d ed22 7cbd c6af 6abb
000003c0: 0f93 633c 08d1 b63c 0f5e 0dbd 3be7 ce3c
000003d0: 7bd4 92bd 2c33 efbc 3a2a c5bc 61f8 c5bc
000003e0: 6d96 77bd 90b3 833d 5169 45bc d0b2 313d
000003f0: a71e 1ebb 025a a53b 56f8 aa3d c4ac 8f3d
0.0067845806 -0.049204443 0.027386485 -0.007357872 -0.07661476 0.022088991 -0.06216615 -0.035144396
-0.06501503 0.06816397 0.04412372 -0.052099545 0.061306994 -0.068165496 0.008241215 -0.068729155
0.052112274 -0.044741534 -0.020918759 0.028600983 -0.085079014 0.05818851 0.0060202046 -0.05771492
-0.0041162516 -0.047501236 0.0260484 0.04254757 -0.07556267 0.06624027 -0.026342811 0.07907327
0.0004098315 0.034228414 -0.04021182 0.011800577 -0.009194711 -0.020815322 -0.04613179 0.0028196515
-0.08358811 -0.052647147 -0.03277101 0.0023184486 -0.058886636 -0.044642713 0.00913809 0.0006865314
0.005101424 -0.04695206 0.07253468 -0.022818401 -0.071681656 0.05141477 0.012109136 -0.003576299
-0.08230825 -0.054324914 0.052184485 -0.018169569 -0.06149554 0.061482165 -0.074193254 0.05949381
-0.030908562 0.038385183 0.012261943 0.09681175 0.034785844 -0.0061603426 0.08590185 -0.07294877
0.012849077 0.03008713 -0.05945406 -0.048682537 -0.043004997 -0.047191653 -0.010596087 -0.056447364
0.08060595 -0.0022836516 0.09160786 0.02462091 -0.011471833 0.007966769 -0.04864804 -0.04781721
0.036164314 -0.011398791 0.009392877 -0.007485473 0.08128345 -0.09089972 -0.0556948 -0.047374215
-0.02961839 0.07208592 0.06185521 -0.060054805 -0.027237607 0.090681106 -0.06977261 0.0094503155
0.038053848 0.042732332 0.077735566 0.05956778 0.020081177 -0.08725356 -0.039685275 -0.01579381
-0.06656433 -0.04394669 0.01685963 -0.035447977 0.015490905 0.034127027 0.05553551 -0.0699866
0.08056702 0.036393795 0.0077073295 -0.027294783 -0.027720973 0.002552008 -0.011811829 -0.0860828
0.014107427 -0.060199272 -0.07849934 0.0538909 -0.015017724 -0.023969373 -0.01247923 -0.039247796
0.04755016 -0.0031095338 -0.041282926 0.08641334 0.0663245 0.06884434 -0.090822875 0.017283171
0.0051048226 0.078523666 0.024927307 0.018607553 0.05836618 0.039352234 -0.08161775 -0.08939228
-0.049765475 -0.021008387 0.02142096 0.056557357 -0.08131707 -0.013532946 -0.071746774 0.078713834
0.055101655 0.052498575 -0.009568253 -0.057827543 -0.04581526 -0.0010090367 0.00022125102 -0.0015065084
0.07938133 -0.047853056 0.06832618 0.040440846 -0.0712805 -0.041002057 -0.055553384 -0.002021555
0.048446737 0.05201868 -0.018997794 0.07845128 0.043215323 0.01508093 -0.07395383 -0.077397734
0.056560166 0.04871821 -0.04389969 -0.06866713 0.0031099028 -0.08337034 0.061435558 0.048011366
0.025232546 -0.06504679 -0.015128172 -0.04591191 0.043733023 0.086928785 0.0035701997 -0.023487665
0.062855296 -0.021196723 -0.043509446 -0.07658754 0.011858747 0.072034985 0.05714042 0.032701254
0.06289717 -0.07290789 0.08760361 -0.029477742 -0.08862831 0.040840182 0.021350501 -0.021220382
-0.086537704 0.0009856129 -0.045086674 -0.05702382 0.08176209 0.042621307 -0.07956571 -0.03927477
-0.045788877 -0.08227076 -0.07195432 0.09070672 0.004085996 0.07353993 0.015498819 0.0880296
-0.055276446 0.02350189 -0.045279227 0.032431036 0.070449315 0.06865431 -0.061556745 -0.0035810336
0.013890042 0.02231647 -0.03451353 0.025256744 -0.07169434 -0.029199205 -0.024067987 -0.024166288
-0.06044619 0.06430733 -0.012049035 0.04338342 -0.0024127157 0.00504613 0.083481476 0.07015374

classifier.0.bias f4 [84]
00000000: 74fb 20bc cd60 b1bd e9a6 363d 2194 a53d
00000010: e707 a53c 63af 203d 3223 a03d 4ffd 5b3d
00000020: 9409 2cbd d7f5 493d b405 9fbd c9fc b63d
00000030: fac7 743d 5e42 44bd a60e cabc 83a0 6dbd
00000040: 8711 23bd 4014 62bd eaf7 b0bd 508f 74bc
00000050: 4342 1c3d bbf9 643d 7449 f2bc d3f7 8cbd
00000060: 0a62 583d cd75 df3a 7218 96ba ba5c 3d3d
00000070: d56d cebc 5d61 2c3d 6722 fa3c 1b43 57bc
00000080: 1a88 8dba 54f4 ccbc a1bd 24bd aac0 92bb
00000090: 16cb 9bbd 5d28 91bd 5833 84b9 e773 b1bd
000000a0: 9812 34bc 7a89 a7bd 8e4e ec3c 88b1 5e3c
000000b0: 063a 32bd 1c68 28bb d7f5 243d 531e 9cbd
000000c0: f9da 9bbd 09af a93c 4dd9 d13c c736 3b3d
000000d0: 5000 3e3c d2de b5bd bed9 57bd d1fc 25bb
000000e0: f201 38bd 7da0 0dbd ec8f ac3c 08ee 54bd
000000f0: 7953 393c 97d5 c83d c044 b03d 40b7 40bc
00000100: 7a2e 6d3d 3e1d 9abd 6746 453d 2464 373c
00000110: eb9c a43d 75b7 823d f099 aebd 5132 a73d
00000120: 1d00 893d 1e1a 9a3d 0b28 4b3d f8c8 38bd
00000130: 9b11 89bb 7f17 8abb 5a17 273d e663 3a3d
00000140: 34ae 19bd b518 a2bc 1b69 25bd 586e e13a
-0.009825576 -0.086610414 0.04459277 0.08084894 0.02014537 0.03922976 0.07819213 0.05370837
-0.042001322 0.049306717 -0.0776476 0.08934934 0.059761025 -0.047914855 -0.024665188 -0.058014404
-0.039811637 -0.055195093 -0.08641036 -0.0149267465 0.03814913 0.055902224 -0.02957604 -0.06883206
0.052827872 0.0017048657 -0.0011451377 0.04623101 -0.025198856 0.04208504 0.030533982 -0.013138558
-0.0010798008 -0.025018848 -0.040219907 -0.0044785338 -0.07607095 -0.07087777 -0.00025215256 -0.08664685
-0.010990761 -0.081805184 0.028846052 0.013592131 -0.043512367 -0.002569682 0.040273514 -0.076229714
-0.07610125 0.020713346 0.025616312 0.045706537 0.011596754 -0.0888039 -0.05269789 -0.0025327692
-0.04492373 -0.03457688 0.021064721 -0.051984817 0.011311405 0.09806364 0.08606863 -0.01176244
0.05790565 -0.07525109 0.048162844 0.011193309 0.08037742 0.06382648 -0.08525455 0.08163894
0.06689475 0.07524513 0.049598735 -0.045113534 -0.004183007 -0.0042142267 0.040793754 0.045505427
-0.03751965 -0.019787172 -0.04038344 0.0017199023

classifier.2.weight f4 [10, 84]
00000000: 6ca0 c3bd 9083 b0bd 5c45 7a3d 40db c8bc
00000010: 707c b63c 772b 43bd 2003 773b 977e 293d
00000020: b94b a3bd ae0e d33d eb2d 96bd d303 adbc
00000030: 6a87 463d 948e dabd dc8a 8a3d 0187 a63d
00000040: 2a0c 15be 61e2 84bc 646f a9bd 5f6a 123e
00000050: 6f04 d0bd 1e1b 0ebe 6db0 a1bd 0cad 933d
00000060: 5dfd a53c df43 d6bd a38a d2bc ed78 94bd
00000070: 96d7 0c3e 872e ccbd 5ed3 a93c 2710 8d3d
00000080: 00c2 0fbe 71e0 cf3c 0cfe a5bb 36d4 d63c
00000090: c707 59bd 0e45 dcbd 6ce1 a5ba 2714 c0bc
000000a0: 28de f0bc 057d 103e a254 8bbd 6277 8ebd
000000b0: 356a 233d c4ac b8bd 0059 bd3d a9dd 233e
000000c0: 9b12 d53d 7c44 a43d 1c36 2ebe 8fd1 253d
000000d0: 1469 07be 50f6 32bd f803 9fbd 6dda aebd
000000e0: 0e9d 9e3d 6e86 983d b461 123d 1d8f 2e3d
000000f0: a51b 243e 551c 393d 4f7a 60bd 5b7c 953d
00000100: 494f 1cbd 4821 24bc e364 533d e72c 493c
00000110: 7b98 a93d 0b5e 8fbc f90d 62bd 2d51 063d
00000120: b764 cd3d e349 10be 8736 02be 77fc 043d
00000130: f592 7a3d 6ad1 933c 50ba efbd ec3f 00be
00000140: 097b 9dba be91 2a3d b477 1dbe c6bc c83d
00000150: 9eee d1bd a32f 0c3d 50f7 f9bc 66de cbbd
00000160: 4548 d13c 8ea2 96bb c57e a53d d343 0a3e
00000170: 097a 263e 8a60 ca3d 32c3 07be 89fd 063e
00000180: dfa8 273e 166e 9cbd eac1 fa3d 23a1 42be
00000190: 1994 f5bd cb91 c83d 7cf4 e83d 38ab 3c3c
000001a0: 24b3 c1bd b918 073c f152 933d 81a4 be3c
000001b0: 9dd2 9b3d 5066 4bbd cb81 ad3d 0a6b 41bd
000001c0: cd7a 563d a15a 463d b977 ebbd 1f12 af3d
000001d0: 5829 a73d 21e4 debd 37b3 85bc b57d bc3d
000001e0: e3e2 9f3d eefe c33d 2f95 693d 50ba 1ebd
000001f0: f517 413d 0e49 bdbd 85ed bd3b ce28 62bd
00000200: 8e09 5ebd 2237 283e d785 aebd 3046 113e
00000210: c476 da3d d577 703d 8167 d03d 35dd edbd
00000220: fbae a23d 7639 4cbc 0202 adbd aed9 1b3a
00000230: 1018 a63c 5fd2 abbd c857 69bd fb76 b23d
00000240: c864 98bd e7c9 de3d bb67 b3bd fe57 cebd
00000250: 4ec4 ca3d cebb c33d a4d4 013e df94 dc3d
00000260: a982 003e 72ed 7b3d c11b ac3b db97 9e3c
00000270: 8d16 4b3d e6bf 8e3d d8b6 5ebd 3cc9 603d
00000280: ca83 a3bd 8410 bcbd 771a e83c 8c38 d93d
00000290: 5008 833c 7a9b e43d ad97 aebd cda3 03be
000002a0: 575f cbbc 4c18 cabd 5a0e db3d c28e 13be
000002b0: c3b3 dc3d 51e7 c73d 968c c43d fd20 bd3d
000002c0: 44de 8c3c b980 98bb f7dc ef3d b47d 8ebd
000002d0: ca78 2bbd d9af 903d f6ca ccbd 72b3 de3c
000002e0: fb27 df3d 458f 343d 667f 9fbd da2f b8bc
000002f0: 7bb3 0cbe b3fd 863d 0735 fb3d 8f29 db3d
00000300: 90d2 943b 9390 863d fd12 c83d b049 223e
00000310: 9aac 1e3c 6b09 bb3d 3559 6bbd b7a3 e43c
00000320: 6a28 05be 2f65 96bd 19b2 dabd 5370 56bd
00000330: a59a abbc dc84 99bd 7d9b 1cbe 1b6c 943d
00000340: 12c7 7bbc 4e96 ef3c 49c5 0c3e c5ad eb3d
00000350: b2c6 efbd 1f03 22bd 28c4 44bd 3380 1c3d
00000360: 5c46 9a3c 041c fc3b 9355 bd3c 2940 163e
00000370: 0cf8 2f3d 21cc 933d b7d7 10be 6c0c 933c
00000380: ea78 1d3d 9703 9a3d b539 b0bd 0d08 17bd
00000390: e1d7 8b3d a0ca f23c a590 07be 35f3 11be
000003a0: ce6d 4dbd f67c 59bd 84bd d1bd 9dca bdbd
000003b0: 9843 2e3e b295 12bd cd94 4b3d 5a27 b83d
000003c0: 46a0 e03b 6340 99bc 5f03 ea3d 9825 d13d
000003d0: 19fe 943c d3aa a5bc 051b 063d 6513 e2bc
000003e0: 93e4 cabd a198 11bd 34c0 ed3d 2073 fabd
000003f0: 5b89 ae3d 81f0 f1ba a727 ec3b e6f3 cfbd
-0.095520824 -0.086188436 0.061101303 -0.024518609 0.022276133 -0.047648873 0.0037691072 0.04138049
-0.07973427 0.10305534 -0.07332977 -0.021119988 0.048468985 -0.10671726 0.067647666 0.08131219
-0.14555421 -0.016221227 -0.08273199 0.1429839 -0.10157096 -0.13877532 -0.07894979 0.072107404
0.020262415 -0.10462164 -0.025700873 -0.07249627 0.13754115 -0.09969812 0.02073067 0.068878464
-0.14038849 0.025375577 -0.005065685 0.026224237 -0.052985933 -0.10755359 -0.0012655682 -0.02344711
-0.029402807 0.14110191 -0.06803252 -0.06956364 0.03989621 -0.090173274 0.09245491 0.16002525
0.10403939 0.08020875 -0.17012829 0.040483054 -0.13223678 -0.043691933 -0.07764429 -0.08537755
0.077447996 0.074475154 0.03573771 0.042616952 0.1602617 0.045193035 -0.054804143 0.072991095
-0.03816155 -0.0100177005 0.051609885 0.012278772 0.082810365 -0.017500898 -0.055189107 0.03279226
0.100289755 -0.14090686 -0.12716113 0.03246733 0.061175305 0.018044192 -0.11705458 -0.12524384
-0.0012014817 0.041642897 -0.15377694 0.09801631 -0.10250591 0.034225117 -0.030513436 -0.099545285
0.025547156 -0.0045970147 0.0808082 0.13502435 0.1625749 0.098816946 -0.13258055 0.13182653
0.16373013 -0.07638185 0.122440174 -0.19006781 -0.11991138 0.09793433 0.11374757 0.011515431
-0.094579965 0.00824564 0.07193554 0.023271801 0.07608531 -0.04965812 0.08472022 -0.04722122
0.052363206 0.048426274 -0.11497445 0.08548378 0.081621826 -0.10883356 -0.016320808 0.09203664
0.07806947 0.09570108 0.05702704 -0.0387519 0.047141988 -0.0924245 0.005796137 -0.055214696
-0.05420833 0.16427281 -0.08521622 0.1418693 0.10667184 0.05870803 0.10175992 -0.116144575
0.07943531 -0.012464872 -0.084476486 0.00059452176 0.020275146 -0.083897345 -0.05696848 0.087141
-0.074410975 0.108783536 -0.087600194 -0.10075377 0.099007234 0.09557305 0.12678772 0.107705824
0.12549843 0.061505742 0.005252332 0.01935952 0.049582053 0.069701955 -0.054373592 0.054879412
-0.07984121 -0.091828376 0.028332932 0.106064886 0.015995175 0.11162467 -0.085250236 -0.12855454
-0.024825735 -0.098679155 0.10696097 -0.14409927 0.10776474 0.09760917 0.09597127 0.09234808
0.017195828 -0.004654017 0.117120676 -0.0695757 -0.04186324 0.0706479 -0.09999649 0.027185176
0.108962975 0.044081945 -0.07787971 -0.022483755 -0.13740341 0.06591358 0.122659735 0.10701286
0.0045417026 0.06570544 0.09769247 0.15848422 0.009684706 0.09132656 -0.05745812 0.027910097
-0.13003698 -0.07343518 -0.10678501 -0.052353214 -0.020947764 -0.07496044 -0.15293689 0.07247182
-0.015367286 0.029246476 0.13747133 0.11507753 -0.1170782 -0.039553758 -0.04803863 0.038208198
0.018832378 0.0076937694 0.023112094 0.14672913 0.042961165 0.07216669 -0.14144789 0.01795026
0.03844539 0.07520216 -0.08604757 -0.036872912 0.06828285 0.029637635 -0.13238771 -0.14252932
-0.050153546 -0.053097688 -0.10241225 -0.09267161 0.17017972 -0.03578729 0.049702454 0.08991881
0.0068550436 -0.01870746 0.11426424 0.102122486 0.01818757 -0.020223057 0.03274061 -0.027597139
-0.09906878 -0.03554595 0.116089255 -0.122289896 0.08522292 -0.0018458517 0.0072068754 -0.10153942

classifier.2.bias f4 [10]
00000000: 35a5 76bc a12d 10bc edfd dfbc 4e03 aa3c
00000010: 4410 debc 457e 553d b236 5a3d 0650 fbbc
00000020: 5f6f 85bd 844f 613d
-0.015054037 -0.008799941 -0.027342761 0.020753529 -0.027107365 0.052122373 0.053274818 -0.030677807
-0.06515383 0.055007473
