checkpoints/noise_rate_0.2/models/tsf/epoch199.pth (torch, 250639 bytes, 10 tensors)

feature_extractor.0.weight f4 [6, 1, 5, 5]
0	0x3e15598e	0.14584944
1	0xbd38899f	-0.04505312
2	0xbcebc1f9	-0.028779017
3	0x3d93d95d	0.07219193
4	0xbe5da562	-0.2164512
5	0x3e42f098	0.19037092
6	0x3d3521a3	0.04422153
7	0x3e333d93	0.17503957
8	0x3d947ee7	0.07250767
9	0x3b92a1a7	0.004474837
10	0x3de9c6b0	0.1141485
11	0x3dce18a3	0.10063293
12	0x3e335363	0.17512278
13	0x3c716aa6	0.0147349
14	0x3d80d24e	0.062901124
15	0xbd0cb2c8	-0.034350187
16	0x3d29f5f8	0.04149434
17	0x3d29cca5	0.04145493
18	0x3e78728d	0.24262448
19	0x3e1b5514	0.15169173
20	0xbe12b6b4	-0.14327508
21	0xbe3e706f	-0.18597578
22	0xbd97a742	-0.07404949
23	0xbda21925	-0.07914952
24	0xbc5b53d6	-0.013386687
25	0x3de87ec3	0.11352303
26	0x3e8f0a6e	0.27937645
27	0x3e4b4e52	0.19854096
28	0xbe65b521	-0.22432376
29	0x3d244584	0.040105358
30	0x3e30d3b7	0.17268263
31	0x3ebabed3	0.36473712
32	0x3e4ea3f6	0.20179734
33	0xbe837ba8	-0.2568028
34	0xbe97667b	-0.29570374
35	0x3d07d94f	0.033166226
36	0x3eb6a3ce	0.35671848
37	0x3d564580	0.052312374
38	0x3d4a588c	0.04940085
39	0xbe1b80eb	-0.15185897
40	0x3e934001	0.2875977
41	0x3d7a39ec	0.061090395
42	0x3e896d23	0.26841077
43	0x3d58f89d	0.05297147
44	0xbd9fb27d	-0.07797716
45	0x3e11b3da	0.14228764
46	0xbc911470	-0.01770994
47	0x3e405105	0.18780906
48	0x3d6df697	0.058096495
49	0x3db5bb8d	0.08873663
50	0xbe8359ce	-0.25654453
51	0xbe158b14	-0.14603835
52	0x3d6d078d	0.05786853
53	0xbd12fd1e	-0.035885923
54	0x3e839eb0	0.25707006
55	0x3e16e86c	0.147371
56	0x3b1eed67	0.002425039
57	0xbda3294d	-0.07966862
58	0x3e748954	0.23880512
59	0x3e396f06	0.18108758
60	0xbd905a4c	-0.07048473
61	0x3e59cec0	0.21270275
62	0x3e783254	0.24237949
63	0x3e9d19c3	0.30683717
64	0xbd0e0667	-0.034674075
65	0x3d98de4e	0.07464276
66	0x3dd16b0c	0.10225496
67	0x3dffbf9e	0.1248772
68	0xbdd11c98	-0.10210532
69	0xbe112434	-0.14173967
70	0x3e510fb3	0.20416145
71	0x3d1fa77e	0.038978092
72	0x3e1c968f	0.15291809
73	0x3c9a0ae3	0.01880402
74	0x3d19ef06	0.037581466
75	0x3d2da8de	0.042397372
76	0x3dc1b634	0.094585806
77	0x3deb0fb2	0.11477603
78	0xbe3c3bae	-0.18382141
79	0x3dd097de	0.10185216
80	0xbe1beaf4	-0.15226346
81	0xbe1460b2	-0.14490011
82	0x3d04fffe	0.032470696
83	0x3c145aeb	0.00905488
84	0x3e4468d9	0.19180621
85	0xbe058fec	-0.13043183
86	0xbe2dab55	-0.16959889
87	0x3e4c5afa	0.1995658
88	0x3d755ada	0.059901096
89	0x3e5be3c3	0.21473603
90	0x3d870119	0.06592006
91	0xbdf49ca1	-0.11943937
92	0x3de6b47a	0.11264892
93	0x3e06845c	0.13136429
94	0xbda01c29	-0.07817871
95	0xbdb4699f	-0.08809208
96	0x3dd69f97	0.10479658
97	0x3db781ee	0.08960329
98	0xbd351c65	-0.044216532
99	0xbd6d1ca4	-0.057888642
100	0x3e79f80a	0.24411026
101	0x3df22b19	0.118246265
102	0x3e84a353	0.25905856
103	0x3e3241f6	0.17407975
104	0xbdfacf19	-0.12246532
105	0xbd7fcfb9	-0.06245396
106	0x3ef312be	0.47475237
107	0x3e99e66b	0.30058607
108	0x3e99b207	0.30018637
109	0x3dee83a4	0.11646202
110	0x3e98c387	0.29836676
111	0x3f0c58cc	0.54822993
112	0x3f03617f	0.5132064
113	0x3d1251d5	0.035722572
114	0x3dee3619	0.11631412
115	0x3ec5c7bb	0.38628945
116	0x3eed8c0c	0.4639591
117	0x3ebb1448	0.3653891
118	0xbbbb2ccb	-0.005712127
119	0xbd1c8b2f	-0.038218673
120	0xbbb05e89	-0.005382363
121	0x3e25673c	0.16152662
122	0x3e9cb9b3	0.30610427
123	0xbc69d0d7	-0.014270983
124	0x3e667ec1	0.2250929
125	0xbde41af1	-0.11137951
126	0xbe1a2a12	-0.15055111
127	0x3cf0049c	0.029299073
128	0x3e827a16	0.2548377
129	0x3e9fba4e	0.31196827
130	0xbd94b63f	-0.07261323
131	0x3e309871	0.17245652
132	0x3ecbd92f	0.39814135
133	0x3ed988aa	0.4248708
134	0x3ea9d170	0.331676
135	0x3e849e9a	0.25902253
136	0x3e9a04c2	0.30081755
137	0x3ea0144a	0.3126548
138	0x3e24b4ef	0.16084646
139	0x3d0aa9df	0.033853408
140	0xbc2b8a04	-0.010469917
141	0x3daa002c	0.08300814
142	0x3d467e26	0.04846015
143	0x3e95bca7	0.29245493
144	0x3e6badf0	0.2301557
145	0xbcd4499d	-0.025914008
146	0x3dc85764	0.097822934
147	0x3e077fcd	0.13232346
148	0x3e7b9915	0.24570115
149	0x3e7b7270	0.24555373

feature_extractor.0.bias f4 [6]
0	0xbd1845cd	-0.037175942
1	0x3e771c28	0.24131835
2	0x3ca3bb12	0.019986663
3	0x3cf7f133	0.03026638
4	0xbd31789a	-0.043327905
5	0x3cb8ca11	0.02255729

feature_extractor.3.weight f4 [16, 6, 5, 5]
0	0xbd11644e	-0.03549605
1	0xbce96140	-0.028488755
2	0x3d75bb3b	0.05999301
3	0xbcc6337c	-0.024194472
4	0xbd5ce4a5	-0.05392899
5	0x3d53b38b	0.051684897
6	0x3d400ca4	0.046887055
7	0x3d899d8a	0.06719501
8	0xbd14c084	-0.03631641
9	0x3cca0c17	0.024663968
10	0xbd0423f4	-0.03226085
11	0xbc34a4f3	-0.011025655
12	0xbd8d1281	-0.06888295
13	0xbd3f7e67	-0.046751406
14	0xbcffa620	-0.031207144
15	0x3d04801b	0.032348733
16	0x3c9ce210	0.019150764
17	0x3c589597	0.013219259
18	0x3d8c5872	0.06852807
19	0x3d94a160	0.07257342
20	0x3d684008	0.05670169
21	0x3bab4f8d	0.005227989
22	0xbd8cae4d	-0.06869183
23	0x3d5259bd	0.051355112
24	0xbc88cd8d	-0.016699577
25	0xbc849f8d	-0.016189361
26	0xbd4bad5e	-0.049725883
27	0x3ce4f13b	0.027947059
28	0xbd2f53c3	-0.04280449
29	0x3d82fe59	0.06396169
30	0xbdd2751e	-0.102762446
31	0xbd09cce4	-0.033642665
32	0x3d1cc596	0.03827437
33	0xbd3a6f96	-0.045516573
34	0x3c4d8b2f	0.012545391
35	0xbd659b38	-0.05605623
36	0xbcbf978c	-0.023387693
37	0x3d2a2f3b	0.04154895
38	0x3d27fa4a	0.04101018
39	0xbda84700	-0.08216667
40	0x3cfc0770	0.030765265
41	0x3dbdee87	0.09274011
42	0x3dd086c5	0.10181955
43	0xbdb65461	-0.08902813
44	0xbc07f5df	-0.008298366
45	0xbda6c188	-0.08142382
46	0x3dbee111	0.09320272
47	0xbc318ac2	-0.010836305
48	0x3c0c1ad5	0.008551319
49	0xbc53f1eb	-0.012936096
50	0xbc345ff7	-0.011009208
51	0x3bbb39a0	0.0057136565
52	0x3c153c9b	0.009108688
53	0x3d0788fd	0.033089627
54	0x3c6aaec5	0.014323895
55	0x3ce36659	0.027758764
56	0xbd77cdd6	-0.060499035
57	0x3d6ff89a	0.058586694
58	0x3d88b97f	0.066760056
59	0x3d908f73	0.07058611
60	0x3d8a5ada	0.0675561
61	0xbd12a92d	-0.03580587
62	0xbd231816	-0.039817892
63	0x3d42a14a	0.0475171
64	0xbd8a0250	-0.06738722
65	0x3db4c0a3	0.08825805
66	0xbd965c01	-0.07341767
67	0xbda3a9ed	-0.07991395
68	0x3c4c54f3	0.012471425
69	0xbd715564	-0.058919325
70	0xbc94bbf9	-0.018156039
71	0x3d7a851d	0.061162103
72	0x3d3c33f4	0.045947984
73	0x3d8fc3fe	0.070198044
74	0xbc1a8926	-0.009432113
75	0xbd8d3e88	-0.068966925
76	0x3d9d5910	0.07683003
77	0xbcc75319	-0.024331616
78	0xbd22a9e6	-0.03971281
79	0x3ca97cab	0.02068933
80	0xbd6179c9	-0.055047784
81	0x3d5e98f3	0.054345082
82	0x3d30320c	0.04301648
83	0xbd9a5e98	-0.075375736
84	0xbd857951	-0.0651728
85	0x3b877ed3	0.0041349917
86	0x3cf97871	0.030452939
87	0xbc54a92d	-0.012979788
88	0xbd56bc08	-0.052425414
89	0x3ba43863	0.0050116046
90	0xbd9a678b	-0.075392805
91	0xbd6c2aec	-0.05765812
92	0xbd8f034d	-0.069830514
93	0x3d824f63	0.06362798
94	0x3d9c7d55	0.07641093
95	0xbd009ea3	-0.031401288
96	0x3bb2c6cd	0.005455828
97	0x3cec89a9	0.028874235
98	0x3c3b31d1	0.011425451
99	0xbd18440c	-0.03717427
100	0x3d2cde8e	0.042204432
101	0x3dc05ec5	0.09393076
102	0x3d4d8384	0.05017425
103	0xbbcb33a9	-0.0062012267
104	0x3db59bc2	0.08867599
105	0x3d93d34a	0.072180346
106	0x3c91fb3e	0.017819997
107	0x3e253db9	0.16136827
108	0x3c900696	0.017581265
109	0xbd595c6a	-0.05306665
110	0x3d836d7a	0.06417365
111	0xbc05809b	-0.008148338
112	0x3df593ab	0.11991056
113	0xbdcb2081	-0.09918309
114	0xbc9bfd84	-0.019041784
115	0x3cb35014	0.02188877
116	0x3d99b9ba	0.07506128
117	0x3d33e8a8	0.04392305
118	0xbdd5ae3e	-0.10433625
119	0xbd8a28c9	-0.067460604
120	0xbdb5ad9d	-0.08871005
121	0x3c853451	0.016260298
122	0xbcd0a383	-0.025468593
123	0xbd41f987	-0.04735711
124	0xbc6368d1	-0.013879971
125	0x3d867620	0.06565499
126	0x3dffd127	0.124910645
127	0x3d038c31	0.03211612
128	0xbcf6214e	-0.030045178
129	0xbc7904e4	-0.01519892
130	0xbd0a9fa7	-0.033843663
131	0x3dfa9456	0.12235324
132	0xbc7e905d	-0.015537349
133	0x3c792d1e	0.015208511
134	0x3d03fac1	0.03222156
135	0xbccb319b	-0.024803927
136	0x3dbbe70c	0.09174928
137	0x3cb29597	0.021799846
138	0xbd031529	-0.0320026
139	0xbd30801f	-0.043090936
140	0x3a8049ad	0.0009787582
141	0xbb52fc7d	-0.0032193952
142	0xbdd3c217	-0.10339754
143	0xbdb0da9b	-0.08635446
144	0xbb60e6c7	-0.0034317242
145	0x3bbb0a83	0.00570804
146	0x3cfe6a3e	0.03105652
147	0xbd8c7d07	-0.068597846
148	0xbcd5c246	-0.026093613
149	0xbc098088	-0.008392461
150	0xbd9be749	-0.076124735
151	0x3da8a42f	0.082344405
152	0x3d07d7a7	0.033164646
153	0x3dae792c	0.085192055
154	0x3bddd908	0.006770257
155	0xbcbfa2ef	-0.023393122
156	0xbd7d7ae4	-0.061884776
157	0x3a4d2abd	0.0007826498
158	0x3d8d742b	0.06906923
159	0xbda37833	-0.079819106
160	0xbcfa1387	-0.03052689
161	0x3d62f68b	0.055410903
162	0x3d7168b5	0.058937747
163	0x3d1be495	0.03805979
164	0xbc904d8d	-0.017615104
165	0xbd02ca42	-0.03193117
166	0xbd3946fa	-0.045233704
167	0xbd43d015	-0.047805864
168	0x3d54c095	0.051941473
169	0x3b0bfe8d	0.002136144
170	0xbd07d3f3	-0.033161115
171	0x3cd1dec8	0.025618926
172	0xbd5012f2	-0.050799318
173	0x3c0880e2	0.008331509
174	0x3d87f1c3	0.06637909
175	0x3c1317bf	0.0089778295
176	0x3da547f4	0.080703646
177	0xbd48399c	-0.048883066
178	0x3cb1b495	0.021692554
179	0xbc847f8f	-0.016174106
180	0xbd4f51d8	-0.05061516
181	0xbcdc4e1d	-0.026892716
182	0x3d97acd8	0.07406014
183	0x3d58018a	0.052735843
184	0xbd618413	-0.055057596
185	0xbd443aa3	-0.047907483
186	0xbd9d8aa0	-0.07692456
187	0x3dc8f59e	0.09812473
188	0x3c5b247c	0.013375398
189	0xba8363ec	-0.0010024286
190	0xbc9769d0	-0.018483073
191	0xbd7b4b3c	-0.061351046
192	0xbdbbd62a	-0.09171708
193	0xbcb14fc9	-0.02164449
194	0x3dbdd8b4	0.092698485
195	0x3cd0c747	0.025485648
196	0xbd1c7ce1	-0.03820503
197	0xba83f320	-0.0010066964
198	0x3d92646a	0.07148059
199	0x3dad5fac	0.084655136
200	0x3d94a142	0.0725732
201	0x3cb79935	0.022411922
202	0x3d7fd28a	0.062456645
203	0x3c83b18c	0.016075872
204	0xbd761b21	-0.060084466
205	0xbd8cc1db	-0.068729125
206	0x3da51356	0.08060329
207	0x3b4f429b	0.0031625393
208	0x3c8621ae	0.016373482
209	0xb9517926	-0.00019976925
210	0xbd5a0a37	-0.053232398
211	0xbcfff790	-0.031245977
212	0x3b89f63c	0.0042102616
213	0xbcf39788	-0.029735342
214	0xbd802ecd	-0.062589265
215	0x3c07985e	0.008276073
216	0xbba8f792	-0.005156466
217	0x3bdf4875	0.0068140575
218	0x3d94d067	0.07266312
219	0x3d1a72a6	0.037706994
220	0xbc995e87	-0.018721832
221	0x3e07a296	0.13245615
222	0x3df32e08	0.11874014
223	0x3cda7eb3	0.026671743
224	0xbca1975d	-0.019725496
225	0xbd8b5403	-0.06803133
226	0x3d96aa10	0.073566556
227	0xbc33b27c	-0.010967847
228	0xbd76ad1c	-0.060223684
229	0x3d6894c3	0.056782495
230	0x3d3f8091	0.04675347
231	0x3d44a54b	0.0480092
232	0xbc46e385	-0.012139206
233	0xbd266849	-0.040626798
234	0x3c9efbfd	0.019407267
235	0x3d9338f4	0.07188597
236	0x3bf8d598	0.0075938217
237	0xbd02a0cf	-0.03189164
238	0x3db25c84	0.08709052
239	0x3b559b15	0.0032593657
240	0x3d7433ae	0.059619598
241	0x3d12a841	0.03580499
242	0x3de4b19c	0.11166689
243	0x3d90571f	0.07047867
244	0xbd32141c	-0.04347621
245	0x3d9caa58	0.07649678
246	0x3cd04c46	0.025426995
247	0xbd71e722	-0.059058316
248	0xbd028345	-0.03186347
249	0xbd9f5546	-0.077799365
250	0xbdbd611b	-0.09247037
251	0xbda55272	-0.08072366
252	0x3d94e575	0.07270328
253	0x3c258ef8	0.010104887
254	0xbcb1283b	-0.021625629
255	0x3d29e1a0	0.04147494

feature_extractor.3.bias f4 [16]
0	0xbcad469d	-0.021151835
1	0xbd289f43	-0.04116751
2	0x3bad173d	0.0052823112
3	0x3cdfcf25	0.027320454
4	0x3d35851b	0.044316392
5	0xbca0ad10	-0.019613773
6	0x3c2922da	0.010323251
7	0xbd14c227	-0.03631797
8	0xbd8415ff	-0.06449508
9	0xbd43d502	-0.047810562
10	0xbd4ef744	-0.05052878
11	0xbd4d0094	-0.05004938
12	0x3c93a37f	0.018022297
13	0xbccb28eb	-0.024799785
14	0x3d8ae501	0.0678196
15	0x3daafe67	0.08349305

feature_extractor.7.weight f4 [120, 400]
0	0xbd332c22	-0.04374326
1	0x3c37277e	0.011178849
2	0x3d001525	0.031270165
3	0xbd3dbfa2	-0.046325333
4	0xbc9715a5	-0.018442938
5	0x3d0660fa	0.032807328
6	0xbd187ed8	-0.037230343
7	0x3d40f56d	0.047109056
8	0xbbcb2bc7	-0.006200287
9	0x3c65d9e5	0.014029001
10	0x3d42bb28	0.047541767
11	0xbcedb0fa	-0.029015053
12	0x3d2e71c9	0.042588983
13	0xbd2a4c04	-0.0415764
14	0x3d208c16	0.039196096
15	0xba80485d	-0.0009787191
16	0x3d255835	0.040367324
17	0x3acc4a9f	0.0015586204
18	0xbd290fd9	-0.04127488
19	0x3ca6bf0b	0.020354768
20	0x3d013b2b	0.031550568
21	0xbc249d37	-0.010047249
22	0xbd5e412f	-0.054261383
23	0xbc0327be	-0.008005081
24	0x3c1c82ac	0.009552639
25	0x3bd5c3dd	0.006523593
26	0x3d0493cd	0.032367516
27	0xbb634a34	-0.003468168
28	0x3b17a0a4	0.002313652
29	0x3ad0b136	0.0015921954
30	0x3cd1811e	0.025574263
31	0x3cd29686	0.02570654
32	0x3cb38542	0.021914128
33	0x3bb8978e	0.005633301
34	0x3c2b9203	0.010471824
35	0x3d1af97a	0.037835576
36	0x3c76dcf1	0.015067325
37	0xbd1df0a8	-0.038559586
38	0x3c7da26a	0.015480617
39	0x3d60b717	0.054862108
40	0xbc52b0a2	-0.012859495
41	0x3d009b38	0.031398028
42	0xbd510acf	-0.0510357
43	0xbb58aff2	-0.0033063856
44	0x3cbebd0c	0.023283504
45	0xbd18115b	-0.037125926
46	0xbc65fff6	-0.014038077
47	0xbba3ea04	-0.005002262
48	0xbc62aed4	-0.013835628
49	0xbd0044e9	-0.031315718
50	0x3d21d581	0.039510254
51	0xba6a652d	-0.0008941468
52	0xbc95c2cb	-0.018281361
53	0x3cc8823c	0.024476163
54	0x3c167ec1	0.009185494
55	0xbc7bab24	-0.015360627
56	0x3d0192a4	0.031633988
57	0xbc8cc945	-0.017185817
58	0x3d50d1f7	0.050981488
59	0x3ce92ef6	0.028464776
60	0x390bdb9b	0.00013337882
61	0x3c7a1a20	0.015265018
62	0xbbeb8a24	-0.0071880985
63	0xbcea493d	-0.028599376
64	0xbcc2b2bb	-0.023766866
65	0x3c814933	0.015781974
66	0x3cae4511	0.021273168
67	0xbc17d152	-0.009266214
68	0xbc309e73	-0.010779965
69	0xbca1a3ca	-0.019731421
70	0xbcc2a2a9	-0.023759203
71	0xbc9a5cf9	-0.018843161
72	0x3d0c5cca	0.034268178
73	0xbd4b472b	-0.049628418
74	0x3c940d59	0.01807277
75	0x3ce3796d	0.027767861
76	0xbc2daaaf	-0.010599776
77	0x3bef6cb6	0.0073066605
78	0xbb5371c8	-0.0032263864
79	0xbd2d007e	-0.042236798
80	0x3c480c8a	0.012210021
81	0xbc93fc94	-0.018064775
82	0x3cb73bdd	0.022367412
83	0x3be06058	0.0068474226
84	0xbce53dc6	-0.027983557
85	0xbd6a0764	-0.057135954
86	0x3ccc0c55	0.024908224
87	0x3d3db4a5	0.046314854
88	0x3d00b231	0.031419937
89	0x3cc54ff7	0.024085982
90	0x3c17b155	0.009258588
91	0x3cc9e917	0.024647279
92	0x3ce3e563	0.027819341
93	0xbb801827	-0.003909129
94	0xbb14ed89	-0.002272459
95	0x3be267cb	0.0069093457
96	0x3ce544ce	0.02798691
97	0xbbb9cf00	-0.0056704283
98	0x3d05a88d	0.032631446
99	0x3cd2e88b	0.02574565
100	0xbd03815b	-0.032105785
101	0xbd3a3801	-0.045463566
102	0xbc795e6d	-0.015220267
103	0xbd07498d	-0.033029128
104	0x3d68f1ca	0.056871213
105	0xbcca0f38	-0.02466546
106	0xbd24c645	-0.040228147
107	0x3c8968f4	0.016773678
108	0x3cc2b8c8	0.023769751
109	0x3cd26637	0.025683505
110	0x3d35da30	0.044397533
111	0xbd615abb	-0.055018168
112	0x3cb9a958	0.022663757
113	0xbcaab4d2	-0.020838175
114	0x3c22ad05	0.009928946
115	0xbd014bf2	-0.031566568
116	0x3d5acef7	0.053420033
117	0xbc1d6896	-0.009607455
118	0x3c8fb0bd	0.01754033
119	0xbd398078	-0.045288533
120	0x3c9ba258	0.01899831
121	0xbd12a65f	-0.035803195
122	0x3bf6f743	0.0075368
123	0x3d381fac	0.04495208
124	0x3d0c172d	0.03420179
125	0x3cd57741	0.026057841
126	0xbc8adfcd	-0.01695242
127	0x3c0375c6	0.008023685
128	0x3bfba185	0.0076791667
129	0xbd69f8aa	-0.05712191
130	0x3cb5fbdf	0.022214828
131	0xbd18489b	-0.037178617
132	0x3c996e7d	0.018729443
133	0x3d505a50	0.05086738
134	0xbc8e2c40	-0.017355084
135	0x3c489cf9	0.012244456
136	0x3d53bd4d	0.051694203
137	0x3d4e72ef	0.050402578
138	0x3d7ae167	0.061250117
139	0xbcbe5337	-0.02323304
140	0x3b93a2f3	0.004505509
141	0xbd4bb812	-0.04973609
142	0x3adcf03d	0.0016856265
143	0xbd4dfcb0	-0.05028981
144	0x3be2bc1f	0.0069193984
145	0x3c867d71	0.016417237
146	0xbd40662e	-0.046972446
147	0xbb97362f	-0.0046146135
148	0xbcd02894	-0.025409974
149	0x3cea31a3	0.028588122
150	0xbbfb9927	-0.0076781693
151	0x3cbba207	0.02290441
152	0xbcecaedc	-0.028891973
153	0x3bd3e9e2	0.00646709
154	0x3d03efa3	0.032210957
155	0x3b2799e0	0.0025573894
156	0xbc0a8536	-0.0084546115
157	0xbcc27330	-0.023736566
158	0x3c9b3721	0.018947186
159	0x3c823397	0.01589374
160	0x3c007e48	0.007842608
161	0x3d12bb27	0.035823014
162	0xbb28bc9c	-0.0025747186
163	0xbc83d2a1	-0.016091647
164	0x3c5b7619	0.013394856
165	0x3cf7dfcd	0.030258084
166	0xbd8152be	-0.0631461
167	0xbd009221	-0.03138936
168	0x3bf9dbac	0.007625064
169	0x3d222899	0.0395895
170	0x3cf127ab	0.02943786
171	0x3c291d80	0.010321975
172	0xbd5a1d06	-0.053250335
173	0xbd0b107c	-0.033951268
174	0x3cadd772	0.021220896
175	0x3bb80ab3	0.00561651
176	0x3cc94030	0.02456674
177	0x3d1f8707	0.03894713
178	0x3cd06384	0.025438078
179	0xbcbbdb20	-0.022931635
180	0xbcdd0e3b	-0.026984325
181	0xbc760729	-0.015016356
182	0xbb6d41a5	-0.0036202457
183	0xbbdbb76d	-0.0067052157
184	0xbc469ec4	-0.012122814
185	0x39e1fa08	0.00043101632
186	0x3d023e7c	0.03179787
187	0xbcfdda7c	-0.03098797
188	0x3cc4abfc	0.02400779
189	0xbd444d71	-0.047925416
190	0xbaf5be55	-0.001874874
191	0xbd457870	-0.04821056
192	0x3d28b4c7	0.041188028
193	0xbd181b49	-0.037135396
194	0xbcbd7065	-0.023124883
195	0x3c9b7b6d	0.018979752
196	0x3c8fd47b	0.017557373
197	0x3d176cd3	0.036969017
198	0x3c6fb237	0.014629892
199	0xbd2a4342	-0.04156805
200	0xbd0eeb89	-0.034892593
201	0x3d0b9669	0.03407899
202	0xbd46ae8b	-0.0485063
203	0x3d374c94	0.044750765
204	0xbc086953	-0.0083258925
205	0x3c14c19d	0.009079364
206	0xbb0bf84f	-0.002135772
207	0xbc4ba9c1	-0.012430609
208	0xbc464f91	-0.012103931
209	0x3c6feb9c	0.014643576
210	0xbc0f5325	-0.008747851
211	0x3c0af87e	0.008482097
212	0x3d2b4698	0.04181537
213	0x3b95ca10	0.004571207
214	0xbd1e4db9	-0.03864834
215	0xbd1957b1	-0.037437145
216	0x3d04e9ce	0.032449536
217	0x3c8e7145	0.017387995
218	0x3c1d802c	0.009613078
219	0xbcc624d5	-0.024187485
220	0xbd269ddf	-0.0406779
221	0x3d3206cf	0.043463524
222	0xbd3f55e6	-0.04671278
223	0xbcc7e32c	-0.024400316
224	0x3cac1297	0.021004958
225	0x3d178dd4	0.037000492
226	0xbb47cdc0	-0.0030487627
227	0xbd1c00f1	-0.038086835
228	0x3c870c86	0.016485464
229	0x3b5c6485	0.003362925
230	0xbb6df1cf	-0.003630746
231	0xbd51df38	-0.05123827
232	0x3d1d69df	0.038431045
233	0x3c25afba	0.010112697
234	0x3cc07cfa	0.023497093
235	0x3c948b2e	0.018132772
236	0x3d2fefe1	0.042953376
237	0xbcd0448f	-0.025423316
238	0xba40a6f5	-0.0007349097
239	0xbd248fb5	-0.040176112
240	0xbd7045d6	-0.05866035
241	0xbcae5046	-0.021278512
242	0x3caa3564	0.020777412
243	0xbd00a4e7	-0.031407263
244	0x3cfc9cfb	0.030836573
245	0x3bf341ff	0.007423639
246	0xbca33b68	-0.019925788
247	0x3cd538f9	0.026028143
248	0x3d0a9de7	0.033841994
249	0xbcb99f0f	-0.022658853
250	0x3cf28472	0.02960417
251	0x3cd009e7	0.025395347
252	0x3d1292bb	0.035784464
253	0xbd06c2b7	-0.03290054
254	0x3d583b96	0.0527912
255	0x3b5516cf	0.0032514816

feature_extractor.7.bias f4 [120]
0	0x3caa9746	0.020824086
1	0x3d111e84	0.035429493
2	0x3cb2f89d	0.021847064
3	0x3d08be7a	0.033384778
4	0x3d2bdc14	0.04195793
5	0xbcf4d958	-0.029888794
6	0x3d1baec6	0.038008474
7	0xbb051718	-0.0020307954
8	0xbced25b5	-0.028948644
9	0x3b89ecef	0.004209153
10	0x3cbdf79d	0.02318936
11	0xbcdfb6dd	-0.027308876
12	0xbd15750d	-0.03648858
13	0xbd49ca82	-0.049265392
14	0xbcd9b9a2	-0.026577774
15	0xbd23f99c	-0.040032968
16	0x3cf3b89f	0.02975112
17	0xbcaa7274	-0.020806529
18	0xbd332cb7	-0.043743815
19	0xbce7c3a5	-0.028291533
20	0xbc272ea9	-0.010203996
21	0x3cf9a4df	0.030474124
22	0x3d11e8e0	0.035622478
23	0x3c892a0b	0.01674368
24	0x3d2e4007	0.04254153
25	0xbd207716	-0.03917607
26	0xbca319dc	-0.019909792
27	0x3d1a50eb	0.037674826
28	0xbc81e3d1	-0.015855702
29	0x3c6be6bc	0.014398273
30	0xbc5a7094	-0.013332505
31	0x3ccbac31	0.02486238
32	0xbd456df8	-0.048200577
33	0x3cd1691a	0.025562812
34	0xbce00d49	-0.027350085
35	0xbcdb453a	-0.026766408
36	0x3d181a71	0.03713459
37	0xbccd08ee	-0.025028672
38	0x3bd31fcd	0.006443
39	0x3a988c3c	0.0011638473
40	0xbd16ce61	-0.036817912
41	0x3ce2ec27	0.027700497
42	0xbd1819f6	-0.037134133
43	0xbc905df2	-0.017622922
44	0xbd459ebc	-0.048247084
45	0xbc3b6374	-0.011437286
46	0x3c85078a	0.016238946
47	0x3c59dd1a	0.013297344
48	0x3cba86ba	0.02276932
49	0xbc8bd677	-0.017070038
50	0x3c99f369	0.018792825
51	0xbc490b9e	-0.012270836
52	0x3d293221	0.041307572
53	0xbcf058cd	-0.029339219
54	0xbb171eb0	-0.0023059063
55	0x3ab05554	0.0013453164
56	0x3d147ae3	0.036250006
57	0xbc6bd5df	-0.014394253
58	0xbd207197	-0.039170828
59	0x3c858d3d	0.0163027
60	0x3d44dd78	0.04806277
61	0xbd035435	-0.032062728
62	0xbc88118d	-0.016609931
63	0xbc72dc4d	-0.014823032
64	0x3d0be26b	0.034151476
65	0x3bdef988	0.006804649
66	0xbd2afbaa	-0.04174391
67	0x3d1c1e1a	0.038114645
68	0xbc520a87	-0.012819893
69	0xbd4035d3	-0.04692633
70	0x3d414c4e	0.04719191
71	0xbc2af63c	-0.010434683
72	0x3caee2e1	0.021348419
73	0xba0fd249	-0.0005486352
74	0x3d1936a4	0.037405625
75	0xbcab3c42	-0.020902757
76	0xbc6dce94	-0.014514584
77	0xbcbf944f	-0.023386149
78	0xbd0065c5	-0.031347055
79	0xbd01eb32	-0.03171844
80	0x3ce50a99	0.027959155
81	0xbd085882	-0.033287533
82	0x3a21b71e	0.0006168949
83	0x3c0856bd	0.008321461
84	0x3d5790cf	0.052628335
85	0xbc90e98e	-0.017689493
86	0xbc834d0c	-0.01602795
87	0x3cdca31f	0.026933251
88	0x3c3a4b53	0.011370498
89	0x3cc316de	0.023814615
90	0x3d2847ae	0.041083984
91	0xbd26544d	-0.04060774
92	0x3c59c660	0.013291925
93	0x3b11cf62	0.0022248854
94	0xbd39c848	-0.04535702
95	0xbbcc113d	-0.006227641
96	0x3c777db3	0.015105653
97	0x3ceb6de6	0.028738927
98	0x3b2ba104	0.0026188502
99	0xbd0e322a	-0.03471581
100	0xbc493bb6	-0.012282303
101	0x3d3569d3	0.044290375
102	0x3cce102a	0.025154192
103	0xbd14590d	-0.036217738
104	0x3c5d026a	0.013489345
105	0xbc1f5387	-0.009724504
106	0x3c3cb785	0.011518364
107	0x3d0290c7	0.03187635
108	0xbcdd8480	-0.02704072
109	0xbaf5d656	-0.0018755894
110	0x3d28c86e	0.04120677
111	0xbbe0a160	-0.006855175
112	0x3d48630a	0.048922576
113	0xba4911b9	-0.00076701824
114	0x3c1a706a	0.009426216
115	0xbc0caad1	-0.008585648
116	0x3caf29c1	0.021382215
117	0xbc79a532	-0.01523714
118	0x3d595184	0.053056255
119	0x3d39dd32	0.045376964

classifier.0.weight f4 [84, 120]
0	0x3c9cb9af	0.01913151
1	0xbd640fa7	-0.05567899
2	0x3cb1f56b	0.02172347
3	0xbb787652	-0.0037912321
4	0xbd9c99f0	-0.07646549
5	0x3d112034	0.035431102
6	0xbd814b45	-0.06313185
7	0xbd4540c3	-0.048157465
8	0xbd9704ae	-0.073739395
9	0x3d852b1e	0.065023646
10	0x3d6f7384	0.058459774
11	0xbd5f2536	-0.054478846
12	0x3d8b1a1f	0.067920916
13	0xbd8b36c2	-0.067975536
14	0x3c06c4ff	0.0082256785
15	0xbd629729	-0.05531994
16	0x3d869d62	0.06572987
17	0xbd17d844	-0.03707148
18	0xbbfb7d79	-0.0076748696
19	0x3d259f3a	0.040435053
20	0xbda75eaa	-0.081723526
21	0x3d8f4813	0.06996169
22	0x3bbbe900	0.005734563
23	0xbd600a60	-0.054697394
24	0x3b12a91f	0.0022378636
25	0xbd027333	-0.031848144
26	0x3c970039	0.018432723
27	0x3d74153a	0.059590556
28	0xbdaad747	-0.08341842
29	0x3d8f582a	0.06999238
30	0xbcc4204b	-0.02394118
31	0x3d9ce3a4	0.076606065
32	0x3be4ab00	0.0069783926
33	0x3d084296	0.033266626
34	0xbd350d4b	-0.04420213
35	0x3c8ab804	0.016933449
36	0x3b4db18f	0.003138635
37	0xbca3ee98	-0.020011231
38	0xbd264218	-0.040590376
39	0x3b094790	0.0020947196
40	0xbdcc35a1	-0.099711664
41	0xbd570e54	-0.0525039
42	0xbcca9d32	-0.02473316
43	0x3b22ab0c	0.002482119
44	0xbd6aa1b0	-0.057283103
45	0xbd27a30c	-0.040926978
46	0x3c7a229c	0.015267041
47	0x3ba85164	0.0051366556
48	0x3cbe2ba1	0.023214163
49	0xbd4450e9	-0.047928724
50	0x3d975470	0.07389152
51	0xbcbc004e	-0.022949364
52	0xbdb7ca61	-0.089741476
53	0x3d662cb5	0.05619498
54	0x3bcf2297	0.006321262
55	0xbc31e1bd	-0.010857043
56	0xbda823bf	-0.08209943
57	0xbd307e95	-0.043089468
58	0x3d5764eb	0.052586477
59	0xbc64f9f3	-0.013975608
60	0xbd5b8357	-0.053592052
61	0x3d8cec4e	0.06881009
62	0xbd96e61d	-0.073681094
63	0x3d96fd7d	0.07372568
64	0xbcfaa825	-0.030597756
65	0x3d1ccbc7	0.038280275
66	0x3c3d00bd	0.011535821
67	0x3dd81437	0.10550731
68	0x3ce9abc2	0.028524283
69	0xbbc965f0	-0.006146185
70	0x3dafe418	0.08588427
71	0xbd935bbc	-0.07195231
72	0x3c921256	0.017831009
73	0x3cebdefc	0.02879285
74	0xbd585655	-0.052816708
75	0xbd697c49	-0.057003293
76	0xbd495e14	-0.049161986
77	0xbd452cfd	-0.048138607
78	0xbc4f52a5	-0.012653981
79	0xbd6668bf	-0.056252237
80	0x3d7eee8b	0.06223921
81	0xbb075380	-0.0020649135
82	0x3dce3457	0.10068577
83	0x3c54f771	0.012998448
84	0x3aea0d2b	0.0017856708
85	0x3c022b17	0.007944844
86	0xbd20dadc	-0.03927122
87	0xbd0b7b55	-0.034053165
88	0x3d1ebaf6	0.03875252
89	0xbc2d6f10	-0.010585561
90	0x3c0afdc8	0.008483358
91	0xbbb69122	-0.0055715004
92	0x3dc419de	0.09575246
93	0xbdd6521d	-0.104648806
94	0xbd731d2b	-0.05935399
95	0xbd41a6cf	-0.04727822
96	0xbce562ef	-0.028001277
97	0x3d91ba1e	0.07115577
98	0x3d808f40	0.06277323
99	0xbd558349	-0.052127156
100	0xbccac200	-0.02475071
101	0x3dcfbaaf	0.10143029
102	0xbda1d3ee	-0.079017505
103	0x3c19bc6c	0.009383302
104	0x3d035c27	0.032070305
105	0x3d3c9dc7	0.046048906
106	0x3dd9d8d1	0.106370576
107	0x3d734c60	0.05939901
108	0x3c3592d2	0.011082368
109	0xbdb3b267	-0.08774262
110	0xbd2a1644	-0.04152514
111	0xbc74f359	-0.014950597
112	0xbd882061	-0.06646801
113	0xbd069ca7	-0.03286424
114	0x3b5b3c11	0.003345255
115	0xbd10a7e0	-0.035316348
116	0x3c47fb74	0.012205947
117	0x3d1937e7	0.03740683
118	0x3d89a462	0.06720807
119	0xbd8bcb50	-0.06825888
120	0x3da4f685	0.08054832
121	0x3d16068a	0.03662733
122	0x3bed26c9	0.0072372896
123	0xbcd13e54	-0.025542416
124	0xbce27676	-0.027644377
125	0x3b8922db	0.0041850633
126	0xbc460931	-0.012087152
127	0xbdb14741	-0.08656169
128	0x3c6e46b0	0.01454322
129	0xbd75cb9e	-0.060008638
130	0xbd9de99c	-0.07710573
131	0x3d5c24fa	0.0537462
132	0xbc883187	-0.016625179
133	0xbcc3d413	-0.023904836
134	0xbc4c13d4	-0.012455899
135	0xbd1e7bb8	-0.038692206
136	0x3d3fc6f2	0.04682059
137	0xbb52a278	-0.0032140296
138	0xbd24cf6d	-0.04023688
139	0x3da9735d	0.08273957
140	0x3d8546b5	0.06507627
141	0x3d8871a1	0.06662298
142	0xbdb97d39	-0.090570875
143	0x3c99bbf7	0.018766386
144	0x3b2e5cd0	0.0026605614
145	0x3d9fb898	0.0779888
146	0x3cc48c70	0.023992747
147	0x3c924304	0.017854221
148	0x3d7780ec	0.060425684
149	0x3d223798	0.0396038
150	0xbda87d3e	-0.08227013
151	0xbdb1f3cd	-0.086890794
152	0xbd524331	-0.05133361
153	0xbca18085	-0.019714603
154	0x3cafad20	0.021444857
155	0x3d6a6f79	0.057235215
156	0xbdaa3bc9	-0.08312184
157	0xbc638309	-0.013886222
158	0xbd91b37e	-0.071143135
159	0x3da167c9	0.078811236
160	0x3d777544	0.060414568
161	0x3d5670d6	0.052353702
162	0xbc2f9325	-0.010716234
163	0xbd6b1b9c	-0.057399377
164	0xbd3c55a1	-0.0459801
165	0xba982008	-0.0011606226
166	0x3a29ab83	0.00064723956
167	0xbb22e169	-0.0024853593
168	0x3d9c5a8a	0.076344565
169	0xbd42593d	-0.047448386
170	0x3d8f7dc0	0.07006407
171	0x3d24fc80	0.040279865
172	0xbd94c6b0	-0.07264459
173	0xbd2bda09	-0.04195598
174	0xbd610a1f	-0.054941293
175	0x3aa67e9f	0.0012702531
176	0x3d45e452	0.048313446
177	0x3d525599	0.051351164
178	0xbc9f2068	-0.019424632
179	0x3da04edf	0.078275435
180	0x3d2e4243	0.04254366
181	0x3c4d4eb3	0.01253097
182	0xbd970a10	-0.07374966
183	0xbd9e0fb1	-0.07717837
184	0x3d6a51c7	0.057206895
185	0x3d46faae	0.04857891
186	0xbd335343	-0.043780576
187	0xbd8b100b	-0.06790169
188	0x3b847152	0.004041829
189	0xbdaa455a	-0.08314009
190	0x3d7af37f	0.061267372
191	0x3d419e44	0.047270074
192	0x3cccdb6b	0.02500697
193	0xbd867c05	-0.065666236
194	0xbc5c8a36	-0.013460686
195	0xbd4084a3	-0.047001492
196	0x3d3c3e91	0.045958105
197	0x3db18a95	0.086690105
198	0x3af47ca5	0.001865287
199	0xbcbfe283	-0.023423439
200	0x3d806069	0.06268389
201	0xbcad85da	-0.02118199
202	0xbd2a26e2	-0.041540988
203	0xbd9c38cd	-0.076280214
204	0x3c494dfb	0.012286658
205	0x3d931f65	0.071837224
206	0x3d697c7d	0.057003487
207	0x3cfbdaf3	0.030744052
208	0x3d7d5232	0.061845966
209	0xbd94553b	-0.07242819
210	0x3db79b80	0.08965206
211	0xbcf57db9	-0.029967176
212	0xbdb60ece	-0.088895425
213	0x3d2b53a7	0.041827824
214	0x3cbe60d7	0.023239536
215	0xbc8fb953	-0.017544424
216	0xbdb11641	-0.08646823
217	0x3a80e7de	0.0009834727
218	0xbd3d7181	-0.046250824
219	0xbd584be7	-0.05280676
220	0x3da6fcff	0.08153724
221	0x3d2cda99	0.04220066
222	0xbda3cb17	-0.07997721
223	0xbd206dca	-0.039167203
224	0xbd335f4a	-0.043792047
225	0xbda79757	-0.08183163
226	0xbd98425b	-0.07434531
227	0x3db941c8	0.0904575
228	0x3be5d1aa	0.0070135193
229	0x3d97c45e	0.07410501
230	0x3c74a424	0.014931712
231	0x3db3c455	0.08777682
232	0xbd61d0db	-0.05513082
233	0x3cb0912a	0.021553595
234	0xbd3a3375	-0.04545923
235	0x3d04781e	0.032341115
236	0x3d8fd111	0.07022298
237	0x3d8c0afa	0.06838031
238	0xbd7d7fc6	-0.061889432
239	0xbb461d40	-0.0030229837
240	0x3c2e11b3	0.010624337
241	0x3ccee88a	0.025257368
242	0xbd2902c6	-0.04126241
243	0x3d11b454	0.035572365
244	0xbd92711e	-0.07150482
245	0xbd1b0404	-0.037845626
246	0xbcadf47d	-0.021234745
247	0xbc6d07f4	-0.014467228
248	0xbdaf368d	-0.085553266
249	0x3d70bc93	0.05877359
250	0xbbc99446	-0.006151709
251	0x3d30f316	0.043200575
252	0xbb0fe351	-0.002195556
253	0x3ba4eedf	0.0050333585
254	0x3da9fc63	0.08300092
255	0x3d8b4d6c	0.068018764

classifier.0.bias f4 [84]
0	0xbbf76238	-0.0075495504
1	0xbdb0a436	-0.08625071
2	0x3d2b0e77	0.04176184
3	0x3db2abad	0.08724151
4	0x3cb69428	0.022287443
5	0x3d265c55	0.0406154
6	0x3da3637c	0.079779595
7	0x3d5e66aa	0.054297127
8	0xbd205de4	-0.03915204
9	0x3d4091f9	0.04701421
10	0xbd98340c	-0.07431802
11	0x3dbdc47a	0.092659906
12	0x3d7c521c	0.061601743
13	0xbd4744dc	-0.048649654
14	0xbcdf3c61	-0.02725047
15	0xbd5f9e1d	-0.054594148
16	0xbd0a7445	-0.03380229
17	0xbd6e5545	-0.058186788
18	0xbda73377	-0.08164113
19	0xbc5a681c	-0.013330486
20	0x3d191a4c	0.037378594
21	0x3d6afe4b	0.05737142
22	0xbcf2b944	-0.029629357
23	0xbd8a8e26	-0.06765394
24	0x3d61e1e8	0.05514708
25	0x3b9a8c35	0.004716421
26	0xbae3923e	-0.0017362309
27	0x3d41e694	0.047339037
28	0xbcd66614	-0.026171722
29	0x3d31e927	0.043435242
30	0x3d05b1f1	0.0326404
31	0xbc5f56d5	-0.013631542
32	0x3b4fca56	0.0031706295
33	0xbcbb15fe	-0.022837635
34	0xbd2499fd	-0.040185917
35	0xbbc47df1	-0.0059964587
36	0xbd997a76	-0.07494061
37	0xbd8fa050	-0.07012999
38	0x3abdfaf0	0.0014494341
39	0xbdb280d3	-0.087159775
40	0xbc0d3d41	-0.008620561
41	0xbda55af1	-0.08073986
42	0x3cfea6a1	0.031085314
43	0x3c95e5cb	0.01829805
44	0xbd2c71c6	-0.04210069
45	0xb9467c6a	-0.000189291
46	0x3d3e7a6a	0.046503462
47	0xbd9c9f16	-0.07647531
48	0xbd9b2a39	-0.07576413
49	0x3cba495b	0.022740057
50	0x3cb52ba2	0.022115532
51	0x3d366a6b	0.04453508
52	0x3c47c9f0	0.012194142
53	0xbdbc7501	-0.09202004
54	0xbd4152e1	-0.04719818
55	0x3b80e4e2	0.003933535
56	0xbd31e1fb	-0.043428402
57	0xbd0b982b	-0.034080666
58	0x3cabe422	0.020982806
59	0xbd56443e	-0.052311175
60	0x3c2ef5b1	0.010678695
61	0x3dcaca04	0.09901813
62	0x3db88434	0.09009591
63	0xbc398204	-0.011322502
64	0x3d6c88f1	0.057747785
65	0xbd988313	-0.074468754
66	0x3d56f163	0.052476298
67	0x3c48b740	0.012250721
68	0x3da68e51	0.081326135
69	0x3d888171	0.06665314
70	0xbdab3d10	-0.08361256
71	0x3db0ce43	0.08633091
72	0x3d8679dd	0.06566212
73	0x3da100f6	0.078615114
74	0x3d5e7ac4	0.054316297
75	0xbd3489a3	-0.044076573
76	0xbb650804	-0.0034947405
77	0xbb9896d3	-0.0046566515
78	0x3d32e2ec	0.04367344
79	0x3d30b66d	0.043142725
80	0xbd1a69b5	-0.037698466
81	0xbc9bff81	-0.019042732
82	0xbd161a16	-0.03664597
83	0x3b6c6fe7	0.0036077441

classifier.2.weight f4 [10, 84]
0	0xbde96c0c	-0.113975614
1	0xbdb252b8	-0.087071836
2	0x3dcfccf7	0.10146516
3	0xbcfdc804	-0.030979164
4	0x3c4f936a	0.012669424
5	0xbd251f6c	-0.04031317
6	0x3bf1ea29	0.0073826504
7	0x3cb656f3	0.022258257
8	0xbda5ebfe	-0.081016526
9	0x3dc9e314	0.09857765
10	0xbdbb2588	-0.09138018
11	0xbc92a8b3	-0.017902708
12	0x3d69b988	0.057061702
13	0xbde0f1c9	-0.10983617
14	0x3dd79bff	0.10527801
15	0x3de14fec	0.11001572
16	0xbe537c89	-0.20652975
17	0xbcca9dc3	-0.02473343
18	0xbdb8a513	-0.090158604
19	0x3e40a640	0.1881342
20	0xbe1288ed	-0.14310046
21	0xbe300688	-0.17189991
22	0xbda0fcb1	-0.07860697
23	0x3d70138b	0.058612388
24	0x3cb185a0	0.021670163
25	0xbdf280ff	-0.1184101
26	0xbcf21267	-0.02954979
27	0xbd8a5188	-0.06753832
28	0x3e27fcf1	0.16405083
29	0xbde56896	-0.11201589
30	0x3cf216e3	0.029551929
31	0x3d6dd927	0.05806842
32	0xbe3f6728	-0.18691695
33	0x3ce25dcb	0.027632615
34	0xbc2c1bed	-0.010504705
35	0x3ccda1dc	0.025101595
36	0xbd7db6e7	-0.061942007
37	0xbe14b837	-0.14523397
38	0xbb6aae13	-0.0035809323
39	0xbbfcb36b	-0.007711818
40	0xbd63d0eb	-0.05561916
41	0x3e36ccb7	0.1785153
42	0xbd89a93e	-0.067217335
43	0xbde9d17b	-0.11416908
44	0x3cb52781	0.022113563
45	0xbdeb9816	-0.115036175
46	0x3df47b3e	0.11937569
47	0x3e61667a	0.22011748
48	0x3e1e334a	0.15449253
49	0x3dc0df8f	0.094176404
50	0xbe5e0870	-0.21682906
51	0x3d2d895a	0.042367317
52	0xbe2bc3d4	-0.16773921
53	0xbd43757a	-0.047719456
54	0xbddf3991	-0.10899652
55	0xbdadd92f	-0.0848869
56	0x3d8b6b58	0.068075836
57	0x3d9f456c	0.07776913
58	0x3d485214	0.0489064
59	0x3d60b7a0	0.05486262
60	0x3e4a9eec	0.19787186
61	0x3d6d4c3b	0.057934027
62	0xbdb83422	-0.089943185
63	0x3da55edb	0.08074733
64	0xbd1be1d7	-0.038057175
65	0xbb998949	-0.004685555
66	0x3d4b2672	0.04959721
67	0x3c46006e	0.012085063
68	0x3d85d7eb	0.06535324
69	0xbd1466c4	-0.036230817
70	0xbd71ff92	-0.05908162
71	0x3c482f52	0.012218313
72	0x3dc3654a	0.09540804
73	0xbe265fe7	-0.16247521
74	0xbe1f5a8e	-0.15561888
75	0x3d0075aa	0.031362213
76	0x3d781670	0.060568273
77	0x3ccb5dde	0.024825033
78	0xbe33f092	-0.17572239
79	0xbe0e02f1	-0.1386831
80	0xba883715	-0.0010392392
81	0x3d1669fd	0.036722172
82	0xbe4c711b	-0.19965021
83	0x3de48d0b	0.11159714
84	0xbde88e44	-0.1135526
85	0x3d0945db	0.033513885
86	0xbd01ae73	-0.03166051
87	0xbdbcff06	-0.09228329
88	0x3cc2cca0	0.023779213
89	0x3d01e194	0.03170927
90	0x3df01476	0.117226526
91	0x3e2b7c32	0.16746596
92	0x3e56c3ea	0.20973173
93	0x3e1522e2	0.14564088
94	0xbe1d0849	-0.15335192
95	0x3e26b367	0.16279374
96	0x3e60858c	0.21925944
97	0xbd9bb949	-0.076037
98	0x3df83abd	0.121205784
99	0xbe88a8cf	-0.2669129
100	0xbe0540b7	-0.13012968
101	0x3dd1dda6	0.10247354
102	0x3deefdfc	0.116695374
103	0x3ca88ab7	0.020573957
104	0xbdce1f8b	-0.1006461
105	0xbad56ab6	-0.0016282413
106	0x3dbf2f68	0.09335214
107	0x3cfe0649	0.031008856
108	0x3db4d31e	0.0882933
109	0xbd17db5e	-0.03707444
110	0x3daf17b4	0.08549443
111	0xbd050dbf	-0.032483812
112	0x3d4ad376	0.04951807
113	0x3d1e172d	0.03859632
114	0xbe245217	-0.1604694
115	0x3ddb7528	0.10715705
116	0x3decd2e8	0.11563665
117	0xbe094bf6	-0.13407883
118	0xbb643172	-0.003481951
119	0x3de2285d	0.11042855
120	0x3da26b83	0.079306625
121	0x3e0ce9ba	0.13761035
122	0x3dbbe1a7	0.09173899
123	0xbd3915fc	-0.04518698
124	0x3d2bf915	0.04198559
125	0xbddb72b5	-0.10715238
126	0xbcff059e	-0.031130608
127	0xbd55775d	-0.052115787
128	0xbd97c765	-0.07411078
129	0x3e47dbac	0.19517392
130	0xbde2a740	-0.11067057
131	0x3e2525a1	0.16127636
132	0x3dda835b	0.10669585
133	0x3da58fa9	0.080840416
134	0x3e116651	0.14199187
135	0xbdedee8a	-0.11617763
136	0x3dc8e0eb	0.09808525
137	0xbd032533	-0.032017898
138	0xbe00a10e	-0.12561437
139	0xbcaaffc6	-0.020873915
140	0x3d0e4d3d	0.03474163
141	0xbdbad907	-0.09123426
142	0xbd7ccb6b	-0.061717432
143	0x3dc676eb	0.096906506
144	0xbd91f891	-0.071274884
145	0x3de73a29	0.1129039
146	0xbdc1bfa5	-0.094603814
147	0xbe0ab3cc	-0.1354515
148	0x3dca36df	0.09873747
149	0x3ddaf47d	0.10691164
150	0x3e0d7e8d	0.13817807
151	0x3e06c25d	0.13160081
152	0x3e333878	0.1750201
153	0x3d8ca15b	0.068667136
154	0x3c17b86e	0.00926028
155	0x3d1e845f	0.038700458
156	0x3dab70da	0.08371134
157	0x3d934430	0.0719074
158	0xbd884de1	-0.06655479
159	0x3d73f839	0.059562895
160	0xbdb064cf	-0.08612978
161	0xbdf2f815	-0.11863724
162	0x3d0af53a	0.033925273
163	0x3e0917d6	0.13387999
164	0x3bfa12e1	0.007631645
165	0x3e0d4f35	0.13799746
166	0xbdb9055b	-0.090342246
167	0xbe2a2af0	-0.16617942
168	0xbcc97f75	-0.024596909
169	0xbdc97c37	-0.09838145
170	0x3e16d1fd	0.14728542
171	0xbe3a9d76	-0.18224129
172	0x3e0501e3	0.12989001
173	0x3e32faed	0.17478533
174	0x3dc44116	0.09582727
175	0x3dd9ed49	0.10640962
176	0x3aa0f406	0.0012279756
177	0xbc5bdc63	-0.0134192435
178	0x3e203268	0.15644228
179	0xbdb06130	-0.08612287
180	0xbd0073f5	-0.031360585
181	0x3d921318	0.07132548
182	0xbde82dbe	-0.1133685
183	0x3d5144e0	0.051091075
184	0x3e2e9c82	0.1705189
185	0x3d4414ed	0.04787152
186	0xbdd90b5c	-0.1059787
187	0xbc932fed	-0.017967189
188	0xbe41a1cf	-0.18909381
189	0x3d94563e	0.07243012
190	0x3e187855	0.14889653
191	0x3dcbe711	0.09956182
192	0x3be422b5	0.006962145
193	0x3dc0097b	0.09376808
194	0x3df3a978	0.11897558
195	0x3e5581b2	0.20850256
196	0xbc390c5b	-0.01129445
197	0x3e0265b3	0.12734108
198	0xbdcd9e41	-0.1003995
199	0x3d83187e	0.06401156
200	0xbe096fd9	-0.13421573
201	0xbde72d38	-0.11287922
202	0xbe013de7	-0.1262127
203	0xbd6e07a5	-0.05811276
204	0xbc9cb915	-0.019131223
205	0xbdadac6b	-0.08480152
206	0xbe5e1508	-0.2168771
207	0x3dafef07	0.08590513
208	0xbca681f5	-0.02032564
209	0x3d6c7c67	0.057735827
210	0x3e2a9ec2	0.16662124
211	0x3e01c48f	0.12672637
212	0xbe40c43c	-0.18824857
213	0xbd967cf7	-0.07348054
214	0xbd5c8ee0	-0.053847194
215	0x3cfcd55c	0.030863456
216	0x3c8843e8	0.016633943
217	0x3ba16f06	0.004926565
218	0x3cd5a44a	0.026079316
219	0x3e5d3126	0.2160078
220	0x3d718537	0.058964934
221	0x3dd6200f	0.104553334
222	0xbe4ab558	-0.1979574
223	0xbb0e2236	-0.0021687872
224	0x3d7d09f9	0.06177709
225	0x3d9b5ddb	0.07586261
226	0xbe04448e	-0.12916777
227	0xbd2fc841	-0.042915586
228	0x3dd38073	0.10327234
229	0x3d5a30cc	0.053269193
230	0xbe650103	-0.22363667
231	0xbe1af2c1	-0.15131666
232	0xbd4cde0b	-0.050016444
233	0xbd394f3f	-0.04524159
234	0xbe172c9d	-0.14763112
235	0xbde71772	-0.11283769
236	0x3e65c17d	0.22437091
237	0xbd41f361	-0.047351245
238	0x3d6d4f74	0.0579371
239	0x3dfca54b	0.12336215
240	0x3c03b1df	0.008038013
241	0xbb506248	-0.0031796861
242	0x3e1bec8d	0.15226956
243	0x3e2e8022	0.17041066
244	0x3c82cd7f	0.015967129
245	0xbd192811	-0.037391726
246	0x3d091b44	0.03347327
247	0xbca36f1d	-0.019950444
248	0xbdcf4291	-0.101201184
249	0xbd8d993f	-0.06913995
250	0x3e18a543	0.14906792
251	0xbe287c87	-0.16453753
252	0x3dd5990c	0.10429582
253	0xbb54792a	-0.0032420852
254	0x3cb1b806	0.021694195
255	0xbdf5365d	-0.119732596

classifier.2.bias f4 [10]
0	0xbca2a369	-0.01985331
1	0xbc2ea8c8	-0.010660358
2	0xbcdb02cb	-0.02673473
3	0x3cd42a6e	0.025899138
4	0xbd27354b	-0.04082231
5	0x3d7f82cd	0.0623806
6	0x3d6cf3f0	0.057849824
7	0xbcf8a005	-0.03034974
8	0xbd88c592	-0.066783085
9	0x3d65b181	0.056077484
