checkpoints/noise_rate_0.2/models/tsf/epoch133.pth (torch, 250639 bytes, 10 tensors)

feature_extractor.0.weight f4 [6, 1, 5, 5]
000000 e9 16 10 3e 9c 9a 5f bd 81 e8 02 bd 19 90 9c 3d
       0.1407124 -0.054590806 -0.031960014 0.07644672
000010 ea e2 5a be bf 3c 3c 3e d7 e9 07 3d 50 ed 2a 3e
       -0.21375623 0.18382548 0.03318199 0.1669209
000020 98 f4 8b 3d 03 e8 00 bb a0 11 da 3d 49 e6 b5 3d
       0.06833762 -0.001966954 0.10647893 0.08881814
000030 cf 28 26 3e 30 b5 0d 3b 01 62 4e 3d 7a 8a f2 bc
       0.16226505 0.0021622889 0.050386433 -0.029607046
000040 0c 87 34 3d 66 0d 26 3d 53 0f 72 3e f6 07 0e 3e
       0.044074103 0.04054012 0.23638658 0.13870224
000050 6f 0e 04 be 4a a7 2b be 1a 59 6e bd ac 54 98 bd
       -0.12896131 -0.16763034 -0.058190443 -0.07438025
000060 6f 9b a2 bc 15 c7 ce 3d 3d 5c 81 3e 78 80 3f 3e
       -0.019849507 0.10096566 0.25265685 0.1870135
000070 57 c8 5d be d0 d9 5c 3d d6 1e 26 3e e0 51 ae 3e
       -0.21658455 0.05391866 0.162227 0.3404684
000080 e9 ff 4a 3e 18 b5 72 be a0 47 8c be 4c 60 b1 3c
       0.19824184 -0.23701894 -0.27398396 0.021652363
000090 10 48 aa 3e e5 5a 45 3d 6e 72 83 3d a9 31 08 be
       0.33258104 0.048182387 0.0641831 -0.13300194
0000a0 34 b4 91 3e 1e 6f 34 3d 78 b6 83 3e 34 51 56 3d
       0.28457797 0.044051282 0.2572515 0.052323535
0000b0 81 64 97 bd 75 4c 19 3e 24 da a7 bc 5d 02 34 3e
       -0.073922165 0.14970572 -0.02048976 0.17579027
0000c0 8a 9f 47 3d f4 45 a5 3d 46 cd 7e be 1a 87 15 be
       0.048736133 0.08069983 -0.24882993 -0.14602318
0000d0 09 69 82 3d 68 e3 24 bd b9 a2 7d 3e 0a 3e 18 3e
       0.0636769 -0.040255934 0.24769105 0.14867416
0000e0 df 18 11 bb 3f 61 b6 bd 01 5e 5e 3e 48 53 25 3e
       -0.0022140068 -0.08905267 0.21715547 0.1614505
0000f0 5d e7 a0 bd c2 51 4e 3e 61 73 65 3e 05 9a 92 3e
       -0.07856629 0.20148376 0.22407295 0.28633133
000100 50 9f 37 bd 60 09 65 3d 19 4e b0 3d 0e 6c e2 3d
       -0.044829667 0.055917144 0.08608646 0.11055766
000110 de 6f d7 bd ba 1d 0a be 4d fc 3f 3e 93 2c c1 3c
       -0.10519384 -0.13487902 0.18748589 0.023580825
000120 00 9a 14 3e c1 e5 c4 3c 6d 6c 52 3d 2d 43 16 3d
       0.14511871 0.024035336 0.051372934 0.036685158
000130 ea 89 ae 3d 0e e4 e2 3d 30 ae 3b be 55 73 d5 3d
       0.08522399 0.11078654 -0.18328166 0.104223885
000140 49 2c 1d be 97 31 17 be f4 ab f3 3c c5 b3 ba 3a
       -0.15348925 -0.14765011 0.02974508 0.0014244249
000150 bc cb 36 3e 92 dd 02 be 07 cd 2c be 62 87 42 3e
       0.17851156 -0.12779835 -0.16875087 0.18996957
000160 7c 2d 30 3d df 8d 48 3e b8 58 82 3d 42 5b fe bd
       0.043012127 0.1958537 0.06364578 -0.1241975
000170 79 51 ca 3d ee 5f ef 3d 8c 8c aa bd 53 e8 b7 bd
       0.09878821 0.11688219 -0.083275884 -0.08979859
000180 be 94 ca 3d d1 62 a5 3d f2 f7 45 bd 65 c3 49 bd
       0.098916516 0.08075488 -0.048332162 -0.04925861
000190 62 0b 77 3e d0 a7 cf 3d ca 97 7f 3e 5e d4 2e 3e
       0.24125436 0.101394296 0.24960247 0.17073199
0001a0 58 2e f8 bd 8b 30 8a bd 5e 95 e1 3e c7 6c 88 3e
       -0.12118214 -0.0674754 0.4405927 0.2664549
0001b0 5d ce 91 3e 76 90 d7 3d b2 48 8d 3e 00 9d fe 3e
       0.28477755 0.105256006 0.27594525 0.49729156
0001c0 a4 38 f4 3e ae e1 93 3c 9b 69 d9 3d e6 b4 bc 3e
       0.47699463 0.018051948 0.10615846 0.36856765
0001d0 d6 6a da 3e fb a0 ae 3e 32 9c a4 bc 72 18 49 bd
       0.42659634 0.34107193 -0.020094011 -0.04909558
0001e0 58 7e 8c ba d7 84 1c 3e ec df 99 3e 37 9a d7 bc
       -0.0010718806 0.1528505 0.3005365 -0.026318653
0001f0 c9 4f 5c 3e 8d 8c e5 bd b9 0e 20 be c8 61 d2 3c
       0.2151481 -0.112084486 -0.15630616 0.025681391
000200 97 3a 76 3e 3c c1 99 3e 9c cf 99 bd 22 03 25 3e
       0.24045788 0.3003024 -0.075103015 0.16114476
000210 73 1a c0 3e 33 1f c7 3e 55 24 9f 3e 6b 8b 7c 3e
       0.3752018 0.3889099 0.31082407 0.24662559
000220 f6 7d 92 3e 9a 6a 91 3e bd fd fa 3d ff 27 3c 3c
       0.28611726 0.28401643 0.12255428 0.011484145
000230 86 53 8c bc 85 66 a2 3d 76 70 13 3d 4c 88 8a 3e
       -0.01712967 0.0792971 0.035995923 0.2705711
000240 d9 74 5e 3e 3c 90 db bc fb cb d3 3d 95 cd 08 3e
       0.21724261 -0.026802175 0.103416406 0.13359673
000250 82 74 71 3e ad 42 76 3e
       0.235796 0.24048872

feature_extractor.0.bias f4 [6]
000000 10 9d 18 bd 9f cc 75 3e b2 30 85 3c 08 19 bb 3c
       -0.03725916 0.24003838 0.016258571 0.022839084
000010 f9 2a 63 bd d2 aa 37 3c
       -0.055460904 0.01121016

feature_extractor.3.weight f4 [16, 6, 5, 5]
000000 3d 73 17 bd f8 98 f6 bc b0 a3 6f 3d f0 77 c7 bc
       -0.036975134 -0.030102238 0.058505714 -0.024349183
000010 aa 37 5f bd 53 2c 48 3d c3 5c 39 3d 82 be 89 3d
       -0.054496445 0.048870396 0.04525448 0.067257896
000020 d6 88 0f bd 6c 09 c6 3c cb 5e fe bc 93 20 33 bc
       -0.035042606 0.024174415 -0.03105106 -0.010933059
000030 d4 17 89 bd b2 d3 32 bd 62 be f9 bc eb 5f 09 3d
       -0.06693998 -0.04365892 -0.03048629 0.03353874
000040 2c cf 97 3c de d0 6f 3c 76 ef 8f 3d 2d 5d 95 3d
       0.018531404 0.0146372 0.070280954 0.072931625
000050 8d 31 68 3d e6 ea bb 3b 1f aa 84 bd 95 0c 5c 3d
       0.05668788 0.005734789 -0.064777605 0.053722937
000060 ef 53 94 bc c6 fe 57 bc 47 42 42 bd 58 b8 ae 3c
       -0.018106429 -0.013183301 -0.04742649 0.021328136
000070 22 25 29 bd 41 2e 8a 3d 8e d1 be bd be 44 04 bd
       -0.04129518 0.067471035 -0.09317313 -0.03229212
000080 47 8b 12 3d b0 e6 38 bd ef b0 66 3c 62 f0 41 bd
       0.035777356 -0.045141876 0.01408027 -0.047348388
000090 af c7 79 bc 45 98 1a 3d 6c 81 34 3d 26 43 a3 bd
       -0.015245362 0.03774287 0.04406874 -0.07971792
0000a0 4f 50 0a 3d fe c6 b8 3d b7 59 cc 3d 45 90 ab bd
       0.033767994 0.0902233 0.09978049 -0.083771266
0000b0 ce 84 6c bb be 38 97 bd 39 90 c5 3d 3b 6b 30 bc
       -0.00360899 -0.073838696 0.09646649 -0.010767753
0000c0 11 50 84 3c 8e bb 17 bc 16 04 08 bc d1 bd df 3b
       0.01615146 -0.009261025 -0.008301755 0.006828048
0000d0 6a 9e 5b 3c 2a 1d 0c 3d 3b 4a 40 3c 10 80 02 3d
       0.013404468 0.0342075 0.011736448 0.03186041
0000e0 23 f9 6b bd 9a c3 73 3d 88 19 88 3d b2 0d 93 3d
       -0.057610642 0.059512712 0.06645495 0.071803465
0000f0 d6 69 92 3d 3f dd 2a bd ee a7 28 bd dc 18 57 3d
       0.07149093 -0.041714903 -0.041175775 0.052513942
000100 cc 9b 87 bd 6a b9 b0 3d a1 f3 8b bd 88 74 98 bd
       -0.06621513 0.08629115 -0.06833578 -0.074441016
000110 9d 2f 81 3c 09 61 7d bd 65 6f 60 bc 50 27 82 3d
       0.015769774 -0.061860118 -0.0136984335 0.063551545
000120 11 ca 3e 3d 96 b4 8e 3d 35 1e 4d bc 3e 17 87 bd
       0.046579424 0.06968038 -0.012519409 -0.0659623
000130 15 91 a1 3d e7 1d aa bc 00 51 1c bd 85 ec a9 3c
       0.07889 -0.020766212 -0.038163185 0.020742664
000140 4b c5 55 bd 69 c4 63 3d b4 85 35 3d 83 f1 93 bd
       -0.052190106 0.055607233 0.044316962 -0.07223799
000150 8f 52 84 bd c0 d0 8c 3b df 79 06 3d 37 59 16 bc
       -0.06461059 0.004297346 0.03283107 -0.009176544
000160 de 94 45 bd 86 85 62 3b 67 b1 93 bd a4 e4 64 bd
       -0.048237674 0.003456445 -0.07211571 -0.05588211
000170 bd 3e 88 bd 88 be 84 3d dc 0b 9a 3d 67 2c d4 bc
       -0.066525914 0.064816535 0.07521793 -0.025900079
000180 e2 44 7c 3b bd 0d f2 3c 42 ae 53 3c b7 14 17 bd
       0.0038493206 0.029547567 0.012919964 -0.03688499
000190 0f c5 46 3d 0c 60 c1 3d e3 90 35 3d 2a b4 84 bb
       0.048527773 0.094421476 0.044327628 -0.0040497975
0001a0 c8 1f a5 3d 85 e9 a4 3d be 98 a5 3c 77 b5 13 3e
       0.080627024 0.08052353 0.020214435 0.14424692
0001b0 9e 6c 84 3c 25 fd 66 bd 8d c7 84 3d 11 92 26 bc
       0.016165074 -0.05639376 0.06483374 -0.010166661
0001c0 7a 4f dd 3d 8e 09 c3 bd d3 39 4b bc bd a0 cd 3c
       0.108061746 -0.09523307 -0.012403923 0.02510106
0001d0 f7 f6 87 3d b9 6b 51 3d 58 d6 c6 bd b2 e5 89 bd
       0.06638902 0.051128123 -0.097088516 -0.06733264
0001e0 0f c9 a4 bd 2b 09 aa 3c 64 ab f4 bc d7 64 26 bd
       -0.080461614 0.020756325 -0.029866882 -0.040623512
0001f0 3b d4 93 bc 77 2a 83 3d d9 1c ed 3d be 4d e8 3c
       -0.018045535 0.06404584 0.11577768 0.028357383
000200 0b 66 05 bd 62 05 d0 bc 2a c4 fc bc 78 b1 e9 3d
       -0.03256802 -0.025393192 -0.030855257 0.114108026
000210 72 be 7f bc e6 d5 42 3c 72 01 ce 3c cf 37 ac bc
       -0.015609371 0.011891818 0.025147174 -0.021022705
000220 c3 f7 a3 3d 0e 78 aa 3c 5c e0 e0 bc 98 e5 38 bd
       0.08006241 0.0208092 -0.027450733 -0.045140833
000230 7c e9 a3 ba 54 71 89 ba a7 28 c2 bd 55 7f a9 bd
       -0.0012505497 -0.0010486045 -0.0948041 -0.0827624
000240 1e 51 53 bc aa 7d 89 3b 71 00 05 3d 8b 02 80 bd
       -0.012897758 0.0041958885 0.032471124 -0.06250485
000250 0d a1 e3 bc 58 49 a4 bc 3f 05 9c bd d9 ef a3 3d
       -0.027786756 -0.020054504 -0.07618188 0.08004732
000260 46 67 e5 3c 58 77 a9 3d c9 0b 27 3b f4 5e a0 bc
       0.028003346 0.08274716 0.0025489202 -0.019576527
000270 4b 04 77 bd 7c 89 4e bb e8 a6 8a 3d 4b f2 9c bd
       -0.06030683 -0.0031515053 0.06770116 -0.07663401
000280 a0 9f e3 bc 8d 5c 6f 3d c7 bb 7a 3d 7f 01 32 3d
       -0.027786076 0.058437873 0.061214235 0.043458458
000290 c2 b1 3d bc 19 38 b6 bc 26 51 23 bd 89 dc 2a bd
       -0.011578025 -0.022243546 -0.03987231 -0.041714225
0002a0 82 32 52 3d 12 df 5c 39 2d c5 01 bd fc 04 cc 3c
       0.0513177 0.00021063935 -0.031682182 0.02490472
0002b0 c1 e0 4e bd 39 12 a9 3b b5 79 8a 3d b9 b0 82 3c
       -0.05050731 0.005159643 0.06761495 0.015953409
0002c0 65 92 a0 3d 30 90 32 bd 41 51 7e 3c 1b fe 89 bc
       0.078404225 -0.04359454 0.015522302 -0.0168448
0002d0 a0 8e 27 bd 4e 5d d5 bc 8d 50 8f 3d 5c 8d 42 3d
       -0.040907502 -0.026045468 0.06997786 0.047498092
0002e0 c1 25 34 bd 22 4b 37 bd a8 50 97 bd 40 7f ce 3d
       -0.043981317 -0.044749387 -0.07388431 0.10082865
0002f0 b9 df 5b 3c b4 e7 c1 3b 23 71 9f bc 96 5e 79 bd
       0.013420039 0.0059175137 -0.019463127 -0.06088122
000300 a7 cd a8 bd b3 e1 9e bc 50 ba be 3d c6 23 a5 3c
       -0.0824235 -0.019394731 0.0931288 0.02015866
000310 0f 8f 01 bd b8 e3 42 bb 15 88 97 3d cf cc a9 3d
       -0.031630572 -0.0029737782 0.073990025 0.08291017
000320 ae 1c 9e 3d 72 d0 d8 3c 3f 3a 5d 3d 39 74 07 3c
       0.07720314 0.026466582 0.054010626 0.008267456
000330 01 a2 64 bd 85 7a 87 bd 69 9d 97 3d 83 a9 f6 3a
       -0.05581856 -0.066151656 0.074030705 0.0018818829
000340 12 53 b3 3c 15 df 27 bb bc 4b 61 bd 18 82 02 bd
       0.021890197 -0.0025615145 -0.055003867 -0.03186235
000350 de f4 3d 3c 78 34 ba bc aa f3 8b bd 2d 75 30 3c
       0.011594025 -0.022730097 -0.068335846 0.010770124
000360 f2 ca c3 b7 28 ce 53 3b 18 64 87 3d 91 70 26 3d
       -2.3340315e-05 0.0032318924 0.06610888 0.040634695
000370 eb b8 b5 bc b8 bc fe 3d bb f4 dd 3d 69 36 10 3d
       -0.022182902 0.12438339 0.10837694 0.03520814
000380 7f 4d 41 bc 3c 24 8a bd 0c e4 91 3d 98 30 62 bc
       -0.011798262 -0.067451924 0.071235746 -0.013805531
000390 a0 f0 6f bd e6 54 5f 3d 88 6b 34 3d 47 26 27 3d
       -0.058579087 0.054524325 0.044047862 0.04080799
0003a0 a9 31 59 bc b6 45 12 bd 21 d6 77 3c 52 6e 8d 3d
       -0.013256469 -0.035711013 0.015126736 0.069058076
0003b0 4a b5 60 3c 34 a2 f1 bc 86 98 af 3d 4a 5b 52 3b
       0.013715098 -0.02949629 0.085740134 0.003209787
0003c0 79 47 72 3d 04 ba 0f 3d 7a 8d db 3d 1c f8 8b 3d
       0.059150193 0.035089508 0.10720344 0.068344325
0003d0 8b 2b 20 bd 78 91 93 3d ea cd a8 3c 4f f5 6b bd
       -0.039104026 0.0720548 0.020606 -0.05760699
0003e0 4b 7c d0 bc 86 3f 9b bd 49 83 91 bd 67 b8 95 bd
       -0.025449893 -0.075804755 -0.07105119 -0.073105626
0003f0 6a a3 8e 3d 7e 1d 95 3a ce cb 94 bc d6 05 58 3d
       0.069647625 0.0011376587 -0.018163588 0.05273994

feature_extractor.3.bias f4 [16]
000000 ae a2 a5 bc 24 c1 2c bd 50 d9 b1 3b f0 b4 03 3d
       -0.020219173 -0.04217638 0.005427517 0.032154977
000010 62 bf 43 3d 0b 29 9d bc b0 27 21 3c 54 f0 18 bd
       0.04778994 -0.01918461 0.009836122 -0.03733857
000020 a1 fb 83 bd 62 1c 44 bd f9 14 46 bd 9f 9c 4d bd
       -0.06444479 -0.04787863 -0.048359845 -0.050198194
000030 13 c8 91 3c 49 f9 c9 bc 0a 11 89 3d 35 a9 a7 3d
       0.017795598 -0.024655001 0.06692703 0.081865706

feature_extractor.7.weight f4 [120, 400]
000000 53 75 2f bd 86 38 42 3c 1d b8 f3 3c 62 34 43 bd
       -0.0428365 0.011854297 0.029750878 -0.047657378
000010 33 9a 8e bc e4 fc 08 3d b2 2e 18 bd 67 92 3a 3d
       -0.017407512 0.0334443 -0.037153907 0.045549776
000020 48 96 8d bb cf 7f 60 3c 54 98 47 3d 52 85 0d bd
       -0.0043208934 0.013702347 0.048729256 -0.034550972
000030 63 2a 2e 3d da a5 29 bd 58 66 24 3d f0 42 81 ba
       0.042520892 -0.041417934 0.040136665 -0.0009861868
000040 44 a4 2c 3d 8f 4b ba ba 78 88 2a bd c8 58 97 3c
       0.042148843 -0.0014213192 -0.041634053 0.018474951
000050 a6 59 f5 3c b9 89 2b bc 16 7e 5b bd ed ff d4 bb
       0.029949974 -0.010469847 -0.05358704 -0.0065002353
000060 39 11 1f 3c 5e 4f 1d 3c b9 79 eb 3c bc b2 f1 bb
       0.009708696 0.009601442 0.028744565 -0.007376043
000070 fb 6a d5 3a 6f 0a f5 3a 57 df c2 3c a8 a0 b8 3c
       0.0016282493 0.0018695126 0.023788137 0.022537544
000080 f3 bf b7 3c 8b c9 d2 3b d3 50 34 3c e4 73 14 3d
       0.022430396 0.006432717 0.011005598 0.036243334
000090 a5 b0 53 3c d2 99 1f bd 00 ea 67 3c 49 44 63 3d
       0.012920533 -0.038965054 0.014154911 0.055485044
0000a0 3b 8e 6b bc 68 b0 f7 3c 2e 28 37 bd d8 d7 45 bb
       -0.014377172 0.030235484 -0.044716053 -0.0030188467
0000b0 fc 83 df 3c fa ca 15 bd 61 5d 61 bc f2 fd 55 bb
       0.027284615 -0.036570527 -0.013755173 -0.0032652584
0000c0 8a 43 4e bc b2 8c f3 bc 9c df 12 3d 14 b4 fa bb
       -0.012589345 -0.029730175 0.03585778 -0.0076508615
0000d0 f5 b8 91 bc 4b 77 d7 3c b7 6c 24 3c 1d 25 7d bc
       -0.01778839 0.026302 0.010035685 -0.015450743
0000e0 1c b2 06 3d 72 d9 a7 bc 9d 9e 53 3d 55 70 0f 3d
       0.032884702 -0.020489428 0.051664937 0.035019238
0000f0 10 c1 83 3b 82 de 9c 3c b5 55 26 bc 61 69 02 bd
       0.0040208176 0.019149069 -0.01015227 -0.03183878
000100 87 b1 c3 bc 37 37 5b 3c b1 ac a7 3c 0b b8 cf bb
       -0.023888363 0.013379863 0.020468088 -0.0063390783
000110 e0 72 50 bc 72 24 a1 bc e7 0c d0 bc a4 8c a5 bc
       -0.012722701 -0.019670699 -0.025396777 -0.020208664
000120 f3 e2 07 3d 62 01 4a bd 6a c3 b2 3c 70 c4 f6 3c
       0.03317542 -0.049317725 0.021821696 0.030122966
000130 d3 2a 16 bc 11 02 81 3a 1a 47 d9 bb 32 1a 28 bd
       -0.0091654835 0.0009842535 -0.0066307904 -0.041040607
000140 d7 4d 32 3c 38 a6 94 bc 2e 65 b5 3c c4 14 47 3b
       0.010882816 -0.018145666 0.022142973 0.0030377368
000150 31 4f e4 bc 24 a2 6a bd bf cc e8 3c 79 a0 46 3d
       -0.027869793 -0.057283536 0.028417943 0.048492882
000160 b6 8f 10 3d 04 d2 9d 3c 82 34 42 3c 86 7b 99 3c
       0.035293303 0.019265182 0.011853339 0.018735658
000170 4b bf f7 3c 2b 56 d3 b9 2a b1 c3 3a 9e e8 44 3c
       0.030242583 -0.00040309256 0.0014930118 0.012018351
000180 37 66 d7 3c f7 d8 12 bc 98 19 fc 3c ee 1b 03 3d
       0.026293857 -0.008962861 0.030773923 0.032009058
000190 1b 54 e4 bc a4 59 45 bd 1d 9f 61 bc cf e1 ec bc
       -0.027872136 -0.04818119 -0.013770846 -0.028916268
0001a0 99 23 5e 3d b6 b0 99 bc 74 9a 07 bd 5a b8 a9 3c
       0.054233167 -0.01876102 -0.033106282 0.020717788
0001b0 1e 7b a9 3c 1c 60 b9 3c a2 57 38 3d 7e 8e 5f bd
       0.02068859 0.022628836 0.04500545 -0.05457925
0001c0 fb 35 d5 3c 95 04 80 bc c5 68 81 3c a3 ef f0 bc
       0.026026716 -0.015627185 0.015797028 -0.029411143
0001d0 d2 10 5c 3d d7 bd 26 bc bd b6 3b 3c 11 04 2a bd
       0.05372698 -0.010177097 0.011457142 -0.041507784
0001e0 7e de 98 3c 71 08 17 bd 9a eb 4c 3c 08 55 40 3d
       0.01866078 -0.036873285 0.012507344 0.046956092
0001f0 06 9d 1b 3d dc cc cd 3c 53 99 a3 bc b3 74 e5 3b
       0.037991546 0.025122099 -0.019970572 0.007002437
000200 64 89 07 3c 39 ad 5f bd 16 59 c1 3c 6a 2d 1f bd
       0.008272503 -0.054608557 0.02360205 -0.03886167
000210 fe 72 a3 3c f4 6e 50 3d fa f4 86 bc f9 86 65 3c
       0.019952293 0.050887063 -0.016474236 0.014009231
000220 e0 47 5e 3d 79 a5 4d 3d 21 dd 66 3d 80 d8 be bc
       0.054267764 0.050206635 0.05636323 -0.023296595
000230 81 82 44 3b 29 31 55 bd be e5 37 3a c4 6c 54 bd
       0.0029985013 -0.052048836 0.000701513 -0.05186154
000240 98 bb 84 3b 0a 8e 83 3c 4a ad 4b bd 2b 43 94 bb
       0.004050683 0.01605894 -0.04972581 -0.0045246086
000250 7b a4 cd bc 0e eb 08 3d 29 23 28 bc 00 15 b2 3c
       -0.025102844 0.03342729 -0.010262289 0.02173853
000260 41 0e 0c bd 87 be a9 3b 40 d9 03 3d 4c 88 9a 3b
       -0.03419328 0.0051801833 0.032189608 0.004715955
000270 b9 3f 67 bc 17 27 c3 bc 5d 71 b8 3c 0c e7 95 3c
       -0.014114314 -0.02382235 0.022514993 0.018298648
000280 87 42 2f 3c 08 aa 1c 3d 4e 51 e0 bb a0 78 92 bc
       0.010697014 0.038248092 -0.00684563 -0.017879784
000290 cb 78 62 3c 94 37 df 3c 68 40 77 bd fc 08 ee bc
       0.013822745 0.027248181 -0.060364157 -0.029057018
0002a0 44 78 d3 3b dc 15 11 3d 1e 1d d3 3c 08 56 1a 3c
       0.0064535458 0.035421237 0.02577072 0.0094199255
0002b0 d9 96 57 bd 06 bc 00 bd 24 ec b4 3c 6c 2f f2 3b
       -0.052634094 -0.031429313 0.022085257 0.007390907
0002c0 c4 63 c9 3c 2c f2 1a 3d a9 2a d7 3c 88 40 b0 bc
       0.024583705 0.03782861 0.02626546 -0.021515146
0002d0 19 38 e2 bc ab b3 3e bc cb d9 09 bb fd 13 c5 bb
       -0.02761464 -0.011639516 -0.0021034356 -0.0060143457
0002e0 11 6e 36 bc ba 52 81 3b 1c fd 06 3d e2 b0 fc bc
       -0.01113464 0.0039466294 0.032956228 -0.030846063
0002f0 64 88 c0 3c 05 a7 3f bd f5 a2 aa 3a 2f 4e 3f bd
       0.023502536 -0.04679014 0.0013018536 -0.04670542
000300 c4 9e 35 3d d5 c3 1f bd d7 31 c7 bc 02 be af 3c
       0.044340864 -0.03900512 -0.024315758 0.021452907
000310 17 69 93 3c a3 cf 1b 3d 6a 00 6d 3c 07 e9 2b bd
       0.017994447 0.038039815 0.014465431 -0.04197028
000320 a9 1d 0f bd 3d c2 0b 3d 34 e9 46 bd de 99 37 3d
       -0.034940396 0.034120787 -0.048562244 0.044824474
000330 dc 97 09 bc 83 ee 14 3c e1 20 0c bb b9 f0 4c bc
       -0.0083980225 0.009090069 -0.0021381902 -0.012508565
000340 da 2d 48 bc c8 02 70 3c ca 43 0f bc 38 0f 0a 3c
       -0.012217963 0.014649101 -0.0087441895 0.00842648
000350 95 35 2b 3d 9d 91 93 3b 47 6d 1f bd e0 d5 19 bd
       0.041799147 0.0045034424 -0.038922574 -0.037557483
000360 cc b6 03 3d 6a b6 8e 3c c0 ef 1c 3c 01 35 c9 bc
       0.03215675 0.017420966 0.009578645 -0.024561407
000370 e5 9d 26 bd b6 59 31 3d 0d af 3f bd 00 1a c9 bc
       -0.040677924 0.043298446 -0.0467978 -0.02454853
000380 c3 1a a8 3c 59 7b 2a 3d c4 2e eb bb 67 d0 23 bd
       0.020520573 0.04162154 -0.0071772058 -0.03999367
000390 8b 0c 94 3c 17 f8 a1 3b 41 1b c8 bb ee 94 3e bd
       0.018072387 0.0049429047 -0.0061067645 -0.04652875
0003a0 07 81 24 3d 0a 57 fc 3b e4 28 ab 3c 6d 1a 94 3c
       0.040162113 0.0077008056 0.020893522 0.018079007
0003b0 08 a9 20 3d 24 db b9 bc 55 86 97 39 81 0c 21 bd
       0.0392237 -0.022687502 0.0002890105 -0.039318565
0003c0 35 f9 53 bd 44 98 b2 bc 67 43 9d 3c 80 2c e9 bc
       -0.051751334 -0.021801122 0.019197179 -0.028463602
0003d0 73 87 06 3d ec bb 03 3c a7 3b 9e bc d6 55 b8 3c
       0.03284402 0.00804041 -0.019315554 0.022501867
0003e0 c6 97 0a 3d f3 9a b1 bc 74 88 e9 3c bc 8b f0 3c
       0.03383615 -0.02168033 0.028507449 0.029363506
0003f0 76 ee 25 3d 32 ca e8 bc da 7e 56 3d 7f bb 8e 3b
       0.040510617 -0.028416727 0.05236707 0.0043558474

feature_extractor.7.bias f4 [120]
000000 30 a9 a9 3c e9 43 12 3d 6f 5a aa 3c df 69 05 3d
       0.020710558 0.035709295 0.020795075 0.03257167
000010 a5 0f 2c 3d a8 0f fe bc f1 01 16 3d ff 1b 77 ba
       0.042007107 -0.031013325 0.036622945 -0.0009426474
000020 d2 8b f8 bc b9 e9 81 3b 4d 91 bd 3c d8 67 e3 bc
       -0.030340109 0.0039646295 0.023140574 -0.027759477
000030 7d f0 18 bd 01 ed 49 bd 0d 20 da bc e0 9c 24 bd
       -0.037338722 -0.04929829 -0.026626611 -0.04018867
000040 d6 97 f3 3c 59 2c af bc 8a fa 37 bd 6d 58 ee bc
       0.029735487 -0.021383451 -0.044916667 -0.0290949
000050 d4 cb 2e bc 33 3b fc 3c 28 34 12 3d 00 1f 87 3c
       -0.010668714 0.030789947 0.03569427 0.016494274
000060 d2 ec 2c 3d 63 a1 21 bd 2e 63 ae bc ae bb 15 3d
       0.042218037 -0.03946055 -0.021287527 0.03655594
000070 ba 34 86 bc ee 3b 72 3c 7a d9 52 bc d3 0c ce 3c
       -0.016382564 0.014784796 -0.012869233 0.0251526
000080 a8 30 46 bd 40 a9 be 3c 52 58 e6 bc 92 a5 e8 bc
       -0.048386246 0.023274064 -0.028118286 -0.028399263
000090 ba c6 19 3d bd 3f d2 bc 1b d9 d9 3b 76 6a 8c 3a
       0.037543036 -0.025665158 0.0066481954 0.001071288
0000a0 66 cf 12 bd 83 e1 e3 3c 9d 8c 14 bd 83 51 91 bc
       -0.03584232 0.027817493 -0.03626691 -0.017739063
0000b0 7e f9 44 bd e8 26 3e bc f1 48 82 3c 60 c6 57 3c
       -0.048089497 -0.011605956 0.015903922 0.013169855
0000c0 9b 35 bf 3c 1b 65 8b bc 38 42 98 3c 12 6a 49 bc
       0.02334099 -0.017015984 0.018586263 -0.012293356
0000d0 2f a8 28 3d 69 da ef bc 8e 35 33 bb ab 27 9e 3a
       0.041176017 -0.02927895 -0.0027345154 0.0012066265
0000e0 88 f7 14 3d e1 f6 73 bc f9 9e 1e bd f1 34 7e 3c
       0.036368877 -0.0148904035 -0.038725827 0.015515552
0000f0 2e 01 41 3d 9e f2 08 bd c7 d8 87 bc d2 8b 6f bc
       0.047120266 -0.033434503 -0.01658286 -0.014620738
000100 46 0c 0b 3d e2 65 e0 3b 9c 8b 2d bd 4f f0 1d 3d
       0.03394725 0.006848083 -0.04236947 0.038559254
000110 b7 14 59 bc d3 5a 40 bd 44 b5 41 3d 69 cc 2c bc
       -0.013249568 -0.046961617 0.04729201 -0.010546782
000120 82 48 b0 3c fa f4 bd 37 3b 4e 15 3d 5a 29 b1 bc
       0.02151895 2.2644632e-05 0.03645156 -0.021626163
000130 04 fd 72 bc e1 b8 c5 bc 30 8a 02 bd 7b f6 01 bd
       -0.014830831 -0.024136009 -0.031870067 -0.031729203
000140 5b a4 e1 3c c8 fa 07 bd 1e 27 b5 b9 83 4a ef 3b
       0.027544191 -0.033198148 -0.00034552155 0.0073025837
000150 d5 28 54 3d f8 16 91 bc 7d 61 84 bc 5d f3 d2 3c
       0.051796753 -0.017711148 -0.016159767 0.02575081
000160 a7 67 3a 3c 25 0e b9 3c ad f8 2a 3d be 47 26 bd
       0.011377252 0.022589752 0.041741062 -0.040595762
000170 d7 8d 5f 3c 6d 0f 9c 37 40 b8 38 bd 44 4c ca bb
       0.013644657 1.8603832e-05 -0.04509759 -0.0061736424
000180 57 92 73 3c 14 a6 eb 3c 5d cc 29 3b 95 85 0b bd
       0.014866433 0.028765716 0.0025909164 -0.03406294
000190 9b ed 58 bc bf 61 31 3d ec ca c9 3c 0c 74 14 bd
       -0.013240243 0.04330611 0.024632894 -0.036243483
0001a0 14 89 5a 3c 48 11 22 bc 05 e9 31 3c ad dc 02 3d
       0.013338346 -0.0098918155 0.010858779 0.031948734
0001b0 8c 14 d5 bc 88 31 05 bb 89 17 25 3d 3a 58 df bb
       -0.026010774 -0.0020323712 0.040305648 -0.0068159373
0001c0 ac 9e 48 3d d8 b5 6c ba 78 f9 0a 3c 20 4d 0d bc
       0.048979446 -0.00090297824 0.00848233 -0.008624345
0001d0 34 1e b2 3c 96 ce 6e bc 69 eb 56 3d 26 83 35 3d
       0.021742918 -0.014575621 0.0524706 0.044314526

classifier.0.weight f4 [84, 120]
000000 b6 3a 47 3c fa ec 5a bd ef 7d c8 3c 40 1c 95 bb
       0.012159994 -0.053448655 0.024474112 -0.004550487
000010 ca b4 9c bd 76 25 03 3d b2 27 7a bd d8 2e 2e bd
       -0.0765167 0.032018147 -0.061073013 -0.042525142
000020 87 27 8b bd ff 73 84 3d 7d 61 61 3d cc a2 58 bd
       -0.067946486 0.06467437 0.055024613 -0.05288963
000030 11 d6 88 3d 4e 63 8b bd aa d0 06 3c ff d5 7a bd
       0.06681455 -0.0680605 0.00822846 -0.06123924
000040 72 23 78 3d de 1f 1b bd e1 d6 49 bc 54 f1 11 3d
       0.06058068 -0.037872188 -0.0123192975 0.03563054
000050 70 e9 a8 bd f3 f9 87 3d ae a7 c0 3b 09 14 61 bd
       -0.0824765 0.06639471 0.005879364 -0.054950748
000060 78 2c 41 3b 41 ee 18 bd 55 67 a8 3c 2c 09 63 3d
       0.0029475968 -0.03733659 0.020557085 0.05542867
000070 25 9b a5 bd de 34 8f 3d ec 31 c7 bc 58 aa 9b 3d
       -0.08086232 0.069925055 -0.024315797 0.0760085
000080 a3 57 ab 3b 3b 3a 1b 3d a7 e2 31 bd ca 8a 93 3c
       0.005228953 0.03789733 -0.043429043 0.018010516
000090 54 81 4e ba cd f7 98 bc 7d 1e 2b bd b2 f5 21 3b
       -0.0007877548 -0.018672848 -0.041777123 0.0024713096
0000a0 f2 1f c1 bd ea 4f 57 bd 33 b3 da bc 8b cb 14 3b
       -0.09429921 -0.052566446 -0.026696777 0.002270433
0000b0 82 cc 75 bd 73 f7 2e bd 6a 48 72 3c 03 a3 78 3b
       -0.060009487 -0.042716455 0.014787773 0.003793896
0000c0 d8 e3 87 3c 90 a7 49 bd b0 83 96 3d 99 9a ba bc
       0.016588137 -0.049232066 0.07349336 -0.022778796
0000d0 30 d1 a6 bd c1 12 60 3d 15 eb 17 3c 92 ae bf bb
       -0.08145368 0.054705385 0.0092723565 -0.005849668
0000e0 17 59 a8 bd 4e 53 3d bd 4d 05 4a 3d a7 c4 79 bc
       -0.082201175 -0.046222024 0.04932146 -0.0152446395
0000f0 02 ec 61 bd 4e 8c 8c 3d 48 72 97 bd af f9 8e 3d
       -0.055156715 0.068626985 -0.07394844 0.06981217
000100 73 14 fc bc 81 fc 1c 3d 8b c5 39 3c 3e b8 d0 3d
       -0.03077147 0.038326744 0.011338602 0.101913914
000110 d8 02 f6 3c 1c 93 c9 bb d2 da af 3d 47 e2 94 bd
       0.030030653 -0.00615157 0.085866585 -0.072697215
000120 33 a0 7e 3c 6a da ef 3c f7 09 56 bd 04 98 53 bd
       0.015541124 0.029278953 -0.052255597 -0.051658645
000130 04 5e 38 bd cd 0c 44 bd 97 64 4a bc f2 b0 66 bd
       -0.045011535 -0.04786377 -0.012353084 -0.056321092
000140 f2 f4 87 3d 56 ec 0f bb 45 b7 c3 3d 74 65 8d 3c
       0.066385165 -0.0021960936 0.0955644 0.01726029
000150 22 bc 59 bb d3 53 02 3c 83 15 2b bd 19 c2 17 bd
       -0.0033223708 0.007954556 -0.041768562 -0.03705034
000160 ab 10 1a 3d c0 9e 3c bc ad 47 1d 3c d0 8f f6 bb
       0.037613552 -0.011512458 0.009599608 -0.007524468
000170 b8 5b bf 3d 31 44 cc bd 45 32 72 bd c4 62 43 bd
       0.09343666 -0.09973944 -0.059129972 -0.047701612
000180 f9 b2 e3 bc 1b c1 92 3d 3c 9b 7e 3d 0e 37 64 bd
       -0.027795302 0.07165738 0.06215976 -0.055716567
000190 21 a4 e0 bc 52 93 d0 3d 92 b7 95 bd 21 3e 1a 3c
       -0.027422013 0.10184349 -0.07310404 0.009414227
0001a0 7b 81 13 3d 52 db 30 3d 5d 85 cb 3d 97 9d 73 3d
       0.036012154 0.04317791 0.099375464 0.05947646
0001b0 73 f4 71 3c 62 d8 b4 bd dc 92 25 bd ca aa 7f bc
       0.014767754 -0.08830334 -0.04042326 -0.015604684
0001c0 6e 38 88 bd c9 ad 1c bd b2 28 e4 3b 7c f9 10 bd
       -0.06651388 -0.038251672 0.006962859 -0.035394177
0001d0 61 6d 64 3c e0 98 19 3d c8 5b 80 3d 7b 53 8f bd
       0.013942094 0.03749931 0.06267506 -0.069983445
0001e0 71 b6 a5 3d d3 f0 14 3d 98 8d f4 3b 7e ac d4 bc
       0.080914386 0.03636248 0.0074631684 -0.025961157
0001f0 9c bd e2 bc e7 9e 80 3b 26 d1 3e bc c3 3b b1 bd
       -0.027678303 0.0039251926 -0.011646545 -0.08653977
000200 1f a8 6c 3c 4e 2e 76 bd 51 aa 9d bd 8a 66 5c 3d
       0.01444438 -0.060102753 -0.07698501 0.053808726
000210 57 b8 80 bc ee 0d c4 bc df 43 4c bc 65 3b 1e bd
       -0.0157129 -0.023932423 -0.012467354 -0.03863086
000220 80 7e 41 3d e7 bc 52 bb 29 79 25 bd 42 ba ac 3d
       0.04723978 -0.0032156052 -0.04039875 0.08433963
000230 e9 54 87 3d 95 75 8b 3d bf b7 b9 bd 46 40 93 3c
       0.06607992 0.06809536 -0.0906825 0.017974984
000240 68 ec 85 3b c0 93 a0 3d e8 b4 c8 3c ee 81 95 3c
       0.0040870197 0.07840681 0.024500325 0.018250432
000250 4e d1 74 3d ec 5c 22 3d c0 bf a7 bd b4 d5 b3 bd
       0.05976992 0.0396394 -0.0819087 -0.08780995
000260 c5 4a 4f bd 26 e1 a1 bc 86 62 b3 3c 46 3a 6b 3d
       -0.050608415 -0.01976068 0.021897566 0.05742862
000270 4d 9c a8 bd 8f f7 60 bc d7 3b 92 bd 06 4b a1 3d
       -0.08232937 -0.013730898 -0.0714032 0.07875638
000280 ca 3a 6e 3d 20 b4 56 3d 89 bd 2b bc e7 ba 6b bd
       0.058161534 0.052417874 -0.0104822 -0.05755129
000290 38 08 3c bd da df a3 ba 71 9c 12 3a a3 27 ef ba
       -0.045906276 -0.0012502626 0.00055927696 -0.0018246066
0002a0 94 6a 9f 3d a1 d1 41 bd dd 11 8e 3d 2f 43 25 3d
       0.07784 -0.04731906 0.06937001 0.040347274
0002b0 a4 e5 92 bd 1d 32 2a bd 35 be 62 bd 00 2b a6 39
       -0.07172707 -0.041551698 -0.055357177 0.00031694025
0002c0 32 22 46 3d f1 38 54 3d 29 eb 9c bc f3 89 a0 3d
       0.048372455 0.051812116 -0.019155102 0.07838812
0002d0 db dd 2f 3d 18 13 67 3c fc 38 97 bd bf 2f 9e bd
       0.042936187 0.014103673 -0.07383916 -0.077239506
0002e0 8d 55 69 3d c8 3d 47 3d f9 8b 33 bd e3 82 8b bd
       0.056966353 0.048642904 -0.04383466 -0.06812074
0002f0 c2 6d 92 3b b8 7a aa bd 9d 41 7b 3d dc fe 43 3d
       0.0044686506 -0.08324188 0.06134187 0.047850475
000300 64 ea ce 3c 92 0a 86 bd ff 35 5e bc b9 4c 3c bd
       0.02525825 -0.06544985 -0.013562678 -0.045971606
000310 1d 0a 3a 3d 03 c2 b1 3d 80 6b 39 3b 11 1e c0 bc
       0.0454198 0.08679583 0.0028292835 -0.023451837
000320 ad 84 80 3d 0a b3 ad bc c2 d6 2c bd eb 6d 9c bd
       0.06275306 -0.021203537 -0.042196997 -0.07638153
000330 0b 77 4a 3c 49 4d 93 3d b8 32 68 3d 72 47 02 3d
       0.012357484 0.07192475 0.056688994 0.031806417
000340 40 1e 80 3d 05 f0 94 bd 0a 66 b6 3d fb da f3 bc
       0.0625577 -0.072723426 0.08906181 -0.029767504
000350 3a 1e b5 bd 7a 7f 29 3d 6f be b8 3c 52 68 9a bc
       -0.08843656 0.041381337 0.022551743 -0.018848572
000360 e1 32 b1 bd fb fd 80 3a 68 78 3b bd 7c d2 5e bd
       -0.086522825 0.0009841317 -0.045769125 -0.054399952
000370 2e 31 a7 3d f5 06 2e 3d aa 3f a3 bd af 9f 20 bd
       0.08163677 0.042487103 -0.07971127 -0.039214786
000380 0c f7 34 bd a9 08 a8 bd f7 21 96 bd d9 7a b9 3d
       -0.044180915 -0.08204777 -0.07330697 0.090566345
000390 8b 87 d0 3b a0 96 97 3d 57 cb 78 3c 4a 01 b4 3d
       0.006363814 0.07401776 0.015185199 0.08789308
0003a0 23 19 62 bd bb 58 bb 3c 2a d9 39 bd e2 a1 04 3d
       -0.055199753 0.022869458 -0.04537312 0.032380946
0003b0 01 ff 8f 3d 99 43 8c 3d fd f7 7b bd c9 eb 68 bb
       0.0703106 0.06848831 -0.061515797 -0.003554093
0003c0 f1 9f 59 3c a1 04 d3 3c 39 fb 12 bd 52 bd fd 3c
       0.013282762 0.025759043 -0.035884116 0.030974064
0003d0 c4 9a 92 bd 86 1f 0f bd 74 c8 a3 bc a1 0c 88 bc
       -0.071584255 -0.034942172 -0.019993044 -0.016607584
0003e0 94 bd 99 bd 9a e4 73 3d d3 d1 5b bc ab f5 31 3d
       -0.07506862 0.059544183 -0.013416725 0.043447178
0003f0 fb 0c 21 bb a5 18 a5 3b 32 b1 aa 3d ea b2 8b 3d
       -0.0024574387 0.0050383382 0.083345786 0.068212345

classifier.0.bias f4 [84]
000000 d2 d5 fc bb 17 c5 b0 bd 63 c2 2f 3d 97 9a af 3d
       -0.007715919 -0.08631342 0.04290999 0.085744075
000010 8c 78 b3 3c d9 12 28 3d 23 77 a2 3d d6 18 5f 3d
       0.021908067 0.0410336 0.0793288 0.054467045
000020 39 04 24 bd 3f ee 41 3d 0f 4a 9a bd 49 e6 ba 3d
       -0.04004309 0.04734635 -0.07533657 0.09125955
000030 ac 62 7b 3d 65 2a 46 bd 3c 8c de bc 14 f1 65 bd
       0.061373398 -0.048380274 -0.027166478 -0.056138113
000040 1a 6f 11 bd 36 d0 6c bd b6 4b ab bd 49 ec 55 bc
       -0.035506345 -0.057815753 -0.0836405 -0.013056823
000050 fd f0 17 3d ba c3 66 3d f5 2d f5 bc e6 80 8a bd
       0.03709506 0.056339003 -0.02992914 -0.06762867
000060 d7 14 5e 3d 75 cb 68 3b 3b 77 a5 ba 33 d5 40 3d
       0.054219093 0.003552166 -0.0012624034 0.047078323
000070 5c 31 d4 bc cf 3f 31 3d ec a5 00 3d 01 6d 64 bc
       -0.025902443 0.043273743 0.031408235 -0.013942004
000080 84 d6 01 3b e0 46 c4 bc 0a 66 24 bd 13 9a c7 bb
       0.00198117 -0.023959577 -0.040136375 -0.006091365
000090 3a 67 9a bd c0 87 91 bd 4d 40 6b 3a e8 5e b1 bd
       -0.0753922 -0.071059704 0.000897412 -0.0866068
0000a0 18 72 1b bc 31 ce a6 bd 49 ed f9 3c de 21 8d 3c
       -0.009487651 -0.08144797 0.030508654 0.017228063
0000b0 c0 16 2c bd 02 e4 76 ba 2e 11 36 3d d6 05 9e bd
       -0.042013884 -0.0009418131 0.044449978 -0.07715957
0000c0 33 7b 9c bd ad f2 b8 3c 01 9a c2 3c 06 d4 39 3d
       -0.07640686 0.022576654 0.023755075 0.045368217
0000d0 cd a2 4c 3c 20 14 ba bd fc 58 4c bd 40 3a 23 3a
       0.012489987 -0.0908587 -0.04988955 0.00062266365
0000e0 34 7e 33 bd a1 bd 0c bd eb 1f a6 3c eb e5 56 bd
       -0.04382153 -0.03436053 0.020278892 -0.05246536
0000f0 92 d0 27 3c 8b f9 c9 3d 75 b0 b4 3d 33 31 3f bc
       0.010242598 0.0986205 0.08822719 -0.011669445
000100 29 d2 6c 3d ff 9a 98 bd 8d a5 51 3d 98 eb 42 3c
       0.05781761 -0.07451438 0.051183272 0.01189699
000110 6b a4 a6 3d 2b de 85 3d 03 8f ac bd e1 47 ad 3d
       0.08136829 0.06536516 -0.08425715 0.084609754
000120 a8 36 88 3d 24 b8 9c 3d 7c cd 5c 3d 04 d4 36 bd
       0.0665105 0.076523095 0.053906903 -0.044635788
000130 77 1b 6f bb 78 c2 a4 bb d0 d1 2f 3d d9 27 35 3d
       -0.0036484876 -0.0050280653 0.042924702 0.044227455
000140 d9 67 1a bd 40 d8 a2 bc f5 5e 1a bd fd 4f 51 3b
       -0.037696693 -0.019878507 -0.037688214 0.0031938546

classifier.2.weight f4 [10, 84]
000000 4b e6 d9 bd 78 77 b1 bd ab 8e b9 3d b3 3e e2 bc
       -0.10639628 -0.08665365 0.09060415 -0.027617788
000010 3a 44 15 3c 67 e4 3c bd 78 35 8d 3b 2d 38 da 3c
       0.009110505 -0.04611626 0.0043093525 0.026638115
000020 fb 3d a6 bd 82 b1 cf 3d 07 cc a8 bd 46 4d be bc
       -0.081172906 0.10141279 -0.0824204 -0.023230206
000030 6b 35 51 3d 93 bf dd bd 3e d4 b9 3d 10 02 c8 3d
       0.051076334 -0.108275555 0.09073685 0.097660184
000040 89 96 3b be dc aa a4 bc b1 fa b3 bd 63 e5 2e 3e
       -0.18319143 -0.020101003 -0.0878805 0.17079692
000050 6d 8c 01 be 85 ef 20 be a1 6b 9d bd 4b af 80 3d
       -0.12651224 -0.1571637 -0.07686544 0.062834345
000060 7e 8a b4 3c 11 27 e8 bd da f5 e7 bc 8f 31 8f bd
       0.022038694 -0.11335576 -0.028315473 -0.069918744
000070 93 e7 1b 3e 50 e4 db bd 38 4d dd 3c 0d 52 6c 3d
       0.15225057 -0.107369065 0.02701436 0.057695437
000080 53 93 2f be 9e 51 dd 3c af b6 38 bc a0 82 b8 3c
       -0.17146043 0.027016457 -0.011274024 0.022523224
000090 fb ce 6e bd 02 87 09 be 06 c6 63 bb 1f 7c 64 bc
       -0.05830286 -0.13430408 -0.0034755482 -0.013945608
0000a0 86 41 30 bd 9b 2d 26 3e 71 87 85 bd 8d 7b cd bd
       -0.043031238 0.16228335 -0.06519974 -0.10033331
0000b0 ae 88 c9 3c f6 20 de bd 41 6e db 3d cf 46 44 3e
       0.024601307 -0.108461305 0.10714389 0.19167636
0000c0 b3 dd 06 3e 91 50 b7 3d 0e 51 4f be 58 7b 18 3d
       0.13170509 0.08950914 -0.20245764 0.037227005
0000d0 af ad 1d be 20 2f 26 bd 1b 64 c0 bd 32 ea b0 bd
       -0.15398286 -0.040572286 -0.093940936 -0.08638419
0000e0 5f be 91 3d 9a 2d 99 3d 09 8d 3c 3d 77 1f 45 3d
       0.071163885 0.07479401 0.04603294 0.04812571
0000f0 75 45 34 3e dc ae 69 3d 39 48 a6 bd a6 a4 a3 3d
       0.17604621 0.057051525 -0.08119244 0.079903886
000100 4f 12 1c bd 68 1b 0c bc 4b 40 4c 3d d4 79 37 3c
       -0.038103398 -0.008551456 0.049866002 0.01119848
000110 8a 33 92 3d b1 fc d0 bc a1 80 6e bd cb 3e 9a 3c
       0.071387365 -0.025511118 -0.05822814 0.01882877
000120 07 e3 bd 3d cc b4 1f be 4b f1 10 be 71 4a fd 3c
       0.09271818 -0.15596312 -0.14154546 0.030919285
000130 74 07 75 3d a4 6c a9 3c c5 b7 1c be 9d 8d 09 be
       0.05982156 0.020681687 -0.15304478 -0.13432927
000140 e6 43 9c ba 0c 8f 11 3d 1e 7b 38 be 3b 21 da 3d
       -0.0011922091 0.03553681 -0.18015715 0.106508695
000150 3d 86 e1 bd 15 65 0b 3d ca 4b cd bc 2f fa c5 bd
       -0.11011932 0.034031946 -0.025060553 -0.09666859
000160 03 7a cb 3c 95 aa 86 3c a3 46 d7 3d 7f f5 1a 3e
       0.024838453 0.016438762 0.1051152 0.15132712
000170 88 1e 47 3e 88 77 06 3e 5a 52 17 be db c8 1c 3e
       0.1944524 0.13131535 -0.14777508 0.15310995
000180 e4 4a 49 3e 30 de 9b bd 6b 2f fe 3d f8 75 72 be
       0.19657475 -0.07610738 0.12411388 -0.23677814
000190 26 71 02 be 49 97 d5 3d 27 53 eb 3d fe 5f 85 3c
       -0.12738475 0.10429246 0.114904694 0.016281124
0001a0 e2 21 c2 bd 4a e0 e3 b8 12 e6 ab 3d 25 90 e4 3c
       -0.09479119 -0.000108659806 0.08393492 0.027900765
0001b0 b3 85 a5 3d bc 08 2a bd 59 4b b0 3d 10 68 20 bd
       0.08082142 -0.041512236 0.086081214 -0.03916174
0001c0 d4 74 52 3d a1 fe 25 3d da f5 0e be a8 6e c9 3d
       0.051380947 0.040526036 -0.13960972 0.09835559
0001d0 57 46 c6 3d 7e fb fe bd 94 8f d2 bb 0e 9d d1 3d
       0.09681385 -0.12450312 -0.0064258073 0.10235034
0001e0 c4 8e a1 3d 14 36 f9 3d 88 a8 a2 3d c0 85 2b bd
       0.078885585 0.12168518 0.07942301 -0.0418756
0001f0 b3 6a 29 3d 4c a3 ce bd 02 65 5a bc 90 89 6a bd
       0.041361522 -0.1008974 -0.013329746 -0.057260096
000200 8c c8 82 bd c2 d3 3e 3e d1 8f c6 bd c2 fb 24 3e
       -0.063859075 0.18635467 -0.096953996 0.16111663
000210 a5 02 e3 3d 73 d9 93 3d eb 17 02 3e f0 89 dd bd
       0.11084489 0.072192095 0.12704436 -0.10817325
000220 13 00 c3 3d f2 8f ae bc 47 74 e4 bd 4f 3c 27 bc
       0.095214985 -0.021308873 -0.11154991 -0.01020725
000230 b3 68 e8 3c eb 41 b6 bd 33 f9 6c bd c4 9d bf 3d
       0.028370237 -0.088992916 -0.057854842 0.09356263
000240 25 4c 8c bd 6f a7 e3 3d cf 20 ba bd 00 7d f5 bd
       -0.06850461 0.1111592 -0.09088289 -0.119867325
000250 85 75 ca 3d ce 65 cf 3d fc a5 03 3e ac a6 f8 3d
       0.09885696 0.101268396 0.12856287 0.12141165
000260 b3 34 22 3e 66 50 84 3d a1 6a 17 3c 5f 21 e6 3c
       0.15840416 0.06460647 0.009241731 0.028092084
000270 c7 48 93 3d 5b 9d 93 3d 1b f4 83 bd a9 18 74 3d
       0.071916156 0.072077475 -0.06443044 0.05959383
000280 03 4d a8 bd d0 89 de bd 4a b0 e5 3c 50 2b f8 3d
       -0.08217814 -0.108661294 0.028038163 0.12117636
000290 24 70 45 3c 0e 39 05 3e e8 e3 b5 bd d3 ef 1c be
       0.012050662 0.13010046 -0.0888136 -0.1532586
0002a0 74 dc c3 bc 91 c0 c9 bd 62 71 04 3e 83 f4 2a be
       -0.023908831 -0.09851182 0.12933877 -0.16694836
0002b0 2f 3c f8 3d fa e4 0d 3e 3e 2d c0 3d ef 23 c9 3d
       0.12120854 0.13856879 0.09383629 0.09821307
0002c0 c5 82 96 3b 11 47 2e bc 12 a3 0e 3e 75 7f a8 bd
       0.0045932257 -0.010637061 0.13929394 -0.082274355
0002d0 55 88 fb bc cf 91 91 3d da 66 db bd 0c f6 25 3d
       -0.030704657 0.07107889 -0.10712977 0.04051785
0002e0 a7 73 0f 3e 6a 96 41 3d 21 5f c4 bd 1b e7 a4 bc
       0.14008962 0.047262587 -0.09588457 -0.02012973
0002f0 e1 b4 30 be e0 dd 84 3d f6 88 0c 3e 63 b8 d8 3d
       -0.172565 0.06487632 0.13724121 0.10582044
000300 f4 ef ae 3b f3 2b 9e 3d 8f 01 e0 3d 5c f9 40 3e
       0.0053386632 0.077232264 0.10937797 0.18845123
000310 c5 d0 2c b9 bf 14 e9 3d 76 80 ad bd dc 71 46 3d
       -0.00016480971 0.1138091 -0.084717676 0.04844843
000320 a3 d9 0a be 44 6d bb bd 9b 25 f5 bd f3 30 5b bd
       -0.13559584 -0.091517 -0.11970063 -0.05351348
000330 6c 99 ab bc 4d d2 a7 bd bc 2d 43 be 3f 29 a1 3d
       -0.02094718 -0.081944086 -0.19060415 0.07869195
000340 2f cf 8f bc cd bb 28 3d 06 bb 22 3e 0a fe ff 3d
       -0.017554848 0.041194726 0.15891656 0.12499626
000350 92 d5 1f be 62 ce 80 bd ec 5b 61 bd 7e e8 0e 3d
       -0.15608814 -0.062893644 -0.055019304 0.03488969
000360 ac 1d 76 3c 52 60 1e 3c 94 a9 cf 3c 39 0e 42 3e
       0.015021723 0.009666519 0.025349416 0.18950738
000370 62 26 5a 3d a8 15 c7 3d c4 4f 31 be cb af 38 3c
       0.05325926 0.097209275 -0.17315584 0.011272381
000380 43 0a 71 3d 3e 5c 9c 3d 53 65 ef bd fc 17 2a bd
       0.058847677 0.07634781 -0.11689248 -0.04152678
000390 1b 69 af 3d 49 da 3b 3d bc 88 36 be 5b 5b 17 be
       0.08564969 0.04586247 -0.17825598 -0.14780943
0003a0 b9 1d 4d bd 60 67 3e bd 5b 79 fe bd d9 ff d1 bd
       -0.050077174 -0.046485305 -0.124254905 -0.10253877
0003b0 85 c8 49 3e b8 d3 38 bd 26 97 5f 3d 07 1e df 3d
       0.19705398 -0.045123786 0.054587506 0.10894399
0003c0 bd 31 09 3c 44 d6 29 bc d3 01 09 3e f3 bf 0f 3e
       0.008373675 -0.010366026 0.13379602 0.14038067
0003d0 f3 0d 84 3c af 43 d1 bc bb de f0 3c d0 ba c8 bc
       0.016119933 -0.02554497 0.029403081 -0.024503142
0003e0 29 e6 cc bd da 15 56 bd f6 d2 0d 3e 94 4c 15 be
       -0.10004837 -0.052266933 0.13850006 -0.14579993
0003f0 8b 96 c9 3d a9 f2 28 bb 56 f2 79 3c 67 59 da bd
       0.09843167 -0.0025779402 0.015255531 -0.106615834

classifier.2.bias f4 [10]
000000 a6 1c 9d bc d3 e1 27 bc 68 c5 d3 bc 39 a5 c2 3c
       -0.0191787 -0.010246712 -0.025850967 0.023760425
000010 e0 0d 15 bd aa 63 7b 3d e2 03 5e 3d 51 34 f3 bc
       -0.036390185 0.061374344 0.05420292 -0.029688032
000020 d3 5c 8a bd a7 c9 67 3d
       -0.06755986 0.056588795
