checkpoints/noise_rate_0.2/models/tsf/epoch19.pth (torch, 250639 bytes, 10 tensors)

feature_extractor.0.weight f4 [6, 1, 5, 5]
000000 03 91 0a 3e 6a 56 77 bd a1 d8 b9 bc d2 f4 be 3d
       0.1353188 -0.060385145 -0.022686305 0.093240395
000010 01 cb 4c be b3 58 2a 3e 0b 0c d8 3b 0e a4 15 3e
       -0.19999315 0.16635399 0.0065932325 0.14613363
000020 85 49 6d 3d f3 e4 22 bc d2 a7 bf 3d fd 20 76 3d
       0.05793144 -0.009942281 0.09358181 0.060090054
000030 06 89 06 3e 6d 26 ce bc 1c 8e dc 3c ca 73 21 bc
       0.13138208 -0.025164807 0.026923232 -0.009854266
000040 77 59 54 3d d7 89 23 3d 1a 88 65 3e 4c b5 e5 3d
       0.051843133 0.039926376 0.224152 0.1121622
000050 e4 4f b4 bd 81 08 fd bd 8b 61 b7 bc d0 66 7d bd
       -0.088043004 -0.123551376 -0.02238538 -0.061865628
000060 2a 3a f8 bc 4e 26 b3 3d d9 b1 5a 3e 7d 41 2e 3e
       -0.030301172 0.087475404 0.21356906 0.1701717
000070 10 4e 48 be 49 fc af 3d fe 59 1c 3e 90 47 9a 3e
       -0.19561028 0.085930414 0.15268704 0.30132723
000080 af be 43 3e 53 9a 48 be be 74 6a be 80 f3 09 3c
       0.19115709 -0.1959012 -0.22896096 0.008419871
000090 c2 85 94 3e b6 29 07 3d 79 e1 c0 3d f5 5d cd bd
       0.290083 0.032998763 0.094180055 -0.100276865
0000a0 85 ce 91 3e db b0 7a 3c e4 28 6b 3e fa b2 55 3d
       0.28477874 0.015300955 0.22964817 0.05217264
0000b0 09 88 8a bd 9a 29 26 3e 9b e5 fe bc f3 fa 0e 3e
       -0.06764228 0.16226807 -0.031115344 0.13962917
0000c0 d6 bf 91 3c 0a c3 4a 3d 01 7c 60 be 30 8c fa bd
       0.01779167 0.04950241 -0.21922304 -0.1223377
0000d0 de 81 c3 3d 95 3a 03 bd a9 68 72 3e e9 6a 23 3e
       0.095462546 -0.03203829 0.23672737 0.15958752
0000e0 2c b1 aa 3a 24 ef c6 bd 26 5d 39 3e 9d 2d f6 3d
       0.0013022772 -0.09713581 0.1810194 0.12020419
0000f0 ce cb c2 bd 2c cf 36 3e f5 dd 42 3e 3e dc 7e 3e
       -0.09511529 0.17852467 0.19029982 0.24888703
000100 a3 8d 82 bd b4 61 7e 3c 0d 77 56 3d 2a 3d b7 3d
       -0.06374671 0.015526224 0.05235963 0.08947213
000110 c3 c8 d5 bd 14 a4 ee bd 35 bf 1b 3e 28 ea dc ba
       -0.10438683 -0.11652389 0.15209658 -0.0016854452
000120 91 4f 10 3e a0 dc 28 3d 09 23 aa 3d 3e 2e 07 3d
       0.14092852 0.04122603 0.08307464 0.033003084
000130 b4 dc 95 3d 92 a2 db 3d ce 21 2e be 9e f4 f9 3d
       0.073174864 0.10724367 -0.17005083 0.1220486
000140 67 07 16 be d5 8d 16 be 54 60 fb 3c 21 7c ed b9
       -0.14651261 -0.14702542 0.030685581 -0.00045296646
000150 15 67 27 3e 35 4d f0 bd 72 d5 2b be 48 e0 35 3e
       0.16347916 -0.11733476 -0.16780642 0.17761338
000160 07 ac a2 3c 99 6e 2c 3e 1d 07 85 3d 69 6b 09 be
       0.01985742 0.16839065 0.064954974 -0.1341988
000170 2d a2 9d 3d 3f 15 c3 3d 4a 4d bb bd c2 5c bd bd
       0.07696948 0.09525537 -0.09145601 -0.09246208
000180 87 ec af 3d 18 58 86 3d 9a a6 5f bd b0 2f 1e bd
       0.08590036 0.06559771 -0.054602243 -0.038619697
000190 cc 83 7f 3e 8e cb bb 3d 6a 6b 80 3e 5e 76 36 3e
       0.2495262 0.09169684 0.2508195 0.17818591
0001a0 fe 0a d6 bd e9 83 6c bd 2a fb c6 3e ee 9b 55 3e
       -0.10451315 -0.057742987 0.38863498 0.20860264
0001b0 83 af 86 3e b7 50 c7 3d 87 75 77 3e a3 f6 cb 3e
       0.2630578 0.09732192 0.24165927 0.39836606
0001c0 7a 0d d1 3e b5 10 d8 bb 6b 98 c0 3d d7 91 a8 3e
       0.40830594 -0.0065937885 0.094040714 0.32923767
0001d0 63 0f b8 3e 33 b9 98 3e 1e 76 24 bd 24 a1 90 bd
       0.3594924 0.29828796 -0.040151708 -0.07061985
0001e0 34 5a 86 ba 03 df 1a 3e 61 d3 9c 3e a2 8b 1c bd
       -0.0010250271 0.15124135 0.3063002 -0.0382191
0001f0 7f d1 42 3e bc 14 de bd c4 27 23 be 41 71 20 3d
       0.19025229 -0.108437985 -0.15933138 0.039170507
000200 59 29 79 3e fc 08 9d 3e c1 d8 b6 bd 28 4d 05 3e
       0.24332179 0.30670917 -0.08928061 0.13017714
000210 eb 71 a8 3e 0e 4d a6 3e 45 6a 8e 3e 3d 55 59 3e
       0.32899413 0.32480663 0.27815452 0.21223922
000220 43 0b 7e 3e 0e 4b 68 3e 69 c1 56 3d a2 1e d3 bc
       0.24808984 0.22684881 0.052430544 -0.025771443
000230 ca 94 ff bc a3 cc 94 3d 9c 08 4d 3c 86 2e 67 3e
       -0.031198878 0.07265594 0.01251426 0.22576341
000240 55 6b 40 3e b3 2d 7e bc 1d 47 02 3e 9d 94 16 3e
       0.18790944 -0.015513825 0.1272244 0.14705129
000250 b5 a7 63 3e 48 4e 68 3e
       0.22231944 0.22686112

feature_extractor.0.bias f4 [6]
000000 a5 a2 3e bd 3a 3a 72 3e 65 bc a6 3a 6e 24 17 3b
       -0.04654183 0.23655024 0.0012720941 0.0023062485
000010 f7 21 bd bd 17 82 18 bd
       -0.09234994 -0.03723344

feature_extractor.3.weight f4 [16, 6, 5, 5]
000000 d7 99 30 bd 88 f9 01 bd 98 d6 78 3d 2a 4a c3 bc
       -0.043115463 -0.031732112 0.060751528 -0.023839075
000010 54 91 70 bd f6 fd 20 3d 9a 07 1c 3d ae 25 87 3d
       -0.058732346 0.039304696 0.038093187 0.06598984
000020 2d fa 06 bd 3e d6 b9 3c cc 99 d9 bc fb e8 2a bc
       -0.03295343 0.022685166 -0.026562594 -0.010431523
000030 6a db 7d bd 4d 90 20 bd 50 2a ee bc 8f ce 19 3d
       -0.061976828 -0.039200116 -0.02907291 0.037550505
000040 30 9c b0 3c 99 df af 3c 4f 49 9c 3d b0 b1 97 3d
       0.021558851 0.021468924 0.0763117 0.07406938
000050 82 fd 5e 3d 1f 12 cd 3b 1c d3 5f bd ae 0f 7b 3d
       0.054440983 0.0062582637 -0.05464469 0.06129425
000060 37 b9 b3 bc e4 77 7c bc d8 6d 75 bd 67 df 3d 3c
       -0.021938903 -0.0154094435 -0.05991921 0.011588908
000070 14 e3 16 bd 18 58 8e 3d 03 3e 9d bd 69 d4 24 bd
       -0.036837652 0.06950396 -0.076778434 -0.040241633
000080 c3 37 04 3d 4a 6b 1b bd 6a 65 96 3c f0 83 fa bc
       0.03227974 -0.037944116 0.018358905 -0.03058049
000090 6d 46 47 bc ae 23 f8 3c 11 88 61 3d 3b f9 97 bd
       -0.012162787 0.03029045 0.055061404 -0.07420584
0000a0 36 d8 21 3d e8 05 9a 3d 77 92 c7 3d 5d 4b 85 bd
       0.039512835 0.07520658 0.09744733 -0.06508515
0000b0 9a 17 d3 3a 3a 23 8b bd cb 49 ab 3d 18 4a 48 bc
       0.0016105056 -0.06793828 0.08363684 -0.012224697
0000c0 e6 60 34 3d c5 eb a8 bb 62 cd 2b bc d9 0b e1 3b
       0.044037722 -0.005155059 -0.010485979 0.0068678674
0000d0 d6 c2 a9 3c f0 43 0d 3d ba 91 04 3c 0e 13 12 3d
       0.020722788 0.03448862 0.008091385 0.035662703
0000e0 90 2e 62 bd 3b 2e 80 3d 66 8a 85 3d 04 51 8b 3d
       -0.055220187 0.06258818 0.06520538 0.06802562
0000f0 f7 58 97 3d 34 18 4c bd 74 a7 1c bd 95 e2 6e 3d
       0.073900156 -0.04982777 -0.038245633 0.058321554
000100 35 4b 8b bd 2e e3 a0 3d 24 07 88 bd 32 ff 88 bd
       -0.06801454 0.07855831 -0.06641987 -0.066893
000110 35 96 ce 3c 43 e1 87 bd 8c 78 86 bc a8 a8 81 3d
       0.025218109 -0.06634762 -0.016414903 0.06330997
000120 c8 8b 6a 3d de 2d 8e 3d 99 0f a7 bc df 2d 81 bd
       0.057262212 0.06942342 -0.02039318 -0.06307577
000130 da 99 ab 3d a0 e0 8a bc 95 bd 1a bd fb 4a a2 3c
       0.08378954 -0.016952813 -0.037778456 0.019811144
000140 e3 4c 4f bd 1e de 6a 3d bb 0c 42 3d 1d c7 8d bd
       -0.050610434 0.057340734 0.047375422 -0.069227435
000150 2a 87 88 bd e9 c7 34 b9 b4 89 0c 3d de 92 a6 bb
       -0.066664055 -0.0001724061 0.03431101 -0.005083426
000160 4d 60 30 bd a6 0d 2b 3b a7 a5 93 bd a4 6a 65 bd
       -0.04306059 0.0026100664 -0.0720933 -0.056009904
000170 9e 8a 6e bd 46 34 88 3d 0d 1f 96 3d 25 9e bf bc
       -0.058237664 0.06650595 0.07330141 -0.023390839
000180 ba 6b cc 3b f8 1b 0b 3d 13 39 36 3c 54 ce 1b bd
       0.006238428 0.03396222 0.011122006 -0.038038567
000190 5d 12 20 3d 6c 78 96 3d 6a 67 15 3d 9a 6e 49 3a
       0.039080013 0.073471874 0.036475576 0.00076840224
0001a0 ce a5 89 3d 51 7a b2 3d bc 37 e6 3b 74 50 fc 3d
       0.06721078 0.08714736 0.007025687 0.12320033
0001b0 cd cd b0 3c 00 84 86 bd b9 91 84 3d 6d 36 b3 bc
       0.021582508 -0.06568146 0.06473107 -0.021876538
0001c0 47 66 bd 3d 8b 2b 99 bd cb 82 cf bb 63 2b e4 3c
       0.092480235 -0.07479008 -0.0063327304 0.02785272
0001d0 ab 8e 32 3d 06 c9 8c 3d e3 15 8a bd bd 63 85 bd
       0.04359309 0.0687428 -0.06742456 -0.06513164
0001e0 5c af a6 bd 8b 1b 4d 3c e6 2b c5 bc 07 9d 4d bc
       -0.08138916 0.012518774 -0.024068784 -0.012549645
0001f0 e7 5a fe bc a1 2e 24 3d eb 3f cd 3d 0b 47 01 3d
       -0.031049205 0.04008353 0.10021957 0.031561892
000200 ab 71 0c bd 3f ef 38 bd 9d 24 29 bd 46 69 d1 3d
       -0.03428809 -0.045150038 -0.041294683 0.102251574
000210 ef bd 27 bc ec f9 e0 3b e8 03 b5 3b 29 62 b2 bc
       -0.010238155 0.0068657305 0.0055241473 -0.021775322
000220 e7 60 86 3d 1d aa f5 3c f6 ae af bc 26 57 63 bd
       0.065614514 0.029988343 -0.021445733 -0.055503033
000230 bb 2a 83 bc dd ee 72 3b 13 87 8e bd c1 c3 98 bd
       -0.016011586 0.0037068643 -0.06959357 -0.07459212
000240 76 1b d1 bc d0 40 43 bc f6 13 f5 3c 02 7f 0e bd
       -0.02552579 -0.011917308 0.029916745 -0.034789093
000250 b6 19 e1 bc 0c d7 1b bd 21 90 98 bd 2c d5 9f 3d
       -0.02747808 -0.03804688 -0.074493654 0.07804331
000260 8c d2 be 3c 4c 10 a0 3d 46 b4 2a bc 50 95 4a bc
       0.023293756 0.078156084 -0.010418957 -0.0123647
000270 15 e3 75 bd 57 8d 35 bc a8 5d 86 3d 0e cf 9e bd
       -0.060031015 -0.011081061 0.06560832 -0.07754336
000280 5a c2 c9 bc c0 71 6f 3d fe a6 6f 3d 39 60 34 3d
       -0.024628807 0.05845809 0.058508866 0.044037078
000290 84 ec d7 bb a6 56 69 bc cb cd dc bc b4 57 06 bd
       -0.006589474 -0.01424185 -0.026953598 -0.032798484
0002a0 e6 b7 3b 3d 2a 3f ff bb 93 38 23 bd bb 6e bd 3c
       0.045829676 -0.007789512 -0.039848875 0.02312409
0002b0 b3 e9 45 bd 74 24 e8 39 42 31 83 3d 38 d8 d7 3c
       -0.048318576 0.00044277648 0.064058796 0.026348218
0002c0 2e 1f a8 3d 8c 8d 01 bd 11 d6 b0 3c 23 07 b9 bc
       0.08209072 -0.03162913 0.02158645 -0.02258641
0002d0 80 09 07 bd bb 13 c6 bc 15 3c 79 3d 60 71 34 3d
       -0.032968044 -0.02417933 0.060848314 0.044053435
0002e0 2a cb 04 bd 06 3f 43 bd 49 68 85 bd 4d 29 cf 3d
       -0.032420315 -0.047667526 -0.065140314 0.101152994
0002f0 39 df 6b 3c 85 64 34 3c f7 aa 0a bd 51 42 5a bd
       0.014396482 0.011010294 -0.03385445 -0.0532859
000300 62 8e 8a bd 76 c4 8e bc a7 6f bd 3d ae c4 21 3c
       -0.067654386 -0.017427664 0.092498116 0.009873552
000310 6f 13 e2 bc ad 8e 59 bb 92 80 a7 3d 46 ec b3 3d
       -0.027597157 -0.0033196614 0.0817882 0.087853
000320 75 21 b2 3d 63 a8 17 3d 14 08 55 3d 84 40 85 bb
       0.08697788 0.03702582 0.052009657 -0.0040665288
000330 8c 49 6d bd 29 d5 80 bd 78 85 8a 3d f1 94 25 b9
       -0.057931468 -0.06290657 0.067637384 -0.00015791111
000340 89 0a fa 3c aa 9d 30 ba d3 b7 87 bd 79 fb 06 bd
       0.030522602 -0.0006737361 -0.066268586 -0.032954667
000350 b0 82 d2 3c 9c 6f 3d bc dd f2 8f bd c1 8d 8c 3c
       0.025697082 -0.011562254 -0.07028744 0.017157437
000360 9f 58 ca 3b 58 91 c6 ba b8 31 7e 3d 4b a5 2d 3d
       0.0061751152 -0.0015149517 0.062059134 0.042393964
000370 6f 68 c9 bc 85 0c df 3d ef 0e ac 3d 70 99 28 3d
       -0.02458593 0.1089106 0.08401286 0.041161954
000380 f8 3b 6a bb 71 eb 85 bd a1 6b 8c 3d 7e 05 9e bc
       -0.003574131 -0.065390475 0.06856466 -0.019289728
000390 d9 66 68 bd 56 9c 48 3d 40 b4 16 3d 07 6f e9 3c
       -0.05673871 0.04897722 0.036792994 0.028495325
0003a0 70 15 6f bc 8e 42 ed bc b0 98 41 3c b3 83 86 3d
       -0.014592513 -0.0289624 0.011816189 0.065680884
0003b0 a4 12 97 3c 7b 08 01 bd ff 05 b0 3d ba 53 9a 3b
       0.018441506 -0.03150223 0.08594894 0.004709688
0003c0 36 63 81 3d ac 15 07 3d fa f8 be 3d fb d5 80 3d
       0.06317751 0.032979652 0.09324832 0.062908135
0003d0 db c7 17 bd 25 29 85 3d e5 86 56 3c e8 01 68 bd
       -0.03705583 0.06501988 0.013093685 -0.056642443
0003e0 e8 fd 8b bc cd df 9a bd e0 c3 21 bd 12 1f 10 bd
       -0.017088845 -0.07562218 -0.03949344 -0.03518588
0003f0 92 13 bc 3d 46 d5 3b 3a c5 b5 ee bc ba 4c 99 3d
       0.0918342 0.0007165264 -0.029139409 0.074853376

feature_extractor.3.bias f4 [16]
000000 c6 23 aa bc 8b 6b 47 bd 7f a1 e4 3b 1f 25 1b 3d
       -0.020769011 -0.048686545 0.0069772596 0.0378772
000010 8e dc 75 3d 22 10 d6 bc aa e9 2a 3b 42 55 26 bd
       0.06002479 -0.02613074 0.0026079216 -0.040608652
000020 af 58 83 bd 20 4f 52 bd e9 17 4c bd 1d 51 4d bd
       -0.064133994 -0.05134499 -0.04982749 -0.050126184
000030 9b 25 ec 3c 09 5a 73 bc c1 fb 87 3d 8d 57 99 3d
       0.028826525 -0.014853009 0.06639815 0.07487402

feature_extractor.7.weight f4 [120, 400]
000000 cd 1e 2c bd 5c 8f 40 3c 11 86 f9 3c 14 99 37 bd
       -0.04202156 0.01175293 0.030459436 -0.04482372
000010 af 54 86 bc bf 4a 0b 3d eb db 13 bd d9 de 3c 3d
       -0.016397802 0.03400683 -0.036098402 0.04611096
000020 1b d3 75 bb f0 6b 2d 3c 88 45 3e 3d 5d 72 1d bd
       -0.0037509862 0.010584816 0.04645303 -0.038439143
000030 a0 e9 35 3d ee d9 44 bd f2 9d 0a 3d c5 1b 10 ba
       0.044412255 -0.048059396 0.033842035 -0.0005497302
000040 cf e1 37 3d 04 da 18 bb 95 5a 48 bd ad 5f 86 3c
       0.044893082 -0.0023323307 -0.04891451 0.016403044
000050 cf 63 00 3d 17 48 13 bc 7f 02 4d bd 86 ec 86 ba
       0.031345185 -0.0089893555 -0.05005121 -0.0010293878
000060 48 b0 12 3c 43 f8 33 3c c2 43 9b 3c 4d dc 4c bc
       0.008953162 0.010984483 0.018953208 -0.012503696
000070 b3 27 12 bb 77 a3 48 bb 8c d7 b1 3c 12 12 8c 3c
       -0.0022301495 -0.003061501 0.021709226 0.01709846
000080 60 5c a1 3c 6a 9f ee 38 55 a4 20 3c d6 42 1e 3d
       0.019697368 0.000113784175 0.009804805 0.03863796
000090 c0 dd 40 3c 2d b7 3f bd 61 19 58 3c 32 68 6f 3d
       0.011771619 -0.04680555 0.013189645 0.058448978
0000a0 3b c1 f0 bb 34 06 0f 3d da d7 1b bd 3a eb ab bb
       -0.0073472536 0.034918025 -0.03804765 -0.005246547
0000b0 8b 54 0a 3d 9c 26 e7 bc 14 d9 b7 bb 27 33 1e 3b
       0.033772033 -0.028216653 -0.0056105945 0.0024139376
0000c0 b6 5e 46 bc 27 48 b8 bc 3c 7c 08 3d a4 b2 35 bc
       -0.012107542 -0.022495342 0.033321604 -0.0110899545
0000d0 b0 a4 8d bc c1 9e 0a 3d bd 1f 29 3c a8 17 b1 bc
       -0.017290443 0.033842806 0.010322508 -0.021617725
0000e0 71 96 00 3d 16 6d ee bc 87 e6 4f 3d 8e 1d 2e 3d
       0.031393472 -0.02910475 0.050756957 0.042508654
0000f0 2b 17 a4 3b ed 3a 7e 3c 3f 2d a1 bc 5f 53 0c bd
       0.0050076446 0.015516979 -0.019674895 -0.034259196
000100 ca 2c dd bc 1b 5a 98 3c aa cd c4 3c 25 20 94 bb
       -0.026998896 0.018597653 0.02402385 -0.0045204335
000110 5f 6d 78 bc 7c 6e 86 bc f0 44 ad bc a7 5a a7 bc
       -0.015162795 -0.016410105 -0.021151036 -0.020428969
000120 b9 01 05 3d 75 63 43 bd ce c2 fd 3c f1 b3 f6 3c
       0.032472346 -0.04770227 0.03097668 0.0301151
000130 05 08 84 bc d6 ac 2b bc ea a7 53 bc 48 ce 26 bd
       -0.016117105 -0.010478219 -0.012918452 -0.04072407
000140 5c 7b c8 3b 95 0e fa bc f7 7e 81 3c 68 95 ca bb
       0.006118221 -0.030524531 0.015807612 -0.0061823614
000150 b0 58 03 bd 9b e1 52 bd a2 65 1b 3d 7b 0e 31 3d
       -0.032067 -0.051484685 0.03793872 0.0432267
000160 f0 8d 30 3d 08 b9 7a 3c 68 d9 b1 3c 0d 9c ea 3c
       0.043104112 0.015302904 0.021710113 0.028638864
000170 75 10 2c 3d 86 c9 c1 39 88 97 a6 39 1a 34 c9 3c
       0.042007882 0.00036961975 0.00031774887 0.024560977
000180 5f 87 0a 3d 9f 81 60 bc 9e a7 d3 3c cf f3 34 3d
       0.033820506 -0.013702779 0.025836762 0.044177826
000190 d6 7b c5 bc 35 23 3d bd f9 33 0c bb 86 6f fc bc
       -0.024106901 -0.046176154 -0.0021393283 -0.030814897
0001a0 67 e8 45 3d 2f c8 49 bc 46 cf 9e bc e1 0a 04 3d
       0.04831734 -0.012315794 -0.019385945 0.032236937
0001b0 00 09 84 3c c0 71 8f 3c ad bc 49 3d 29 11 2c bd
       0.016117573 0.017510295 0.0492522 -0.042008553
0001c0 03 19 e1 3c 61 a8 d3 bc 1d ec ba 3c 69 80 b1 bc
       0.027477747 -0.025837125 0.022817666 -0.021667676
0001d0 55 77 49 3d 27 52 53 bc 40 ca 03 3c a8 e6 f9 bc
       0.04918607 -0.012898005 0.008043826 -0.030505493
0001e0 d2 b9 d4 3c b4 b5 4c bd dc d5 c5 3c b4 30 4b 3d
       0.025967512 -0.049977973 0.024149828 0.049606994
0001f0 dc 65 34 3d 13 c8 c8 3c 24 28 be bc 35 26 9f 3b
       0.044042453 0.024509465 -0.0232125 0.0048568496
000200 ef 81 3d 3c 35 6c 4e bd 99 16 b7 3c 6f 0d 32 bd
       0.011566623 -0.050396163 0.022349643 -0.043469843
000210 cf 51 b3 3c e8 e5 40 3d c0 ed 87 bc 8e d7 1b 3c
       0.021889595 0.047094256 -0.01659286 0.009511841
000220 0a 97 4d 3d 9e 7c 43 3d dd cf 42 3d 02 1b f0 bc
       0.05019287 0.047726266 0.047561515 -0.029309753
000230 17 95 14 3c f8 38 33 bd a2 22 e3 3b 04 8f 5a bd
       0.009068749 -0.0437555 0.006931619 -0.053359047
000240 b1 3d f1 3b f2 78 b4 3c 7c d1 2f bd 79 ca 34 bb
       0.0073620905 0.022030327 -0.04292439 -0.0027586503
000250 e3 90 a7 bc ba df 33 3d 39 6e 4f bc ad 03 b5 3c
       -0.02045483 0.043914534 -0.0126605565 0.02209648
000260 58 8d 13 bd 0a 40 ae 3b ce 5b 07 3d 50 a0 ee 39
       -0.036023468 0.0053176926 0.033046536 0.0004551434
000270 ac 86 a0 bc d8 0e c4 bc 46 06 e3 3c a4 4d 8b 3c
       -0.019595467 -0.02393286 0.027712952 0.017004795
000280 ec 7a 98 3b e0 cd 17 3d bd e7 89 bc a4 77 f4 bc
       0.0046533253 0.037061572 -0.016834134 -0.029842205
000290 0d 7a 2a 3b df 07 03 3d ac e9 5d bd 9b fe 02 bd
       0.002601269 0.03198993 -0.054177925 -0.031981092
0002a0 c3 f2 43 3c 9a cf 01 3d 82 d5 f3 3c 8b 10 80 3c
       0.011959734 0.031692125 0.029764894 0.015632888
0002b0 02 5d 40 bd 1d 93 b9 bc a3 0f db 3c a5 f3 1b 3c
       -0.0469637 -0.022653157 0.026740855 0.009518539
0002c0 f2 d9 de 3c 2f 5d 19 3d f6 31 eb 3c aa b5 a8 bc
       0.027203534 0.037442382 0.028710347 -0.020594437
0002d0 6a b9 ce bc bc c5 1a bc 00 fe ab ba 43 26 73 bb
       -0.025234897 -0.009446558 -0.0013121963 -0.0037101663
0002e0 4c 86 22 bc af d9 ee 3b 4e 0a 03 3d ab e2 01 bd
       -0.009919714 0.0072891335 0.03199225 -0.031710308
0002f0 eb 12 d2 3c f5 45 48 bd 58 ed 32 3b 6d b8 39 bd
       0.025643786 -0.04889484 0.0027302112 -0.045341898
000300 df a6 46 3d 08 66 2d bd 36 e0 da bc 32 82 ef 3c
       0.048498984 -0.042333633 -0.02671824 0.029236887
000310 94 de bf 3c 47 1d 1c 3d 94 17 67 3c 71 61 2b bd
       0.023421563 0.03811386 0.014104743 -0.041840974
000320 5e 6c 0f bd f1 0d 0c 3d 58 39 47 bd 00 29 38 3d
       -0.035015456 0.034192983 -0.04863867 0.044960976
000330 54 c0 0a bc 0f 6e 15 3c be 6a 0c bb 6f ed 4d bc
       -0.008468706 0.009120478 -0.0021425928 -0.012568816
000340 e3 e8 48 bc 2a 34 72 3c e5 ac 0f bc 85 c2 09 3c
       -0.012262556 0.014782945 -0.008769249 0.0084081935
000350 b2 57 2b 3d b3 5c 93 3b 92 82 20 bd d1 9e 1a bd
       0.04183168 0.0044971346 -0.03918702 -0.037749115
000360 c8 8b 02 3d 8d fb 8e 3c 63 c3 1c 3c 2a ff cb bc
       0.031871587 0.017453933 0.009568068 -0.024901945
000370 ec 23 27 bd 74 e5 30 3d 37 1a 40 bd 02 61 cb bc
       -0.040805742 0.043187574 -0.0469 -0.02482653
000380 be 6f a3 3c 1a 41 32 3d 65 fd 56 bc 84 e7 33 bd
       0.019950744 0.043519117 -0.013121937 -0.043921962
000390 d2 5d 52 3c a6 ee 42 3b 4f 39 09 bc 35 04 31 bd
       0.012839751 0.0029744296 -0.00837548 -0.043216903
0003a0 83 f7 1c 3d e0 3e b8 3b 37 cb a2 3c d8 96 df 3c
       0.038321983 0.0056227297 0.019872291 0.027293608
0003b0 46 c0 2c 3d 75 18 86 bc 00 47 07 3b c8 cd 05 bd
       0.042175554 -0.016369084 0.0020641685 -0.03266695
0003c0 42 60 30 bd 4c cb 97 bc f2 16 86 3c 57 80 eb bc
       -0.04306055 -0.018529557 0.016368363 -0.02874772
0003d0 0c cb 05 3d ee a3 55 3c 5c 4e 8f bc 62 e9 c1 3c
       0.032664344 0.013039572 -0.01749342 0.023670856
0003e0 06 f1 19 3d 70 36 a0 bc a2 c1 d1 3c ed a2 14 3d
       0.037583373 -0.019557208 0.025605027 0.03628819
0003f0 76 f6 44 3d 43 97 04 bd be 85 3b 3d f7 4d aa 3b
       0.048086606 -0.032370817 0.045781843 0.0051972824

feature_extractor.7.bias f4 [120]
000000 e8 b1 ab 3c b3 62 17 3d a7 42 9b 3c 99 23 ff 3c
       0.020958856 0.03695936 0.01895268 0.031144904
000010 f6 98 2c 3d db 4d 0a bd 61 c1 11 3d 0a 1b c8 3a
       0.042138062 -0.033765655 0.03558481 0.0015266847
000020 41 d2 08 bd 52 c2 8c 3b e3 fe b8 3c 1c 64 e7 bc
       -0.03340364 0.0042956257 0.022582477 -0.028245978
000030 00 cb 24 bd 37 59 4a bd 7a fb da bc 46 4f 2b bd
       -0.04023266 -0.04940149 -0.026731241 -0.041823648
000040 6b f7 f3 3c f3 d8 b4 bc 94 f5 2f bd bf 98 f7 bc
       0.029781064 -0.022076106 -0.04295881 -0.030224202
000050 87 cb 41 bc 43 a2 f4 3c d4 ce 13 3d 67 28 76 3c
       -0.01182831 0.029862529 0.03608592 0.015024281
000060 4c 22 24 3d 3e e5 20 bd 28 4f ac bc ec 5a 0c 3d
       0.04007177 -0.039281122 -0.021033838 0.034266397
000070 f4 67 98 bc 80 0c 6d 3c d7 40 46 bc 61 29 dd 3c
       -0.018604256 0.014468312 -0.01210042 0.02699727
000080 c6 23 4b bd 2c 28 a2 3c 74 42 e9 bc c9 00 f4 bc
       -0.049594663 0.019794546 -0.02847407 -0.02978553
000090 bb 8b 1e 3d 88 5f bd bc 90 c5 ed 3b ec ff 8a 3a
       0.038707476 -0.023116842 0.0072562173 0.0010604835
0000a0 f3 e5 10 bd 6b b4 e4 3c d2 89 09 bd 0a c7 92 bc
       -0.035375547 0.027918061 -0.0335787 -0.017917175
0000b0 dd 9a 41 bd a5 ec 40 bc bf 42 6c 3c b9 80 61 3c
       -0.04726683 -0.01177517 0.01442021 0.0137636
0000c0 5e 04 c4 3c 8b a1 88 bc 91 1c 96 3c 48 e0 48 bc
       0.023927864 -0.016678592 0.018324168 -0.012260504
0000d0 ba 00 30 3d a2 fb e0 bc 08 a3 b1 bb a1 0b 15 b9
       0.042969443 -0.027463738 -0.005421046 -0.0001421408
0000e0 bf 38 16 3d 74 30 83 bc 21 58 17 bd 4b 23 6a 3c
       0.03667521 -0.016014315 -0.03694928 0.014290641
0000f0 e4 68 2f 3d e8 5d 18 bd b5 d5 87 bc 08 4d 70 bc
       0.04282464 -0.03719893 -0.016581396 -0.014666803
000100 80 dd 09 3d ae 85 e1 3b 59 32 34 bd 9a 9d 24 3d
       0.033658504 0.006882391 -0.043993328 0.040189363
000110 5c 34 5d bc 80 68 40 bd 33 8a 42 3d 35 82 34 bc
       -0.013501253 -0.04697466 0.04749508 -0.011017372
000120 17 71 ac 3c e5 c6 0c 3b 1e 7f 10 3d f2 4e ab bc
       0.02105002 0.0021480855 0.03527748 -0.020911667
000130 be b1 8d bc 3d e9 cc bc b8 57 03 bd 3e a6 01 bd
       -0.017296668 -0.02501356 -0.032066077 -0.03165268
000140 55 9a ee 3c c2 ee 07 bd 18 8f e5 ba 11 eb c9 3b
       0.029126326 -0.03318668 -0.0017513959 0.0061620553
000150 06 12 4b 3d cc 64 91 bc bd 52 96 bc 21 dc a5 3c
       0.049577735 -0.017748259 -0.01835 0.020246567
000160 55 c5 42 3c ee a6 9d 3c b7 5a 2b 3d 28 00 22 bd
       0.011887868 0.019244637 0.04183456 -0.03955093
000170 28 8a 6a 3c e2 48 67 bb 41 da 38 bd 46 28 a2 bb
       0.014315166 -0.0035291244 -0.04513002 -0.0049486486
000180 2b d2 67 3c 33 46 ed 3c 66 c2 0b 3b ab 31 04 bd
       0.014149229 0.028964138 0.0021325587 -0.03227393
000190 66 fb 5c bc 1d 61 1d 3d d8 52 ba 3c 14 8c 14 bd
       -0.013487672 0.038422693 0.022744581 -0.0362664
0001a0 82 50 4e 3c 48 dc 23 bc 4d bc f9 3b 75 1d 03 3d
       0.012592437 -0.01000125 0.007621324 0.032010514
0001b0 1d a2 be bc 91 f2 37 bb 34 b1 20 3d 33 46 e5 bb
       -0.023270661 -0.0028068165 0.039231494 -0.006996894
0001c0 26 f1 48 3d b2 ee a7 ba 18 99 dc 3b 76 a1 0c bc
       0.049058102 -0.0012812226 0.0067321174 -0.008583417
0001d0 e9 b3 b0 3c c5 91 70 bc 71 4e 53 3d 9e f4 32 3d
       0.021570163 -0.014683192 0.05158848 0.043690316

classifier.0.weight f4 [84, 120]
000000 8d 46 94 3b a6 f3 45 bd b6 42 e6 3c 73 0d 4f bc
       0.004525012 -0.048328064 0.028107982 -0.012637484
000010 10 ff 9c bd 2f 14 4f 3c 47 5c 84 bd 2e 79 06 bd
       -0.07665837 0.0126390895 -0.06462913 -0.03283041
000020 66 d7 87 bd 40 6f 90 3d a6 df 1a 3d 50 2a 56 bd
       -0.06632881 0.07052469 0.037810944 -0.052286446
000030 fc 63 71 3d f0 ae 8b bd 24 1a 07 3c 84 60 93 bd
       0.058933243 -0.06820476 0.0082459785 -0.07196143
000040 5c a8 50 3d f0 42 47 bd 7d 4b 00 bd 79 22 ca 3c
       0.05094181 -0.04864782 -0.03132199 0.024674641
000050 df 96 b7 bd 75 13 58 3d 12 2c c4 3b a3 0a 74 bd
       -0.08964323 0.05275293 0.005986699 -0.059580456
000060 33 3b 3d bc 1a 94 64 bd 0a 73 b4 3c 86 a7 0e 3d
       -0.011549759 -0.055805303 0.022027511 0.03482773
000070 3e bc 99 bd 2e b3 7b 3d d0 33 01 bd 7f e8 a6 3d
       -0.075066075 0.061450176 -0.031543553 0.08149814
000080 c5 ab ad bb 6d 8a c5 3c 97 60 1f bd 71 29 b3 3a
       -0.0053000175 0.024113858 -0.038910475 0.0013668967
000090 b8 8b 2a bc c2 82 d8 bc a7 f3 4a bd c3 69 3a 3b
       -0.010409288 -0.026429538 -0.04954877 0.0028444387
0000a0 f7 ca a8 bd 24 c4 57 bd 13 f4 14 bd cd 84 1a 3b
       -0.082418375 -0.05267729 -0.03636558 0.002357769
0000b0 ec 17 6a bd 7b 79 35 bd 5e 11 00 3c 52 bc 63 3a
       -0.05715172 -0.044305306 0.007816641 0.00086874247
0000c0 9c 7e 17 3b 42 a5 46 bd 95 cd 91 3d f0 0e bb bc
       0.0023116237 -0.048497446 0.0711929 -0.022834271
0000d0 ec c1 90 bd 88 b8 4d 3d 0a a3 41 3c b1 96 79 bb
       -0.07068238 0.05022481 0.011818657 -0.0038084204
0000e0 55 e4 a8 bd 7e eb 6a bd 89 84 5f 3d 81 a3 d7 bc
       -0.08246676 -0.05735349 0.054569755 -0.026323082
0000f0 d9 da 81 bd 44 bc 5c 3d 70 28 98 bd 45 db 59 3d
       -0.0634057 0.05389048 -0.07429588 0.053187627
000100 90 09 fe bc ab 50 1d 3d bd 9c 4b 3c 29 30 b9 3d
       -0.03101042 0.03840701 0.012427506 0.09042389
000110 b7 6d 15 3d 69 f3 c9 bb 25 00 b0 3d 77 18 96 bd
       0.036481585 -0.00616305 0.085937776 -0.07328885
000120 09 aa 34 3c 41 3e f4 3c d7 bd 8c bd ea 11 4a bd
       0.011026868 0.029814841 -0.068721466 -0.04933349
000130 25 01 2a bd c4 e8 40 bd f1 f5 38 bc e2 94 67 bd
       -0.041504998 -0.047096983 -0.011289106 -0.05653847
000140 42 57 ad 3d ec c2 15 bb c5 97 b9 3d 91 64 bb 3c
       0.08463909 -0.0022851778 0.09062151 0.022875102
000150 c7 e6 60 bc 2f 9a 02 3c 66 34 53 bd 49 b5 68 bd
       -0.013726897 0.007971331 -0.051563643 -0.056813512
000160 1b f4 12 3d 4a cd 41 bc 29 1b 05 3c d5 f2 2d bc
       0.03587733 -0.01182873 0.008124151 -0.010616978
000170 17 88 93 3d 1f 9e ba bd 10 26 6a bd 8e c8 46 bd
       0.072036915 -0.091121905 -0.057165205 -0.048531108
000180 cb ab f1 bc 16 da 93 3d 54 a8 7c 3d 3e 31 86 bd
       -0.029500863 0.07219331 0.061683968 -0.06552361
000190 48 16 dc bc 52 c3 a0 3d 17 d7 90 bd 2c ef 1a 3c
       -0.026866093 0.078497544 -0.07072275 0.009456437
0001a0 d6 eb 0d 3d 95 9b 2f 3d a0 45 89 3d 30 21 74 3d
       0.03464874 0.042872984 0.06702733 0.059601963
0001b0 9b 6b b1 3c c0 e9 b0 bd ad 66 26 bd ca 74 81 bc
       0.021657756 -0.08638334 -0.040625263 -0.01580276
0001c0 b4 68 88 bd 22 d8 3e bd 23 fd 9d 3c 09 47 11 bd
       -0.066605955 -0.04659284 0.019285744 -0.035468135
0001d0 43 ca 77 3c 70 db 03 3d cb bd 46 3d ad f9 90 bd
       0.015123907 0.032191694 0.048520844 -0.07078872
0001e0 5a bc a4 3d 13 1d 15 3d 02 fe fe 3b 1c fb df bc
       0.08043738 0.03640468 0.007781745 -0.027341418
0001f0 84 38 e3 bc 4f c4 33 3b a9 e1 3f bc 3d 46 b0 bd
       -0.02773691 0.0027430241 -0.011711516 -0.08607147
000200 85 d2 68 3c 60 b7 76 bd 9f 94 a0 bd 31 dd 5c 3d
       0.014210348 -0.060233474 -0.07840847 0.053921882
000210 77 b5 75 bc 5c 78 c4 bc 1b 93 4c bc ee 61 20 bd
       -0.014996878 -0.023983173 -0.012486245 -0.039155893
000220 28 e2 42 3d aa 29 49 bb b0 2b 27 bd 83 d5 b1 3d
       0.04757896 -0.0030695 -0.040813148 0.08683302
000230 3c 52 88 3d f1 c4 8d 3d d5 1c ba bd 2e db 8c 3c
       0.0665631 0.06922329 -0.090875305 0.017194357
000240 7b 50 ae 3b 3f 17 a2 3d e1 12 ce 3c 3d c5 9a 3c
       0.0053196526 0.0791459 0.025155487 0.018892879
000250 b1 70 6e 3d e8 22 22 3d d4 f7 a6 bd 94 90 b7 bd
       0.05821294 0.03958407 -0.08152738 -0.08963123
000260 ac 57 4b bd 1e a3 a9 bc 25 5c b0 3c dd df 68 3d
       -0.049644157 -0.020707663 0.021528313 0.056854118
000270 7d 9e a6 bd 69 1a 5d bc 0b bd 92 bd 98 45 a1 3d
       -0.08135698 -0.013495066 -0.07164963 0.07874602
000280 83 a3 61 3d 5a 28 57 3d d5 ca 17 bc 47 1c 6d bd
       0.055087578 0.052528717 -0.0092646675 -0.057888296
000290 46 bb 3b bd 41 ec 83 ba 89 e4 93 39 f4 7f c4 ba
       -0.045832895 -0.0010064916 0.00028208297 -0.0014991746
0002a0 f3 38 a3 3d 02 5f 44 bd 4e b6 8b 3d 34 be 25 3d
       0.079698466 -0.04794217 0.06821881 0.040464595
0002b0 41 1d 92 bd 15 76 27 bd 4b 58 63 bd 3f be 13 bb
       -0.07134486 -0.040884096 -0.055504125 -0.0022543815
0002c0 45 8d 46 3d 5f ec 55 3d 76 54 9b bc 04 5e a1 3d
       0.04847457 0.052227374 -0.018961173 0.0787926
0002d0 2e 45 31 3d cb ad 7a 3c 27 8b 97 bd b2 54 9e bd
       0.043278866 0.015300225 -0.07399588 -0.07730998
0002e0 d3 bb 67 3d 0d aa 47 3d 77 ea 33 bd 51 58 8c bd
       0.056575608 0.048746157 -0.043924775 -0.068527825
0002f0 08 78 3f 3b 42 d7 aa bd 8e c8 7b 3d a1 c4 44 3d
       0.0029215831 -0.083418384 0.06147056 0.048039082
000300 5c b8 ce 3c a6 43 85 bd 2e ce 76 bc 93 a6 3b bd
       0.025234394 -0.065070435 -0.0150638055 -0.045813154
000310 e1 41 32 3d c1 21 b2 3d 74 ed 6c 3b 4c 85 c0 bc
       0.04351986 0.08697844 0.0036152275 -0.02350106
000320 78 d1 80 3d 2e be ad bc 05 06 33 bd 7c 1b 9d bd
       0.06289953 -0.021208849 -0.043706913 -0.07671258
000330 16 5c 42 3c c1 9c 93 3d df 6a 6a 3d de ae 07 3d
       0.011862775 0.07207633 0.057230826 0.03312575
000340 2b 07 81 3d b3 61 95 bd ef c7 b3 3d b6 02 f0 bc
       0.06300195 -0.07294025 0.08778369 -0.029298168
000350 00 ca b4 bd 14 df 27 3d 27 cb af 3c a9 bf af bc
       -0.08827591 0.04098423 0.021459175 -0.021453695
000360 d0 54 b1 bd 55 42 81 3a ec e6 38 bd 62 5c 69 bd
       -0.08658755 0.0009861687 -0.0451421 -0.05697287
000370 77 8b a7 3d 23 72 2f 3d 84 29 a3 bd 2c f6 20 bd
       0.08180898 0.04283346 -0.07966903 -0.039297268
000380 63 88 3b bd b1 95 a8 bd 85 b3 92 bd ef df b9 3d
       -0.045784365 -0.08231676 -0.07163147 0.09075915
000390 ba fc 81 3b ee 6c 96 3d e6 62 7e 3c 24 63 b4 3d
       0.003966895 0.073449954 0.015526509 0.08807972
0003a0 2e 89 62 bd a4 68 c0 3c 30 80 39 bd 06 ea 04 3d
       -0.055306606 0.023487397 -0.045288265 0.032449745
0003b0 f8 63 90 3d 37 b1 8c 3d 32 cb 7a bd 51 37 6a bb
       0.070503175 0.068697385 -0.06122894 -0.0035738538
0003c0 09 81 39 3c c5 01 9c 3c f2 fe 12 bd 82 dd a8 3c
       0.011322268 0.019043813 -0.035887666 0.020613436
0003d0 f6 e9 92 bd 29 2e ea bc 53 6b e1 bc 54 93 d1 bc
       -0.07173531 -0.028586464 -0.027516996 -0.025582947
0003e0 1e a5 67 bd 57 0e 85 3d e4 c7 47 bc 1c 82 31 3d
       -0.056553952 0.06496876 -0.012193654 0.043336973
0003f0 61 78 2d bb 78 72 a5 3b 94 11 ab 3d 46 4b 8c 3d
       -0.0026469456 0.005049046 0.08352962 0.06850295

classifier.0.bias f4 [84]
000000 f4 9a 39 bc 9a 63 b1 bd 3f 1c 3c 3d 66 92 9e 3d
       -0.011328448 -0.086615756 0.045925375 0.07742767
000010 44 3f a3 3c 26 35 1a 3d 92 0f a0 3d 77 35 5a 3d
       0.019927628 0.037648343 0.0781547 0.053273644
000020 a7 14 2f bd 98 16 4e 3d 56 e4 a0 bd 49 4e b6 3d
       -0.042744305 0.050314516 -0.078560516 0.089016505
000030 00 5e 73 3d 7a 22 44 bd 38 e0 bd bc a4 9b 6f bd
       0.059415817 -0.047884442 -0.023178205 -0.05849804
000040 41 2b 2a bd 7d 09 5c bd f3 9a b2 bd 6e 34 80 bc
       -0.041545156 -0.053719986 -0.087209605 -0.01565
000050 c9 5c 1f 3d 91 75 66 3d 0c 11 eb bc 6f 98 8d bd
       0.038906846 0.056264464 -0.028694652 -0.0691384
000060 6d 23 57 3d b2 77 cf 3a c7 b7 68 ba dc 03 3d 3d
       0.05252402 0.0015828519 -0.00088774826 0.04614626
000070 85 65 c9 bc ff 16 27 3d a8 4b fa 3c 36 02 47 bc
       -0.024584541 0.040793415 0.030553654 -0.012146523
000080 8e 59 5d bb cc 9e cd bc c0 ab 24 bd 16 1d 81 bb
       -0.0033775303 -0.025100134 -0.040202856 -0.003940235
000090 30 5d 9c bd 8d 9d 90 bd c2 64 ef b8 77 69 b1 bd
       -0.076349616 -0.070613004 -0.00011415176 -0.08662694
0000a0 72 9a 39 bc af 4f a5 bd 60 35 e6 3c b1 ac 36 3c
       -0.011328327 -0.08071839 0.028101623 0.011149571
0000b0 ca f6 37 bd 29 1d 63 bb f5 77 1a 3d 0f e1 99 bd
       -0.04491309 -0.0034654832 0.037712056 -0.0751363
0000c0 7b a0 9a bd e6 26 a0 3c 6c 77 dc 3c 1a d8 3a 3d
       -0.075501405 0.019549798 0.026912414 0.045616247
0000d0 9b e7 2c 3c e1 ef b4 bd d5 ab 5c bd b4 53 40 bb
       0.010553266 -0.08834816 -0.05387481 -0.0029346766
0000e0 33 12 3a bd 39 e0 0e bd 09 07 b2 3c c2 4d 56 bd
       -0.045427512 -0.034881804 0.02173187 -0.05232025
0000f0 63 01 49 3c d3 21 c8 3d 89 f5 af 3d f6 64 51 bc
       0.012268397 0.097720765 0.08591754 -0.012780419
000100 1c 51 6d 3d d0 88 9a bd 75 a5 3a 3d 20 01 35 3c
       0.05793868 -0.07545626 0.04556795 0.0110476315
000110 72 c7 a4 3d 64 f2 80 3d 70 30 af bd 58 0e a4 3d
       0.08045854 0.06296232 -0.085541606 0.08010548
000120 28 f6 89 3d b8 b7 99 3d 65 d8 42 3d 83 e1 38 bd
       0.06736404 0.07505745 0.04756965 -0.04513694
000130 9a 4d 9e bb 69 04 81 bb e6 62 20 3d b5 62 3c 3d
       -0.004831028 -0.0039372933 0.039156817 0.04599257
000140 96 5d 1a bd 06 06 a6 bc d7 4d 2c bd 76 5f 82 39
       -0.037686907 -0.020266544 -0.04206642 0.00024866656

classifier.2.weight f4 [10, 84]
000000 94 13 c1 bd 8e 8b b0 bd 97 c8 51 3d c3 e9 ca bc
       -0.09427562 -0.08620368 0.051216688 -0.02476967
000010 4a 70 ed 3c dd 4c 3b bd e1 0f 8a 3a 7c 12 3f 3d
       0.028984208 -0.0457276 0.0010533297 0.046648487
000020 87 61 a1 bd b6 dc d2 3d 16 a0 93 bd d9 15 ba bc
       -0.0787993 0.102960035 -0.07208268 -0.022715496
000030 e5 de 5e 3d 66 c6 d7 bd 8a 60 7f 3d 09 3d 8c 3d
       0.054411788 -0.105358884 0.062347926 0.06847579
000040 51 6c 0c be 21 a3 97 bc c3 59 a1 bd e5 34 04 3e
       -0.13713194 -0.018510403 -0.07878449 0.12910803
000050 8c 53 c4 bd 02 bd 09 be 20 e1 a6 bd 07 7f a0 3d
       -0.09586248 -0.13451007 -0.08148408 0.078367285
000060 27 09 a8 3c a8 77 d4 bd 50 df bc bc 37 9c 9c bd
       0.020512177 -0.10374385 -0.023055702 -0.07646983
000070 53 21 0a 3e d6 69 c6 bd e1 be 96 3c 91 22 9e 3d
       0.13489275 -0.09688155 0.018401565 0.07721437
000080 eb 2e 03 be b1 f8 b8 3c 33 ed 93 ba 69 97 f5 3c
       -0.12810867 0.022579523 -0.0011285901 0.029979425
000090 a6 2b 52 bd d0 8b bd bd 5b ed a4 3b 3e db e3 bc
       -0.051311158 -0.09255183 0.005033178 -0.027814504
0000a0 ad 01 ba bc 0a ca 06 3e ad 90 99 bd a6 be 79 bd
       -0.022705877 0.1316301 -0.07498298 -0.060972832
0000b0 ac 7c 4d 3d 9c df a6 bd 11 8e ac 3d 9c 8f 1d 3e
       0.050167724 -0.08148119 0.084255345 0.15386814
0000c0 19 8b c1 3d 2e 9a a3 3d a3 64 22 be fe 2a 34 3d
       0.09450359 0.07988392 -0.15858702 0.043986313
0000d0 29 84 ff bd 8f 38 41 bd 17 87 a7 bd b2 29 b0 bd
       -0.124763794 -0.04717308 -0.08180063 -0.08601703
0000e0 84 33 ab 3d 85 43 99 3d 65 4e f1 3c d5 70 2c 3d
       0.08359435 0.074835815 0.029456327 0.042099793
0000f0 55 af 1b 3e c6 8e 2f 3d 82 08 35 bd 51 6f 96 3d
       0.15203603 0.04286077 -0.044197567 0.07345451
000100 2c 66 1c bd 37 d6 36 bc d3 90 59 3d ec 5d 53 3c
       -0.038183376 -0.011159471 0.05311663 0.012900811
000110 1f f2 ae 3d b7 62 80 bc e5 f7 60 bd 04 25 1b 3d
       0.08542275 -0.01567207 -0.05492391 0.037877098
000120 ba fe d0 3d 7a 63 09 be c3 8f 02 be 5e 72 03 3d
       0.10204835 -0.13416854 -0.12750153 0.03209149
000130 36 6b 81 3d 84 2d 48 3c 81 09 dc bd a9 06 f0 bd
       0.06319277 0.012217883 -0.10744 -0.1172002
000140 01 7c c0 ba 7e a8 40 3d 4b 81 13 be 6b dd ba 3d
       -0.0014685394 0.047035687 -0.1440479 0.091242634
000150 56 15 d0 bd ea 53 0c 3d 59 c3 1b bd 6c af be bd
       -0.101603195 0.034259714 -0.038028095 -0.09310803
000160 9a 35 be 3c ef 74 09 bc 66 50 91 3d 13 87 05 3e
       0.023218919 -0.008389696 0.07095413 0.13039808
000170 46 6d 17 3e 70 0d ac 3d f3 a2 fb bd ac d3 f6 3d
       0.14787778 0.084010005 -0.122869395 0.12052092
000180 0e 18 21 3e d6 9f 9c bd ce 7c f3 3d 61 2f 33 be
       0.15731832 -0.07647674 0.11889039 -0.17498542
000190 05 38 f1 bd 3a 12 bb 3d bd 49 e2 3d 75 d0 dc 3b
       -0.11778263 0.09134336 0.11049221 0.006738717
0001a0 52 09 c8 bd 3f 3f 42 3c 87 2f 84 3d b5 77 c2 3c
       -0.09767403 0.011855899 0.064543776 0.023738721
0001b0 02 8c 99 3d 20 82 5e bd 68 f4 af 3d b4 f5 4a bd
       0.074974075 -0.054323316 0.08591539 -0.049550727
0001c0 7a 1a 4f 3d 5b 5a 50 3d 19 16 df bd bf 86 9e 3d
       0.05056236 0.05086742 -0.10892887 0.077405445
0001d0 6b 0d a6 3d e0 47 cf bd 2f 10 a3 bc 4e ee b9 3d
       0.08108028 -0.10121131 -0.019905178 0.09078656
0001e0 ed 40 9e 3d f7 bd aa 3d 57 b2 4a 3d d0 26 1b bd
       0.07727227 0.08337014 0.049486484 -0.03787881
0001f0 44 e2 56 3d bb 1e c3 bd 22 78 29 3c 47 74 34 bd
       0.052461877 -0.09527346 0.010343583 -0.044056203
000200 64 e6 53 bd 22 00 18 3e 6c 0d ac bd 0a 0c 06 3e
       -0.05173339 0.148438 -0.084009975 0.1309053
000210 ee 7a cd 3d 85 ca 6e 3d a5 67 c3 3d 93 82 fa bd
       0.100332126 0.058298606 0.09541253 -0.12231936
000220 c9 84 99 3d 6a 8c 06 bc f2 8e 96 bd 1e 05 d3 3b
       0.0749603 -0.008212188 -0.073514834 0.006439819
000230 e3 7b b7 3c 2a 28 a9 bd 3a 19 7b bd 67 ac b0 3d
       0.022397941 -0.08259614 -0.061303355 0.08626633
000240 b2 ce a5 bd be 87 e0 3d 53 2c a9 bd 1e 60 c4 bd
       -0.080960646 0.10963391 -0.08260407 -0.095886454
000250 bb e1 ca 3d 86 23 c2 3d 7b 32 02 3e 84 4f d5 3d
       0.09906336 0.09479432 0.1271457 0.10415557
000260 b0 9e e4 3d c9 e1 67 3d ee 70 6e 3b cc 0b a9 3c
       0.1116308 0.05661181 0.003638323 0.020635508
000270 fa 89 1e 3d b1 05 8e 3d 91 9e 4d bd 3a ca 4b 3d
       0.038705803 0.06934679 -0.05020005 0.049753405
000280 4c 41 9f bd 27 d3 b1 bd b3 fd fc 3c a3 36 cc 3d
       -0.07776126 -0.08682852 0.030882692 0.099713586
000290 8d b1 85 3c 41 e7 d2 3d e4 a2 9c bd 04 fb f3 bd
       0.016320014 0.102980144 -0.076482564 -0.11913112
0002a0 26 dd c0 bc 80 35 ca bd e0 c3 c6 3d 57 16 0a be
       -0.023542952 -0.098734856 0.09705329 -0.13485084
0002b0 b0 12 d0 3d 86 18 a9 3d 2e aa c8 3d 77 37 be 3d
       0.10159814 0.082566306 0.09798084 0.09287923
0002c0 29 cf c1 3c f3 75 04 ba d4 34 d5 3d 4c b9 7f bd
       0.023658352 -0.0005052976 0.10410467 -0.062432572
0002d0 46 88 41 bd 3a 8b 90 3d bb b4 c1 bd 1f 7b ac 3c
       -0.0472491 0.07057805 -0.094583 0.021054802
0002e0 ef 26 d6 3d be 74 14 3d 63 80 83 bd 0e a9 9c bc
       0.10456645 0.036244147 -0.06420972 -0.01912358
0002f0 df 0a e7 bd f9 10 8a 3d 69 d3 f0 3d 55 ea d3 3d
       -0.1128137 0.067415185 0.11759073 0.1034743
000300 27 b3 8e 3b 7d 3c 8d 3d 40 75 c4 3d c8 6a 13 3e
       0.0043548527 0.06896303 0.09592676 0.14396203
000310 cb f0 97 3c b3 c1 ac 3d 01 35 36 bd e1 2d 73 3c
       0.018547436 0.08435383 -0.044484142 0.014842481
000320 72 6f 00 be eb 7b 8f bd 38 1f c9 bd 7d 0b 65 bd
       -0.12542513 -0.07006057 -0.09820408 -0.05591916
000330 4c 60 a8 bc 70 2f 8f bd fe 4e 09 be d4 69 93 3d
       -0.02055373 -0.0699147 -0.1340904 0.071979195
000340 62 5a 5d bc be b6 12 3d 9b 45 f2 3d 11 50 d9 3d
       -0.0135103185 0.035818808 0.118296824 0.106109746
000350 f4 72 d6 bd ce 94 ad bc fe bc 0f bd fa 7e 35 3d
       -0.10471144 -0.02118912 -0.035092346 0.044310547
000360 07 35 ad 3c 2c c8 4f 3b ee f2 9c 3c 26 d6 06 3e
       0.02114345 0.0031705005 0.019158807 0.13167629
000370 d1 9e 17 3d 56 5e 7a 3d 4c f7 0c be b0 52 91 3c
       0.037016694 0.061125122 -0.13766211 0.017739624
000380 04 5c d7 3c d8 53 95 3d 9b fb 87 bd 37 e0 11 bd
       0.026288994 0.072913826 -0.06639787 -0.03561422
000390 20 93 80 3d 23 33 b2 3c 65 b5 fe bd 90 87 0a be
       0.06278062 0.0217529 -0.12436942 -0.13528275
0003a0 b7 8b 4d bd 1e 9b 5b bd 80 a8 bc bd 1a 27 bf bd
       -0.05018207 -0.05361473 -0.09211826 -0.0933363
0003b0 d2 6c 21 3e 11 4f fe bc 57 7f 43 3d 11 ef b7 3d
       0.15764168 -0.031043561 0.047728863 0.08981145
0003c0 1b b6 fe 3b 60 22 c4 bc 95 ba d7 3d 26 fd b3 3d
       0.0077731735 -0.023942173 0.105336346 0.087885186
0003d0 c2 13 9a 3c 6d 75 ea bc d0 1d fc 3c 55 17 02 bd
       0.01880825 -0.028620446 0.030775934 -0.031760532
0003e0 7d 83 ca bd 19 e7 00 bd 06 b5 d5 3d e5 29 e1 bd
       -0.09888361 -0.031470392 0.10434918 -0.10994319
0003f0 b0 a8 a2 3d 11 bb eb ba 3f f0 60 3a 64 12 d6 bd
       0.07942331 -0.0017984827 0.00085807213 -0.104527265

classifier.2.bias f4 [10]
000000 8d ab 4d bc f9 12 00 bc eb 37 d9 bc e0 ff a8 3c
       -0.012553108 -0.007817023 -0.026515922 0.020629823
000010 c0 a9 ab bc 34 ab 2b 3d 35 3a 60 3d 4d f4 f9 bc
       -0.020954967 0.04191132 0.05474301 -0.030512
000020 44 e4 85 bd a2 05 5b 3d
       -0.06537679 0.05347217
