checkpoints/noise_rate_0.2/models/tsf/epoch89.pth (torch, 250639 bytes, 10 tensors)

feature_extractor.0.weight f4 [6, 1, 5, 5]
000000 60 31 0d 3e 45 04 77 bd 12 b5 00 bd df c6 a3 3d
       0.13788366 -0.060306806 -0.031422682 0.07996916
000010 30 85 58 be 07 dc 36 3e 49 ff c2 3c 88 db 23 3e
       -0.21144557 0.17857371 0.02380337 0.16001713
000020 1c 9f 82 3d bb 0b ec bb ab b7 cf 3d 08 0a a2 3d
       0.06378004 -0.007203547 0.10142454 0.079120696
000030 73 8b 1c 3e 7b 5b df bb 02 c6 2a 3d 3a a7 c6 bc
       0.1528757 -0.0068163252 0.04169274 -0.024249662
000040 81 bc 3b 3d 62 05 27 3d 87 bf 6e 3e 5b a4 04 3e
       0.04583407 0.040776618 0.2331525 0.12953322
000050 24 46 ee bd c5 dd 1c be 55 42 39 bd 3f 8e 8d bd
       -0.11634472 -0.15318973 -0.045229275 -0.06911897
000060 51 6f bf bc 4c cb c0 3d 38 54 72 3e 6f 4b 38 3e
       -0.02336851 0.09413776 0.2366494 0.17997526
000070 bb 8d 57 be f8 f2 7f 3d 70 4f 22 3e 80 76 a7 3e
       -0.2105016 0.062487572 0.15850616 0.32707596
000080 53 4e 49 3e b6 9a 64 be bc 74 85 be b3 b4 8e 3c
       0.19658785 -0.22324643 -0.26065624 0.017420148
000090 b9 1a a3 3e af dd 35 3d 62 fa 97 3d e4 94 fb bd
       0.31856325 0.044400867 0.074208036 -0.12284258
0000a0 a0 14 92 3e bd 35 0d 3d 1d 76 7e 3e ab 96 56 3d
       0.2853136 0.034475077 0.24849744 0.052389782
0000b0 e0 ca 92 bd 20 00 20 3e 92 5d b4 bc c1 cf 28 3e
       -0.071676016 0.15625048 -0.022017274 0.16485502
0000c0 0d 10 25 3d b1 bf 93 3d 34 29 79 be fb c0 13 be
       0.04029851 0.072142966 -0.24332124 -0.14429085
0000d0 72 b7 8d 3d 22 3e 2c bd bc 24 77 3e c9 4f 19 3e
       0.06919755 -0.042051442 0.24135107 0.14971842
0000e0 f2 dc 70 bb 1b 00 c1 bd 18 d0 4e 3e 4e 6a 15 3e
       -0.0036752787 -0.09423848 0.20196569 0.14591333
0000f0 0b c1 aa bd 4f 87 47 3e c0 4d 59 3e 15 2e 8b 3e
       -0.08337601 0.1948521 0.21221066 0.27183595
000100 47 88 58 bd 6d 64 32 3d ca 4a 9b 3d 19 b9 d1 3d
       -0.05286434 0.043552805 0.07582624 0.10240383
000110 fb 41 da bd c0 a1 05 be 9b e2 33 3e 2c 2a 68 3c
       -0.10657116 -0.13049984 0.17566912 0.014170211
000120 b1 ea 11 3e 85 4e f1 3c 4a 5a 7c 3d a9 bd 0f 3d
       0.14249684 0.029456386 0.061609544 0.035092983
000130 7a 12 a4 3d a2 a7 de 3d be 8f 38 be 78 32 dd 3d
       0.080113366 0.10871817 -0.18023583 0.10800642
000140 d0 91 1b be 02 43 18 be 6e 3f e7 3c d2 72 0f bb
       -0.15192342 -0.14869311 0.028228488 -0.0021888507
000150 be 7d 2e 3e f9 c6 fc bd be 83 2b be 04 6e 3c 3e
       0.17040154 -0.123426385 -0.16749474 0.18401343
000160 c0 d0 02 3d 7a 4c 3c 3e 3f 3e 83 3d 25 58 02 be
       0.03193736 0.18388548 0.06408357 -0.12728937
000170 6b 37 b7 3d d6 8a db 3d bc 80 b2 bd f9 d2 b9 bd
       0.08946117 0.1071984 -0.087159604 -0.09073443
000180 ff 75 c1 3d 8a 8f 99 3d dd 8e 51 bd e5 4c 38 bd
       0.09446334 0.07498081 -0.051161636 -0.044995207
000190 5f 9f 76 3e d1 91 bd 3d 04 45 7a 3e b9 cf 2a 3e
       0.24084233 0.09256328 0.2444039 0.16680802
0001a0 dd 2d fb bd 6c 02 89 bd d4 97 d6 3e 8b 09 78 3e
       -0.12264607 -0.06689915 0.4191271 0.2422239
0001b0 a8 ab 8b 3e 05 89 c9 3d 4e 7c 87 3e 97 f5 ec 3e
       0.272794 0.098405875 0.26462024 0.4628112
0001c0 b7 42 e7 3e 7c 65 94 3b 7f 39 c8 3d f1 25 b7 3e
       0.45168087 0.0045286994 0.097765915 0.35771134
0001d0 76 20 ce 3e 4f 27 a5 3e e7 28 07 bd 8a e8 78 bd
       0.4025914 0.32256553 -0.032997992 -0.06076864
0001e0 05 91 94 3a e7 0d 19 3e fd d9 98 3e d9 a6 10 bd
       0.0011334723 0.1494671 0.29853812 -0.03531537
0001f0 e5 d4 50 3e 79 9a e8 bd 06 67 25 be af da d0 3c
       0.20393713 -0.11357588 -0.16152582 0.025494901
000200 70 15 71 3e 88 c8 97 3e 6c 67 a1 bd 48 d3 1b 3e
       0.23543334 0.2964518 -0.07881054 0.15217316
000210 0c c2 b8 3e d9 ae bb 3e 61 9e 98 3e f0 2d 73 3e
       0.36085546 0.36656836 0.29808334 0.23747993
000220 72 80 8d 3e bf cd 87 3e d6 96 c6 3d 5a 95 80 bb
       0.27637058 0.2652416 0.096967384 -0.003924054
000230 b6 96 b7 bc 2f 30 9c 3d e1 d4 d6 3c 55 d1 81 3e
       -0.022410732 0.07626378 0.026224555 0.2535502
000240 8f b2 52 3e 04 8f dd bc ae 52 dd 3d 6c c5 0a 3e
       0.20575927 -0.027045734 0.108067855 0.13551873
000250 52 62 69 3e 8a 97 6f 3e
       0.22791412 0.23397651

feature_extractor.0.bias f4 [6]
000000 f4 53 23 bd 95 c4 74 3e 75 f2 39 3c c3 a7 86 3c
       -0.039874986 0.23903115 0.01134931 0.016437417
000010 ec 3b 89 bd f3 ef 5a bb
       -0.06700882 -0.003340718

feature_extractor.3.weight f4 [16, 6, 5, 5]
000000 76 c2 22 bd 2d 49 00 bd c6 2f 6d 3d 61 2f d0 bc
       -0.039736234 -0.031319786 0.05790689 -0.025413217
000010 5e ea 68 bd 15 aa 37 3d 46 f1 2f 3d a9 f7 89 3d
       -0.056864135 0.044839937 0.042954706 0.067366906
000020 f8 99 08 bd 2d 92 ca 3c 1c 39 f0 bc fc 9c 34 bc
       -0.03334996 0.024727905 -0.029324107 -0.011023756
000030 43 b9 86 bd 78 c8 2d bd 4b 6d f7 bc 86 84 0f 3d
       -0.065783046 -0.04242751 -0.030203482 0.035038494
000040 ca 31 a2 3c a0 81 8a 3c 58 f0 92 3d c2 bc 95 3d
       0.019799132 0.016907513 0.07174748 0.07311393
000050 c4 22 62 3d 27 74 c8 3b d8 e1 77 bd 45 83 67 3d
       0.055208936 0.006117362 -0.060518116 0.056521673
000060 bf 64 9a bc 4e a1 5f bc 5d 03 51 bd c0 b3 87 3c
       -0.018846868 -0.013649298 -0.051028598 0.016565204
000070 db 7a 24 bd 68 23 8a 3d b7 7f b1 bd 17 cb 11 bd
       -0.040156227 0.067450345 -0.08666938 -0.035594072
000080 63 8f 0f 3d 7d a4 33 bd 5c d4 77 3c 17 0f 26 bd
       0.035048854 -0.04385804 0.015126314 -0.040541735
000090 dc 44 44 bc 25 14 11 3d cd 9b 3e 3d 99 22 a2 bd
       -0.011979308 0.035419602 0.046535302 -0.07916755
0000a0 86 22 12 3d 0c b8 b0 3d 7a 83 cc 3d 31 f0 9f bd
       0.035677455 0.08628854 0.09986015 -0.07809485
0000b0 01 29 f0 ba 19 3e 93 bd 2e 0c c0 3d 24 6a 26 bc
       -0.0018322767 -0.071895786 0.09377323 -0.010157142
0000c0 0c c7 cb 3c 8b 8c e9 bb 50 f7 1d bc 7c b9 c4 3b
       0.024875186 -0.0071273497 -0.009641483 0.006003557
0000d0 99 26 7f 3c f2 84 0a 3d 00 ca 19 3c 69 61 0b 3d
       0.015573167 0.033818193 0.009386539 0.034028444
0000e0 62 30 64 bd 00 f2 78 3d 56 fd 86 3d 8e 69 92 3d
       -0.055710204 0.060777664 0.06591289 0.07149039
0000f0 dd d9 96 3d 0b bf 36 bd d3 2a 27 bd ff 0a 5f 3d
       0.07365773 -0.044615787 -0.040812325 0.054453846
000100 4c 11 88 bd df 1e aa 3d 32 75 89 bd 14 fb 92 bd
       -0.06643924 0.083066694 -0.06711806 -0.071767956
000110 ac 71 95 3c 9b 03 81 bd ca bc 60 bc af 0b 83 3d
       0.01824268 -0.06299516 -0.013716886 0.06398713
000120 6f fd 49 3d 8d 2f 8f 3d 97 f3 72 bc a0 37 85 bd
       0.04931396 0.069914915 -0.014828584 -0.0650475
000130 4c 24 a4 3d b0 2f 9c bc f1 74 1c bd fe 3a a7 3c
       0.080147356 -0.019065708 -0.03819746 0.020413872
000140 87 16 50 bd d0 68 68 3d 83 56 3a 3d 23 c9 91 bd
       -0.050802734 0.056740582 0.04549266 -0.07118442
000150 13 aa 84 bd 54 cf 4c 3b e4 e0 08 3d 5f c0 f8 bb
       -0.064777516 0.0031251507 0.033417597 -0.007591292
000160 ce 14 3e bd 7d 13 70 3b 6f 2b 91 bd 10 07 65 bd
       -0.04640656 0.003663271 -0.070883624 -0.05591494
000170 9e d3 82 bd 7d 5f 86 3d f2 1d 9a 3d 4b 14 c1 bc
       -0.06388019 0.06561182 0.07525243 -0.023569247
000180 02 4f 8e 3b 4f 75 fe 3c 71 1e 56 3c de 32 17 bd
       0.0043429146 0.031061796 0.013068781 -0.036913745
000190 f1 88 39 3d 4d e4 b0 3d 31 b1 20 3d 3c e3 a6 bb
       0.045296613 0.08637295 0.039231483 -0.0050930064
0001a0 26 d5 92 3d 8b 19 ad 3d c8 78 8c 3c 1f 2e 0a 3e
       0.07169561 0.084521376 0.017147437 0.13494156
0001b0 24 19 8a 3c 16 9f 75 bd 26 46 86 3d 03 0c 56 bc
       0.016857691 -0.05996617 0.065563485 -0.013064387
0001c0 c2 7d ce 3d fa 61 ba bd 37 83 33 bc 79 d6 cd 3c
       0.1008258 -0.09100719 -0.010956577 0.025126683
0001d0 00 b6 6f 3d 26 93 67 3d 9e f2 b6 bd 3c 3c 89 bd
       0.058523178 0.056536816 -0.08932994 -0.06700942
0001e0 39 a8 a7 bd 63 0f a2 3c 05 57 eb bc 89 95 00 bd
       -0.08186383 0.019782728 -0.028728018 -0.031392608
0001f0 3b 00 b4 bc 5e 49 5f 3d 98 8a dc 3d 41 cc d2 3c
       -0.021972766 0.054513328 0.10768622 0.025732161
000200 8b ec 13 bd c7 08 0f bd 3b d8 0b bd 3e 81 df 3d
       -0.036114257 -0.03492048 -0.03414176 0.10913323
000210 ed a8 70 bc dc 27 19 3c a9 40 9c 3c 01 ea 9d bc
       -0.014688713 0.009347882 0.019073801 -0.01927662
000220 2e c6 99 3d 31 9e b1 3c 72 19 d6 bc 12 34 40 bd
       0.07508503 0.021681877 -0.02613518 -0.046924658
000230 1a aa c4 bb 68 21 95 3a 78 bc b2 bd 80 63 a6 bd
       -0.006001723 0.0011377754 -0.08727354 -0.08124447
000240 03 97 8e bc 71 84 63 ba 9a 70 05 3d ec f7 5c bd
       -0.017405992 -0.0008679098 0.03257809 -0.053947374
000250 0d a6 e5 bc 25 3e d6 bc 29 73 9b bd 0a 3a a3 3d
       -0.02803328 -0.02615268 -0.075903244 0.079700544
000260 e7 f7 d4 3c 75 0b a8 3d 79 53 ae ba 2f 45 8b bc
       0.025997115 0.0820531 -0.0013300023 -0.017000763
000270 44 f7 74 bd 72 1e bd bb e8 3f 8a 3d e1 85 9c bd
       -0.059806123 -0.0057714516 0.067504704 -0.07642723
000280 74 82 d6 bc 8f d2 72 3d 03 d7 78 3d 74 4e 3a 3d
       -0.026185252 0.059282836 0.060751926 0.045484975
000290 a5 e8 01 bc 34 d8 8d bc f5 32 14 bd 45 ab 1f bd
       -0.007929002 -0.017315008 -0.03618141 -0.038981695
0002a0 20 0c 4b 3d 5f 28 ca ba 60 fe 00 bd 3e a1 c9 3c
       0.04957211 -0.0015423408 -0.03149259 0.02461302
0002b0 f0 7e 4b bd f1 a9 2d 3b f1 c1 87 3d 66 08 a0 3c
       -0.049681604 0.0026498998 0.06628788 0.019535255
0002c0 dc b6 a2 3d 6a 63 20 bd d7 7d 8e 3c ec f4 8c bc
       0.07945034 -0.03915731 0.01739399 -0.017206632
0002d0 0b 11 10 bd 80 1a d1 bc 1b 46 88 3d ad f3 42 3d
       -0.035172503 -0.025525331 0.066539966 0.04759567
0002e0 e1 59 16 bd 14 3a 32 bd 8f 71 93 bd f0 f6 ca 3d
       -0.03670681 -0.04351242 -0.07199394 0.09910381
0002f0 09 86 59 3c 0e 7a 1c 3c b7 64 b5 bc e5 2d 76 bd
       0.013276585 0.0095505845 -0.022142751 -0.060102362
000300 9e e8 9f bd b4 19 9a bc c0 a6 be 3d cd 42 89 3c
       -0.0780804 -0.018811084 0.09309149 0.016755486
000310 ac 11 f8 bc 8e 03 59 bb 7f 77 9d 3d e5 cf aa 3d
       -0.030281864 -0.003311369 0.07688808 0.08340434
000320 a5 52 a7 3d 45 43 f8 3c 6a 99 55 3d 55 91 6f 3b
       0.0817006 0.030305514 0.05214826 0.003655513
000330 b9 0f 6a bd b9 43 82 bd 76 0f 90 3d 6d 67 ea 39
       -0.0571439 -0.06360573 0.07034199 0.00044709016
000340 e8 d7 ca 3c d6 66 bb bb a3 38 70 bd 2f 81 09 bd
       0.024761155 -0.005719046 -0.058647763 -0.033570465
000350 f4 c8 84 3c 64 6d a1 bc 15 c1 91 bd 6c 5f 47 3c
       0.016209103 -0.019705482 -0.071169056 0.012168746
000360 c9 7c 7f 3a 35 bf e4 3a 68 5a 83 3d f3 c3 2e 3d
       0.00097460725 0.0017452004 0.06413728 0.04266734
000370 11 42 c4 bc ac fb f6 3d 9e f0 ce 3d 7f 27 26 3d
       -0.023957284 0.12059721 0.10104488 0.04056501
000380 93 1b d1 bb 1a 7b 87 bd e7 22 8f 3d bb 84 81 bc
       -0.006381461 -0.06615277 0.06989079 -0.015810361
000390 0b c4 6b bd 67 b0 52 3d 55 73 29 3d f1 cc 11 3d
       -0.057560008 0.05143776 0.041369755 0.035595838
0003a0 a6 46 62 bc 1a 51 08 bd e2 59 46 3c fe a0 88 3d
       -0.013810789 -0.03328047 0.012106391 0.06671332
0003b0 23 74 85 3c 77 a7 f1 bc 09 e3 ad 3d 74 04 75 3b
       0.01629073 -0.029498799 0.08490569 0.0037386687
0003c0 bd 44 71 3d 87 88 0d 3d a9 3b d2 3d ea 12 89 3d
       0.058903445 0.03455403 0.102652855 0.06693061
0003d0 cf 7c 16 bd 96 1e 8d 3d 88 76 93 3c bd ab 67 bd
       -0.03674012 0.068905994 0.018000856 -0.056560267
0003e0 70 3e ab bc 7e ad 9a bd 6b 82 6c bd 08 16 77 bd
       -0.020903796 -0.07552622 -0.057741564 -0.060323745
0003f0 de d7 98 3d 3d 11 8a 3a f4 11 a8 bc 07 16 84 3d
       0.074630484 0.0010533702 -0.020516373 0.06449514

feature_extractor.3.bias f4 [16]
000000 7c da a3 bc 2c 13 34 bd 06 c2 bc 3b 04 f3 0f 3d
       -0.020001642 -0.043963596 0.005760434 0.035143867
000010 5a d1 53 3d 20 f4 a7 bc d2 63 fd 3b d4 f7 1c bd
       0.051713325 -0.02050215 0.007732847 -0.038322285
000020 f5 d2 83 bd bc 1b 47 bd 9f 89 44 bd 98 4f 4d bd
       -0.06436721 -0.048610434 -0.04798281 -0.050124735
000030 68 4c a5 3c bf f9 be bc f6 b9 88 3d 04 ab a3 3d
       0.020178035 -0.023312448 0.06676094 0.07991603

feature_extractor.7.weight f4 [120, 400]
000000 76 1a 2e bd 22 e1 44 3c 73 27 f7 3c b7 06 3d bd
       -0.042505704 0.0120165665 0.030170178 -0.046148982
000010 7e 07 8c bc a6 e9 0c 3d 38 b0 16 bd 86 4c 3b 3d
       -0.017093416 0.034402512 -0.03678915 0.045727275
000020 47 1a 8a bb 91 42 38 3c f7 9e 4a 3d 11 aa 12 bd
       -0.0042145583 0.011246339 0.049468007 -0.03580672
000030 58 32 2e 3d 23 38 34 bd 60 ea 1d 3d f6 62 3d 39
       0.04252848 -0.04399885 0.038553596 0.0001806131
000040 39 3a 32 3d 3a ed 14 bb 62 40 33 bd 9e 17 9c 3c
       0.043512557 -0.0022724406 -0.043762572 0.01905423
000050 cf 19 f6 3c 57 76 32 bc f9 34 55 bd 59 33 53 bb
       0.030041603 -0.010892472 -0.05205247 -0.003222665
000060 78 0c 29 3c f0 96 40 3c fd 7c cf 3c bc 28 27 bc
       0.010317914 0.011754736 0.025328154 -0.010202583
000070 13 5a a2 ba 61 03 84 ba 32 f6 c1 3c 5f 79 ac 3c
       -0.0012386463 -0.0010071808 0.023676965 0.021053968
000080 b2 17 b7 3c b5 50 b8 3b a4 c9 34 3c a2 b0 16 3d
       0.022350166 0.0056248554 0.011034403 0.036789544
000090 d7 b3 42 3c 83 33 25 bd 67 02 7b 3c df 08 6d 3d
       0.0118836975 -0.04033233 0.015320397 0.05786979
0000a0 75 8c 69 bc 19 54 01 3d 1a a2 29 bd 4e 15 21 bb
       -0.014254679 0.031574342 -0.041414358 -0.002457935
0000b0 51 27 00 3d 77 e0 11 bd 72 a9 42 bc bd 4d ed ba
       0.031287495 -0.035614457 -0.011881219 -0.0018104833
0000c0 7f 01 62 bc 3b e3 e0 bc 3a ff 09 3d c4 f2 2e bc
       -0.013794302 -0.027452102 0.03369067 -0.010677997
0000d0 35 cc 94 bc 8d e1 de 3c 07 a3 20 3c 2f 6e 8f bc
       -0.01816378 0.02720716 0.009804494 -0.017508594
0000e0 8a ad 05 3d f0 a2 c5 bc d6 04 4d 3d cb 96 1b 3d
       0.032636203 -0.024125546 0.05005344 0.037985604
0000f0 53 66 b4 3b fa 71 97 3c a9 be 5f bc c3 17 07 bd
       0.005505362 0.018486965 -0.013656297 -0.032981645
000100 c0 40 cb bc 80 1d 72 3c fb af b3 3c 1e 8b 9d bb
       -0.024811149 0.014777541 0.0219345 -0.004807844
000110 20 16 5c bc 55 84 91 bc fc a4 cb bc 4b e9 9f bc
       -0.013433009 -0.017763296 -0.024858944 -0.019520422
000120 1d 00 08 3d a8 6a 49 bd ef 96 d4 3c 8a 23 03 3d
       0.033203233 -0.04917398 0.025950877 0.032016315
000130 07 57 2b bc c6 5e 90 bb fc f9 27 bc 13 16 2e bd
       -0.010457761 -0.004405829 -0.010252472 -0.04250152
000140 b2 71 32 3c 8e 45 ac bc bf 90 b9 3c 1f be bc 3a
       0.010891365 -0.02102926 0.022652028 0.0014399922
000150 0b 80 df bc 31 99 61 bd bf 08 ff 3c c4 35 43 3d
       -0.027282735 -0.055077735 0.0311321 0.047658697
000160 ac 06 25 3d 1e ba 97 3c 5e c0 5e 3c 23 16 a8 3c
       0.040289566 0.018521365 0.013595669 0.020518368
000170 10 d3 07 3d 69 23 77 39 1f 0a 37 3b 6d 05 80 3c
       0.03316027 0.00023568947 0.0027929617 0.015627587
000180 90 a3 d7 3c fa b0 3f bc ce 12 dd 3c fe 29 14 3d
       0.02632311 -0.011699909 0.026986506 0.03617286
000190 7d 3d d2 bc 26 32 3f bd c4 90 09 bc f8 ca e4 bc
       -0.025664086 -0.046678685 -0.008396331 -0.027928814
0001a0 1d a9 52 3d 8a d7 70 bc 4e eb de bc d8 f9 c3 3c
       0.05143081 -0.014699826 -0.027211811 0.023922846
0001b0 0f 42 91 3c 5b fd 96 3c bb 6b 44 3d 26 36 4b bd
       0.017731695 0.018431356 0.047954302 -0.049612187
0001c0 e4 e7 d8 3c 15 20 a0 bc e5 8d 9b 3c b4 2c d5 bc
       0.026477762 -0.019546548 0.018988559 -0.026022293
0001d0 6c 01 50 3d 86 37 36 bc fa 0b 1c 3c b8 f4 15 bd
       0.050782606 -0.011121636 0.00952434 -0.036610335
0001e0 25 07 9f 3c fa c8 27 bd 22 6e 99 3c be 0a 46 3d
       0.019412586 -0.04096315 0.018729273 0.04835009
0001f0 a7 48 26 3d ae f3 c6 3c 70 18 b3 bc 91 a4 ca 3b
       0.04059663 0.024286117 -0.021862239 0.0061841686
000200 6f 6b 1a 3c 80 5e 5b bd 9e 7e c3 3c 61 1e 26 bd
       0.009425028 -0.05355692 0.023864087 -0.040556315
000210 05 36 ab 3c 55 fa 49 3d 7a 6a 92 bc 8d 42 72 3c
       0.020899782 0.049311 -0.017873038 0.014786375
000220 87 bc 5f 3d 39 be 4b 3d 95 54 59 3d 88 22 ce bc
       0.054623153 0.049741957 0.05305918 -0.02516295
000230 13 c4 a9 3b e2 a3 4a bd 10 1e f2 3a 46 8f 55 bd
       0.0051808446 -0.049472697 0.0018472094 -0.05213859
000240 45 d1 c3 3b fa 66 88 3c b3 9e 49 bd cc 3f 34 bb
       0.0059758746 0.016650666 -0.049223613 -0.0027503846
000250 9a 43 b6 bc b5 0f 20 3d ce 61 3b bc a4 c0 b2 3c
       -0.022249032 0.03907748 -0.011436893 0.021820374
000260 bf e3 14 bd b0 c2 8f 3b 6d 9b 04 3d 3d bc 91 3b
       -0.036350008 0.004387222 0.032374788 0.0044474886
000270 96 64 8d bc db 3b c9 bc 0d 73 b3 3c 1d ef 89 3c
       -0.017259877 -0.024564674 0.021905446 0.01683765
000280 da e4 33 3c 34 74 21 3d db 0f 2f bc 13 9a b4 bc
       0.010979855 0.03941746 -0.010684933 -0.022046125
000290 85 7b 2f 3c 4f 29 ec 3c 8a 46 75 bd a3 87 ef bc
       0.010710602 0.028828291 -0.059881724 -0.029239481
0002a0 70 31 1f 3c 9d bd 13 3d 8b 7d d2 3c 6f f0 2f 3c
       0.009716377 0.0360695 0.02569463 0.010738476
0002b0 32 5f 4d bd bf 71 e2 bc 8c 66 cd 3c 34 e6 0a 3c
       -0.050139613 -0.027642129 0.025073312 0.008477736
0002c0 69 f1 cd 3c 30 a6 1a 3d 1a da dd 3c 7c 3e ac bc
       0.025139527 0.037756145 0.027081538 -0.021025889
0002d0 8a 36 dd bc af c1 29 bc c2 d3 de ba a2 2b aa bb
       -0.027003545 -0.010361119 -0.0017000365 -0.0051931897
0002e0 5e c6 30 bc 84 e5 c2 3b 75 45 08 3d d6 98 fd bc
       -0.010789482 0.0059477706 0.033269364 -0.030956667
0002f0 b4 50 c2 3c 45 54 43 bd f6 8f 37 3b c8 cc 37 bd
       0.023720123 -0.047687788 0.0028009391 -0.04487303
000300 c1 6d 3d 3d d6 64 28 bd 6a 98 d0 bc fd f6 c8 3c
       0.046247248 -0.04111179 -0.025463302 0.024531836
000310 9d 14 9e 3c b7 58 1b 3d 89 73 70 3c 8a 70 29 bd
       0.019296939 0.037926402 0.014675983 -0.04136709
000320 d9 3c 0f bd 75 df 0b 3d 1e 07 47 bd 34 d1 37 3d
       -0.03497014 0.034148652 -0.04859077 0.044877246
000330 1c 28 0a bc 9e 17 15 3c 86 3c 0c bb bd 7f 4d bc
       -0.008432414 0.009099869 -0.002139838 -0.012542662
000340 02 cd 48 bc 4d 8b 70 3c 68 70 0f bc 8d b6 09 3c
       -0.012255909 0.014681649 -0.008754827 0.00840534
000350 c2 37 2b 3d 8b 4d 93 3b 7d d7 1f bd 79 1d 1a bd
       0.04180122 0.004495328 -0.039023865 -0.037625764
000360 b4 1c 03 3d ed d1 8e 3c 87 a2 1c 3c 86 06 cb bc
       0.032009795 0.017434085 0.009560234 -0.024783384
000370 b6 be 26 bd aa 16 31 3d bc b4 3f bd 0e 6d ca bc
       -0.04070922 0.043234505 -0.04680322 -0.024710204
000380 4d 74 a5 3c c1 ab 34 3d 53 05 1a bc d4 c6 26 bd
       0.020197058 0.04410911 -0.009400683 -0.04071696
000390 51 3c 8a 3c de dd 83 3b 63 eb d9 bb 16 5f 34 bd
       0.016874464 0.0040242514 -0.0066503747 -0.044035994
0003a0 0b 7c 28 3d 85 86 0b 3c 00 56 b6 3c ab da a6 3c
       0.04113392 0.008515959 0.022257805 0.02036794
0003b0 13 da 1e 3d f0 a0 ad bc 27 44 f1 3a 41 57 12 bd
       0.03878219 -0.021194905 0.0018407152 -0.035727743
0003c0 dc f6 47 bd e2 90 b2 bc c4 54 9a 3c c9 34 e6 bc
       -0.048819408 -0.021797601 0.018839248 -0.028101342
0003d0 10 a1 09 3d c4 2d 1a 3c 6d 3c a0 bc 8f 9f ae 3c
       0.033600867 0.009410325 -0.019560063 0.021316318
0003e0 4a 67 0a 3d 82 8e b4 bc 13 3d e6 3c cb ea 09 3d
       0.03378991 -0.02204061 0.028105294 0.03367118
0003f0 f2 b3 37 3d 4a 42 f4 bc 99 8f 4b 3d e6 ea ce 3b
       0.044849344 -0.029816765 0.049697492 0.006314623

feature_extractor.7.bias f4 [120]
000000 66 5f a9 3c 27 a4 13 3d 92 ea a4 3c 27 fb 02 3d
       0.020675372 0.03604522 0.020131383 0.0319778
000010 9d 4f 2c 3d 20 30 03 bd 6f 0e 13 3d 38 42 af 36
       0.042068113 -0.032028317 0.035902437 5.2231153e-06
000020 09 da 00 bd 53 6a 7a 3b 1e 5a bb 3c 9c c8 e5 bc
       -0.031457935 0.0038210347 0.02287012 -0.02804976
000030 47 50 1c bd c5 16 4a bd 48 f4 da bc f0 9a 25 bd
       -0.038162496 -0.04933812 -0.02672781 -0.040430963
000040 68 44 f5 3c c6 6d b1 bc e9 df 38 bd 30 93 f3 bc
       0.029939845 -0.02165879 -0.045135412 -0.02973327
000050 2d 64 37 bc e8 9d fb 3c c1 af 12 3d bc f5 85 3c
       -0.011193317 0.030714944 0.035812143 0.016352527
000060 25 20 2b 3d c4 91 22 bd 96 36 b1 bc 59 7a 11 3d
       0.041778702 -0.039689794 -0.021632474 0.03551707
000070 4f 56 8b bc 2f c1 77 3c 0c b7 4c bc 80 38 d3 3c
       -0.017008929 0.015121742 -0.012494814 0.025783777
000080 6f af 47 bd 70 29 b5 3c e6 01 e8 bc 51 7a f0 bc
       -0.04875129 0.022114486 -0.028321218 -0.0293552
000090 b5 c6 1a 3d 34 b3 d2 bc 1c ee db 3b 51 17 89 3a
       0.037787158 -0.025720216 0.0067117345 0.0010459219
0000a0 92 e1 10 bd 7b 69 e4 3c 31 17 12 bd cb d0 91 bc
       -0.03537137 0.027882328 -0.03566665 -0.017799756
0000b0 41 19 44 bd fb 5f 41 bc 7e cc 79 3c a9 ff 57 3c
       -0.047875647 -0.011802669 0.015246509 0.013183513
0000c0 10 cb c0 3c 01 b1 8a bc 5e 1a 96 3c 20 05 49 bc
       0.023534328 -0.016930105 0.01832312 -0.012269288
0000d0 ea d5 29 3d 2e 40 ee bc da ef 6c bb e8 4f 68 3a
       0.04146377 -0.029083338 -0.0036153705 0.00088620046
0000e0 74 6c 15 3d 61 70 7c bc 29 eb 1d bd 65 a6 76 3c
       0.036480382 -0.015407653 -0.038554344 0.01505432
0000f0 79 7c 3c 3d 3c 3f 0e bd 5a 9b 87 bc 09 cc 71 bc
       0.046017144 -0.034728274 -0.01655357 -0.014758118
000100 57 7a 0a 3d 8d 6e e1 3b f4 94 2f bd bd cf 1e 3d
       0.03380808 0.0068796338 -0.042866662 0.038772333
000110 e4 d9 5b bc f7 68 40 bd a5 09 42 3d 15 19 31 bc
       -0.013418648 -0.046975102 0.04737248 -0.010809203
000120 23 6d b1 3c 95 c1 3d 3a fe 22 13 3d b0 5c b3 bc
       0.021658486 0.0007238624 0.035922043 -0.021894783
000130 71 52 7b bc f1 4f c9 bc 7f b9 02 bd 95 d3 01 bd
       -0.01533948 -0.024574252 -0.031915184 -0.03169592
000140 90 20 e2 3c cd fc 07 bd 9f b1 80 ba 2c 67 db 3b
       0.027603418 -0.033200074 -0.000981856 0.0066956487
000150 2b 29 51 3d fc 34 91 bc 96 2a 88 bc c9 dd c5 3c
       0.05106465 -0.01772546 -0.016621869 0.024153607
000160 fb 88 3a 3c 10 be af 3c 4c 06 2c 3d a9 e0 25 bd
       0.011385198 0.021452934 0.041998193 -0.040497456
000170 6d fc 66 3c 8f 61 bb ba 7c f1 38 bd b6 0b be bb
       0.014098269 -0.0014296043 -0.045152172 -0.005799736
000180 29 fa 6f 3c a4 34 ec 3c 8c 5b 24 3b 1e 0f 09 bd
       0.014647045 0.028833695 0.002507898 -0.033461682
000190 20 fd 5f bc bf 44 2d 3d f1 52 c5 3c 7f 76 14 bd
       -0.01367119 0.04230189 0.024087401 -0.03624582
0001a0 30 b2 58 3c 20 c9 24 bc e8 86 21 3c 1b f5 02 3d
       0.013226077 -0.010057718 0.009858824 0.031972032
0001b0 96 20 ce bc 38 45 17 bb 23 40 23 3d 01 e3 e2 bb
       -0.025162023 -0.002308203 0.039856087 -0.0069240336
0001c0 a5 c0 48 3d 2f 0e 86 ba ae d8 fe 3b a1 32 0d bc
       0.049011845 -0.0010227616 0.007777295 -0.008618028
0001d0 8c b4 b4 3c d0 84 6d bc 42 f5 54 3d 29 b3 33 3d
       0.022058748 -0.014496997 0.05199171 0.043872032

classifier.0.weight f4 [84, 120]
000000 85 07 11 3c 42 86 53 bd d0 fd cd 3c ff 1d b0 bb
       0.00885189 -0.05164171 0.025145441 -0.0053746696
000010 3f cc 9c bd b8 d3 ea 3c 4f e0 7e bd 36 69 20 bd
       -0.07656144 0.028665408 -0.062225636 -0.039162837
000020 21 9f 86 bd 78 a6 84 3d 74 9a 4d 3d 55 b2 55 bd
       -0.0657332 0.06477064 0.050196126 -0.052172024
000030 3a ab 84 3d 74 80 8b bd 06 ed 06 3c aa a7 84 bd
       0.064779714 -0.0681161 0.008235222 -0.06477292
000040 a5 f6 62 3d e2 97 25 bd 30 9b 8d bc 60 11 05 3d
       0.055411 -0.04042805 -0.017285913 0.032487273
000050 be d6 a9 bd fd 47 80 3d b6 e3 c1 3b 7c 0a 63 bd
       -0.08292912 0.06263731 0.005917038 -0.05542992
000060 b3 59 0e 3a 59 0a 32 bd 90 47 c1 3c 57 90 4d 3d
       0.00054302363 -0.0434669 0.023593694 0.05018648
000070 06 4a a0 bd c3 ed 8f 3d 00 6f ce bc c9 45 9e 3d
       -0.07826619 0.07027771 -0.025199413 0.07728154
000080 13 3d 87 3b 07 96 1a 3d ba 27 2f bd e5 b6 86 3c
       0.0041271537 0.037740733 -0.042762496 0.016444633
000090 aa 7a aa bb 08 cc 9d bc 16 37 36 bd 70 3f 2f 3b
       -0.005202611 -0.019262329 -0.044486128 0.0026740693
0000a0 16 bb b5 bd c6 7c 57 bd 35 01 f7 bc d9 18 12 3b
       -0.088735744 -0.052609228 -0.030151943 0.0022292642
0000b0 29 4d 77 bd d0 11 37 bd 74 0b 40 3c 11 ac ea 3a
       -0.06037632 -0.04469472 0.011721481 0.0017904063
0000c0 9b f8 28 3c 13 da 45 bd bb 99 97 3d 6a 95 ba bc
       0.010313178 -0.048303675 0.07402369 -0.022776324
0000d0 e6 03 9c bd 11 1c 55 3d b9 81 3b 3c 13 cf 56 bb
       -0.07617931 0.05202872 0.0114445025 -0.0032777234
0000e0 3f 79 a8 bd 7c bf 51 bd 0b a5 47 3d 45 bb 85 bc
       -0.08226251 -0.051208004 0.04874138 -0.016324649
0000f0 86 e1 6b bd ff b0 87 3d 46 be 97 bd 2f 02 86 3d
       -0.057588123 0.06625556 -0.07409339 0.06543385
000100 a8 3f fc bc fd 1c 1d 3d 18 44 4c 3c 08 49 cb 3d
       -0.030792072 0.038357724 0.012467407 0.09926039
000110 13 19 ff 3c ae b9 c9 bb 6e de af 3d 7f d0 94 bd
       0.031139886 -0.006156168 0.08587347 -0.0726633
000120 55 b0 5c 3c ec 1a f4 3c a3 51 5e bd 49 9f 52 bd
       0.013469775 0.029797994 -0.054277074 -0.051421437
000130 f1 62 33 bd e7 d5 42 bd 34 01 4a bc 26 e9 66 bd
       -0.04379553 -0.047567274 -0.012329388 -0.05637469
000140 84 70 93 3d df 86 14 bb ff ad be 3d 79 b0 a8 3c
       0.07199195 -0.0022663397 0.09310531 0.020591961
000150 b0 ee 02 bc fb 6e 02 3c e6 f8 38 bd d7 f3 27 bd
       -0.007991478 0.00796103 -0.045159243 -0.04100403
000160 44 0c 16 3d 14 9c 34 bc 70 8e 21 3c 65 80 0a bc
       0.03663279 -0.01102354 0.00986062 -0.008453463
000170 d3 29 b3 3d 71 41 c1 bd 99 ee 6a bd 2d 0a 41 bd
       0.08748212 -0.0943631 -0.05735645 -0.047128845
000180 32 13 ec bc 73 3e 93 3d 3c 65 7d 3d 12 bf 6f bd
       -0.028817747 0.071896456 0.061864123 -0.05853183
000190 17 59 e9 bc fd 9b cb 3d 6b ec 8f bd 44 9a 1a 3c
       -0.028484864 0.09941862 -0.07027515 0.009436194
0001a0 39 ba 17 3d 83 9d 2b 3d 10 c8 b5 3d 4b d0 73 3d
       0.03704283 0.04189826 0.088760495 0.059524816
0001b0 28 f1 83 3c 6c 8b b4 bd de c9 25 bd 68 4a 81 bc
       0.016106203 -0.08815655 -0.04047572 -0.01578255
0001c0 b5 3f 88 bd 14 ef 28 bd c4 40 34 3c 64 17 11 bd
       -0.06652776 -0.041243628 0.011001769 -0.035422698
0001d0 b0 29 74 3c ba 74 14 3d 02 0a 73 3d 0a 00 8f bd
       0.014902517 0.03624413 0.059335716 -0.06982429
0001e0 38 36 a5 3d 68 a2 14 3d ac d0 fc 3b 92 a5 da bc
       0.08066982 0.036287695 0.0077153053 -0.026690278
0001f0 0c ed e2 bc 50 23 4d 3b df 45 3d bc a2 e2 b0 bd
       -0.027700923 0.0031301565 -0.011552303 -0.08636977
000200 de 40 69 3c 75 66 76 bd ec 67 9f bd 0e 94 5c 3d
       0.014236657 -0.060156304 -0.077834934 0.053852133
000210 64 92 78 bc 02 37 c4 bc a5 58 4c bc a2 8b 1f bd
       -0.015171621 -0.023952011 -0.012472306 -0.038951524
000220 0a 70 42 3d 55 19 51 bb 68 b2 27 bd 1d b0 af 3d
       0.04747013 -0.0031905968 -0.040941626 0.08578513
000230 29 ba 87 3d ca b4 8c 3d c3 de b9 bd 02 6f 8f 3c
       0.06627304 0.0687042 -0.090756916 0.017508987
000240 bc ba 9c 3b 99 a8 a0 3d 03 d0 ca 3c 7b c8 97 3c
       0.0047830027 0.078446575 0.02475739 0.018528214
000250 40 0a 71 3d 23 5c 22 3d be 4c a7 bd 73 cf b5 bd
       0.058847666 0.03963865 -0.08168934 -0.088774584
000260 db df 4b bd 1e 7c a6 bc 2d b6 b1 3c 42 1d 6a 3d
       -0.049774032 -0.020322856 0.021693313 0.05715681
000270 d9 2f a7 bd c9 de 5e bc 4b 98 92 bd 0f 40 a1 3d
       -0.08163423 -0.013602921 -0.07157954 0.07873546
000280 9c 10 66 3d fc e0 56 3d 60 98 24 bc 62 3a 6c bd
       0.056168184 0.052460656 -0.010046095 -0.057672866
000290 26 c5 3b bd d4 b0 96 ba f3 c3 12 3a bd 79 d3 ba
       -0.045842312 -0.0011496791 0.0005598657 -0.0016134303
0002a0 2d 6b a1 3d 80 64 42 bd 31 23 8d 3d 1c 78 25 3d
       0.0788177 -0.047459126 0.06891478 0.04039775
0002b0 bd 41 92 bd ee 1e 29 bd 1f 2a 63 bd 12 77 85 ba
       -0.07141445 -0.041289262 -0.05546009 -0.001018258
0002c0 72 4b 46 3d 41 6e 54 3d f8 6c 9d bc 2b c0 a0 3d
       0.048411794 0.05186296 -0.019217 0.07849153
0002d0 5b 65 30 3d fe ea 73 3c 5e 58 97 bd e3 57 9e bd
       0.04306541 0.0148875695 -0.073899016 -0.07731607
0002e0 3c 43 68 3d e1 67 47 3d e7 ae 33 bd 5a 26 8c bd
       0.056704745 0.04868305 -0.04386797 -0.068432525
0002f0 19 2f 74 3b 62 9e aa bd b1 75 7b 3d 37 81 44 3d
       0.0037259518 -0.083309904 0.061391536 0.04797479
000300 72 ce ce 3c 58 97 85 bd b7 b3 68 bc 30 24 3c bd
       0.025244925 -0.06523007 -0.014203004 -0.04593295
000310 f9 8f 35 3d f7 e6 b1 3d 24 26 58 3b dc 45 c0 bc
       0.044326756 0.08686631 0.0032981718 -0.023470812
000320 5c 79 80 3d 67 b8 ad bc 8f fc 2f bd 91 94 9c bd
       0.062731475 -0.021206094 -0.042965468 -0.07645524
000330 b0 be 45 3c e1 6b 93 3d 5e df 68 3d f3 ad 04 3d
       0.012069389 0.07198311 0.056853645 0.032392453
000340 00 ac 80 3d 57 4a 95 bd 33 ae b4 3d 50 fa f3 bc
       0.062828064 -0.0728957 0.08822288 -0.029782444
000350 f6 2d b5 bd 5f e3 27 3d 48 30 b3 3c bd 80 a5 bc
       -0.08846657 0.040988322 0.021873608 -0.020202989
000360 98 43 b1 bd 38 18 81 3a 90 78 39 bd 56 ca 64 bd
       -0.086554706 0.0009849137 -0.045280993 -0.055857025
000370 ee 53 a7 3d 3d 23 2f 3d fc 2f a3 bd 07 c1 20 bd
       0.08170305 0.042758215 -0.07968137 -0.039246585
000380 90 7b 38 bd 77 5e a8 bd 63 d6 93 bd dd a1 b9 3d
       -0.045039713 -0.08221143 -0.072186254 0.09064076
000390 0c 9b 9f 3b f4 f1 96 3d 90 5a 7c 3c ce 27 b4 3d
       0.004870778 0.07370368 0.015402451 0.08796655
0003a0 cf 44 62 bd 83 19 bf 3c 13 e5 39 bd ba bd 04 3d
       -0.055241402 0.023327595 -0.045384478 0.0324075
0003b0 50 23 90 3d e0 66 8c 3d ad b3 7b bd c8 30 6e bb
       0.07037985 0.06855559 -0.06145065 -0.0036344994
0003c0 26 fd 6b 3c ec 31 cc 3c 42 a1 12 bd 02 fd e2 3c
       0.014403617 0.024926148 -0.03579832 0.027708534
0003d0 26 b9 92 bd 0c eb 05 bd 38 2e c4 bc b4 4c a4 bc
       -0.071642205 -0.03269486 -0.02394782 -0.020056106
0003e0 09 1b 8a bd 48 f9 7d 3d da 8a 69 bc 20 18 32 3d
       -0.06743438 0.06200531 -0.014254296 0.04348004
0003f0 98 c7 25 bb 3c 3b a5 3b d6 d7 aa 3d 48 09 8d 3d
       -0.002529597 0.0050424617 0.08341949 0.06886536

classifier.0.bias f4 [84]
000000 4a ae 0d bc b9 10 b1 bd 5b 63 32 3d 03 60 ab 3d
       -0.008647511 -0.08645768 0.043551784 0.08367922
000010 ca 71 ab 3c 2f ba 25 3d 6b 6c a1 3d d4 29 5e 3d
       0.020928282 0.04046076 0.07882007 0.05423911
000020 da ea 27 bd db f6 44 3d f7 89 9c bd c4 b6 b8 3d
       -0.040995456 0.048086982 -0.07643502 0.09019235
000030 1a a0 78 3d 7a 28 45 bd 0e 9e d6 bc 6e 3a 69 bd
       0.06069956 -0.048134305 -0.026198413 -0.05694049
000040 7a fe 19 bd 7e 15 68 bd 07 c3 ae bd db 3b 64 bc
       -0.037596203 -0.05666112 -0.08533292 -0.013930286
000050 3f b8 19 3d 9d cd 64 3d 43 3b f4 bc 67 ce 8b bd
       0.037529226 0.05586015 -0.029813414 -0.068264775
000060 bd 85 5a 3d 89 c9 22 3b 38 40 a3 ba dd e0 3f 3d
       0.0533502 0.0024839363 -0.0012455052 0.046845306
000070 67 ff d0 bc 7f 9d 30 3d 1c 54 fb 3c 97 5f 61 bc
       -0.02551241 0.04311895 0.030679755 -0.013755701
000080 e0 73 4a 3a 1c c9 c9 bc 69 c8 24 bd e1 7d af bb
       0.0007722955 -0.02463203 -0.04023019 -0.005355582
000090 0d 0a 9b bd fc cb 91 bd bd 99 1c 39 2b 85 b1 bd
       -0.075702764 -0.07118985 0.00014934591 -0.08667978
0000a0 b9 4c 27 bc 10 cc a7 bd c4 68 f3 3c 31 c0 80 3c
       -0.010211163 -0.08193219 0.029713042 0.015716644
0000b0 bf 2c 2e bd cf ae ce ba 8e 57 2e 3d 5e f7 9d bd
       -0.042523142 -0.001576865 0.042563967 -0.07713197
0000c0 7d 05 9c bd 31 8c b0 3c fe 67 cb 3c fc e5 3a 3d
       -0.07618234 0.021551223 0.02482986 0.045629486
0000d0 3b 47 4a 3c 27 2a b8 bd a4 11 53 bd 45 b9 ad ba
       0.012346084 -0.08992415 -0.051530495 -0.0013254067
0000e0 40 70 35 bd 3e 66 0d bd 1e 8e a7 3c 59 52 56 bd
       -0.044296503 -0.034521334 0.020453509 -0.052324627
0000f0 65 18 2d 3c 98 20 c9 3d fe f4 b1 3d 71 1b 3e bc
       0.010564898 0.0982067 0.08689307 -0.011603222
000100 05 03 6d 3d 7d 57 99 bd 3b 9c 4c 3d c2 e4 39 3c
       0.057864208 -0.0748739 0.04995368 0.011346044
000110 36 12 a5 3d b8 76 84 3d 6b 8e ad bd c0 55 aa 3d
       0.08060114 0.06467956 -0.0847443 0.08317137
000120 02 7f 88 3d 09 2f 9b 3d ff be 55 3d 6f 06 38 bd
       0.0666485 0.075773306 0.0521841 -0.04492801
000130 18 8e 81 bb 93 91 95 bb fb 5a 2c 3d 8f 05 38 3d
       -0.0039537065 -0.004564473 0.042078953 0.044927176
000140 9a 47 1a bd 69 1e a2 bc 28 01 1f bd 58 e5 25 3b
       -0.03766594 -0.019789891 -0.038819462 0.0025313701

classifier.2.weight f4 [10, 84]
000000 78 fc cc bd 55 c6 b0 bd ef bd 9c 3d 31 e4 cb bc
       -0.10009092 -0.08631579 0.076534145 -0.024889084
000010 14 4c 67 3c 08 7e 45 bd d7 d4 be 3b 67 01 09 3d
       0.0141172595 -0.048215896 0.0058237123 0.033448603
000020 52 2a a5 bd cb bb d3 3d bb 67 9f bd a5 a7 ba bc
       -0.080647126 0.10338553 -0.07783457 -0.022785017
000030 a4 88 44 3d 24 17 dc bd 51 b4 9e 3d a3 b5 b8 3d
       0.047981873 -0.10746601 0.077492364 0.090190195
000040 10 95 27 be cc 4f 8f bc 42 59 b0 bd c9 36 21 3e
       -0.16365457 -0.017494105 -0.086107746 0.15743555
000050 0e 85 e6 bd 7f 77 16 be 0f 3a 9d bd dc 96 89 3d
       -0.11255847 -0.14694022 -0.076770894 0.06718227
000060 7e 96 a2 3c 73 5e de bd 58 6b df bc 6a 9d 91 bd
       0.01984715 -0.108578585 -0.027272865 -0.071101025
000070 93 0d 14 3e 71 d5 d4 bd 78 ab c0 3c 04 1f 80 3d
       0.14458303 -0.10392273 0.023519263 0.06255916
000080 05 32 20 be 2b 91 d0 3c 62 b7 19 bc 9e e3 b7 3c
       -0.15644081 0.025459846 -0.009382101 0.022447404
000090 f6 7d 64 bd 16 7a f8 bd 36 07 50 bb b5 f3 96 bc
       -0.05578419 -0.12132661 -0.003174258 -0.018426755
0000a0 f6 c9 11 bd 4e 9e 1b 3e 28 0a 88 bd 73 87 ae bd
       -0.035592996 0.15197107 -0.06642562 -0.08521929
0000b0 12 c0 fc 3c 2f cd cb bd 2a 41 d0 3d fd 47 31 3e
       0.030853305 -0.09951245 0.10168679 0.17312618
0000c0 52 7c ee 3d c6 52 ae 3d a3 f2 3e be 11 52 14 3d
       0.11644806 0.085118815 -0.18647246 0.036211077
0000d0 6d e9 11 be 34 87 24 bd 80 3d ab bd 73 26 b1 bd
       -0.14249201 -0.040168002 -0.083613396 -0.08649912
0000e0 86 6a 95 3d b6 d2 97 3d f5 44 32 3d 9c ee 37 3d
       0.07295708 0.07413237 0.043522794 0.04490529
0000f0 5f 3d 2b 3e 45 3b 4f 3d 95 bb 8f bd 95 07 9d 3d
       0.1672263 0.050593633 -0.070182 0.07667462
000100 9f 32 1c bd 33 ce 19 bc 6a ae 50 3d 9d c4 3d 3c
       -0.038134214 -0.009387541 0.050947584 0.011582521
000110 06 36 9c 3d 9d 72 a6 bc 14 4f 66 bd b8 ce d8 3c
       0.07627492 -0.020318324 -0.05622776 0.026465759
000120 0f 30 c4 3d b1 47 1a be 03 01 08 be 48 60 00 3d
       0.09579479 -0.1506641 -0.13281636 0.03134182
000130 10 77 74 3d a3 a1 a5 3c 69 f1 08 be 73 98 04 be
       0.05968386 0.020218676 -0.1337334 -0.1294878
000140 86 48 a6 ba d9 0a 1a 3d a7 ba 2b be 0a 41 d4 3d
       -0.0012686409 0.037608 -0.16770421 0.10363968
000150 36 6a da bd f8 c8 0b 3d 50 c5 cf bc b9 be ca bd
       -0.106647894 0.034127206 -0.02536264 -0.09899659
000160 12 46 cd 3c 2d e6 56 3b 69 28 c0 3d be 33 10 3e
       0.025057826 0.0032791004 0.093827076 0.14082238
000170 07 04 38 3e 6f c7 ec 3d 72 22 11 be 54 80 13 3e
       0.17970286 0.115614764 -0.14173296 0.14404422
000180 91 fe 37 3e 3a fa 9b bd 2d 0f 00 3e aa 4f 5a be
       0.17968203 -0.07616086 0.12505789 -0.21319452
000190 40 97 fe bd 0e f5 ce 3d 6b c5 eb 3d 0f a1 7c 3c
       -0.124311924 0.10105334 0.11512264 0.015419259
0001a0 4e 6d be bd ca 59 41 3b 42 d3 9e 3d a3 0e d8 3c
       -0.09298192 0.0029502981 0.07755138 0.026374167
0001b0 45 d6 9f 3d 95 e5 38 bd fc c6 ab 3d 42 fa 32 bd
       0.078045405 -0.04514082 0.08387563 -0.043695696
0001c0 0a ac 5a 3d b9 dc 33 3d d3 28 00 be 53 2a ba 3d
       0.053386725 0.04391167 -0.12515573 0.09090104
0001d0 fb ab ae 3d 56 37 ef bd ca 9e 35 bc ce a2 c2 3d
       0.085288964 -0.11680476 -0.011085222 0.09503709
0001e0 44 16 a1 3d 76 73 de 3d cc 11 8d 3d 67 73 27 bd
       0.07865575 0.10861866 0.0688816 -0.04088154
0001f0 d9 4a 2f 3d 7b 24 c1 bd b8 76 61 bb e6 4c 7e bd
       0.04279599 -0.09430786 -0.0034403037 -0.062085055
000200 ce e7 6b bd 6d 4e 36 3e 10 1e b4 bd c5 aa 1e 3e
       -0.057594113 0.17803355 -0.087947965 0.15494831
000210 28 f6 e3 3d dc 1b 86 3d f1 8d e6 3d 6a 52 e2 bd
       0.11130935 0.065482825 0.11257542 -0.110508755
000220 ab 71 b2 3d da 34 88 bc 26 d1 ca bd 28 89 b5 bb
       0.08713087 -0.016626764 -0.09903173 -0.005540032
000230 fe 1d c0 3c ed cd b1 bd 7a 23 64 bd af ef b9 3d
       0.023451801 -0.08681855 -0.055697896 0.09078919
000240 f6 bd 8f bd 81 0f e0 3d 00 dc b6 bd a9 46 df bd
       -0.07018654 0.10940457 -0.089286804 -0.10902149
000250 49 9f ca 3d a4 02 c8 3d 23 f6 01 3e eb 34 e8 3d
       0.098936625 0.09766129 0.1269155 0.11338218
000260 fc 6f 0f 3e cb de 80 3d a4 00 ed 3b 70 5c b1 3c
       0.14007562 0.062924944 0.0072327424 0.021650523
000270 fd ce 75 3d 52 9d 8f 3d de 68 74 bd 5c 53 6f 3d
       0.060011853 0.07012428 -0.05967032 0.058429107
000280 4f 70 a6 bd 2b 7b ce bd 71 c6 c7 3c 84 25 e4 3d
       -0.0812689 -0.10082086 0.024386616 0.11139968
000290 4e e4 70 3c ca 4c f8 3d 6e 9c b9 bd 07 d6 0f be
       0.01470287 0.12124021 -0.0906304 -0.14046489
0002a0 75 d4 c9 bc cd f0 c9 bd 98 14 f2 3d e6 71 21 be
       -0.02463744 -0.09860382 0.11820334 -0.15766105
0002b0 76 8e ec 3d 1b af ec 3d 6e 92 c1 3d cf 83 c0 3d
       0.1155061 0.11556836 0.09451757 0.094001405
0002c0 63 ca 25 3c f4 9a 19 bc 1d 20 05 3e f8 86 9c bd
       0.010119054 -0.009375323 0.13000531 -0.07642931
0002d0 a7 f0 11 bd f7 14 91 3d b3 60 d4 bd 05 5d 06 3d
       -0.035629895 0.07084077 -0.103700064 0.032803554
0002e0 db 24 f5 3d c9 b4 3e 3d 95 fd b5 bd 26 58 bc bc
       0.1196992 0.04655913 -0.088862576 -0.022991251
0002f0 f2 45 24 be b4 33 81 3d 9b 22 03 3e 6b ac da 3d
       -0.16042307 0.0630869 0.1280617 0.10677417
000300 4b a7 93 3b 28 a1 8d 3d 96 1c cf 3d 60 2f 32 3e
       0.004506027 0.06915504 0.10112874 0.17400885
000310 27 99 90 3b f2 9a cf 3d 3f 12 95 bd 80 ab 1b 3d
       0.0044127884 0.10136975 -0.07278871 0.038005352
000320 a7 39 09 be 3a 6c a6 bd d3 ec e9 bd 66 b7 57 bd
       -0.13400899 -0.08126111 -0.11422124 -0.052665137
000330 8b 74 ac bc 7e db a2 bd d6 e6 30 be 58 8d 9d 3d
       -0.021051666 -0.07952021 -0.17275557 0.07692975
000340 06 17 90 bc 08 8f f9 3c 24 7a 1b 3e ae 31 f5 3d
       -0.017589103 0.03046371 0.15183312 0.11972366
000350 8d c2 0b be 10 c6 59 bd de c6 6a bd af 0b 0d 3d
       -0.13648434 -0.053167403 -0.05731856 0.03443497
000360 67 29 83 3c 55 9d 17 3c e9 40 c3 3c cb 43 2c 3e
       0.016010953 0.0092538195 0.023834663 0.16822736
000370 aa 13 3e 3d aa 78 ae 3d 3c a7 20 be f4 81 74 3c
       0.04640547 0.085191086 -0.15688795 0.014923561
000380 73 cd 4a 3d 41 09 9e 3d bd c6 da bd f2 e5 23 bd
       0.049512338 0.07716609 -0.106824376 -0.040014215
000390 9d 32 9c 3d af 51 1c 3d 54 94 1a be af ba 16 be
       0.07626841 0.038163837 -0.15095645 -0.14719652
0003a0 2d 48 4d bd be 0b 50 bd ab 85 e7 bd c0 f1 c3 bd
       -0.05011766 -0.05079245 -0.11304792 -0.095675945
0003b0 fe d5 3d 3e f5 4d 28 bd e6 3a 55 3d 2e 1d c6 3d
       0.18538663 -0.04108997 0.052058123 0.09673534
0003c0 ff 28 04 3c e1 ec 6f bc a9 f6 f7 3d 32 20 f4 3d
       0.008066415 -0.014643879 0.121075936 0.11920203
0003d0 b3 91 8e 3c 89 88 a1 bc 3b 6c f9 3c b5 cd e0 bc
       0.01740346 -0.019718425 0.030447116 -0.027441839
0003e0 0d a5 cb bd f5 b1 29 bd 40 27 03 3e ef a9 0c be
       -0.0994359 -0.04142948 0.12807941 -0.137367
0003f0 7c c5 be 3d f0 3a 08 bb c8 0b 34 3c 84 31 ce bd
       0.09315011 -0.0020787083 0.010989137 -0.10068038

classifier.2.bias f4 [10]
000000 09 88 8f bc 0e 95 20 bc 6e 42 da bc 20 47 b3 3c
       -0.017520921 -0.009801162 -0.026643004 0.021884501
000010 9a 4e 04 bd c3 b8 70 3d f0 4d 5a 3d b4 b3 fa bc
       -0.032301523 0.058769953 0.053296983 -0.030603267
000020 00 73 87 bd fe ac 65 3d
       -0.066137314 0.05607318
