checkpoints/noise_rate_0.2/models/tsf/epoch155.pth (torch, 250639 bytes, 10 tensors)

feature_extractor.0.weight f4 [6, 1, 5, 5]
00000000: 49dd 113e 929c 53bd c00e 03bd 6afc 973d
00000010: 2406 5cbe 0a0d 3f3e fe81 193d ded2 2d3e
00000020: 231d 8f3d 4305 0a39 718c e03d 0a7e bf3d
00000030: f4ec 2a3e acbc d53b 104f 5d3d d760 fdbc
00000040: 5056 333d acc1 283d f0e1 733e dcd4 113e
00000050: 26bf 08be 54b8 31be 3397 81bd 0c4d 9cbd
00000060: f5c2 95bc e67c d63d 1562 853e bb3f 423e
00000070: 8424 61be fc4f 4a3d 9caa 283e 64c1 b13e
00000080: af4b 4b3e 69c7 79be a7d1 8fbe 9841 ca3c
00000090: 1b1c ae3e ac78 4b3d 2ef1 733d 3a9d 0dbe
000000a0: d935 923e b680 4c3d 6d1b 863e 0201 5a3d
000000b0: 468f 98bd bd81 163e 795f 9ebc 3262 393e
000000c0: e914 583d c557 ac3d 52ec 80be c3e2 15be
000000d0: 2fb4 7c3d dfeb 1dbd 717a 803e 2c21 173e
000000e0: 1d94 abba bae9 afbd 4c2c 663e 2f30 2c3e
000000f0: 0942 9cbd 2599 513e b2a1 6b3e e337 963e
00000100: 8337 29bd f6b2 7b3d 1f99 ba3d 282c ec3d
00000110: 2a6e d4bd 94d4 0bbe 2154 453e 4a5a ea3c
00000120: 6ea3 173e 0c32 bc3c cadb 413d 6ff2 1b3d
00000130: a977 b33d ad44 e43d 8d91 3cbe b560 d23d
00000140: 973f 1dbe 10f7 16be 108b f63c ec6c 783b
00000150: 2421 3b3e d751 04be 3a76 2dbe 92c4 453e
00000160: be9f 483d 9dfc 4e3e a4be 823d 22b8 fbbd
00000170: 212b d33d 6dce f83d 686b a7bd e45b b6bd
00000180: 9df2 ce3d 5578 aa3d 3b9a 43bd 7e07 56bd
00000190: c8ac 763e d66c d73d 4b5c 803e a04f 2e3e
000001a0: ec26 fabd 03ea 89bd 08b5 e63e e9d8 8d3e
000001b0: d13c 943e c9a2 de3d 3bad 903e 3699 033f
000001c0: 3445 fa3e c34a c53c 9f36 e13d b39b bf3e
000001d0: 47b6 e03e 3df7 b23e 93e3 74bc b5c9 38bd
000001e0: 9f58 f6ba 9db2 1f3e 0901 9b3e b7e2 b5bc
000001f0: e4be 5f3e a85e e5bd 4bd3 1dbe a9df d63c
00000200: 09a3 793e 8901 9b3e acdb 97bd b696 283e
00000210: d7ad c33e ffe2 cc3e fd7b a23e 7ece 803e
00000220: db02 953e 8c47 963e f0d7 0a3e 99b2 9e3c
00000230: 1423 6cbc ff5b a53d 291b 273d 96b9 8e3e
00000240: 58c0 633e 85bb d8bc 6cb5 cf3d fec3 083e
00000250: 17b0 753e 8716 793e
0.1424457 -0.05166299 -0.03199649 0.07421191 -0.21486717 0.18657318 0.037477486 0.1697497
0.06987979 0.00013162666 0.10964287 0.09350212 0.16691953 0.0065227356 0.054030478 -0.030929966
0.043783486 0.041200325 0.23816657 0.14241356 -0.13354167 -0.17355472 -0.06327667 -0.07631883
-0.01828144 0.10473041 0.26051393 0.18969624 -0.21986586 0.049392685 0.16471332 0.34717858
0.1985309 -0.24392475 -0.2808964 0.02468948 0.34005818 0.04967563 0.05955618 -0.13829508
0.28556708 0.049927436 0.261928 0.053223617 -0.07449202 0.14697929 -0.019332634 0.18103865
0.052754316 0.08415178 -0.25180298 -0.14637284 0.061695274 -0.038555022 0.25093415 0.14758748
-0.0013090406 -0.08589502 0.22477835 0.16815256 -0.07629783 0.20468576 0.230109 0.29339513
-0.041312706 0.061449967 0.09111237 0.1153186 -0.103725746 -0.13655311 0.19270374 0.028607506
0.14808437 0.022973083 0.047328748 0.038073 0.08763058 0.11145911 -0.18414898 0.10272352
-0.15356289 -0.14742684 0.030095607 0.003790672 0.18274361 -0.12921844 -0.16939631 0.19313267
0.048980467 0.20213552 0.06384018 -0.1229098 0.103109606 0.121487476 -0.08174783 -0.089042455
0.101048686 0.08323733 -0.047754508 -0.05225324 0.24089348 0.10518806 0.25070414 0.17022562
-0.12214455 -0.06734087 0.4505999 0.27704552 0.2895265 0.108708926 0.28257164 0.51405656
0.48880923 0.0240835 0.10996746 0.37423477 0.43889067 0.34954253 -0.014946836 -0.045114238
-0.0018794722 0.1559548 0.30274227 -0.022202833 0.21850163 -0.11199695 -0.15412633 0.026229696
0.24378599 0.3027461 -0.07414946 0.16463742 0.38218567 0.40016934 0.3173522 0.2515754
0.2910374 0.2935146 0.13558936 0.019372271 -0.01441266 0.080741875 0.040797386 0.27875966
0.22241342 -0.026456604 0.10142025 0.13356015 0.23992954 0.24325

feature_extractor.0.bias f4 [6]
00000000: f1a8 16bd d391 763e 04c6 933c 85dc d03c
00000010: b26b 50bd c5b5 863c
-0.03678221 0.24079065 0.018038757 0.025495777 -0.050883956 0.016444096

feature_extractor.3.weight f4 [16, 6, 5, 5]
00000000: 25ab 15bd 6b31 f5bc a4e0 6f3d 70f6 c5bc
00000010: 0a2f 5cbd 57b9 4b3d 5fc2 3b3d 1a54 893d
00000020: 5a66 12bd b9c1 c63c 3826 03bd 42d0 37bc
00000030: 3688 8abd d77d 37bd fae0 fcbc ca39 073d
00000040: 3f6e 953c d389 623c e7e9 8e3d 6521 953d
00000050: bd81 6a3d 7b01 ac3b 95c1 88bd bf43 583d
00000060: 93a2 8ebc 8e86 76bc 3eb5 43bd 492f bd3c
00000070: 5ca0 2fbd 3569 893d 2f16 c7bd 0bfc 04bd
00000080: 9a0b 123d 9bad 3fbd 5b9e 5d3c 340d 50bd
00000090: ecfa 94bc 7cf7 1b3d 70c7 2d3d 71bf a4bd
000000a0: 072e 083d 6e62 b93d 2f93 ca3d 7d43 b0bd
000000b0: 4c56 a5bb b153 9abd 7b74 c33d 68c7 3fbc
000000c0: 45c7 4c3c 08fa 2bbc 0d4c 11bc ba48 cd3b
000000d0: d271 3b3c caab 0a3d b88f 523c 41b0 fb3c
000000e0: c67c 70bd 7230 6f3d 63df 883d 8998 923d
000000f0: aaa2 903d 941c 25bd 7a2f 29bd 0048 503d
00000100: 7208 89bd cd82 b23d d1bf 90bd 41bc 9cbd
00000110: 7659 6c3c bb9c 79bd 88a3 7abc e7af 803d
00000120: 7348 3c3d d398 8e3d 106b 39bc f20c 89bd
00000130: 64e5 9f3d a9f6 b5bc 12d3 1cbd 6b17 ab3c
00000140: 6fa6 58bd 4507 613d 2cb4 323d ded0 95bd
00000150: 3ae1 84bd 304e 8a3b e767 013d cca7 2ebc
00000160: 3c1b 4bbd d41c 6d3b 425d 97bd 2693 67bd
00000170: 20d3 8abd 10d1 833d 1da5 9a3d 0358 e4bc
00000180: 6f33 7c3b 55a7 ee3c df33 4d3c 4801 17bd
00000190: ded2 3b3d c9f7 c13d d14a 3a3d ae14 b6bb
000001a0: 115e ae3d ab7c 9d3d c5f9 9f3c 1008 183e
000001b0: 0e6e 773c 28cd 60bd 248b 843d 2563 29bc
000001c0: 77a4 e13d 378f c6bd d484 73bc 06de ce3c
000001d0: 7c3c 8a3d cc4e 3f3d eff1 ccbd 6345 8abd
000001e0: 4bf6 a6bd e71d 9c3c de0b f4bc ef90 33bd
000001f0: 39d3 84bc bcf5 853d f689 f23d c9e2 e93c
00000200: ce1a 00bd 5326 aabc d976 02bd 3500 ee3d
00000210: ca9e 8abc 4638 593c e4e9 e23c 06c4 b5bc
00000220: 6036 a93d 5469 a83c fb73 eebc aec1 38bd
00000230: 8757 04ba b102 7dbb aef2 c9bd 11d9 abbd
00000240: 7f95 21bc b979 973b 1544 013d 53ed 86bd
00000250: 24ff ddbc c56d 80bc 3019 9bbd cf96 a53d
00000260: fc50 f23c 8efa aa3d 0a6e 833b e7a2 a6bc
00000270: da0a 77bd 67f7 86ba ec38 8c3d fcab 9ebd
00000280: e0f8 eabc 66e9 6a3d 8414 793d abbb 2c3d
00000290: 8634 61bc 3d88 d0bc cbe5 2bbd f2c9 32bd
000002a0: af84 523d 58bc 2e3a b4de 02bd ba6c d03c
000002b0: 5298 4fbd df9d c93b fe99 893d 9669 753c
000002c0: 33f7 a03d adff 3bbd 7d40 8f3c d7cf 86bc
000002d0: f2d2 33bd c485 d8bc 071d 933d 05f8 4b3d
000002e0: bfc1 42bd 5a9b 3abd 9e04 9abd e837 ce3d
000002f0: 22a7 603c 5bd3 7e3b cfb5 99bc 5f6d 77bd
00000300: a177 afbd 12a8 a1bc 82ab be3d bd2e b43c
00000310: 0177 06bd d6db 1fbb 6e55 973d dfee aa3d
00000320: 6439 9a3d fd86 c73c f90d 693d 8c41 383c
00000330: 68a8 66bd f0b4 89bd 1bf7 9c3d 56dc 483b
00000340: 0747 a53c 590d f5ba 9e2b 5ebd 6e1e ffbc
00000350: 546f 0b3c 6fa0 cebc d314 89bd 180f 283c
00000360: 9dbf dbba d9de 873b da86 8b3d 7997 203d
00000370: b264 abbc a77f 013e e027 e63d 8a9c 053d
00000380: eb27 77bc 46c7 8bbd 9471 933d db73 4fbc
00000390: d535 72bd 45db 623d 4990 393d b87d 323d
000003a0: 222a 54bc 15ac 19bd 8c7c 863c 9c11 903d
000003b0: e46f 423c ddf1 f6bc 71bf b03d b31d 473b
000003c0: 18d2 733d 02e6 0e3d eac2 df3d be96 8d3d
000003d0: 1196 27bd cf11 963d 945f b53c 2902 6dbd
000003e0: dedb e5bc 7e8d 9cbd 5f85 9fbd c932 9fbd
000003f0: adc2 8e3d a33e 9b3b 1eed 93bc 6e17 483d
-0.03654017 -0.02993079 0.058563843 -0.024165362 -0.053755797 0.0497373 0.045839664 0.06705494
-0.03574214 0.024262296 -0.03201887 -0.011219086 -0.067642614 -0.044797745 -0.030868996 0.033014096
0.018241046 0.013826805 0.06978207 0.0728176 0.057252634 0.0052492 -0.06677548 0.052798983
-0.017411506 -0.015046729 -0.047780268 0.023093836 -0.04287754 0.0670952 -0.09721028 -0.03246693
0.035655595 -0.046796422 0.013526524 -0.05079384 -0.018186055 0.038077816 0.042426527 -0.08044327
0.03324702 0.09051977 0.09891354 -0.08606622 -0.005045688 -0.07535494 0.09543701 -0.011705257
0.012498681 -0.010496624 -0.00886823 0.006264773 0.011440711 0.033855237 0.012851648 0.030723693
-0.058712743 0.05839581 0.06683233 0.07158 0.07062276 -0.040310457 -0.041305043 0.050849915
-0.06691064 0.087163545 -0.07067836 -0.07653094 0.014425626 -0.060940485 -0.015297778 0.06283551
0.04596753 0.06962743 -0.01131703 -0.06691922 0.07807425 -0.022212343 -0.03828723 0.02088519
-0.0528931 0.054938573 0.043628857 -0.07315229 -0.06488271 0.0042207465 0.03159323 -0.010660123
-0.04958652 0.0036180513 -0.073908344 -0.056536816 -0.0677855 0.0643636 0.07551024 -0.027873999
0.0038482805 0.029132525 0.012524574 -0.036866456 0.045855395 0.094710894 0.045481507 -0.0055566644
0.085140355 0.07689794 0.01952828 0.14846826 0.015101923 -0.054883152 0.064718515 -0.010338579
0.11017697 -0.09695285 -0.014863212 0.025252353 0.06749818 0.046706006 -0.10007083 -0.06751516
-0.081524454 0.019057227 -0.029790815 -0.04383939 -0.016214 0.06541011 0.1184272 0.028550522
-0.031275563 -0.020770228 -0.031851623 0.11621133 -0.01692142 0.013258046 0.027699418 -0.022188198
0.08262324 0.020558037 -0.029108038 -0.045106582 -0.0005048443 -0.003860634 -0.098607406 -0.083910115
-0.009862303 0.004622665 0.03155907 -0.06588235 -0.0270992 -0.015677342 -0.075731635 0.08085405
0.029579632 0.08348571 0.0040109204 -0.02034135 -0.060313083 -0.001029712 0.068467945 -0.07747647
-0.028683126 0.057351492 0.06081058 0.04217116 -0.013745433 -0.025455588 -0.041967195 -0.04364962
0.05139607 0.00066656386 -0.031950668 0.02544247 -0.050682373 0.006152853 0.06718825 0.014978787
0.078596495 -0.04589813 0.017486805 -0.016456528 -0.043902345 -0.026430972 0.07183271 0.049797077
-0.047548052 -0.04555831 -0.07520412 0.10069257 0.013711723 0.0038883302 -0.01876345 -0.06040704
-0.08567739 -0.019733462 0.09310056 0.021994943 -0.032828335 -0.0024392507 0.07389341 0.08346342
0.07530478 0.02435636 0.05689809 0.011246096 -0.05631295 -0.06723964 0.07664319 0.0030648909
0.02017547 -0.0018695995 -0.054240815 -0.03114244 0.008510429 -0.025222985 -0.06693425 0.010257505
-0.0016765479 0.0041464386 0.0681283 0.039206956 -0.020922039 0.12646352 0.11238074 0.03261999
-0.015085201 -0.06825118 0.07199398 -0.012661899 -0.05913337 0.055384893 0.045303617 0.043576926
-0.012949498 -0.037517626 0.01641681 0.07034609 0.011867497 -0.030144626 0.086302646 0.0030382692
0.059526533 0.03488732 0.10925849 0.069135174 -0.0409146 0.073276155 0.022140302 -0.05786339
-0.028058942 -0.07644175 -0.077891104 -0.077733584 0.06970725 0.0047376915 -0.018057402 0.04885047

feature_extractor.3.bias f4 [16]
00000000: e0c1 a9bc c516 2abd bb40 b13b 7523 fb3c
00000010: 9284 3d3d 05fd 9cbc a2e0 2b3c 1f97 18bd
00000020: 1303 84bd de2e 43bd d041 48bd f902 4ebd
00000030: 042d 903c ffc1 c8bc 4d53 8a3d 807b a83d
-0.02072233 -0.04152562 0.005409328 0.030656556 0.046269007 -0.019163618 0.010490568 -0.037253495
-0.06445899 -0.047652118 -0.04889089 -0.050295804 0.01759959 -0.024506567 0.067541696 0.08226681

feature_extractor.7.weight f4 [120, 400]
00000000: 0f92 30bd 43f4 3e3c 3345 f73c 16bc 42bd
00000010: 8c07 96bc 08e0 063d 574a 17bd 2a96 3d3d
00000020: b317 97bb 2861 623c 02c8 453d 8aaa 05bd
00000030: 6a6c 303d ab3e 28bd d613 233d 1918 93ba
00000040: 53af 2a3d 2795 3cba 850a 28bd c6c7 993c
00000050: a8aa f83c 3e4e 2dbc a546 5dbd 951c e4bb
00000060: 10ca 183c c1a8 0c3c 12c7 f93c ef6e c3bb
00000070: 9521 f43a dad0 e23a 9921 c83c eef5 c23c
00000080: 2b63 b53c bc42 d13b 50ab 2d3c 70a9 163d
00000090: 8e25 5f3c dc1e 1fbd e72e 663c 6418 613d
000000a0: b649 64bc bf9a f73c 7466 3fbd 67cc 54bb
000000b0: 6092 cf3c c2c5 18bd 9fed 68bc d7cd 69bb
000000c0: 3659 4cbc eba3 fbbc 5ff9 173d 86ed b1bb
000000d0: 6e0c 92bc d6be cf3c 5a12 223c ae87 76bc
000000e0: f297 063d 2faa 9dbc 2534 543d f296 073d
000000f0: 91f0 5f3b a976 993c b755 13bc be40 febc
00000100: 9a5c c1bc 7356 6e3c 0301 ad3c b21a e6bb
00000110: 1677 4dbc ce3f a5bc 0360 cebc c547 a1bc
00000120: 6797 0b3d 1a54 4bbd 7c95 a33c 2115 ef3c
00000130: 933a 15bc 0914 8c3b 14fe a1bb 3c92 29bd
00000140: 0840 363c b9d7 8dbc d2b8 b53c b3da 8c3b
00000150: 15ac e5bc 5db7 6bbd 20ff e43c 4cd2 463d
00000160: 3516 093d 78d7 a63c c56f 363c 288f a63c
00000170: 65b9 f43c 7f53 c7ba 4319 b6b9 c0b7 223c
00000180: f0c0 db3c 4efb 03bc 252e 033d 6205 f53c
00000190: 8a6c f4bc 5fd7 44bd b334 7cbc fed3 f6bc
000001a0: 20ee 603d 626c abbc 12af 12bd 88a3 9a3c
000001b0: 13f6 b13c 7ae9 be3c ce06 383d 5769 61bd
000001c0: 732e ce3c 80ce 88bc 1170 5f3c 5bb7 f8bc
000001d0: 5717 5a3d fc67 24bc 55a3 5c3c 3bc5 2fbd
000001e0: 3309 933c 178d 19bd ef6c 293c 0a61 403d
000001f0: 407e 143d ca47 d03c 0424 9dbc 26f2 ed3b
00000200: a42f ff3b a951 63bd ae76 bb3c c9dc 1cbd
00000210: 4481 a13c f5af 513d 404a 86bc a509 5c3c
00000220: a919 5c3d c566 4f3d 3552 6c3d 548b bbbc
00000230: 268e 783b 7a7b 50bd ffa0 9f3a 5786 52bd
00000240: 9b83 813b 6534 853c 56d5 49bd dfc3 a1bb
00000250: 141f d4bc 7a4c fe3c 6864 1abc 904d b63c
00000260: dd13 04bd 103f b83b b32e 033d a04d 873b
00000270: 8154 44bc 8626 c0bc bef2 af3c c9e4 8f3c
00000280: ea07 203c cd16 1b3d 31d5 bdbb fdde 88bc
00000290: ba29 6b3c 87db ea3c 6e87 79bd abc3 f3bc
000002a0: bab3 c53b dac2 153d 39e7 db3c efba 1e3c
000002b0: 42e4 59bd cf1f 06bd 8a97 ad3c eb9a e13b
000002c0: d779 c73c a9d5 1b3d 88f6 d33c 7077 b3bc
000002d0: 837c e4bc 3799 50bc 3b1a 2cbb 475d d1bb
000002e0: a1c4 3bbc 9540 293b 1bf7 043d 2915 fcbc
000002f0: a9f9 c03c f43e 40bd 461c 2739 097c 41bd
00000300: 9f0e 323d d169 1dbd 5108 c4bc ac5b a83c
00000310: 136e 923c 4b41 1a3d 848c 6a3c 7f1f 2cbd
00000320: 630d 0fbd a1b3 0b3d 80d5 46bd a577 373d
00000330: 4928 09bc 04d8 143c 7412 0cbb 8c8d 4cbc
00000340: c5c8 47bc 4be3 6f3c d738 0fbc 9247 0a3c
00000350: 2b3c 2b3d bb27 943b 142d 1fbd 05af 19bd
00000360: ab10 043d 91a4 8e3c 3d30 1d3c 7f56 c8bc
00000370: d79d 26bd 1395 313d d396 3fbd 4fa0 c8bc
00000380: cf55 a93c 4e53 243d eb8f b1bb fbb3 21bd
00000390: b2f8 943c ed8d 9c3b 43f7 aabb 73b5 44bd
000003a0: 551a 213d 33bf 053c 9908 b13c 0a0d 943c
000003b0: 147d 243d 00de c0bc 5134 72b9 77a3 25bd
000003c0: 7edd 5cbd 93e5 b2bc 1a55 9f3c 6be3 eebc
000003d0: f84f 023d 8ae6 fb3b bff1 9fbc 5d04 c33c
000003e0: 4abd 0b3d 3792 b2bc 2a2b eb3c 4651 e23c
000003f0: 6b26 1d3d f182 f3bc cca5 573d fcd6 873b
-0.043108042 0.011654916 0.030184364 -0.047542654 -0.018314146 0.032928497 -0.03693613 0.046285786
-0.0046109795 0.013817109 0.048286445 -0.03263334 0.04307214 -0.04107539 0.03981384 -0.0011222392
0.04167111 -0.0007193856 -0.041025657 0.018772017 0.030354813 -0.010577736 -0.05402245 -0.006961415
0.009325519 0.008585156 0.030490432 -0.005964152 0.0018625731 0.0017304674 0.024430083 0.023798909
0.022142014 0.006386129 0.010599926 0.036782682 0.013619794 -0.03884779 0.014049268 0.0549549
-0.01393359 0.030225156 -0.046728566 -0.0032470466 0.025338352 -0.03729797 -0.0142168095 -0.0035675669
-0.012472441 -0.03071781 0.037103053 -0.0054299263 -0.017828193 0.025359552 0.009892071 -0.015046997
0.03285975 -0.019246189 0.05180754 0.033102937 0.0034170488 0.01873334 -0.008992604 -0.03103673
-0.023603726 0.014546978 0.021118646 -0.0070222253 -0.012540599 -0.020172026 -0.025192266 -0.019687543
0.034079935 -0.049640752 0.01996874 0.02918488 -0.009108203 0.0042748493 -0.0049436186 -0.041399226
0.011123665 -0.017314779 0.022182856 0.004298532 -0.028036157 -0.057547916 0.027953684 0.0485404
0.033468444 0.020366415 0.011135046 0.020331934 0.02987356 -0.0015207379 -0.00034732567 0.009931505
0.026825398 -0.008055521 0.03202643 0.029909793 -0.029836912 -0.048056956 -0.015393424 -0.030130383
0.054914594 -0.020925704 -0.03581149 0.018876806 0.021723783 0.02330469 0.044928364 -0.0550321
0.025168633 -0.01670003 0.013637559 -0.030360868 0.053244915 -0.010034557 0.013466676 -0.042912703
0.017948722 -0.03748807 0.010340913 0.046967544 0.036253214 0.025424857 -0.019182213 0.0072615324
0.0077876616 -0.0554978 0.02288374 -0.038296495 0.019714959 0.051193196 -0.016392827 0.013430034
0.05373541 0.050635118 0.057695586 -0.022893585 0.0037926524 -0.050899006 0.0012178718 -0.051397648
0.003952456 0.016260335 -0.04927572 -0.0049366797 -0.025893725 0.031042326 -0.009423353 0.022253782
-0.032245506 0.005622752 0.032026958 0.0041291267 -0.011983038 -0.02345587 0.021478053 0.017565148
0.009767512 0.03786354 -0.0057932367 -0.016707892 0.01435321 0.028669132 -0.06092017 -0.029756388
0.006033388 0.036562778 0.026843654 0.009688123 -0.0531962 -0.03274518 0.021190424 0.0068849227
0.02435009 0.03804556 0.025874391 -0.021907538 -0.027891403 -0.012731842 -0.0026260752 -0.0063892934
-0.011460454 0.0025825847 0.03246222 -0.030771809 0.023556547 -0.046935037 0.00015936894 -0.04723743
0.043470975 -0.038430993 -0.023929747 0.020551525 0.017874753 0.037659924 0.014315728 -0.042022225
-0.034924876 0.034106854 -0.048543453 0.044791836 -0.008371421 0.009084705 -0.0021373304 -0.012484919
-0.012193863 0.014641593 -0.008741579 0.008439915 0.041805428 0.004521338 -0.03886135 -0.037520427
0.03224246 0.017412456 0.00959402 -0.024455307 -0.04067787 0.04335506 -0.046774697 -0.024490504
0.0206708 0.040118508 -0.0054187677 -0.039478283 0.018184993 0.004777661 -0.005217464 -0.048024606
0.039331753 0.008163261 0.021610545 0.018072624 0.040158346 -0.023543358 -0.00023098408 -0.040439095
-0.05392217 -0.021837985 0.01944976 -0.029161176 0.031814545 0.0076873945 -0.019524453 0.023805792
0.034116067 -0.021798236 0.028707106 0.027626645 0.038366716 -0.029725524 0.05264835 0.004145501

feature_extractor.7.bias f4 [120]
00000000: ed91 aa3c db8c 113d 9e7f ad3c 3999 063d
00000010: e6f3 2b3d 8979 fabc 638a 183d 4d70 bcba
00000020: d8c7 f3bc dc21 843b ef62 bd3c 2312 e2bc
00000030: 1ba5 17bd 4fda 49bd 30d6 d9bc 144e 24bd
00000040: 62fe f23c e9ee adbc 5a6e 36bd d826 ecbc
00000050: 953b 2abc 2a33 fb3c 6e19 123d 7c3f 883c
00000060: 3e3f 2d3d 0204 21bd f285 aabc 8ecb 173d
00000070: ea3f 84bc 2621 6f3c 0867 56bc 7f1a cc3c
00000080: 9291 45bd a738 c53c 8a70 e3bc 0218 e4bc
00000090: 3637 193d 982d d1bc b27c d53b c661 8f3a
000000a0: 7cb0 14bd 9783 e33c acae 15bd b7ff 90bc
000000b0: 464c 45bd 2019 3dbc b7c4 833c 4eef 573c
000000c0: c9c4 bd3c 8eec 8abc dba3 993c 3b8b 49bc
000000d0: 3e44 283d 948f f0bc 405a 23bb d60f b33a
000000e0: d0bf 143d 0d31 70bc 3df3 1ebd 6ce5 813c
000000f0: 8338 423d cf6b 06bd e1fd 87bc 4cfb 70bc
00000100: 0358 0b3d cec8 df3b 0a57 2cbd c15c 1d3d
00000110: d6d1 56bc f451 40bd c98b 413d 408a 2bbc
00000120: b0ba ae3c 6790 6cb9 51ec 163d b263 afbc
00000130: 4ff5 71bc 0a34 c3bc 99a7 01bd 1bfb 01bd
00000140: 1be7 e23c a425 08bd 1d89 1338 2c2f fa3b
00000150: 4496 553d db07 91bc e2c3 83bc ca2d d73c
00000160: 751d 3b3c 6e82 bc3c 414e 2a3d 7b89 26bd
00000170: f7f5 5b3c 2525 5a3a 8932 39bd 04d6 cdbb
00000180: 5f88 733c 7593 eb3c 37de 273b 7d27 0cbd
00000190: 8e64 54bc 83cf 323d e068 cb3c 1a6f 14bd
000001a0: 6c2e 5c3c ed4c 21bc 39e6 373c bccb 023d
000001b0: dcc1 d8bc c8f8 01bb 3547 263d 142c e0bb
000001c0: b87f 483d 4cc9 5bba c189 103c 383e 0dbc
000001d0: e517 b03c dab1 72bc ef90 573d 4635 373d
0.020821536 0.03553472 0.021179017 0.03286097 0.041980647 -0.03057553 0.03724135 -0.001437673
-0.029758379 0.0040323567 0.023118464 -0.027596539 -0.03702269 -0.04928046 -0.02659139 -0.040113524
0.029662315 -0.021232085 -0.044538833 -0.028827116 -0.010390182 0.030664045 0.035668783 0.016631834
0.04229664 -0.039310463 -0.020815823 0.03705936 -0.016143758 0.014595306 -0.013086088 0.024914978
-0.04823453 0.024074866 -0.027763624 -0.027843479 0.03740617 -0.025534436 0.006515109 0.0010939173
-0.03630112 0.027772708 -0.036543533 -0.01770006 -0.048168443 -0.011541635 0.016085012 0.013179613
0.023165124 -0.016958501 0.01875489 -0.012301262 0.041080706 -0.029365338 -0.002492562 0.0013661336
0.03631574 -0.014660132 -0.03880619 0.015856467 0.047417175 -0.032817658 -0.016600551 -0.014708351
0.03401948 0.0068293577 -0.042075194 0.038418535 -0.013111552 -0.046953157 0.04725245 -0.010469973
0.021329254 -0.00022560508 0.036846463 -0.021409843 -0.014767959 -0.023828525 -0.031653974 -0.031733613
0.02769809 -0.033239022 3.5175228e-05 0.007635018 0.052145258 -0.017703941 -0.016084615 0.026266951
0.011420597 0.023011412 0.041578535 -0.040658455 0.013425342 0.0008321575 -0.04521421 -0.006281616
0.014864056 0.028756836 0.0025614628 -0.034217346 -0.012963427 0.04365493 0.024830282 -0.036238767
0.013438802 -0.009845001 0.011224323 0.031932577 -0.026459627 -0.0019832123 0.040595252 -0.006841192
0.048949927 -0.00083841826 0.008821906 -0.008620791 0.021495769 -0.014812911 0.052628454 0.04472854

classifier.0.weight f4 [84, 120]
00000000: 1f3f 6c3c 9650 5fbd f366 bf3c 04d2 99bb
00000010: d0a7 9cbd 633c 073d 9881 7dbd b8ce 34bd
00000020: 01fd 8ebd 54f9 843d ed88 673d bddc 5abd
00000030: 965f 893d c554 8bbd c4c3 063c 6079 72bd
00000040: e198 803d baaa 18bd 2756 33bc 7df4 163d
00000050: 78e2 a9bd ee56 893d 1ad4 bf3b 32d4 5fbd
00000060: 9d25 103b 2407 14bd d311 9c3c 72f0 683d
00000070: 9532 a8bd 604f 8f3d 63e0 c8bc 73b6 9b3d
00000080: 76cb ad3b 8050 153d 1a3e 33bd 7bbd 8e3c
00000090: 4185 733a d186 9abc b411 29bd 536a 1b3b
000000a0: bcd0 c5bd 7d39 57bd eb95 d3bc 0b8a 163b
000000b0: a6e4 71bd 7862 2cbd d9bf 783c 1906 8e3b
000000c0: b599 9f3c 97fb 49bd 75ce 953d 02e8 babc
000000d0: ae0d adbd 595a 623d b514 063c dbb1 febb
000000e0: 7b47 a8bd 7348 37bd 9fe4 4c3d f93c 80bc
000000f0: 25b9 5ebd 8475 8c3d 9346 97bd 450a 923d
00000100: d4fc fabc 43ec 1c3d 0714 393c c09f d23d
00000110: bbef ee3c 1b82 c9bb 6adc af3d 2f47 94bd
00000120: 0abb 843c 0803 eb3c 2721 57bd 9d04 5dbd
00000130: cac6 3ebd 605a 44bd b5c7 51bc 2899 66bd
00000140: 7831 843d c689 0cbb 2c2e c73d 337e 803c
00000150: 45b3 94ba 3f46 023c f3dc 25bd af4e 14bd
00000160: 0426 1c3d 9cfd 38bc d00c 163c e797 e4bb
00000170: e7cc c03d 7bfe d0bd 10f8 73bd 7c55 43bd
00000180: 5edc e4bc e574 923d 3ded 7f3d bb17 60bd
00000190: d812 dabc 90d7 d03d 82b0 99bd 2f0d 1a3c
000001a0: d8c1 0c3d 5432 343d c5c2 d03d 3d84 733d
000001b0: d8a3 5b3c a6b7 b4bd dcc3 26bd af04 7dbc
000001c0: 4635 88bd 03d8 15bd 36ff a93b 2cea 10bd
000001d0: ce62 5b3c 5708 1b3d 83a2 823d de84 8ebd
000001e0: 8b63 a53d 43a6 143d ce8a f13b b5ae d3bc
000001f0: e4a5 e2bc 961d 843b ee98 41bc 4567 b1bd
00000200: c50e 6c3c 9d0d 76bd e88d 9dbd cd51 5c3d
00000210: c596 82bc 7bf9 c3bc f736 4cbc c020 1ebd
00000220: 0fe4 403d eedc 51bb 3527 25bd 719a ab3d
00000230: 6590 863d 5155 8a3d 3da4 b9bd e577 953c
00000240: 7c54 6e3b bb0d a03d 11e2 c73c 79cf 933c
00000250: 171f 763d b39c 223d 27d5 a7bd daee b2bd
00000260: e0c3 50bd fc04 a2bc 58ca b23c 64f4 6a3d
00000270: 893b a9bd 2aca 61bc 9005 92bd 7f50 a13d
00000280: 98b9 713d b29d 563d 6517 2fbc 348b 6bbd
00000290: 910d 3cbd 9dcb a1ba c5fe 2a3a ddb3 06bb
000002a0: 4873 9e3d 125a 41bd 9099 8e3d 4b2a 253d
000002b0: 59aa 93bd 39be 2abd ec68 62bd be12 463a
000002c0: 920d 463d a539 533d 3454 9ebc 425f a03d
000002d0: 6b6e 2f3d 5588 5e3c 5829 97bd 4d1a 9ebd
000002e0: 7ca7 693d 1228 473d 6074 33bd bf93 8bbd
000002f0: 405a 8f3b ee68 aabd 9327 7b3d b557 433d
00000300: 213f ce3c ba55 86bd 16c6 5dbc 09f3 3dbd
00000310: 055b 3b3d 89af b13d 2a7f 203b 370a c0bc
00000320: 6081 803d 36a6 adbc 01bd 2bbd 1d48 9cbd
00000330: 226f 493c fd3d 933d 326a 683d eab3 003d
00000340: f05d 7f3d 24cf 94bd 80e9 b63d 9e2d f5bc
00000350: 509a b5bd 3d4f 2a3d c10c bb3c 7e6e 96bc
00000360: fb17 b1bd d0f1 803a aa1a 3cbd 5d62 5cbd
00000370: df1f a73d 26e1 2d3d 2852 a3bd 038f 20bd
00000380: 8d6e 34bd 55e1 a7bd 37da 96bd 5767 b93d
00000390: 475c dd3b 4dc2 973d 5c4d 773c aded b33d
000003a0: ca02 62bd 7589 b73c 95c0 39bd f693 043d
000003b0: 12f1 8f3d c12e 8c3d 7836 7cbd 328e 66bb
000003c0: 0eee 503c d11e d33c 0ce5 18bd 2047 083d
000003d0: b18b 92bd 1b74 0fbd 8111 a0bc ac97 7dbc
000003e0: 0270 a1bd 34eb 703d 897a 35bc 4090 313d
000003f0: 78d9 e5ba 8307 a53b 9b7e aa3d f071 8b3d
0.014419346 -0.054520212 0.02336452 -0.0046942253 -0.07649195 0.033016574 -0.06189117 -0.044142455
-0.069818504 0.06492868 0.056527067 -0.05343317 0.06707685 -0.06803278 0.008225385 -0.059197783
0.06279159 -0.037272193 -0.010945833 0.036854256 -0.082951486 0.06706034 0.005854142 -0.054645725
0.0021995076 -0.036139622 0.019051468 0.05686993 -0.08212773 0.069975615 -0.024521058 0.07603159
0.0053037954 0.036453724 -0.043760397 0.017424336 0.0009289571 -0.018863114 -0.04127665 0.0023714497
-0.096589535 -0.05254506 -0.025828322 0.0022970464 -0.059055947 -0.042086095 0.015182459 0.004334223
0.019482473 -0.0493122 0.07314769 -0.022815708 -0.08449875 0.055261943 0.008183648 -0.007772667
-0.08216759 -0.044746827 0.050022718 -0.015654074 -0.054375786 0.06858352 -0.07386508 0.07130865
-0.030638136 0.038311254 0.011296279 0.10284376 0.029167047 -0.006149543 0.085869625 -0.0724014
0.016202468 0.028687969 -0.05252185 -0.053959478 -0.0465763 -0.04793775 -0.0128039615 -0.056298405
0.06454748 -0.0021444424 0.097256035 0.015685176 -0.001134493 0.007951318 -0.040493917 -0.03620785
0.038122192 -0.011290934 0.009158328 -0.006976116 0.09414082 -0.10204788 -0.059562743 -0.047688946
-0.02793711 0.07151202 0.062482107 -0.05471013 -0.026620314 0.10197365 -0.07504369 0.009402557
0.03436455 0.04399331 0.10193399 0.059452284 0.013405763 -0.08824091 -0.04071413 -0.015443011
-0.06650786 -0.036582958 0.005187894 -0.035379574 0.013390256 0.03784975 0.06378653 -0.06958936
0.08075627 0.036291372 0.007371283 -0.025840143 -0.027666993 0.004031847 -0.011816246 -0.08662275
0.014407818 -0.060071576 -0.07693082 0.05378895 -0.015941033 -0.023922672 -0.0124642765 -0.03860545
0.047092494 -0.0032022553 -0.040320594 0.08379067 0.0657051 0.06754554 -0.09064529 0.018245647
0.0036366275 0.07815119 0.024399789 0.018043267 0.060088243 0.03970022 -0.081949525 -0.087369636
-0.05096805 -0.019777767 0.021825 0.057361975 -0.082633086 -0.01378111 -0.07129967 0.078766815
0.059014887 0.052396484 -0.01068673 -0.0575058 -0.045911375 -0.0012344007 0.0006522949 -0.0020553984
0.07736832 -0.04720504 0.069628835 0.040323537 -0.072102256 -0.041685317 -0.055275843 0.00075558934
0.048352785 0.051568646 -0.01932726 0.07830669 0.042829912 0.013582309 -0.073809326 -0.0771986
0.05704449 0.0486222 -0.043812156 -0.0681529 0.0043747723 -0.08320795 0.061317038 0.047691066
0.025176587 -0.0655932 -0.013535997 -0.046374355 0.0457411 0.08676059 0.0024489858 -0.02344237
0.06274676 -0.02119742 -0.041928295 -0.07630942 0.0122945625 0.07189558 0.0567419 0.03142158
0.062345445 -0.072660714 0.08931255 -0.029928979 -0.088673234 0.041579474 0.02283323 -0.018363234
-0.08647152 0.0009837691 -0.045923866 -0.053804744 0.08160376 0.042451046 -0.079746544 -0.039198887
-0.044050742 -0.081972755 -0.0736584 0.09052914 0.006755385 0.07410107 0.0150941275 0.087855674
-0.05517844 0.022404412 -0.045349676 0.03236767 0.070284024 0.06844855 -0.061575383 -0.003517997
0.012752069 0.02577153 -0.03732781 0.033270955 -0.0715555 -0.035022836 -0.019539597 -0.015478056
-0.07882692 0.058818057 -0.011076578 0.04335046 -0.0017536124 0.005036296 0.08324929 0.06808841

classifier.0.bias f4 [84]
00000000: 118b f9bb 3bb8 b0bd e17a 2e3d 1efc b03d
00000010: 66c7 b43c 0aea 263d 3993 a23d 8778 5e3d
00000020: 3626 23bd fb0f 413d 1c3d 99bd 2310 bc3d
00000030: 7d1c 7b3d 9cd4 46bd 25e8 dfbc e7eb 63bd
00000040: d602 0fbd 84c8 6dbd b9a8 a9bd 494c 53bc
00000050: 2479 183d a6d2 673d 1cf7 f6bc d141 8abd
00000060: e1d1 5f3d 88e3 7e3b 87a3 c5ba 1507 413d
00000070: 8f6a d5bc d20a 313d 62b1 023d 60d7 65bc
00000080: 9706 233b 3050 c0bc dbb8 24bd 2975 c8bb
00000090: 5115 9abd 5c1c 91bd 5f0f 9a3a 83ca b1bd
000000a0: b946 17bc 1359 a6bd c04d fc3c d383 903c
000000b0: da99 2cbd 8484 52ba 18cb 383d 9ed6 9dbd
000000c0: a637 9cbd 0cbd b93c 6cb1 bd3c e525 393d
000000d0: 0bf2 4a3c ddeb babd b63c 48bd 2b9a db3a
000000e0: e637 33bd 576d 0cbd 10b5 a73c d326 56bd
000000f0: 197a 293c a84a ca3d ab98 b63d d4f9 3ebc
00000100: c1b9 6c3d 914c 98bd 5229 533d d2e2 443c
00000110: 8fb5 a63d 41d2 863d 4a20 acbd fd61 ae3d
00000120: 3659 873d 8409 9e3d b76e 5d3d 2ae3 36bd
00000130: 1516 6ebb c1c1 a1bb 90ba 303d 37fb 323d
00000140: 54bb 1abd 289f a2bc 457f 18bd 729a 673b
-0.007615455 -0.08628889 0.042597655 0.086418375 0.022067737 0.04075054 0.07938237 0.054314163
-0.039831363 0.04713438 -0.07482359 0.09182765 0.061306465 -0.048542604 -0.027332375 -0.055644896
-0.034914814 -0.058052555 -0.082841344 -0.012896606 0.037224904 0.056597374 -0.030147128 -0.06750835
0.054643515 0.0038892943 -0.0015078642 0.047125895 -0.026051788 0.04322321 0.031907447 -0.0140284
0.0024875754 -0.023475736 -0.040215354 -0.006117482 -0.07523597 -0.07085487 0.0011753849 -0.08681204
-0.00923317 -0.08122458 0.030798793 0.017640984 -0.04213891 -0.00080306106 0.04511556 -0.077069506
-0.076278016 0.022673152 0.02315589 0.045202155 0.012386809 -0.091270186 -0.048886023 0.001675432
-0.04375448 -0.034283962 0.02047208 -0.05228312 0.010344052 0.09877521 0.08915838 -0.011656243
0.057794336 -0.07436479 0.051553078 0.012016969 0.08140098 0.065830715 -0.08404596 0.085147835
0.066088125 0.07716659 0.054060664 -0.044650234 -0.003632908 -0.0049364273 0.04314667 0.04369661
-0.037776306 -0.019851282 -0.03723075 0.003533986

classifier.2.weight f4 [10, 84]
00000000: 18ff debd 50a8 b1bd 3cd8 c13d 349d edbc
00000010: 0bb1 143c 70c0 34bd f1c6 bd3b 22e9 cc3c
00000020: 364f a6bd 8db9 cd3d 050a aebd 1d65 b3bc
00000030: ccaf 573d c4ef debd 5456 c23d 5296 d33d
00000040: ec49 43be 5759 a9bc cf38 b6bd 3462 353e
00000050: 257e 07be ef37 25be d484 9dbd 97bf 783d
00000060: 8e2f b33c d2da ebbd ac68 ecbc 9af6 89bd
00000070: ca54 1f3e 9536 e0bd 4277 e33c dee9 673d
00000080: ea1d 35be fa0a e23c 2b8d 2abc 8ab1 c33c
00000090: f69f 73bd 7d50 0ebe 6c41 7ebb ead0 3cbc
000000a0: 9ecf 42bd 00ea 2c3e edfa 84bd 13c2 d6bd
000000b0: b3de b93c c301 e4bd f034 e63d afca 4c3e
000000c0: cf19 103e 8ae9 b93d 02b8 54be dd43 1c3d
000000d0: d155 22be 0b99 2abd 5b0c cabd 41a5 afbd
000000e0: b6f0 8e3d ed1b 9b3d 9345 423d 566b 503d
000000f0: e7df 3b3e 882f 703d 7a84 adbd a884 a13d
00000100: 2702 1cbd 5b0d 00bc dff8 473d 7661 383c
00000110: 15de 8c3d 4ae4 ebbc 85cf 70bd 4d36 8b3c
00000120: 9474 bd3d a618 21be caad 15be 05f1 fd3c
00000130: 6825 763d 8a20 b93c cad4 23be 82ba 0bbe
00000140: 5e02 8dba 3d3b 0e3d a6bf 3ebe 0ba1 dd3d
00000150: 38f4 e3bd d3ab 0a3d c0c9 debc 3493 c5bd
00000160: 2a96 c43c 1349 a83c 2a8e df3d d567 1f3e
00000170: 7aff 4c3e d4d6 0b3e e031 19be 3bd4 1e3e
00000180: e462 503e cad3 9bbd 02a3 fb3d bba2 7dbe
00000190: d70d 05be 641d d53d e802 ea3d 8c20 853c
000001a0: 4d19 c8bd 9f32 d3ba 2885 b03d 0a6f e63c
000001b0: 5c0b aa3d 555e 25bd 1695 b03d c34c 1abd
000001c0: c796 4e3d b2d0 213d a6d2 16be 4582 cd3d
000001d0: 7a38 d13d 6253 03be 95bd bfbb d8a0 d63d
000001e0: 3099 a13d 8b79 013e 5acf a83d f6aa 2ebd
000001f0: ec0f 273d 71cf d4bd b512 98bc d545 64bd
00000200: a3e7 8cbd fa0d 423e 3ab9 d3bd 8c90 253e
00000210: 1587 df3d 17db 983d 635e 053e 93b3 e0bd
00000220: 5d4a c33d d7c8 cabc 7b19 f1bd 7b6b 5ebc
00000230: 5314 fa3c 4202 b8bd e4ea 75bd 3e87 c13d
00000240: a019 8ebd 0994 e63d aa00 bebd 1015 01be
00000250: a360 ca3d a244 d33d 57c5 043e 5221 fe3d
00000260: 7fb3 283e 63d6 863d 29a6 1d3c 09dc fd3c
00000270: 5826 9a3d 4631 943d 4967 88bd 9b30 753d
00000280: 26b5 aabd 53d8 e5bd dffb e93c dac5 fe3d
00000290: 8a1d 2b3c 5bf6 073e 1b3f b7bd 6bd2 22be
000002a0: b97f c6bc 04a8 c9bd 6eeb 093e 5009 32be
000002b0: 6a2a ff3d 338a 1a3e 2ab5 bf3d 5e3e cf3d
000002c0: c934 173b 1501 3dbc 554e 133e fd30 afbd
000002d0: d429 00bd 7db8 913d 4e7d debd 366f 2a3d
000002e0: 5eaa 193e 9884 3d3d d7e7 cbbd 6077 a8bc
000002f0: 9956 36be 0f2d 883d e7d6 103e fe3f d33d
00000300: d752 c53b 9a96 a83d 51a2 e83d d72e 463e
00000310: 56e1 68bb 5de5 f43d bc00 b9bd 231a 5f3d
00000320: 8651 0bbe 4e27 c9bd 425b fabd 5c99 60bd
00000330: 356d a9bc 2906 aabd 27b3 4cbe da79 a43d
00000340: c0ce 8ebc 95a1 3c3d b713 253e fe85 ff3d
00000350: 5db2 2abe 0eba 88bd 5d73 66bd 715b 0d3d
00000360: ff49 6d3c 239e f43b dbfa d13c e7ee 4b3e
00000370: a6af 613d 214f ce3d 4a48 3abe 45ff fc3b
00000380: 5bb9 773d d437 9b3d 602d f9bd acdd 2abd
00000390: 7c40 b73d 3e1f 453d cc58 46be 1947 17be
000003a0: 7f08 4dbd 3a8a 3bbd 9784 06be 4641 d9bd
000003b0: cf00 523e 42a7 3dbd 991a 623d 8aa9 e73d
000003c0: ca30 0d3c a596 0abc 52c3 0f3e 2521 1a3e
000003d0: 1597 7f3c d9dd febc e901 ea3c dbc6 b5bc
000003e0: f9bb cdbd 3a06 6dbd 7452 113e c2b6 1bbe
000003f0: ca0d cf3d 1db7 39bb b717 8f3c 9614 dfbd
-0.10888499 -0.08674681 0.094650716 -0.029005624 0.009075413 -0.044128835 0.005791538 0.02501351
-0.08120577 0.10045157 -0.08498005 -0.0218988 0.052657887 -0.108855754 0.09489122 0.10331406
-0.19071168 -0.020672483 -0.08897554 0.17713243 -0.13231714 -0.16134618 -0.076913506 0.06072959
0.021873262 -0.11516346 -0.028858505 -0.06736489 0.15559688 -0.10947911 0.027766827 0.056619518
-0.17687193 0.027593125 -0.010409634 0.023888368 -0.059478723 -0.13897891 -0.0038796319 -0.011524418
-0.04756128 0.16886139 -0.06493173 -0.104862355 0.0226892 -0.111331485 0.11240566 0.19999193
0.14072345 0.09077747 -0.20773318 0.038150657 -0.15853049 -0.04164986 -0.09865638 -0.085764416
0.06979506 0.07573686 0.047429632 0.050883614 0.1834713 0.05863908 -0.084725335 0.0788663
-0.03808799 -0.007815684 0.048821326 0.011253705 0.06878296 -0.02879538 -0.058791656 0.016993666
0.09250751 -0.15732059 -0.14617077 0.030998716 0.060094267 0.022598524 -0.15999141 -0.13645366
-0.0010758152 0.034724463 -0.18627796 0.10821732 -0.111305654 0.03385527 -0.027195811 -0.096472174
0.023997385 0.020542657 0.109157875 0.15566953 0.20019332 0.13656169 -0.14960432 0.15510647
0.20350224 -0.07608755 0.12286951 -0.24769108 -0.1299356 0.104059964 0.114263356 0.016250871
-0.09770451 -0.0016113109 0.086191475 0.02812912 0.08302948 -0.040373165 0.08622186 -0.037670862
0.05043676 0.039505668 -0.14728794 0.100346126 0.1021585 -0.12824777 -0.0058514574 0.10479897
0.07890546 0.12644021 0.08242674 -0.04264351 0.04078667 -0.10391129 -0.018563608 -0.05573066
-0.06880119 0.18950644 -0.103380635 0.16168422 0.10914437 0.07463663 0.13024287 -0.10971751
0.09535668 -0.024753971 -0.11772438 -0.01357543 0.03052727 -0.08984806 -0.060038462 0.094496235
-0.06938481 0.11258704 -0.092774704 -0.12605691 0.09881713 0.10315825 0.12965904 0.12408699
0.16474722 0.0658386 0.009622135 0.03098871 0.07526845 0.07235961 -0.06660325 0.059860807
-0.083353326 -0.11222901 0.028562484 0.12440081 0.010444054 0.13277571 -0.08947583 -0.1590058
-0.024230825 -0.098464996 0.13468716 -0.17386365 0.12459262 0.15091781 0.09360726 0.101193175
0.0023072234 -0.0115359025 0.1438535 -0.08554266 -0.03128989 0.071152665 -0.10863744 0.041609965
0.15006396 0.04626903 -0.09956329 -0.020564735 -0.17806472 0.06649219 0.14144479 0.1031494
0.006021838 0.0823185 0.113590844 0.19353805 -0.0035534701 0.1195781 -0.09033343 0.054468285
-0.13605317 -0.0982195 -0.12224437 -0.054833755 -0.020681957 -0.08301956 -0.19990216 0.08031054
-0.01743257 0.046052534 0.16120802 0.12476729 -0.16669603 -0.06676112 -0.056262363 0.034511033
0.014482974 0.0074651404 0.025632313 0.19915353 0.055099152 0.100736864 -0.18191639 0.00772086
0.060479503 0.07579008 -0.12166858 -0.04171531 0.08947846 0.048125498 -0.19369811 -0.14773215
-0.05005693 -0.04578612 -0.13136517 -0.10608153 0.20508121 -0.046302088 0.055201147 0.11311634
0.008617589 -0.008458768 0.14039353 0.15051706 0.015599986 -0.031111645 0.028565364 -0.022189548
-0.100456186 -0.057867266 0.1419161 -0.15206435 0.10110052 -0.0028337904 0.017467363 -0.10892598

classifier.2.bias f4 [10]
00000000: 8a4e a0bc e68b 33bc 5521 d9bc 4463 cc3c
00000010: 4505 1cbd ee76 7c3d b974 623d d505 f1bc
00000020: 63a3 89bd 3f02 693d
-0.0195687 -0.010958647 -0.026505152 0.024949677 -0.038090963 0.061636858 0.055287097 -0.029421726
-0.06720617 0.056886908
