checkpoints/noise_rate_0.2/models/tsf/epoch18.pth (torch, 250639 bytes, 10 tensors)

feature_extractor.0.weight f4 [6, 1, 5, 5]
000000 db 7e 0a 3e 46 5c 77 bd 0e 45 b8 bc 44 9b bf 3d
       0.13524954 -0.060390733 -0.022493865 0.093557864
000010 98 80 4c be c4 ee 29 3e ee 1c cc 3b a0 64 15 3e
       -0.1997093 0.16594988 0.0062290346 0.14589167
000020 a7 fb 6c 3d 67 8d 22 bc 1c f4 be 3d 53 96 74 3d
       0.057857182 -0.009921408 0.09323904 0.059713673
000030 47 23 06 3e 20 e4 d0 bc 1d 65 da 3c de 7e 1e bc
       0.13099395 -0.025499403 0.026659543 -0.009673802
000040 0a ee 54 3d 0b 69 23 3d c1 54 65 3e 10 17 e5 3d
       0.051984824 0.0398951 0.22395612 0.111860394
000050 09 43 b3 bd 12 ef fb bd 80 69 b4 bc c5 eb 7c bd
       -0.0875302 -0.123014584 -0.022022963 -0.061748285
000060 d0 04 f9 bc d8 3c b3 3d 58 a4 5a 3e 2e 72 2e 3e
       -0.030397803 0.087518394 0.21351755 0.17035744
000070 6d bf 47 be 53 45 b1 3d f4 11 1c 3e 97 0a 9a 3e
       -0.19506617 0.08655801 0.15241224 0.30086204
000080 ef ae 43 3e 63 0c 48 be 53 cd 69 be e4 3b 03 3c
       0.191097 -0.19535975 -0.22832231 0.0080098845
000090 e1 27 94 3e 85 3b 05 3d 4c 0e c1 3d b7 08 cd bd
       0.28936675 0.032527465 0.09426555 -0.10011428
0000a0 06 b7 91 3e 96 e3 71 3c 76 88 6a 3e 49 4c 54 3d
       0.28459948 0.014763733 0.22903618 0.051830564
0000b0 aa 1a 8b bd 7c 51 26 3e 64 34 00 bd 23 74 0e 3e
       -0.06792195 0.16242021 -0.031299964 0.1391149
0000c0 a6 75 8d 3c ce 5f 48 3d 84 0a 60 be 97 91 f9 bd
       0.017268013 0.04891949 -0.21879011 -0.12185972
0000d0 f1 a6 c4 3d d3 19 02 bd 2a 5d 72 3e 9f 76 23 3e
       0.09602154 -0.03176291 0.23668352 0.15963219
0000e0 80 50 9e 3a 71 6d c7 bd 55 dc 38 3e 67 23 f5 3d
       0.0012078434 -0.09737671 0.180528 0.11969643
0000f0 4b d7 c3 bd 42 11 36 3e ec 16 42 3e c6 34 7e 3e
       -0.09562548 0.17780021 0.18954057 0.24824819
000100 ca 38 83 bd f7 71 70 3c 78 14 53 3d af 17 b6 3d
       -0.06407316 0.014675609 0.051533192 0.08891236
000110 bb 1f d6 bd d7 4f ee bd f3 f2 1a 3e 57 5b 17 bb
       -0.10455271 -0.11636322 0.1513174 -0.0023095214
000120 64 05 10 3e a0 44 29 3d 62 d0 aa 3d 64 50 06 3d
       0.14064556 0.04132521 0.08340527 0.03279151
000130 d0 58 95 3d ac 39 db 3d d5 31 2e be 1e 0f fa 3d
       0.0729233 0.107043594 -0.17011197 0.122099146
000140 32 13 16 be 42 a7 16 be 9d 73 fa 3c fa 8d 18 ba
       -0.1465576 -0.14712241 0.030572707 -0.0005819496
000150 75 23 27 3e f0 51 f0 bd c1 f2 2b be 67 b5 35 3e
       0.1632212 -0.11734378 -0.16791822 0.17744981
000160 25 6b a0 3c 18 fd 2b 3e df fd 84 3d 2a 8d 09 be
       0.01958234 0.16795766 0.064937346 -0.13432756
000170 c5 59 9d 3d 3e ba c2 3d 99 be bb bd 3c 5e bd bd
       0.07683138 0.09508179 -0.09167213 -0.092464894
000180 fa cf af 3d b0 57 86 3d 5d 88 5f bd c0 15 1e bd
       0.0858459 0.06559694 -0.054573406 -0.03859496
000190 98 9b 7f 3e ab f2 bb 3d 8f 9e 80 3e a4 0e 37 3e
       0.24961698 0.091771446 0.2512097 0.17876679
0001a0 c2 9e d4 bd 62 8f 6d bd 9a a1 c6 3e 1f 0b 55 3e
       -0.10381843 -0.05799807 0.38795167 0.20805024
0001b0 2c 99 86 3e a8 38 c7 3d 60 81 76 3e 9f 48 cb 3e
       0.26288736 0.09727603 0.2407279 0.39703843
0001c0 0d 95 d0 3e ec 57 e7 bb e3 ae bf 3d d1 16 a8 3e
       0.40738717 -0.0070600417 0.09359529 0.32829908
0001d0 2e 9d b7 3e 34 73 98 3e 51 f2 25 bd c5 aa 91 bd
       0.35862106 0.29775393 -0.040514294 -0.0711265
0001e0 51 c8 9e ba fc 00 1b 3e 94 e7 9c 3e aa fa 1c bd
       -0.0012114142 0.15137094 0.3064543 -0.03832499
0001f0 85 6e 42 3e 89 4b de bd 3a 42 23 be 84 f4 20 3d
       0.18987472 -0.10854251 -0.15943232 0.03929569
000200 65 4f 79 3e 0f 2c 9d 3e 8f 1a b8 bd 78 53 04 3e
       0.24346693 0.30697677 -0.08989441 0.12922466
000210 4f ea a7 3e de c8 a5 3e 4a 28 8e 3e 02 68 58 3e
       0.3279595 0.32379812 0.27765113 0.21133426
000220 9b db 7c 3e ef 13 67 3e 0e 3b 52 3d f3 5b d8 bc
       0.24693148 0.22566198 0.05132585 -0.026411032
000230 97 f3 01 bd a6 b0 93 3d ce d7 43 3c 81 82 66 3e
       -0.031726446 0.072114274 0.011953307 0.22510721
000240 f7 df 3f 3e ba 24 7f bc 7f 6b 02 3e aa b4 16 3e
       0.1873778 -0.015572721 0.12736319 0.14717355
000250 64 9d 63 3e b1 28 68 3e
       0.22228009 0.22671773

feature_extractor.0.bias f4 [6]
000000 0d f2 3e bd 67 2a 72 3e 87 2b 7f 3a 3d a1 04 3b
       -0.046617556 0.23648988 0.0009733964 0.0020237707
000010 c0 46 be bd fc b9 1b bd
       -0.09290838 -0.038019165

feature_extractor.3.weight f4 [16, 6, 5, 5]
000000 93 a4 30 bd ad c7 01 bd 6f 41 79 3d 6a 78 c2 bc
       -0.0431257 -0.031684566 0.060853418 -0.023739059
000010 27 51 70 bd f9 f5 20 3d a4 e2 1b 3d fa 24 87 3d
       -0.058671143 0.039297078 0.03805794 0.065988496
000020 01 f0 06 bd 8b b0 b9 3c e3 02 d9 bc 34 7e 29 bc
       -0.03294373 0.02266719 -0.026490634 -0.010345031
000030 16 48 7d bd 60 09 20 bd c4 71 ed bc 19 c8 19 3d
       -0.061836325 -0.03907144 -0.028984912 0.037544344
000040 ce d6 b0 3c eb a3 b0 3c 8f 84 9c 3d 2e d3 97 3d
       0.021586802 0.021562537 0.07642471 0.07413326
000050 f7 f1 5e 3d 10 a9 cd 3b fc 90 5f bd 4a 0d 7b 3d
       0.054429974 0.0062762573 -0.054581627 0.06129197
000060 25 92 b4 bc 2c c0 7a bc 15 ac 75 bd 88 13 40 3c
       -0.022042343 -0.015304606 -0.059978563 0.011723407
000070 6e f2 15 bd 50 cf 8e 3d 2e cd 9c bd 2e 6c 24 bd
       -0.036608152 0.069731355 -0.076563224 -0.04014223
000080 3a f3 04 3d 89 24 1a bd 81 1f 98 3c 45 0b fa bc
       0.03245852 -0.0376325 0.01856971 -0.030522952
000090 0b 33 45 bc 7e cb f9 3c 02 e6 62 3d 9c 81 97 bd
       -0.012036095 0.03049254 0.055395134 -0.07397768
0000a0 10 bd 21 3d 84 f5 99 3d 1c 0d c8 3d 98 b7 84 bd
       0.039486945 0.075175315 0.097681254 -0.0648033
0000b0 46 6f db 3a 97 10 8b bd c6 63 ab 3d 1c 80 46 bc
       0.0016741536 -0.06790274 0.0836864 -0.012115505
0000c0 52 2c 35 3d 9a 3d ab bb 86 8a 2a bc b3 f3 e6 3b
       0.04423172 -0.0052258493 -0.010409003 0.007048094
0000d0 83 bd ab 3c 0c db 0d 3d 31 90 05 3c 6a 3a 12 3d
       0.02096439 0.034632728 0.008152054 0.03570024
0000e0 18 a3 61 bd 73 8f 80 3d 39 a7 85 3d cc 4c 8b 3d
       -0.05508718 0.06277361 0.06526036 0.06801757
0000f0 83 6c 97 3d 51 d3 4b bd ef d5 1b bd 8f 84 6f 3d
       0.07393744 -0.049762074 -0.03804582 0.058476027
000100 f6 2f 8b bd cf df a0 3d 26 85 87 bd e9 ab 88 bd
       -0.06796257 0.07855188 -0.06617193 -0.06673414
000110 7f 7a cf 3c 07 e5 87 bd d4 bf 85 bc a2 bb 81 3d
       0.025326965 -0.066354804 -0.016326822 0.06334616
000120 05 ec 6a 3d bd 1b 8e 3d ae 48 a7 bc d0 00 81 bd
       0.057353992 0.069388844 -0.020420399 -0.06298983
000130 f0 d8 ab 3d 47 32 8a bc d3 94 1a bd e8 45 a2 3c
       0.08390987 -0.016869677 -0.037739586 0.019808725
000140 f1 33 4f bd 7e 1b 6b 3d 65 33 42 3d c7 a3 8d bd
       -0.050586645 0.057399265 0.047412295 -0.06916004
000150 da 81 88 bd 15 43 2b b9 0e 16 0d 3d 4b eb a4 bb
       -0.06665392 -0.00016332821 0.03444486 -0.005032932
000160 7e 12 30 bd d9 75 2a 3b 78 7b 93 bd f5 03 65 bd
       -0.042986386 0.0026010184 -0.07201284 -0.055911977
000170 f5 2f 6e bd 3e 34 88 3d ec 21 96 3d 3f 10 bf bc
       -0.058151204 0.066505894 0.07330689 -0.023323176
000180 f9 8b ce 3b b1 27 0b 3d ee 63 35 3c 56 a9 1b bd
       0.006303307 0.0339734 0.011071188 -0.03800329
000190 21 d5 20 3d 1c b5 96 3d a3 05 17 3d 08 e3 9d 3a
       0.039265756 0.073587626 0.03687061 0.001204581
0001a0 4d 56 8a 3d da c1 b2 3d aa a4 ed 3b 3f f3 fc 3d
       0.06754742 0.087283805 0.0072522955 0.12351083
0001b0 1f ce b3 3c b4 34 86 bd ec 90 84 3d 9b 3c b0 bc
       0.021948872 -0.06553021 0.06472954 -0.021513274
0001c0 0b 65 be 3d 56 f6 97 bd b6 0c c3 bb 29 6b e4 3c
       0.09296616 -0.07420032 -0.005952443 0.02788313
0001d0 8c 76 33 3d 79 1c 8e 3d 31 45 89 bd c2 38 85 bd
       0.043814227 0.069390245 -0.0670265 -0.06504966
0001e0 cb 5b a6 bd da 7c 4f 3c d9 ee c3 bc cb 87 4b bc
       -0.08122977 0.012664044 -0.023917602 -0.012422512
0001f0 50 81 ff bc 2f 48 24 3d 67 d9 cd 3d d4 25 03 3d
       -0.03118959 0.040107902 0.10051232 0.032018498
000200 f4 ef 0a bd 3c 95 38 bd da a0 28 bd b0 f5 d1 3d
       -0.033920243 -0.045064196 -0.041169025 0.10251939
000210 95 cf 21 bc 33 4d e6 3b 08 77 b4 3b 48 e1 b0 bc
       -0.009876152 0.007028246 0.0055073537 -0.021591797
000220 de ca 86 3d eb 6a f9 3c 9a 64 ad bc 54 e2 62 bd
       0.065816626 0.03044649 -0.021166135 -0.055391625
000230 50 2d 83 bc ba 70 87 3b 14 a6 8d bd 49 6a 98 bd
       -0.016012818 0.004133311 -0.069164425 -0.07442147
000240 17 7d d0 bc a6 79 42 bc 11 f1 f5 3c a6 74 0d bd
       -0.025450272 -0.011869824 0.030022176 -0.034535073
000250 a8 4f e1 bc 46 c2 1b bd cd b4 98 bd bd 9a 9f 3d
       -0.027503803 -0.03802707 -0.0745636 0.07793186
000260 4c c2 be 3c 83 10 a0 3d 0c 54 2c bc 01 79 4b bc
       0.023286007 0.07815649 -0.010518085 -0.012418986
000270 93 93 76 bd 9b 4b 38 bc 23 59 86 3d f5 ba 9e bd
       -0.06019933 -0.0112484945 0.0655997 -0.07750503
000280 7d 6f ca bc 1f b4 6e 3d 34 27 6f 3d b1 cc 33 3d
       -0.024711365 0.058277246 0.058386996 0.04389638
000290 af 60 db bb 08 53 69 bc 17 34 dc bc 06 58 06 bd
       -0.006694875 -0.014240988 -0.026880307 -0.03279879
0002a0 c6 28 3b 3d 0a 8e 02 bc ac d9 23 bd 95 c4 bc 3c
       0.04569318 -0.007968435 -0.04000251 0.023042956
0002b0 0a 5f 46 bd 7c 3a ae 39 eb 01 83 3d 8e 90 d7 3c
       -0.04843048 0.0003323144 0.0639685 0.026314046
0002c0 c8 90 a7 3d e1 cb 01 bd d7 8f b2 3c 8a 70 b8 bc
       0.08181912 -0.031688575 0.021797104 -0.0225146
0002d0 59 c2 07 bd 8d 2f c9 bc fe 03 78 3d ea 41 34 3d
       -0.03314433 -0.024558807 0.060550682 0.044008173
0002e0 60 83 04 bd 22 f7 43 bd a4 92 85 bd 42 cf ce 3d
       -0.03235185 -0.047843106 -0.0652211 0.10098125
0002f0 45 ad 6a 3c 31 83 31 3c 6d 98 0b bd 96 32 5a bd
       0.014323537 0.010834501 -0.03408091 -0.0532709
000300 b4 df 8a bd 05 a4 90 bc 4c df bc 3d 23 64 1f 3c
       -0.06780949 -0.017656336 0.09222278 0.009728464
000310 8d cf e2 bc 1b 75 6d bb d2 51 a7 3d c9 b5 b3 3d
       -0.027686859 -0.003623313 0.08169903 0.08774907
000320 14 e6 b1 3d 5d 66 17 3d 76 27 55 3d 49 17 84 bb
       0.08686462 0.036962856 0.052039586 -0.004031096
000330 96 d3 6c bd 3d 1a 81 bd 93 79 8a 3d 12 a1 17 b8
       -0.05781897 -0.06303833 0.0676147 -3.6151214e-05
000340 50 ea fa 3c c8 f6 18 ba 28 f8 87 bd b5 08 07 bd
       0.030629307 -0.0005835113 -0.06639129 -0.032967288
000350 14 61 d3 3c 7e 92 3c bc 44 2b 90 bd 57 43 8d 3c
       0.025803126 -0.011509536 -0.07039502 0.017244024
000360 0a 8b ca 3b 77 13 e6 ba 0e 59 7d 3d bc d7 2c 3d
       0.0061811255 -0.0017553408 0.061852507 0.042197928
000370 71 8f ca bc f7 46 de 3d c4 5d ab 3d 2a bf 27 3d
       -0.024726601 0.10853379 0.08367494 0.040953793
000380 f6 c8 6b bb e7 1f 86 bd 17 68 8c 3d 51 93 9d bc
       -0.0035977936 -0.06549054 0.06855791 -0.019235285
000390 93 52 68 bd 98 56 48 3d 11 08 16 3d aa d5 e8 3c
       -0.056719374 0.048910707 0.036628786 0.028422195
0003a0 2f 2c 6e bc 7a df ec bc 8d 04 41 3c 21 7e 86 3d
       -0.014536901 -0.028915156 0.01178087 0.06567026
0003b0 c3 d2 96 3c 11 65 01 bd 48 0a b0 3d 2d ad 97 3b
       0.018411046 -0.031590525 0.08595711 0.0046287985
0003c0 11 71 81 3d 6f 74 06 3d 8b 8c be 3d f3 66 80 3d
       0.06320394 0.032825883 0.0930415 0.06269636
0003d0 04 53 18 bd 9c f0 84 3d dc 86 53 3c 5b 7d 68 bd
       -0.037188545 0.06491205 0.012910571 -0.056760173
0003e0 84 25 8c bc 89 d2 9a bd 6f c7 21 bd 2f 8d 10 bd
       -0.017107733 -0.07559688 -0.039496835 -0.035290893
0003f0 18 a4 bc 3d 00 ff 8f 3a b4 89 ec bc f3 b3 98 3d
       0.09210986 0.001098603 -0.028874256 0.074561976

feature_extractor.3.bias f4 [16]
000000 c6 22 aa bc 89 3b 48 bd 2c 36 e5 3b ad fe 1a 3d
       -0.020768534 -0.048884902 0.006994983 0.037840534
000010 e4 b4 76 3d 10 fd d6 bc d2 74 22 3b 40 4d 26 bd
       0.060231104 -0.026243716 0.0024788869 -0.040601015
000020 f0 4a 83 bd 3a a5 52 bd 9e 7d 4c bd a8 4c 4d bd
       -0.064107776 -0.051427104 -0.049924485 -0.050121933
000030 62 1f ee 3c 2c 3d 71 bc f2 e0 87 3d db 23 99 3d
       0.029067699 -0.014724057 0.06634702 0.07477542

feature_extractor.7.weight f4 [120, 400]
000000 d0 07 2c bd 2c 3f 3f 3c a1 58 fa 3c 59 52 37 bd
       -0.041999638 0.011672776 0.03055984 -0.044756267
000010 f7 f8 85 bc 56 4a 0b 3d 0f c1 13 bd 0a 42 3d 3d
       -0.016354067 0.03400644 -0.036072787 0.046205558
000020 92 8f 76 bb c2 98 2b 3c 79 16 3e 3d 1d 88 1d bd
       -0.0037622196 0.010473432 0.04640815 -0.038459886
000030 2d ed 35 3d bc a2 45 bd 0b e3 09 3d c6 5a 1f ba
       0.04441564 -0.0482509 0.03366379 -0.0006078895
000040 61 e4 37 3d ca 22 1e bb 0a 88 48 bd ae f2 85 3c
       0.044895533 -0.0024129623 -0.048957862 0.01635107
000050 40 3b 00 3d 9b cf 12 bc c9 14 4d bd b2 b1 84 ba
       0.031306505 -0.00896063 -0.05006865 -0.0010123758
000060 b3 75 12 3c 95 fc 32 3c b1 9f 9a 3c 48 96 4d bc
       0.0089391945 0.010924478 0.018874975 -0.012548037
000070 db db 1c bb 2b 64 4a bb 39 5d b1 3c fb 32 8b 3c
       -0.0023934755 -0.0030882459 0.021650897 0.016992083
000080 d2 d4 9f 3c d6 69 06 b9 49 5e 1f 3c 5e 2a 1e 3d
       0.01951066 -0.00012818663 0.009727069 0.038614623
000090 e6 11 40 3c 2c 30 40 bd bf d5 55 3c 8b e8 6e 3d
       0.011723017 -0.04692094 0.013051449 0.05832724
0000a0 a7 17 f0 bb 3b f9 0e 3d a1 db 1b bd 44 15 af bb
       -0.0073270383 0.034905653 -0.03805125 -0.005343111
0000b0 44 65 0a 3d 9b b4 e6 bc 31 fd b7 bb 05 a7 1f 3b
       0.03378798 -0.028162291 -0.0056148996 0.0024361026
0000c0 7c d5 44 bc 60 94 b7 bc 38 56 08 3d 61 1f 35 bc
       -0.012013789 -0.022409618 0.03328535 -0.011054845
0000d0 a7 5c 8d bc 73 41 0b 3d 1d cd 29 3c 72 b7 b1 bc
       -0.017256094 0.033997964 0.010363844 -0.021693919
0000e0 0a 4c 00 3d 56 5a ef bc 97 c1 4f 3d c1 92 2e 3d
       0.031322517 -0.02921788 0.05072173 0.042620424
0000f0 f7 ae a4 3b 33 64 7e 3c ad 83 a2 bc 10 b5 0c bd
       0.0050257402 0.015526819 -0.019838179 -0.034352362
000100 91 98 dd bc c1 b2 98 3c c4 69 c5 3c 72 15 95 bb
       -0.027050288 0.018639924 0.024098285 -0.0045496756
000110 b6 e3 78 bc f0 b1 86 bc 89 59 ad bc ae 5e a8 bc
       -0.015191009 -0.01644227 -0.021160858 -0.02055296
000120 fa 17 05 3d 95 27 43 bd 0f f1 fd 3c 1d f8 f5 3c
       0.03249357 -0.04764517 0.030998735 0.030025536
000130 3d f4 84 bc 47 c2 2e bc d5 05 56 bc a6 e6 26 bd
       -0.016229743 -0.0106664365 -0.013062914 -0.040747307
000140 52 d5 c7 3b 8f a8 fc bc f6 b0 7d 3c e9 ba d2 bb
       0.006098428 -0.030842094 0.015484085 -0.006430973
000150 0d 2c 04 bd c1 8f 52 bd fd ae 1b 3d 36 6c 31 3d
       -0.032268573 -0.051406626 0.03800868 0.04331609
000160 8d 87 30 3d e2 5c 78 3c 9b 8b b2 3c 64 06 eb 3c
       0.04309802 0.015158864 0.021795085 0.02868957
000170 31 92 2c 3d c5 d3 88 39 67 0f 6d 39 9b 1d ca 3c
       0.042131606 0.00026097722 0.00022607819 0.02467232
000180 e3 a1 0a 3d 30 a5 62 bc c8 e6 d3 3c b9 92 35 3d
       0.033845793 -0.013833329 0.025866881 0.04432938
000190 06 75 c5 bc 1e 4c 3d bd 35 c8 fb ba 5e c3 fb bc
       -0.024103653 -0.04621517 -0.0019209447 -0.030732807
0001a0 39 89 45 3d 75 be 4a bc 81 57 9e bc 31 2d 05 3d
       0.04822657 -0.01237451 -0.019328834 0.0325138
0001b0 4a 8c 82 3c a2 60 8e 3c 97 47 49 3d ae 0a 2c bd
       0.015936036 0.017380062 0.04914054 -0.042002372
0001c0 67 a2 df 3c 6e 2b d5 bc 57 47 bb 3c f2 c1 b1 bc
       0.02729912 -0.026021685 0.022861166 -0.021698926
0001d0 7a 40 49 3d bd 92 56 bc 17 43 04 3c 17 21 f9 bc
       0.049133755 -0.013096509 0.008072636 -0.030411286
0001e0 a3 51 d5 3c 59 06 4d bd 91 73 c5 3c 09 38 4b 3d
       0.026039904 -0.05005488 0.024102958 0.049613986
0001f0 a6 68 34 3d 2c e2 c8 3c 51 4f be bc 09 9e a0 3b
       0.044045113 0.02452191 -0.02323118 0.0049016518
000200 ba a4 40 3c ae 77 4d bd f5 cb b6 3c 98 6c 32 bd
       0.011758024 -0.050162964 0.022314051 -0.043560594
000210 8a 14 b3 3c ae 06 41 3d 2e 7e 88 bc 52 f0 1a 3c
       0.02186038 0.04712551 -0.01666173 0.009456711
000220 ea 70 4d 3d a6 35 43 3d 65 9e 41 3d 8b 80 f2 bc
       0.05015651 0.047658585 0.047270197 -0.02960231
000230 6c c7 14 3c 6a d9 32 bd f9 58 e5 3b 39 01 5b bd
       0.009080749 -0.043664373 0.0069991318 -0.053467963
000240 4a 34 f1 3b 13 71 b4 3c a0 b1 2f bd d4 d3 39 bb
       0.0073609697 0.022026574 -0.042894006 -0.002835502
000250 1f d8 a7 bc cc 0b 34 3d fa c9 4f bc 5b 74 b5 3c
       -0.020488797 0.043956563 -0.012682432 0.02215021
000260 c7 f5 12 bd f3 b8 b6 3b 55 a2 07 3d b0 51 ae 39
       -0.035878923 0.005576247 0.033113796 0.00033248728
000270 e4 41 a1 bc d9 e9 c3 bc 10 3f e3 3c 4d 19 8b 3c
       -0.01968474 -0.023915218 0.027740031 0.016979838
000280 0b 3c 98 3b 78 65 17 3d ca 12 8c bc dc 54 f7 bc
       0.0046458296 0.036962003 -0.017098803 -0.030191831
000290 9e 39 1b 3b ac 82 03 3d a1 65 5d bd 3b 24 03 bd
       0.0023685466 0.03210704 -0.054052 -0.032016974
0002a0 53 e2 42 3c 5a 7e 01 3d 3d c7 f3 3c cc 00 80 3c
       0.01189478 0.03161464 0.02975809 0.01562538
0002b0 f8 37 40 bd ab f3 b8 bc 89 4d db 3c 7f 0a 1c 3c
       -0.046928376 -0.022577127 0.02677037 0.009523987
0002c0 c8 15 df 3c f1 3f 19 3d 2f 38 eb 3c 42 ad a8 bc
       0.027232066 0.037414495 0.028713314 -0.020590428
0002d0 ac 9b ce bc c8 3b 1b bc e0 0e ab ba a1 13 70 bb
       -0.025220715 -0.009474702 -0.0013050698 -0.0036632793
0002e0 10 84 22 bc a8 24 ee 3b 1b c0 02 3d de f8 01 bd
       -0.0099191815 0.0072675534 0.031921487 -0.03173148
0002f0 dc 23 d2 3c 25 62 48 bd fe 91 32 3b 39 d8 39 bd
       0.025651865 -0.048921723 0.0027247663 -0.04537222
000300 3d b4 46 3d 49 78 2d bd 6f fc da bc 5c f1 ef 3c
       0.048511732 -0.04235104 -0.026731698 0.029289894
000310 d5 76 c0 3c 07 35 1c 3d 76 a4 66 3c f8 7e 2b bd
       0.023494164 0.03813651 0.0140772965 -0.041869134
000320 0e 6d 0f bd 9b 0e 0c 3d 25 3a 47 bd 96 29 38 3d
       -0.035016112 0.034193616 -0.048639435 0.044961534
000330 28 ba 0a bc f3 6e 15 3c 68 6b 0c bb 0c ef 4d bc
       -0.008467235 0.009120691 -0.0021426324 -0.0125692
000340 c1 e8 48 bc 6d 3b 72 3c 95 ad 0f bc 38 c3 09 3c
       -0.012262524 0.014784676 -0.0087694125 0.00840836
000350 63 58 2b 3d 63 5d 93 3b 4e 85 20 bd 96 a1 1a bd
       0.04183234 0.0044972165 -0.03918963 -0.037751757
000360 ed 8a 02 3d 1e fc 8e 3c 6d c3 1c 3c b6 04 cc bc
       0.03187077 0.017454203 0.0095680775 -0.02490459
000370 7c 26 27 bd 5f e5 30 3d 62 1c 40 bd db 68 cb bc
       -0.040808186 0.043187495 -0.046902068 -0.024830272
000380 bb 6e a3 3c c7 37 32 3d e5 71 58 bc 1d 4a 34 bd
       0.019950261 0.043510225 -0.013210748 -0.044015992
000390 95 79 4f 3c 07 12 3a 3b 4f 85 09 bc 11 ee 30 bd
       0.012663265 0.0028392093 -0.0083936 -0.043195788
0003a0 97 d4 1c 3d e9 bd b5 3b bd f3 a1 3c a3 f2 df 3c
       0.03828868 0.0055463207 0.019769544 0.027337378
0003b0 f6 16 2d 3d b7 6f 85 bc 0e 33 06 3b 02 c2 05 bd
       0.042258225 -0.016288621 0.0020477208 -0.032655723
0003c0 cf 01 30 bd 14 9b 97 bc 6d fe 84 3c 5d e4 eb bc
       -0.042970475 -0.018506564 0.0162346 -0.028795416
0003d0 77 a5 05 3d c7 7a 56 3c d1 38 8f bc d2 37 c2 3c
       0.032628503 0.013090796 -0.017483147 0.023708258
0003e0 14 4b 1a 3d 3e c3 9f bc 03 fd d0 3c f2 5f 14 3d
       0.037669256 -0.019502278 0.02551127 0.036224313
0003f0 78 2a 45 3d d2 1d 05 bd 80 c8 3a 3d 99 9f a7 3b
       0.048136204 -0.032499142 0.045601368 0.005115461

feature_extractor.7.bias f4 [120]
000000 1d b7 ab 3c 0b 81 17 3d 08 2a 9b 3c 26 18 ff 3c
       0.020961339 0.0369883 0.01894094 0.031139445
000010 c7 99 2c 3d 0b 70 0a bd aa c8 11 3d 79 d3 cf 3a
       0.04213884 -0.03379826 0.03559176 0.001585587
000020 96 0b 09 bd 63 29 8d 3b 68 e1 b8 3c 70 83 e7 bc
       -0.033458315 0.004307912 0.02256842 -0.028260916
000030 6b e2 24 bd 2a 5a 4a bd 84 fc da bc 6c 7b 2b bd
       -0.04025499 -0.049402393 -0.026731737 -0.04186575
000040 38 87 f4 3c 79 b9 b4 bc c7 cd 2f bd 7d 95 f7 bc
       0.029849634 -0.022061097 -0.042920854 -0.030222649
000050 d0 16 42 bc 5e 5f f4 3c 75 cf 13 3d 2d 6c 75 3c
       -0.011846259 0.02983063 0.03608652 0.014979404
000060 b0 05 24 3d d5 d8 20 bd 7a 47 ac bc 55 36 0c 3d
       0.040044487 -0.039269287 -0.021030176 0.034231503
000070 ac c0 98 bc de c3 6c 3c ea 08 46 bc 48 84 dd 3c
       -0.01864656 0.014450995 -0.012087086 0.027040616
000080 1e 39 4b bd a0 c0 a1 3c 63 4a e9 bc b6 26 f4 bc
       -0.049615018 0.019745171 -0.028477853 -0.029803615
000090 35 c6 1e 3d 13 2b bd bc 2b 69 ed 3b 25 34 8b 3a
       0.038763244 -0.023091828 0.007245203 0.0010620399
0000a0 08 1e 11 bd 80 b5 e4 3c 52 79 09 bd b2 c7 92 bc
       -0.03542903 0.027918577 -0.033562966 -0.017917488
0000b0 e4 75 41 bd 2f fa 40 bc 41 c0 6b 3c 77 f7 61 3c
       -0.04723157 -0.011778398 0.014389099 0.01379191
0000c0 e8 36 c4 3c 1a c7 88 bc d0 25 96 3c 66 e1 48 bc
       0.023951963 -0.016696502 0.018328577 -0.01226077
0000d0 21 3b 30 3d 8a c3 e0 bc f2 6e b2 bb 1b c5 0e b9
       0.04302514 -0.02743699 -0.0054453546 -0.00013615603
0000e0 0d 3e 16 3d d1 4a 83 bc 31 03 17 bd 08 9e 69 3c
       0.03668027 -0.016026886 -0.036868278 0.014258869
0000f0 45 10 2f 3d 00 99 18 bd 19 db 87 bc 56 31 70 bc
       0.042740125 -0.037255287 -0.016583966 -0.0146602
000100 b2 e9 09 3d 21 86 e1 3b 31 45 34 bd 4d c8 24 3d
       0.033670135 0.0068824445 -0.0440113 0.040230084
000110 c1 7c 5d bc f6 67 40 bd a4 8a 42 3d 7b d3 34 bc
       -0.013518513 -0.046974145 0.0474955 -0.011036749
000120 c3 f5 ab 3c 3d 0a 10 3b 1f 7b 10 3d c6 c6 aa bc
       0.020991212 0.0021978759 0.035273667 -0.020846736
000130 07 ce 8d bc 6a dd cc bc 54 62 03 bd d6 a4 01 bd
       -0.017310156 -0.025007922 -0.032076195 -0.03165134
000140 31 31 ef 3c 32 ee 07 bd dd c2 e8 ba c5 a1 c9 3b
       0.029198261 -0.033186145 -0.0017758269 0.0061533176
000150 8a f3 4a 3d 7b 65 91 bc 05 74 96 bc c0 15 a5 3c
       0.049548663 -0.017748585 -0.01836587 0.020151973
000160 3d ee 42 3c bd 7f 9d 3c e5 81 2b 3d 64 dc 21 bd
       0.011897621 0.01922595 0.041871924 -0.03951682
000170 fd bf 6a 3c 74 20 6b bb a1 d5 38 bd 43 78 a1 bb
       0.014328 -0.0035877498 -0.045125607 -0.0049276664
000180 c4 d2 67 3c 04 4f ed 3c 02 4c 0b 3b 92 11 04 bd
       0.014149372 0.028968342 0.002125502 -0.03224332
000190 05 4b 5d bc c1 ee 1c 3d f3 50 ba 3c cb 8c 14 bd
       -0.013506656 0.03831363 0.022743678 -0.036267083
0001a0 44 49 4e 3c 1e 8a 23 bc 42 10 f9 3b 12 1e 03 3d
       0.01259071 -0.00998166 0.007600815 0.0320111
0001b0 42 67 be bc bd d9 38 bb 2b d8 20 3d 49 47 e5 bb
       -0.023242597 -0.0028205954 0.039268654 -0.0069970232
0001c0 c4 f2 48 3d ce a6 aa ba 35 f7 db 3b ec 9a 0c bc
       0.049059644 -0.0013019682 0.006712819 -0.008581858
0001d0 b3 9f b0 3c 45 73 70 bc 79 2c 53 3d 81 46 33 3d
       0.021560526 -0.01467592 0.051556084 0.04376841

classifier.0.weight f4 [84, 120]
000000 b9 48 94 3b a4 f1 45 bd 8b 48 e6 3c be 1f 50 bc
       0.004525271 -0.04832615 0.028110763 -0.01270288
000010 cd ff 9c bd 02 0b 4d 3c 08 94 84 bd 45 5c 06 bd
       -0.076659776 0.0125148315 -0.06473547 -0.03280284
000020 38 e2 87 bd 40 7a 90 3d 98 72 1a 3d 9a 2d 56 bd
       -0.06634945 0.07054567 0.03770694 -0.052289583
000030 11 6a 71 3d 9a af 8b bd c9 1a 07 3c 0c 8f 93 bd
       0.058939043 -0.06820603 0.008246132 -0.072050184
000040 06 a7 50 3d ca 67 47 bd 8e a5 00 bd 63 8c c9 3c
       0.050940536 -0.048682965 -0.031407885 0.024603074
000050 1d a7 b7 bd f4 cd 57 3d d7 2c c4 3b cb 39 74 bd
       -0.08967421 0.052686647 0.0059867906 -0.05962543
000060 1b 7f 3f bc 84 59 65 bd 20 8a b4 3c 61 22 0e 3d
       -0.011688019 -0.055993572 0.02203852 0.034700755
000070 52 c3 99 bd 04 85 7b 3d 5e 89 01 bd 07 02 a7 3d
       -0.075079575 0.06140615 -0.031625144 0.081546836
000080 fc 6e b1 bb c1 42 c4 3c c0 52 1f bd 35 db 9f 3a
       -0.0054148417 0.023957612 -0.038897276 0.0012196066
000090 30 a3 2a bc 96 b5 d8 bc 7a 06 4b bd a6 6a 3a 3b
       -0.0104148835 -0.026453774 -0.049566723 0.0028444915
0000a0 df cb a8 bd 29 c5 57 bd e9 4f 15 bd 49 85 1a 3b
       -0.0824201 -0.05267826 -0.03645316 0.002357798
0000b0 8e fc 69 bd 19 5c 35 bd f2 1a ff 3b 1f e9 66 3a
       -0.05712562 -0.044277284 0.0077851946 0.00088085415
0000c0 cc d7 16 3b 0a d4 46 bd 7a c3 91 3d d3 0f bb bc
       0.0023016809 -0.04854206 0.07117362 -0.022834694
0000d0 a3 ae 90 bd 91 94 4d 3d 68 5b 41 3c 02 6b 7b bb
       -0.07064559 0.050190512 0.011801578 -0.0038363342
0000e0 22 e5 a8 bd 97 21 6b bd f5 81 5f 3d b1 0b d9 bc
       -0.082468286 -0.05740508 0.054567296 -0.026494833
0000f0 2e d6 81 bd 12 45 5c 3d 28 29 98 bd 35 5e 59 3d
       -0.0633968 0.053776808 -0.07429725 0.05306836
000100 37 0a fe bc 68 51 1d 3d 0e ed 4b 3c 42 d9 b8 3d
       -0.03101073 0.038407713 0.012446655 0.09025814
000110 d2 77 15 3d ae f3 c9 bb f9 00 b0 3d 77 1a 96 bd
       0.036491223 -0.006163082 0.085939355 -0.073292665
000120 65 f8 34 3c ce 4b f4 3c 69 ed 8c bd d8 3a 4a bd
       0.01104555 0.029821303 -0.0688122 -0.049372524
000130 61 e3 29 bd 13 ea 40 bd 3b 00 39 bc f9 95 67 bd
       -0.04147661 -0.04709823 -0.011291559 -0.05653951
000140 27 7c ad 3d a1 c3 15 bb 17 9d b9 3d 1f 99 bb 3c
       0.08470946 -0.00228522 0.09063166 0.022900162
000150 55 80 61 bc cd 9a 02 3c 24 97 53 bd 7b 7b 69 bd
       -0.013763507 0.007971478 -0.05165781 -0.057002526
000160 aa d8 12 3d c1 d1 41 bc 20 da 04 3c 76 bf 2e bc
       0.03585116 -0.011829794 0.008108646 -0.010665765
000170 df 51 93 3d 8e 9c ba bd 66 39 6a bd 06 d3 46 bd
       0.0719335 -0.09111892 -0.057183646 -0.04854109
000180 cd 50 f1 bc ca da 93 3d e6 a9 7c 3d 4f 74 86 bd
       -0.029457474 0.07219465 0.061685465 -0.06565153
000190 45 e4 db bc ef 63 a0 3d d0 e3 90 bd e7 ef 1a 3c
       -0.026842246 0.07831561 -0.07074702 0.009456611
0001a0 2b 9e 0d 3d 59 9a 2f 3d 64 d9 88 3d 58 22 74 3d
       0.03457467 0.042871807 0.06682089 0.059603065
0001b0 3a ed b1 3c 9b e6 b0 bd a1 55 26 bd 65 75 81 bc
       0.021719564 -0.086377345 -0.040609006 -0.015803048
0001c0 5a 69 88 bd 2e de 3e bd 9c c5 9d 3c b8 47 11 bd
       -0.06660719 -0.046598606 0.019259267 -0.035468787
0001d0 35 df 77 3c bd bf 03 3d 74 38 46 3d 0b 08 91 bd
       0.0151289 0.032165278 0.04839368 -0.07081612
0001e0 84 bf a4 3d ee 1d 15 3d 2d 32 ff 3b b7 e4 df bc
       0.08044341 0.036405496 0.007787964 -0.02733074
0001f0 98 39 e3 bc e5 1e 35 3b 40 87 3f bc e1 46 b0 bd
       -0.027737424 0.0027636823 -0.011689961 -0.08607269
000200 88 f3 68 3c 89 b8 76 bd 02 8c a0 bd ba de 5c 3d
       0.014218219 -0.06023458 -0.07839204 0.053923346
000210 3f a1 75 bc 4b 79 c4 bc 12 94 4c bc 91 53 20 bd
       -0.014992057 -0.023983618 -0.012486475 -0.039142195
000220 1a e3 42 3d 9a 05 49 bb 3e 1a 27 bd b3 dc b1 3d
       0.047579862 -0.0030673505 -0.04079651 0.08684673
000230 95 5c 88 3d 3c cf 8d 3d b8 1d ba bd 61 df 8c 3c
       0.066582836 0.069242924 -0.090877 0.01719636
000240 36 ef ae 3b 70 29 a2 3d 60 26 ce 3c bd df 9a 3c
       0.0053385748 0.0791806 0.025164783 0.018905515
000250 ba 7b 6e 3d 03 36 22 3d 78 f6 a6 bd 6b 91 b7 bd
       0.058223464 0.03960229 -0.08152479 -0.08963283
000260 08 4c 4b bd bf 55 a9 bc 29 69 b0 3c 05 f9 68 3d
       -0.049633056 -0.02067077 0.02153452 0.05687811
000270 48 9f a6 bd ed 1a 5d bc b2 ba 92 bd 5a 46 a1 3d
       -0.08135849 -0.013495189 -0.071645156 0.078747466
000280 c8 a7 61 3d 5f 29 57 3d ab b5 17 bc 68 1d 6d bd
       0.05509165 0.05252969 -0.009259622 -0.057889372
000290 2a bc 3b bd 3a ea 83 ba 3b 7d 98 39 68 79 c4 ba
       -0.045833744 -0.0010064312 0.00029085003 -0.0014989795
0002a0 63 3d a3 3d 59 4f 44 bd 76 b9 8b 3d fe be 25 3d
       0.07970693 -0.047927234 0.06822483 0.040465347
0002b0 c4 1c 92 bd 9c 75 27 bd c4 50 63 bd 00 09 13 bb
       -0.07134393 -0.040883645 -0.055496946 -0.0022435784
0002c0 36 8e 46 3d 8b f3 55 3d 21 4d 9b bc b1 69 a1 3d
       0.048475467 0.052234214 -0.018957676 0.07881487
0002d0 aa 48 31 3d 8c 00 7b 3c dd 8b 97 bd 98 50 9e bd
       0.04328219 0.015319955 -0.07399724 -0.07730216
0002e0 78 be 67 3d ff aa 47 3d 50 eb 33 bd ce 53 8c bd
       0.05657813 0.04874706 -0.043925583 -0.06851922
0002f0 cf 42 40 3b 12 d8 aa bd be c9 7b 3d 91 c5 44 3d
       0.0029336696 -0.083419934 0.061471693 0.048039977
000300 59 b9 ce 3c f1 42 85 bd 44 6d 76 bc d5 9d 3b bd
       0.025234865 -0.06506909 -0.015040699 -0.045804817
000310 fe 42 32 3d 98 22 b2 3d 3a 08 6d 3b 34 86 c0 bc
       0.04352092 0.086980045 0.0036168233 -0.023501493
000320 12 d2 80 3d 00 bf ad bc db 00 33 bd c4 18 9d bd
       0.06290068 -0.02120924 -0.043701988 -0.07670739
000330 0c 73 42 3c 74 9d 93 3d 30 6d 6a 3d f7 c6 07 3d
       0.01186825 0.07207766 0.057233036 0.033148732
000340 4f 0b 81 3d 67 62 95 bd b5 ce b3 3d a2 f6 ef bc
       0.06300985 -0.072941594 0.087796606 -0.029292408
000350 41 be b4 bd 22 e9 27 3d 7c e9 af 3c 16 af af bc
       -0.088253506 0.040993817 0.021473639 -0.021445792
000360 91 55 b1 bd f0 42 81 3a e4 e7 38 bd 23 55 69 bd
       -0.086588986 0.0009861868 -0.045143023 -0.05696596
000370 42 8c a7 3d 1e 82 2f 3d ef 26 a3 bd ef f6 20 bd
       0.08181049 0.0428487 -0.0796641 -0.039297994
000380 df 79 3b bd 7e 96 a8 bd 10 ac 92 bd d2 e0 b9 3d
       -0.045770522 -0.08231829 -0.071617246 0.09076084
000390 25 02 82 3b d0 6d 96 3d cf 68 7e 3c fd 63 b4 3d
       0.003967541 0.07345164 0.015527918 0.08808134
0003a0 44 8a 62 bd 65 86 c0 3c 9c 80 39 bd a8 ea 04 3d
       -0.05530764 0.023501584 -0.045288667 0.03245035
0003b0 49 65 90 3d e0 b1 8c 3d ae bc 7a bd 82 19 6a bb
       0.070505686 0.068698645 -0.061215095 -0.003572077
0003c0 c4 a1 3c 3c 3f a7 9b 3c 42 11 12 bd 01 83 a9 3c
       0.011513177 0.019000648 -0.03566099 0.02069235
0003d0 a8 ea 92 bd 40 8b e6 bc 8e d2 de bc 14 ac cd bc
       -0.071736634 -0.028142571 -0.02720001 -0.025106467
0003e0 c0 3c 67 bd 18 25 85 3d fa 15 48 bc b7 84 31 3d
       -0.05645442 0.06501216 -0.012212271 0.043339457
0003f0 e6 59 2e bb 42 73 a5 3b 64 12 ab 3d 62 97 8c 3d
       -0.0026603877 0.00504914 0.08353117 0.068648115

classifier.0.bias f4 [84]
000000 2a cc 39 bc 5e 62 b1 bd 2d ad 3c 3d 73 44 9e 3d
       -0.01134018 -0.0866134 0.04606359 0.077278994
000010 4c 1b a3 3c 8e d1 19 3d d5 0c a0 3d 59 f8 59 3d
       0.019910477 0.037553363 0.078149475 0.05321536
000020 da 17 2f bd 10 62 4e 3d ba 06 a1 bd f2 54 b6 3d
       -0.042747356 0.05038649 -0.07862611 0.08902921
000030 d0 30 73 3d 66 3a 44 bd 57 3f bd bc 6d 7e 6f bd
       0.059372723 -0.047907256 -0.023101492 -0.05847018
000040 fc 86 2a bd 4e c2 5b bd 35 c3 b2 bd 52 8f 80 bc
       -0.041632637 -0.0536521 -0.08728639 -0.01569334
000050 5b 95 1f 3d 4e 8b 66 3d cc 19 eb bc d2 b0 8d bd
       0.038960796 0.056285195 -0.028698824 -0.069184914
000060 02 09 57 3d 32 eb cd 3a 80 60 66 ba e6 f1 3c 3d
       0.052498825 0.0015710352 -0.00087881833 0.04612913
000070 44 e4 c8 bc f0 b8 26 3d 33 52 fa 3c ce bd 45 bc
       -0.024522908 0.040703714 0.030556774 -0.012069179
000080 ec 7f 62 bb f9 fd cd bc 09 8b 24 bd ed e1 7f bb
       -0.003456111 -0.025145518 -0.040171657 -0.0039044574
000090 70 6f 9c bd 26 99 90 bd de 75 d0 b8 42 68 b1 bd
       -0.076384425 -0.07060461 -9.9401674e-05 -0.08662464
0000a0 4f 2b 39 bc 11 2f a5 bd fb 61 e5 3c 86 99 34 3c
       -0.0113018295 -0.08065618 0.028000822 0.011022931
0000b0 93 3a 38 bd cd 15 67 bb 5c 20 1a 3d 46 b0 99 bd
       -0.044977736 -0.0035260797 0.037628517 -0.075043246
0000c0 7e 80 9a bd ca 6b 9f 3c 31 b7 dc 3c 71 c8 3a 3d
       -0.07544039 0.019460578 0.026942821 0.045601312
0000d0 d5 8a 2b 3c 66 f4 b4 bd ff f6 5c bd d5 54 42 bb
       0.010470112 -0.08835678 -0.05394649 -0.0029652615
0000e0 ff 6a 3a bd 3f ff 0e bd 47 64 b2 3c 0d 5d 56 bd
       -0.045512196 -0.03491139 0.021776332 -0.052334834
0000f0 ed b8 4a 3c 40 18 c8 3d 1c ea af 3d 1a 9c 50 bc
       0.012373191 0.0977025 0.08589575 -0.01273253
000100 3a 52 6d 3d 29 7f 9a bd 47 59 3a 3d 0a 58 35 3c
       0.057939745 -0.07543785 0.045495298 0.011068353
000110 9c d0 a4 3d 5a e2 80 3d 79 3b af bd 5d e5 a3 3d
       0.080476016 0.06293173 -0.085562654 0.08002732
000120 b8 f7 89 3d 0e b3 99 3d c5 7d 42 3d 2c 14 39 bd
       0.06736702 0.07504855 0.047483224 -0.045185253
000130 d4 04 9f bb 8f b0 7f bb d1 f3 1f 3d 42 5b 3c 3d
       -0.0048528705 -0.003901515 0.03905088 0.045985468
000140 3c 5a 1a bd 3b 7b a6 bc 02 bf 2c bd a2 66 4d 39
       -0.03768371 -0.020322433 -0.042174347 0.00019588557

classifier.2.weight f4 [10, 84]
000000 e9 0e c1 bd f7 8b b0 bd d5 86 52 3d a3 90 c7 bc
       -0.09426672 -0.08620446 0.051398117 -0.02436096
000010 1e 16 f1 3c 82 d8 38 bd 9d 32 d9 3a 59 90 3f 3d
       0.029429492 -0.045128353 0.001657087 0.04676852
000020 2b 60 a1 bd 1c e8 d2 3d 4c bc 92 bd a1 f5 b6 bc
       -0.07879671 0.102981776 -0.07164821 -0.022333922
000030 77 df 5e 3d 3d ae d7 bd 78 af 7f 3d a9 18 8e 3d
       0.05441233 -0.1053128 0.0624232 0.06938297
000040 2b e5 0b be 91 fe 91 bc 57 a6 a0 bd 8a 74 04 3e
       -0.1366164 -0.017821582 -0.07844227 0.12935081
000050 9a fb c2 bd 34 6a 09 be 0f 6a a6 bd 26 4a a1 3d
       -0.095206454 -0.1341942 -0.08125698 0.07875471
000060 3f 46 a8 3c f1 45 d4 bd 08 ab bb bc 62 15 9c bd
       0.020541308 -0.10364903 -0.022908702 -0.07621266
000070 6f 78 0a 3e a0 2f c6 bd f4 e8 99 3c d1 85 9f 3d
       0.13522504 -0.096770525 0.018787839 0.07789195
000080 ef fd 02 be 6e 5b b8 3c aa c2 77 ba 36 b3 f9 3c
       -0.1279218 0.022504535 -0.00094513095 0.030480962
000090 c2 f3 51 bd 8e 4e bc bd 32 94 aa 3b 6c c1 e2 bc
       -0.051257856 -0.091946706 0.0052056545 -0.027680121
0000a0 b7 d9 b6 bc c8 44 07 3e de 81 99 bd b7 0d 77 bd
       -0.022320611 0.13209832 -0.07495473 -0.060315814
0000b0 e6 e9 4e 3d a7 10 a6 bd cf 5f ae 3d 89 ed 1d 3e
       0.05051603 -0.08108645 0.08514368 0.15422644
0000c0 f4 55 c2 3d f4 04 a4 3d e5 18 22 be 2d 2c 36 3d
       0.094890505 0.08008757 -0.15829809 0.044475723
0000d0 f7 4e fe bd 89 1b 3f bd ff bd a5 bd 40 c9 af bd
       -0.12417405 -0.04665712 -0.080928795 -0.08583307
0000e0 14 b7 ab 3d 82 4b 99 3d 10 b2 f5 3c ab 75 2c 3d
       0.08384529 0.07485105 0.029992133 0.042104404
0000f0 82 36 1c 3e e8 92 30 3d d9 f2 33 bd f5 fb 96 3d
       0.15255168 0.04310885 -0.04393277 0.07372276
000100 e9 66 1c bd 36 8f 37 bc d3 4d 5a 3d 78 bc 53 3c
       -0.03818408 -0.011203578 0.053296875 0.012923352
000110 6d 25 af 3d 58 db 7e bc 0a 50 60 bd 2d 4b 1d 3d
       0.0855206 -0.015555225 -0.05476383 0.03840177
000120 b4 e1 d0 3d 6c f9 08 be 6e 4c 02 be 2d 4b 03 3d
       0.101992995 -0.13376397 -0.12724468 0.032054115
000130 be 86 81 3d de a3 4f 3c 5c 50 da bd 12 49 ef bd
       0.06324528 0.012673346 -0.106598586 -0.11683859
000140 3d ad c3 ba 4e 14 42 3d 8f b6 12 be 34 8c bb 3d
       -0.0014928948 0.047382645 -0.14327453 0.09157601
000150 bf 53 d0 bd fe 54 0c 3d 88 38 1d bd b9 2f be bd
       -0.10172223 0.034260742 -0.03838399 -0.09286446
000160 5f c7 ba 3c 63 30 0f bc 5c 7b 90 3d f3 31 05 3e
       0.022800146 -0.008739564 0.07054779 0.13007335
000170 98 02 17 3e f8 ec aa 3d 62 0b fb bd bc 3f f6 3d
       0.14747083 0.083459795 -0.122580305 0.12023875
000180 ba 68 21 3e 9a a0 9c bd 40 6c f3 3d 77 0a 33 be
       0.15762606 -0.0764782 0.118858814 -0.17484461
000190 29 40 f2 bd b9 c9 b9 3d 8b 9a e1 3d 89 1e dd 3b
       -0.11828644 0.09071679 0.11015805 0.006748025
0001a0 5d a3 c8 bd a0 0a 40 3c 9b 34 83 3d c8 34 c5 3c
       -0.09796784 0.011721283 0.06406518 0.02407302
0001b0 4f 74 99 3d 16 f9 5f bd b8 07 b0 3d d6 90 4b bd
       0.07492887 -0.054680906 0.08595222 -0.049698673
0001c0 67 5d 4e 3d 52 32 50 3d 13 ba de bd 3b 11 9d 3d
       0.050382044 0.05082924 -0.108753346 0.07669302
0001d0 04 6d a6 3d 27 1e ce bd 1b 05 a4 bc ce 03 ba 3d
       0.08126262 -0.10064345 -0.020021966 0.09082757
0001e0 cc 29 9e 3d 77 c1 a9 3d ba b1 4b 3d 82 91 1b bd
       0.07722816 0.082888536 0.04973004 -0.037980564
0001f0 62 ad 57 3d 25 55 c3 bd 63 f2 2b 3c 74 a8 33 bd
       0.052655585 -0.095377244 0.010494801 -0.04386182
000200 15 6f 52 bd b1 7e 17 3e bc 42 ac bd 94 f8 05 3e
       -0.051375467 0.14794423 -0.08411166 0.13083106
000210 82 26 cd 3d 93 76 6f 3d 4c 38 c3 3d 40 14 fb bd
       0.100171104 0.05846269 0.09532222 -0.12259722
000220 b4 b6 98 3d 3f e9 04 bc a1 20 96 bd ef ed d7 3b
       0.07456723 -0.008112251 -0.07330442 0.006589643
000230 fd 14 ba 3c da 0b a9 bd c6 57 7c bd 7d ac b0 3d
       0.022715086 -0.08254214 -0.061607145 0.086266495
000240 45 c8 a6 bd 01 8f e0 3d 34 77 a7 bd 62 e9 c3 bd
       -0.08143667 0.10964776 -0.08177033 -0.095659986
000250 ae e2 ca 3d e0 22 c2 3d 8f 0e 02 3e 7c 4e d5 3d
       0.09906517 0.09479308 0.12700866 0.1041536
000260 52 d3 e2 3d 48 c0 66 3d c3 5c 6c 3b bc 39 a9 3c
       0.110754624 0.056335717 0.0036066032 0.020657413
000270 20 30 1d 3d 07 eb 8d 3d ee 47 4d bd 9e 78 4b 3d
       0.038375974 0.069295935 -0.050117426 0.049675576
000280 ff fa 9e bd 52 ab b1 bd 56 97 fa 3c b4 7a cb 3d
       -0.077627175 -0.08675255 0.03058974 0.09935513
000290 c3 da 85 3c 5e 5c d2 3d 2a 74 9c bd 5b 05 f3 bd
       0.016339665 0.10271524 -0.07639344 -0.11866256
0002a0 0d 8c bf bc 70 36 ca bd 3b 32 c6 3d 50 7c 0a be
       -0.023382211 -0.098736644 0.096775495 -0.13523984
0002b0 c7 6d cf 3d 41 76 a7 3d 3e ce c7 3d e0 27 be 3d
       0.1012836 0.08176852 0.097561345 0.09284949
0002c0 56 c9 c2 3c 06 32 ef b9 23 3b d3 3d a0 1d 81 bd
       0.023777645 -0.00045622903 0.10314014 -0.06304479
0002d0 74 00 44 bd 1c 82 90 3d ea eb c0 bd c6 2f a2 3c
       -0.047851995 0.070560664 -0.09419997 0.01979817
0002e0 aa 4f d5 3d 6c a7 13 3d 3c cd 82 bd 87 a3 a1 bc
       0.10415585 0.036048338 -0.063868016 -0.019731296
0002f0 a6 37 e5 bd a0 fd 89 3d 90 06 f1 3d 27 16 d3 3d
       -0.11192255 0.06737828 0.1176883 0.103069596
000300 a4 01 8e 3b f9 bf 8d 3d ba 56 c4 3d 98 0b 12 3e
       0.0043336917 0.069213815 0.09586854 0.14262235
000310 92 e0 98 3c d7 7e ac 3d 4e f5 34 bd 5c e9 6a 3c
       0.018661771 0.0842263 -0.044179253 0.014337864
000320 29 5e 00 be 94 0a 8f bd 2e e9 c8 bd a3 6a 66 bd
       -0.12535919 -0.069844395 -0.098101005 -0.05625404
000330 25 04 a9 bc f4 39 8f bd c2 8f 08 be 3a e8 92 3d
       -0.02063186 -0.069934756 -0.13336089 0.071732
000340 6c 3e 5b bc d3 6b 10 3d 53 38 f1 3d c1 16 d8 3d
       -0.013381582 0.03525908 0.11778321 0.10551215
000350 f0 99 d5 bd 1b 3a a9 bc 3c c2 11 bd 08 da 34 3d
       -0.10429752 -0.02065759 -0.035585627 0.044153243
000360 fe cb a9 3c 25 cb 32 3b b3 95 9c 3c ad 35 06 3e
       0.020727154 0.0027281728 0.01911435 0.13106413
000370 df dc 16 3d d8 bc 78 3d db 1a 0d be 64 a0 92 3c
       0.036831733 0.06072697 -0.13779776 0.017898746
000380 d7 27 d0 3c 55 2d 95 3d 68 46 87 bd a1 de 11 bd
       0.025409622 0.07284037 -0.06605226 -0.035612706
000390 3c 0f 7e 3d 2a b9 ad 3c cb c7 fe bd 28 84 0a be
       0.062026247 0.021206457 -0.12440451 -0.13526976
0003a0 ae 8c 4d bd 09 14 5c bd 2a 67 bc bd 33 5f bf bd
       -0.05018299 -0.053730045 -0.091993645 -0.0934433
0003b0 ad 2b 21 3e 1e e6 fc bc 4d 01 43 3d 41 b8 b6 3d
       0.15739317 -0.030871447 0.047608662 0.089218624
0003c0 0b f5 04 3c 89 4b c4 bc d6 d9 d6 3d de 77 b3 3d
       0.008115063 -0.0239618 0.10490768 0.08763097
0003d0 8e 31 9a 3c dd f9 f0 bc fa f5 f7 3c f8 f9 02 bd
       0.018822458 -0.02941602 0.030268658 -0.03197667
0003e0 02 82 ca bd a9 ac 00 bd 87 3c d4 3d 6f a1 e1 bd
       -0.09888078 -0.03141466 0.10363107 -0.11017119
0003f0 c8 73 a2 3d 46 96 eb ba 0b ee 23 3a cf 79 d5 bd
       0.0793224 -0.0017973862 0.0006253428 -0.10423624

classifier.2.bias f4 [10]
000000 48 4c 49 bc ef 18 00 bc f0 b6 d9 bc 08 75 a9 3c
       -0.012286253 -0.007818445 -0.02657649 0.020685688
000010 41 66 a9 bc fe 60 29 3d 98 dc 60 3d 83 93 fa bc
       -0.020678641 0.041352265 0.054897875 -0.030587917
000020 1e d5 85 bd bd ab 5a 3d
       -0.065347895 0.05338644
