checkpoints/noise_rate_0.2/models/tsf/epoch196.pth (torch, 250639 bytes, 10 tensors)

feature_extractor.0.weight f4 [6, 1, 5, 5]
0	0x3e151957	0.14560448
1	0xbd3a7832	-0.045524783
2	0xbcedbe6e	-0.029021468
3	0x3d9458da	0.072435096
4	0xbe5d5034	-0.21612626
5	0x3e42a701	0.1900902
6	0x3d333c67	0.043758776
7	0x3e32e090	0.17468476
8	0x3d9487c3	0.07252457
9	0x3b90be00	0.004417181
10	0x3de8d7ab	0.113692604
11	0x3dccc87b	0.09999176
12	0x3e32b1a1	0.17450573
13	0x3c6b8647	0.014375276
14	0x3d7ff309	0.062487636
15	0xbd0ca1a8	-0.034333855
16	0x3d2a23f3	0.04153819
17	0x3d2a140b	0.04152302
18	0x3e78335c	0.24238342
19	0x3e1abec8	0.1511184
20	0xbe122752	-0.14272812
21	0xbe3d9d97	-0.18517147
22	0xbd95d8ef	-0.073167674
23	0xbda1a687	-0.07893091
24	0xbc60e96f	-0.01372753
25	0x3de7a7ae	0.11311279
26	0x3e8e5911	0.27802327
27	0x3e4a5709	0.19759764
28	0xbe65aa75	-0.22428305
29	0x3d271e79	0.040800545
30	0x3e3050dd	0.17218347
31	0x3eba0c60	0.36337566
32	0x3e4e1509	0.20125212
33	0xbe831bcd	-0.25607148
34	0xbe96c790	-0.2944913
35	0x3d052957	0.032510128
36	0x3eb60369	0.35549477
37	0x3d54bb06	0.051936172
38	0x3d4d98ac	0.050194427
39	0xbe1a1f7b	-0.15051071
40	0x3e930ec8	0.28722215
41	0x3d764b88	0.060130626
42	0x3e89205f	0.2678251
43	0x3d593518	0.05302915
44	0xbd9e94ec	-0.07743248
45	0x3e11c5b3	0.14235573
46	0xbc9303ee	-0.01794621
47	0x3e3fcfb0	0.1873157
48	0x3d6c6ad0	0.05771905
49	0x3db56136	0.08856432
50	0xbe832f03	-0.25621805
51	0xbe156ad8	-0.14591539
52	0x3d6e6fcd	0.05821209
53	0xbd140199	-0.036134336
54	0x3e834578	0.25638938
55	0x3e16fc07	0.14744578
56	0x3b147868	0.0022654776
57	0xbda41088	-0.080109656
58	0x3e7371c3	0.23773865
59	0x3e384074	0.17993337
60	0xbd910ce7	-0.07082539
61	0x3e594fea	0.21221891
62	0x3e77571c	0.24154323
63	0x3e9c9c3f	0.30587956
64	0xbd102786	-0.035193942
65	0x3d97463a	0.073864415
66	0x3dcfe411	0.10150922
67	0x3dfe29e6	0.12410335
68	0xbdd18e73	-0.10232248
69	0xbe10ae72	-0.14129046
70	0x3e507a01	0.20359041
71	0x3d1d1a8f	0.038355406
72	0x3e1c54e5	0.1526676
73	0x3c9ded05	0.019278059
74	0x3d1e9fb1	0.038726512
75	0x3d2c4808	0.04206088
76	0x3dc06c00	0.09395599
77	0x3de9e0f1	0.11419857
78	0xbe3ca2de	-0.18421504
79	0x3dd01eef	0.1016215
80	0xbe1be335	-0.15223391
81	0xbe148f39	-0.1450776
82	0x3d03a90f	0.03214365
83	0x3c0cca96	0.008593222
84	0x3e43ce44	0.19121653
85	0xbe058325	-0.13038309
86	0xbe2dc881	-0.16971017
87	0x3e4bbe10	0.19896722
88	0x3d725cf2	0.05917067
89	0x3e5b47c1	0.2141409
90	0x3d861f27	0.065489106
91	0xbdf5d311	-0.12003148
92	0x3de4cc00	0.111717224
93	0x3e05bbc7	0.13059913
94	0xbda0311b	-0.07821866
95	0xbdb55b8e	-0.08855353
96	0x3dd57f53	0.10424676
97	0x3db633d5	0.08896605
98	0xbd36ab5d	-0.04459702
99	0xbd6b02ed	-0.057375837
100	0x3e79a028	0.24377501
101	0x3defe6c3	0.11713936
102	0x3e844536	0.25834054
103	0x3e3201a5	0.1738344
104	0xbdfa6df3	-0.122280024
105	0xbd80d4bc	-0.06290576
106	0x3ef2175a	0.4728344
107	0x3e98f897	0.2987716
108	0x3e994303	0.29933938
109	0x3ded501a	0.11587544
110	0x3e981da6	0.2971012
111	0x3f0baf35	0.5456422
112	0x3f02e9ec	0.51138186
113	0x3d0ef020	0.03489697
114	0x3ded813a	0.11596914
115	0x3ec532df	0.38515374
116	0x3eec7638	0.46183944
117	0x3eba78e1	0.36420348
118	0xbbc99b12	-0.006152519
119	0xbd1d11ad	-0.038346935
120	0xbbaaaca3	-0.005208568
121	0x3e24d0d8	0.16095293
122	0x3e9caadf	0.30599114
123	0xbc68bc64	-0.014205072
124	0x3e66bac7	0.22532187
125	0xbde4efc3	-0.111785434
126	0xbe1ab5b3	-0.15108375
127	0x3cecb8de	0.028896745
128	0x3e820cb3	0.25400314
129	0x3e9f4982	0.3111077
130	0xbd955ede	-0.07293485
131	0x3e2fe606	0.1717759
132	0x3ecb4984	0.39704525
133	0x3ed8ad07	0.4231951
134	0x3ea93d9f	0.33054826
135	0x3e845af0	0.2585063
136	0x3e99ca54	0.30037177
137	0x3e9f94a4	0.3116809
138	0x3e232866	0.1593338
139	0x3d0706b9	0.032965396
140	0xbc2e1528	-0.010625161
141	0x3daa709b	0.08322259
142	0x3d461ed5	0.048369247
143	0x3e956c10	0.29184008
144	0x3e6b82c2	0.22999099
145	0xbcd2b8e7	-0.025722934
146	0x3dc995c3	0.09843018
147	0x3e0819b4	0.13291055
148	0x3e7bbe78	0.24584377
149	0x3e7c0920	0.24612856

feature_extractor.0.bias f4 [6]
0	0xbd183048	-0.03715542
1	0x3e77109b	0.24127428
2	0x3ca2d09d	0.019874865
3	0x3cf46b97	0.02983646
4	0xbd33b4a0	-0.04387343
5	0x3cb5e912	0.022205863

feature_extractor.3.weight f4 [16, 6, 5, 5]
0	0xbd1162db	-0.035494667
1	0xbcea5faa	-0.02861007
2	0x3d7551f4	0.05989261
3	0xbcc6322c	-0.024193846
4	0xbd5cb565	-0.05388393
5	0x3d550ff1	0.052017156
6	0x3d411272	0.04713673
7	0x3d89de18	0.06731814
8	0xbd1495f4	-0.03627582
9	0x3cc9e38f	0.024644641
10	0xbd038a28	-0.032114178
11	0xbc31aa11	-0.01084377
12	0xbd8ca5d3	-0.06867566
13	0xbd3eff78	-0.046630353
14	0xbcfe86e5	-0.031070182
15	0x3d04aabf	0.0323894
16	0x3c9b8e99	0.018988894
17	0x3c575ec1	0.01314515
18	0x3d8c4124	0.06848362
19	0x3d949d38	0.072565496
20	0x3d68bbbb	0.05681966
21	0x3ba9ee3b	0.00518587
22	0xbd8caba5	-0.06868676
23	0x3d52294e	0.051308922
24	0xbc8a5e6c	-0.016890727
25	0xbc7f3f2a	-0.015579024
26	0xbd4834d2	-0.0488785
27	0x3ce4fccc	0.027952574
28	0xbd2fc66e	-0.042913847
29	0x3d837ef2	0.06420697
30	0xbdd00ab8	-0.101582944
31	0xbd0561ec	-0.03256409
32	0x3d1d08c5	0.03833844
33	0xbd3b9bff	-0.045803066
34	0x3c4c1ff2	0.012458788
35	0xbd61c77e	-0.05512189
36	0xbcb81205	-0.02246953
37	0x3d293f46	0.041320108
38	0x3d272d9e	0.04081499
39	0xbda816b2	-0.08207454
40	0x3cfebbc1	0.031095387
41	0x3dbdce91	0.09267915
42	0x3dcfa22d	0.101383545
43	0xbdb64c14	-0.089012295
44	0xbc093710	-0.008374944
45	0xbda54bbd	-0.080710866
46	0x3dbf573a	0.09342809
47	0xbc31ab85	-0.010844116
48	0x3c100ef5	0.0087926285
49	0xbc55d60f	-0.013051524
50	0xbc2590ab	-0.010105292
51	0x3bd06c6a	0.00636058
52	0x3c1909a2	0.009340676
53	0x3d077c24	0.033077374
54	0x3c6832d9	0.014172279
55	0x3ce9e749	0.028552668
56	0xbd76c511	-0.06024653
57	0x3d6ed346	0.058306955
58	0x3d888c30	0.06667364
59	0x3d90f1a0	0.07077336
60	0x3d8b0ea5	0.067899026
61	0xbd14e1fa	-0.03634832
62	0xbd24afe2	-0.040206797
63	0x3d439319	0.047747705
64	0xbd89c2c7	-0.06726604
65	0x3db49f01	0.0881939
66	0xbd96762f	-0.073467605
67	0xbda369cc	-0.079791635
68	0x3c4b96b9	0.012426072
69	0xbd72c0a6	-0.059265755
70	0xbc93dd8e	-0.018049981
71	0x3d7b50b4	0.06135626
72	0x3d3c2322	0.045931943
73	0x3d8f4875	0.06996242
74	0xbc20a024	-0.0098038055
75	0xbd8c6194	-0.06854549
76	0x3d9d7de4	0.07690027
77	0xbcc7244e	-0.024309304
78	0xbd226473	-0.039646577
79	0x3ca99181	0.020699264
80	0xbd6062e6	-0.054781817
81	0x3d5e3aa7	0.054255154
82	0x3d2f971c	0.04286872
83	0xbd9a1a87	-0.07524591
84	0xbd853092	-0.06503405
85	0x3b89f43c	0.004210023
86	0x3cf920ac	0.030411087
87	0xbc5263f5	-0.012841214
88	0xbd55e01c	-0.05221568
89	0x3b9ea8c7	0.004841897
90	0xbd9a69b9	-0.07539696
91	0xbd6bce30	-0.057569683
92	0xbd8ead82	-0.06966688
93	0x3d824a60	0.06361842
94	0x3d9c329b	0.0762684
95	0xbcff48f3	-0.031162715
96	0x3bae0769	0.005310942
97	0x3cec6feb	0.02886196
98	0x3c3b2f92	0.011424916
99	0xbd189258	-0.03724894
100	0x3d33a11f	0.04385483
101	0x3dc3840d	0.09546671
102	0x3d4e396f	0.05034774
103	0xbbd2f3f3	-0.0064377724
104	0x3db55995	0.08854977
105	0x3d984861	0.0743568
106	0x3c9d803f	0.019226192
107	0x3e245c7f	0.1605091
108	0x3c8ae92b	0.016956886
109	0xbd59771e	-0.053092115
110	0x3d85769e	0.06516765
111	0xbbfd480d	-0.0077295364
112	0x3df3a956	0.11897533
113	0xbdcabf85	-0.09899811
114	0xbc9913de	-0.018686231
115	0x3cb7825d	0.02240103
116	0x3d984492	0.07434954
117	0x3d329562	0.043599494
118	0xbdd5d50a	-0.104410246
119	0xbd8b7abd	-0.0681052
120	0xbdb40918	-0.08790797
121	0x3c878f3d	0.016547794
122	0xbcd34261	-0.025788488
123	0xbd4234ce	-0.04741364
124	0xbc718c09	-0.01474286
125	0x3d892f34	0.066984564
126	0x3e004175	0.1252497
127	0x3d029658	0.03188166
128	0xbcf6e892	-0.030140195
129	0xbc7c01f6	-0.015381327
130	0xbd04676d	-0.032325197
131	0x3dfaadc7	0.12240177
132	0xbc8233e9	-0.015893893
133	0x3c73f07c	0.014888879
134	0x3d03a032	0.032135196
135	0xbcc4990d	-0.023998762
136	0x3dba37a1	0.090926416
137	0x3cb044e1	0.021517219
138	0xbd01e76c	-0.03171484
139	0xbd302b76	-0.043010198
140	0x3a78cd22	0.00094910164
141	0xbb75cf19	-0.0037507473
142	0xbdd3cadc	-0.10341427
143	0xbdb185e2	-0.08668114
144	0xbb8f6a66	-0.0043766974
145	0x3bb559eb	0.0055344007
146	0x3cff83b1	0.031190725
147	0xbd8c5f27	-0.06854086
148	0xbcdae8a7	-0.026722265
149	0xbc1a88ec	-0.009432059
150	0xbd9bdb9d	-0.07610247
151	0x3da898ee	0.08232294
152	0x3d0757c4	0.033042684
153	0x3dae8597	0.08521574
154	0x3bda00d1	0.0066529294
155	0xbcbdb123	-0.023155754
156	0xbd7c94c0	-0.061665297
157	0x3a5aa88e	0.00083411566
158	0x3d8e0eb2	0.06936397
159	0xbda266d5	-0.0792977
160	0xbcf92fcb	-0.030418297
161	0x3d62ffd7	0.05541977
162	0x3d719124	0.058976308
163	0x3d1dad71	0.038495485
164	0xbc8d783e	-0.01726925
165	0xbd011c44	-0.031521097
166	0xbd388e86	-0.045057796
167	0xbd42af4f	-0.04753047
168	0x3d542569	0.05179349
169	0x3afba6f7	0.001919954
170	0xbd07f6a2	-0.03319419
171	0x3cd1834c	0.025575303
172	0xbd502853	-0.050819706
173	0x3c0697c3	0.008214894
174	0x3d87fef5	0.06640426
175	0x3c16e0a5	0.009208833
176	0x3da436d5	0.08018271
177	0xbd47355d	-0.048634876
178	0x3cb0dc32	0.021589372
179	0xbc828564	-0.015932746
180	0xbd4e729d	-0.050402272
181	0xbce0cba2	-0.02744085
182	0x3d976d14	0.07393852
183	0x3d58444c	0.052799508
184	0xbd5e689b	-0.05429898
185	0xbd44a286	-0.048006557
186	0xbd9e468c	-0.077282995
187	0x3dc93720	0.098249674
188	0x3c590699	0.013246202
189	0xba096db6	-0.00052424835
190	0xbc9abb10	-0.018888026
191	0xbd7c466f	-0.06159061
192	0xbdbb6595	-0.091502346
193	0xbcb1b790	-0.021693975
194	0x3dbdd225	0.092685975
195	0x3ccd639a	0.025071908
196	0xbd1ad3c1	-0.0377996
197	0xba94e510	-0.001135977
198	0x3d92d8df	0.07170271
199	0x3dadef60	0.08492923
200	0x3d94c7f4	0.072647005
201	0x3cb78d9c	0.022406392
202	0x3d7ead4b	0.062176984
203	0x3c83b2f1	0.016076537
204	0xbd744c6e	-0.0596432
205	0xbd8cc2a5	-0.06873063
206	0x3da49781	0.080367096
207	0x3b5d5893	0.0033774718
208	0x3c88ec16	0.016714137
209	0xb90479f9	-0.0001263394
210	0xbd5aa809	-0.053382907
211	0xbcff3869	-0.031154828
212	0x3b8f6f8a	0.00437731
213	0xbcf0f4c1	-0.029413583
214	0xbd806e4a	-0.06271036
215	0x3c061810	0.008184448
216	0xbb9ce451	-0.0047879596
217	0x3bd52e44	0.0065057594
218	0x3d942c23	0.07234981
219	0x3d1b42e1	0.037905578
220	0xbc9a1a00	-0.018811226
221	0x3e073ad1	0.1320603
222	0x3df25f49	0.118345805
223	0x3cdeae5c	0.02718275
224	0xbc9fad69	-0.019491868
225	0xbd8ba8e1	-0.068193205
226	0x3d9660ed	0.07342706
227	0xbc330423	-0.010926279
228	0xbd76945d	-0.060200084
229	0x3d680a9c	0.056650743
230	0x3d3ea37a	0.046542622
231	0x3d43f4b5	0.047840793
232	0xbc47b648	-0.012189455
233	0xbd258053	-0.040405583
234	0x3c9dde3a	0.019271005
235	0x3d92d4a7	0.071694665
236	0x3c00e501	0.007867099
237	0xbd024c88	-0.031811267
238	0x3db26041	0.08709765
239	0x3b5dfeeb	0.0033873867
240	0x3d740fea	0.05958549
241	0x3d121fcc	0.035674855
242	0x3de44217	0.11145418
243	0x3d9037aa	0.07041867
244	0xbd31f6d8	-0.0434483
245	0x3d9c601b	0.07635518
246	0x3cccdb74	0.025006987
247	0xbd71d278	-0.05903861
248	0xbd017396	-0.031604372
249	0xbd9f2fc3	-0.07772782
250	0xbdbbffc0	-0.0917964
251	0xbda5c9f3	-0.080951594
252	0x3d9533fa	0.07285304
253	0x3c2a3e8c	0.010390889
254	0xbcab5cca	-0.020918269
255	0x3d2b4c59	0.041820858

feature_extractor.3.bias f4 [16]
0	0xbcac9a76	-0.021069746
1	0xbd28efa5	-0.041244168
2	0x3badb842	0.0053015063
3	0x3ce13b9c	0.027494244
4	0x3d362057	0.044464435
5	0xbca10715	-0.019656697
6	0x3c2a6b85	0.010401611
7	0xbd150022	-0.03637708
8	0xbd84146d	-0.064492084
9	0xbd43abfe	-0.047771446
10	0xbd4e50e3	-0.05037011
11	0xbd4ce8c5	-0.050026674
12	0x3c927b99	0.017881202
13	0xbcca651b	-0.024706414
14	0x3d8ad4f3	0.06778898
15	0x3daad99c	0.08342287

feature_extractor.7.weight f4 [120, 400]
0	0xbd3306cc	-0.043707654
1	0x3c385c0d	0.011252415
2	0x3d0021b6	0.03128215
3	0xbd3ed96d	-0.046594072
4	0xbc9777c2	-0.018489722
5	0x3d062122	0.03274644
6	0xbd17b2e9	-0.037035856
7	0x3d4072e8	0.046984583
8	0xbbcf26f6	-0.006321783
9	0x3c680614	0.014161605
10	0x3d43740e	0.0477181
11	0xbcedf697	-0.029048247
12	0x3d2db05c	0.042404518
13	0xbd2ab61d	-0.041677583
14	0x3d21c84a	0.03949765
15	0xba659aa8	-0.00087587023
16	0x3d256d10	0.040387213
17	0x3a928b38	0.0011180406
18	0xbd27b8bf	-0.040947672
19	0x3ca808ec	0.020512067
20	0x3d00d83d	0.03145622
21	0xbc28c213	-0.010300177
22	0xbd5e41d5	-0.054262
23	0xbbfbe4bb	-0.007687179
24	0x3c1b406c	0.009475809
25	0x3bda11be	0.006654947
26	0x3d044d90	0.032300532
27	0xbb78ce74	-0.0037964853
28	0x3b20a81e	0.0024514268
29	0x3ae8c5c2	0.0017759132
30	0x3cd0a778	0.02547048
31	0x3cd0c6ca	0.025485415
32	0x3cb243e1	0.021760883
33	0x3bc01830	0.0058622584
34	0x3c2d7a7d	0.0105882855
35	0x3d1a4236	0.0376608
36	0x3c72e16e	0.014824254
37	0xbd1e005f	-0.038574573
38	0x3c7e9052	0.015537338
39	0x3d60b221	0.054857377
40	0xbc542988	-0.012949355
41	0x3cff1336	0.03113709
42	0xbd4f9bfe	-0.050685875
43	0xbb5c29ca	-0.0033594244
44	0x3cbe04dd	0.023195678
45	0xbd181a55	-0.037134487
46	0xbc65ba0b	-0.014021407
47	0xbb9a57e2	-0.0047101835
48	0xbc5e0831	-0.013551758
49	0xbd00a7fb	-0.0314102
50	0x3d2100c6	0.03930738
51	0xba9ae835	-0.0011818471
52	0xbc9655a8	-0.018351391
53	0x3cc92e4b	0.024558207
54	0x3c172a80	0.009226441
55	0xbc7bde93	-0.01537289
56	0x3d01e9ae	0.031716995
57	0xbc8f1f9a	-0.017471123
58	0x3d51aa91	0.051188055
59	0x3cebc776	0.028781634
60	0x39e07276	0.0004280989
61	0x3c7f7e5f	0.015594094
62	0xbbef1830	-0.0072965845
63	0xbcea4f5d	-0.028602296
64	0xbcc1c7b5	-0.023654798
65	0x3c80e7cb	0.015735528
66	0x3cacb0b3	0.02108035
67	0xbc11f95c	-0.00890955
68	0xbc335802	-0.010946276
69	0xbca2bfbd	-0.019866819
70	0xbcc4cb2b	-0.02402266
71	0xbc9d2808	-0.019184127
72	0x3d0c8e16	0.03431519
73	0xbd4c5130	-0.049882114
74	0x3c924279	0.017853962
75	0x3ce39a20	0.027783453
76	0xbc2dc794	-0.010606665
77	0x3be48172	0.006973439
78	0xbb527a1b	-0.0032116238
79	0xbd2c0514	-0.04199703
80	0x3c46995f	0.012121527
81	0xbc947178	-0.018120512
82	0x3cb776ff	0.022395609
83	0x3bdd1070	0.0067463443
84	0xbce43403	-0.027856832
85	0xbd6ae3fe	-0.057346337
86	0x3ccd8abe	0.025090571
87	0x3d3f3e11	0.04669005
88	0x3d00192a	0.031274
89	0x3cc3299c	0.023823552
90	0x3c196b15	0.009363909
91	0x3cc80f9e	0.02442151
92	0x3ce1fdbf	0.027586816
93	0xbb8994fe	-0.0041986695
94	0xbb203275	-0.0024444137
95	0x3bf2ba64	0.0074074734
96	0x3ce5aa52	0.028035317
97	0xbbc54105	-0.006019714
98	0x3d066293	0.03280885
99	0x3cd5ee5c	0.026114635
100	0xbd036b05	-0.032084484
101	0xbd3a5a4e	-0.045496278
102	0xbc7bc5a2	-0.015366944
103	0xbd0744a1	-0.033024434
104	0x3d6845fb	0.056707364
105	0xbcc746a9	-0.024325686
106	0xbd21e815	-0.03952797
107	0x3c87d5be	0.016581412
108	0x3cbecb10	0.023290187
109	0x3cd232ae	0.025658932
110	0x3d3768d8	0.04477772
111	0xbd623803	-0.0552292
112	0x3cb92624	0.022601195
113	0xbca5951c	-0.020212702
114	0x3c2cb9f6	0.010542383
115	0xbd007f0f	-0.031371173
116	0x3d58633d	0.052829016
117	0xbc207624	-0.009793792
118	0x3c933d44	0.01797355
119	0xbd382cc3	-0.044964563
120	0x3c988df3	0.018622374
121	0xbd15696b	-0.036477488
122	0x3c025790	0.007955447
123	0x3d3ab61c	0.04558383
124	0x3d0b2c79	0.03397796
125	0x3cd491fe	0.02594852
126	0xbc8c817e	-0.01715159
127	0x3c0210cf	0.007938578
128	0x3bfb5ec6	0.00767121
129	0xbd6982b3	-0.05700941
130	0x3cb50dfa	0.022101391
131	0xbd18ac90	-0.037273943
132	0x3c98e7b3	0.01866517
133	0x3d4fe1ad	0.05075233
134	0xbc8e2472	-0.017351363
135	0x3c4c510e	0.012470497
136	0x3d54e850	0.051979363
137	0x3d4ebf35	0.050475318
138	0x3d796404	0.060886398
139	0xbcbc41d9	-0.022980617
140	0x3b95f0b4	0.004575813
141	0xbd4befe0	-0.04978931
142	0x3ae41ae3	0.0017403032
143	0xbd4e114a	-0.050309457
144	0x3bdcf52e	0.006743095
145	0x3c861360	0.01636666
146	0xbd422579	-0.047399018
147	0xbba24eec	-0.004953256
148	0xbcd1d548	-0.025614396
149	0x3ce9a10d	0.028519178
150	0xbc00e742	-0.007867636
151	0x3cbb97ba	0.022899497
152	0xbcedddf8	-0.029036507
153	0x3bd217e6	0.0064115403
154	0x3d03cade	0.03217589
155	0x3b2a82af	0.0026017835
156	0xbc0f2468	-0.008736707
157	0xbcc381b0	-0.02386555
158	0x3c9b6af1	0.018971892
159	0x3c82ce18	0.015967414
160	0x3c047e4e	0.008086754
161	0x3d137b0a	0.03600601
162	0xbb4919e9	-0.003068561
163	0xbc837404	-0.016046531
164	0x3c5f973e	0.013646899
165	0x3cf78922	0.030216757
166	0xbd808cd7	-0.06276863
167	0xbd005179	-0.0313277
168	0x3bf9f5b6	0.007628168
169	0x3d223ac3	0.03960682
170	0x3cee6555	0.029101053
171	0x3c216bb2	0.009852337
172	0xbd5b1e1c	-0.05349551
173	0xbd0b0c26	-0.033947133
174	0x3cac1857	0.0210077
175	0x3bbc7b95	0.005752037
176	0x3cc877d2	0.024471197
177	0x3d1f21a4	0.03885044
178	0x3cd0d417	0.025491757
179	0xbcbb2986	-0.022846948
180	0xbcdf2722	-0.02724034
181	0xbc74f43e	-0.01495081
182	0xbb66c3d8	-0.0035211947
183	0xbbd974ea	-0.0066362517
184	0xbc460f01	-0.012088538
185	0x39e8df58	0.00044416892
186	0x3d0242e4	0.031802073
187	0xbcfd0cc8	-0.030889884
188	0x3cc4492b	0.02396067
189	0xbd43e305	-0.047823925
190	0xbadcda63	-0.0016849752
191	0xbd457ed5	-0.04821666
192	0x3d29b883	0.04143573
193	0xbd188f31	-0.037245933
194	0xbcbd7d4f	-0.02313104
195	0x3c9cd24a	0.019143242
196	0x3c8ff5a5	0.017573187
197	0x3d174b8d	0.036937285
198	0x3c6f0f7f	0.014591097
199	0xbd2a79a9	-0.04161993
200	0xbd0eedeb	-0.034894865
201	0x3d0b9867	0.03408089
202	0xbd46b151	-0.048508946
203	0x3d375081	0.04475451
204	0xbc0874b2	-0.008328604
205	0x3c14c372	0.009079801
206	0xbb0bfa80	-0.0021359026
207	0xbc4bb5d8	-0.012433492
208	0xbc46698b	-0.012110124
209	0x3c6fd1bb	0.014637406
210	0xbc0f53d4	-0.0087480135
211	0x3c0af4c3	0.008481207
212	0x3d2b47f6	0.041816674
213	0x3b95a294	0.0045665
214	0xbd1e6221	-0.0386678
215	0xbd195db6	-0.037442885
216	0x3d04d9e1	0.032434348
217	0x3c8e7523	0.01738984
218	0x3c1d83a9	0.00961391
219	0xbcc642e3	-0.024201816
220	0xbd269dae	-0.04067772
221	0x3d32014f	0.04345828
222	0xbd3f6129	-0.04672352
223	0xbcc7e370	-0.024400443
224	0x3cac0c3f	0.021001933
225	0x3d1857be	0.037193052
226	0xbb4de9ca	-0.0031419867
227	0xbd1cc691	-0.038275305
228	0x3c87b6d0	0.016566664
229	0x3b736dbb	0.0037144262
230	0xbb7388c7	-0.0037160383
231	0xbd50e0a4	-0.050995484
232	0x3d1d3cc7	0.03838804
233	0x3c23b903	0.009992841
234	0x3cc0821d	0.023499543
235	0x3c944dc8	0.018103495
236	0x3d2eed67	0.042706873
237	0xbccf9af6	-0.025342446
238	0xba4b5f38	-0.0007758024
239	0xbd259532	-0.040425487
240	0xbd6eb94f	-0.058282193
241	0xbcaface5	-0.021444747
242	0x3ca7f507	0.02050258
243	0xbd00854a	-0.031377114
244	0x3cfa778f	0.030574588
245	0x3bf4a307	0.0074657234
246	0xbca1db55	-0.019757906
247	0x3cd57b12	0.026059661
248	0x3d0b262f	0.03397196
249	0xbcb8dc5a	-0.02256601
250	0x3cf126c1	0.029437425
251	0x3cd08aca	0.025456805
252	0x3d1253cb	0.035724442
253	0xbd06615a	-0.032807685
254	0x3d57dd02	0.052701004
255	0x3b5e6f7e	0.0033940966

feature_extractor.7.bias f4 [120]
0	0x3caab82e	0.020839777
1	0x3d113b46	0.03545692
2	0x3cb2ce1c	0.021826796
3	0x3d0885ea	0.033330835
4	0x3d2bde9f	0.041960355
5	0xbcf56ec1	-0.029960038
6	0x3d1b4409	0.03790668
7	0xbb013c39	-0.0019719733
8	0xbcedcd5f	-0.029028593
9	0x3b8966df	0.0041931714
10	0x3cbdba63	0.023160165
11	0xbce018da	-0.0273556
12	0xbd159e54	-0.036527947
13	0xbd49cab0	-0.049265563
14	0xbcd9bf34	-0.02658043
15	0xbd23dc59	-0.04000506
16	0x3cf3a5a4	0.02974207
17	0xbcaa83b2	-0.02081475
18	0xbd33a185	-0.04385521
19	0xbce833f3	-0.028345084
20	0xbc282d3d	-0.010264692
21	0x3cfa55ea	0.030558545
22	0x3d11e7ce	0.035621457
23	0x3c88cdfd	0.016699785
24	0x3d2e35d9	0.042531822
25	0xbd207058	-0.03916964
26	0xbca3827d	-0.019959683
27	0x3d1a13d9	0.037616584
28	0xbc8209a2	-0.015873734
29	0x3c6c81eb	0.014435272
30	0xbc5a766c	-0.013333898
31	0x3ccbbc9b	0.024870208
32	0xbd4571bc	-0.04820417
33	0x3cd088da	0.02545588
34	0xbce0431e	-0.027375754
35	0xbcdbd6d9	-0.026835846
36	0x3d18477e	0.037177555
37	0xbcccea81	-0.025014164
38	0x3bd32c98	0.006444525
39	0x3a97250b	0.0011531425
40	0xbd16bf34	-0.03680344
41	0x3ce2f3fd	0.027704233
42	0xbd17fc5d	-0.037105907
43	0xbc906baf	-0.017629473
44	0xbd45734e	-0.048205666
45	0xbc3ae229	-0.01140646
46	0x3c84d066	0.016212653
47	0x3c59ad5c	0.013285961
48	0x3cbaf933	0.022823906
49	0xbc8bc3e4	-0.017061181
50	0x3c9a7c18	0.018858
51	0xbc493d0b	-0.01228262
52	0x3d292623	0.041296136
53	0xbcf00e89	-0.029303806
54	0xbb1572b1	-0.0022803957
55	0x3ab245ad	0.0013601087
56	0x3d147ee3	0.03625382
57	0xbc6c5d7f	-0.014426588
58	0xbd2052bf	-0.039141413
59	0x3c850206	0.016236316
60	0x3d44d6a2	0.048056252
61	0xbd039268	-0.032122046
62	0xbc8814f9	-0.016611563
63	0xbc73a182	-0.014870049
64	0x3d0beb2b	0.03415982
65	0x3bdf0a9c	0.0068066847
66	0xbd2aed25	-0.041730065
67	0x3d1bd409	0.03804401
68	0xbc5232c1	-0.0128294835
69	0xbd4037a8	-0.046928078
70	0x3d4150ec	0.047196314
71	0xbc2a948c	-0.010411393
72	0x3caf0e75	0.021369198
73	0xba0feb53	-0.0005490083
74	0x3d192317	0.03738698
75	0xbcab4bc9	-0.02091016
76	0xbc6dc522	-0.014512332
77	0xbcbff3f6	-0.02343176
78	0xbd0091f6	-0.0313892
79	0xbd01ec76	-0.031719647
80	0x3ce506bb	0.02795731
81	0xbd085b6f	-0.033290323
82	0x3a1da803	0.00060141104
83	0x3c07c867	0.008287526
84	0x3d577b02	0.052607544
85	0xbc90eb97	-0.017690463
86	0xbc838fbf	-0.016059754
87	0x3cdc98d6	0.026928347
88	0x3c3a4489	0.011368879
89	0x3cc2b827	0.023769451
90	0x3d285e00	0.04110527
91	0xbd268046	-0.040649675
92	0x3c5a160f	0.013310923
93	0x3b0c2c18	0.0021388587
94	0xbd39bf12	-0.045348234
95	0xbbcdd28d	-0.006281203
96	0x3c77545e	0.015095798
97	0x3ceb71eb	0.028740844
98	0x3b2c1a74	0.0026260884
99	0xbd0e4547	-0.034734037
100	0xbc48bf17	-0.012252591
101	0x3d3564a9	0.04428545
102	0x3cce2c7f	0.025167702
103	0xbd145a6b	-0.03621904
104	0x3c5d45b1	0.013505385
105	0xbc1f5d8d	-0.009726894
106	0x3c3ccdaa	0.0115236435
107	0x3d02954e	0.03188067
108	0xbcdd1682	-0.026988272
109	0xbb0023f5	-0.0019552682
110	0x3d289b81	0.041163925
111	0xbbe0a89b	-0.006856037
112	0x3d48623a	0.0489218
113	0xba41b6f2	-0.00073896267
114	0x3c1a296f	0.009409293
115	0xbc0cbb98	-0.008589648
116	0x3caefcfe	0.02136087
117	0xbc78ac25	-0.015177761
118	0x3d591341	0.052996878
119	0x3d398e2a	0.045301594

classifier.0.weight f4 [84, 120]
0	0x3c99cbf1	0.018774005
1	0xbd640d08	-0.05567649
2	0x3cb3b0f4	0.021934964
3	0xbb7fd0bf	-0.0039034334
4	0xbd9c9a7d	-0.07646654
5	0x3d106d9a	0.035260774
6	0xbd80c0eb	-0.06286796
7	0xbd436790	-0.047706187
8	0xbd96495e	-0.073382124
9	0x3d857faa	0.065184906
10	0x3d6e381e	0.058158986
11	0xbd5e8173	-0.05432267
12	0x3d8b2ab0	0.06795251
13	0xbd8b38d5	-0.06797949
14	0x3c06c787	0.008226282
15	0xbd63954b	-0.0555623
16	0x3d862477	0.06549924
17	0xbd17b381	-0.037036423
18	0xbc06382e	-0.008192105
19	0x3d244333	0.04010315
20	0xbda75efd	-0.081724145
21	0x3d8e62bd	0.069524266
22	0x3bbc2d6e	0.0057427203
23	0xbd5fe2c6	-0.054659627
24	0x3b0bb909	0.0021320006
25	0xbd04f4c7	-0.03246
26	0x3c965710	0.018352062
27	0x3d731983	0.0593505
28	0xbdaaa77f	-0.083327286
29	0x3d8f36b5	0.069928564
30	0xbcc71d31	-0.024305912
31	0x3d9c9733	0.076460265
32	0x3bdd8181	0.006759823
33	0x3d09fc57	0.033687916
34	0xbd34a096	-0.04409846
35	0x3c8a6af8	0.01689671
36	0x3b4370f1	0.0029821957
37	0xbca4aedb	-0.020102909
38	0xbd264787	-0.040595558
39	0x3b0b546b	0.0021260034
40	0xbdcbecb0	-0.09957254
41	0xbd5710e2	-0.052506335
42	0xbcc9d879	-0.024639355
43	0x3b225c53	0.0024774268
44	0xbd6af65b	-0.05736385
45	0xbd27d6f5	-0.040976483
46	0x3c7bc295	0.015366216
47	0x3ba52bd1	0.0050406237
48	0x3cbdb9c4	0.023159869
49	0xbd451b46	-0.048121713
50	0x3d970dca	0.07375677
51	0xbcbbc9cf	-0.022923378
52	0xbdb6d7ee	-0.08927904
53	0x3d661425	0.056171555
54	0x3bd468b7	0.0064822095
55	0xbc2c6223	-0.0105214445
56	0xbda82626	-0.08210401
57	0xbd2fd9cd	-0.04293232
58	0x3d571876	0.052513562
59	0xbc6ad6b0	-0.014333412
60	0xbd5bd064	-0.053665534
61	0x3d8ca169	0.06866724
62	0xbd96ed03	-0.07369425
63	0x3d96b25d	0.07358239
64	0xbcfa4d50	-0.030554444
65	0x3d1ccdfe	0.038282387
66	0x3c3d82d4	0.011566836
67	0x3dd7be99	0.105344005
68	0x3ceaa2d0	0.028642088
69	0xbbc96816	-0.006146441
70	0x3dafe355	0.08588282
71	0xbd93677e	-0.07197474
72	0x3c911b07	0.017713083
73	0x3ceb50fc	0.02872514
74	0xbd5832e1	-0.052782897
75	0xbd690dbb	-0.05689786
76	0xbd4930cd	-0.049118806
77	0xbd450468	-0.048099905
78	0xbc5003c6	-0.012696212
79	0xbd666c07	-0.056255367
80	0x3d7f30f8	0.06230256
81	0xbb079525	-0.0020688262
82	0x3dcd6993	0.10029902
83	0x3c5a6b88	0.0133313015
84	0x3ae5299e	0.0017483716
85	0x3c022cf1	0.007945285
86	0xbd20c8f0	-0.03925413
87	0xbd0c3559	-0.034230564
88	0x3d1ee78f	0.03879505
89	0xbc2e8d09	-0.010653743
90	0x3c09e32c	0.008415978
91	0xbbb7b1f0	-0.0056059286
92	0x3dc3c9fb	0.09560009
93	0xbdd62d71	-0.10457886
94	0xbd73dd05	-0.059536953
95	0xbd4159af	-0.04720467
96	0xbce59345	-0.028024325
97	0x3d91c790	0.07118142
98	0x3d807f43	0.06274273
99	0xbd571105	-0.052506465
100	0xbcccd0f2	-0.025001977
101	0x3dcfb383	0.10141661
102	0xbda15717	-0.07877939
103	0x3c19c0c8	0.009384342
104	0x3d0435fb	0.032278042
105	0x3d3b8d5b	0.045789104
106	0x3dd8e1fe	0.105899796
107	0x3d735131	0.059403602
108	0x3c380020	0.011230499
109	0xbdb3f536	-0.08787005
110	0xbd29eaca	-0.041483678
111	0xbc75b5fc	-0.014997002
112	0xbd882150	-0.06646979
113	0xbd079cb8	-0.033108443
114	0x3b576ca5	0.0032871154
115	0xbd10aefb	-0.035323124
116	0x3c4b6654	0.012414534
117	0x3d1a804f	0.03772002
118	0x3d88b789	0.066756316
119	0xbd8c2c83	-0.068444274
120	0x3da4ff23	0.08056476
121	0x3d1608fe	0.03662967
122	0x3bed86c9	0.0072487337
123	0xbcd161b3	-0.025559282
124	0xbce279b0	-0.027645916
125	0x3b8895a4	0.004168229
126	0xbc45e16f	-0.012077673
127	0xbdb14099	-0.08654899
128	0x3c6e97ff	0.014562606
129	0xbd75cf06	-0.060011886
130	0xbd9de212	-0.07709135
131	0x3d5c2815	0.053749163
132	0xbc880755	-0.016605059
133	0xbcc3d68d	-0.023906017
134	0xbc4c16b6	-0.012456587
135	0xbd1e7acc	-0.038691327
136	0x3d3fd760	0.046836257
137	0xbb528cc8	-0.003212737
138	0xbd24d34b	-0.040240567
139	0x3da98cc8	0.08278805
140	0x3d855024	0.06509426
141	0x3d88950e	0.06669055
142	0xbdb97fe2	-0.09057595
143	0x3c997b64	0.018735595
144	0x3b317f1d	0.0027083822
145	0x3d9fc4c2	0.078012004
146	0x3cc4d346	0.024026524
147	0x3c9244d4	0.017855085
148	0x3d77691d	0.06040298
149	0x3d222852	0.039589234
150	0xbda87380	-0.08225155
151	0xbdb1feff	-0.08691215
152	0xbd522d49	-0.05131272
153	0xbca18689	-0.019717472
154	0x3cafc64e	0.021456864
155	0x3d6a5e46	0.057218812
156	0xbdaa3080	-0.08310032
157	0xbc636aac	-0.013880413
158	0xbd91b7a6	-0.07115106
159	0x3da16508	0.07880598
160	0x3d7714e9	0.060322676
161	0x3d5673e5	0.05235662
162	0xbc2f7aa8	-0.010710396
163	0xbd6b23c3	-0.057407152
164	0xbd3c4f96	-0.045974337
165	0xba9797e4	-0.0011565653
166	0x3a2cbc0f	0.0006589302
167	0xbb218173	-0.0024643808
168	0x3d9c75a0	0.07639623
169	0xbd4257c1	-0.04744697
170	0x3d8f65fa	0.07001872
171	0x3d25005f	0.040283557
172	0xbd94b2fe	-0.072607026
173	0xbd2bcb5c	-0.041941985
174	0xbd611e52	-0.054960556
175	0x3a9d2789	0.0011989932
176	0x3d45e722	0.04831613
177	0x3d5271da	0.05137811
178	0xbc9f45cb	-0.01944246
179	0x3da044a9	0.07825596
180	0x3d2e52a7	0.042559292
181	0x3c4dee8b	0.01256908
182	0xbd970c32	-0.07375373
183	0xbd9e12dd	-0.07718442
184	0x3d6a47e8	0.05719748
185	0x3d46fe20	0.048582196
186	0xbd3355b3	-0.0437829
187	0xbd8b123c	-0.06790587
188	0x3b84d1bc	0.0040533226
189	0xbdaa47c7	-0.08314472
190	0x3d7af70c	0.06127076
191	0x3d41b358	0.047290176
192	0x3cccef29	0.025016384
193	0xbd867c6a	-0.06566699
194	0xbc5d1cec	-0.013495665
195	0xbd406079	-0.046967003
196	0x3d3c40de	0.0459603
197	0x3db18d1a	0.08669491
198	0x3af98cf2	0.0019039197
199	0xbcbfe538	-0.02342473
200	0x3d8068ea	0.06270011
201	0xbcad8850	-0.021183163
202	0xbd2a4f1a	-0.041579343
203	0xbd9c3673	-0.07627573
204	0x3c49684d	0.012292934
205	0x3d93217b	0.0718412
206	0x3d69798d	0.057000685
207	0x3cfc30d3	0.030785
208	0x3d7d5086	0.06184437
209	0xbd9458b5	-0.07243482
210	0x3db7886b	0.089615665
211	0xbcf55faa	-0.029952843
212	0xbdb60a12	-0.088886395
213	0x3d2b363c	0.04179977
214	0x3cbe3763	0.02321977
215	0xbc904814	-0.017612495
216	0xbdb113d5	-0.08646361
217	0x3a80e71f	0.0009834504
218	0xbd3d6519	-0.046238992
219	0xbd588184	-0.05285789
220	0x3da6ff60	0.08154178
221	0x3d2ce40c	0.04220967
222	0xbda3c535	-0.07996599
223	0xbd20700d	-0.03916936
224	0xbd336dec	-0.043806
225	0xbda7987d	-0.08183382
226	0xbd983640	-0.07432222
227	0x3db94419	0.09046192
228	0x3be5e3a6	0.007015663
229	0x3d97c848	0.074112475
230	0x3c74cd25	0.014941488
231	0x3db3c78f	0.08778297
232	0xbd61d57f	-0.055135246
233	0x3cb0b038	0.021568403
234	0xbd3a2df7	-0.04545399
235	0x3d047a04	0.032342926
236	0x3d8fd3d6	0.070228264
237	0x3d8c0d6b	0.06838497
238	0xbd7d77fd	-0.061882008
239	0xbb46b117	-0.0030317956
240	0x3c2c006c	0.010498147
241	0x3ccfea71	0.025380345
242	0xbd28a60e	-0.041173987
243	0x3d0f7d2b	0.03503148
244	0xbd927297	-0.071507625
245	0xbd1dbfe1	-0.038513068
246	0xbcb0d58f	-0.021586208
247	0xbc764b6a	-0.015032629
248	0xbdaeca32	-0.085346594
249	0x3d706ede	0.05869948
250	0xbbe6587d	-0.0070295916
251	0x3d30da32	0.043176837
252	0xbb141a37	-0.0022598633
253	0x3ba4f046	0.0050335256
254	0x3daa0697	0.08302038
255	0x3d8a650a	0.06757553

classifier.0.bias f4 [84]
0	0xbbf7633c	-0.0075496715
1	0xbdb0a647	-0.08625465
2	0x3d2aa656	0.041662537
3	0x3db2a60b	0.087230764
4	0x3cb671e7	0.02227111
5	0x3d265ee1	0.040617827
6	0x3da35648	0.07975441
7	0x3d5e549e	0.054279916
8	0xbd2090a9	-0.03920046
9	0x3d40b784	0.047050014
10	0xbd9844b4	-0.07434979
11	0x3dbdbd2d	0.09264598
12	0x3d7c5924	0.06160845
13	0xbd47518e	-0.04866176
14	0xbcde42fb	-0.027131548
15	0xbd60524b	-0.05476598
16	0xbd0aa8a1	-0.033852223
17	0xbd6e08c5	-0.058113832
18	0xbda75fce	-0.0817257
19	0xbc58e8c5	-0.01323909
20	0x3d193ca9	0.037411366
21	0x3d6aa2b9	0.05728409
22	0xbcf3b9f7	-0.02975176
23	0xbd8a8fb5	-0.06765691
24	0x3d61b958	0.0551084
25	0x3b989708	0.004656676
26	0xbadfedda	-0.0017084435
27	0x3d419b92	0.047267504
28	0xbcd61bb6	-0.02613626
29	0x3d31c48d	0.043400336
30	0x3d056215	0.03256424
31	0xbc5f1bb9	-0.013617449
32	0x3b4edda6	0.0031565218
33	0xbcbbf18d	-0.022942329
34	0xbd24af8d	-0.04020648
35	0xbbc67214	-0.0060560796
36	0xbd9994b3	-0.07499065
37	0xbd8faee7	-0.07015782
38	0x3ac0b78c	0.0014703139
39	0xbdb25ffa	-0.08709712
40	0xbc0dfdca	-0.008666465
41	0xbda571f2	-0.08078374
42	0x3cfe41ba	0.0310372
43	0x3c964fce	0.0183486
44	0xbd2c1b82	-0.04201842
45	0xb98de989	-0.00027067613
46	0x3d3e523a	0.046465136
47	0xbd9cb146	-0.07651
48	0xbd9b51bd	-0.0758395
49	0x3cbaaa8b	0.0227864
50	0x3cb53356	0.022119205
51	0x3d363cae	0.044491462
52	0x3c474682	0.0121628065
53	0xbdbc6297	-0.09198492
54	0xbd41ac61	-0.047283534
55	0x3b73b8ed	0.0037189082
56	0xbd31d619	-0.04341707
57	0xbd0b64a4	-0.034031525
58	0x3cac022b	0.020997128
59	0xbd566b7b	-0.052348595
60	0x3c2e20ab	0.010627906
61	0x3dcaf163	0.09909322
62	0x3db8537c	0.090002984
63	0xbc381d84	-0.011237506
64	0x3d6c8c45	0.05775096
65	0xbd988545	-0.07447294
66	0x3d572869	0.052528773
67	0x3c491a71	0.0122743705
68	0x3da6be04	0.08141711
69	0x3d88563c	0.06657073
70	0xbdab3554	-0.08359781
71	0x3db09d25	0.08623723
72	0x3d869909	0.06572158
73	0x3da0aca3	0.07845428
74	0x3d5e6e67	0.054304507
75	0xbd34bcb4	-0.044125274
76	0xbb64f65b	-0.0034936878
77	0xbb9a57d2	-0.004710176
78	0x3d32bc9c	0.043636903
79	0x3d30d7e3	0.043174636
80	0xbd1a618d	-0.037690688
81	0xbc9c5615	-0.019084016
82	0xbd16ae76	-0.036787473
83	0x3b6edd1b	0.0036447707

classifier.2.weight f4 [10, 84]
0	0xbde840a6	-0.11340456
1	0xbdb24966	-0.08705406
2	0x3dceeb23	0.101034425
3	0xbcfbc607	-0.030734075
4	0x3c481e43	0.012214246
5	0xbd25b3b1	-0.04045457
6	0x3bfa38fe	0.0076361885
7	0x3cb7f15b	0.022453954
8	0xbda60240	-0.08105898
9	0x3dca3f3e	0.09875344
10	0xbdbaa3e7	-0.09113293
11	0xbc93f8f5	-0.018063048
12	0x3d6986b3	0.057013225
13	0xbde0c252	-0.10974564
14	0x3dd5fc67	0.104485326
15	0x3de0b07f	0.10971164
16	0xbe527f68	-0.20556414
17	0xbcca65a4	-0.02470667
18	0xbdb91f39	-0.090391584
19	0x3e40293b	0.18765728
20	0xbe1208eb	-0.14261214
21	0xbe2f8429	-0.17140259
22	0xbda0d38f	-0.078528516
23	0x3d72b2d1	0.059252564
24	0x3cb1643b	0.021654239
25	0xbdf2457d	-0.1182966
26	0xbcf14fc2	-0.029456977
27	0xbd89561c	-0.06705877
28	0x3e27368c	0.16329402
29	0xbde53eba	-0.11193605
30	0x3cf22699	0.02955942
31	0x3d6c1abb	0.05764268
32	0xbe3eab29	-0.1861998
33	0x3ce35fed	0.027755702
34	0xbc2cf5a5	-0.010556613
35	0x3ccf5c1a	0.025312472
36	0xbd7d75ab	-0.061879795
37	0xbe1439d7	-0.14475189
38	0xbb5bb823	-0.0033526502
39	0xbc0315fa	-0.008000845
40	0xbd620b9e	-0.05518686
41	0x3e368286	0.17823228
42	0xbd881931	-0.0664543
43	0xbde85225	-0.11343793
44	0x3cbb05f6	0.02282999
45	0xbdeada3f	-0.114674084
46	0x3df3f5b9	0.11912102
47	0x3e6039cf	0.21897052
48	0x3e1db99f	0.1540284
49	0x3dc15690	0.094403386
50	0xbe5cd47d	-0.21565433
51	0x3d2df542	0.042470224
52	0xbe2b02de	-0.16700312
53	0xbd40f4c1	-0.047108416
54	0xbddd5adc	-0.10808346
55	0xbdad973e	-0.08476113
56	0x3d8c2c3d	0.06844375
57	0x3d9f3340	0.07773447
58	0x3d480be1	0.048839454
59	0x3d601645	0.054708738
60	0x3e49f26c	0.19721383
61	0x3d6dc90a	0.058053054
62	0xbdb6df4a	-0.08929308
63	0x3da50761	0.08058048
64	0xbd1be40b	-0.038059276
65	0xbb9adbc8	-0.004725907
66	0x3d4ab57f	0.049489494
67	0x3c4536d3	0.012036997
68	0x3d86370a	0.065534666
69	0xbd12463b	-0.03571151
70	0xbd71e3e5	-0.059055228
71	0x3c562b7f	0.013071894
72	0x3dc39727	0.095503144
73	0xbe25c48a	-0.16188255
74	0xbe1ef4af	-0.15523027
75	0x3d017a10	0.03161055
76	0x3d785b93	0.060634207
77	0x3cca75d3	0.024714386
78	0xbe32ee0b	-0.17473619
79	0xbe0db82b	-0.13839786
80	0xba893fbc	-0.0010471265
81	0x3d15ead1	0.03660089
82	0xbe4b10eb	-0.19830672
83	0x3de439f1	0.11143864
84	0xbde8b76d	-0.11363111
85	0x3d095d90	0.033536494
86	0xbcfd32c6	-0.030908
87	0xbdbc7adf	-0.09203123
88	0x3cbfdce0	0.023420751
89	0x3cfd2c7c	0.030905
90	0x3def948c	0.11698255
91	0x3e2a6aa6	0.16642246
92	0x3e564f7d	0.2092876
93	0x3e14ae6f	0.14519666
94	0xbe1ca621	-0.15297748
95	0x3e264385	0.16236694
96	0x3e5fb50c	0.21846408
97	0xbd9bbb2e	-0.07604061
98	0x3df81a6b	0.12114414
99	0xbe87dd88	-0.26536202
100	0xbe05a656	-0.13051733
101	0x3dd1d671	0.102459796
102	0x3ded72c5	0.11594156
103	0x3cab7239	0.020928489
104	0xbdce9f24	-0.100889474
105	0xbafb88d2	-0.0019190556
106	0x3dbe604d	0.09295712
107	0x3d006f70	0.031356275
108	0x3db3cda4	0.08779457
109	0xbd198f12	-0.037489958
110	0x3daf2fc1	0.0855403
111	0xbd04c225	-0.032411713
112	0x3d49915c	0.04921089
113	0x3d1dc5b4	0.038518623
114	0xbe2332df	-0.15937375
115	0x3dd94504	0.10608867
116	0x3debb948	0.11509949
117	0xbe08c9f2	-0.13358286
118	0xbb743baf	-0.003726702
119	0x3de2533a	0.110510305
120	0x3da20e53	0.079128884
121	0x3e0c2628	0.1368643
122	0x3dbb5121	0.091463335
123	0xbd3910c2	-0.045181997
124	0x3d2a1f3c	0.041533694
125	0xbddb28a7	-0.10701113
126	0xbcf4dd2a	-0.029890615
127	0xbd55deb5	-0.052214343
128	0xbd95a286	-0.073063895
129	0x3e476fbc	0.19476217
130	0xbde0ce35	-0.10976831
131	0x3e253c07	0.1613618
132	0x3ddbc2b0	0.10730493
133	0x3da57972	0.080798045
134	0x3e112659	0.14174785
135	0xbdec6323	-0.11542346
136	0x3dc9361a	0.09824772
137	0xbcff29c6	-0.031147849
138	0xbdff9829	-0.12480194
139	0xbca81026	-0.020515513
140	0x3d0d4897	0.034493055
141	0xbdbac5a9	-0.09119732
142	0xbd7bb834	-0.061454967
143	0x3dc5eff6	0.096649095
144	0xbd9220e5	-0.071351804
145	0x3de7dd2c	0.11321482
146	0xbdbf85be	-0.09351681
147	0xbe0a1647	-0.1348506
148	0x3dca39b8	0.0987429
149	0x3dda7c58	0.10668248
150	0x3e0ca167	0.13733445
151	0x3e0618f4	0.13095456
152	0x3e326b44	0.17423731
153	0x3d8c3d1b	0.068475924
154	0x3c188d78	0.0093110725
155	0x3d1bfbc3	0.038081896
156	0x3daada71	0.08342446
157	0x3d93c54a	0.07215364
158	0xbd88a46f	-0.06671988
159	0x3d74781b	0.059684854
160	0xbdafb026	-0.085785195
161	0xbdf163db	-0.11786624
162	0x3d092bf6	0.03348919
163	0x3e0848e8	0.13309062
164	0x3c009ad1	0.007849411
165	0x3e0cf6ab	0.13765971
166	0xbdb7f159	-0.0898158
167	0xbe2950aa	-0.16534677
168	0xbcc6c0ca	-0.02426185
169	0xbdc97f15	-0.09838692
170	0x3e15343f	0.14570712
171	0xbe3af6f3	-0.18258266
172	0x3e04bbb2	0.12962225
173	0x3e3045d5	0.17214139
174	0x3dc446ce	0.095838174
175	0x3dd90984	0.10597518
176	0x3aac012d	0.0013122909
177	0xbc5a52a1	-0.013325364
178	0x3e1f51ff	0.15558623
179	0xbdb05309	-0.08609588
180	0xbd026504	-0.031834617
181	0x3d920db2	0.071315184
182	0xbde8151d	-0.11332152
183	0x3d567881	0.052361015
184	0x3e2cf887	0.1689168
185	0x3d4cef89	0.050033126
186	0xbdd7a7ed	-0.10530076
187	0xbc9c0acc	-0.019048117
188	0xbe410ac2	-0.1885176
189	0x3d93d29c	0.07217905
190	0x3e17beb1	0.14818837
191	0x3dca9187	0.098910384
192	0x3bf06d46	0.007337245
193	0x3dbe5c5f	0.09294962
194	0x3df25fef	0.11834704
195	0x3e544e85	0.20733078
196	0xbc29c01d	-0.010360745
197	0x3e019d38	0.1265763
198	0xbdca8489	-0.0988856
199	0x3d8319bd	0.064013936
200	0xbe0a81d0	-0.13526082
201	0xbde516cb	-0.11185988
202	0xbe015f8d	-0.12634106
203	0xbd69922f	-0.057024177
204	0xbc9e5344	-0.019326814
205	0xbdad8086	-0.084717795
206	0xbe5dd8ff	-0.21664809
207	0x3db09bf6	0.08623497
208	0xbca6fdf4	-0.020384766
209	0x3d680602	0.056646354
210	0x3e2aea1d	0.1669087
211	0x3e027cd1	0.12742926
212	0xbe411fd7	-0.18859802
213	0xbd9489b7	-0.072528295
214	0xbd5afa38	-0.053461283
215	0x3d022e67	0.031782534
216	0x3c8f1900	0.017467976
217	0x3b8540f9	0.0040665832
218	0x3cc4a48c	0.024004243
219	0x3e5b962b	0.21444003
220	0x3d6fcfc7	0.05854776
221	0x3dd6c309	0.10486419
222	0xbe499484	-0.1968556
223	0xba620310	-0.0008621672
224	0x3d7b1adb	0.06130491
225	0x3d9ba2b9	0.07599396
226	0xbe0390d8	-0.12848222
227	0xbd2f6866	-0.04282417
228	0x3dd2d18c	0.10293874
229	0x3d5f75a5	0.054555554
230	0xbe6317e9	-0.2217709
231	0xbe1b7d13	-0.15184431
232	0xbd4ce0f0	-0.050019205
233	0xbd3a74e1	-0.04552162
234	0xbe15e197	-0.14636837
235	0xbde6676f	-0.11250197
236	0x3e63e048	0.22253525
237	0xbd4159f0	-0.04720491
238	0x3d6c849c	0.057743654
239	0x3df940e2	0.121705785
240	0x3be43774	0.0069646183
241	0xbb158dcd	-0.0022820116
242	0x3e1b4834	0.15164262
243	0x3e2d0172	0.16895083
244	0x3c7e9148	0.015537567
245	0xbd14bb5a	-0.036311485
246	0x3d06cab1	0.032908145
247	0xbcae3f9a	-0.021270562
248	0xbdcf24cc	-0.1011444
249	0xbd8ac5df	-0.06776022
250	0x3e17f377	0.14838968
251	0xbe27ae19	-0.16375007
252	0x3dd439e9	0.10362608
253	0xbb5344a4	-0.0032236958
254	0x3cb0186d	0.021496022
255	0xbdf369e4	-0.118854314

classifier.2.bias f4 [10]
0	0xbca1a1b8	-0.019730434
1	0xbc2e31cb	-0.010631989
2	0xbcdc1f33	-0.026870346
3	0x3cd3b4b0	0.025842994
4	0xbd267799	-0.0406414
5	0x3d7f9ace	0.062403493
6	0x3d6c9e42	0.057768114
7	0xbcf81872	-0.030285094
8	0xbd892fb5	-0.066985525
9	0x3d65ece2	0.056134112
