checkpoints/noise_rate_0.2/models/tsf/epoch61.pth (torch, 250639 bytes, 10 tensors)

feature_extractor.0.weight f4 [6, 1, 5, 5]
00000000: a7a8 0b3e 4b64 7dbd 46ae f2bc 7674 aa3d
00000010: e7db 55be 3e1a 323e 8c09 893c 9c63 1e3e
00000020: 2ef5 7a3d 4403 17bc 7b66 c83d be99 923d
00000030: 85ed 143e 1195 56bc 1939 143d b725 a7bc
00000040: 37dd 3e3d bb54 253d 87e9 6b3e a3db fc3d
00000050: 6054 dcbd 1bd8 12be 138a 16bd 0928 87bd
00000060: e1e8 d1bc d629 ba3d db3b 683e 672d 333e
00000070: 3028 53be f24e 8f3d ac9f 1f3e 1e3f a23e
00000080: fc47 463e 3423 5bbe 40f9 7fbe 8b20 6b3c
00000090: e2d5 9d3e 7061 263d 4f5f a73d 3451 eabd
000000a0: dc50 923e 8622 ea3c d2ff 783e 8719 5c3d
000000b0: 7fe8 8cbd 9d24 233e 7d76 c1bc 8b25 213e
000000c0: aba2 0a3d 583a 863d bf21 72be 0c53 0dbe
000000d0: cfc5 9e3d 765e 24bd 2440 743e 70ed 1b3e
000000e0: 40b5 1fbb f09c c3bd bfd3 453e d177 0a3e
000000f0: 887f b1bd 5a89 423e 5d22 513e 864b 863e
00000100: 4b6a 6ebd 4fdd 0d3d 5940 8b3d d590 c63d
00000110: 177b dbbd 5528 02be c3e7 2b3e 8b21 073c
00000120: 2d39 103e 9f42 043d c2f1 893d dc07 0e3d
00000130: 8647 9e3d 4b62 dd3d c981 34be b742 e73d
00000140: dbb7 18be 1882 17be 3ada f03c c587 a7ba
00000150: c1b7 2b3e 6607 f5bd a29c 2abe 9f69 3a3e
00000160: 99e1 e23c feac 363e afe2 843d fb07 05be
00000170: 0b98 ac3d 4f81 d13d 64d9 b5bd 9c49 bcbd
00000180: 3f72 b83d 6e1e 903d 8d0c 5abd 59ee 2ebd
00000190: a387 783e 4354 b93d 4391 7a3e 0779 2c3e
000001a0: 4ad5 f2bd dbae 83bd b19d d03e 452e 6a3e
000001b0: ef6e 893e 7cd0 c73d eb6c 833e 5e42 e13e
000001c0: 1a2e df3e 1880 2fba 54fa c33d aa4f b23e
000001d0: 8510 c63e 4ddb 9f3e a226 1cbd 9ed3 87bd
000001e0: 4002 8038 0ca4 173e 07e9 983e b4f2 24bd
000001f0: 828e 483e 37ee e9bd c5a6 27be f1c2 e33c
00000200: 5262 713e fb77 983e 379b a9bd bc84 133e
00000210: 4981 b23e 375e b33e 3d90 943e 9ef2 6a3e
00000220: 4fbe 883e 157c 803e 901c a33d 92b6 4ebc
00000230: 2d0f cfbc ac1e 983d 3ece 9f3c 6bd8 773e
00000240: 498e 4b3e 2f44 cbbc 3f87 e53d 5418 0c3e
00000250: cd36 643e 6892 6a3e
0.13638555 -0.061863225 -0.029624116 0.083229944 -0.20884667 0.17392823 0.016728185 0.15467685
0.061268978 -0.009217087 0.097851716 0.0715823 0.14543732 -0.013097064 0.036187265 -0.020403726
0.046597686 0.04036401 0.23038302 0.1234658 -0.10758281 -0.1434025 -0.03675277 -0.06599433
-0.02562374 0.09090011 0.22679083 0.17497788 -0.20620799 0.069974795 0.15588254 0.3168878
0.19363397 -0.21400148 -0.24997425 0.014351021 0.30827242 0.040620267 0.081724755 -0.114412695
0.28577316 0.028580915 0.24316338 0.053735282 -0.068802826 0.15931936 -0.02361607 0.15736978
0.03384654 0.06554097 -0.23645686 -0.13801211 0.07752573 -0.040129147 0.23852593 0.15227294
-0.0024369508 -0.09551418 0.19319056 0.13522269 -0.08666903 0.18997708 0.20423265 0.26229495
-0.058206838 0.034634884 0.06799383 0.09695593 -0.10716837 -0.12710698 0.16787629 0.008247743
0.14084311 0.032290097 0.06735565 0.034675464 0.07728486 0.108097635 -0.17627634 0.11292022
-0.14913885 -0.1479572 0.029400934 -0.0012781551 0.16769315 -0.11964302 -0.16661313 0.18204354
0.027695464 0.17839429 0.06488549 -0.12991326 0.084274374 0.10229742 -0.088793546 -0.091937274
0.09006166 0.07037054 -0.053234626 -0.042707775 0.24270491 0.09049275 0.24469475 0.16843043
-0.11857088 -0.064298354 0.4074531 0.22869213 0.26842448 0.09756562 0.25669035 0.43995947
0.4358986 -0.00066948077 0.09569231 0.34826404 0.38684478 0.31222 -0.03812278 -0.0663216
6.103935e-05 0.14808673 0.29865286 -0.040270522 0.19585612 -0.11422389 -0.16372211 0.027802916
0.23572662 0.29779038 -0.08281558 0.14406103 0.34864262 0.35032818 0.29016295 0.22944114
0.26707694 0.25094667 0.07964432 -0.01261677 -0.025275791 0.07427725 0.019507524 0.2420365
0.19878496 -0.024812786 0.11207437 0.13681155 0.2228653 0.22907412

feature_extractor.0.bias f4 [6]
00000000: fc94 2cbd 63b5 743e cdca e83b b683 373c
00000010: 99ac 9bbd c20d 81bc
-0.04213427 0.23897319 0.007104254 0.011200836 -0.0760128 -0.01575363

feature_extractor.3.weight f4 [16, 6, 5, 5]
00000000: a0dd 26bd 89a1 00bd a4f7 6e3d 1f75 d3bc
00000010: c211 6fbd 713b 303d 67b9 2a3d 5eb4 893d
00000020: ce41 06bd 5e07 c63c 324f e4bc 117a 2bbc
00000030: f8f2 83bd adf3 28bd 08a3 f5bc d409 143d
00000040: 34cc ab3c a240 9b3c 238d 963d 140c 973d
00000050: 7456 603d 08a4 d53b adfb 6bbd d60f 713d
00000060: 8b05 9fbc 74b7 50bc b4be 5abd fcdd 603c
00000070: 6768 25bd f3c4 873d 8b21 a6bd 398e 15bd
00000080: dc44 0d3d edf8 2cbd 7a06 803c a783 11bd
00000090: 5c93 28bc 7da0 0b3d d79c 493d 87d3 9ebd
000000a0: 08b1 193d 1aa3 aa3d 1e64 cc3d 6ac6 95bd
000000b0: 4ee9 afb9 e15c 90bd 1dba b93d 6265 25bc
000000c0: 253d 053d f433 abbb 6ab5 20bc 8664 b23b
000000d0: 1129 893c e96e 083d 9c25 083c aa5b 103d
000000e0: 5828 61bd a4c4 7c3d 8947 863d 4cc8 8f3d
000000f0: 36c4 983d a1b2 3dbd 2b2d 24bd 3abf 633d
00000100: bb07 89bd 35c4 a63d b91a 89bd 272b 8fbd
00000110: 156e aa3c 628f 82bd 7768 6dbc 7e3a 833d
00000120: 09dc 563d dcfa 8f3d cbed 86bc 0934 84bd
00000130: 1604 a63d c134 96bc 667b 1dbd 7de0 a33c
00000140: 1b41 4ebd 87e5 693d 52b9 3c3d 05fc 90bd
00000150: d234 86bd 9a53 1c3b 6d00 0a3d 7a70 ddbb
00000160: 3219 39bd a109 603b 3e1f 91bd dadb 65bd
00000170: 6c7b 7dbd a9ba 873d 4ff6 983d c1bc bbbc
00000180: 8bab ae3b 65a4 033d 440b 523c 09be 18bd
00000190: 7650 393d 74d5 a53d fe57 123d 32ce d0bb
000001a0: d3d2 863d 7018 b53d 088a 7a3c a78d 053e
000001b0: 4548 963c ff5c 81bd 88e9 883d 3b96 76bc
000001c0: 20f1 c63d 46c0 afbd 6570 1fbc c56b d83c
000001d0: 4e17 5b3d 7e86 7d3d 71b2 a6bd 975e 85bd
000001e0: eabe a8bd 769d 953c 94c9 d2bc 3d76 bebc
000001f0: 22cc c3bc 62cd 493d 711d d23d cb4b ca3c
00000200: 299e 1dbd 2636 29bd c98d 11bd 8984 da3d
00000210: 22e9 56bc 29a0 003c 805b 5c3c 44b6 97bc
00000220: 9aca 933d 5069 c43c fee9 ccbc dd10 4dbd
00000230: 98ad 0ebc c5e3 353b 240e a5bd c16b a1bd
00000240: 0850 a0bc ebce 90bb fc9e 043d 782e 3cbd
00000250: 6730 dcbc 6ad3 f4bc cb68 9cbd c3be a03d
00000260: 21f8 c83c b2dc a53d de6e 97bb 4aab 78bc
00000270: f3da 74bd 2baa 04bc d71a 893d 1ed7 9cbd
00000280: b3f0 cbbc 33ad 763d 0e69 773d 99be 3b3d
00000290: a8a3 d7bb d6f6 82bc efc7 04bd 4ab8 14bd
000002a0: 7e5e 463d af39 5fbb abf3 0bbd a289 c33c
000002b0: a6dc 47bd b2e5 f83a 4570 863d 5b3b a83c
000002c0: 4253 a33d 6306 15bd 3d61 a13c bdce 93bc
000002d0: 3176 0bbd dc6e c5bc 7a9b 853d 1481 403d
000002e0: 7f72 0abd 6373 37bd 8738 8dbd 979d ce3d
000002f0: bfc3 5d3c cdcc 363c aaf6 d7bc 0c8b 6ebd
00000300: b15f 96bd a1c6 8fbc 4147 c03d e32a 6d3c
00000310: 0dad f6bc 5201 6dbb e9a5 a13d 153a ae3d
00000320: 457f aa3d 536f 083d 4f06 573d b673 a73a
00000330: d9a4 6dbd 9c99 7fbd 8442 8e3d c91d 1a3a
00000340: 8013 d83c abbc aebb a122 7abd 17cb 08bd
00000350: 5731 a23c ea72 89bc 3a78 91bd 21ca 5b3c
00000360: dbfc 1e3b 6f3c 423a 6040 833d 2000 323d
00000370: 0bca c6bc dd44 ef3d 1d3a c23d c31a 2b3d
00000380: 70ed a1bb 9cca 85bd 5f39 8f3d 601f 88bc
00000390: 0c7b 69bd 7d1e 4d3d 336b 233d 8103 083d
000003a0: 6e97 66bc c40f 01bd c897 3d3c f9b9 873d
000003b0: 43a6 913c fa47 f8bc 18cc ae3d 407b 913b
000003c0: c715 773d 0853 0c3d c068 cc3d 4390 873d
000003d0: 9c22 14bd cc14 893d a209 883c 7e44 66bd
000003e0: e374 9cbc e909 9bbd 2b25 5ebd b2a8 54bd
000003f0: 6a1e a53d 09b8 1a3b 72c5 bebc 4c8b 8d3d
-0.0407387 -0.031404052 0.058341637 -0.025812684 -0.058366545 0.043025438 0.04168072 0.067238554
-0.0327776 0.024173435 -0.027869795 -0.010466115 -0.06442827 -0.041248012 -0.029984966 0.036142185
0.020971395 0.018951718 0.073511384 0.073753506 0.054769948 0.006519798 -0.057613064 0.058852993
-0.019411823 -0.012739051 -0.053404525 0.0137248 -0.04038277 0.06629362 -0.081118666 -0.036512587
0.034489498 -0.04222958 0.015628088 -0.035525944 -0.010289039 0.0340886 0.04922184 -0.077551894
0.037522346 0.083318904 0.09980033 -0.07313235 -0.00033552427 -0.07048965 0.090687014 -0.010094972
0.032529015 -0.005224699 -0.0098088775 0.0054441122 0.016743215 0.033308897 0.008309748 0.035243668
-0.054970115 0.06171097 0.06556613 0.070206255 0.07459299 -0.046312932 -0.040082138 0.05560229
-0.066909276 0.08142892 -0.0669455 -0.069906525 0.020804444 -0.06375004 -0.014490238 0.06407641
0.052455936 0.070302695 -0.01647081 -0.064552374 0.08106248 -0.018335702 -0.03844776 0.020004505
-0.05035506 0.05710366 0.046075173 -0.07079319 -0.065530434 0.0023853541 0.033691812 -0.006757793
-0.045190044 0.0034185427 -0.07086037 -0.05611787 -0.061885282 0.066273995 0.07468855 -0.022917153
0.005330508 0.0321392 0.012820069 -0.037290607 0.04524275 0.080973536 0.035728447 -0.0063722366
0.0658318 0.08842552 0.015291698 0.13042317 0.018345008 -0.06316566 0.066851676 -0.015050466
0.0971396 -0.08581595 -0.009731387 0.026418576 0.053489022 0.06189584 -0.08139504 -0.06512182
-0.08239539 0.01826356 -0.025730886 -0.02324974 -0.023901049 0.049268134 0.10259522 0.024694344
-0.03848091 -0.041311406 -0.035535607 0.1066981 -0.013117107 0.007850685 0.01344955 -0.018519528
0.072163776 0.023975998 -0.02501392 -0.05006491 -0.00870838 0.002775417 -0.08059338 -0.078818806
-0.019569412 -0.004419198 0.03237818 -0.045942754 -0.026878549 -0.029885966 -0.07637175 0.07848885
0.02453238 0.08098735 -0.0046213707 -0.015177557 -0.05977912 -0.008097212 0.066945724 -0.07658218
-0.024895048 0.06022377 0.060402922 0.045836065 -0.0065807886 -0.015986841 -0.032417234 -0.036308564
0.04842996 -0.0034061482 -0.034167927 0.02386934 -0.04879441 0.0018989353 0.065643825 0.020536115
0.079748645 -0.036383044 0.019699687 -0.018042916 -0.034048263 -0.024100713 0.065237954 0.0469981
-0.0338006 -0.044787776 -0.06895547 0.100886516 0.013535439 0.011157227 -0.026362736 -0.058238074
-0.073424704 -0.017550768 0.093885906 0.014475557 -0.030111814 -0.0036164117 0.07892973 0.08507172
0.08325056 0.033309292 0.05249625 0.0012775573 -0.05801854 -0.062402353 0.069462806 0.0005879072
0.026376486 -0.0053325496 -0.06106818 -0.033396807 0.019798918 -0.016778428 -0.071030095 0.0134148905
0.00242596 0.0007409518 0.06408763 0.04345715 -0.024266263 0.116830565 0.094837405 0.04177357
-0.004941635 -0.06532785 0.069933645 -0.016616523 -0.057002112 0.050077904 0.039897155 0.033206467
-0.01407419 -0.031509176 0.011571832 0.06627268 0.017779475 -0.030307759 0.085350215 0.0044397414
0.060323503 0.034258872 0.09980917 0.066193126 -0.03616582 0.0669342 0.016606156 -0.056217663
-0.019098705 -0.075702496 -0.054234665 -0.051918693 0.08062442 0.0023608229 -0.023287509 0.069113344

feature_extractor.3.bias f4 [16]
00000000: 7375 a4bc d2e4 3abd 16d9 c83b 105a 173d
00000010: 634f 5f3d 08a3 b7bc bd7f b33b 82c3 21bd
00000020: 6cd4 83bd 3bf2 4bbd 021b 46bd 3c6a 4dbd
00000030: 5926 bd3c 59f2 aabc cfee 893d 8ef0 9f3d
-0.020075535 -0.045628376 0.0061293943 0.036951125 0.05451907 -0.022416607 0.005477874 -0.03949309
-0.06437001 -0.049791556 -0.0483656 -0.05015014 0.023089575 -0.020867513 0.06735002 0.07809554

feature_extractor.7.weight f4 [120, 400]
00000000: 813a 2ebd 9e09 3e3c 8ddf f33c ad6b 39bd
00000010: 633d 8cbc 5dc1 0b3d 5432 17bd 8c4d 3c3d
00000020: ad9e 6abb b4bd 2a3c c980 473d 4d4b 18bd
00000030: 39fd 303d f138 3abd e6e6 153d d3bc 6339
00000040: b1cf 323d bb6a 1dbb 4694 3cbd 1827 933c
00000050: 13c4 f93c 8dcd 2cbc 853f 53bd d3a4 f4ba
00000060: aab7 1c3c 7af2 3b3c 8ed9 b83c e0b4 3bbc
00000070: 6056 0cbb 84dd 24bb c127 b93c e5a6 9e3c
00000080: abab b03c 5dce 7c3b 5756 283c e8e3 153d
00000090: 235b 3d3c 6ead 2dbd 776e 683c 5332 6c3d
000000a0: 775f 4abc 1d2a 063d ef92 22bd 529c 6abb
000000b0: 244e 013d f34f 09bd ba10 17bc b916 043a
000000c0: 195e 5cbc 8a03 dabc 4628 073d ad0d 3dbc
000000d0: 6c7f 93bc 21ed eb3c 93d3 193c dd38 9ebc
000000e0: 3bce 043d 3532 d9bc 9095 4c3d 5711 233d
000000f0: 1cf8 a13b 6241 933c 1f59 84bc 936b 0abd
00000100: 080d cfbc 5acf 7e3c e75d b93c 70ae 8ebb
00000110: 6f41 6ebc 84ca 8ebc 09bd c1bc 1202 9fbc
00000120: b7e7 063d 7ba7 49bd cc3f e03c 837a 013d
00000130: 50f6 55bc d8ed ebbb 9795 43bc f37e 2cbd
00000140: a004 133c 1c76 cabc 5b87 a73c dad0 d8ba
00000150: 785d e8bc fd66 60bd a4b9 053d b590 3c3d
00000160: 5e19 2a3d 2da4 833c f429 893c 7c68 ba3c
00000170: 5a1d 133d 741d 4439 6290 8f3a e8ae 9c3c
00000180: a072 ee3c 71a9 3cbc 01fd d53c ef31 1f3d
00000190: 08d0 cfbc a7d2 40bd 3ccb b7bb 8c34 ebbc
000001a0: 23cb 4c3d 12a3 59bc 7123 bebc 96db e53c
000001b0: 8f64 8a3c 4658 8a3c d6a8 493d 5e07 3dbd
000001c0: a2ad e13c 5863 b5bc 35c2 a63c eafe cabc
000001d0: d757 483d 57c6 48bc 34ac 063c 3469 0bbd
000001e0: e85f ae3c 27c5 3abd 150f ac3c dacb 4a3d
000001f0: be0d 2d3d 0ec1 c23c 2317 bebc 460a a13b
00000200: b2a0 233c 2aa2 58bd 0172 ba3c fa61 2cbd
00000210: 7f9c ad3c b1df 453d 7ac8 8dbc fa3a 513c
00000220: ba10 593d ba7b 493d ebf0 503d dac0 d9bc
00000230: 933b ca3b ffd6 45bd 00d2 493b e5f6 59bd
00000240: db8d bf3b d3d5 963c 9247 43bd 3856 4ebb
00000250: 9ebb b2bc 7ffd 253d 6f3c 4bbc 6a06 ae3c
00000260: 87ff 16bd a603 6a3b e729 033d 8f35 4a3b
00000270: 9ecf 9bbc 8a5e cabc a5ae c63c 524b 893c
00000280: 6df8 0c3c 3c6d 203d cbfe 4fbc e1cf cabc
00000290: d57a 0b3c 4280 eb3c b92d 71bd f7ff fbbc
000002a0: b11c 253c 8ced 0b3d a22d d93c ae86 3c3c
000002b0: f57c 4abd 3c76 d7bc f1fb cc3c 1978 133c
000002c0: 678a d43c 05af 193d b465 e23c bcdf a9bc
000002d0: 050a d9bc 3a31 1fbc c9de b3ba e4af 94bb
000002e0: 2f94 2bbc e555 d43b 03f6 063d f95b febc
000002f0: 2ed0 c83c 1270 45bd d1cf 393b ba74 37bd
00000300: ade4 413d b528 2bbd 6f30 d5bc 5b60 d73c
00000310: 338d a93c c3bf 1a3d cdb1 683c 40aa 29bd
00000320: fb4f 0fbd 0df2 0b3d 471b 47bd 94f8 373d
00000330: 4f8d 0abc c838 153c da4e 0cbb 28b2 4dbc
00000340: 31cb 48bc 7c33 713c 6884 0fbc c8ac 093c
00000350: 0b42 2b3d a34e 933b 552b 20bd 5a49 1abd
00000360: d8cf 023d 61e2 8e3c b9a2 1c3c 17b4 cbbc
00000370: 42dd 26bd ac02 313d 21da 3fbd a6c4 cabc
00000380: 9750 a43c 832e 353d 5033 31bc 5516 2cbd
00000390: 4885 813c 4bfa 7f3b d3d3 fbbb c80c 32bd
000003a0: 5c0e 263d e0ca e73b 2bc9 b03c 286b bb3c
000003b0: 613a 203d c0e6 a1bc c4e8 083b 5dd8 0ebd
000003c0: 594d 3ebd bdb6 a7bc 21c7 953c b99f e4bc
000003d0: 49b8 083d e6d7 2d3c 8035 9abc 7061 b63c
000003e0: 8760 0f3d d621 afbc 0f61 d73c a677 113d
000003f0: 68ad 403d d02b fabc c23c 433d 1d47 cc3b
-0.042536262 0.011598973 0.029769683 -0.045268703 -0.017119115 0.034119952 -0.03691323 0.045972392
-0.0035800145 0.010421205 0.048706803 -0.037181187 0.043210242 -0.04546446 0.036597155 0.0002171875
0.0436551 -0.0024019915 -0.046039842 0.017962977 0.030489003 -0.010547054 -0.05157425 -0.0018664844
0.009565273 0.011471385 0.022564676 -0.011456698 -0.0021413788 -0.0025156448 0.022601964 0.01936669
0.021566233 0.003857515 0.010274491 0.0365943 0.011557373 -0.042401724 0.014186493 0.05766518
-0.012351862 0.032755006 -0.039690908 -0.003579874 0.03156866 -0.03352351 -0.0092202965 0.00050387863
-0.013450169 -0.026613016 0.032997392 -0.011538905 -0.018005095 0.028799595 0.009388822 -0.019314224
0.03242324 -0.026513198 0.04994732 0.03981146 0.004942907 0.017975513 -0.016155777 -0.033793997
-0.025274768 0.015552366 0.022627784 -0.0043542907 -0.014541968 -0.017430551 -0.02364971 -0.019410167
0.032935824 -0.049231987 0.02737417 0.031610977 -0.013059214 -0.007199984 -0.0119375205 -0.042113256
0.008973271 -0.024714522 0.020450285 -0.0016541735 -0.028364882 -0.054785717 0.032647744 0.04603644
0.0415281 0.016069496 0.016743638 0.0227549 0.035916664 0.00018702989 0.0010953064 0.01912637
0.029107392 -0.011515007 0.026121618 0.03886598 -0.025367752 -0.047075894 -0.005608944 -0.02871158
0.049998414 -0.013283508 -0.02321026 0.028058808 0.016893653 0.016887795 0.04923328 -0.046149604
0.027548615 -0.022142097 0.020356277 -0.024779756 0.048911896 -0.012254319 0.008219767 -0.034035876
0.021285966 -0.045598175 0.021003285 0.049510814 0.042249434 0.023773696 -0.023204392 0.004914555
0.009987043 -0.052889027 0.02275944 -0.042085625 0.021192787 0.048309032 -0.017307509 0.012770409
0.052994467 0.04919026 0.051011007 -0.026581217 0.0061716526 -0.04830074 0.0030795336 -0.053213973
0.005845768 0.018412506 -0.047675677 -0.0031484496 -0.021817978 0.040524956 -0.012404545 0.021243293
-0.036864784 0.003570774 0.032022383 0.0030854677 -0.019019898 -0.024703283 0.024253199 0.016759548
0.008604151 0.039166674 -0.012695025 -0.024757328 0.008513172 0.028747682 -0.058881495 -0.030761702
0.010077641 0.03416209 0.026511017 0.0115067195 -0.049435575 -0.026301496 0.025022479 0.0090008015
0.025944902 0.037520427 0.027636386 -0.020736568 -0.026494035 -0.009716326 -0.0013723011 -0.0045375694
-0.010472341 0.006479966 0.03294946 -0.031049715 0.02451333 -0.04820258 0.0028352628 -0.044789053
0.047337223 -0.041786868 -0.026024071 0.026291063 0.020697212 0.037780534 0.014202547 -0.04142213
-0.034988385 0.034166384 -0.048609998 0.044914797 -0.008456542 0.009107776 -0.0021409304 -0.012554683
-0.012255476 0.0147217475 -0.008759595 0.008403011 0.04181103 0.004495458 -0.039103825 -0.03766761
0.031936496 0.01744193 0.0095602805 -0.024866147 -0.04073835 0.04321544 -0.046838883 -0.024751972
0.02005796 0.04423381 -0.0108154565 -0.042013485 0.015810624 0.0039059098 -0.0076851635 -0.04346922
0.040541038 0.007073745 0.0215803 0.022878245 0.039118174 -0.01976335 0.0020890692 -0.03487431
-0.046460483 -0.020472879 0.018283429 -0.027908193 0.033378873 0.010610556 -0.018824339 0.022263259
0.035004165 -0.021378439 0.026291398 0.035514496 0.047040373 -0.03053847 0.047665365 0.0062340633

feature_extractor.7.bias f4 [120]
00000000: aac8 a93c 00db 143d bca4 a13c d291 013d
00000010: 7076 2c3d 1197 05bd 8232 123d 91ff 1c3a
00000020: c0bf 03bd 4272 7c3b aa96 b83c ef2c e7bc
00000030: d547 1fbd 5931 4abd 24e2 dabc 950e 27bd
00000040: adf3 f53c 0f45 b2bc b672 36bd 88c1 f5bc
00000050: 2597 3bbc 4a6f f93c 2f36 133d 814c 823c
00000060: f15b 293d fec0 22bd 8d2c b1bc 8246 0e3d
00000070: 8762 8ebc c96f 773c 2f65 4bbc b964 d73c
00000080: ea4b 49bd 7609 af3c 0a99 e9bc 3a55 f3bc
00000090: faf4 1b3d 2e39 cdbc 255f df3b 4a64 893a
000000a0: 5d8e 10bd f986 e43c f7ce 0fbd 1227 92bc
000000b0: 6d61 43bd 9ce4 41bc 54c4 723c c518 5a3c
000000c0: 5127 c23c 617b 8abc bab0 953c a4b3 48bc
000000d0: e04d 2b3d d6d5 e9bc b3de 8abb 1feb f939
000000e0: d4bb 153d a49e 80bc 8955 1cbd 00ff 703c
000000f0: 8bd6 383d 8f95 11bd 70bd 87bc e716 74bc
00000100: 0a50 0a3d 068f e13b 43e6 30bd 0959 1f3d
00000110: 7b6f 5bbc 6873 40bd 5c41 423d fc68 32bc
00000120: 44d9 af3c 86bc ae3a 2d65 123d 5d2f b3bc
00000130: 50ff 81bc eb5b cbbc b345 03bd 1aca 01bd
00000140: dc34 e53c 50f8 07bd 8f06 a1ba f627 d63b
00000150: 0b53 4f3d 1648 91bc 3a27 8dbc 790a ba3c
00000160: eaca 3d3c aaf7 a83c fd18 2c3d b564 25bd
00000170: 745b 6c3c eb88 1ebb 7b36 39bd ec23 b6bb
00000180: 8039 6e3c fe8d ec3c ea1c 203b e076 07bd
00000190: 2d3d 61bc a3cb 283d 19c2 c13c a27c 14bd
000001a0: 77a6 553c f6f8 25bc 8f0b 133c 7104 033d
000001b0: 7319 c8bc 1c3f 2abb e7cd 213d 1161 e4bb
000001c0: e9cf 483d 98ca 8dba 3b42 eb3b 5d16 0dbc
000001d0: c553 b53c 46d7 6dbc 3b98 533d 5dfc 323d
0.020725567 0.036341667 0.019731872 0.031633206 0.04210514 -0.03261477 0.0356927 0.000598901
-0.03216529 0.0038520251 0.02253278 -0.028219668 -0.038886864 -0.049363468 -0.02671916 -0.04078539
0.03002342 -0.021761445 -0.04454299 -0.02999951 -0.01144961 0.030448575 0.035940345 0.01590562
0.041347448 -0.039734833 -0.021627689 0.03473521 -0.017380966 0.015102335 -0.012414261 0.026293145
-0.049144663 0.021366816 -0.028515358 -0.029703725 0.038075425 -0.02505168 0.006816762 0.0010482159
-0.03529202 0.027896391 -0.035109486 -0.017840896 -0.047700334 -0.01183429 0.014817316 0.01331157
0.023700388 -0.016904535 0.018272746 -0.012249861 0.041822314 -0.028544348 -0.0042379736 0.0004766816
0.03655608 -0.015700646 -0.03816751 0.014709234 0.04512648 -0.03554302 -0.016569823 -0.0148980385
0.033767737 0.006883505 -0.043188345 0.03890327 -0.013393278 -0.04698506 0.047425613 -0.010889288
0.021465905 0.0013331331 0.03574102 -0.02187317 -0.015868813 -0.024824103 -0.032048892 -0.03168688
0.027979307 -0.033195794 -0.001228528 0.0065355254 0.050616305 -0.017734569 -0.017230619 0.022710072
0.011584023 0.020625908 0.04201602 -0.040379245 0.014426101 -0.0024190496 -0.045217972 -0.0055584814
0.014540076 0.0288763 0.0024431297 -0.033072352 -0.013747496 0.041209828 0.023652123 -0.03625167
0.013040177 -0.010130158 0.008974924 0.031986658 -0.024426198 -0.0025977558 0.039503004 -0.006969579
0.049026404 -0.0010817824 0.007179526 -0.008611289 0.022134671 -0.014516657 0.05165885 0.043697704

classifier.0.weight f4 [84, 120]
00000000: eb5c ee3b 72ca 4cbd 8263 da3c d731 cabb
00000010: 19e0 9cbd 81c7 ca3c 3f01 80bd 4376 14bd
00000020: 6d24 85bd 14be 893d d659 3e3d db69 55bd
00000030: 083d 7f3d 0c93 8bbd 12ff 063c e4e2 89bd
00000040: b475 593d f985 31bd 60a0 99bc 918b f73c
00000050: c823 acbd b5e9 733d f85e c43b 669b 69bd
00000060: ad7e 34bb e297 3dbd 80f4 d23c bb14 383d
00000070: 7676 9cbd 2501 8b3d e24f d1bc 7620 a03d
00000080: aac1 da3a 95f8 113d 8706 28bd cef6 643c
00000090: 3e5e 09bc 3458 a2bc f94e 3abd 0fc6 363b
000000a0: 4f82 adbd 5299 57bd 10a2 02bd 380d 163b
000000b0: f23f 74bd dd14 38bd a478 1f3c 842e 333a
000000c0: 9ca3 d93b 859d 41bd 7579 953d 4cd8 babc
000000d0: e104 95bd ac8d 533d 6c15 413c fbd8 70bb
000000e0: b38a a8bd 9c47 5abd cbbb 503d 1997 8dbc
000000f0: bcd7 77bd e51b 813d bae3 97bd d48b 7b3d
00000100: efbe fcbc a931 1d3d dbdd 493c e0bb c83d
00000110: 00ff 083d 3ad7 c9bb 24e8 af3d ea3a 95bd
00000120: 1d70 573c 0b1f f53c e63f 6bbd 0993 4abd
00000130: 003f 31bd 85b0 41bd 8f2a 37bc aa17 67bd
00000140: 1570 a03d f89a 15bb 4e5c bc3d c124 c13c
00000150: 9a6b 27bc 4380 023c 2c17 45bd a557 3cbd
00000160: 1173 143d cdaa 37bc b54e 203c 1195 f2bb
00000170: 035d ab3d 8c8c bbbd b6a2 64bd 0830 40bd
00000180: 7b40 efbc 2888 933d 20bb 7c3d e9b5 72bd
00000190: 8889 e2bc c451 bf3d b91f 8fbd f8c8 1a3c
000001a0: e594 1b3d 37c2 2d3d 1185 a53d a0f0 733d
000001b0: 1247 9b3c 1f3b b3bd fef0 22bd 5c5b 81bc
000001c0: 634a 88bd 03a9 30bd c5d8 733c 6c2a 11bd
000001d0: 090e 7d3c d715 0f3d c8d5 683d fac9 8ebd
000001e0: 0b4c a53d fafc 143d 9aa5 fc3b 595e debc
000001f0: 3c0b e3bc 101e 2a3b 8dcb 3fbc 8a68 b0bd
00000200: 3871 673c cb86 76bd f695 a0bd 51b1 5c3d
00000210: 750a 76bc 2651 c4bc 496c 4cbc ee86 20bd
00000220: 38b8 423d e427 4dbb e2cf 29bd be78 b03d
00000230: b0d3 873d 6acc 8c3d 97f7 b9bd b846 8e3c
00000240: 8e29 a63b 0884 a03d 1d7f cb3c fcfc 973c
00000250: 6cd5 6f3d f416 213d b753 a7bd 7fb2 b6bd
00000260: ea8e 4bbd 9861 abbc 8984 af3c cae6 673d
00000270: de92 a6bd ea23 5ebc f208 93bd 3538 a13d
00000280: 572c 623d 88fd 563d 1c0b 20bc 15a6 6cbd
00000290: b7af 3bbd e848 84ba 198c 9139 f4b9 c7ba
000002a0: 3722 a23d 735a 43bd 7548 8c3d 769a 253d
000002b0: 5404 92bd 8f6d 28bd 297b 63bd 0ed8 e2ba
000002c0: bb65 463d f2b1 543d c289 9bbc e18e a03d
000002d0: fee5 303d b963 773c 2f6d 97bd 727d 9ebd
000002e0: 00cf 673d 5982 473d cbc6 33bd 8599 8cbd
000002f0: ad2d 5e3b 22b5 aabd d596 7b3d 209d 443d
00000300: 0aba ce3c 1b3c 85bd 3a6d 74bc c534 3cbd
00000310: a8d7 333d 7bfe b13d fa0e 683b 3c5f c0bc
00000320: bcac 803d 749e adbc 1473 31bd 969c 9cbd
00000330: ac47 433c 637f 933d f0e8 693d fba8 053d
00000340: 40c2 803d 484b 95bd d36b b33d 7280 f2bc
00000350: 05ba b5bd 073c 273d 6b42 af3c 91c5 abbc
00000360: cd35 b1bd 1029 813a 8c96 38bd 251a 69bd
00000370: 296a a73d 48ac 2e3d eed7 a2bd 3fd6 20bd
00000380: 9feb 3abd 9c75 a8bd 087a 93bd b1ba b93d
00000390: fda3 8a3b 95b9 963d 6d60 7d3c 8a3f b43d
000003a0: 5e61 62bd 3dd5 c03c 0973 39bd 72cf 043d
000003b0: 853a 903d fe8b 8c3d e47a 7cbd 84b1 6abb
000003c0: 7ca8 6b3c ce7c bf3c 5dd3 0cbd 571f d63c
000003d0: dbcc 92bd b663 f8bc 4ee6 c7bc 2ce7 b6bc
000003e0: 8838 80bd bd97 823d 9348 56bc c5bf 313d
000003f0: f512 2abb 5451 a53b 4def aa3d 1770 8f3d
0.0072742603 -0.049997754 0.026658777 -0.006170492 -0.07659931 0.024753334 -0.06250238 -0.036245596
-0.06501088 0.06725708 0.046472393 -0.052102905 0.062314063 -0.06815156 0.008239524 -0.06732729
0.053090766 -0.043340657 -0.01875323 0.030217918 -0.08405262 0.059549052 0.0059927665 -0.057032965
-0.0027541325 -0.046287425 0.025751352 0.044941645 -0.07639782 0.06787328 -0.025550786 0.078186914
0.0016689796 0.035637457 -0.04102185 0.013974858 -0.0083842855 -0.01981745 -0.04548547 0.0027889048
-0.0847212 -0.052636452 -0.031892836 0.0022896063 -0.059631296 -0.04494177 0.009733353 0.00068352395
0.006641818 -0.047269363 0.07298557 -0.022808217 -0.07276321 0.05164878 0.0117848925 -0.0036750424
-0.0822958 -0.05329095 0.050960343 -0.017283963 -0.060508475 0.063041486 -0.07416482 0.061412647
-0.030852763 0.038377438 0.012320961 0.09801459 0.033446312 -0.00615969 0.08589199 -0.072866276
0.0131492885 0.029922029 -0.057433985 -0.04945663 -0.043272972 -0.047287483 -0.01117958 -0.056419052
0.07833878 -0.0022827964 0.09197293 0.023577096 -0.010218525 0.00796515 -0.0481178 -0.04598202
0.03624255 -0.011210156 0.00978439 -0.007403024 0.0836735 -0.091576666 -0.055819236 -0.046920806
-0.029205551 0.07203704 0.061701894 -0.059255514 -0.02765347 0.093417674 -0.069884725 0.009447329
0.037983794 0.042421546 0.08082021 0.05955565 0.018954787 -0.08751511 -0.03978061 -0.015790634
-0.06654813 -0.043129932 0.014883225 -0.035440847 0.015445241 0.034932937 0.056844503 -0.06972118
0.08071145 0.03637407 0.007710171 -0.027144598 -0.027715318 0.002595786 -0.011706245 -0.08613689
0.014126115 -0.060187142 -0.07841103 0.05388004 -0.015017142 -0.023964476 -0.012476989 -0.03919118
0.047538966 -0.0031304294 -0.041458018 0.0861678 0.06632173 0.068749264 -0.09080427 0.017367706
0.0050708717 0.07837683 0.024840886 0.01855325 0.058553144 0.03932853 -0.08170264 -0.08920764
-0.04969684 -0.02092056 0.021425502 0.056616582 -0.081334814 -0.013558367 -0.071794406 0.07872049
0.055218067 0.05248788 -0.009768274 -0.057775576 -0.04582187 -0.0010092529 0.00027760936 -0.0015237913
0.07916682 -0.04769368 0.068497576 0.04043051 -0.07129732 -0.04112011 -0.055537377 -0.0017306821
0.04843686 0.051927514 -0.018986586 0.07839752 0.043188088 0.015099459 -0.07393872 -0.077387705
0.056593895 0.048708294 -0.043890756 -0.06865219 0.0033901737 -0.083353296 0.06142314 0.04800141
0.025235195 -0.06505605 -0.01491862 -0.045948762 0.043906838 0.086911164 0.0035409317 -0.023482911
0.062829465 -0.02119372 -0.043322638 -0.07647054 0.011918943 0.072020315 0.057106912 0.032631855
0.0628705 -0.072897494 0.087608 -0.029602263 -0.08873371 0.04082873 0.021393975 -0.02096823
-0.0865284 0.0009854157 -0.045065448 -0.0569097 0.08174545 0.04264477 -0.079513416 -0.03926682
-0.045634862 -0.08225557 -0.0720101 0.09068812 0.0042309747 0.07359616 0.015464884 0.088011816
-0.055268638 0.02353918 -0.04527572 0.032424398 0.07042412 0.06862639 -0.061640635 -0.0035811374
0.0143834315 0.023374941 -0.03438126 0.02613799 -0.07167979 -0.030320983 -0.02440181 -0.022327028
-0.062607825 0.06376598 -0.0130788265 0.043395776 -0.002595124 0.0050450955 0.08346424 0.07003801

classifier.0.bias f4 [84]
00000000: 4252 19bc 3356 b1bd 71fe 343d 30b3 a73d
00000010: c5fd a53c a1cf 223d 5b53 a03d 2100 5d3d
00000020: bff9 2abd 89c1 473d 3f37 9ebd be38 b73d
00000030: 8e47 763d 8843 44bd 644f cebc 7b35 6cbd
00000040: e6da 1fbd 0d2c 64bd 7c88 b0bd a983 70bc
00000050: 9c75 1b3d f812 653d 1818 f3bc 6695 8cbd
00000060: 2ce4 583d e339 f63a 1722 98ba 2ced 3d3d
00000070: 9c53 d0bc b50f 2e3d 2f4c f93c 5ab6 5bbc
00000080: 2296 8eb9 1dc2 cbbc 75f2 24bd f8bd 9abb
00000090: 3167 9bbd a449 91bd 7117 96b9 eb5f b1bd
000000a0: 2a4e 2ebc d6d1 a7bd 3aec ee3c bd59 6c3c
000000b0: 8cc7 30bd 1ad2 0bbb e4fa 273d fd19 9dbd
000000c0: a312 9cbd 3d19 ad3c e513 d03c ec5f 3b3d
000000d0: 841d 413c 4d6b b6bd 38a5 56bd 1aaa 06bb
000000e0: 2ea4 37bd 87c3 0dbd d7dc aa3c cef2 54bd
000000f0: ff28 333c 3428 c93d 7b5c b03d 6c53 3fbc
00000100: 3122 6d3d 49d8 99bd 2b6b 483d 8654 373c
00000110: 8638 a43d 8a2b 833d cf65 aebd 3b33 a83d
00000120: a6bb 883d 128d 9a3d 5d6e 4e3d 2a82 38bd
00000130: fc8e 84bb 9506 8cbb 5330 293d 29bb 393d
00000140: 8db4 19bd 6d6c a1bc e745 23bd 48c7 053b
-0.009357991 -0.08659019 0.044187967 0.08188474 0.020262608 0.03974879 0.07828399 0.0539552
-0.041742083 0.048768554 -0.07725381 0.089463696 0.060126834 -0.047915965 -0.02518434 -0.05766819
-0.039027117 -0.055706073 -0.08619782 -0.014679828 0.037953958 0.055926293 -0.029674575 -0.06864433
0.052951977 0.0018785562 -0.0011606839 0.046368763 -0.025430493 0.04249545 0.030431835 -0.013410175
-0.00027196208 -0.024872834 -0.040270288 -0.004722353 -0.075880416 -0.07094124 -0.00028627695 -0.08660873
-0.010638753 -0.0819432 0.029165376 0.014425692 -0.043159053 -0.0021334947 0.041010752 -0.076709725
-0.07620742 0.021130199 0.025400111 0.045745775 0.011786822 -0.08907185 -0.05240366 -0.0020548166
-0.04483431 -0.034610298 0.020857258 -0.05198937 0.010935067 0.09822121 0.08611389 -0.011677604
0.057893936 -0.07511956 0.04893033 0.011189586 0.080185935 0.06404789 -0.08515512 0.082128964
0.06676416 0.07546438 0.05039822 -0.04504601 -0.0040453654 -0.0042732456 0.04130585 0.045344505
-0.037525702 -0.019705022 -0.039861586 0.002041297

classifier.2.weight f4 [10, 84]
00000000: 4824 c6bd 2688 b0bd 1cb5 833d 752c cbbc
00000010: 8955 a23c 51d6 47bd 827b 9e3b 36f3 1f3d
00000020: f2cd a3bd 4658 d43d 0b8a 99bd 92b6 aebc
00000030: 45e1 413d d320 dbbd b3fc 8e3d 7ae8 a93d
00000040: 3ae0 19be 74ef 8cbc 83b6 aabd 216d 163e
00000050: 6ea0 d4bd 2c35 10be 59ef a1bd 3212 913d
00000060: f10e a43c 6bda d7bd 20b5 d7bc 743c 95bd
00000070: 1819 0e3e b1fc cebd d28e b13c 16e7 873d
00000080: bc42 15be 7c8a d13c ddee cdbb f51c ca3c
00000090: 0a04 5cbd 2d6a e4bd dff7 21bb 1831 b3bc
000000a0: 6a89 ffbc 9859 143e 9808 89bd d967 98bd
000000b0: af3a 1a3d bf09 bebd 69ff c33d ae2a 273e
000000c0: 9e35 dc3d c0cd a63d 6628 33be 4743 1e3d
000000d0: 1947 0abe ec64 31bd 6763 a1bd 72d5 aebd
000000e0: 7552 9a3d cc37 983d 108a 1e3d 6dfe 303d
000000f0: 2b72 253e c262 3c3d dfad 70bd ad87 973d
00000100: 2f47 1cbd 9c25 21bc 92f4 523d 3b68 483c
00000110: 3183 a53d 8420 96bc b70d 63bd 9885 fa3c
00000120: 0f94 ca3d b728 13be ef35 03be 6b2b 043d
00000130: fb8e 773d 224b 9a3c 1c23 f9bd 6acc 01be
00000140: d7c9 a0ba 07a2 233d d23b 21be 21fd cb3d
00000150: 4760 d4bd 1316 0c3d 397a eabc 7ad0 ccbd
00000160: abf9 d13c ace4 28bb 0a13 ad3d 0e26 0c3e
00000170: 5880 2b3e 5795 d33d ddcb 0abe 2660 0a3e
00000180: 9640 2c3e 7949 9cbd 97b2 fc3d cfbd 48be
00000190: 1dbf f7bd 0ebf c93d 661c ea3d 15fe 563c
000001a0: a74d c1bd c74d d03b c76f 963d 4fe9 bf3c
000001b0: 45f3 9c3d a65d 45bd b087 ac3d 6e7f 3ebd
000001c0: 9981 593d 329f 413d 5dcd f1bd 1951 b23d
000001d0: 0131 a93d 61f5 e4bd b79b 7bbc 3d91 bc3d
000001e0: a445 a03d 007b cb3d 830a 763d 80e6 1fbd
000001f0: 1701 3a3d e886 bdbd c301 103b e4e3 6cbd
00000200: 89ba 63bd 60c4 2c3e 56ed aebd 31fe 143e
00000210: af9d dc3d 3a38 783d d8c7 d33d f28b eabd
00000220: 45f1 a53d 56c2 64bc 2dcf b6bd 6b6a 09bb
00000230: 929c ab3c 95d6 adbd 1f2f 68bd c1ee b43d
00000240: a0bb 94bd 5e82 df3d 1ffa b6bd 24a4 d2bd
00000250: ddb9 ca3d eca5 c43d 2ef0 013e c7e0 de3d
00000260: 567c 043e 43d8 7e3d 096d c13b 6e76 a43c
00000270: 12ee 553d 759c 8d3d 92bc 66bd b76a 623d
00000280: d0f6 a4bd c4f5 c0bd 3d86 db3c 1143 db3d
00000290: 4b5a 803c adc3 ea3d e967 b3bd bfc1 06be
000002a0: 3415 d2bc 530d cabd c42e e33d 401b 17be
000002b0: bd40 df3d 82a0 d03d 551e c33d 1f10 bc3d
000002c0: 48e6 743c 51bf c8bb 3339 f83d 1c5d 92bd
000002d0: 4164 23bd dac3 903d e02d cfbd fc6e ee3c
000002e0: 2f16 e03d 5b09 333d 1178 a8bd fb73 a8bc
000002f0: b616 15be 6b30 833d 28f0 fd3d c3ee dc3d
00000300: 752c 943b 29a7 863d f6af c93d 6c77 273e
00000310: 58cf 003c 92c3 c03d e3bc 7abd 1c51 f53c
00000320: f210 07be 43aa 9abd 7e3b e1bd 24fd 58bd
00000330: 6649 acbc b50c 9fbd 5354 22be e7ea 963d
00000340: 9793 85bc 041d f63c dc26 123e 9162 ed3d
00000350: 53d0 fabd 8ac0 36bd acee 4fbd 106e 193d
00000360: fd7c 9a3c e8e7 133c 06a9 c03c ba28 1c3e
00000370: 89e9 313d fcbe 9b3d 7f4d 15be 69cd 873c
00000380: 484a 2e3d 87e2 9b3d 1e2c bebd 7d2a 1cbd
00000390: 2aec 8f3d 88d9 033d ab7e 0bbe 45a7 13be
000003a0: 3163 4dbd 26b9 57bd 4268 d9bd 460a c0bd
000003b0: 4873 313e 494c 19bd 62fe 4d3d c7af ba3d
000003c0: d106 d13b b992 9dbc 23af ed3d b02f db3d
000003d0: 8152 913c 4801 9ebc 3ea1 013d 460e eabc
000003e0: 9a17 cbbd 526e 19bd ffce f43d 246c 01be
000003f0: 2806 b33d 6a17 f7ba f6b5 113c dacf cfbd
-0.09674889 -0.08619718 0.06431028 -0.024801472 0.019816177 -0.048788372 0.0048365006 0.039050303
-0.07998265 0.10368399 -0.07497033 -0.02132729 0.047333974 -0.1069962 0.06981792 0.082962945
-0.15026942 -0.017204024 -0.083355926 0.14690067 -0.10382162 -0.14082783 -0.0790698 0.070835486
0.020026656 -0.10539707 -0.026331484 -0.07286921 0.1387676 -0.10106791 0.021674547 0.06635873
-0.14576238 0.02557873 -0.0062845782 0.02467201 -0.05371479 -0.11153064 -0.0024714393 -0.021873996
-0.031193454 0.14487302 -0.06691092 -0.07441682 0.03765362 -0.09279203 0.095702 0.16324875
0.10752414 0.081447124 -0.1749588 0.03863838 -0.13503684 -0.043309137 -0.078802876 -0.08536805
0.07535259 0.074325174 0.038705885 0.04321139 0.16156833 0.04599262 -0.058759566 0.07398925
-0.038153823 -0.009835627 0.05150277 0.012231882 0.080816634 -0.018326052 -0.055433 0.03058128
0.09891521 -0.14371 -0.12813543 0.03226797 0.06043909 0.018834654 -0.121649 -0.12675634
-0.0012267184 0.039949443 -0.15745476 0.0996039 -0.10369926 0.03420074 -0.028622733 -0.10000701
0.025631746 -0.0025771065 0.08450897 0.13686392 0.16748178 0.10331219 -0.1355433 0.1351324
0.16821513 -0.07631201 0.12338751 -0.19603656 -0.12096999 0.09850894 0.11431198 0.013122101
-0.09438639 0.006356928 0.073455386 0.02342668 0.076635875 -0.048185013 0.08424318 -0.046508245
0.05310211 0.04727096 -0.11806748 0.087068744 0.082613 -0.11179615 -0.0153569495 0.092073895
0.07825783 0.0993557 0.06006862 -0.03903818 0.045411196 -0.09254247 0.0021973706 -0.05783452
-0.055597816 0.16871786 -0.08541362 0.14550091 0.10772263 0.060600497 0.103408515 -0.11452474
0.08102659 -0.013962349 -0.089262344 -0.002096797 0.020948682 -0.08488194 -0.056685563 0.08834601
-0.07262349 0.109135374 -0.089344256 -0.102852136 0.09898732 0.096019596 0.12689278 0.108827166
0.12938055 0.062217962 0.0059028906 0.020076003 0.052228995 0.069146074 -0.05633218 0.055277552
-0.08054888 -0.09421876 0.026797408 0.10706151 0.015668055 0.114631034 -0.08760054 -0.13159846
-0.025644876 -0.09865823 0.11092904 -0.14756489 0.1090102 0.101868644 0.0952727 0.09182762
0.014947481 -0.0061263223 0.12120285 -0.071466655 -0.03989053 0.07068606 -0.10116172 0.029105656
0.10941731 0.043710094 -0.08226026 -0.020563116 -0.14559445 0.06405719 0.12399322 0.10787728
0.0045219013 0.06574852 0.09848015 0.1635415 0.007861935 0.09412302 -0.061215293 0.029945903
-0.13190058 -0.07552006 -0.10997675 -0.05297579 -0.021031093 -0.077660955 -0.1585248 0.07369023
-0.016305728 0.030043133 0.14272636 0.11591066 -0.12246766 -0.044617213 -0.050764725 0.03745848
0.018858427 0.009027459 0.023518097 0.15249911 0.043435607 0.07604787 -0.14580344 0.01657744
0.04255131 0.07611566 -0.092857584 -0.038126457 0.070274666 0.032189876 -0.13622539 -0.14419277
-0.050143424 -0.052666806 -0.10615589 -0.093769595 0.17329133 -0.037426267 0.050291426 0.09115558
0.0063789864 -0.019235002 0.1160567 0.10702455 0.017739536 -0.01928772 0.031647913 -0.02857126
-0.09916611 -0.037458725 0.11953544 -0.12638909 0.087414086 -0.0018851582 0.0088934805 -0.101470664

classifier.2.bias f4 [10]
00000000: c87c 83bc 0889 18bc 7e63 dfbc 23e3 ad3c
00000010: 9b8d ebbc f09c 603d 8492 593d e1bf fbbc
00000020: 49cc 85bd e972 623d
-0.016050711 -0.009310015 -0.027269121 0.021226471 -0.028754046 0.054837167 0.053118244 -0.030731143
-0.06533105 0.055285368
