checkpoints/noise_rate_0.2/models/tsf/epoch63.pth (torch, 250639 bytes, 10 tensors)

feature_extractor.0.weight f4 [6, 1, 5, 5]
0.13645166 -0.061886385 -0.029892063 0.08302441 -0.20890187 0.17425033 0.017198775 0.15498361
0.06146633 -0.009019327 0.09813367 0.07213292 0.14590986 -0.012683316 0.036624447 -0.020663474
0.046499737 0.040311284 0.23048916 0.123909354 -0.10814779 -0.14411677 -0.03745174 -0.06634415
-0.025501065 0.09089349 0.22727518 0.17523164 -0.20663573 0.069356814 0.15591343 0.31746903
0.19382015 -0.214693 -0.250781 0.014479244 0.30897257 0.04092898 0.08106662 -0.11512846
0.2858068 0.029057132 0.24357788 0.053565774 -0.06905726 0.15928192 -0.023397941 0.15799691
0.03436582 0.06605434 -0.2370594 -0.13856463 0.07680945 -0.04040119 0.23873594 0.15202309
-0.0025837657 -0.095506065 0.19367537 0.13591333 -0.086411215 0.19034873 0.20473215 0.26281735
-0.058057714 0.03539312 0.06866029 0.09732376 -0.107314974 -0.12758587 0.16865006 0.008836903
0.14092779 0.03189506 0.06676913 0.03471929 0.07747571 0.108084075 -0.1766683 0.1124433
-0.14927238 -0.14797887 0.029306836 -0.0014592728 0.16773665 -0.119763635 -0.16656351 0.18223369
0.027966106 0.17874306 0.06495053 -0.12962261 0.08473997 0.10273713 -0.08855511 -0.09184046
0.090460986 0.07081918 -0.053008042 -0.04281891 0.24223332 0.09040412 0.24460077 0.16821793
-0.11894442 -0.0647337 0.40814242 0.229568 0.2686409 0.097643696 0.257168 0.44158414
0.43707755 -0.00037942434 0.0958635 0.34908885 0.38805863 0.31303817 -0.037871115 -0.065961376
0.000395802 0.14834821 0.29872632 -0.040109076 0.19636497 -0.11430703 -0.16387777 0.027251836
0.23537712 0.29750657 -0.08253269 0.14441523 0.34925407 0.3512818 0.29062426 0.23001388
0.26758432 0.25175375 0.08060366 -0.012289349 -0.025160601 0.07425023 0.019843351 0.2426627
0.19909485 -0.02513243 0.11166077 0.13671212 0.2231685 0.22944108
00000000: fcb9 0b3e 947c 7dbd 33e0 f4bc b408 aa3d
00000010: 5fea 55be ae6e 323e 72e4 8c3c 06b4 1e3e
00000020: 1ec4 7b3d cdc5 13bc 4efa c83d 6dba 933d
00000030: 6569 153e afcd 4fbc 8403 163d 7246 a9bc
00000040: 8276 3e3d 721d 253d 5a05 6c3e 30c4 fd3d
00000050: 977c ddbd 5993 13be ff66 19bd 71df 87bd
00000060: 9ce7 d0bc 5e26 ba3d d3ba 683e ec6f 333e
00000070: 5198 53be f20a 8e3d c5a7 1f3e 4d8b a23e
00000080: ca78 463e 7bd8 5bbe 5e66 80be 5a3a 6d3c
00000090: a731 9e3e 25a5 273d 4206 a63d 78c8 ebbd
000000a0: 4555 923e 3909 ee3c 7b6c 793e c967 5b3d
000000b0: e56d 8dbd cd1a 233e 0aad bfbc f1c9 213e
000000c0: 2dc3 0c3d 7f47 873d b3bf 72be e3e3 0dbe
000000d0: 464e 9d3d b87b 25bd 3277 743e f1ab 1b3e
000000e0: 6554 29bb af98 c3bd d652 463e dd2c 0b3e
000000f0: 5df8 b0bd c7ea 423e 4ea5 513e ff8f 863e
00000100: edcd 6dbd 60f8 103d c49d 8c3d ae51 c73d
00000110: f4c7 dbbd dfa5 02be 9ab2 2c3e a8c8 103c
00000120: 604f 103e 65a4 023d 41be 883d d035 0e3d
00000130: 96ab 9e3d 2f5b dd3d 89e8 34be ac48 e63d
00000140: dcda 18be c687 17be e414 f03c 1245 bfba
00000150: 28c3 2b3e a346 f5bd a08f 2abe 789b 3a3e
00000160: 2d19 e53c 6c08 373e c904 853d cabb 04be
00000170: 268c ad3d d867 d23d 625c b5bd da16 bcbd
00000180: 9c43 b93d a509 913d f61e 59bd e262 2fbd
00000190: 030c 783e cc25 b93d a078 7a3e 5241 2c3e
000001a0: 2299 f3bd 1a93 84bd 0bf8 d03e e013 6b3e
000001b0: 4d8b 893e 6bf9 c73d 86ab 833e 5117 e23e
000001c0: a1c8 df3e 79ed c6b9 1554 c43d c6bb b23e
000001d0: 9faf c63e 8a46 a03e be1e 1bbd c216 87bd
000001e0: a583 cf39 98e8 173e a8f2 983e 6a49 24bd
000001f0: e613 493e ce19 eabd 93cf 27be 3e3f df3c
00000200: b306 713e c852 983e e606 a9bd 96e1 133e
00000210: 6ed1 b23e 35db b33e b4cc 943e c288 6b3e
00000220: d000 893e dee5 803e 8813 a53d 4459 49bc
00000230: 9b1d cebc 8110 983d 868e a23c 927c 783e
00000240: 85df 4b3e 87e2 cdbc 67ae e43d 43fe 0b3e
00000250: 4986 643e 9af2 6a3e

feature_extractor.0.bias f4 [6]
-0.04203706 0.23897696 0.0074276766 0.011593622 -0.075401865 -0.014986461
00000000: 0d2f 2cbd 60b6 743e de63 f33b 2df3 3d3c
00000010: 4b6c 9abd c689 75bc

feature_extractor.3.weight f4 [16, 6, 5, 5]
-0.04059562 -0.031294085 0.058332816 -0.025821377 -0.058237493 0.04319064 0.041839264 0.06731406
-0.03274377 0.02434587 -0.02800271 -0.010476322 -0.064466 -0.041270312 -0.02992055 0.03602976
0.020911166 0.01887773 0.07346934 0.07375511 0.05480577 0.006504006 -0.05774446 0.058739614
-0.019320175 -0.012589169 -0.05302186 0.014064819 -0.04038462 0.066444404 -0.08142209 -0.03635755
0.03468625 -0.04224348 0.015768433 -0.03592267 -0.010380477 0.034413196 0.04926845 -0.07754766
0.03729537 0.083594985 0.10005536 -0.07327591 -0.0003674828 -0.07062342 0.09095108 -0.009918379
0.03197546 -0.005315542 -0.009738416 0.00545597 0.016565287 0.033435166 0.008505481 0.035121173
-0.05506533 0.06171514 0.065780014 0.07039646 0.07447043 -0.046091598 -0.03996606 0.055579018
-0.06685587 0.08158049 -0.066849545 -0.06994868 0.020577507 -0.06365886 -0.014346989 0.06419854
0.05224343 0.070231915 -0.01634639 -0.06454888 0.080940165 -0.018398952 -0.03841242 0.020047486
-0.050404295 0.057145685 0.046090808 -0.07081561 -0.065464616 0.0024756922 0.033746567 -0.0067742513
-0.045293808 0.003456463 -0.07082248 -0.056026097 -0.062008876 0.066216305 0.07474376 -0.02292379
0.0052915714 0.03203757 0.012838025 -0.03725092 0.04559009 0.081612505 0.03606934 -0.006237548
0.066546574 0.08823236 0.015512637 0.13102292 0.018658964 -0.062509805 0.06655507 -0.014695825
0.09780677 -0.08567558 -0.009589329 0.026233882 0.0540329 0.06198391 -0.08173574 -0.06513165
-0.0822779 0.018628519 -0.025681233 -0.02381131 -0.023697713 0.049863156 0.10306733 0.02472583
-0.038170684 -0.04056405 -0.03531334 0.10698375 -0.013031504 0.008351538 0.014225155 -0.018599473
0.072656736 0.024175411 -0.024850655 -0.049629495 -0.008416239 0.003037149 -0.08080134 -0.078940876
-0.0192626 -0.0040093423 0.032629337 -0.0464684 -0.026942423 -0.029543852 -0.076533936 0.078431495
0.024550095 0.08101588 -0.0044277827 -0.015377537 -0.05994708 -0.008178952 0.066805206 -0.07661702
-0.024941023 0.060206823 0.060331117 0.04563746 -0.0067413608 -0.016179707 -0.032710906 -0.03655617
0.048383143 -0.0033638265 -0.034094397 0.023778317 -0.04900034 0.0017771244 0.065640755 0.02012895
0.07955 -0.036701344 0.019164562 -0.018123621 -0.034350105 -0.024325494 0.06498843 0.046586327
-0.034315974 -0.044972673 -0.06917049 0.10053675 0.013053754 0.01058494 -0.026408572 -0.058500946
-0.07380188 -0.018203437 0.09341492 0.014343751 -0.03038278 -0.0038428619 0.07831378 0.084718965
0.08304704 0.032972254 0.052164804 0.0012850611 -0.05805026 -0.06255984 0.069364235 0.00043171973
0.026028834 -0.005503945 -0.060987487 -0.033459555 0.019446647 -0.017268497 -0.07116156 0.01326531
0.0022103617 0.00051190745 0.06391729 0.043504566 -0.024345824 0.11703689 0.095015526 0.04166416
-0.0050179954 -0.06538113 0.069897175 -0.016689824 -0.057060745 0.05018379 0.039953604 0.03326522
-0.014154045 -0.031663492 0.01155398 0.06632474 0.017576868 -0.03041977 0.085185885 0.0043976814
0.060245022 0.03427475 0.09986107 0.06616719 -0.036140166 0.06708342 0.016642258 -0.056305833
-0.019196512 -0.07569792 -0.055079997 -0.05279984 0.07956229 0.0017211393 -0.023469454 0.06831865
00000000: 9847 26bd 3a2e 00bd 64ee 6e3d 5a87 d3bc
00000010: 708a 6ebd abe8 303d a65f 2b3d f4db 893d
00000020: 551e 06bd fd70 c73c f065 e5bc e1a4 2bbc
00000030: c006 84bd 0f0b 29bd f11b f5bc f193 133d
00000040: e54d ab3c 78a5 9a3c 1877 963d eb0c 973d
00000050: 047c 603d 8f1f d53b 7485 6cbd f398 703d
00000060: 5845 9ebc cd42 4ebc 732d 59bd 2070 663c
00000070: 586a 25bd 0114 883d a0c0 a6bd a8eb 14bd
00000080: 2b13 0e3d 8007 2dbd cd2c 813c a623 13bd
00000090: e012 2abc daf4 0c3d b7cd 493d 4fd1 9ebd
000000a0: 08c3 183d d933 ab3d d3e9 cc3d ae11 96bd
000000b0: b5aa c0b9 03a3 90bd 8f44 ba3d b280 22bc
000000c0: b3f8 023d 002e aebb e18d 1fbc fec7 b23b
000000d0: edb3 873c 50f3 083d 935a 0b3c 38db 0f3d
000000e0: 2f8c 61bd 04c9 7c3d acb7 863d 052c 903d
000000f0: f483 983d 8bca 3cbd 74b3 23bd d3a6 633d
00000100: bbeb 88bd ac13 a73d 6ae8 88bd 4141 8fbd
00000110: 2992 a83c 945f 82bd a20f 6bbc 867a 833d
00000120: 35fd 553d c0d5 8f3d dde8 85bc 3432 84bd
00000130: f5c3 a53d 66b9 96bc 5756 1dbd a03a a43c
00000140: bc74 4ebd 9811 6a3d b7c9 3c3d c607 91bd
00000150: 5012 86bd 393f 223b d739 0a3d 8afa ddbb
00000160: 0086 39bd d485 623b 600b 91bd 9f7b 65bd
00000170: 05fd 7dbd 6a9c 873d 4213 993d acca bbbc
00000180: eb64 ad3b d439 033d 9456 523c 6c94 18bd
00000190: adbc 3a3d 7524 a73d 72bd 133d 5864 ccbb
000001a0: 9249 883d 2bb3 b43d b728 7e3c df2a 063e
000001b0: afda 983c 2405 80bd 064e 883d c2c6 70bc
000001c0: ea4e c83d ae76 afbd 901c 1dbc 70e8 d63c
000001d0: 9a51 5d3d d7e2 7d3d 1165 a7bd be63 85bd
000001e0: 5181 a8bd d69a 983c 7361 d2bc f00f c3bc
000001f0: b521 c2bc 4f3d 4c3d f714 d33d d38d ca3c
00000200: dd58 1cbd 7d26 26bd b9a4 10bd 4c1a db3d
00000210: 1782 55bc e4d4 083c a010 693c ec5d 98bc
00000220: 0ecd 943d 830b c63c 9a93 cbbc 4c48 4bbd
00000230: 44e4 09bc e80a 473b 2c7b a5bd c1ab a1bd
00000240: 9acc 9dbc cd60 83bb 57a6 053d a655 3ebd
00000250: 5bb6 dcbc f305 f2bc d3bd 9cbd b1a0 a03d
00000260: 481d c93c a7eb a53d ef16 91bb 11f2 7bbc
00000270: 128b 75bd 0301 06bc 2bd1 883d 62e9 9cbd
00000280: 1e51 ccbc 6e9b 763d c31d 773d 58ee 3a3d
00000290: a2e6 dcbb 4e8b 84bc dffb 05bd ecbb 15bd
000002a0: 672d 463d a573 5cbb 91a6 0bbd bfca c23c
000002b0: 95b4 48bd 66ee e83a a96e 863d 78e5 a43c
000002c0: 1ceb a23d 2654 16bd 00ff 9c3c fd77 94bc
000002d0: b2b2 0cbd 4246 c7bc a718 853d 4ed1 3e3d
000002e0: e88e 0cbd 4435 38bd 42a9 8dbd 36e6 cd3d
000002f0: 6adf 553c 756c 2d3c ca56 d8bc b09e 6fbd
00000300: 7125 97bd 601f 95bc 5250 bf3d 0d02 6b3c
00000310: 4fe5 f8bc 86d8 7bbb fa62 a03d 2381 ad3d
00000320: 9114 aa3d ea0d 073d c3aa 553d 7f6f a83a
00000330: 1cc6 6dbd 601f 80bd d60e 8e3d 7158 e239
00000340: 6c3a d53c 705a b4bb 04ce 79bd e30c 09bd
00000350: 934e 9f3c aa76 8dbc 27bd 91bd be56 593c
00000360: b7db 103b 8731 063a 11e7 823d d831 323d
00000370: e570 c7bc 09b1 ef3d 8097 c23d 0aa8 2a3d
00000380: ff6d a4bb 8be6 85bd 4026 8f3d 19b9 88bc
00000390: 87b8 69bd 858d 4d3d 64a6 233d 1c41 083d
000003a0: 5ee6 67bc 94b1 01bd e84c 3d3c 44d5 873d
000003b0: 5dfd 8f3c e232 f9bc f075 ae3d 6d1a 903b
000003c0: 7cc3 763d ae63 0c3d f683 cc3d aa82 873d
000003d0: b607 14bd 0863 893d 5855 883c f2a0 66bd
000003e0: 0142 9dbc 8307 9bbd 909b 61bd a544 58bd
000003f0: 8ef1 a23d da97 e13a 0343 c0bc a6ea 8b3d

feature_extractor.3.bias f4 [16]
-0.020020308 -0.04560864 0.006012055 0.036759295 0.054279327 -0.022322128 0.005559157 -0.039364822
-0.06438714 -0.04980076 -0.048229795 -0.05015927 0.022892594 -0.021059938 0.06730914 0.07827081
00000000: a101 a4bc 20d0 3abd c600 c53b ea90 163d
00000010: 0054 5e3d e5dc b6bc 9729 b63b 023d 21bd
00000020: 68dd 83bd e2fb 4bbd 9b8c 45bd cf73 4dbd
00000030: 4089 bb3c e485 acbc 60d9 893d 724c a03d

feature_extractor.7.weight f4 [120, 400]
-0.042486865 0.011713121 0.029779486 -0.045332856 -0.016995138 0.03422487 -0.03687762 0.045898102
-0.0036951674 0.010503103 0.048821524 -0.03709358 0.042981684 -0.045514844 0.03672723 0.00019818507
0.04364663 -0.0025801803 -0.046025816 0.017936125 0.030402116 -0.010655511 -0.051848862 -0.0020593058
0.009487454 0.011475377 0.022593904 -0.011562993 -0.0020830468 -0.002308444 0.022553159 0.019174332
0.021305125 0.0038390653 0.010262709 0.036444195 0.01130349 -0.042547103 0.014065649 0.05739672
-0.012580932 0.032369893 -0.040025514 -0.0036285885 0.031284895 -0.033565603 -0.0093448935 0.0002887896
-0.01350122 -0.026750708 0.032912403 -0.011654777 -0.017975163 0.028845005 0.009496844 -0.019278135
0.032222454 -0.026416723 0.0500444 0.039701704 0.004928502 0.017921453 -0.016159557 -0.033757452
-0.025262972 0.015268291 0.022308197 -0.0044892835 -0.014499137 -0.01758293 -0.023741383 -0.019627362
0.032708675 -0.04933608 0.027089821 0.031603627 -0.013014942 -0.0072514447 -0.011986336 -0.04207206
0.009122932 -0.024614463 0.020239478 -0.0018034448 -0.028384715 -0.054936606 0.032299437 0.045851324
0.04099561 0.015864423 0.016416151 0.022229975 0.035259966 -0.00021506828 0.0010186823 0.01911317
0.029146772 -0.011534617 0.025984067 0.038665444 -0.02527064 -0.046982646 -0.0057981974 -0.02862294
0.05014682 -0.013257072 -0.023358023 0.027775198 0.016961657 0.016927065 0.049043335 -0.046567738
0.027434649 -0.021957476 0.020196175 -0.024972474 0.049047075 -0.012461216 0.008251089 -0.03442476
0.021046361 -0.045430742 0.020722054 0.04946232 0.0420072 0.023843579 -0.023108056 0.005053899
0.010154854 -0.052686304 0.02289578 -0.04207813 0.021055667 0.04838179 -0.017280882 0.012977849
0.053008635 0.049047444 0.051066294 -0.026597135 0.0059290547 -0.048701607 0.0028204254 -0.0534117
0.0055629555 0.018187936 -0.048075914 -0.0035513532 -0.02227225 0.040125124 -0.012357505 0.021400662
-0.03663783 0.0038567674 0.032265358 0.0031587554 -0.019095222 -0.024709506 0.024140827 0.01691813
0.008733426 0.039087214 -0.012609782 -0.024703389 0.008697763 0.028468773 -0.059068523 -0.030879403
0.009792511 0.03406337 0.026187066 0.010963525 -0.049893893 -0.026688509 0.024743412 0.008960085
0.025891397 0.037542477 0.027595853 -0.020738663 -0.026572587 -0.009704063 -0.0013455704 -0.0045636618
-0.010469328 0.0064506656 0.03294562 -0.031061864 0.024468262 -0.048165675 0.00281774 -0.044846587
0.047257934 -0.0417404 -0.025980672 0.026104258 0.02055049 0.037730377 0.014210754 -0.04144219
-0.03498705 0.034165118 -0.048608657 0.044914123 -0.008453852 0.009107275 -0.0021408512 -0.012554285
-0.0122544095 0.014718766 -0.008759048 0.008403164 0.04181029 0.0044954014 -0.03909929 -0.0376648
0.031940583 0.017441342 0.009560088 -0.024864439 -0.040736068 0.04321703 -0.046836738 -0.024747591
0.020065991 0.04427709 -0.010796823 -0.042120147 0.015745254 0.0038532335 -0.007672224 -0.043517377
0.04048669 0.007009127 0.021482257 0.022582727 0.03892385 -0.020011399 0.0019327413 -0.035083134
-0.046553183 -0.02053948 0.018256225 -0.02798757 0.03340722 0.010644424 -0.018638749 0.022355804
0.034999646 -0.021399537 0.02633056 0.035220083 0.04678172 -0.03044847 0.047815938 0.006142426
00000000: b506 2ebd 64e8 3f3c 1cf4 f33c f2ae 39bd
00000010: 6339 8bbc 612f 0c3d fd0c 17bd a6ff 3b3d
00000020: 9f2a 72bb 3515 2c3c 14f9 473d 70ef 17bd
00000030: 900d 303d c66d 3abd 4b6f 163d e6cf 4f39
00000040: cfc6 323d 3e18 29bb 9185 3cbd c8ee 923c
00000050: dc0d f93c 7494 2ebc 795f 54bd 6bf5 06bb
00000060: 4471 1b3c 3803 3c3c da16 b93c b572 3dbc
00000070: ba83 08bb 4349 17bb 67c1 b83c 7d13 9d3c
00000080: 1688 ae3c d498 7b3b ec24 283c 8246 153d
00000090: 4632 393c df45 2ebd 9c73 663c d318 6b3d
000000a0: 4120 4ebc 4b96 043d cbf1 23bd 9dcd 6dbb
000000b0: 9724 003d 167c 09bd 531b 19bc af68 9739
000000c0: 3934 5dbc 4d24 dbbc 28cf 063d aef3 3ebc
000000d0: a640 93bc 5c4c ec3c a798 1b3c 2eed 9dbc
000000e0: b1fb 033d e267 d8bc 5bfb 4c3d 419e 223d
000000f0: 457f a13b 03d0 923c 0c61 84bc 4145 0abd
00000100: 4bf4 cebc db27 7a3c aebf b63c d71a 93bb
00000110: ca8d 6dbc 140a 90bc 4a7d c2bc 90c9 a0bc
00000120: 88f9 053d a114 4abd 79eb dd3c ce72 013d
00000130: a03c 55bc 879d edbb 5662 44bc c153 2cbd
00000140: 5a78 153c 45a4 c9bc 43cd a53c 9161 ecba
00000150: 1087 e8bc 3505 61bd 6a4c 043d 99ce 3b3d
00000160: 03eb 273d 1bf6 813c 2a7b 863c a31b b63c
00000170: c16c 103d f483 61b9 4e85 853a 3993 9c3c
00000180: 36c5 ee3c b1fb 3cbc 8adc d43c a85f 1e3d
00000190: 6004 cfbc e070 40bd cefe bdbb a87a eabc
000001a0: c066 4d3d 3134 59bc 5359 bfbc d088 e33c
000001b0: 2cf3 8a3c a1aa 8a3c aae1 483d d0bd 3ebd
000001c0: a1be e03c 2ae0 b3bc 7372 a53c 1393 ccbc
000001d0: 96e5 483d 212a 4cbc 932f 073c fa00 0dbd
000001e0: 6b69 ac3c 9615 3abd 4cc1 a93c 0099 4a3d
000001f0: be0f 2c3d 9c53 c33c 1b4d bdbc 2d9b a53b
00000200: 8b60 263c 98cd 57bd ee8f bb3c 1e5a 2cbd
00000210: ef7c ac3c fc2b 463d a390 8dbc 0ba1 543c
00000220: 951f 593d f9e5 483d e42a 513d 3ce2 d9bc
00000230: 8448 c23b 567b 47bd e3d6 383b 3ac6 5abd
00000240: 7449 b63b defe 943c 40eb 44bd d2bd 68bb
00000250: 4b74 b6bc 3e5a 243d 2277 4abc 7150 af3c
00000260: 8d11 16bd d2c1 7c3b ae28 043d 1f03 4f3b
00000270: 956d 9cbc 976b cabc fcc2 c53c e497 8a3c
00000280: a516 0f3c ea19 203d 4299 4ebc c35e cabc
00000290: 1081 0e3c 5837 e93c d6f1 71bd cdf6 fcbc
000002a0: c570 203c 0886 0b3d 4286 d63c 5ba0 333c
000002b0: 8a5d 4cbd dca1 dabc b2b2 ca3c 52cd 123c
000002c0: 321a d43c 24c6 193d b310 e23c 21e4 a9bc
000002d0: c1ae d9bc cafd 1ebc da5d b0ba c58a 95bb
000002e0: 8b87 2bbc 1b60 d33b fdf1 063d 7375 febc
000002f0: aa71 c83c 5f49 45bd d5a9 383b 0eb1 37bd
00000300: 8991 413d fbf7 2abd 6bd5 d4bc 99d8 d53c
00000310: 8059 a83c 2b8b 1a3d 39d4 683c 49bf 29bd
00000320: 954e 0fbd b9f0 0b3d df19 47bd dff7 373d
00000330: 0682 0abc ae36 153c 864d 0cbb 7db0 4dbc
00000340: b8c6 48bc fb26 713c 1c82 0fbc 6dad 093c
00000350: 4441 2b3d 294e 933b 9426 20bd 6846 1abd
00000360: 21d4 023d 25e1 8e3c eaa1 1c3c 82b0 cbbc
00000370: ddda 26bd 5704 313d e1d7 3fbd 76bb cabc
00000380: 6f61 a43c e55b 353d 28e5 30bc 2d86 2cbd
00000390: 31fc 803c 8886 7c3b 4867 fbbb 473f 32bd
000003a0: 5fd5 253d d2ac e53b 8ffb af3c 69ff b83c
000003b0: 9d6e 1f3d f2ee a3bc 0954 fd3a 55b3 0fbd
000003c0: 8dae 3ebd 6942 a8bc 148e 953c 3046 e5bc
000003d0: 02d6 083d f365 2e3c 4ab0 98bc 8523 b73c
000003e0: ca5b 0f3d 154e afbc 30b3 d73c ef42 103d
000003f0: 309e 3f3d 126f f9bc a5da 433d 6746 c93b

feature_extractor.7.bias f4 [120]
0.020715015 0.036328405 0.019777885 0.031635325 0.042102423 -0.032579683 0.035643216 0.0006058622
-0.03210307 0.003856027 0.022499206 -0.02820151 -0.038827036 -0.049361657 -0.026720641 -0.0407715
0.029965153 -0.021754084 -0.04456703 -0.029956268 -0.011456637 0.030495556 0.035930865 0.015917394
0.04135676 -0.03979864 -0.0216234 0.03479676 -0.017353583 0.0150883095 -0.0123987505 0.02630745
-0.049121574 0.021361945 -0.028517503 -0.029693967 0.038076423 -0.025055071 0.006810909 0.0010483806
-0.03530643 0.027895361 -0.035213344 -0.017836409 -0.04772154 -0.011843537 0.014832082 0.013292053
0.023733027 -0.016894493 0.018268092 -0.012249691 0.041818745 -0.028564416 -0.004183606 0.00044744086
0.03655147 -0.01569441 -0.03821216 0.014706346 0.04520026 -0.03550721 -0.01656776 -0.014909947
0.033774436 0.0068839528 -0.043179303 0.038901974 -0.0133928 -0.046983548 0.0474217 -0.0108752735
0.021486765 0.0013073145 0.035740945 -0.021850953 -0.015823668 -0.0247438 -0.03205348 -0.031685326
0.02795987 -0.03319574 -0.0012085 0.006575896 0.050626475 -0.017733917 -0.017167252 0.022785807
0.011582115 0.020707544 0.042009737 -0.04037703 0.014398852 -0.0023322764 -0.045187157 -0.0055922805
0.01458625 0.028872738 0.0024826587 -0.033108994 -0.01377551 0.04125058 0.023677723 -0.036251225
0.013010815 -0.010117592 0.008980595 0.031985614 -0.024504077 -0.00256888 0.039523683 -0.0069654887
0.049026303 -0.0010441917 0.007241096 -0.008611879 0.022161363 -0.0144803 0.051651493 0.043696187
00000000: 89b2 a93c 18cd 143d 3b05 a23c 0b94 013d
00000010: 9773 2c3d 4672 05bd 9ffe 113d b9d2 1e3a
00000020: 827e 03bd 66b5 7c3b 4150 b83c da06 e7bc
00000030: 1909 1fbd 732f 4abd 3fe5 dabc 0400 27bd
00000040: 7b79 f53c 9f35 b2bc eb8b 36bd d966 f5bc
00000050: 9eb4 3bbc d1d1 f93c 3e2c 133d 3265 823c
00000060: b565 293d e603 23bd 8e23 b1bc 0c87 0e3d
00000070: 1a29 8ebc f534 773c 2124 4bbc b982 d73c
00000080: b433 49bd 3fff ae3c 8a9d e9bc c340 f3bc
00000090: 06f6 1b3d 4b40 cdbc 0c2e df3b d169 893a
000000a0: 7a9d 10bd d084 e43c de3b 10bd a91d 92bc
000000b0: a977 43bd 650b 42bc 4302 733c e9c6 593c
000000c0: c46b c23c 5266 8abc f7a6 953c eeb2 48bc
000000d0: 224a 2b3d ecff e9bc a116 89bb 7f96 ea39
000000e0: ffb6 153d 9091 80bc 5b84 1cbd e3f2 703c
000000f0: e823 393d 0270 11bd 1cb9 87bc da48 74bc
00000100: 1057 0a3d c892 e13b c8dc 30bd ad57 1f3d
00000110: 7a6d 5bbc d271 40bd 423d 423d 342e 32bc
00000120: 0305 b03c 325a ab3a 1965 123d c500 b3bc
00000130: a3a0 81bc 82b3 cabc 834a 03bd 79c8 01bd
00000140: 190c e53c 42f8 07bd 8866 9eba 9d7a d73b
00000150: b55d 4f3d b846 91bc 56a2 8cbc 4da9 ba3c
00000160: e9c2 3d3c dea2 a93c 6712 2c3d 6262 25bd
00000170: 2ae9 6b3c 1bd9 18bb 2b16 39bd 733f b7bb
00000180: 2bfb 6e3c 8586 ec3c 1ab4 223b 4c9d 07bd
00000190: adb2 61bc 5ef6 283d c9f7 c13c 2a7c 14bd
000001a0: 502b 553c 42c4 25bc 5823 133c 5903 033d
000001b0: c6bc c8bc a85a 28bb 96e3 213d c13e e4bb
000001c0: cecf 483d 42dd 88ba b746 ed3b d718 0dbc
000001d0: bf8b b53c c83e 6dbc 8490 533d c6fa 323d

classifier.0.weight f4 [84, 120]
0.0076135783 -0.050045036 0.026816681 -0.0058406326 -0.07659651 0.025472943 -0.062044755 -0.036246404
-0.06495501 0.0670843 0.04693567 -0.052111436 0.06256555 -0.06814903 0.008239217 -0.06702441
0.0532574 -0.04299661 -0.01848506 0.030343892 -0.08363102 0.05997086 0.0059899623 -0.05681782
-0.0020995392 -0.04575652 0.025783004 0.04541842 -0.07632864 0.068205446 -0.025509171 0.07830381
0.0021117725 0.03636655 -0.04107742 0.014483844 -0.008133794 -0.019770704 -0.045499183 0.0027857367
-0.08490497 -0.052634507 -0.03163159 0.0022868954 -0.059698682 -0.04497637 0.009905093 0.0008289737
0.0069435155 -0.04709981 0.07315576 -0.022805518 -0.07279954 0.051694196 0.011864877 -0.003474642
-0.08229387 -0.053056274 0.05084248 -0.016841685 -0.06017437 0.0636171 -0.07415996 0.061802298
-0.030830162 0.03837603 0.012344684 0.09834744 0.03347091 -0.0061595454 0.08589015 -0.07284425
0.013197198 0.030012628 -0.05680543 -0.049260672 -0.04300971 -0.04729586 -0.01112083 -0.056415327
0.0782394 -0.0022824144 0.09221674 0.023750398 -0.009916068 0.007964856 -0.04775742 -0.04538995
0.036389686 -0.011034124 0.009961538 -0.0072273137 0.08445165 -0.09164414 -0.055772696 -0.046677742
-0.029061502 0.07202732 0.061734635 -0.059071057 -0.02772727 0.094169654 -0.069648795 0.009446601
0.03835432 0.04239526 0.08156919 0.059553444 0.01879282 -0.087472185 -0.03987216 -0.015790056
-0.066545345 -0.042812213 0.014878841 -0.03543955 0.015394854 0.03512385 0.05706288 -0.069661066
0.080737434 0.036374558 0.007690934 -0.027117575 -0.02771429 0.002601117 -0.011720697 -0.08615015
0.0141235385 -0.060184937 -0.07841279 0.053878065 -0.015015088 -0.023963585 -0.012476565 -0.039179895
0.04753752 -0.0031316772 -0.041493062 0.08612279 0.066305704 0.068707034 -0.09080089 0.017389653
0.0050394335 0.07830708 0.024825037 0.01852088 0.05859921 0.03932886 -0.08172299 -0.08916419
-0.049708657 -0.02093561 0.021398075 0.05661631 -0.08133737 -0.013561602 -0.07179793 0.078720495
0.05524081 0.052485935 -0.0098333135 -0.05776949 -0.04582038 -0.0010224067 0.00027459368 -0.0015265157
0.07912604 -0.047672 0.06853723 0.040428683 -0.07130241 -0.041158747 -0.055524416 -0.0016780008
0.048435066 0.051900126 -0.01900239 0.07837076 0.04318428 0.015079283 -0.0739359 -0.07739368
0.056597695 0.04870649 -0.04388915 -0.068664774 0.003433753 -0.0833502 0.061420884 0.047999617
0.02523648 -0.06506669 -0.014891285 -0.04597924 0.043949466 0.08690796 0.003538396 -0.023482047
0.06282589 -0.021192938 -0.043279763 -0.076436326 0.011931391 0.07201765 0.05709949 0.032589756
0.062853105 -0.07289459 0.08760675 -0.029630594 -0.08876915 0.040821396 0.021408023 -0.020921713
-0.08652571 0.0009853798 -0.04506845 -0.056906987 0.08174243 0.042641915 -0.07950435 -0.039265376
-0.045617893 -0.08225246 -0.072053425 0.090684734 0.0042463792 0.073616244 0.015464175 0.08800858
-0.055267114 0.023562469 -0.045275442 0.03242319 0.07042114 0.06862265 -0.061672356 -0.0035811355
0.014391513 0.023446504 -0.034411814 0.026366565 -0.07167711 -0.03016797 -0.02432847 -0.022081258
-0.06297681 0.063708 -0.01317724 0.043397807 -0.0025604686 0.0050449073 0.08346108 0.06993003
00000000: 537b f93b 06fc 4cbd a8ae db3c c762 bfbb
00000010: a2de 9cbd a2ac d03c a422 7ebd 1c77 14bd
00000020: 2207 85bd 7e63 893d 9e3f 403d cd72 55bd
00000030: 5e22 803d b891 8bbd c8fd 063c 1844 89bd
00000040: 6e24 5a3d 371d 30bd fb6d 97bc c193 f83c
00000050: bd46 abbd 01a4 753d 7247 c43b cdb9 68bd
00000060: 6c98 09bb 306b 3bbd e136 d33c aa08 3a3d
00000070: 3152 9cbd 4caf 8b3d 9cf8 d0bc bf5d a03d
00000080: aa65 0a3b 17f5 143d cc40 28bd a54d 6d3c
00000090: 9b43 05bc 2cf6 a1bc 5a5d 3abd e890 363b
000000a0: a8e2 adbd 4897 57bd 2090 01bd bddf 153b
000000b0: 9b86 74bd 2439 38bd f948 223c 7c4f 593a
000000c0: 6e86 e33b bbeb 40bd b0d2 953d a3d2 babc
000000d0: ed17 95bd 4bbd 533d e764 423c d2b6 63bb
000000e0: b089 a8bd 8951 59bd 3440 503d 93f7 89bc
000000f0: 6679 76bd af49 823d 2de1 97bd 6824 7d3d
00000100: 898f fcbc 2f30 1d3d 5c41 4a3c 626a c93d
00000110: cb18 093d 03d6 c9bb 2de7 af3d 5e2f 95bd
00000120: 0f39 583c 0bdd f53c d0ac 68bd 8fc5 49bd
00000130: f32a 30bd 4eb9 41bd 2434 36bc c213 67bd
00000140: fb3b a03d 8f94 15bb 21dc bc3d 3290 c23c
00000150: 0177 22bc 077f 023c 499d 43bd d0ea 39bd
00000160: 5a0d 153d 78c8 34bc b835 233c 1ad3 ecbb
00000170: fdf4 ac3d ecaf bbbd e971 64bd 2931 3fbd
00000180: 6312 eebc 0f83 933d 75dd 7c3d 7ef4 71bd
00000190: 4d24 e3bc 05dc c03d 07a4 8ebd ebc5 1a3c
000001a0: 6b19 1d3d a7a6 2d3d bf0d a73d 50ee 733d
000001b0: 66f3 993c 9e24 b3bd fd50 23bd 265a 81bc
000001c0: ed48 88bd dc5b 2fbd 62c6 733c 1029 11bd
000001d0: b33a 7c3c 07de 0f3d c4ba 693d 76aa 8ebd
000001e0: ab59 a53d 7dfd 143d 3b04 fc3b ad25 debc
000001f0: 1409 e3bc 8077 2a3b 2b08 40bc 7d6f b0bd
00000200: 6a66 673c 7b84 76bd e396 a0bd 3faf 5c3d
00000210: d801 76bc 484f c4bc 826a 4cbc 197b 20bd
00000220: b4b6 423d d33c 4dbb a1f4 29bd 2561 b03d
00000230: 49cb 873d 46b6 8c3d d1f5 b9bd bf74 8e3c
00000240: d521 a53b 765f a03d e05d cb3c 1ab9 973c
00000250: ba05 703d 4c17 213d 625e a7bd b79b b6bd
00000260: 4e9b 4bbd 2881 abbc 044b af3c 81e6 673d
00000270: 3594 a6bd 7b31 5ebc cb0a 93bd 3638 a13d
00000280: 3044 623d 7efb 563d e81b 21bc b39f 6cbd
00000290: 27ae 3bbd 4702 86ba 57f7 8f39 5e15 c8ba
000002a0: d50c a23d b743 43bd 3f5d 8c3d 8c98 253d
000002b0: ff06 92bd 1396 28bd 926d 63bd 5df0 dbba
000002c0: d963 463d 3a95 543d e6aa 9bbc d980 a03d
000002d0: 00e2 303d 190f 773c b56b 97bd 9480 9ebd
000002e0: fcd2 673d 7580 473d 1cc5 33bd 1ea0 8cbd
000002f0: d108 613b 82b3 aabd 7794 7b3d 3f9b 443d
00000300: bcbc ce3c af41 85bd 94fa 73bc ba54 3cbd
00000310: 5b04 343d cdfc b13d 6fe4 673b 6c5d c0bc
00000320: dcaa 803d d09c adbc 1f46 31bd a68a 9cbd
00000330: e27b 433c fd7d 933d 28e1 693d d67c 053d
00000340: 21b9 803d c249 95bd 2b6b b33d dcbb f2bc
00000350: 9acc b5bd 5634 273d e15f af3c 0364 abbc
00000360: 6434 b1bd dc27 813a b299 38bd 4d17 69bd
00000370: 9368 a73d 4aa9 2e3d 2dd3 a2bd bbd4 20bd
00000380: d4d9 3abd fa73 a8bd bf90 93bd ebb8 b93d
00000390: 3625 8b3b 1dc4 963d 735d 7d3c d83d b43d
000003a0: c55f 62bd 1406 c13c be72 39bd 2ece 043d
000003b0: f538 903d 088a 8c3d 279c 7cbd 7cb1 6abb
000003c0: 61ca 6b3c e212 c03c 67f3 0cbd b2fe d73c
000003d0: 73cb 92bd d222 f7bc 804c c7bc c1e3 b4bc
000003e0: fcf9 80bd 5779 823d 5ae5 57bc e6c1 313d
000003f0: 89cd 27bb c04f a53b a5ed aa3d 7a37 8f3d

classifier.0.bias f4 [84]
-0.0092373425 -0.0865878 0.04412382 0.0820299 0.020353446 0.03984181 0.078325674 0.053994413
-0.04166648 0.048763946 -0.077168964 0.08949992 0.06015375 -0.047925293 -0.025300892 -0.057672404
-0.038932584 -0.055722646 -0.086134195 -0.014630249 0.03791563 0.055918243 -0.029640267 -0.068617135
0.052953947 0.0019478743 -0.0012002806 0.046426196 -0.025445081 0.0425451 0.030499496 -0.013379903
-0.00026288978 -0.024890663 -0.040266335 -0.0047626044 -0.0758497 -0.07092907 -0.00025370307 -0.086548604
-0.010657894 -0.08195545 0.029208127 0.014458271 -0.043172084 -0.0020558946 0.04112301 -0.07671696
-0.07620647 0.021200707 0.025341107 0.045760363 0.0119781215 -0.08910397 -0.052367162 -0.0020521411
-0.04472474 -0.034579035 0.02080427 -0.051999636 0.010941875 0.09818081 0.08599193 -0.011578713
0.057891812 -0.07509646 0.04899707 0.011218382 0.08032149 0.06403874 -0.08508149 0.08217927
0.06680693 0.0754354 0.050472803 -0.04497413 -0.004051212 -0.004327863 0.041374918 0.045370527
-0.037526585 -0.019754173 -0.03981701 0.002018583
00000000: 3958 17bc f254 b1bd 2ebb 343d 4bff a73d
00000010: 45bc a63c 2a31 233d 3669 a03d 3f29 5d3d
00000020: 79aa 2abd b4bc 473d c30a 9ebd bc4b b73d
00000030: c763 763d 504d 44bd d143 cfbc e639 6cbd
00000040: c677 1fbd 6e3d 64bd 2067 b0bd b6b3 6fbc
00000050: 6b4d 1b3d 870a 653d 25d0 f2bc 2487 8cbd
00000060: 3de6 583d d14f ff3a bc52 9dba 6529 3e3d
00000070: 3472 d0bc c543 2e3d 14da f93c 6137 5bbc
00000080: 78d4 89b9 81e7 cbbc 50ee 24bd 9f0f 9cbb
00000090: 1657 9bbd 4343 91bd 7303 85b9 6540 b1bd
000000a0: 739e 2ebc 42d8 a7bd e245 ef3c 62e2 6c3c
000000b0: 36d5 30bd 30bc 06bb 9a70 283d c81d 9dbd
000000c0: 2312 9cbd 1bad ad3c 2798 cf3c 386f 3b3d
000000d0: e23f 443c 247c b6bd f37e 56bd 377d 06bb
000000e0: 4a31 37bd bfa2 0dbd b76d aa3c 92fd 54bd
000000f0: 8d45 333c 0513 c93d 891c b03d a4b4 3dbc
00000100: f71f 6d3d 2ccc 99bd 27b1 483d 4ecd 373c
00000110: 987f a43d be26 833d 343f aebd 9b4d a83d
00000120: 12d2 883d e07d 9a3d 92bc 4e3d cb36 38bd
00000130: 08c0 84bb bfd0 8dbb bf78 293d 72d6 393d
00000140: 7ab5 19bd 81d3 a1bc 2917 23bd 344a 043b

classifier.2.weight f4 [10, 84]
-0.0968484 -0.0861984 0.06542473 -0.024609078 0.019377545 -0.048596524 0.0048973067 0.038659792
-0.08007547 0.103602104 -0.074820966 -0.021282975 0.04755757 -0.10703906 0.07046868 0.08392417
-0.15115234 -0.017213939 -0.08358025 0.14819932 -0.10447269 -0.14128667 -0.078846 0.070734724
0.020008102 -0.105540685 -0.026409715 -0.07240469 0.13923252 -0.10124906 0.022011882 0.06608618
-0.14633846 0.025539538 -0.0065354626 0.024659429 -0.053860065 -0.112331025 -0.00243526 -0.021558318
-0.03152358 0.1456552 -0.06685053 -0.07521641 0.03726966 -0.09336988 0.09624144 0.16417319
0.10827124 0.08188886 -0.1757297 0.03861186 -0.13573028 -0.04299572 -0.07895588 -0.08563517
0.075284064 0.0743033 0.03896999 0.04334356 0.16218673 0.046378195 -0.059448704 0.07413815
-0.038152423 -0.009656289 0.051603176 0.012150371 0.080528915 -0.018401876 -0.055457126 0.030524822
0.098634705 -0.14432824 -0.12835668 0.032254964 0.06035706 0.019315768 -0.12240331 -0.12692127
-0.0012276437 0.039711505 -0.15813836 0.10020223 -0.10387364 0.034197748 -0.028881859 -0.10010905
0.026140897 -0.0022469312 0.08568671 0.13771977 0.16876197 0.10450802 -0.13606083 0.1365944
0.16956705 -0.07629706 0.12309106 -0.1973671 -0.12078635 0.099282905 0.11455804 0.012649821
-0.09395316 0.0066597764 0.07324935 0.023745943 0.07664877 -0.047821365 0.08417805 -0.045920826
0.053084057 0.04694851 -0.118567064 0.087602906 0.083152026 -0.11164482 -0.014636546 0.09307367
0.07829853 0.10144281 0.060798716 -0.038987596 0.045088544 -0.092546456 0.0024327121 -0.057574335
-0.05559741 0.17037272 -0.085168555 0.14636455 0.10864017 0.06113223 0.1042975 -0.114324994
0.082046464 -0.014138023 -0.08941881 -0.001482389 0.021087304 -0.08498356 -0.05609153 0.08837714
-0.072367646 0.10953864 -0.08891773 -0.10327229 0.0989837 0.096070394 0.12688838 0.11006447
0.13031283 0.062388986 0.0059623015 0.020598669 0.053277865 0.07049219 -0.056273833 0.055523094
-0.08055137 -0.094418466 0.027250798 0.10793259 0.015631992 0.11576108 -0.08753074 -0.13220431
-0.025200762 -0.09865429 0.11111347 -0.14868727 0.110083215 0.10340877 0.09574076 0.09229046
0.014756281 -0.0062181996 0.12218572 -0.071360976 -0.039340712 0.07070523 -0.10159987 0.029627848
0.111041166 0.045035604 -0.08289408 -0.02138795 -0.14631261 0.06487968 0.12407332 0.10795423
0.0045156395 0.066141784 0.098613046 0.1648152 0.0074779163 0.094678424 -0.06242886 0.030964129
-0.13179019 -0.07569423 -0.11015303 -0.05205841 -0.021055665 -0.07715685 -0.15942608 0.07436316
-0.016389713 0.029783735 0.14440386 0.11664717 -0.123477064 -0.044674903 -0.05128668 0.03762156
0.018928753 0.008998304 0.023600543 0.15458988 0.043802805 0.07708021 -0.14668566 0.017362626
0.04315832 0.07639247 -0.09403042 -0.03821603 0.071649015 0.033006564 -0.1371162 -0.14458811
-0.050141584 -0.052607577 -0.10681071 -0.09356757 0.1750157 -0.037537687 0.050416492 0.09208069
0.0068385904 -0.017321408 0.11651144 0.108390674 0.017717578 -0.01851971 0.032101125 -0.028179895
-0.09918409 -0.03725962 0.12061682 -0.12759556 0.087774076 -0.001890706 0.009225547 -0.10146496
00000000: 7458 c6bd c988 b0bd 67fd 853d fa98 c9bc
00000010: a8bd 9e3c 260d 47bd 9679 a03b bb59 1e3d
00000020: 9cfe a3bd 572d d43d bc3b 99bd a259 aebc
00000030: bacb 423d 4b37 dbbd e251 903d 6fe0 ab3d
00000040: aec7 1abe 3f04 8dbc 1f2c abbd 90c1 173e
00000050: c7f5 d5bd 74ad 10be 037a a1bd 5edd 903d
00000060: 08e8 a33c b725 d8bd 3059 d8bc e948 94bd
00000070: f892 0e3e ab5b cfbd 4352 b43c 3158 873d
00000080: c0d9 15be 4b38 d13c 6f27 d6bb 9202 ca3c
00000090: 5f9c 5cbd cf0d e6bd e298 1fbb 129b b0bc
000000a0: df1e 01bd a326 153e eee8 88bd 100b 9abd
000000b0: 12a8 183d b538 bfbd 3b1a c53d 041d 283e
000000c0: 50bd dd3d 59b5 a73d 7df2 33be 7827 1e3d
000000d0: e1fc 0abe 481c 30bd 9fb3 a1bd 7e61 afbd
000000e0: 882e 9a3d 542c 983d ff9e 1f3d 0489 313d
000000f0: 4714 263e 10f7 3d3d 7c80 73bd bed5 973d
00000100: b745 1cbd 6935 1ebc da5d 533d 5a12 473c
00000110: 58ec a43d 88bf 96bc 0327 63bd 310f fa3c
00000120: fe00 ca3d c8ca 13be ef6f 03be c81d 043d
00000130: f738 773d 1a3c 9e3c 96ae fabd a6f7 01be
00000140: e3e8 a0ba 88a8 223d 06ef 21be d436 cd3d
00000150: b4bb d4bd f012 0c3d a699 ecbc f905 cdbd
00000160: 6f25 d63c 4041 13bb 847c af3d 6906 0d3e
00000170: f0cf 2c3e 4d08 d63d 8853 0bbe 67df 0b3e
00000180: fca2 2d3e a241 9cbd 2a17 fc3d 9a1a 4abe
00000190: d55e f7bd d654 cb3d 689d ea3d 3241 4f3c
000001a0: 846a c0bd 413a da3b c103 963d da86 c23c
000001b0: 08fa 9c3d 56e0 43bd 8b65 ac3d 7a17 3cbd
000001c0: ab6e 593d 154d 403d 4ad3 f2bd 2769 b33d
000001d0: 9c4b aa3d 0aa6 e4bd 20ce 6fbc 699d be3d
000001e0: fb5a a03d 3fc1 cf3d 1308 793d 75b1 1fbd
000001f0: c4ae 383d ff88 bdbd 236e 1f3b 11d3 6bbd
00000200: 1cba 63bd 3076 2e3e da6c aebd 97e0 153e
00000210: bd7e de3d ca65 7a3d ed99 d53d 3923 eabd
00000220: fa07 a83d 2ba3 67bc 3621 b7bd b94c c2ba
00000230: 48bf ac3c dc0b aebd 3bc0 65bd 13ff b43d
00000240: 7d35 94bd cb55 e03d 801a b6bd 6c80 d3bd
00000250: f7b7 ca3d 8ec0 c43d 07ef 013e 7b69 e13d
00000260: ba70 053e 988b 7f3d 695f c33b 8abe a83c
00000270: e439 5a3d 365e 903d 647f 66bd 2f6c 633d
00000280: 1ef8 a4bd 785e c1bd 113d df3c c30b dd3d
00000290: aa0e 803c 2514 ed3d 5143 b3bd 9160 07be
000002a0: d471 cebc 430b cabd 758f e33d 7a41 18be
000002b0: 4f73 e13d fac7 d33d bb13 c43d c802 bd3d
000002c0: 54c4 713c 0ac2 cbbb 823c fa3d b425 92bd
000002d0: ba23 21bd e7cd 903d 9813 d0bd 1ab6 f23c
000002e0: 8d69 e33d 4177 383d 5fc4 a9bd c835 afbc
000002f0: f9d2 15be a3df 843d 271a fe3d 1b17 dd3d
00000300: eef7 933b 5875 873d a3f5 c93d 51c5 283e
00000310: 4f09 f53b c3e6 c13d 68b5 7fbd 7ca8 fd3c
00000320: 02f4 06be 9405 9bbd e997 e1bd 333b 55bd
00000330: ee7c acbc 6904 9ebd 9740 23be b64b 983d
00000340: b843 86bc 05fd f33c 9bde 133e b6e4 ee3d
00000350: 8be1 fcbd 08fd 36bd fb11 52bd 1119 1a3d
00000360: 7910 9b3c 9f6d 133c ed55 c13c cf4c 1e3e
00000370: 926a 333d 3bdc 9d3d c434 16be 113c 8e3c
00000380: c7c6 303d a873 9c3d 0593 c0bd 6988 1cbd
00000390: b8bc 923d e431 073d 3068 0cbe e80e 14be
000003a0: 4361 4dbd 0b7b 57bd 93bf dabd 5ba0 bfbd
000003b0: 5137 333e 1ec1 19bd 8681 4e3d cd94 bc3d
000003c0: 4116 e03b a0e5 8dbc 8d9d ee3d eefb dd3d
000003d0: 7424 913c a6b6 97bc 787c 033d 86d9 e6bc
000003e0: 0721 cbbd 8b9d 18bd f405 f73d 69a8 02be
000003f0: e5c2 b33d 91d1 f7ba c026 173c dccc cfbd

classifier.2.bias f4 [10]
-0.01611679 -0.009187076 -0.027094904 0.02115025 -0.028871505 0.055079617 0.053060837 -0.030753627
-0.065488845 0.055242967
00000000: 5c07 84bc 6485 16bc 22f6 ddbc 4a43 ad3c
00000010: ef83 ecbc 2a9b 613d 5256 593d 08ef fbbc
00000020: 041f 86bd 7346 623d
