checkpoints/noise_rate_0.2/models/tsf/epoch28.pth (torch, 250639 bytes, 10 tensors)

feature_extractor.0.weight f4 [6, 1, 5, 5]
00000000: 6fb7 0a3e 3fd7 79bd c94a c8bc 9d81 b93d
00000010: 914a 4fbe aa08 2c3e e316 0d3c 4aa7 173e
00000020: 9736 713d d252 20bc 0410 c13d 2960 7f3d
00000030: 9dfc 093e 86ad b3bc 3270 f03c 29a6 51bc
00000040: d3d7 4d3d f323 253d cca1 673e beee eb3d
00000050: eefe bebd dc45 03be 31f0 cebc 584a 7fbd
00000060: 303d edbc 4cb1 b53d 29e0 5d3e f2ea 2e3e
00000070: dde9 4bbe d356 a53d d462 1d3e 1e09 9c3e
00000080: a4a7 433e 2f33 4ebe 07fa 70be 5a36 253c
00000090: 47b8 963e 1523 0e3d ab44 ba3d a537 d5bd
000000a0: 96e5 913e ced3 973c d4f7 6e3e 1d73 5a3d
000000b0: 0bd7 89bd 15af 243e f10a f2bc 8dc1 133e
000000c0: cedd b63c 9f8b 5c3d 69b6 64be a023 01be
000000d0: c496 ba3d 272f 0cbd 81c3 723e f1f9 213e
000000e0: 2f15 643a 009b c5bd 3e5b 3c3e 8bdd fd3d
000000f0: 8c3e bdbd 6877 3a3e ae82 463e 750b 813e
00000100: 3456 7fbd 9723 a83c d165 673d 6eb5 ba3d
00000110: 1ea2 d7bd 4782 f4bd 90c9 1f3e 3ac6 0e3a
00000120: cdc5 0f3e f03b 1e3d 888b a13d 8e77 093d
00000130: fc31 983d 2e56 dc3d 2392 2fbe 9d5a f53d
00000140: f473 16be dbcd 16be 803f f73c 67e5 70ba
00000150: fd1b 283e 7faa f0bd ec89 2bbe 55a3 363e
00000160: c262 b13c 6f14 2f3e 6de1 853d e362 08be
00000170: adf2 a03d 2b36 c73d 9b97 b8bd c58b bcbd
00000180: d68f b13d 2971 883d adec 5cbd b4c3 1fbd
00000190: 3a3b 7e3e c9df ba3d 349a 7e3e a1e3 323e
000001a0: 8fe3 debd 4a05 70bd 6052 c93e 7684 5a3e
000001b0: 1578 873e d45b c83d debe 7b3e 8716 d13e
000001c0: 6abd d43e 7701 91bb 659e c23d 16e6 aa3e
000001d0: da23 bb3e 5762 9a3e 7031 21bd 7804 8ebd
000001e0: 0b54 14bb 747f 183e a399 9b3e e519 1fbd
000001f0: c049 443e 8d5b e0bd a076 24be 7c32 143d
00000200: 9ee7 763e abd8 9b3e 4b7a b1bd 1689 093e
00000210: df10 ab3e 6d88 a93e 7643 903e 4ee4 5e3e
00000220: b6f5 813e f78d 6e3e 6abe 713d 10d7 b2bc
00000230: 6951 ecbc 8d0d 963d 9d4c 5e3c 87b9 6a3e
00000240: ff9e 433e d1ae 91bc 61b0 fa3d 1769 123e
00000250: ce98 623e c4a0 683e
0.13546537 -0.06099629 -0.024449723 0.09057925 -0.20243289 0.1680018 0.008611414 0.1480991
0.05888995 -0.009785371 0.09426883 0.062347565 0.1347527 -0.021933328 0.029350374 -0.012795963
0.050254654 0.040317487 0.22620314 0.11520146 -0.09325968 -0.12819618 -0.025261017 -0.06232676
-0.02895984 0.08871707 0.21667542 0.17081812 -0.1991343 0.08073201 0.15369731 0.30475706
0.19106919 -0.20136712 -0.23532878 0.010083759 0.29437467 0.034701426 0.090951286 -0.10411004
0.28495473 0.018533614 0.23336726 0.053332437 -0.06730469 0.16082413 -0.029546233 0.14429303
0.022322562 0.05384409 -0.22335209 -0.12611246 0.091107875 -0.034224655 0.23707391 0.15818001
0.00087006664 -0.096487045 0.18394181 0.123957716 -0.092404455 0.18209612 0.19385788 0.25204054
-0.06233807 0.020524783 0.056493584 0.09116636 -0.10528968 -0.11938911 0.15604234 0.0005446408
0.14040299 0.03863138 0.078879416 0.03356128 0.07431409 0.10758625 -0.1714559 0.11980174
-0.1469267 -0.14726965 0.030181646 -0.0009189457 0.16416927 -0.117512695 -0.16751832 0.17835744
0.021653537 0.17097639 0.06537137 -0.13318972 0.07858787 0.097271286 -0.090132914 -0.092063464
0.08670013 0.066622086 -0.05393665 -0.039004996 0.2482728 0.09124715 0.24863511 0.17469646
-0.10883247 -0.058598794 0.3932066 0.21339592 0.26458803 0.0978314 0.24584529 0.408375
0.4155076 -0.0044252235 0.095028676 0.33378667 0.3655079 0.30153152 -0.039353788 -0.06934446
-0.0022633101 0.1489237 0.30390653 -0.038843054 0.19168758 -0.10954962 -0.16060877 0.03618096
0.24111792 0.30438742 -0.08665904 0.134312 0.3341131 0.33111897 0.2817647 0.21766779
0.25382775 0.23296343 0.059019484 -0.021831065 -0.028847413 0.07326803 0.013568071 0.22922336
0.19103621 -0.017783554 0.12240673 0.14297901 0.22128603 0.22717577

feature_extractor.0.bias f4 [6]
00000000: de33 3bbd 651c 733e d4ff 223b 37ac 8a3b
00000010: 9bbc b4bd 0839 04bd
-0.04570376 0.237413 0.0024871724 0.0042319554 -0.08825036 -0.03228095

feature_extractor.3.weight f4 [16, 6, 5, 5]
00000000: 06d2 2ebd d0df 02bd 28ed 753d 5457 c8bc
00000010: ad9e 70bd cddc 243d 3616 1f3d 1ea8 873d
00000020: 23b0 06bd 7a96 bc3c 935d d9bc f45c 26bc
00000030: 12c9 7fbd b5fa 22bd 97c2 f1bc f8e4 193d
00000040: 852c b23c 62b7 ad3c 3846 9b3d 7386 973d
00000050: 37fb 5f3d ae71 d13b 109d 61bd b30b 7a3d
00000060: 1176 adbc a275 74bc 69be 71bd 2ad2 363c
00000070: 8d57 1cbd 1ab0 8b3d fdda 9dbd 00c2 20bd
00000080: a6dc 043d 87f4 1fbd 11bb 8d3c 0d24 fcbc
00000090: 54f5 34bc f296 fe3c 6216 5c3d 863e 9abd
000000a0: 1489 233d 1054 9e3d 0ff5 c83d fb41 88bd
000000b0: 3f66 a03a 818c 8bbd fa24 ae3d a628 41bc
000000c0: 7740 2b3d 8544 9cbb ef14 2ebc 8c9c c83b
000000d0: 0aca 9f3c 3e30 0b3d a218 013c 4dc1 123d
000000e0: 35e2 61bd 40ea 7f3d 994c 853d 8aca 8b3d
000000f0: c24e 983d fa81 49bd 778f 1ebd 2ccf 6b3d
00000100: 8b0a 8bbd 1158 a23d 12c0 88bd 5185 8abd
00000110: 9955 c63c 95a5 86bd d6bc 84bc bee7 813d
00000120: 39c7 653d ccd0 8e3d f8f5 9fbc bd54 82bd
00000130: 6a21 aa3d f817 8dbc 670a 1cbd 9d70 a13c
00000140: c8a4 4fbd ec1f 6a3d 50fb 403d a8c1 8ebd
00000150: da33 88bd c003 c839 77bf 0b3d 2864 b3bb
00000160: 935c 32bd 74cd 343b 2639 93bd ef68 65bd
00000170: 93e1 71bd c553 883d 23cd 963d 33d1 bebc
00000180: a0f7 c83b fb39 0a3d eb40 403c fbf0 1abd
00000190: aeff 223d 7b0e 973d 3c9a 0e3d bad7 ecba
000001a0: e1bf 863d d00f b53d 7927 113c 7917 fe3d
000001b0: 659a a73c a391 87bd 7461 883d 3f94 a4bc
000001c0: cf6a be3d 7f0f 9fbd cd9d 01bc cc5e ea3c
000001d0: 954b 3b3d 3e01 8a3d 8e3b 90bd 1a08 85bd
000001e0: 2078 a7bd 40df 5a3c 5538 c8bc f606 6fbc
000001f0: 41d3 eebc 8a23 283d f89b cb3d ddae ed3c
00000200: 33a3 13bd b725 39bd fcf6 22bd be8b d23d
00000210: 5494 36bc 1f01 d33b 7525 d13b b9c1 a6bc
00000220: 7ae7 883d 4c9d e83c e971 bbbc 93e2 60bd
00000230: 8d75 66bc be2a 633b f340 93bd 5e1a 9bbd
00000240: 21b4 c7bc 1f86 2cbc dd39 f83c 1860 18bd
00000250: 419b debc 2ca1 14bd a64f 99bd 22be 9f3d
00000260: f550 bd3c 7b31 a13d 3b6a 14bc 537c 4ebc
00000270: 2a11 74bd e5ba 2bbc 44c8 863d 01a7 9ebd
00000280: de4b c5bc 8622 743d dac2 723d 77e5 363d
00000290: 5188 cdbb 3ffc 67bc eaf7 e2bc bab9 08bd
000002a0: 4cec 3d3d eea4 dbbb 598a 1dbd 00b6 c03c
000002b0: 66fc 44bd a835 4c3a b556 843d 41f5 cb3c
000002c0: db69 a73d 1043 07bd fe6c aa3c 06c4 aebc
000002d0: c5a9 05bd c1af bbbc a4f0 7f3d 4742 363d
000002e0: 19fc 06bd 6811 3fbd 6646 84bd 505c d03d
000002f0: c82b 5f3c e3aa 313c f6d1 03bd 09e3 5bbd
00000300: 1ee2 8bbd 4094 93bc 644c be3d 05ca 2a3c
00000310: e65c e3bc 9d64 55bb fd52 a53d b93e b23d
00000320: 1dbe b03d 975c 153d 2916 563d d298 35bb
00000330: fab1 6fbd 6569 7fbd 8e71 8c3d ae32 0539
00000340: 6982 ee3c 31bc 15bb 26c5 83bd a16e 05bd
00000350: 48f6 c63c 1a1d 57bc 7484 90bd 7946 873c
00000360: 6365 ac3b e1ee afba 0f08 803d c01b 313d
00000370: ec3a c7bc 1792 e23d bd69 b03d 09de 2a3d
00000380: 3fd3 5cbb e8d8 85bd 071a 8d3d bfa2 98bc
00000390: ac9b 68bd d7a0 483d 8c88 1a3d 555c f13c
000003a0: cd86 6fbc 6a2f f3bc 82d2 3e3c 1039 873d
000003b0: e86c 963c 3dc3 01bd 6d6d af3d 07a3 9f3b
000003c0: 9f1b 803d 34e0 073d 948f c13d fcd8 823d
000003d0: f498 14bd 56f2 853d 7c76 633c b1c1 67bd
000003e0: b679 8dbc 32e5 9abd 27e5 2fbd 98d6 1dbd
000003f0: 2795 b53d 4806 7a3a 6bf6 e9bc 7454 993d
-0.042680763 -0.031951725 0.060040623 -0.024455704 -0.058745075 0.040249635 0.03883954 0.06623863
-0.03288282 0.023020972 -0.026533877 -0.010153998 -0.062447615 -0.039789874 -0.029511733 0.037571877
0.021749744 0.021205608 0.075817525 0.07398691 0.054682937 0.0063917255 -0.055081427 0.061046313
-0.021174463 -0.014920624 -0.05901948 0.011158505 -0.038169432 0.06820698 -0.07707784 -0.039247513
0.03243699 -0.03905156 0.017301114 -0.03077891 -0.011044819 0.031077836 0.053732283 -0.07531457
0.03992565 0.077308774 0.09812366 -0.0665321 0.0012237503 -0.06813908 0.085031465 -0.0117894765
0.041809525 -0.0047689104 -0.010625108 0.0061221775 0.01950552 0.033981554 0.007879408 0.035828877
-0.05514737 0.062479258 0.065087505 0.06825741 0.07436897 -0.04919622 -0.038711037 0.05757062
-0.0678912 0.079269536 -0.066772595 -0.06763709 0.024210738 -0.06574551 -0.016203325 0.063430294
0.056098197 0.069734186 -0.019526467 -0.06363819 0.083071545 -0.017223343 -0.038095858 0.019707019
-0.050694257 0.05715935 0.04711467 -0.06970531 -0.06650515 0.00038149767 0.034118142 -0.005474586
-0.043545317 0.002758828 -0.071886346 -0.056008276 -0.059053015 0.06656603 0.073633455 -0.023293113
0.006133035 0.0337467 0.011734228 -0.037827473 0.039794616 0.07375809 0.034815058 -0.0018069663
0.06579567 0.088409066 0.008859509 0.12406821 0.020459363 -0.06619575 0.06659213 -0.02009022
0.09297716 -0.077666275 -0.007911158 0.028609656 0.045726378 0.06738518 -0.07042609 -0.06495686
-0.08177209 0.013358891 -0.024440924 -0.014589062 -0.029153468 0.041049518 0.09941858 0.029014045
-0.03604431 -0.045201983 -0.039786324 0.1028056 -0.011143763 0.0064393426 0.006382639 -0.020356046
0.06684776 0.028395317 -0.022881465 -0.054903578 -0.014066112 0.0034662928 -0.071901225 -0.075733885
-0.024377884 -0.010530024 0.030301029 -0.037201017 -0.02717364 -0.036286518 -0.07485895 0.07799937
0.023109892 0.07870766 -0.00905853 -0.012602883 -0.05958668 -0.010481571 0.065811664 -0.07746697
-0.024084028 0.059603237 0.059267856 0.04465243 -0.0062723537 -0.014159261 -0.027706105 -0.033380248
0.04636793 -0.0067030108 -0.038462017 0.023524284 -0.04809227 0.0007789978 0.064618506 0.02489722
0.08174487 -0.03302294 0.020803925 -0.021333706 -0.032632608 -0.022910954 0.062485352 0.0444968
-0.032955263 -0.04664746 -0.0645874 0.10173857 0.013621278 0.010843965 -0.032182656 -0.053683314
-0.06830238 -0.018015027 0.09291914 0.010424142 -0.027754258 -0.003256119 0.080724694 0.0870337
0.08630011 0.036465254 0.052267227 -0.0027709496 -0.05851934 -0.06235637 0.06857596 0.00012702748
0.029114919 -0.0022847767 -0.064340875 -0.032576207 0.024287358 -0.013129497 -0.070565134 0.016513096
0.0052611097 -0.0013422632 0.06251537 0.043239355 -0.024320088 0.11063021 0.08613918 0.041715655
-0.0033695248 -0.06535512 0.0688973 -0.01863229 -0.056789085 0.048981514 0.037727877 0.029462973
-0.014619541 -0.029685695 0.011646869 0.06602681 0.018362477 -0.031680334 0.08565793 0.0048717293
0.06255268 0.0331728 0.094512135 0.06389043 -0.03627868 0.065403625 0.013883229 -0.056581203
-0.01726995 -0.07563247 -0.042943146 -0.03853473 0.08866339 0.0009537679 -0.028559884 0.07486811

feature_extractor.3.bias f4 [16]
00000000: 9909 a8bc e23f 45bd 23b9 db3b 4584 1a3d
00000010: ceac 713d e507 cebc 3d42 3f3b 0cc2 25bd
00000020: 67b1 83bd adc6 50bd 5d1c 4bbd d664 4dbd
00000030: 2f45 e33c 7c52 85bc 9e90 883d a208 9b3d
-0.020512389 -0.048156627 0.0067054196 0.0377238 0.05900269 -0.025150249 0.0029183768 -0.04046826
-0.06430321 -0.050970722 -0.049587596 -0.050144993 0.02774295 -0.016274683 0.066682085 0.07570006

feature_extractor.7.weight f4 [120, 400]
00000000: 46f9 2cbd 063c 413c d683 f73c f905 38bd
00000010: bc84 87bc 42ee 0a3d 6b42 14bd 9883 3b3d
00000020: ec66 7cbb 591f 2f3c 2a30 403d d0fb 1bbd
00000030: 63ed 333d cbf2 43bd 3bd7 0d3d 61cb f4b9
00000040: 77ba 373d b071 1dbb e2e2 46bd bf96 8b3c
00000050: a7d1 fe3c ed64 16bc d409 4fbd d27b a8ba
00000060: 7af1 173c 7406 353c ebf5 9d3c d7cf 4ebc
00000070: f417 09bb 5a8a 36bb 1e49 b43c 9bde 8e3c
00000080: ef21 a23c f19b 903a 4dd0 283c 10a4 1d3d
00000090: a754 413c 7e3c 3dbd f44d 5e3c 295d 703d
000000a0: 960b 03bc 3919 0e3d 47f6 1ebd ee0d 9ebb
000000b0: 6c56 093d 2e1e f0bc 750a c6bb 69fe 063b
000000c0: 0631 4dbc 626b c0bc 3600 083d 8abc 3abc
000000d0: e74f 8fbc 1671 063d bd5e 243c 5568 adbc
000000e0: b0ae 003d 89de ecbc 9604 503d 9410 2c3d
000000f0: fe7b ab3b b3b2 813c d5d7 9cbc 0f1e 0bbd
00000100: 801a d9bc 4269 963c c90f c13c 65ae 9cbb
00000110: 448e 72bc d7db 87bc 6b2e aebc a6b5 a3bc
00000120: d538 043d a3e4 44bd 999c f73c fdfe f83c
00000130: bff3 83bc daa2 24bc ab5b 4fbc 8d95 26bd
00000140: d936 d83b 0e19 efbc 1bf2 8a3c e265 b0bb
00000150: 25d0 fcbc 91bd 55bd 631c 183d 93a6 323d
00000160: da60 2e3d a930 7f3c 385e ab3c 5cda e33c
00000170: e50f 263d 945a 9ab8 2b05 b639 f5ee bd3c
00000180: c135 083d 5269 50bc f440 d13c 7226 303d
00000190: 643e c8bc 9658 3cbd 41a5 3cbb fa42 fbbc
000001a0: 5ed8 473d 3050 4cbc fc21 a1bc ae80 fe3c
000001b0: d362 833c 0d9f 8e3c b30c 4a3d 0345 2ebd
000001c0: 7c9a df3c 26ac cdbc b0d7 b83c 9142 b7bc
000001d0: 3767 483d e9b3 53bc cf7b 013c 05cf fdbc
000001e0: 3962 cc3c 6dfb 49bd 45fc bd3c 678d 4c3d
000001f0: d844 343d 182a c53c 38fb bfbc 5f62 9f3b
00000200: 2a9b 3a3c 12da 50bd e694 b53c 6044 31bd
00000210: f3ce b13c fb92 413d 5bf0 86bc d97e 273c
00000220: 5a69 4f3d 210f 443d 1260 463d 2dbf e8bc
00000230: cb08 0e3c f4f6 36bd 06c0 c03b c710 5abd
00000240: 26d2 ec3b 90c3 ae3c 69bc 33bd d92f 3fbb
00000250: d402 abbc 59d0 303d edf6 52bc 6c6e b23c
00000260: 6dea 13bd b5df 963b dfd3 053d 4e6c 563a
00000270: 103c a1bc d95c c5bc 3d2c df3c 9da6 8c3c
00000280: 4655 ae3b d776 193d e368 82bc 00e8 ebbc
00000290: e71a 8a3b 571c 003d cf2e 63bd cd1a 03bd
000002a0: 5e7e 3e3c fabd 043d ae46 f03c 5b79 6f3c
000002b0: af20 43bd 41a1 c1bc 2c6e d63c e19f 1a3c
000002c0: 6f38 dc3c 6f4d 193d 8b49 e93c 6fe5 a8bc
000002d0: e43a d1bc 6e11 1cbc f61e b1ba 3e0e 7fbb
000002e0: 205c 24bc 123f e83b f795 033d dc20 01bd
000002f0: 177c d03c aaca 47bd 9e79 363b bb34 39bd
00000300: 01d9 453d 7019 2dbd 9491 d9bc 70f6 ea3c
00000310: ee23 bb3c 2d83 1b3d 7051 663c 619e 2abd
00000320: 4166 0fbd f707 0c3d 5d32 47bd 2d22 383d
00000330: d9b2 0abc b164 153c c464 0cbb 82df 4dbc
00000340: ade2 48bc 9d02 723c c6a5 0fbc 1dbb 093c
00000350: 5952 2b3d 5f58 933b 0a70 20bd 618c 1abd
00000360: fa99 023d 4af5 8e3c 75bd 1c3c 50f1 cbbc
00000370: fb14 27bd 17e9 303d 690b 40bd f247 cbbc
00000380: 6e9a a33c 1667 323d cdc2 4ebc 7a65 33bd
00000390: e283 5b3c bcc3 5e3b 9f06 06bc 2923 30bd
000003a0: a1d5 1e3d d4b8 bd3b 69f1 a73c 2470 d83c
000003b0: 7f8e 2a3d f731 8dbc 61f3 083b 387b 07bd
000003c0: b2b5 33bd ce84 99bc 88d4 8a3c 2a97 eabc
000003d0: d6be 063d 8af6 4a3c 9176 91bc b1e8 bf3c
000003e0: 0333 173d cc96 a3bc 5430 d23c 22f4 143d
000003f0: 87e2 443d 9649 02bd 41d9 3d3d a91c ba3b
-0.042229913 0.011794096 0.030214231 -0.04492757 -0.016542785 0.033918627 -0.036196154 0.045779794
-0.0038513495 0.010688626 0.046920933 -0.038081944 0.04392756 -0.047838967 0.034629088 -0.00046690836
0.04485556 -0.0024024062 -0.048556216 0.017039655 0.03110583 -0.009179336 -0.050546482 -0.0012854284
0.009273881 0.011048902 0.019282302 -0.012622795 -0.0020918818 -0.002785346 0.022007521 0.017440131
0.019791571 0.0011032802 0.010303569 0.03848654 0.011799968 -0.046200268 0.01356839 0.058682594
-0.007998368 0.034692023 -0.038809087 -0.004823438 0.033529684 -0.029311266 -0.006043727 0.0020598418
-0.012523895 -0.023488704 0.033203326 -0.01139749 -0.017494155 0.03282269 0.010032353 -0.021167913
0.031416595 -0.028914707 0.050785623 0.042007998 0.005233287 0.01583228 -0.019145885 -0.033964213
-0.026501894 0.018360738 0.023567097 -0.0047815316 -0.014804427 -0.01658432 -0.021262368 -0.019984078
0.03228076 -0.048069607 0.030226039 0.030395025 -0.016107438 -0.010048592 -0.012656133 -0.040669966
0.006598335 -0.029186752 0.016961148 -0.005383239 -0.03086097 -0.052182738 0.037136447 0.04361589
0.042572834 0.015575566 0.02091895 0.027814083 0.040542502 -7.360164e-05 0.00034717596 0.023185233
0.03325439 -0.012720423 0.025543667 0.043005414 -0.024443813 -0.04598292 -0.0028785022 -0.030671585
0.04879033 -0.01247029 -0.019669525 0.031067219 0.016038334 0.017409826 0.049328517 -0.042546283
0.027295344 -0.0251065 0.022563785 -0.022370609 0.04892656 -0.012921312 0.007903053 -0.030982504
0.02494918 -0.049312044 0.02319158 0.04993954 0.044010967 0.024067923 -0.02343522 0.0048640217
0.011389533 -0.050989218 0.022165727 -0.043278098 0.021705126 0.047259312 -0.016472032 0.010223114
0.05063758 0.04786599 0.048431464 -0.028411472 0.008669089 -0.044669107 0.005882266 -0.053238656
0.0072272 0.021333486 -0.043880854 -0.0029172807 -0.020875372 0.043167446 -0.0128762545 0.021781169
-0.036112238 0.0046043047 0.03267276 0.0008179591 -0.01968196 -0.024092125 0.027242774 0.017169291
0.005320224 0.03746685 -0.015919155 -0.02879715 0.004214633 0.031277027 -0.055464562 -0.03200798
0.011626808 0.03240774 0.029330578 0.014616336 -0.04763859 -0.023636462 0.02617558 0.009437532
0.026882378 0.037427362 0.02847745 -0.020617215 -0.025540777 -0.00952564 -0.0013513255 -0.00389184
-0.01003173 0.0070875967 0.03212544 -0.031525478 0.025449796 -0.04877726 0.0027843486 -0.045216303
0.048302654 -0.042260587 -0.026558675 0.028681964 0.022844281 0.037966896 0.014057502 -0.04165495
-0.035009626 0.034187283 -0.048632015 0.044954468 -0.008465492 0.009118245 -0.0021422366 -0.012565495
-0.012261075 0.014771131 -0.008767551 0.008406428 0.04182658 0.0044966186 -0.03916935 -0.037731532
0.031885125 0.017450947 0.009566654 -0.02489534 -0.040791493 0.04319104 -0.04688588 -0.02481458
0.019971099 0.04355534 -0.012619686 -0.043797947 0.0133981425 0.0033991178 -0.0081802895 -0.04300228
0.03877795 0.0057898555 0.020500856 0.02642066 0.0416398 -0.01723574 0.0020897018 -0.033076495
-0.04387445 -0.018740084 0.016947046 -0.028636534 0.03289684 0.012387881 -0.017756732 0.023426386
0.036913883 -0.019969366 0.02565781 0.036365636 0.048067596 -0.03180846 0.046349768 0.005679686

feature_extractor.7.bias f4 [120]
00000000: 8e98 aa3c 7cac 163d a587 9c3c 788e ff3c
00000010: 9d91 2c3d 2f8a 09bd 5f4c 123d 9c0e b53a
00000020: 533a 07bd 2a7f 893b 042b b93c 2241 e8bc
00000030: 56c5 23bd ac50 4abd 2bf2 dabc a716 2abd
00000040: 12c4 f43c 66c5 b4bc 2d0c 32bd 71db f7bc
00000050: de35 42bc 426e f53c c6b9 133d 86bf 783c
00000060: 8591 253d 2118 21bd 0c0c aebc fa36 0c3d
00000070: 213c 96bc a147 713c b914 48bc 94ca dc3c
00000080: 6dfe 4abd 7a63 a53c a34b e9bc c654 f4bc
00000090: 000d 1e3d 1ef2 c1bc 83ec ea3b ff46 8a3a
000000a0: e0a9 10bd aeaa e43c fc8b 0abd e19f 92bc
000000b0: d99f 41bd 0f53 41bc 76c0 6d3c 73ae 5e3c
000000c0: 616c c33c 7d3a 88bc 0024 963c 6cd6 48bc
000000d0: fbe4 2e3d 1248 e2bc a436 a9bb 7f37 1638
000000e0: 4c1b 163d ab20 83bc 2f29 18bd c900 6c3c
000000f0: 178b 313d f4cd 16bd 2fc9 87bc 8f02 72bc
00000100: e1e8 093d 8c82 e13b 2f5d 33bd 3302 233d
00000110: 2755 5cbc 2c6f 40bd 677b 423d 0401 33bc
00000120: 91fd ac3c e133 023b 4cc8 103d 31a0 acbc
00000130: 8ff9 8abc c672 ccbc 189a 03bd f6ae 01bd
00000140: 0d83 eb3c 83f4 07bd 2560 deba 5a75 c93b
00000150: cb01 4c3d a55e 91bc 8c7a 94bc e9c9 a93c
00000160: 902c 423c 8dad a03c d519 2c3d 7d27 23bd
00000170: 92bc 6b3c 301e 59bb de7e 39bd 5307 a5bb
00000180: 886d 6a3c 0518 ed3c 161d 123b b4e8 04bd
00000190: edb3 5dbc a2ae 1f3d 1004 bc3c ae85 14bd
000001a0: 27f0 4f3c 9bb1 23bc 740a 013c f817 033d
000001b0: 3ad8 bfbc 35df 33bb dd24 213d 6d3c e5bb
000001c0: 01ea 483d 2f73 9dba 6e9a d93b d4e1 0cbc
000001d0: 1ca9 b33c fc24 70bc 0063 533d b9d8 323d
0.020824697 0.036785588 0.01910765 0.031195864 0.042131055 -0.033579048 0.035717364 0.0013813558
-0.033014607 0.0041960673 0.02260352 -0.02835137 -0.039983116 -0.04939334 -0.026726803 -0.04152551
0.02987865 -0.022066783 -0.043468643 -0.030256005 -0.011853663 0.029959802 0.03606584 0.0151823815
0.04042198 -0.03932965 -0.021245979 0.034232117 -0.018339219 0.01472655 -0.012211972 0.026952066
-0.049559046 0.020189036 -0.02847845 -0.02982558 0.038586617 -0.02367502 0.0071693077 0.0010549723
-0.035318255 0.027913418 -0.033824906 -0.017898502 -0.047271583 -0.011799588 0.014511218 0.013591397
0.02385539 -0.016629452 0.018327713 -0.012258153 0.04269884 -0.027622256 -0.0051639844 3.581447e-05
0.036647126 -0.016006788 -0.03714865 0.014404484 0.043345537 -0.036817506 -0.016575424 -0.014771118
0.033669356 0.0068820175 -0.04379004 0.03979702 -0.013448036 -0.04698102 0.047480967 -0.010925535
0.021117004 0.0019867348 0.035347268 -0.021072479 -0.016964702 -0.024957072 -0.032129377 -0.031660996
0.028749013 -0.03319217 -0.0016965909 0.0061480226 0.049806397 -0.017745325 -0.018124841 0.020726161
0.011851445 0.019614005 0.042016823 -0.03983258 0.01438822 -0.0033129565 -0.045287006 -0.0050362735
0.014308341 0.028942117 0.0022295169 -0.032448485 -0.013531667 0.038984902 0.022951156 -0.0362603
0.012691534 -0.009991075 0.007876027 0.03200528 -0.023418535 -0.0027446274 0.039341796 -0.0069957287
0.04905129 -0.0012012477 0.006640724 -0.0085987635 0.021931224 -0.014657255 0.051608086 0.043663714

classifier.0.weight f4 [84, 120]
00000000: 69c7 9c3b 717d 47bd 06e0 e53c b778 34bc
00000010: 6bf8 9cbd 1b4f 823c 6787 81bd ee20 09bd
00000020: 02ef 86bd cc51 8f3d cdaa 213d 84bd 55bd
00000030: 8f78 723d f6a8 8bbd 5714 073c ba3b 91bd
00000040: 2f24 513d 01bc 44bd 3751 e2bc 36aa d23c
00000050: 85f5 b4bd 00c6 5c3d 1cfe c33b b441 73bd
00000060: 8885 11bc 2b69 58bd 0512 c03c f514 183d
00000070: 6802 9abd 08cd 803d 610f f4bc 88bb a53d
00000080: 9bd8 7abb 3ce6 e53c b0eb 1ebd 06e7 a43b
00000090: 822e 29bc 543f c8bc 0005 47bd ff61 3a3b
000000a0: 8f7e a8bd f7ba 57bd 3baf 0fbd 1e99 1a3b
000000b0: d20e 6cbd 9a08 36bd db44 073c 3ee5 3b3a
000000c0: 3250 313b c1cf 41bd cd8a 923d f506 bbbc
000000d0: 3a9d 90bd 200c 503d 6b51 463c 25b0 63bb
000000e0: afd8 a8bd ef40 67bd 9a41 5d3d 97ab bebc
000000f0: e371 81bd d6f6 643d 4421 98bd 7a41 613d
00000100: 8295 fdbc 064a 1d3d dfd0 493c f187 be3d
00000110: 98d0 143d 8eec c9bb b1f8 af3d 04e3 95bd
00000120: eb00 3d3c 929f f13c b10b 87bd 27c5 48bd
00000130: 13f4 2bbd fbb3 40bd ab4b 34bc 0e86 67bd
00000140: f4f1 ab3d 8fbc 15bb cdf8 b93d 5224 c53c
00000150: 8f50 59bc a194 023c 5e19 50bd cba4 5dbd
00000160: 290a 143d 448a 40bc cfd2 0b3c d336 13bc
00000170: 933b 983d 2ab4 b9bd f7a6 67bd 090a 46bd
00000180: 90a1 f3bc a8d0 933d f6ac 7c3d 46ef 81bd
00000190: 1ab4 dcbc 3a5c a83d f42a 90bd 99e8 1a3c
000001a0: db74 133d 7b26 2f3d 5820 8f3d c816 743d
000001b0: a84f af3c 8049 b1bd 3161 25bd 576f 81bc
000001c0: de62 88bd 723f 3dbd 1783 9d3c e240 11bd
000001d0: 6f96 7a3c 7e77 043d c627 523d 5a28 91bd
000001e0: c0a6 a43d da1b 153d 48a9 fd3b bc9a e0bc
000001f0: d02e e3bc aa01 293b 19f5 42bc 0940 b0bd
00000200: 65ed 673c f3ac 76bd 0cdb a0bd 85d3 5c3d
00000210: 363d 76bc f56f c4bc 6c8a 4cbc d5db 20bd
00000220: 11d9 423d e1e4 49bb 2eb9 27bd bf9b b13d
00000230: 31fc 873d bc6f 8d3d da14 babd 7fbf 8c3c
00000240: 4212 a93b 027c a13d b773 cd3c a0dd 993c
00000250: 8e23 6e3d 9193 213d a7fd a6bd 018a b7bd
00000260: c7ca 4bbd 8ceb abbc 99cd af3c 100b 683d
00000270: 4c97 a6bd bd1f 5dbc adc7 92bd 753f a13d
00000280: ff84 613d 2d1f 573d 7102 19bc 2611 6dbd
00000290: 81b3 3bbd b523 84ba fbdf 5b39 827d c4ba
000002a0: e515 a33d b1e1 44bd 099a 8b3d 1ab7 253d
000002b0: 221f 92bd ae87 27bd 5e71 63bd 3c7b 19bb
000002c0: cc84 463d 89b5 553d abcb 9bbc 0df4 a03d
000002d0: e330 313d 91b8 773c c184 97bd 837d 9ebd
000002e0: 2cae 673d 8ba1 473d d6e2 33bd 1386 8cbd
000002f0: 9a18 383b f2cf aabd e4bd 7b3d 31bc 443d
00000300: 88af ce3c ba44 85bd e0e5 79bc 59ff 3bbd
00000310: 6d30 323d 321a b23d 35c0 6b3b 247d c0bc
00000320: 0ecc 803d ccb6 adbc 032c 33bd 4324 9dbd
00000330: 91d4 413c 7696 933d 564f 6a3d a9eb 063d
00000340: acdf 803d 665b 95bd 368d b33d ed5d f0bc
00000350: 2324 b5bd 7b96 273d ca1b af3c b53a b0bc
00000360: 174f b1bd ea3c 813a e4d8 38bd e596 69bd
00000370: 5484 a73d 9a06 2f3d cd37 a3bd 51ef 20bd
00000380: 1efa 3bbd 728e a8bd 1cf7 92bd f4d7 b93d
00000390: 8282 813b 1263 963d 7242 7e3c 835b b43d
000003a0: bf7e 62bd 7ca0 bf3c 1582 39bd 54e4 043d
000003b0: e05b 903d 64ac 8c3d cd4d 7bbd efad 6abb
000003c0: 2628 483c 0ee0 a43c 31ae 0fbd 7aad b53c
000003d0: b4e3 92bd b4b2 e5bc 86c1 cebc 3a61 cfbc
000003e0: 772b 6bbd b7e1 843d 16f5 39bc 3585 313d
000003f0: a698 28bb 5e6b a53b 440a ab3d f492 8e3d
0.0047845137 -0.048703615 0.028060924 -0.011015109 -0.076645695 0.015906861 -0.06324654 -0.03347867
-0.06588556 0.069980234 0.03946953 -0.05218269 0.059197005 -0.06819336 0.0082445955 -0.0709147
0.051059898 -0.048030857 -0.027626617 0.025715929 -0.08835892 0.053899765 0.00598122 -0.05938883
-0.008881934 -0.05283467 0.023446092 0.03712936 -0.0751999 0.062891066 -0.02979249 0.08092409
-0.003827608 0.028063886 -0.038798988 0.005032423 -0.01032603 -0.02444426 -0.048588753 0.0028439758
-0.08227264 -0.052668538 -0.035079222 0.00235898 -0.05763132 -0.044441797 0.0082561625 0.00071676436
0.0027055857 -0.04731727 0.071553804 -0.022830466 -0.070612386 0.050792813 0.0121043725 -0.0034742441
-0.08244454 -0.05645841 0.05401764 -0.02327518 -0.0632055 0.055899464 -0.0742822 0.054994084
-0.03095508 0.038400672 0.012317865 0.093032725 0.036331743 -0.0061622327 0.08592356 -0.073186904
0.011535863 0.029495034 -0.06594027 -0.049016144 -0.041980814 -0.047046643 -0.011004369 -0.05652433
0.08395758 -0.0022847985 0.09080658 0.02406517 -0.013263836 0.007970006 -0.050805442 -0.054112237
0.036142502 -0.011751715 0.008534147 -0.008985239 0.07433238 -0.09067567 -0.056555714 -0.048349414
-0.029740125 0.072175324 0.061688386 -0.06344466 -0.026941348 0.08220716 -0.07039443 0.00945487
0.036000114 0.042761307 0.06988591 0.05959204 0.021400288 -0.08656597 -0.040375892 -0.015800161
-0.066594824 -0.046203084 0.019227548 -0.035462268 0.015294655 0.03234052 0.051307462 -0.070877746
0.080396175 0.036403514 0.007741127 -0.027417533 -0.027732283 0.0025788345 -0.011899256 -0.08605964
0.01415572 -0.06022353 -0.0785428 0.05391266 -0.015029242 -0.023979167 -0.012484174 -0.03927215
0.047570292 -0.0030806588 -0.040948085 0.08672284 0.066398986 0.06906077 -0.09086008 0.017181156
0.005159647 0.07884981 0.025079591 0.018782437 0.058139376 0.03944737 -0.08153849 -0.08961869
-0.04975393 -0.020986341 0.021460341 0.056651175 -0.08134326 -0.0134963365 -0.071669914 0.078734316
0.055058476 0.052519966 -0.009338961 -0.057877682 -0.045825485 -0.0010081442 0.00020968907 -0.0014991018
0.079631604 -0.0480668 0.06816489 0.040457822 -0.07134844 -0.04090088 -0.055528037 -0.00234194
0.04846649 0.05217508 -0.019018015 0.07859049 0.043259513 0.015119688 -0.07398368 -0.07738783
0.056562588 0.048738044 -0.0439175 -0.0686151 0.0028090836 -0.08340444 0.06146039 0.048031036
0.025230184 -0.06507249 -0.01525256 -0.045897815 0.043503214 0.086964026 0.0035972719 -0.023497172
0.0628892 -0.021205328 -0.043743145 -0.07672932 0.011830465 0.072064325 0.057204567 0.032939587
0.06292662 -0.072928235 0.08767168 -0.029341662 -0.08844783 0.040914994 0.021375556 -0.021512369
-0.08657663 0.0009860073 -0.045128718 -0.05702867 0.081795365 0.042730905 -0.079696275 -0.03929073
-0.045892827 -0.08230294 -0.071760386 0.09074393 0.0039523253 0.07343115 0.0155187715 0.08806517
-0.055296656 0.023391955 -0.04529007 0.032444313 0.07048774 0.068688184 -0.061353493 -0.003580924
0.012216603 0.020126369 -0.03507823 0.022177447 -0.07172337 -0.028039314 -0.025238764 -0.025314916
-0.0574145 0.06488364 -0.011349937 0.043339927 -0.0025725751 0.0050481996 0.083515674 0.06961623

classifier.0.bias f4 [84]
00000000: dcc6 33bc d36a b1bd bf7b 3a3d e5c3 a03d
00000010: 6445 a33c 83e1 1b3d dbde 9f3d 7f3e 5a3d
00000020: 6cc1 2dbd eb51 4d3d fa82 a0bd 1c96 b63d
00000030: 1c5c 733d b338 44bd e303 c1bc 2e66 6fbd
00000040: 937c 28bd 9458 5ebd e958 b2bd 6fdc 79bc
00000050: fa9c 1e3d 0bb7 653d 87c3 edbc 9a26 8dbd
00000060: e3ab 573d e906 c33a 7a75 5fba a5ed 3c3d
00000070: ef29 cbbc 8027 283d 174d fa3c 16b3 4abc
00000080: c37c 29bb 1c45 cdbc c882 24bd 68e2 87bb
00000090: 183a 9cbd d1b5 90bd d798 bab8 0f5c b1bd
000000a0: 0405 38bc 9ef6 a5bd 9698 e53c 1f2b 433c
000000b0: 501f 35bd ef59 55bb 26bb 1d3d dfcd 9abd
000000c0: a5d6 9abd c47b a23c b978 d93c 7966 3a3d
000000d0: 6024 323c af48 b5bd 1123 5bbd 3061 44bb
000000e0: 8fc8 39bd 74e8 0ebd 6ed7 b03c c5df 55bd
000000f0: 7742 423c 3dd4 c73d b924 b03d 28ed 4abc
00000100: 0e47 6d3d 2d78 9abd a5d6 3d3d a1b6 363c
00000110: 209d a43d 3bae 813d 6701 afbd c4ca a43d
00000120: 4bd4 893d e283 993d aba9 453d cceb 38bd
00000130: 5a81 97bb ce94 83bb 45a6 223d cfae 3c3d
00000140: 1bb3 19bd 58ae a4bc c023 2abd 7132 433a
-0.010972705 -0.08662953 0.04552817 0.07849864 0.019930549 0.03805686 0.07806178 0.053282257
-0.04242079 0.05012695 -0.07837482 0.0891535 0.059414014 -0.047905635 -0.023561424 -0.058447056
-0.04113443 -0.054283693 -0.087083645 -0.015250309 0.038723923 0.056082767 -0.029023899 -0.06892128
0.05265416 0.0014879379 -0.000852428 0.046125073 -0.024800269 0.041053295 0.030554337 -0.012371799
-0.0025861717 -0.025057368 -0.040163785 -0.004146863 -0.07628268 -0.07065929 -8.89764e-05 -0.08660137
-0.011231665 -0.08103679 0.02802686 0.011912136 -0.044219315 -0.0032554825 0.038508557 -0.07558798
-0.075604714 0.019834407 0.026546823 0.04550788 0.01087293 -0.08851754 -0.05350024 -0.0029965155
-0.045357283 -0.034889653 0.0215871 -0.052215356 0.011856667 0.09757278 0.08600754 -0.012385644
0.05792909 -0.07542453 0.04634728 0.011151941 0.08037782 0.0633206 -0.08545189 0.08046487
0.06729945 0.07495858 0.04825751 -0.04514675 -0.004623574 -0.0040155416 0.03970935 0.046065148
-0.037524324 -0.020102665 -0.041538 0.0007446176

classifier.2.weight f4 [10, 84]
00000000: 952c c1bd 0587 b0bd 3830 5c3d 9868 d3bc
00000010: 8a52 e03c e233 3ebd a1c2 e83a a649 393d
00000020: e4e9 a1bd f738 d33d ac6c 94bd 528e babc
00000030: c4e2 533d 21ac d8bd 5dbc 833d 095d 933d
00000040: f729 0ebe 0435 97bc c2b9 a4bd 2cc5 083e
00000050: d900 c6bd a638 0bbe 039d a4bd c646 9b3d
00000060: 911c a73c 5aff d4bd 4815 c4bc 805d 99bd
00000070: 098c 0b3e a7cb c7bd 13df 993c 844e 9a3d
00000080: 81c1 07be d754 c03c c3fb 15bb 82b3 e73c
00000090: 21f3 53bd fe9d c7bd 816d 333b 3206 d7bc
000000a0: 770e cdbc 1cdb 0a3e 5fec 94bd 2c8b 83bd
000000b0: f67f 413d 3109 acbd 55f0 af3d aa66 1f3e
000000c0: 7b57 c63d ff10 a33d d95f 25be 23e6 333d
000000d0: 2480 02be 0430 40bd 087e a6bd 5655 b0bd
000000e0: 2440 a53d 9410 993d 77b5 003d 9ece 2c3d
000000f0: 7f8a 1e3e bc60 2f3d 46bc 44bd 75ad 963d
00000100: 875f 1cbd 2395 34bc 69a3 583d 651b 4f3c
00000110: ab12 ae3d 5733 86bc c939 61bd e032 143d
00000120: 2157 d13d f198 0bbe aff1 02be 4045 063d
00000130: ef8e 7f3d 3b0a 5f3c fa54 e2bd f2c8 f3bd
00000140: 7038 b0ba 6444 393d d761 16be c6b7 bd3d
00000150: 8538 cfbd a44b 0c3d ecf7 0fbd ed68 c5bd
00000160: f38c c13c f17e f6bb 5e3b 963d 6a07 073e
00000170: 7ab1 1b3e f6ca b43d 221a 01be 3155 fd3d
00000180: 0c75 213e e196 9cbd e6f6 f53d 7e56 37be
00000190: cba3 f2bd 23e9 bf3d 57a9 e43d 1d45 063c
000001a0: beeb c6bd 658e 293c 854d 8a3d ba20 ba3c
000001b0: 8752 9a3d a6a1 59bd e91a af3d 1e8a 48bd
000001c0: e62b 523d 9667 4d3d 4508 e2bd 5ab2 a43d
000001d0: ea5f a63d 6fbf d3bd 8bd9 9abc 52dd b93d
000001e0: 19a4 9e3d f08a b13d f55f 523d 5c26 1ebd
000001f0: a353 503d cb79 c0bd a06c 1b3c d91e 45bd
00000200: 5321 56bd f9d8 1c3e 8ce9 adbd 04c6 083e
00000210: 6ce4 d13d debe 6a3d 1009 c83d 8d9f f6bd
00000220: 13a1 9b3d c9e1 1ebc d2da 9cbd 43c7 803b
00000230: a844 ad3c 0dbe a9bd 6d3a 74bd 29ca b03d
00000240: 436f a1bd 9948 de3d d0c2 adbd 3b1e c7bd
00000250: 30d9 ca3d 9464 c23d 3ca9 013e c1c8 d63d
00000260: 6f6f ed3d 2cbb 6f3d 57f0 883b 98a4 9c3c
00000270: 9727 2e3d 3117 8d3d 0073 51bd 48e9 543d
00000280: ddf7 a0bd d445 b5bd 7e31 f93c b665 d13d
00000290: bd25 853c 9600 d83d d81a a4bd 047c f9bd
000002a0: 8bf1 c9bc 112d cabd e836 cc3d 31c1 0bbe
000002b0: 539f d23d a44c b23d a8e2 c73d 4dbe be3d
000002c0: 846e ae3c efed fdba 820e de3d a250 84bd
000002d0: 59cc 3abd 499c 903d 4844 c7bd a021 bc3c
000002e0: 6228 d83d 5321 1f3d 1e35 8cbd 5fc3 a5bc
000002f0: 609a f7bd cb70 8a3d 9353 f33d 3c92 d73d
00000300: 87dd 8c3b 605d 893d 6141 c53d 60a5 173e
00000310: 510a 773c 16c8 b03d 9979 47bd dce3 963c
00000320: c300 02be 761c 91bd b6d4 cebd 5dad 5ebd
00000330: 25d7 a8bc f50c 92bd ca44 0fbe 1b5c 933d
00000340: a80c 68bc 83e3 053d 53a5 fd3d af3f e13d
00000350: d4d8 debd 6916 e2bc 6841 1ebd 4d08 2b3d
00000360: 9980 a63c 3413 b43b 34e2 a53c 6747 0a3e
00000370: e427 213d 6f90 843d ef73 0dbe a858 973c
00000380: 8577 fb3c b497 963d 1602 95bd 902b 12bd
00000390: 535c 823d 12e9 c93c fa44 01be ba50 0dbe
000003a0: 0883 4dbd b460 5bbd 4277 c2bd 8888 bdbd
000003b0: 52fa 243e d591 05bd 07f8 453d 8a35 b83d
000003c0: 7892 d63b 33a5 b6bc 0a3b dd3d a007 bb3d
000003d0: 0cff 973c 8947 cebc 4b39 023d bc8c f3bc
000003e0: b193 cabd 17fa 05bd 4714 de3d 758d e8bd
000003f0: da23 a43d a5b9 ecba 0ed8 673b 2ee4 cfbd
-0.094323315 -0.08619503 0.053756922 -0.02580671 0.027383108 -0.046436198 0.0017758199 0.045236252
-0.07905939 0.103135996 -0.0724729 -0.022772942 0.051729932 -0.10579706 0.06432412 0.071954794
-0.13883196 -0.018457897 -0.08043243 0.13356465 -0.096681304 -0.13595828 -0.0803776 0.07581858
0.020399364 -0.10400267 -0.023935929 -0.07488537 0.13627638 -0.097556405 0.018783128 0.07534507
-0.1325741 0.023477955 -0.0022885657 0.028283838 -0.051745538 -0.097469315 0.0027378502 -0.026248071
-0.025031311 0.13560146 -0.07271647 -0.06423029 0.047241174 -0.084001906 0.085907616 0.15566507
0.09684654 0.07962226 -0.16149844 0.043920647 -0.12744194 -0.04692079 -0.08129507 -0.086100265
0.080688745 0.07473865 0.03142306 0.042189233 0.1548252 0.042816862 -0.048031114 0.07357303
-0.03817704 -0.011021885 0.052890215 0.012640809 0.084996544 -0.016381903 -0.05498675 0.03618133
0.10221697 -0.13632561 -0.12787507 0.032780886 0.06239217 0.013613279 -0.11051364 -0.11903562
-0.0013444554 0.045231238 -0.1468576 0.092635676 -0.10118202 0.034251824 -0.035148546 -0.09639154
0.02362678 -0.007522457 0.07335542 0.13186422 0.1520442 0.08827774 -0.12607625 0.123697646
0.15767306 -0.07645965 0.12009983 -0.17904088 -0.11847647 0.09370639 0.111651115 0.008195189
-0.09712933 0.010348891 0.06753067 0.022720683 0.07535272 -0.053132676 0.085500546 -0.048959844
0.051311396 0.050147615 -0.110367335 0.0804183 0.08123763 -0.103392474 -0.01890256 0.090754166
0.07746143 0.08669078 0.051361043 -0.0386108 0.050861012 -0.0939823 0.009486347 -0.04812512
-0.052277874 0.15317143 -0.08491811 0.13356787 0.10248646 0.05731093 0.097673535 -0.12042151
0.07599082 -0.009697386 -0.07658924 0.003930004 0.021150902 -0.082882024 -0.05962603 0.08632309
-0.078825496 0.10853691 -0.08484423 -0.09722563 0.099047065 0.0949184 0.12662214 0.104875095
0.1159352 0.05852811 0.0041790414 0.019121453 0.042518225 0.06889189 -0.051135063 0.051980287
-0.07859776 -0.08851209 0.030419108 0.10224478 0.016253347 0.10546987 -0.080129325 -0.12181857
-0.02465131 -0.09871877 0.0997141 -0.13647915 0.10284295 0.08706024 0.09760028 0.09313641
0.021292932 -0.0019373278 0.10842611 -0.06460692 -0.045605037 0.07061059 -0.097298205 0.022965252
0.105545774 0.03885014 -0.06846069 -0.020234762 -0.120899916 0.06759795 0.11881175 0.10525939
0.004298869 0.06707263 0.09631611 0.1480918 0.015078143 0.08631913 -0.04869995 0.018419199
-0.12695603 -0.070855066 -0.10099165 -0.05436455 -0.020610401 -0.071313776 -0.13991085 0.07195302
-0.014163174 0.032687675 0.12385049 0.10998475 -0.108812004 -0.027598577 -0.038636595 0.041755963
0.020324992 0.0054954533 0.020249464 0.135038 0.039344683 0.06472861 -0.13813756 0.018474892
0.03069664 0.07353154 -0.072757885 -0.035686076 0.06365266 0.02464727 -0.12623969 -0.13800326
-0.05017379 -0.05355902 -0.09495403 -0.09254557 0.16111115 -0.03260978 0.04833224 0.08994587
0.006548222 -0.02229557 0.108022764 0.09132314 0.018554233 -0.025180595 0.03179292 -0.029730193
-0.09891451 -0.032709207 0.10843711 -0.11355106 0.08014651 -0.0018060697 0.0035376581 -0.10150944

classifier.2.bias f4 [10]
00000000: ec53 5dbc d5a3 05bc 79e4 ddbc 93f6 a93c
00000010: 8a04 b9bc b371 393d 0bb4 5d3d 2823 fabc
00000020: 4b62 86bd 3eae 5e3d
-0.013508778 -0.008156736 -0.027086483 0.020747459 -0.022585172 0.045274448 0.05412678 -0.030534342
-0.06561717 0.05436539
