checkpoints/noise_rate_0.2/models/tsf/epoch87.pth (torch, 250639 bytes, 10 tensors)

feature_extractor.0.weight f4 [6, 1, 5, 5]
0	0x3e0d1ea0	0.13781214
1	0xbd7739b7	-0.060357776
2	0xbd004404	-0.031314865
3	0x3da41f55	0.080137886
4	0xbe58603d	-0.21130462
5	0x3e36b26d	0.17841502
6	0x3cc07710	0.023494273
7	0x3e23a86e	0.1598222
8	0x3d8278cb	0.06370696
9	0xbbed9e19	-0.0072515127
10	0x3dcf5e4a	0.10125406
11	0x3da1515c	0.07876846
12	0x3e1c3bdf	0.15257214
13	0xbbe93dc5	-0.007117959
14	0x3d29b912	0.041436262
15	0xbcc52030	-0.0240632
16	0x3d3c2adc	0.04593931
17	0x3d276a7a	0.04087303
18	0x3e6ea50d	0.2330515
19	0x3e04325e	0.12909839
20	0xbded2d0a	-0.11580856
21	0xbe1c262f	-0.15248941
22	0xbd36a209	-0.044588123
23	0xbd8d1112	-0.068880215
24	0xbcc230b6	-0.023704868
25	0x3dc07b1f	0.093984835
26	0x3e71a29d	0.23597188
27	0x3e37e638	0.17958915
28	0xbe575261	-0.21027519
29	0x3d810336	0.062994406
30	0x3e2238da	0.15842
31	0x3ea7264b	0.32646403
32	0x3e491075	0.19635184
33	0xbe6412bb	-0.2227277
34	0xbe85242d	-0.26004162
35	0x3c8d3f08	0.01724197
36	0x3ea2c29c	0.317891
37	0x3d349539	0.044087622
38	0x3d987da6	0.074458405
39	0xbdfad65f	-0.12247919
40	0x3e921d59	0.28538015
41	0x3d0b7108	0.034043342
42	0x3e7dfe61	0.24804069
43	0x3d564480	0.05231142
44	0xbd92a47a	-0.07160278
45	0x3e200b39	0.15629281
46	0xbcb6ea85	-0.022328625
47	0x3e28198a	0.16415992
48	0x3d22c8e3	0.03974236
49	0x3d92c65f	0.071667425
50	0xbe78bde8	-0.24291193
51	0xbe1330af	-0.1437404
52	0x3d8f9637	0.07011073
53	0xbd2a3427	-0.041553643
54	0x3e77447e	0.24147221
55	0x3e198489	0.14991964
56	0xbb558b27	-0.0032584162
57	0xbdc02aa4	-0.09383133
58	0x3e4ea2ba	0.20179263
59	0x3e14fb79	0.14549054
60	0xbdaacb7b	-0.08339592
61	0x3e47adf5	0.19499953
62	0x3e5946ce	0.21218416
63	0x3e8aff45	0.2714788
64	0xbd594f19	-0.05305395
65	0x3d30fb2d	0.04320829
66	0x3d9af6a9	0.07566578
67	0x3dd17344	0.10227063
68	0xbdda4e9c	-0.10659525
69	0xbe0575fd	-0.1303329
70	0x3e338e60	0.1753478
71	0x3c62d857	0.013845525
72	0x3e11ae94	0.14226753
73	0x3cf01d54	0.02931086
74	0x3d7cabf1	0.061687414
75	0x3d0ff567	0.035146143
76	0x3da3ef92	0.08004679
77	0x3ddec779	0.1087789
78	0xbe3836bc	-0.1798963
79	0x3dddfc5c	0.10839149
80	0xbe1b6745	-0.15176113
81	0xbe182a6b	-0.14859931
82	0x3ce848ba	0.028354991
83	0xbb08d16d	-0.002087678
84	0x3e2e5a17	0.17026554
85	0xbdfc4d24	-0.12319401
86	0xbe2b6fcb	-0.16741864
87	0x3e3c532a	0.183911
88	0x3d01d7e5	0.031700034
89	0x3e3beeb6	0.1835278
90	0x3d83488a	0.0641032
91	0xbe0277dc	-0.12741035
92	0x3db6b26b	0.08920749
93	0x3ddafad4	0.10692373
94	0xbdb2c157	-0.08728283
95	0xbdb9ec06	-0.09078221
96	0x3dc10a02	0.09425737
97	0x3d9923ef	0.07477557
98	0xbd5210e7	-0.05128565
99	0xbd37e3f7	-0.04489514
100	0x3e771793	0.24130087
101	0x3dbe576b	0.092940174
102	0x3e7ad5d4	0.24495631
103	0x3e2b5656	0.16732153
104	0xbdfa0220	-0.122074366
105	0xbd87efeb	-0.066375576
106	0x3ed67cc3	0.4189206
107	0x3e77ce0d	0.24199696
108	0x3e8bc332	0.2729736
109	0x3dca1506	0.09867291
110	0x3e876939	0.26447466
111	0x3eec6f96	0.46178883
112	0x3ee6f37f	0.45107648
113	0x3b8c42a6	0.004280406
114	0x3dc7f13c	0.09762809
115	0x3eb6fc11	0.35739186
116	0x3ecdbb4f	0.40181968
117	0x3ea4de68	0.32200933
118	0xbd09e168	-0.03366223
119	0xbd7c08f4	-0.061531976
120	0x3a773df2	0.0009431533
121	0x3e189e4b	0.14904134
122	0x3e989c4e	0.2980675
123	0xbd151b13	-0.036402773
124	0x3e4f938a	0.20271125
125	0xbde9628d	-0.1139575
126	0xbe25e336	-0.16199955
127	0x3cd12048	0.025528088
128	0x3e714cb9	0.23564424
129	0x3e97ecdd	0.296729
130	0xbda278cb	-0.07933196
131	0x3e1b2af0	0.15153098
132	0x3eb862e6	0.36012954
133	0x3ebb447d	0.3657569
134	0x3e98857b	0.29789338
135	0x3e7282e0	0.23682737
136	0x3e8d2e0e	0.275742
137	0x3e875b53	0.26436862
138	0x3dc477ae	0.095931396
139	0xbb8fb6ef	-0.004385821
140	0xbcb96aeb	-0.02263399
141	0x3d9bce3f	0.07607698
142	0x3cd22a78	0.025655016
143	0x3e814f4e	0.25255817
144	0x3e51dd55	0.20494588
145	0xbcdd7b9f	-0.027036486
146	0x3ddd53ad	0.108069755
147	0x3e0a5f45	0.13512905
148	0x3e684d28	0.22685683
149	0x3e6e7f5a	0.23290768

feature_extractor.0.bias f4 [6]
0	0xbd23e51e	-0.040013425
1	0x3e74da08	0.23911297
2	0x3c371cc4	0.011176292
3	0x3c847abb	0.016171804
4	0xbd89eca6	-0.0673459
5	0xbb86332d	-0.004095456

feature_extractor.3.weight f4 [16, 6, 5, 5]
0	0xbd233725	-0.03984751
1	0xbd003edf	-0.03130996
2	0x3d6d694e	0.057961755
3	0xbcd01399	-0.02539997
4	0xbd68f120	-0.05687058
5	0x3d36ad38	0.044598788
6	0x3d2f7098	0.042831987
7	0x3d8a07e4	0.06739786
8	0xbd07e136	-0.033173762
9	0x3ccb665f	0.024829088
10	0xbcf0d8a4	-0.029400177
11	0xbc365ae3	-0.0111300675
12	0xbd86a0ec	-0.06573662
13	0xbd2d8060	-0.042358756
14	0xbcf7a9d4	-0.030232348
15	0x3d0f8b4d	0.035044957
16	0x3ca27896	0.01983289
17	0x3c8b769b	0.017024329
18	0x3d92f6bc	0.07175967
19	0x3d95a689	0.07307155
20	0x3d620c29	0.055187378
21	0x3bc87142	0.006117017
22	0xbd775238	-0.060381144
23	0x3d680cbd	0.056652773
24	0xbc9aab69	-0.018880563
25	0xbc610d71	-0.013736115
26	0xbd528552	-0.051396675
27	0x3c8644e5	0.016390273
28	0xbd238ff6	-0.039932214
29	0x3d8a178c	0.067427725
30	0xbdb12cea	-0.08651145
31	0xbd1355cf	-0.035970505
32	0x3d0fb5f3	0.03508563
33	0xbd32a1d9	-0.04361138
34	0x3c77eab8	0.015131645
35	0xbd257609	-0.04039577
36	0xbc44e2cb	-0.012016962
37	0x3d10d5fc	0.03536032
38	0x3d3efd79	0.04662845
39	0xbda272f8	-0.07932085
40	0x3d12a303	0.03579999
41	0x3db02d6a	0.08602412
42	0x3dcc4aca	0.099752024
43	0xbd9fcb6d	-0.07802472
44	0xbaf71143	-0.0018849749
45	0xbd92d304	-0.07169154
46	0x3dbf46f6	0.093397066
47	0xbc2afc6f	-0.010436161
48	0x3cce8e8b	0.025214454
49	0xbbe0112f	-0.006837986
50	0xbc1f03ec	-0.009705525
51	0x3bc1bbcd	0.00591228
52	0x3c817ac2	0.015805606
53	0x3d0b268f	0.03397232
54	0x3c1a3da9	0.009414115
55	0x3d0b202a	0.03396622
56	0xbd639738	-0.055564135
57	0x3d79fa0d	0.061029483
58	0x3d871448	0.06595665
59	0x3d9246ab	0.07142385
60	0x3d970326	0.073736474
61	0xbd3698b3	-0.04457922
62	0xbd26d903	-0.040734302
63	0x3d5ea14c	0.054353043
64	0xbd8820fc	-0.06646916
65	0x3daa1e37	0.08306544
66	0xbd898a80	-0.0671587
67	0xbd932e92	-0.07186617
68	0x3c967a67	0.018368913
69	0xbd80d8af	-0.06291329
70	0xbc630765	-0.013856743
71	0x3d829367	0.06375771
72	0x3d4a5d7e	0.049405567
73	0x3d8f8ed0	0.07009661
74	0xbc710dbf	-0.01471275
75	0xbd8537c4	-0.06504777
76	0x3da46783	0.08027556
77	0xbc9a9486	-0.01886965
78	0xbd1c2703	-0.038123142
79	0x3ca73586	0.020411264
80	0xbd4fe233	-0.05075283
81	0x3d694777	0.05695292
82	0x3d3aff7f	0.045653816
83	0xbd91b81e	-0.07115196
84	0xbd84b3a2	-0.06479575
85	0x3b509a8f	0.0031830405
86	0x3d097d14	0.03356655
87	0xbbf76403	-0.007549764
88	0xbd3dc421	-0.04632962
89	0x3b75f886	0.0037532165
90	0xbd9121bd	-0.07086513
91	0xbd6560aa	-0.05600039
92	0xbd82a56a	-0.063792065
93	0x3d869e88	0.06573206
94	0x3d9a3f16	0.07531564
95	0xbcc1399c	-0.02358704
96	0x3b8f686d	0.004376462
97	0x3cffc7b6	0.03122316
98	0x3c574d4d	0.013140989
99	0xbd16ed79	-0.036847565
100	0x3d38bf72	0.04510445
101	0x3daf7e4b	0.0856901
102	0x3d207701	0.03917599
103	0xbb9c5dc8	-0.004771922
104	0x3d924da9	0.07143719
105	0x3dac7ce1	0.08422256
106	0x3c891904	0.016735561
107	0x3e0a16ad	0.13485213
108	0x3c8ce04b	0.017196795
109	0xbd76ae26	-0.060224675
110	0x3d85abc3	0.065269016
111	0xbc5c36cf	-0.013440802
112	0x3dcdbc18	0.10045642
113	0xbdba7475	-0.09104244
114	0xbc3764f3	-0.011193502
115	0x3ccd5779	0.025066124
116	0x3d6ce6fd	0.057837475
117	0x3d66ebe7	0.056377318
118	0xbdb6f940	-0.089342594
119	0xbd8915c5	-0.06693605
120	0xbda7ff0b	-0.082029425
121	0x3c9ce7a3	0.019153422
122	0xbcee8617	-0.029116673
123	0xbcfc9875	-0.030834416
124	0xbcb29730	-0.021800607
125	0x3d5cd199	0.053910825
126	0x3ddbc519	0.10730953
127	0x3cd4232a	0.025895674
128	0xbd13f8a3	-0.03612579
129	0xbd0fede9	-0.035139
130	0xbd0d8f2e	-0.034560375
131	0x3ddf31ca	0.108981684
132	0xbc6b93e8	-0.014378525
133	0x3c182224	0.0092854835
134	0x3c9a59c0	0.018841624
135	0xbc9fbb5e	-0.019498523
136	0x3d993645	0.07481054
137	0x3cb1ecaa	0.021719296
138	0xbcd7f462	-0.026361648
139	0xbd40d044	-0.047073618
140	0xbbcebd97	-0.006309222
141	0x3a86cb57	0.0010283989
142	0xbdb2b303	-0.0872555
143	0xbda67b02	-0.08128931
144	0xbc8e4b5a	-0.017369915
145	0xbabc51a0	-0.0014367588
146	0x3d034cd2	0.032055683
147	0xbd5bc99a	-0.05365906
148	0xbce3332d	-0.027734363
149	0xbcd4f08a	-0.025993604
150	0xbd9b54bb	-0.075845204
151	0x3da34cc9	0.0797363
152	0x3cd4a3b3	0.025956964
153	0x3da7f847	0.08201652
154	0xbacdb0b8	-0.0015692925
155	0xbc899707	-0.016795648
156	0xbd74abcd	-0.059734154
157	0xbbbeafdb	-0.0058193034
158	0x3d8a5b4c	0.06755695
159	0xbd9c758a	-0.07639606
160	0xbcd4bd8d	-0.025969291
161	0x3d73f306	0.059557937
162	0x3d7994c1	0.06093288
163	0x3d3b0d0f	0.04566675
164	0xbbfeddb5	-0.0077778944
165	0xbc8dfbf7	-0.01733206
166	0xbd135212	-0.03596694
167	0xbd1e902e	-0.03871172
168	0x3d4b0409	0.049564395
169	0xbacda40a	-0.0015689146
170	0xbd029843	-0.03188349
171	0x3cc6ca7c	0.024266474
172	0xbd4be523	-0.04977907
173	0x3b23c517	0.00249893
174	0x3d876ea0	0.06612897
175	0x3ca244c1	0.019808175
176	0x3da3267e	0.07966326
177	0xbd1f116a	-0.038834967
178	0x3c910f15	0.017707387
179	0xbc8b7fbb	-0.01702868
180	0xbd0f0b48	-0.034922868
181	0xbccde6b5	-0.025134424
182	0x3d88720c	0.06662378
183	0x3d4473f6	0.04796215
184	0xbd1460bc	-0.036225066
185	0xbd32b65c	-0.043630943
186	0xbd92eb73	-0.071738146
187	0x3dcb94fe	0.099405274
188	0x3c6023b1	0.0136803845
189	0x3c22a94d	0.00992806
190	0xbcb8ec78	-0.022573695
191	0xbd76eb23	-0.060282838
192	0xbd9f7a64	-0.07787016
193	0xbc9706e3	-0.018435901
194	0x3dbee34f	0.093206994
195	0x3c875347	0.016519202
196	0xbcfbc4bc	-0.030733459
197	0xbb67719b	-0.0035315517
198	0x3d9df53a	0.07712789
199	0x3daa8419	0.08325977
200	0x3da7914c	0.0818201
201	0x3cf97aa9	0.030453997
202	0x3d55857b	0.05212925
203	0x3b6fadc4	0.0036572078
204	0xbd6a447b	-0.057194214
205	0xbd81e9db	-0.063434325
206	0x3d901032	0.07034339
207	0x3a2b01ee	0.000652342
208	0x3cccb18d	0.024987007
209	0xbbbcd3e4	-0.005762564
210	0xbd7074f6	-0.058705293
211	0xbd0924cc	-0.033482358
212	0x3c87ec15	0.016592065
213	0xbc9eef1c	-0.019401126
214	0xbd91dccf	-0.07122194
215	0x3c483d1a	0.012221599
216	0x3a6bc9c4	0.0008994604
217	0x3ae5ffab	0.0017547508
218	0x3d83640f	0.06415569
219	0x3d2e675c	0.04257904
220	0xbcc64e11	-0.024207147
221	0x3df66fd1	0.12033046
222	0x3dce2881	0.10066319
223	0x3d261526	0.040547512
224	0xbbd18f37	-0.0063952464
225	0xbd875138	-0.06607288
226	0x3d8f18da	0.06987162
227	0xbc81bc06	-0.015836727
228	0xbd6b652b	-0.05746953
229	0x3d51f4bc	0.051258788
230	0x3d29419a	0.04132233
231	0x3d114168	0.035462767
232	0xbc6143a6	-0.013749039
233	0xbd07c21f	-0.033144113
234	0x3c442e31	0.0119739035
235	0x3d888bc2	0.06667282
236	0x3c869fc1	0.016433598
237	0xbcf17937	-0.029476745
238	0x3dade7ef	0.084915034
239	0x3b7550c8	0.0037432183
240	0x3d71b5b8	0.05901119
241	0x3d0dd585	0.034627456
242	0x3dd219c4	0.10258821
243	0x3d890028	0.06689483
244	0xbd166336	-0.03671571
245	0x3d8caf35	0.068693556
246	0x3c937bc6	0.018003356
247	0xbd672b2c	-0.056437656
248	0xbcaa4b20	-0.020787776
249	0xbd9aa4fc	-0.075509995
250	0xbd6aa309	-0.05728439
251	0xbd734ac1	-0.059397463
252	0x3d999a22	0.075001016
253	0x3aca01e5	0.0015411942
254	0xbca7e0e3	-0.020492977
255	0x3d854a7f	0.065083496

feature_extractor.3.bias f4 [16]
0	0xbca3a3d2	-0.019975577
1	0xbd34590f	-0.044030245
2	0x3bba4c18	0.0056853406
3	0x3d10ebb9	0.035381053
4	0x3d54f5ab	0.0519921
5	0xbca8e40f	-0.02061656
6	0x3bf6f6c1	0.0075367396
7	0xbd1d8548	-0.038457185
8	0xbd83cde7	-0.06435757
9	0xbd474663	-0.04865111
10	0xbd4470db	-0.04795919
11	0xbd4d54aa	-0.05012957
12	0x3ca67756	0.020320576
13	0xbcbd37a8	-0.023097828
14	0x3d88bdf7	0.06676858
15	0x3da368b5	0.07978956

feature_extractor.7.weight f4 [120, 400]
0	0xbd2e3efd	-0.04254054
1	0x3c421719	0.011846327
2	0x3cf717de	0.030162748
3	0xbd3db75d	-0.046317447
4	0xbc8d4f4a	-0.017249722
5	0x3d0c6ec0	0.034285307
6	0xbd1731f8	-0.03691289
7	0x3d3bc5e1	0.04584301
8	0xbb8f6d20	-0.0043770224
9	0x3c381646	0.011235779
10	0x3d49fcac	0.049313232
11	0xbd13590c	-0.035973594
12	0x3d2e950f	0.042622622
13	0xbd345cfb	-0.044033986
14	0x3d1e8412	0.03870017
15	0x39027dea	0.00012444673
16	0x3d31fa2e	0.04345148
17	0xbb0e0a4c	-0.0021673618
18	0xbd32c101	-0.043641094
19	0x3c9dd42a	0.019266207
20	0x3cf65311	0.030068906
21	0xbc31f97c	-0.010862704
22	0xbd5470ff	-0.051865574
23	0xbb386b8e	-0.002814028
24	0x3c290580	0.010316253
25	0x3c3f1e26	0.011664903
26	0x3ccedc20	0.025251448
27	0xbc299091	-0.010349409
28	0xbaaa9f32	-0.0013017415
29	0xba6df320	-0.0009077061
30	0x3cc158a5	0.02360184
31	0x3cad4007	0.021148695
32	0x3cb89a59	0.022534536
33	0x3bbb1e5f	0.0057104076
34	0x3c36f15d	0.011165944
35	0x3d164735	0.036689002
36	0x3c45e396	0.0120781865
37	0xbd246bdc	-0.040141925
38	0x3c7c0c7c	0.015383836
39	0x3d6d7286	0.057970546
40	0xbc683624	-0.014173064
41	0x3d01fafe	0.031733505
42	0xbd2802be	-0.04101824
43	0xbb227afa	-0.0024792538
44	0x3cff6cff	0.031179903
45	0xbd1173bd	-0.035510767
46	0xbc3f295e	-0.011667578
47	0xbad0ddcd	-0.0015935242
48	0xbc6446c3	-0.0139328865
49	0xbce2bb11	-0.02767709
50	0x3d0969d2	0.033548184
51	0xbc2f9d8c	-0.010718714
52	0xbc95c7ef	-0.018283812
53	0x3cdfe1fb	0.027329436
54	0x3c2071f7	0.009792796
55	0xbc90d73e	-0.01768076
56	0x3d05eee1	0.032698516
57	0xbcc7f8fb	-0.024410715
58	0x3d4ce500	0.05002308
59	0x3d1c683e	0.03818535
60	0x3bb4c769	0.0055169356
61	0x3c996f2b	0.018729767
62	0xbc625b47	-0.0138157075
63	0xbd076eb4	-0.03306456
64	0xbccaaee7	-0.024741603
65	0x3c72f5ad	0.0148290815
66	0x3cb5682b	0.022144398
67	0xbb965902	-0.0045882473
68	0xbc5e2ef8	-0.013561003
69	0xbc91b2ea	-0.017785508
70	0xbccabb09	-0.024747388
71	0xbc9f29e5	-0.019429157
72	0x3d083214	0.033250883
73	0xbd49ca23	-0.04926504
74	0x3cd4a707	0.025958551
75	0x3d030a48	0.031992227
76	0xbc2d82d9	-0.010590279
77	0xbb98fe01	-0.0046689515
78	0xbc294440	-0.0103312135
79	0xbd2dde04	-0.04244806
80	0x3c3012e4	0.010746691
81	0xbcada9eb	-0.021199187
82	0x3cbb88ca	0.022892375
83	0x3ac358df	0.0014903805
84	0xbce0418e	-0.027375009
85	0xbd620188	-0.05517724
86	0x3d0087e9	0.031379614
87	0x3d450c33	0.048107337
88	0x3d25c798	0.04047355
89	0x3c95feea	0.018310029
90	0x3c612b89	0.01374329
91	0x3ca98211	0.020691903
92	0x3d094c8b	0.033520263
93	0x39d254f3	0.00040117613
94	0x3b2d76bd	0.0026468479
95	0x3c81eb31	0.015859218
96	0x3cd83f3e	0.026397344
97	0xbc416b4f	-0.0118053695
98	0x3cdc08ee	0.026859727
99	0x3d148b73	0.0362658
100	0xbcd33fb6	-0.025787216
101	0xbd400299	-0.046877477
102	0xbc020ada	-0.0079371575
103	0xbce5e392	-0.028062616
104	0x3d52298c	0.051309153
105	0xbc7201d0	-0.01477094
106	0xbcdb94a2	-0.026804272
107	0x3cc8a79d	0.024493987
108	0x3c8f68bd	0.017505998
109	0x3c991f55	0.018691698
110	0x3d44ec27	0.048076775
111	0xbd4a21d5	-0.04934867
112	0x3cda2e09	0.02663328
113	0xbc9f3554	-0.019434609
114	0x3c9fad90	0.01949194
115	0xbcd397a5	-0.025829146
116	0x3d4fd2e8	0.050738245
117	0xbc32d2e9	-0.010914543
118	0x3c20d9fb	0.009817596
119	0xbd1467a6	-0.03623166
120	0x3ca0ea7d	0.019643063
121	0xbd286fed	-0.041122366
122	0x3c9e8cd3	0.01935426
123	0x3d477ecf	0.04870492
124	0x3d260909	0.04053596
125	0x3cc60b23	0.024175232
126	0xbcb54ff7	-0.022132857
127	0x3bbe83b1	0.0058140387
128	0x3c178190	0.009247199
129	0xbd5b84f6	-0.0535936
130	0x3cc1c100	0.0236516
131	0xbd26e997	-0.040750112
132	0x3caa87f3	0.020816779
133	0x3d4911c6	0.049089216
134	0xbc926258	-0.01786916
135	0x3c6f1904	0.0145933665
136	0x3d5fc048	0.054626733
137	0x3d4c887c	0.04993485
138	0x3d590a6c	0.052988455
139	0xbccd96cd	-0.025096321
140	0x3bac6e74	0.0052621905
141	0xbd498a60	-0.04920423
142	0x3b13eeba	0.0022572712
143	0xbd54feb6	-0.052000724
144	0x3bc9d262	0.006159113
145	0x3c89e24c	0.01683154
146	0xbd48c0f0	-0.049012125
147	0xbb2c0e6c	-0.0026253713
148	0xbcb3d1e3	-0.021950668
149	0x3d20fdcc	0.03930454
150	0xbc3e55d3	-0.011617142
151	0x3cb06c3c	0.021535985
152	0xbd15d7bf	-0.036582705
153	0x3b895cee	0.0041919863
154	0x3d03dac2	0.032191046
155	0x3b8c7f54	0.0042876396
156	0xbc8fc281	-0.017548801
157	0xbccb5f0b	-0.024825593
158	0x3cb4b076	0.0220568
159	0x3c8a1d27	0.016859604
160	0x3c311011	0.010807053
161	0x3d21a4a8	0.03946367
162	0xbc31491c	-0.010820653
163	0xbcb533bc	-0.022119395
164	0x3c3149ff	0.010820865
165	0x3cecbf57	0.028899832
166	0xbd7398cb	-0.059471887
167	0xbcee314e	-0.029076245
168	0x3c23562a	0.009969274
169	0x3d14607b	0.036224823
170	0x3cd3ba4e	0.025845673
171	0x3c31c873	0.0108510135
172	0xbd4c032b	-0.04980771
173	0xbce03928	-0.027371004
174	0x3ccd7436	0.025079828
175	0x3c0ca48c	0.008584153
176	0x3ccee40f	0.025255231
177	0x3d1a99d8	0.037744373
178	0x3cde5c4e	0.027143624
179	0xbcac0f4a	-0.021003384
180	0xbcdca319	-0.02693324
181	0xbc291d8c	-0.010321986
182	0xbacfa5bb	-0.0015842238
183	0xbba79f21	-0.005115405
184	0xbc307696	-0.010770461
185	0x3bc387f6	0.0059671355
186	0x3d085e75	0.033293206
187	0xbcfd7013	-0.03093723
188	0x3cc2b87f	0.023769615
189	0xbd434413	-0.047672343
190	0x3b3ae17d	0.002851575
191	0xbd377bbc	-0.044795737
192	0x3d3e279f	0.046424504
193	0xbd2857fe	-0.04109954
194	0xbcd07a19	-0.025448846
195	0x3ccaba2d	0.024746979
196	0x3c9fbc70	0.019499034
197	0x3d1b87a2	0.037971146
198	0x3c706a77	0.014673821
199	0xbd294475	-0.04132505
200	0xbd0f3e39	-0.03497145
201	0x3d0be0c9	0.03414992
202	0xbd4708ad	-0.04859226
203	0x3d37d410	0.044879973
204	0xbc0a2e27	-0.008433855
205	0x3c151981	0.009100319
206	0xbb0c3dc3	-0.0021399118
207	0xbc4d8287	-0.012543327
208	0xbc48cccf	-0.012255861
209	0x3c708e78	0.014682405
210	0xbc0f70ee	-0.008754952
211	0x3c09b61d	0.008405236
212	0x3d2b3844	0.041801706
213	0x3b934d7e	0.004495322
214	0xbd1fdac0	-0.039026976
215	0xbd1a202f	-0.03762835
216	0x3d031699	0.032003973
217	0x3c8ed307	0.01743461
218	0x3c1ca0dd	0.009559837
219	0xbccb0ef0	-0.024787396
220	0xbd26c05a	-0.040710784
221	0x3d3115c6	0.043233655
222	0xbd3fb4fa	-0.046803452
223	0xbcca6d58	-0.024710342
224	0x3ca55858	0.020183727
225	0x3d34c134	0.044129565
226	0xbc1a78c0	-0.009428203
227	0xbd26af81	-0.040694717
228	0x3c89ef9e	0.016837891
229	0x3b86500d	0.0040988983
230	0xbbdcb511	-0.006735452
231	0xbd33bc2e	-0.043880634
232	0x3d2950b6	0.041336738
233	0x3c0ae1a1	0.008476646
234	0x3cb6cb99	0.02231388
235	0x3ca8657a	0.0205562
236	0x3d1efc84	0.038815036
237	0xbcac6751	-0.021045359
238	0x3aff7003	0.0019488338
239	0xbd1241b1	-0.03570718
240	0xbd46ff74	-0.048583463
241	0xbcb20703	-0.02173186
242	0x3c99df71	0.018783303
243	0xbce5f1e8	-0.028069451
244	0x3d091be0	0.03347385
245	0x3c1b389b	0.009473945
246	0xbc9feb10	-0.019521266
247	0x3cae72e5	0.02129502
248	0x3d0a260f	0.0337277
249	0xbcb52dbb	-0.022116533
250	0x3ce3769e	0.027766522
251	0x3d0ac502	0.033879288
252	0x3d38d881	0.04512835
253	0xbcf3e61a	-0.029772807
254	0x3d4b9954	0.049706772
255	0x3bce1dda	0.0062901797

feature_extractor.7.bias f4 [120]
0	0x3ca981f3	0.020691847
1	0x3d13e1e2	0.03610409
2	0x3ca4fc0e	0.02013972
3	0x3d02c35b	0.031924587
4	0x3d2c5325	0.04207148
5	0xbd038277	-0.032106843
6	0x3d13057e	0.03589391
7	0x387f06b3	6.0802977e-05
8	0xbd00fd58	-0.031491607
9	0x3b7c8527	0.0038531513
10	0x3cbafd97	0.022826
11	0xbce5b06e	-0.02803823
12	0xbd1c47ef	-0.03815454
13	0xbd4a18ab	-0.04933993
14	0xbcdaf3ce	-0.026727583
15	0xbd25ccd0	-0.040478528
16	0x3cf4fd77	0.029906018
17	0xbcb19bcc	-0.021680735
18	0xbd39012b	-0.04516713
19	0xbcf362e2	-0.029710237
20	0xbc3755db	-0.011189903
21	0x3cfb84d6	0.03070299
22	0x3d12b374	0.03581567
23	0x3c85a9e6	0.016316365
24	0x3d2b0e95	0.041761953
25	0xbd229646	-0.039694093
26	0xbcb14b50	-0.021642357
27	0x3d113729	0.035452995
28	0xbc8ba33a	-0.017045606
29	0x3c784323	0.015152725
30	0xbc4c8875	-0.012483706
31	0x3cd35d8f	0.025801448
32	0xbd47c07c	-0.04876755
33	0x3cb4903e	0.022041436
34	0xbce86000	-0.028366089
35	0xbcf0cb09	-0.02939369
36	0x3d1af832	0.037834354
37	0xbcd2848a	-0.025697965
38	0x3bdbddc8	0.006709788
39	0x3a89850c	0.0010491922
40	0xbd10e34b	-0.035373013
41	0x3ce46b8d	0.027883315
42	0xbd11c9e7	-0.03559294
43	0xbc91d335	-0.017800907
44	0xbd4410fa	-0.047867753
45	0xbc40fb74	-0.011778701
46	0x3c79d191	0.015247718
47	0x3c5883c6	0.013215011
48	0x3cc0b78a	0.023525018
49	0xbc8ac916	-0.016941588
50	0x3c963073	0.01833365
51	0xbc48fbf7	-0.012267104
52	0x3d2a046a	0.041508116
53	0xbced973a	-0.029002775
54	0xbb6ded5e	-0.0036304812
55	0x3a611d2f	0.00085874175
56	0x3d157367	0.03648701
57	0xbc7d023e	-0.015442429
58	0xbd1dc14e	-0.038514428
59	0x3c764864	0.015031908
60	0x3d3c8ee0	0.046034694
61	0xbd0e56dc	-0.034750804
62	0xbc87a354	-0.016557373
63	0xbc719d11	-0.01474692
64	0x3d0a8714	0.033820227
65	0x3be175ae	0.0068804836
66	0xbd2fa4fd	-0.042881954
67	0x3d1eda72	0.038782544
68	0xbc5b9cf6	-0.013404122
69	0xbd4069b1	-0.046975795
70	0x3d420e31	0.047376815
71	0xbc318fb3	-0.010837483
72	0x3cb14b30	0.021642298
73	0x3a4718ed	0.0007594962
74	0x3d13052f	0.035893615
75	0xbcb2f396	-0.021844666
76	0xbc7b8be2	-0.015353175
77	0xbcc9909e	-0.024605092
78	0xbd02a7fb	-0.03189848
79	0xbd01d370	-0.031695783
80	0x3ce26636	0.027636629
81	0xbd07fda5	-0.03320088
82	0xba811613	-0.0009848498
83	0x3bdaf3da	0.0066819014
84	0x3d50f7d0	0.051017582
85	0xbc913658	-0.017726108
86	0xbc8852d1	-0.016641052
87	0x3cc5a232	0.024125192
88	0x3c3abb19	0.011397147
89	0x3caf41a9	0.021393614
90	0x3d2c0b02	0.042002685
91	0xbd25fa56	-0.040521942
92	0x3c67175e	0.014104692
93	0xbac5c6cd	-0.0015089154
94	0xbd38e40c	-0.045139357
95	0xbbbd39b3	-0.0057747005
96	0x3c7056ca	0.01466913
97	0x3cec35ad	0.028834188
98	0x3b25bacf	0.0025288349
99	0xbd0940f7	-0.03350922
100	0xbc60120a	-0.013676176
101	0x3d2cf7e3	0.04222859
102	0x3cc584de	0.024111208
103	0xbd14766e	-0.036245756
104	0x3c58c0a8	0.013229527
105	0xbc246d38	-0.010035805
106	0x3c210df6	0.009829989
107	0x3d02f63d	0.031973112
108	0xbccdd71e	-0.02512699
109	0xbb1a82bd	-0.0023576461
110	0x3d2315a2	0.039815553
111	0xbbe30102	-0.0069276104
112	0x3d48c17f	0.049012657
113	0xba894aef	-0.0010474602
114	0x3bfe429a	0.0077594044
115	0xbc0d321d	-0.008617905
116	0x3cb4b141	0.022057177
117	0xbc6cc8a9	-0.014452138
118	0x3d54df2a	0.05197064
119	0x3d33a143	0.043854963

classifier.0.weight f4 [84, 120]
0	0x3c11769e	0.008878378
1	0xbd52cd48	-0.051465303
2	0x3cd011df	0.025399147
3	0xbbac748b	-0.0052629164
4	0xbd9ccd80	-0.076563835
5	0x3ce911bb	0.028450837
6	0xbd7dfb01	-0.062006954
7	0xbd1eb71b	-0.03874884
8	0xbd867b94	-0.065665394
9	0x3d85160e	0.06498347
10	0x3d4cc3c1	0.049991373
11	0xbd55aa24	-0.052164212
12	0x3d847e75	0.06469432
13	0xbd8b81c8	-0.06811863
14	0x3c06ee50	0.008235529
15	0xbd85045b	-0.06494971
16	0x3d626374	0.055270627
17	0xbd261837	-0.040550437
18	0xbc8eb4f2	-0.017420266
19	0x3d048368	0.03235188
20	0xbda98632	-0.08277549
21	0x3d80619c	0.062686175
22	0x3bc1f3ad	0.005918941
23	0xbd62da90	-0.05538422
24	0x3a46bb12	0.0007580976
25	0xbd3221b4	-0.043489173
26	0x3cc3b43d	0.023889655
27	0x3d4c9ea0	0.049955964
28	0xbd9fc979	-0.078021
29	0x3d8fd877	0.07023709
30	0xbcce457c	-0.025179617
31	0x3d9e6455	0.077339806
32	0x3b8c2e85	0.0042780065
33	0x3d1b119f	0.0378586
34	0xbd2eb59b	-0.04265366
35	0x3c86bde7	0.016447974
36	0xbbb0e5f9	-0.0053985086
37	0xbc9e93e1	-0.019357624
38	0xbd36be5e	-0.044615142
39	0x3b2fb90a	0.0026813173
40	0xbdb550e4	-0.08853319
41	0xbd577ed0	-0.052611172
42	0xbcf7e85e	-0.030262168
43	0x3b12375a	0.0022310824
44	0xbd770984	-0.06031181
45	0xbd373dc2	-0.04473663
46	0x3c3eef13	0.011653679
47	0x3ae16bb7	0.0017198239
48	0x3c24f3f0	0.010067925
49	0xbd4555d2	-0.048177548
50	0x3d978a50	0.07399428
51	0xbcba99db	-0.022778442
52	0xbd9b30a0	-0.07577634
53	0x3d55a16a	0.05215589
54	0x3c3c25d1	0.0114836255
55	0xbb4e4772	-0.003147569
56	0xbda87b44	-0.08226636
57	0xbd5242d1	-0.051333252
58	0x3d49096f	0.049081262
59	0xbc842e9c	-0.016135506
60	0xbd6c706f	-0.057724413
61	0x3d87e3d0	0.06635249
62	0xbd97c168	-0.07409936
63	0x3d856371	0.065131076
64	0xbcfc51fd	-0.030800814
65	0x3d1d1e77	0.03835913
66	0x3c4c6b35	0.012476732
67	0x3dcb9348	0.09940201
68	0x3d012ebf	0.03153872
69	0xbbc9bd4d	-0.0061565996
70	0x3dafdf07	0.08587461
71	0xbd94d3df	-0.07266974
72	0x3c5c564c	0.013448309
73	0x3cf5bdf1	0.029997798
74	0xbd5de4e2	-0.054173358
75	0xbd50bfce	-0.05096417
76	0xbd32e9ac	-0.043679878
77	0xbd42c330	-0.047549427
78	0xbc44ba6a	-0.012007335
79	0xbd66ec7e	-0.05637788
80	0x3d94783d	0.07249496
81	0xbb149a11	-0.0022674839
82	0x3dbeabda	0.09310122
83	0x3cac392a	0.021023352
84	0xbc049218	-0.008091472
85	0x3c027037	0.007961324
86	0xbd38e634	-0.045141414
87	0xbd27d086	-0.040970348
88	0x3d162619	0.036657427
89	0xbc337856	-0.010953983
90	0x3c217bae	0.009856148
91	0xbc0813fe	-0.008305548
92	0x3db33548	0.08750397
93	0xbdc0ef05	-0.09420589
94	0xbd69ee86	-0.05711224
95	0xbd40986b	-0.047020357
96	0xbcec083a	-0.028812516
97	0x3d934395	0.071906246
98	0x3d7d762c	0.061880276
99	0xbd6fca24	-0.058542386
100	0xbce8e5e8	-0.02842994
101	0x3dcb38a9	0.099229164
102	0xbd8f5c3a	-0.07000013
103	0x3c1a9e6c	0.009437185
104	0x3d19784f	0.03746825
105	0x3d2bf05c	0.04197727
106	0x3db53fa6	0.088500306
107	0x3d73d299	0.059527013
108	0x3c8539dc	0.016262941
109	0xbdb48241	-0.088139065
110	0xbd25ae26	-0.040449284
111	0xbc814b9e	-0.015783127
112	0xbd884010	-0.06652844
113	0xbd28beb2	-0.041197486
114	0x3c3dab47	0.01157648
115	0xbd1118c0	-0.035423994
116	0x3c74b768	0.014936306
117	0x3d14a714	0.03629215
118	0x3d723073	0.059128236
119	0xbd8ef5ae	-0.069804534
120	0x3da5440a	0.08069618
121	0x3d14aec9	0.0362995
122	0x3bfe5c47	0.007762465
123	0xbcdabb68	-0.02670069
124	0xbce2ef34	-0.027701952
125	0x3b4dae72	0.0031384495
126	0xbc3c19f8	-0.011480801
127	0xbdb0d876	-0.08635037
128	0x3c69cb62	0.014269682
129	0xbd7668bd	-0.06015848
130	0xbd9f696d	-0.0778378
131	0x3d5c9624	0.053854123
132	0xbc786c70	-0.015162572
133	0xbcc438e0	-0.023952901
134	0xbc4c5a64	-0.012472723
135	0xbd1f781e	-0.038932912
136	0x3d42777e	0.047477238
137	0xbb50df29	-0.0031871295
138	0xbd279c2f	-0.040920433
139	0x3dafc959	0.08583326
140	0x3d87d738	0.066328466
141	0x3d8cdc87	0.06878
142	0xbdb9e089	-0.0907603
143	0x3c8f4d25	0.01749284
144	0x3b9f3656	0.0048587723
145	0x3da0e976	0.07857029
146	0x3ccafab2	0.024777744
147	0x3c97f8c0	0.01855123
148	0x3d71100c	0.058853194
149	0x3d225ad0	0.039637387
150	0xbda73f64	-0.08166388
151	0xbdb5e4bb	-0.088815175
152	0xbd4bb55b	-0.0497335
153	0xbca5e796	-0.02025203
154	0x3cb1f6a3	0.02172405
155	0x3d6a2448	0.057163507
156	0xbda71bbb	-0.08159586
157	0xbc5ecdfc	-0.013598915
158	0xbd929aed	-0.07158456
159	0x3da1409c	0.078736514
160	0x3d65d899	0.056114767
161	0x3d56e306	0.0524626
162	0xbc2375c8	-0.009976812
163	0xbd6c3fd3	-0.057678055
164	0xbd3bc03d	-0.04583763
165	0xba934f2d	-0.0011238806
166	0x3a15420b	0.000569374
167	0xbad20bc4	-0.0016025235
168	0x3da17f0e	0.07885562
169	0xbd4259b9	-0.047448847
170	0x3d8d13a0	0.06888509
171	0x3d257aba	0.040400244
172	0xbd922fb7	-0.07138007
173	0xbd28ee5e	-0.04124295
174	0xbd6320a0	-0.055451035
175	0xba89858e	-0.0010492073
176	0x3d464d52	0.048413582
177	0x3d5496ea	0.051901735
178	0xbc9d253c	-0.019182794
179	0x3da0daf3	0.07854261
180	0x3d306fb8	0.043075293
181	0x3c74f736	0.014951518
182	0xbd9759d3	-0.073901795
183	0xbd9e57bc	-0.07731578
184	0x3d683d8f	0.05669933
185	0x3d4769c5	0.048684854
186	0xbd33b0a2	-0.043869622
187	0xbd8c22dc	-0.068425864
188	0x3b74fe3e	0.0037382985
189	0xbdaaa002	-0.083313
190	0x3d7b780f	0.061393794
191	0x3d448324	0.047976628
192	0x3ccece40	0.025244832
193	0xbd858e52	-0.06521286
194	0xbc6857e4	-0.014181111
195	0xbd3bd325	-0.04585566
196	0x3d3577fc	0.04430388
197	0x3db1e8a5	0.086869515
198	0x3b5a6d59	0.0033329336
199	0xbcc047ac	-0.023471676
200	0x3d807cfa	0.062738374
201	0xbcadb79e	-0.02120572
202	0xbd301be4	-0.04299535
203	0xbd9c911a	-0.076448634
204	0x3c45c878	0.012071721
205	0x3d936d45	0.07198576
206	0x3d68fb28	0.056880146
207	0x3d04f921	0.03246415
208	0x3d80bb79	0.062857576
209	0xbd95496f	-0.07289397
210	0x3db4a6c0	0.088208675
211	0xbcf3e439	-0.029771911
212	0xbdb4fec8	-0.08837658
213	0x3d27de0f	0.040983256
214	0x3cb324c1	0.021868112
215	0xbca5be2f	-0.020232288
216	0xbdb142ed	-0.08655343
217	0x3a81196c	0.0009849495
218	0xbd39592a	-0.04525105
219	0xbd64e8a4	-0.055885926
220	0x3da75584	0.08170608
221	0x3d2f3d31	0.042782966
222	0xbda32b5d	-0.07967255
223	0xbd20c28b	-0.03924803
224	0xbd385f3e	-0.045012705
225	0xbda860e3	-0.08221605
226	0xbd93b0ed	-0.0721148
227	0x3db9a3a3	0.09064414
228	0x3b9ee0ae	0.0048485612
229	0x3d96f30e	0.07370578
230	0x3c7c7087	0.015407688
231	0x3db42980	0.08796978
232	0xbd624713	-0.055243563
233	0x3cbf5d77	0.023359997
234	0xbd39dc4f	-0.04537612
235	0x3d04befe	0.032408707
236	0x3d9024e5	0.07038287
237	0x3d8c6989	0.06856067
238	0xbd7ba097	-0.061432447
239	0xbb6d3f80	-0.003620118
240	0x3c6f0090	0.014587536
241	0x3ccc9183	0.02497173
242	0xbd11d988	-0.035607845
243	0x3ce23629	0.027613716
244	0xbd92ba99	-0.07164497
245	0xbd049bc1	-0.0323751
246	0xbcc44b13	-0.02396158
247	0xbca4ccbe	-0.02011716
248	0xbd894f16	-0.067045376
249	0x3d7f3477	0.062305894
250	0xbc6969f8	-0.014246456
251	0x3d32141b	0.043476205
252	0xbb235619	-0.0024923144
253	0x3ba53cd0	0.00504265
254	0x3daad97b	0.08342262
255	0x3d8cd51a	0.068765834

classifier.0.bias f4 [84]
0	0xbc0de32c	-0.008660119
1	0xbdb10e3f	-0.08645295
2	0x3d32a71c	0.0436164
3	0x3dab3ace	0.083608255
4	0x3cab0a07	0.020878805
5	0x3d25a192	0.04043729
6	0x3da15893	0.07878222
7	0x3d5ddb2d	0.0541641
8	0xbd280b59	-0.041026447
9	0x3d453595	0.048146803
10	0xbd9ca691	-0.076489575
11	0x3db890f8	0.090120256
12	0x3d7856c7	0.060629632
13	0xbd44fac0	-0.048090696
14	0xbcd5ea83	-0.0261128
15	0xbd693fa6	-0.056945466
16	0xbd1a656c	-0.03769438
17	0xbd67c118	-0.056580633
18	0xbdaee41a	-0.08539601
19	0xbc63d484	-0.013905648
20	0x3d19bb88	0.03753236
21	0x3d649e06	0.055814765
22	0xbcf3e4a6	-0.029772114
23	0xbd8bd8eb	-0.06828483
24	0x3d5a2b61	0.053264026
25	0x3b23d508	0.0024998803
26	0xbaa9d3cb	-0.0012956796
27	0x3d3fabe7	0.0467948
28	0xbcd0f310	-0.025506526
29	0x3d30596d	0.043054033
30	0x3cfadaea	0.030621964
31	0xbc5fec47	-0.013667173
32	0x3a2e1e4a	0.00066420867
33	0xbcc99e4e	-0.024611618
34	0xbd24b48d	-0.04021125
35	0xbbaff0ca	-0.0053692805
36	0xbd9b09fc	-0.07570264
37	0xbd91c5c7	-0.07117801
38	0x38a9f004	8.1032544e-05
39	0xbdb17290	-0.08664429
40	0xbc27eeee	-0.010249836
41	0xbda79f2a	-0.08184655
42	0x3cf2f6fb	0.029658785
43	0x3c7fefb1	0.015621112
44	0xbd2e326c	-0.042528555
45	0xbad5fb7c	-0.0016325559
46	0x3d2e4d4d	0.04255419
47	0xbd9df5e7	-0.07712918
48	0xbd9bff0f	-0.07617008
49	0x3cb0b671	0.02157137
50	0x3ccb535c	0.024820022
51	0x3d3aef67	0.045638468
52	0x3c4a40e8	0.012344576
53	0xbdb80bbc	-0.08986613
54	0xbd53bb71	-0.05169243
55	0xbab64b64	-0.0013907966
56	0xbd357404	-0.044300094
57	0xbd0d6980	-0.03452444
58	0x3ca802ad	0.020509088
59	0xbd562961	-0.052285556
60	0x3c2e179d	0.010625747
61	0x3dc927ba	0.0982203
62	0x3db1ab09	0.086752005
63	0xbc3d9b5c	-0.011572685
64	0x3d6d053f	0.05786633
65	0xbd997169	-0.074923344
66	0x3d4cbb48	0.049983293
67	0x3c395e00	0.011313915
68	0x3da513c5	0.08060411
69	0x3d8445c5	0.0645862
70	0xbdada295	-0.08478276
71	0x3daa32a2	0.08310439
72	0x3d886606	0.066600844
73	0x3d9af876	0.075669214
74	0x3d558981	0.052133087
75	0xbd37eb2d	-0.044902015
76	0xbb824772	-0.003975802
77	0xbb94fe79	-0.004546937
78	0x3d2c201f	0.04202282
79	0x3d3814f4	0.044941857
80	0xbd1a4faf	-0.03767365
81	0xbca23541	-0.019800784
82	0xbd1f4592	-0.038884707
83	0x3b2637df	0.0025362892

classifier.2.weight f4 [10, 84]
0	0xbdcc47ec	-0.099746555
1	0xbdb0bbdc	-0.08629581
2	0x3d9a96f6	0.07548325
3	0xbcc827b0	-0.024432987
4	0x3c6fe777	0.014642588
5	0xbd4491ff	-0.047990795
6	0x3bbbf900	0.00573647
7	0x3d0b4eaa	0.034010567
8	0xbda52d92	-0.080653325
9	0x3dd3b20e	0.103366956
10	0xbd9eb0b4	-0.07748547
11	0xbcb5897b	-0.022160282
12	0x3d450e42	0.0481093
13	0xbddc27e0	-0.10749793
14	0x3d9d387e	0.07676791
15	0x3db8d586	0.09025101
16	0xbe266cf0	-0.16252494
17	0xbc8d79e0	-0.017270029
18	0xbdae2f58	-0.08505124
19	0x3e209584	0.15682036
20	0xbde4df4b	-0.11175402
21	0xbe15b794	-0.14620811
22	0xbd9d9af5	-0.07695571
23	0x3d8a0aa5	0.067403115
24	0x3ca2ac69	0.019857602
25	0xbdddc8e2	-0.10829331
26	0xbcdec1ea	-0.027192075
27	0xbd91eae2	-0.071248785
28	0x3e13efe9	0.14446987
29	0xbdd4c754	-0.10389581
30	0x3cc06fb8	0.023490772
31	0x3d8007fb	0.06251522
32	0xbe1f3409	-0.15547194
33	0x3cd0c7ea	0.025485951
34	0xbc152362	-0.009102674
35	0x3cbcf46a	0.023065764
36	0xbd63e4cf	-0.05563813
37	0xbdf77cc6	-0.120843455
38	0xbb4d576c	-0.0031332625
39	0xbc9792b4	-0.01850257
40	0xbd101ac1	-0.035181765
41	0x3e1b1f40	0.1514864
42	0xbd88e5c3	-0.066844486
43	0xbdac19d2	-0.08403362
44	0x3d0090a9	0.03138796
45	0xbdcad16c	-0.09903225
46	0x3dd09b59	0.1018588
47	0x3e30be7e	0.17260167
48	0x3ded8f7e	0.115996346
49	0x3dad4f09	0.084623404
50	0xbe3dceb8	-0.18535888
51	0x3d14602c	0.03622453
52	0xbe111239	-0.14167108
53	0xbd26ee50	-0.040754616
54	0xbda9383f	-0.08262681
55	0xbdb10255	-0.08643023
56	0x3d960950	0.07325995
57	0x3d97d7d7	0.07414215
58	0x3d319e2b	0.04336373
59	0x3d3788d5	0.044808228
60	0x3e2b20b2	0.16711691
61	0x3d4ce643	0.050024282
62	0xbd8d9d1d	-0.069147326
63	0x3d9c9340	0.07645273
64	0xbd1c3417	-0.038135614
65	0xbc199d71	-0.009375916
66	0x3d524773	0.05133767
67	0x3c3edfa5	0.011650001
68	0x3d9ced02	0.07662393
69	0xbca6a02a	-0.020340044
70	0xbd65764b	-0.056021016
71	0x3cda6468	0.026659206
72	0x3dc47870	0.09593284
73	0xbe1994dd	-0.14998193
74	0xbe073207	-0.13202678
75	0x3d00d43f	0.031452414
76	0x3d746c1e	0.05967342
77	0x3ca87529	0.020563679
78	0xbe07a92c	-0.13248128
79	0xbe04ad8f	-0.12956832
80	0xbaa58572	-0.0012628271
81	0x3d1bb92d	0.038018394
82	0xbe2ab93f	-0.16672228
83	0x3dd4d00c	0.10391244
84	0xbdda5f55	-0.106627144
85	0x3d0bce8a	0.034132518
86	0xbcd0897e	-0.025456186
87	0xbdcb4778	-0.09925741
88	0x3ccd4169	0.025055604
89	0x3b157ebf	0.0022811142
90	0x3dbd94bf	0.09256887
91	0x3e0fcbc8	0.1404258
92	0x3e374c43	0.17900185
93	0x3deb2435	0.11481515
94	0xbe115b4e	-0.14194986
95	0x3e126dca	0.14299694
96	0x3e36c661	0.17849113
97	0xbd9bfd76	-0.07616703
98	0x3e000c86	0.12504777
99	0xbe59c318	-0.21265829
100	0xbdfed366	-0.12442665
101	0x3dce2c4a	0.10067041
102	0x3dec0b75	0.11525623
103	0x3c731b84	0.014838103
104	0xbdbf784f	-0.09349119
105	0x3b421a1a	0.0029617609
106	0x3d9e9b47	0.077444606
107	0x3cd2c0f2	0.02572677
108	0x3d9f71c7	0.07785373
109	0xbd399710	-0.04531008
110	0x3dabd2a0	0.08389783
111	0xbd37024b	-0.04467992
112	0x3d5a5934	0.053307727
113	0x3d34b2e1	0.044115905
114	0xbdff853a	-0.12476583
115	0x3db989d2	0.0905949
116	0x3dae3ab9	0.08507294
117	0xbdee8766	-0.11646919
118	0xbc3ee76c	-0.011651855
119	0x3dc123bf	0.09430646
120	0x3da11a59	0.078663535
121	0x3ddd1fa5	0.10797051
122	0x3d8b4b2f	0.068014495
123	0xbd27d2b7	-0.040972438
124	0x3d2fc6b8	0.042914122
125	0xbdc1c442	-0.09461261
126	0xbb6b8d03	-0.0035942204
127	0xbd7ef32e	-0.062243633
128	0xbd6bd02a	-0.057571568
129	0x3e359fab	0.1773669
130	0xbdb4c9c6	-0.08827548
131	0x3e1d32b7	0.15351377
132	0x3de260d1	0.110536225
133	0x3d84aa35	0.06477777
134	0x3de4aa08	0.111652434
135	0xbde47db5	-0.11156789
136	0x3db14ff4	0.08657828
137	0xbc891325	-0.016732762
138	0xbdc993e6	-0.098426625
139	0xbbb57caf	-0.005538545
140	0x3cbc2a1f	0.022969304
141	0xbdb1983a	-0.08671613
142	0xbd646adc	-0.05576597
143	0x3db9ad2d	0.09066234
144	0xbd91dde9	-0.07122404
145	0x3ddf4889	0.10902507
146	0xbdb7737a	-0.08957572
147	0xbdde2a9a	-0.10847969
148	0x3dcaa12f	0.098940246
149	0x3dc7a065	0.0974739
150	0x3e0203df	0.12696789
151	0x3de7bf9a	0.11315842
152	0x3e0ec3c0	0.1394186
153	0x3d80c460	0.062874556
154	0x3be98e06	0.007127526
155	0x3cab27fa	0.020893086
156	0x3d737f7e	0.059447758
157	0x3d8e3d08	0.069452345
158	0xbd74302f	-0.059616264
159	0x3d6cea68	0.057840735
160	0xbda66394	-0.08124462
161	0xbdce9902	-0.10087778
162	0x3cc6e8bf	0.024280904
163	0x3de358ea	0.111009434
164	0x3c71bc4e	0.014754368
165	0x3df77dde	0.12084554
166	0xbdba2f02	-0.09090997
167	0xbe0f52e3	-0.13996463
168	0xbccb94ad	-0.024851168
169	0xbdc9f2c4	-0.09860757
170	0x3df0d272	0.11758889
171	0xbe20fee0	-0.15722227
172	0x3debf4e1	0.11521316
173	0x3deabc0b	0.114616476
174	0x3dc26069	0.09491045
175	0x3dc02191	0.09381402
176	0x3c2a92c2	0.010410966
177	0xbc14760d	-0.009061349
178	0x3e043d99	0.12914123
179	0xbd9b8eed	-0.0759562
180	0xbd124d66	-0.035718344
181	0x3d9106ba	0.07081361
182	0xbdd490cf	-0.103791825
183	0x3d057781	0.03258467
184	0x3df2ec18	0.118614376
185	0x3d40985f	0.047020312
186	0xbdb512ee	-0.08841501
187	0xbcbf7105	-0.023369322
188	0xbe234503	-0.15944295
189	0x3d81c1c1	0.06335784
190	0x3e02ef18	0.1278652
191	0x3ddb08c4	0.10695031
192	0x3b930b8e	0.0044874614
193	0x3d8d9694	0.06913486
194	0x3dce5798	0.10075301
195	0x3e31701b	0.17327921
196	0x3b9a6ede	0.0047129234
197	0x3dce6422	0.100776926
198	0xbd930a0e	-0.07179652
199	0x3d18a394	0.037265375
200	0xbe095563	-0.13411479
201	0xbda516c0	-0.0806098
202	0xbde92b35	-0.11385194
203	0xbd548184	-0.05188133
204	0xbcac4bba	-0.021032203
205	0xbda23782	-0.079207435
206	0xbe2fe2b9	-0.17176332
207	0x3d9dc185	0.077029265
208	0xbc90b26d	-0.017663205
209	0x3cf6475e	0.030063327
210	0x3e1bb305	0.1520501
211	0x3df5a93b	0.11995169
212	0xbe0ae9fe	-0.13565823
213	0xbd57172f	-0.052512344
214	0xbd67ae7c	-0.056562886
215	0x3d0fd83d	0.03511833
216	0x3c8a661d	0.016894395
217	0x3c15eccd	0.009150696
218	0x3cc1bf69	0.023650842
219	0x3e2b24b5	0.16713221
220	0x3d3efb74	0.046626523
221	0x3dadd513	0.08487906
222	0xbe1f9d2b	-0.15587299
223	0x3c834ada	0.016026903
224	0x3d481a95	0.048853476
225	0x3d9defc7	0.077117495
226	0xbdd8cc80	-0.1058588
227	0xbd23e4a8	-0.040012985
228	0x3d9c0dd7	0.07619827
229	0x3d1c02e5	0.038088698
230	0xbe19381e	-0.14962813
231	0xbe16bee3	-0.14721255
232	0xbd4d4a1b	-0.0501195
233	0xbd50ce2a	-0.050977863
234	0xbde61cce	-0.11235963
235	0xbdc2c854	-0.09510866
236	0x3e3d196f	0.18466733
237	0xbd26d11a	-0.04072676
238	0x3d54a6e0	0.051916957
239	0x3dc4ebea	0.096153095
240	0x3c06a858	0.008218847
241	0xbc67a069	-0.014137366
242	0x3df75b1a	0.12077923
243	0x3df35860	0.118820906
244	0x3c8eb1ce	0.017418768
245	0xbc9e1719	-0.019298123
246	0x3cfa9a12	0.030591045
247	0xbce28eeb	-0.02765604
248	0xbdcb9a53	-0.099415444
249	0xbd26a0b0	-0.040680587
250	0x3e028ace	0.12748262
251	0xbe0c0c70	-0.1367662
252	0x3dbdea6a	0.092732266
253	0xbb06ea81	-0.0020586553
254	0x3c311a9e	0.010809569
255	0xbdce0206	-0.1005898

classifier.2.bias f4 [10]
0	0xbc8dacdd	-0.017294342
1	0xbc225b0b	-0.009909402
2	0xbcda260c	-0.02662947
3	0x3cb18a4d	0.021672392
4	0xbd030639	-0.031988356
5	0x3d7034e0	0.058644176
6	0x3d5a0e2a	0.053236164
7	0xbcfae94b	-0.03062882
8	0xbd877c6a	-0.06615527
9	0x3d65aa53	0.056070637
