checkpoints/noise_rate_0.2/models/tsf/epoch166.pth (torch, 250639 bytes, 10 tensors)

feature_extractor.0.weight f4 [6, 1, 5, 5]
0.14340602 -0.049929105 -0.03139282 0.07350897 -0.21522504 0.18767427 0.039432105 0.1710369
0.070536174 0.0012657642 0.1105532 0.095122084 0.1687786 0.008617344 0.05615374 -0.032090906
0.043093115 0.041278392 0.2393302 0.14472951 -0.13601659 -0.17654863 -0.06560955 -0.07687883
-0.016976312 0.106833994 0.26518407 0.1918028 -0.2208159 0.04761013 0.1664612 0.35135508
0.19928466 -0.24698289 -0.28433913 0.026798896 0.34414336 0.05027102 0.05694144 -0.14154829
0.286319 0.052821655 0.26377904 0.053160906 -0.07521573 0.14571722 -0.018877648 0.1830515
0.05423026 0.08549798 -0.25342575 -0.14678425 0.06020387 -0.03831707 0.25191772 0.14680904
-0.0010615753 -0.08479537 0.22803268 0.17110074 -0.075273156 0.20632437 0.23297077 0.29685175
-0.039575983 0.0647827 0.09377208 0.11752294 -0.10325336 -0.13755147 0.19590202 0.031172443
0.14915045 0.021822717 0.04490503 0.03942656 0.08951823 0.11210438 -0.18445355 0.10200829
-0.15294956 -0.14684613 0.030445732 0.004986661 0.18498318 -0.12944663 -0.1695494 0.19459292
0.051641308 0.2050748 0.064135045 -0.12232172 0.10523042 0.12367559 -0.0812862 -0.088827305
0.10207376 0.08484967 -0.04729268 -0.054167453 0.24065995 0.107167706 0.251554 0.17046289
-0.12257546 -0.06734163 0.4555049 0.2823426 0.29172814 0.11036335 0.28580812 0.5220309
0.49454185 0.026611848 0.11119915 0.3774257 0.4451576 0.35377857 -0.012591661 -0.043471463
-0.0021000793 0.1576315 0.30401057 -0.020102046 0.22011651 -0.1117993 -0.15349007 0.026254114
0.24542451 0.3038143 -0.073808335 0.16616432 0.38547143 0.40528536 0.3201855 0.25344822
0.29305634 0.2978794 0.14124335 0.02270415 -0.012970406 0.08133794 0.0429317 0.28213206
0.22456758 -0.025937008 0.10049304 0.13348159 0.24151324 0.24395677
00000000: 07d9 123e 7682 4cbd c295 00bd df8b 963d
00000010: f463 5cbe af2d 403e 8f83 213d 4c24 2f3e
00000020: 4575 903d 00e8 a53a b769 e23d 5ecf c23d
00000030: 4cd4 2c3e c32f 0d3c 7701 663d c171 03bd
00000040: 6882 303d 8813 293d fa12 753e f933 143e
00000050: ef47 0bbe 2ac9 34be 4d5e 86bd a672 9dbd
00000060: e811 8bbc c8cb da3d 35c6 873e f467 443e
00000070: 901d 62be d702 433d ce74 2a3e d0e4 b33e
00000080: 4711 4c3e 15e9 7cbe e694 91be 5c89 db3c
00000090: 8f33 b03e fce8 4d3d 6d3b 693d 09f2 10be
000000a0: 6798 923e 855b 583d 0c0e 873e 40bf 593d
000000b0: b40a 9abd e536 153e 4ca5 9abc da71 3b3e
000000c0: 8d20 5e3d 9119 af3d 05c1 81be 9c4e 16be
000000d0: 5598 763d 5cf2 1cbd 5cfb 803e 1c55 163e
000000e0: 8e24 8bba 32a9 adbd 6681 693e 0835 2f3e
000000f0: d028 9abd b246 533e e48f 6e3e f4fc 973e
00000100: 6d1a 22bd cbac 843d 940b c03d deaf f03d
00000110: 7f76 d3bd 4bda 0cbe 8a9a 483e 5a5d ff3c
00000120: e5ba 183e 8ec5 b23c 56ee 373d bf7d 213d
00000130: 5555 b73d fb96 e53d 64e1 3cbe b9e9 d03d
00000140: cf9e 1cbe d55e 16be 5469 f93c 2567 a33b
00000150: 3b6c 3d3e a88d 04be 5c9e 2dbe 5e43 473e
00000160: d685 533d 21ff 513e 3c59 833d cf83 fabd
00000170: 0c83 d73d a149 fd3d 6179 a6bd 17eb b5bd
00000180: 0c0c d13d aac5 ad3d f8b5 41bd b1de 5dbd
00000190: 906f 763e be7a db3d b0cb 803e d38d 2e3e
000001a0: d808 fbbd 69ea 89bd f037 e93e 368f 903e
000001b0: 645d 953e 2e06 e23d 7155 923e d1a3 053f
000001c0: 9734 fd3e 1701 da3c 61bc e33d f13d c13e
000001d0: b2eb e33e 7722 b53e 414d 4ebc 220f 32bd
000001e0: 7ca1 09bb 276a 213e 46a7 9b3e 0cad a4bc
000001f0: 3966 613e 08f7 e4bd 802c 1dbe de12 d73c
00000200: 9050 7b3e 8c8d 9b3e d328 97bd fb26 2a3e
00000210: 835c c53e 9081 cf3e 5bef a33e f7c3 813e
00000220: 7b0b 963e a683 983e 19a2 103e 0efe b93c
00000230: d381 54bc 8294 a63d 26d9 2f3d 9d73 903e
00000240: 0bf5 653e d979 d4bc 4ccf cd3d 66af 083e
00000250: 3f4f 773e cecf 793e

feature_extractor.0.bias f4 [6]
-0.03686309 0.2410703 0.018243873 0.026495323 -0.04894492 0.017927988
00000000: c0fd 16bd 22db 763e 2d74 953c b80c d93c
00000010: 787a 48bd b7dd 923c

feature_extractor.3.weight f4 [16, 6, 5, 5]
-0.03596718 -0.029601801 0.05867592 -0.024372196 -0.053817492 0.05059241 0.0462756 0.06693098
-0.03617753 0.023929803 -0.03209735 -0.011166113 -0.06795894 -0.045456935 -0.031133484 0.032586813
0.018281827 0.013574561 0.069314644 0.07263595 0.05721755 0.0050638886 -0.06756889 0.0522959
-0.017352745 -0.014774861 -0.047599588 0.024229554 -0.043299317 0.06595114 -0.09816594 -0.031783268
0.03643126 -0.046988476 0.0126299905 -0.052151717 -0.018741902 0.038954884 0.04159127 -0.081155956
0.03251639 0.09138805 0.09957634 -0.0873515 -0.0060076597 -0.07670914 0.09509485 -0.011679522
0.011160483 -0.011304801 -0.0087979445 0.0064162454 0.010952683 0.03362734 0.013034867 0.030245442
-0.059126977 0.058145087 0.06649459 0.07110022 0.069966085 -0.03944409 -0.04143366 0.049762003
-0.06720392 0.087550595 -0.07159449 -0.07785296 0.013790445 -0.060728386 -0.015989643 0.062384423
0.04585824 0.069547795 -0.0112616075 -0.067283496 0.07761353 -0.022841848 -0.03861677 0.02076029
-0.05324653 0.054771546 0.043267187 -0.07380727 -0.065067634 0.004532553 0.031383134 -0.011351025
-0.050318897 0.0036958382 -0.07434274 -0.05688782 -0.068271 0.06419278 0.07557399 -0.028847627
0.004090896 0.02919808 0.012187724 -0.037158262 0.046627436 0.09573353 0.04663159 -0.006068318
0.08535031 0.07668287 0.020245155 0.15141748 0.01450711 -0.055552833 0.06485655 -0.009309203
0.1123048 -0.09840408 -0.016524203 0.024350286 0.06903333 0.04489011 -0.101788804 -0.06822165
-0.08332299 0.018426953 -0.029159315 -0.045258824 -0.016229529 0.0667645 0.12048409 0.029121704
-0.03132416 -0.019734534 -0.0312177 0.11792162 -0.017285263 0.012872176 0.027908847 -0.022428052
0.084502146 0.020204835 -0.030303702 -0.045276593 -8.917419e-06 -0.0043134023 -0.10070021 -0.08503167
-0.009078471 0.004764197 0.031272344 -0.06710341 -0.027243273 -0.014602044 -0.07563601 0.08143592
0.030642793 0.08393079 0.0044860668 -0.020930847 -0.060495395 -0.0001879083 0.069034286 -0.077784695
-0.02915481 0.05671972 0.060156617 0.041384958 -0.014749148 -0.027247416 -0.04318012 -0.04513437
0.051256772 0.0009177726 -0.032439265 0.02564725 -0.050725833 0.006818865 0.06726852 0.013880965
0.07910148 -0.046306185 0.018688291 -0.016589593 -0.04555551 -0.026849706 0.07242692 0.050466087
-0.049588345 -0.046260886 -0.07637649 0.09942959 0.012763764 0.0027992774 -0.018964062 -0.06096168
-0.08827553 -0.021011299 0.09311195 0.022565298 -0.03452808 -0.0027369885 0.073317856 0.08469636
0.07473411 0.023925435 0.058071434 0.012055291 -0.057471722 -0.06770795 0.07771568 0.0028727506
0.01860223 -0.001612198 -0.05413389 -0.03130182 0.0062450757 -0.026761547 -0.06590865 0.009220583
-0.0034934792 0.0042509837 0.069391884 0.039223835 -0.020792995 0.12758733 0.11444933 0.03181412
-0.01626726 -0.068353474 0.07239133 -0.01235994 -0.059905794 0.055691916 0.04579305 0.044777647
-0.01300822 -0.038430616 0.017121712 0.07070924 0.010364053 -0.030839233 0.08665984 0.0032371678
0.059321232 0.034455713 0.10995396 0.069820575 -0.041798286 0.073965155 0.022918269 -0.058025815
-0.02910235 -0.07671398 -0.0810837 -0.07841639 0.07089698 0.005701826 -0.019609103 0.047584936
00000000: 5252 13bd 7a7f f2bc 2956 703d 33a8 c7bc
00000010: bb6f 5cbd fd39 4f3d 7c8b 3d3d 1c13 893d
00000020: e42e 14bd 6f08 c43c 8378 03bd 13f2 36bc
00000030: 0f2e 8bbd 0d31 3abd a60b ffbc c079 053d
00000040: c5c3 953c d667 5e3c d6f4 8d3d 28c2 943d
00000050: f35c 6a3d faee a53b 8f61 8abd 3a34 563d
00000060: 5827 8ebc 4212 72bc c9f7 42bd 0f7d c63c
00000070: a05a 31bd 6411 873d 390b c9bd 2c2f 02bd
00000080: f238 153d fd76 40bd 05ee 4e3c 0a9d 55bd
00000090: 9e88 99bc 288f 1f3d 9c5b 2a3d 1835 a6bd
000000a0: e82f 053d a829 bb3d aeee cb3d 58e5 b2bd
000000b0: e7db c4bb ae19 9dbd 17c1 c23d 775b 3fbc
000000c0: 75da 363c c637 39bc 4125 10bc 5e3f d23b
000000d0: e272 333c d2bc 093d 3290 553c 4ac5 f73c
000000e0: 212f 72bd 8b29 6e3d 512e 883d fe9c 913d
000000f0: 614a 8f3d 2090 21bd 57b6 29bd 3ed3 4b3d
00000100: 35a2 89bd ba4d b33d 22a0 92bd 5f71 9fbd
00000110: 52f1 613c 54be 78bd b6fc 82bc cf86 7f3d
00000120: dad5 3b3d 136f 8e3d 9b82 38bc eecb 89bd
00000130: d8f3 9e3d d41e bbbc 9e2c 1ebd 7c11 aa3c
00000140: 0919 5abd 2158 603d ef38 313d 4428 97bd
00000150: 2e42 85bd cf85 943b 9a8b 003d a6f9 39bc
00000160: 301b 4ebd e035 723b 0241 98bd 3403 69bd
00000170: abd1 8bbd 8177 833d 89c6 9a3d dc51 ecbc
00000180: ec0c 863b d030 ef3c 05af 473c 4333 18bd
00000190: 69fc 3e3d f10f c43d c400 3f3d bed8 c6bb
000001a0: 25cc ae3d e90b 9d3d 2bd9 a53c 2f0d 1b3e
000001b0: 3baf 6d3c 5e8b 63bd 83d3 843d a185 18bc
000001c0: 0f00 e63d 1488 c9bd c45d 87bc 407a c73c
000001d0: 5961 8d3d b1de 373d a676 d0bd cbb7 8bbd
000001e0: 3ea5 aabd 1ff4 963c 84df eebc 5161 39bd
000001f0: caf3 84bc d4bb 883d 5dc0 f63d a490 ee3c
00000200: c34d 00bd 51aa a1bc 43bc ffbc e480 f13d
00000210: d399 8dbc d2e5 523c 18a1 e43c 09bb b7bc
00000220: 760f ad3d 9c84 a53c 783f f8bc f373 39bd
00000230: 069c 15b7 7157 8dbb e93b cebd 1625 aebd
00000240: debd 14bc fb1c 9c3b 6e17 003d 836d 89bd
00000250: 492d dfbc 693d 6fbc 0de7 9abd e0c7 a63d
00000260: 9806 fb3c e8e3 ab3d dbff 923b 2b77 abbc
00000270: 05ca 77bd 4009 45b9 d961 8d3d 954d 9fbd
00000280: 11d6 eebc f052 683d c966 763d 4683 293d
00000290: 69a6 71bc f935 dfbc a3dd 30bd d1de 38bd
000002a0: 9ff2 513d ad96 703a 09df 04bd 2e1a d23c
000002b0: e4c5 4fbd c970 df3b 14c4 893d fd6c 633c
000002c0: f5ff a13d 8eab 3dbd 3018 993c e6e6 87bc
000002d0: 6a98 3abd eaf3 dbbc 9154 943d 87b5 4e3d
000002e0: 261d 4bbd 0e7c 3dbd 476b 9cbd bea1 cb3d
000002f0: 1b1f 513c 1574 373b 855a 9bbc f4b2 79bd
00000300: cdc9 b4bd e31f acbc 7ab1 be3d dcda b83c
00000310: 516d 0dbd 0c5f 33bb ac27 963d 4975 ad3d
00000320: 320e 993d 46ff c33c 50dc 6d3d 8e83 453c
00000330: 7867 6bbd 77aa 8abd 6629 9f3d c244 3c3b
00000340: b463 983c 6350 d3ba 7fbb 5dbd 5636 00bd
00000350: 7ea3 cc3b 083b dbbc 1dfb 86bd ee11 173c
00000360: dbf2 64bb d64b 8b3b 551d 8e3d 2ca9 203d
00000370: 1256 aabc 41a6 023e 6964 ea3d 864f 023d
00000380: eb42 85bc e8fc 8bbd e841 943d 5981 4abc
00000390: c75f 75bd 351d 643d 7e91 3b3d c468 373d
000003a0: 6e20 55bc 6c69 1dbd d542 8c3c 02d0 903d
000003b0: fdcd 293c 8fa2 fcbc b77a b13d aa26 543b
000003c0: d2fa 723d 6f21 0d3d 8b2f e13d 17fe 8e3d
000003d0: ae34 2bbd 0b7b 973d 18bf bb3c 7aac 6dbd
000003e0: 0d68 eebc 381c 9dbd 360f a6bd c698 a0bd
000003f0: 7032 913d 62d6 ba3b 45a3 a0bc 6ce8 423d

feature_extractor.3.bias f4 [16]
-0.02090295 -0.041413534 0.0051256726 0.029579736 0.045451444 -0.019269649 0.010402926 -0.037054572
-0.06451825 -0.04791788 -0.04946292 -0.05026514 0.01760193 -0.024632033 0.06752827 0.08273393
00000000: aa3c abbc 3da1 29bd 42f5 a73b 3451 f23c
00000010: 4b2b 3a3d 62db 9dbc 0971 2a3c 89c6 17bd
00000020: 2522 84bd 8a45 44bd a199 4abd d2e2 4dbd
00000030: ec31 903c 1ec9 c9bc 434c 8a3d 6870 a93d

feature_extractor.7.weight f4 [120, 400]
-0.04315867 0.011607401 0.03045714 -0.047263857 -0.018581633 0.03285042 -0.03651512 0.04646845
-0.0051350533 0.014052098 0.048185386 -0.031452157 0.04303304 -0.04098446 0.03990249 -0.0011514627
0.04127982 -0.00028688172 -0.041245405 0.018872397 0.03048739 -0.0104848845 -0.05422957 -0.007528809
0.009268929 0.008418123 0.031211836 -0.0052717235 0.0022642645 0.0020098346 0.024939816 0.024077019
0.021923149 0.0063365763 0.010478663 0.03690756 0.013821516 -0.03892641 0.014105487 0.05497113
-0.013638641 0.030352663 -0.04802998 -0.0033110615 0.0250187 -0.037528627 -0.014208503 -0.0034929211
-0.012589546 -0.030883119 0.038038827 -0.004373399 -0.018007107 0.024982333 0.009695143 -0.014605768
0.032560498 -0.018578248 0.051889773 0.031820744 0.0028857011 0.01775418 -0.008580607 -0.030343428
-0.023572065 0.014800954 0.021030692 -0.007945379 -0.012418204 -0.020292928 -0.025216548 -0.019359918
0.034383014 -0.049871016 0.01939795 0.029116146 -0.009014322 0.00538683 -0.0040563545 -0.041177228
0.011475341 -0.017307896 0.022108823 0.0049743187 -0.02815928 -0.057788137 0.027199812 0.04760922
0.032190673 0.021367906 0.01079635 0.021440074 0.029366711 -0.0019193597 -0.00062081515 0.008980214
0.026958814 -0.0068056984 0.0330308 0.028833548 -0.030264499 -0.04751139 -0.01582451 -0.031077024
0.055078994 -0.021493515 -0.036496963 0.017923985 0.02230158 0.024190888 0.045301758 -0.05501587
0.024665954 -0.017106386 0.012685728 -0.030980581 0.052915365 -0.009598793 0.014281277 -0.043616153
0.017828712 -0.037349354 0.00924555 0.046576254 0.03598695 0.025881508 -0.018486569 0.0075061964
0.007552965 -0.056205235 0.023074768 -0.03755525 0.01980523 0.051292673 -0.016485503 0.01341808
0.05348737 0.050596014 0.0586881 -0.022493098 0.0037180507 -0.050782263 0.0009908505 -0.051413067
0.004340041 0.016166225 -0.048875112 -0.004939073 -0.025946554 0.030196387 -0.008887653 0.02252767
-0.031460166 0.0057619414 0.032282446 0.004178626 -0.0106813265 -0.023413833 0.02097018 0.017244859
0.0094648935 0.037253436 -0.0045652003 -0.015840331 0.014386519 0.028942868 -0.061490003 -0.030539855
0.005941922 0.037310965 0.027344495 0.009842672 -0.053549573 -0.033324815 0.020918166 0.006664947
0.02431521 0.038233325 0.025828218 -0.022120958 -0.027653735 -0.01324171 -0.0026961013 -0.0065848287
-0.011664114 0.0021936814 0.03266763 -0.03062213 0.023734372 -0.04690526 -0.0002058911 -0.04766586
0.043003887 -0.037980564 -0.02374911 0.019910404 0.017592056 0.03740105 0.0141258 -0.04205428
-0.034917045 0.034099888 -0.048534174 0.04478025 -0.008365822 0.00908213 -0.002136979 -0.012473398
-0.012174429 0.014633633 -0.008742842 0.008449308 0.04180593 0.004532771 -0.0388059 -0.037502564
0.03229656 0.01740709 0.009605285 -0.024371779 -0.040679205 0.043377496 -0.046760682 -0.024458816
0.020746397 0.03955313 -0.004475888 -0.038916416 0.01821718 0.004867497 -0.0048420657 -0.04882531
0.03872693 0.0083026495 0.021902008 0.017941587 0.04088407 -0.02400604 -0.00068572705 -0.040651284
-0.055068035 -0.021961851 0.020018393 -0.029494496 0.031683654 0.0074318745 -0.01958334 0.02444006
0.034280363 -0.021886252 0.02934895 0.027046056 0.037567753 -0.03049372 0.052574523 0.00409453
00000000: 25c7 30bd f82c 3e3c 4181 f93c bf97 41bd
00000010: 8238 98bc 298e 063d e190 15bd b455 3e3d
00000020: f343 a8bb c53a 663c 0a5e 453d fad3 00bd
00000030: 6a43 303d 52df 27bd cb70 233d adec 96ba
00000040: 0715 293d 9d68 96b9 f1f0 28bd 499a 9a3c
00000050: b1c0 f93c cbc8 2bbc d31f 5ebd 3ab4 f6bb
00000060: b5dc 173c 2bec 093c f7af ff3c 6cbe acbb
00000070: 0e64 143b 6eb7 033b 964e cc3c 2b3d c53c
00000080: 2d98 b33c 0ea3 cf3b b3ae 2b3c 622c 173d
00000090: a473 623c 4d71 1fbd b31a 673c 6829 613d
000000a0: 9b74 5fbc 26a6 f83c 16bb 44bd 65fe 58bb
000000b0: 04f4 cc3c 9eb7 19bd c8ca 68bc 7ee9 64bb
000000c0: 6244 4ebc 98fe fcbc 9ace 1b3d bb4e 8fbb
000000d0: a483 93bc c0a7 cc3c 61d8 1e3c 084d 6fbc
000000e0: 285e 053d 6931 98bc 5f8a 543d 7856 023d
000000f0: 081e 3d3b 3771 913c ad95 0cbc c892 f8bc
00000100: 341a c1bc b37f 723c 8f48 ac3c 562d 02bc
00000110: b975 4bbc 5b3d a6bc ef92 cebc b198 9ebc
00000120: 34d5 0c3d 8d45 4cbd 73e8 9e3c fc84 ee3c
00000130: cfb0 13bc 0184 b03b 2beb 84bb 74a9 28bd
00000140: 1203 3c3c 4ac9 8dbc 901d b53c 9cff a23b
00000150: 4aae e6bc 41b3 6cbd 24d2 de3c e301 433d
00000160: 5eda 033d bf0b af3c 2de3 303c 18a3 af3c
00000170: 7592 f03c 0693 fbba 33be 22ba bf21 133c
00000180: bbd8 dc3c 5602 dfbb 4e4b 073d 5534 ec3c
00000190: 41ed f7bc 4e9b 42bd 67a2 81bc 3e95 febc
000001a0: 839a 613d 2b13 b0bc d77d 15bd 52d5 923c
000001b0: ceb1 b63c f82b c63c 568e 393d 5258 61bd
000001c0: 4110 ca3c b122 8cbc cdd7 4f3c fdca fdbc
000001d0: c8bd 583d 4244 1dbc 04fc 693c daa6 32bd
000001e0: 850d 923c a3fb 18bd a67a 173c bec6 3e3d
000001f0: 0d67 133d 7505 d43c 2571 97bc 8af6 f53b
00000200: dd7e f73b 7637 66bd 4c07 bd3c 89d3 19bd
00000210: 943e a23c 4418 523d 9b0c 87bc 82d7 5b3c
00000220: 9315 5b3d c43d 4f3d ef62 703d 7243 b8bc
00000230: 8aaa 733b 1001 50bd 6ddf 813a 8296 52bd
00000240: e736 8e3b 086f 843c 4531 48bd f3d7 a1bb
00000250: de8d d4bc 6a5e f73c 859d 11bc f38b b83c
00000260: 60dc 00bd abce bc3b 993a 043d dbec 883b
00000270: bb00 2fbc 5ece bfbc a8c9 ab3c 1745 8d3c
00000280: a412 1b3c 0f97 183d ad97 95bb 95c3 81bc
00000290: 6fb5 6b3c 9819 ed3c f1dc 7bbd b82e fabc
000002a0: 74b4 c23b 62d3 183d 9001 e03c 2943 213c
000002b0: cc56 5bbd 9a7f 08bd 935c ab3c a165 da3b
000002c0: b130 c73c 8c9a 1c3d b395 d33c 0337 b5bc
000002d0: 168a e2bc c2f3 58bc 13b1 30bb 8cc5 d7bb
000002e0: d71a 3fbc dec3 0f3b 7ece 053d 43db fabc
000002f0: 966e c23c bb1f 40bd 79e4 57b9 473d 43bd
00000300: d824 303d 8291 1bbd 7e8d c2bc 251b a33c
00000310: 371d 903c d831 193d e66f 673c 1c41 2cbd
00000320: 2d05 0fbd 53ac 0b3d c5cb 46bd 7f6b 373d
00000330: cd10 09bc 37cd 143c 8f0c 0cbb 395d 4cbc
00000340: 4277 47bc e8c1 6f3c 233e 0fbc f76e 0a3c
00000350: b23c 2b3d a487 943b eff2 1ebd 4a9c 19bd
00000360: 6649 043d 5099 8e3c 7c5f 1d3c 53a7 c7bc
00000370: 3d9f 26bd 9aac 313d 2188 3fbd db5d c8bc
00000380: 59f4 a93c 7602 223d 78aa 92bb d266 1fbd
00000390: 323c 953c 867f 9f3b 31aa 9ebb 0cfd 47bd
000003a0: 21a0 1e3d d607 083c d76b b33c 3cfa 923c
000003b0: 0e76 273d 51a8 c4bc 5dc2 33ba f681 26bd
000003c0: 058f 61bd 57e9 b3bc 9dfd a33c 719e f1bc
000003d0: b8c6 013d 1587 f33b 3e6d a0bc 8536 c83c
000003e0: 9169 0c3d cc4a b3bc 366d f03c b18f dd3c
000003f0: a5e0 193d f7cd f9bc 6258 573d 682b 863b

feature_extractor.7.bias f4 [120]
0.020843877 0.03553548 0.021365957 0.032999307 0.041975148 -0.030438432 0.03745583 -0.0016078365
-0.029562816 0.004041662 0.023117727 -0.027505752 -0.036844015 -0.049274743 -0.026588883 -0.040085003
0.029594336 -0.021148019 -0.044477314 -0.028650548 -0.010377544 0.030695388 0.035650376 0.016644102
0.042368926 -0.03916788 -0.020545583 0.03719081 -0.01602256 0.014572637 -0.013151018 0.024833558
-0.04829357 0.024500234 -0.027593846 -0.027539557 0.037328348 -0.025322232 0.006488169 0.0011057351
-0.036399942 0.027754627 -0.036784302 -0.017668512 -0.048095997 -0.011482439 0.016068216 0.013231226
0.02308987 -0.017016694 0.018791175 -0.012298266 0.04116059 -0.029388698 -0.0023982094 0.0013849429
0.036296364 -0.014571308 -0.0389066 0.0159649 0.047592383 -0.032603238 -0.016606769 -0.01474547
0.034055874 0.0068228873 -0.04197291 0.03827195 -0.012978758 -0.04694758 0.04723607 -0.010459983
0.021354485 -0.00037441892 0.037001032 -0.021251583 -0.014716436 -0.023758098 -0.031589083 -0.03172904
0.027772306 -0.0332544 0.00010845885 0.007752258 0.05231141 -0.017700333 -0.0160962 0.02646198
0.01143329 0.023266055 0.041506294 -0.040654995 0.013432911 0.0012580286 -0.04517435 -0.0063314647
0.01488509 0.028750122 0.002599669 -0.034433465 -0.012764863 0.043898333 0.02492837 -0.03623287
0.013454855 -0.009786585 0.011359785 0.03192266 -0.02656413 -0.0019440383 0.04072663 -0.006843854
0.048934083 -0.00080091803 0.009038064 -0.008606624 0.021389388 -0.014896447 0.05279456 0.044878498
00000000: c7c0 aa3c a78d 113d a907 af3c 482a 073d
00000010: 22ee 2b3d 055a f9bc 496b 193d 0abe d2ba
00000020: b82d f2bc eb6f 843b 6361 bd3c be53 e1bc
00000030: c0e9 16bd 50d4 49bd eed0 d9bc 2c30 24bd
00000040: d26f f23c 9c3e adbc d82d 36bd 8eb4 eabc
00000050: 9306 2abc e574 fb3c 2106 123d 3659 883c
00000060: 0a8b 2d3d 806e 20bd 364f a8bc 6455 183d
00000070: be41 83bc 12c2 6e3c 5e77 57bc bf6f cb3c
00000080: 7acf 45bd b7b4 c83c 7d0c e2bc a39a e1bc
00000090: 9ce5 183d 9270 cfbc b59a d43b 50ee 903a
000000a0: 1b18 15bd ac5d e33c 23ab 16bd 8ebd 90bc
000000b0: 4f00 45bd d720 3cbc 7ea1 833c c9c7 583c
000000c0: f826 bd3c 9866 8bbc f3ef 993c ab7e 49bc
000000d0: 0298 283d 91c0 f0bc 472b 1dbb f986 b53a
000000e0: 7fab 143d 7fbc 6ebc 875c 1fbd d2c8 823c
000000f0: 3bf0 423d f98a 05bd eb0a 88bc fc96 71bc
00000100: 2c7e 0b3d 8792 df3b c9eb 2bbd 0cc3 1c3d
00000110: dba4 54bc 1b4c 40bd 9c7a 413d 5960 2bbc
00000120: 9aef ae3c a84d c4b9 658e 173d cd17 aebc
00000130: 351d 71bc 58a0 c2bc 8e63 01bd 4ff6 01bd
00000140: bf82 e33c c435 08bd 6774 e338 a706 fe3b
00000150: 7d44 563d 4a00 91bc 2edc 83bc cbc6 d83c
00000160: b252 3b3c 7498 be3c 8102 2a3d da85 26bd
00000170: b615 5c3c 6fe4 a43a bd08 39bd 2d78 cfbb
00000180: 98e0 733c 6085 eb3c 355f 2a3b 1b0a 0dbd
00000190: b723 51bc bdce 333d 9536 cc3c eb68 14bd
000001a0: c171 5c3c ea57 20bc 641e 3a3c 56c1 023d
000001b0: 059d d9bc 1acf feba f7d0 263d 6942 e0bb
000001c0: 1b6f 483d b3f4 51ba 6314 143c cc02 0dbc
000001d0: cc38 af3c 3a10 74bc 1c3f 583d 84d2 373d

classifier.0.weight f4 [84, 120]
0.015492042 -0.055002965 0.022647945 -0.004544501 -0.07648511 0.03348698 -0.06240109 -0.04498855
-0.07095919 0.065240495 0.057160746 -0.05369958 0.067128435 -0.06801867 0.008228339 -0.058138262
0.06336812 -0.03710033 -0.010392401 0.03775348 -0.082773924 0.067439154 0.005830484 -0.05449547
0.0019135231 -0.035316903 0.018619575 0.057832327 -0.08249154 0.06977704 -0.024437988 0.07619466
0.0056211883 0.035398047 -0.044056896 0.017421352 0.001224025 -0.01923416 -0.04117632 0.0023190659
-0.097720765 -0.052534454 -0.025096372 0.0023069235 -0.058594678 -0.04174707 0.015122127 0.004458842
0.020470181 -0.04921575 0.07328075 -0.022840725 -0.08579688 0.05580938 0.007761457 -0.008278107
-0.08215079 -0.04428331 0.051024325 -0.015421968 -0.054240003 0.06851604 -0.07382624 0.07201266
-0.030632978 0.03830351 0.011228964 0.103894934 0.029105354 -0.006148735 0.08586841 -0.07225262
0.016397653 0.028470712 -0.052588284 -0.05478618 -0.047244575 -0.04801563 -0.012945333 -0.056286916
0.06364563 -0.0021177866 0.098079175 0.014692814 -0.0005644926 0.0079497 -0.04017295 -0.03599735
0.038244635 -0.011456082 0.008777829 -0.0063905152 0.09420031 -0.103032716 -0.059619267 -0.047457952
-0.028046183 0.07144485 0.06248868 -0.0540927 -0.026140131 0.101516984 -0.07612846 0.009396937
0.033512346 0.04449453 0.10303269 0.059440166 0.012856042 -0.088116385 -0.0409483 -0.01531551
-0.06650302 -0.035553984 0.0043345285 -0.035368387 0.01307984 0.03796813 0.0644588 -0.069448784
0.08072851 0.03646625 0.0073379846 -0.025737224 -0.027661338 0.0040398566 -0.0119217755 -0.086529374
0.014490598 -0.060053777 -0.07698881 0.053778533 -0.016127933 -0.02391806 -0.012462799 -0.038691763
0.047019143 -0.0032032132 -0.0403784 0.083429195 0.0654871 0.067324586 -0.09062669 0.018366316
0.003350878 0.07811841 0.024301894 0.018035566 0.06013498 0.03963982 -0.08206437 -0.08721918
-0.051072504 -0.019813452 0.021702446 0.057247933 -0.08280299 -0.0138149075 -0.071261115 0.078771666
0.059327018 0.05238579 -0.010690783 -0.057480685 -0.0459301 -0.0011845535 0.00066769315 -0.0021431674
0.07708705 -0.04730952 0.06971162 0.040314116 -0.07226762 -0.041776113 -0.055188388 0.00080439716
0.04834295 0.05152988 -0.019411772 0.07825993 0.042751037 0.013301487 -0.07379441 -0.0771946
0.05710572 0.048611674 -0.04380475 -0.06803466 0.004257509 -0.083190985 0.06130462 0.047577213
0.025141988 -0.06560342 -0.013607771 -0.046562724 0.04578421 0.08674297 0.0023004797 -0.023437638
0.06278092 -0.021194346 -0.041821603 -0.07627994 0.012338879 0.07188099 0.05684582 0.03125664
0.062167633 -0.07256025 0.08932416 -0.029873004 -0.088791214 0.041589867 0.022917053 -0.01818279
-0.08645937 0.0009836028 -0.046011757 -0.053609967 0.08158723 0.042368058 -0.07979856 -0.039190937
-0.043990415 -0.081913956 -0.07386549 0.09051054 0.00685485 0.07412818 0.015050402 0.08783633
-0.0551661 0.022068042 -0.04538016 0.03236103 0.07027019 0.068429016 -0.06171996 -0.0033302004
0.0120659135 0.025586301 -0.0382428 0.034244563 -0.07154213 -0.035121392 -0.01982327 -0.015188823
-0.08048975 0.058660626 -0.010145478 0.043294176 -0.001957636 0.005035444 0.08319627 0.06805428
00000000: 55d2 7d3c ca4a 61bd 2f88 b93c 0aea 94bb
00000010: 3aa4 9cbd a529 093d 4998 7fbd ea45 38bd
00000020: 0d53 91bd cf9c 853d 6321 6a3d 17f4 5bbd
00000030: a27a 893d 5f4d 8bbd 28d0 063c 6322 6ebd
00000040: 25c7 813d 84f6 17bd e444 2abc 65a3 1a3d
00000050: 6085 a9bd 8a1d 8a3d a50d bf3b a436 5fbd
00000060: 2ecf fa3a 75a8 10bd 1488 983c 97e1 6c3d
00000070: 53f1 a8bd 44e7 8e3d 2d32 c8bc f20b 9c3d
00000080: f231 b83b 8bfd 103d 0175 34bd 39b7 8e3c
00000090: 776f a03a f590 9dbc 80a8 28bd 78fb 173b
000000a0: d321 c8bd 5e2e 57bd e896 cdbc c12f 173b
000000b0: f900 70bd fafe 2abd ccc2 773c 7a1b 923b
000000c0: 15b1 a73c 7496 49bd 3814 963d 791c bbbc
000000d0: 46b6 afbd 6098 643d d253 fe3b e6a0 07bc
000000e0: ac3e a8bd 6b62 35bd e2fe 503d 6cac 7cbc
000000f0: c42a 5ebd 2352 8c3d 3632 97bd 607b 933d
00000100: 03f2 fabc 24e4 1c3d b0f9 373c dec6 d43d
00000110: 5a6e ee3c 547b c9bb c7db af3d 2ef9 93bd
00000120: 5f54 863c 693b e93c d066 57bd 7967 60bd
00000130: 8783 41bd 0aac 44bd a918 54bc 1c8d 66bd
00000140: a458 823d 90ca 0abb bcdd c83d 21ba 703c
00000150: 75fa 13ba 753f 023c 648c 24bd f571 13bd
00000160: 68a6 1c3d 4ab2 3bbc e2d0 0f3c 8767 d1bb
00000170: 18ec c03d d102 d3bd 5533 74bd 4563 42bd
00000180: 1cc1 e5bc ad51 923d 21f4 7f3d 4f90 5dbd
00000190: d423 d6bc 23e8 cf3d 3de9 9bbd 9cf5 193c
000001a0: 3e44 093d e53f 363d ce02 d33d 8877 733d
000001b0: 26a2 523c 5d76 b4bd 68b9 27bd e8ed 7abc
000001c0: bc32 88bd 0ea1 11bd a908 8e3b 71de 10bd
000001d0: d34c 563c 7884 1b3d fa02 843d 2a3b 8ebd
000001e0: fd54 a53d a25d 153d 7a73 f03b dfd6 d2bc
000001f0: 089a e2bc c660 843b 8d53 43bc 5036 b1bd
00000200: f969 6d3c f3fa 75bd 4fac 9dbd e146 5c3d
00000210: ba1e 84bc cfef c3bc c530 4cbc 417b 1ebd
00000220: 2597 403d 00ed 51bb d263 25bd eddc aa3d
00000230: 1a1e 863d 79e1 893d 7c9a b9bd f574 963c
00000240: 679a 5b3b 8cfc 9f3d c414 c73c 53bf 933c
00000250: 1950 763d 5d5d 223d 5d11 a8bd f89f b2bd
00000260: 6731 51bd d24f a2bc 54c9 b13c cf7c 6a3d
00000270: 9d94 a9bd ec57 62bc 59f1 91bd 0a53 a13d
00000280: e300 733d 7b92 563d 6528 2fbc de70 6bbd
00000290: 3321 3cbd 0543 9bba 2108 2f3a 6274 0cbb
000002a0: d1df 9d3d a1c7 41bd f7c4 8e3d 6a20 253d
000002b0: 0c01 94bd 6e1d 2bbd 380d 62bd 2ede 523a
000002c0: 4203 463d ff10 533d 7005 9fbc be46 a03d
000002d0: b61b 2f3d 7bee 593c 8621 97bd 3418 9ebd
000002e0: b0e7 693d 091d 473d 9c6c 33bd c155 8bbd
000002f0: 9382 8b3b 0960 aabd 8e1a 7b3d 53e0 423d
00000300: 92f6 cd3c 165b 86bd 21f3 5ebc 8eb8 3ebd
00000310: 3988 3b3d 4ca6 b13d a5c3 163b 4a00 c0bc
00000320: 4893 803d c49f adbc 214d 2bbd a838 9cbd
00000330: 0229 4a3c 5736 933d 2ad7 683d f606 003d
00000340: 7da3 7e3d 789a 94bd 96ef b63d 3bb8 f4bc
00000350: 2bd8 b5bd 235a 2a3d 8bbc bb3c 13f4 94bc
00000360: 9c11 b1bd 3cec 803a d376 3cbd 2096 5bbd
00000370: 3517 a73d 218a 2d3d 6d6d a3bd ad86 20bd
00000380: 4b2f 34bd 81c2 a7bd ca46 97bd 975d b93d
00000390: a69e e03b 84d0 973d f695 763c 89e3 b33d
000003a0: d9f5 61bd 0ac8 b43c 8ce0 39bd 008d 043d
000003b0: d1e9 8f3d 8324 8c3d 12ce 7cbd 7e3f 5abb
000003c0: 1cb0 453c 5d9a d13c 7ba4 1cbd 0744 0c3d
000003d0: ae84 92bd 73db 0fbd 6964 a2bc 8bda 78bc
000003e0: cfd7 a4bd 2046 703d 3839 26bc 3c55 313d
000003f0: af4b 00bb 5e00 a53b ce62 aa3d 0b60 8b3d

classifier.0.bias f4 [84]
-0.0076403427 -0.08628298 0.04240812 0.08672798 0.022020014 0.04073767 0.07944823 0.05431411
-0.039625622 0.04702434 -0.07473452 0.09215499 0.06142782 -0.0485713 -0.027335655 -0.055458475
-0.034699675 -0.05806427 -0.082462005 -0.012889135 0.03721894 0.0568005 -0.030185822 -0.06757042
0.05482543 0.004096928 -0.0015859653 0.04710777 -0.026103243 0.043233186 0.03212868 -0.013979705
0.0027224561 -0.023417871 -0.040170144 -0.006046195 -0.07508911 -0.07067671 0.0012321795 -0.08691102
-0.0091696335 -0.08101918 0.030969802 0.017907316 -0.041941207 -0.0006580996 0.045435693 -0.07691415
-0.07619038 0.022729594 0.0228417 0.04502851 0.012256059 -0.09143114 -0.048293766 0.0022115854
-0.043627575 -0.034237746 0.020580253 -0.052200556 0.0104540875 0.09893244 0.08948208 -0.011637156
0.0577827 -0.0743973 0.051853456 0.012220206 0.08127694 0.066059485 -0.08384687 0.08548386
0.06593569 0.077537306 0.0541397 -0.044434704 -0.0035802776 -0.0048858174 0.043255765 0.043506
-0.037766024 -0.01967006 -0.03705522 0.0036128615
00000000: d75b fabb 22b5 b0bd 23b4 2d3d 709e b13d
00000010: 5163 b43c 8bdc 263d c1b5 a23d 7978 5e3d
00000020: 7a4e 22bd 989c 403d 690e 99bd c1bb bc3d
00000030: bd9b 7b3d b3f2 46bd 06ef dfbc 6d28 63bd
00000040: 3f21 0ebd cdd4 6dbd d7e1 a8bd f32c 53bc
00000050: e372 183d a4a7 683d 4248 f7bc 5c62 8abd
00000060: a190 603d 863f 863b 2ae0 cfba 14f4 403d
00000070: 78d6 d5bc 4815 313d 5d99 033d 220b 65bc
00000080: 3c6b 323b d6d6 bfbc 7389 24bd 291f c6bb
00000090: 52c8 99bd f3be 90bd 1581 a13a 68fe b1bd
000000a0: 3b3c 16bc 62ed a5bd 62b4 fd3c 5db2 923c
000000b0: 8bca 2bbd 5184 2cba c71a 3a3d 2a85 9dbd
000000c0: b409 9cbd 6a33 ba3c 841e bb3c d16f 383d
000000d0: a3cd 483c 4040 bbbd afcf 45bd 3ff0 103b
000000e0: d4b2 32bd e13c 0cbd eb97 a83c 40d0 55bd
000000f0: 9f47 2b3c 179d ca3d 6142 b73d c5a9 3ebc
00000100: 8dad 6c3d 9d5d 98bd 4a64 543d 4237 483c
00000110: 8674 a63d 324a 873d e8b7 abbd 2912 af3d
00000120: 4b09 873d e1cb 9e3d 97c1 5d3d 2a01 36bd
00000130: 17a3 6abb 3519 a0bb f52c 313d 5933 323d
00000140: 8cb0 1abd 1b23 a1bc 37c7 17bd c2c5 6c3b

classifier.2.weight f4 [10, 84]
-0.11009225 -0.08682602 0.09640936 -0.029487526 0.00989713 -0.042779583 0.0062141856 0.024314387
-0.08123481 0.09963706 -0.08605916 -0.020411609 0.054354083 -0.10910223 0.09684424 0.10571498
-0.19532937 -0.022728624 -0.089253515 0.18083619 -0.13657948 -0.16431205 -0.07729241 0.060583625
0.021535184 -0.11615331 -0.029288681 -0.06609183 0.1573797 -0.11014996 0.027951311 0.05604011
-0.17934985 0.027837187 -0.010499253 0.024230802 -0.06007092 -0.14112978 -0.0041390858 -0.010127384
-0.04962856 0.17172422 -0.06521721 -0.10675963 0.022449616 -0.1126808 0.11399342 0.20489897
0.14450885 0.09171003 -0.21012054 0.03964951 -0.1612849 -0.042963643 -0.10182092 -0.08542102
0.06990218 0.07616552 0.047195215 0.05176899 0.18730617 0.05875744 -0.08624758 0.07866002
-0.038080286 -0.0069190776 0.04895888 0.011453915 0.067741916 -0.030706992 -0.059156206 0.016325599
0.09321464 -0.1584226 -0.14861736 0.031423435 0.060379602 0.023618717 -0.16363166 -0.13746868
-0.0010680803 0.035348017 -0.1885454 0.10919539 -0.11212788 0.033775244 -0.0283466 -0.09449597
0.023488728 0.023912465 0.11106825 0.15946469 0.20334497 0.13901089 -0.1508219 0.1573939
0.20862882 -0.07607583 0.12213049 -0.25267774 -0.12992772 0.103357375 0.11548516 0.017589567
-0.09873572 -0.0017987246 0.08750085 0.028624263 0.084750116 -0.03992941 0.08616376 -0.036399327
0.050185177 0.039307654 -0.15102568 0.1020487 0.106860995 -0.12960917 -0.0050518448 0.10683686
0.07895085 0.13016853 0.085587405 -0.04344239 0.041408557 -0.10538232 -0.022403104 -0.05396842
-0.06940656 0.19127914 -0.10508807 0.16195257 0.1083832 0.07661188 0.13361369 -0.111329615
0.09639534 -0.02708117 -0.119564936 -0.015484661 0.031856604 -0.09015287 -0.0604598 0.094967216
-0.06970967 0.11278804 -0.09265163 -0.12829526 0.09879722 0.1043215 0.13194886 0.12617919
0.16758952 0.06665011 0.009716797 0.033491295 0.077545255 0.07228377 -0.066436164 0.059533127
-0.08384109 -0.114227824 0.030284947 0.12793288 0.009895589 0.13413745 -0.089611724 -0.15986499
-0.023661954 -0.09844446 0.13786986 -0.17641471 0.12562862 0.15685917 0.093151495 0.10269739
0.0020016273 -0.012066262 0.14764044 -0.08615855 -0.031534385 0.071186915 -0.10911183 0.04369378
0.15571818 0.046838533 -0.10112357 -0.020683596 -0.1801511 0.06833001 0.14366102 0.10149218
0.0065827807 0.08478025 0.11545686 0.1966567 -0.0053278566 0.12158545 -0.09246776 0.057000384
-0.1356261 -0.101671286 -0.123168714 -0.055629916 -0.020262612 -0.08391116 -0.20384625 0.08143776
-0.017502522 0.048415847 0.1627837 0.12524591 -0.17290065 -0.0689867 -0.055931464 0.03284738
0.01439388 0.0062511265 0.02539559 0.20382439 0.055985026 0.10208081 -0.18601419 0.005561187
0.060773022 0.07580962 -0.12378213 -0.04210116 0.091993675 0.0498899 -0.20127356 -0.14784198
-0.05004681 -0.045689218 -0.13498823 -0.10780495 0.2099224 -0.046485297 0.055858616 0.11531102
0.008347289 -0.006828154 0.14364725 0.1556325 0.015509059 -0.03330187 0.029357053 -0.02155376
-0.100604415 -0.061256476 0.14400604 -0.15555438 0.10174787 -0.00295248 0.018448744 -0.11171416
00000000: 0c78 e1bd d7d1 b1bd 4572 c53d d38f f1bc
00000010: 9227 223c a539 2fbd 5ea0 cb3b f72e c73c
00000020: 705e a6bd 840e cc3d c93f b0bd 3f36 a7bc
00000030: 63a2 5e3d fd70 dfbd 4656 c63d 1881 d83d
00000040: 6c04 48be 6131 babc 8cca b6bd 1f2d 393e
00000050: 7edb 0bbe 6b41 28be 7c4b 9ebd 8926 783d
00000060: 8e6a b03c c9e1 edbd d1ee efbc 275b 87bd
00000070: 2528 213e 4d96 e1bd 26fa e43c 508a 653d
00000080: 7da7 37be d00a e43c 0f05 2cbc ad7f c63c
00000090: ed0c 76bd 5384 10be 2ba1 87bb 54ed 25bc
000000a0: 5147 4bbd 79d8 2f3e 9a90 85bd cba4 dabd
000000b0: 42e8 b73c 31c5 e6bd 6275 e93d 09d1 513e
000000c0: 21fa 133e 78d2 bb3d d729 57be 8667 223d
000000d0: de27 25be a5fa 2fbd 7d87 d0bd 37f1 aebd
000000e0: e028 8f3d abfc 9b3d c54f 413d b80b 543d
000000f0: 30cd 3f3e a4ab 703d 92a2 b0bd 8118 a13d
00000100: 13fa 1bbd 6eb9 e2bb 1b89 483d 34a9 3b3c
00000110: 46bc 8a3d 3b8d fbbc c74d 72bd 43bd 853c
00000120: 51e7 be3d 8939 22be 262f 18be dcb5 003d
00000130: 9a50 773d 0a7c c13c 0f8f 27be 97c4 0cbe
00000140: d4fe 8bba 15c9 103d 0c12 41be d5a1 df3d
00000150: 4da3 e5bd e957 0a3d 2137 e8bc 1a87 c1bd
00000160: 6f6b c03c 13e4 c33c c077 e33d b64a 233e
00000170: aa39 503e df58 0e3e 0e71 1abe de2b 213e
00000180: cba2 553e a5cd 9bbd 8d1f fa3d fa5e 81be
00000190: c60b 05be 08ad d33d 7c83 ec3d ff17 903c
000001a0: f435 cabd 2fc3 ebba a533 b33d 6e7d ea3c
000001b0: 7891 ad3d 058d 23bd a076 b03d 7617 15bd
000001c0: f98e 4d3d 1001 213d 7aa6 1abe e9fe d03d
000001d0: f0d9 da3d 44b8 04be f289 a5bb 49cd da3d
000001e0: fcb0 a13d e64a 053e 7348 af3d a6f0 31bd
000001f0: 059c 293d b0d2 d7bd b786 b7bc fd0d 5dbd
00000200: 0725 8ebd aede 433e 6a38 d7bd e5d6 253e
00000210: 03f8 dd3d b0e6 9c3d 07d2 083e c800 e4bd
00000220: ec6a c53d 54d9 ddbc 76de f4bd 60b3 7dbc
00000230: 127c 023d 11a2 b8bd b2a4 77bd 2c7e c23d
00000240: f2c3 8ebd 6afd e63d 23c0 bdbd d55f 03be
00000250: 3256 ca3d 83a6 d53d 9a1d 073e 1e35 013e
00000260: 969c 2b3e da7f 883d 3333 1f3c 2b2e 093d
00000270: 0cd0 9e3d 8309 943d af0f 88bd 02d9 733d
00000280: e1b4 abbd 47f0 e9bd 2318 f83c d600 033e
00000290: 1c21 223c 545b 093e 5a86 b7bd a6b3 23be
000002a0: b7d6 c1bc 409d c9bd c22d 0d3e 0fa6 34be
000002b0: caa4 003e b19f 203e 36c6 be3d 0253 d23d
000002c0: bc2d 033b 92b1 45bc 0e2f 173e e573 b0bd
000002d0: 332a 01bd 72ca 913d 0676 dfbd 40f8 323d
000002e0: 9674 1f3e c3d9 3f3d e019 cfbd a570 a9bc
000002f0: 8879 38be 9bf0 8b3d e01b 133e 22db cf3d
00000300: 5eb4 d73b 45a1 ad3d a574 ec3d 6060 493e
00000310: 4d95 aebb cb01 f93d bd5f bdbd 3c79 693d
00000320: 91e1 0abe 0939 d0bd e13f fcbd 32dc 63bd
00000330: c7fd a5bc 9dd9 abbd 12bd 50be d7c8 a63d
00000340: 7361 8fbc b24f 463d c5b0 263e 7740 003e
00000350: de0c 31be e648 8dbd 6418 65bd f98a 063d
00000360: 4fd4 6b3c 40d6 cc3b 6a0a d03c 57b7 503e
00000370: 8e50 653d be0f d13d 817a 3ebe 9e3a b63b
00000380: 22ed 783d 1342 9b3d 7c81 fdbd 4472 2cbd
00000390: 2e67 bc3d 5a59 4c3d a81a 4ebe e363 17be
000003a0: e2fd 4cbd 9e24 3bbd 5b3a 0abe d7c8 dcbd
000003b0: e6f5 563e 5e67 3ebd 01cc 643d 2f28 ec3d
000003c0: 11c3 083c b5be dfbb 4418 133e 205e 1f3e
000003d0: b519 7e3c 8b67 08bd 347e f03c 8391 b0bc
000003e0: b009 cebd 12e8 7abd 5276 133e a649 1fbe
000003f0: 3061 d03d 657e 41bb d221 973c 65ca e4bd

classifier.2.bias f4 [10]
-0.019587146 -0.010790375 -0.02675165 0.025299976 -0.03888859 0.061868493 0.05581062 -0.02959294
-0.06707048 0.056709908
00000000: 3975 a0bc 1dca 30bc 4726 dbbc e541 cf3c
00000010: a449 1fbd d169 7d3d ad99 643d e56c f2bc
00000020: 3f5c 89bd a648 683d
