checkpoints/noise_rate_0.2/models/tsf/epoch123.pth (torch, 250639 bytes, 10 tensors)

feature_extractor.0.weight f4 [6, 1, 5, 5]
000000 85 87 0f 3e b6 e6 64 bd 38 d5 02 bd f8 0c 9e 3d
       0.1401654 -0.055884086 -0.031941622 0.07717317
000010 53 56 5a be a7 2e 3b 3e 66 1d fe 3c c2 14 29 3e
       -0.21321993 0.18279515 0.031019878 0.16511825
000020 68 5e 89 3d 22 fa 57 bb f8 73 d7 3d b0 06 b1 3d
       0.0670746 -0.0032955487 0.10520166 0.08643854
000030 a4 a4 23 3e 24 84 1a b8 f1 cf 46 3d 60 94 e8 bc
       0.15980774 -3.6839527e-05 0.048538152 -0.028391063
000040 13 23 36 3d d5 dc 25 3d ae 53 71 3e bb 1d 0c 3e
       0.044467043 0.040493805 0.23567078 0.13683216
000050 ab 5a 01 be c7 61 28 be da 9b 61 bd 42 7a 95 bd
       -0.12632243 -0.16443549 -0.055080272 -0.072987095
000060 1e e5 a8 bc 0f 83 cb 3d fe 1e 7f 3e 6d 03 3e 3e
       -0.020617064 0.09937107 0.24914166 0.18555994
000070 33 7b 5c be ba 5c 64 3d dc 4d 25 3e 82 e5 ac 3e
       -0.21531372 0.055752493 0.16142982 0.3376885
000080 8e 0b 4b 3e db 68 6f be 06 c7 8a be 99 39 a7 3c
       0.19828627 -0.23379843 -0.27104968 0.020413207
000090 ad a4 a8 3e 29 80 43 3d 6f 3e 88 3d ea c4 05 be
       0.32938138 0.047729645 0.06652533 -0.13063398
0000a0 5e 6a 91 3e 5d 6a 29 3d 28 80 82 3e 45 e5 53 3d
       0.28401464 0.0413612 0.254884 0.05173232
0000b0 62 29 97 bd 4f 83 1a 3e 7e e6 ac bc 1c 21 31 3e
       -0.0738094 0.15089153 -0.021106001 0.17297786
0000c0 83 b0 3d 3d fe bb a0 3d 33 77 7d be cb 2f 15 be
       0.046310913 0.07848357 -0.24752502 -0.14569013
0000d0 e5 25 84 3d 28 38 29 bd 3d bf 7b 3e 97 e0 18 3e
       0.0645254 -0.04131332 0.2458467 0.14929424
0000e0 00 5d 13 bb f9 dc b8 bd b8 b0 5a 3e f6 f4 21 3e
       -0.0022485852 -0.09026522 0.21356475 0.15816101
0000f0 6e 9e a2 bd cf f4 4c 3e a0 7f 62 3e 78 e6 90 3e
       -0.07940374 0.20015262 0.22118998 0.28300834
000100 28 4b 3e bd a5 20 59 3d 00 fb aa 3d 0c 5b dd 3d
       -0.046458393 0.053009648 0.08348656 0.108083814
000110 08 0d d9 bd fa 86 09 be 7a cc 3c 3e 23 7d aa 3c
       -0.10598189 -0.13430396 0.18437377 0.020811623
000120 7e 19 13 3e f8 4f c9 3c 04 d5 59 3d 0d d9 12 3d
       0.14365193 0.024574265 0.053181663 0.035851527
000130 92 88 ab 3d fe 76 e1 3d ec 46 3b be 2b d2 d6 3d
       0.08375658 0.11009024 -0.18288773 0.10489305
000140 3d 92 1d be 95 06 18 be b0 77 ec 3c 4e a5 34 37
       -0.15387817 -0.14846261 0.028865665 1.0767324e-05
000150 13 a8 34 3e 56 7d 02 be 82 f2 2c be 1b aa 40 3e
       0.1764224 -0.12743124 -0.16889384 0.1881489
000160 9c bf 23 3d b5 a7 45 3e 97 0a 82 3d 07 f1 ff bd
       0.039977655 0.19302256 0.06349676 -0.12497144
000170 66 bf c5 3d b1 a0 ea 3d 7c 0b ac bd 84 ec b7 bd
       0.09655647 0.11456431 -0.08400628 -0.08980659
000180 36 3e c9 3d 99 64 a3 3d 01 50 47 bd f3 d8 44 bd
       0.09826319 0.07978172 -0.048660282 -0.04805846
000190 41 32 76 3e a6 6c c9 3d 76 84 7d 3e 47 d0 2d 3e
       0.24042608 0.09835176 0.24757561 0.16973983
0001a0 e1 0c f8 bd 88 49 8b bd 32 8f de 3e fe 3d 85 3e
       -0.121118315 -0.06801134 0.43468624 0.2602386
0001b0 57 69 90 3e 1e 1d d5 3d 4e 8d 8b 3e 75 1f fa 3e
       0.28205368 0.10405944 0.27256244 0.48852125
0001c0 ab fc f0 3e 9c 78 74 3c 18 66 d6 3d 0f 1b bb 3e
       0.4706777 0.014921334 0.104686916 0.36544082
0001d0 39 35 d7 3e 5f 4a ac 3e 66 51 be bc dc 9d 52 bd
       0.42032793 0.3365049 -0.023232173 -0.051420078
0001e0 57 e5 8d ba 20 2b 1b 3e 62 87 99 3e ab a0 e8 bc
       -0.0010825795 0.1515317 0.299861 -0.028396925
0001f0 e4 44 5a 3e d5 e7 e5 bd 3b 04 21 be a8 7b d2 3c
       0.21315342 -0.11225859 -0.1572427 0.02569373
000200 e8 f5 74 3e 7c 30 99 3e 25 1c 9b bd 69 46 23 3e
       0.23921931 0.29919803 -0.075737275 0.15944828
000210 b3 97 be 3e 53 ad c4 3e ab ba 9d 3e 73 3e 7a 3e
       0.37225112 0.38413486 0.3080648 0.24437885
000220 b9 40 91 3e ba 1c 8f 3e 82 cc ee 3d 57 8c 00 3c
       0.28369692 0.27951604 0.116601005 0.00784596
000230 79 6c 99 bc 90 e8 9f 3d e0 d9 07 3d c3 4b 88 3e
       -0.018728482 0.0780803 0.033166766 0.26620302
000240 0c 09 5b 3e 74 32 e0 bc c8 bb d4 3d 51 6c 08 3e
       0.2139017 -0.027367808 0.10387379 0.1332257
000250 92 d3 6e 3e 98 de 73 3e
       0.23322895 0.23815382

feature_extractor.0.bias f4 [6]
000000 17 ad 19 bd 84 3f 75 3e 43 ba 79 3c ab 8b b0 3c
       -0.037518587 0.2395001 0.015242162 0.021550974
000010 d2 8c 6d bd ec ff 05 3c
       -0.057995625 0.008178692

feature_extractor.3.weight f4 [16, 6, 5, 5]
000000 50 d0 19 bd 09 06 f9 bc 3b 3a 6f 3d be d7 c9 bc
       -0.037552178 -0.030398386 0.058405142 -0.024639007
000010 7d 63 61 bd 5e 14 44 3d 90 39 36 3d f1 60 89 3d
       -0.05502652 0.047870986 0.04448849 0.06707943
000020 87 ad 0e bd 45 0b c6 3c 35 d9 f9 bc 1e 97 35 bc
       -0.034833457 0.024175296 -0.03049908 -0.011083392
000030 57 1f 89 bd b3 27 32 bd 19 b8 fa bc 67 54 0a 3d
       -0.06695431 -0.04349489 -0.030605363 0.0337719
000040 a1 ae 98 3c 6f df 74 3c 63 0c 90 3d 6d e2 94 3d
       0.018637957 0.014945849 0.070336126 0.0726975
000050 64 68 66 3d f5 da bf 3b b5 8b 82 bd 60 87 5e 3d
       0.0562519 0.005854959 -0.06374303 0.054328322
000060 85 f1 96 bc c8 22 55 bc 5c 0e 46 bd c1 fa a2 3c
       -0.018425712 -0.013008781 -0.048353538 0.01989496
000070 76 e6 27 bd 72 ed 89 3d c2 ff ba bd 99 33 09 bd
       -0.04099127 0.06734742 -0.09130813 -0.033496473
000080 1e 8a 0f 3d 15 ce 38 bd e1 3c 63 3c d7 34 3b bd
       0.03504383 -0.04511841 0.013869495 -0.04570469
000090 c6 54 72 bc 16 2d 16 3d bc 21 36 3d dc db a3 bd
       -0.014790719 0.03666409 0.044465765 -0.08000919
0000a0 35 e2 0a 3d e4 2d b7 3d 03 4e cc 3d b9 f0 a8 bd
       0.033907134 0.089443 0.09975817 -0.08249039
0000b0 5a 5c 60 bb 19 d0 96 bd 8f ff c4 3d 4c ab 27 bc
       -0.0034234733 -0.0736391 0.096190564 -0.010233711
0000c0 cf 78 95 3c 2f e5 13 bc a3 55 0e bc c3 13 d2 3b
       0.018246083 -0.00902681 -0.00868741 0.006411047
0000d0 34 19 60 3c 48 ff 0a 3d 10 43 34 3c 81 3c 03 3d
       0.013677884 0.03393486 0.011002317 0.032040123
0000e0 4b 4a 6b bd 1c 81 73 3d 90 c6 87 3d bf d9 92 3d
       -0.0574439 0.0594493 0.0662967 0.07170438
0000f0 a1 13 93 3d 4d dd 2e bd cb 77 28 bd 71 e4 58 3d
       0.07181478 -0.042691518 -0.04112987 0.052952234
000100 79 d2 87 bd 5e db ae 3d 1f 01 8b bd 8c ed 96 bd
       -0.06631941 0.08537935 -0.06787323 -0.07369527
000110 73 36 85 3c 8e fd 7f bd c4 52 5e bc e0 ea 82 3d
       0.016261315 -0.062497668 -0.013569538 0.06392455
000120 ae 78 41 3d b3 c0 8e 3d 3f 53 5a bc 50 d3 86 bd
       0.04723423 0.06970348 -0.0133255115 -0.065832734
000130 bd 05 a2 3d a7 61 a7 bc cd 78 1c bd aa 14 a9 3c
       0.07911251 -0.020432306 -0.038201142 0.020639736
000140 88 35 55 bd b9 77 64 3d ce b0 36 3d 28 56 93 bd
       -0.052053005 0.05577824 0.044602208 -0.071941674
000150 b8 31 84 bd 01 5d 7b 3b ba ae 06 3d d0 cc 0f bc
       -0.064547956 0.0038354995 0.032881476 -0.008776858
000160 52 d0 43 bd 8e 1f 5b 3b bd 00 93 bd 11 77 64 bd
       -0.04780609 0.0033435556 -0.07177875 -0.055777613
000170 d5 16 87 bd 66 fc 84 3d d1 c0 99 3d 44 17 ce bc
       -0.06596152 0.06493454 0.0750748 -0.025157578
000180 92 f8 83 3b f6 61 f5 3c 91 1b 53 3c c3 ce 17 bd
       0.0040274346 0.029953938 0.01288499 -0.037062418
000190 6b 0b 45 3d 11 e5 bc 3d 73 bd 2e 3d 5c f8 8b bb
       0.048106592 0.092233784 0.04266114 -0.00427155
0001a0 ac d2 9f 3d ab 0d a6 3d bf 55 99 3c 03 53 10 3e
       0.07803854 0.08108076 0.018717645 0.14094166
0001b0 a5 3c 82 3c 20 8e 6c bd 92 70 84 3d e1 c9 3a bc
       0.015898058 -0.05775273 0.064667836 -0.011400671
0001c0 85 10 d8 3d e4 f3 c1 bd 08 16 50 bc db 1e ca 3c
       0.10550026 -0.094703466 -0.012700565 0.024672916
0001d0 48 5b 84 3d 8b ec 56 3d d2 56 c4 bd 31 d9 8b bd
       0.06462723 0.05247168 -0.09586872 -0.06828535
0001e0 0c 80 a5 bd 0d 40 ac 3c 87 c6 ed bc d4 7c 1d bd
       -0.08081064 0.021026636 -0.02902533 -0.038449124
0001f0 cb 10 a1 bc 49 c4 7c 3d 7a 56 e8 3d b2 2e e2 3c
       -0.019661328 0.06171063 0.11344619 0.027610157
000200 58 ed 09 bd 31 93 e4 bc 33 d3 03 bd fc 8f e5 3d
       -0.033673614 -0.027902218 -0.032183837 0.112091035
000210 81 13 82 bc 37 b6 30 3c 2e f5 bf 3c ee b4 ab bc
       -0.01587844 0.010785631 0.02343234 -0.020960297
000220 05 44 a0 3d 02 b9 a8 3c b5 b4 e0 bc 2d 05 3d bd
       0.07825474 0.020596031 -0.027429918 -0.046147514
000230 42 c9 1f bb 87 9b ef b9 17 da be bd fb e3 a9 bd
       -0.0024381434 -0.0004570151 -0.09318941 -0.08295437
000240 1d 22 79 bc 49 3d 55 3b c8 26 07 3d ea a8 77 bd
       -0.015205887 0.003253775 0.03299597 -0.060463823
000250 0b e8 e6 bc 99 ca b6 bc e0 bd 9b bd 62 16 a4 3d
       -0.028186819 -0.022313403 -0.07604575 0.08012082
000260 88 ee e1 3c 87 6c a9 3d 44 24 f4 3a 82 e7 9b bc
       0.02757956 0.08272653 0.0018626531 -0.01903129
000270 0e 87 75 bd ca c5 65 bb 53 15 8b 3d 83 45 9c bd
       -0.05994325 -0.0035060518 0.06791177 -0.07630446
000280 74 28 e1 bc ae 95 70 3d 03 df 7a 3d f6 12 34 3d
       -0.02748511 0.058736496 0.061247837 0.043963395
000290 2e 14 2f bc 38 3b ac bc ab 00 20 bd be 96 28 bd
       -0.010685964 -0.021024331 -0.039063137 -0.041159384
0002a0 f4 64 50 3d 3a f3 3e b9 dc 8b 01 bd db 24 cb 3c
       0.050877526 -0.00018210421 -0.03162752 0.024797847
0002b0 28 c5 4d bd 09 3f 9d 3b ec 88 8a 3d b8 5f 87 3c
       -0.05023685 0.004798774 0.06764397 0.016525134
0002c0 e4 11 a1 3d 93 bf 2c bd 4a 37 80 3c 83 cb 8a bc
       0.078647405 -0.042174887 0.015651364 -0.016942745
0002d0 01 bb 23 bd e9 f5 d0 bc 3c d0 8e 3d 5b 61 41 3d
       -0.039973263 -0.025507884 0.06973311 0.047211986
0002e0 2e ea 2b bd 36 f8 37 bd 39 ae 95 bd ff 21 ce 3d
       -0.041971378 -0.044914447 -0.07308621 0.10065078
0002f0 2b 5a 54 3c 43 0d ed 3b ac fb a3 bc 03 40 79 bd
       0.012960951 0.007234247 -0.020017467 -0.060852062
000300 9d ad a6 bd 05 fd 9b bc 94 83 bf 3d 97 5e 99 3c
       -0.08138583 -0.019041548 0.093512684 0.018721862
000310 ca d8 02 bd a5 89 50 bb e3 50 99 3d 9f 8f a9 3d
       -0.031945027 -0.0031820324 0.07486131 0.08279347
000320 21 72 9f 3d a4 a8 e1 3c 37 c0 5b 3d 3b 7c f2 3b
       0.0778544 0.027546234 0.053650107 0.0074000633
000330 a1 37 63 bd 43 e0 85 bd ab f4 96 3d f3 64 d8 3a
       -0.055472974 -0.06536915 0.073708855 0.0016509577
000340 94 54 ba 3c d9 00 40 bb 54 c8 61 bd 53 67 03 bd
       0.022745408 -0.002929738 -0.05512269 -0.03208096
000350 e8 41 4c 3c 39 ed b1 bc 2c 2f 8d bd 80 7c 34 3c
       0.012466885 -0.021719562 -0.06893763 0.011016011
000360 8e b8 2b b9 2e 6f 3f 3b 8b a7 86 3d 85 60 28 3d
       -0.00016376583 0.0029210555 0.06574925 0.041107673
000370 ab d3 bd bc 71 bc fc 3d 2a 90 db 3d 22 87 16 3d
       -0.02317222 0.1234063 0.107208565 0.036749966
000380 d7 2f 2a bc 48 7e 89 bd ba 72 91 3d 85 7c 6a bc
       -0.0103873825 -0.06713539 0.071019605 -0.014311914
000390 8a 06 6f bd 93 4c 5d 3d 03 8c 33 3d 74 24 23 3d
       -0.058355846 0.054028105 0.043834697 0.039829686
0003a0 18 7c 5c bc e3 2b 0f bd 0b 34 6d 3c 64 88 8c 3d
       -0.013457321 -0.034953963 0.01447774 0.06861952
0003b0 be c7 69 3c 9c 20 f1 bc 41 a0 af 3d 63 36 5a 3b
       0.014268814 -0.029434495 0.08575488 0.0033296577
0003c0 fb ec 70 3d 65 b0 0e 3d 5f fc d9 3d e6 4c 8b 3d
       0.058819752 0.03483619 0.10643839 0.068017766
0003d0 84 f4 1d bd 8e d5 91 3d d3 57 a6 3c 30 16 6a bd
       -0.038563266 0.071208104 0.02030555 -0.057150066
0003e0 01 08 c8 bc 31 1a 9b bd 6b 42 8c bd be 9d 8f bd
       -0.024417879 -0.07573355 -0.06848606 -0.07012509
0003f0 ce b6 91 3d 2c 81 5f 3a ff cc 8f bc 74 4c 61 3d
       0.07114945 0.0008526023 -0.017553804 0.055004552

feature_extractor.3.bias f4 [16]
000000 20 f6 a4 bc d0 14 2e bd 0b b7 b4 3b 86 f0 06 3d
       -0.020136893 -0.042500317 0.0055149845 0.032944225
000010 3c 63 47 3d b2 d3 9e bc fb 73 19 3c de ae 19 bd
       0.04867862 -0.019388054 0.009366031 -0.037520282
000020 e6 d7 83 bd 73 64 44 bd 05 55 46 bd 4a 8c 4d bd
       -0.06437664 -0.04794736 -0.048420925 -0.05018262
000030 89 67 94 3c 5a 07 c9 bc bb e0 88 3d 5a f9 a6 3d
       0.018115776 -0.024539638 0.06683489 0.08153029

feature_extractor.7.weight f4 [120, 400]
000000 f4 be 2e bd 64 0f 42 3c 90 60 f3 3c 7e a1 41 bd
       -0.042662576 0.01184449 0.02970913 -0.04727315
000010 84 4e 8e bc 20 f7 0a 3d 1e d5 17 bd ef 8c 3a 3d
       -0.017371424 0.033927083 -0.03706848 0.04554456
000020 d1 24 8c bb 5e cc 54 3c ce 58 4a 3d 38 c0 0e bd
       -0.00427685 0.012988178 0.049401097 -0.034851283
000030 53 30 2d 3d 79 6f 2c bd 2d b9 22 3d 6e df 2f ba
       0.042282414 -0.042098496 0.03972738 -0.0006709014
000040 dd a1 2d 3d 15 c6 de ba 10 41 2c bd 64 d6 96 3c
       0.042390693 -0.0016996289 -0.042054236 0.018412776
000050 f1 64 f5 3c bd 5b 2d bc 99 b3 58 bd 7c 5f c2 bb
       0.02995536 -0.010580954 -0.052905653 -0.005931793
000060 a4 90 1e 3c fb b2 27 3c 20 13 e5 3c a2 d1 03 bc
       0.00967804 0.010235543 0.027963221 -0.008045586
000070 37 bf 75 3a fd 0d be 3a e0 10 c3 3c 25 f0 b2 3c
       0.00093745015 0.0014500018 0.023811758 0.021843025
000080 0b af b6 3c 19 47 d0 3b 45 1a 39 3c 1f 51 14 3d
       0.022300264 0.0063561318 0.011297767 0.036210176
000090 e5 8d 4b 3c 4b e3 20 bd 1d 65 6b 3c 43 72 66 3d
       0.012423967 -0.039279263 0.014367369 0.056261312
0000a0 04 3e 6e bc 92 db f8 3c 5b 0b 34 bd 26 59 46 bb
       -0.014541153 0.030378137 -0.043956142 -0.003026554
0000b0 e3 bd e8 3c cb 28 15 bd c7 25 5e bc ad 92 4f bb
       0.028410858 -0.036415856 -0.0135588115 -0.003167312
0000c0 4a 60 56 bc 3e b1 ee bc ff c1 0e 3d 72 dc 0e bc
       -0.013084481 -0.02913725 0.034852978 -0.00871955
0000d0 d0 a8 90 bc b8 ff d7 3c 66 99 24 3c 6b f5 82 bc
       -0.017658621 0.026367053 0.010046339 -0.015986165
0000e0 5b ca 04 3d 4f 66 ad bc ab 84 52 3d 84 ac 13 3d
       0.032419544 -0.021166949 0.051396053 0.036053196
0000f0 1b 5b 93 3b f4 1d 9c 3c 49 32 35 bc 34 83 03 bd
       0.0044969446 0.019057252 -0.011059352 -0.032107547
000100 ee d4 c2 bc 2c 33 61 3c 41 5f a7 3c e0 47 ce bb
       -0.023783173 0.0137451105 0.020431163 -0.0062951893
000110 e9 19 57 bc 5f 31 9b bc ee 0a d0 bc 82 f5 a3 bc
       -0.013128736 -0.01894444 -0.025395837 -0.020014528
000120 36 8c 07 3d 72 0c 4a bd 96 fb bb 3c b8 b1 fb 3c
       0.0330927 -0.049328275 0.022947114 0.030724391
000130 9a b7 17 bc 36 30 d8 b9 f9 1f ec bb 67 ad 28 bd
       -0.009260083 -0.0004123465 -0.00720596 -0.041180994
000140 52 de 3a 3c ad 50 9a bc 34 11 b5 3c df e6 4a 3b
       0.011405544 -0.018837297 0.02210293 0.0030960364
000150 64 2c e0 bc 2a b5 68 bd 6f 54 ec 3c 08 0a 46 3d
       -0.027364917 -0.056813397 0.028848855 0.04834941
000160 8b ac 14 3d f1 41 9c 3c 46 fd 4e 3c f6 00 9c 3c
       0.036297362 0.019074412 0.012633627 0.019043427
000170 19 83 f9 3c c9 ae ad b9 1b 42 ea 3a 27 d4 51 3c
       0.03045802 -0.00033127356 0.0017872484 0.012806929
000180 18 6f d4 3c 1e 03 22 bc 77 0b f4 3c 1c 25 06 3d
       0.02593188 -0.0098884385 0.029790623 0.032750234
000190 ed 4d dd bc 44 30 45 bd 97 07 4b bc 05 84 e8 bc
       -0.027014697 -0.048141733 -0.012391946 -0.028383264
0001a0 0c 8b 5b 3d ad e4 8f bc 55 f2 00 bd a4 39 b2 3c
       0.053599402 -0.017565096 -0.031481106 0.021756
0001b0 0d 6c a2 3c 69 ae b1 3c 73 ff 3b 3d 2e 3a 5c bd
       0.019826913 0.02168961 0.045897912 -0.053766422
0001c0 78 68 d5 3c 0e 26 85 bc d5 a7 88 3c cd 43 eb bc
       0.026050791 -0.016253497 0.016681591 -0.028718853
0001d0 a3 4e 57 3d 25 9f 28 bc ac 9c 31 3c d7 43 26 bd
       0.05256523 -0.010291849 0.010840576 -0.04059204
0001e0 a5 27 98 3c 56 16 18 bd 68 7b 68 3c 5d a8 3e 3d
       0.018573591 -0.037130676 0.014189579 0.046547282
0001f0 3b db 1d 3d b3 dd cb 3c c6 15 a9 bc 8c 4c dd 3b
       0.038539153 0.024885988 -0.020640265 0.00675351
000200 10 27 0e 3c 41 03 5e bd 78 b1 c3 3c cb b5 20 bd
       0.008676305 -0.054202322 0.023888335 -0.03923587
000210 67 e6 a5 3c 3b 4a 50 3d bf d7 86 bc f0 5a 71 3c
       0.020251466 0.05085204 -0.016460298 0.014731154
000220 06 f2 5f 3d 16 f5 4c 3d 51 98 63 3d f9 63 bf bc
       0.05467417 0.05003842 0.055565182 -0.0233631
000230 39 c2 5a 3b 20 a1 54 bd 49 b8 88 39 ca 0e 56 bd
       0.0033379926 -0.051911473 0.00026077245 -0.052260198
000240 a0 f8 96 3b 92 10 84 3c 29 de 4a bd dd e4 73 bb
       0.004607275 0.016121183 -0.049528275 -0.003721527
000250 79 45 c8 bc 9f b8 0d 3d b9 d7 2f bc f0 17 b2 3c
       -0.02444719 0.034599897 -0.010732585 0.02173993
000260 31 5f 0d bd d3 ab aa 3b 71 00 04 3d 2c 6b 9f 3b
       -0.03451461 0.0052084713 0.032226983 0.004865071
000270 38 a4 76 bc a6 ec c3 bc 4b cd b8 3c 5c e9 94 3c
       -0.015053801 -0.023916554 0.022558829 0.01817768
000280 0f 89 39 3c 41 3e 1e 3d e5 40 f8 bb d3 49 97 bc
       0.011324181 0.03863359 -0.0075760954 -0.01846782
000290 f5 dc 58 3c 55 6f e0 3c 88 89 78 bd 01 45 ef bc
       0.013236274 0.027396837 -0.060678035 -0.029207708
0002a0 1e ce ed 3b f0 45 11 3d 9f bc d3 3c 10 08 21 3c
       0.007257237 0.03546709 0.025846777 0.009828582
0002b0 2e 68 55 bd c6 93 fd bc a4 81 ba 3c e1 fe fc 3b
       -0.052101307 -0.030954253 0.022766896 0.0077208136
0002c0 9d a6 ca 3c 5e f3 1a 3d ec 3c d9 3c 35 c5 ae bc
       0.02473765 0.03782975 0.026518308 -0.02133427
0002d0 32 2b e2 bc a0 2b 3b bc d3 ec fc ba 13 f4 bd bb
       -0.027608488 -0.011423975 -0.0019296653 -0.005796918
0002e0 2d 81 34 bc 53 1a 91 3b 72 b9 07 3d 28 b7 fc bc
       -0.011017126 0.004428187 0.03313584 -0.030849054
0002f0 c2 dd c0 3c fe d5 3f bd 83 b5 e1 3a fa c4 3d bd
       0.023543242 -0.04683494 0.0017220232 -0.04633043
000300 2c b6 36 3d f8 84 21 bd ea 4f c8 bc 3e 52 b4 3c
       0.044607326 -0.03943345 -0.024452168 0.022011872
000310 45 b2 93 3c 76 f1 1b 3d a2 21 71 3c 89 88 2b bd
       0.018029341 0.038072072 0.014717491 -0.041878257
000320 e1 24 0f bd e1 c8 0b 3d 08 f1 46 bd 42 a7 37 3d
       -0.03494728 0.03412712 -0.04856971 0.044837244
000330 8f d1 09 bc ba f8 14 3c 15 27 0c bb b3 17 4d bc
       -0.008411779 0.009092504 -0.00213856 -0.012517857
000340 05 54 48 bc ce 25 70 3c 03 50 0f bc 0a f9 09 3c
       -0.012227063 0.014657451 -0.008747104 0.008421192
000350 eb 34 2b 3d cd 73 93 3b 86 86 1f bd 2d e3 19 bd
       0.041798513 0.0044998885 -0.03894665 -0.037570167
000360 00 8e 03 3d d3 bf 8e 3c e4 ca 1c 3c 78 92 c9 bc
       0.032117844 0.017425453 0.009569857 -0.024605975
000370 19 a3 26 bd 2a 42 31 3d 86 a9 3f bd 7f 64 c9 bc
       -0.040682886 0.04327599 -0.04679253 -0.024584053
000380 dd 7f a7 3c 24 d3 2e 3d 28 3a fc bb 82 76 24 bd
       0.020446712 0.04268183 -0.0076973625 -0.04015208
000390 29 fd 92 3c f5 b7 9d 3b b5 07 d1 bb af 07 3c bd
       0.017942982 0.004813189 -0.0063790926 -0.045905765
0003a0 e3 85 25 3d 43 c2 00 3c 5e a3 ad 3c 06 1d 97 3c
       0.040410887 0.007858816 0.021196064 0.018446457
0003b0 81 6b 20 3d 34 98 b6 bc 80 8c 17 3a f9 26 1e bd
       0.039165024 -0.022289373 0.0005781129 -0.038611386
0003c0 60 3f 50 bd f5 8e b2 bc 58 23 9e 3c 41 cf e7 bc
       -0.05084169 -0.021796683 0.019303963 -0.028297069
0003d0 7d 76 07 3d 89 e4 06 3c 64 2c a1 bc de b1 b2 3c
       0.033071984 0.008233198 -0.019674487 0.02181333
0003e0 f5 0e 0a 3d b9 64 b2 bc 41 bd e8 3c 7d 42 f9 3c
       0.03370567 -0.021776544 0.028410556 0.030427212
0003f0 64 36 2b 3d 53 f3 e8 bc 4e b1 55 3d 9e 10 a4 3b
       0.041799918 -0.028436339 0.052171044 0.0050068637

feature_extractor.7.bias f4 [120]
000000 54 c0 a9 3c 47 bb 12 3d dc 10 a9 3c a4 d6 04 3d
       0.020721592 0.035823133 0.020637922 0.03243126
000010 f0 22 2c 3d 09 64 ff bc f5 4e 15 3d 46 18 34 ba
       0.042025506 -0.03117563 0.036452252 -0.0006870072
000020 62 5a fa bc 38 c1 80 3b 52 58 bd 3c 02 6c e4 bc
       -0.030560676 0.0039292835 0.023113403 -0.027883533
000030 67 8d 19 bd 7f f6 49 bd 28 4b da bc 7a df 24 bd
       -0.037488367 -0.049307343 -0.026647165 -0.040252186
000040 56 ae f3 3c 75 ba af bc ad 79 38 bd dd 57 ef bc
       0.029746216 -0.021451214 -0.045037914 -0.029216701
000050 f3 5f 31 bc a0 91 fc 3c 2e 45 12 3d 69 68 87 3c
       -0.010826099 0.030831158 0.035710506 0.016529279
000060 6a ae 2c 3d 9f c3 21 bd 52 f8 af bc a1 d3 14 3d
       0.04215852 -0.0394932 -0.021480713 0.036334638
000070 6d 2c 88 bc fc 9e 72 3c 63 05 51 bc a1 1a cf 3c
       -0.016622746 0.014808413 -0.012757632 0.025281252
000080 62 59 46 bd dc 91 bb 3c 21 05 e7 bc f7 a4 ea bc
       -0.048425086 0.0228967 -0.028200688 -0.028643114
000090 3b 1b 1a 3d d8 43 d3 bc 28 69 db 3b d7 e0 8a 3a
       0.037623625 -0.025789186 0.006695885 0.0010595572
0000a0 96 97 12 bd d8 08 e4 3c 11 e0 13 bd 8b 7a 91 bc
       -0.035789095 0.027836248 -0.03610236 -0.017758628
0000b0 7e a4 44 bd 60 f2 3e bc 17 a7 81 3c 3c 5d 57 3c
       -0.048008434 -0.011654466 0.015826745 0.013144787
0000c0 32 55 bf 3c 20 57 8b bc f1 e1 97 3c 4a 8b 49 bc
       0.023356054 -0.017009318 0.018540354 -0.0123012755
0000d0 3f ca 28 3d b8 c6 ef bc 09 26 3f bb 6c c6 9c 3a
       0.041208502 -0.029269561 -0.0029166958 0.001196099
0000e0 f0 0f 15 3d 96 a6 75 bc 3c 78 1e bd 9e b7 7b 3c
       0.036392152 -0.01499333 -0.038688883 0.015363602
0000f0 59 17 40 3d 66 2a 0a bd 38 d7 87 bc 92 41 6f bc
       0.046897266 -0.03373184 -0.016582116 -0.0146030355
000100 50 d6 0a 3d c9 9d e0 3b f6 36 2e bd e0 52 1e 3d
       0.03389579 0.006854747 -0.042532884 0.038653255
000110 6e 8b 5a bc 81 5f 40 bd c7 bf 41 3d 97 99 2d bc
       -0.013338907 -0.04696608 0.047302034 -0.010595701
000120 3c 1d b1 3c 49 99 28 39 5b b8 14 3d ab 98 b1 bc
       0.021620385 0.00016078832 0.036308628 -0.021679243
000130 7a 1c 74 bc 56 b7 c6 bc 6a c2 02 bd d0 ef 01 bd
       -0.0148993675 -0.024257343 -0.03192369 -0.031722844
000140 ae b5 e1 3c d0 f7 07 bd 1f 2e e0 b9 d3 57 e8 3b
       0.027552452 -0.033195317 -0.00042758972 0.0070905476
000150 f3 bf 53 3d db 1d 91 bc 38 9f 84 bc a4 39 d0 3c
       0.05169673 -0.017714432 -0.016189203 0.02541811
000160 c6 82 3a 3c 20 7f b7 3c a1 23 2b 3d 09 3b 26 bd
       0.011383718 0.022399485 0.041782025 -0.040583644
000170 f8 46 60 3c b9 65 b7 b9 6d 01 39 bd 4f bf c6 bb
       0.013688795 -0.0003498027 -0.045167375 -0.006065286
000180 7c 16 72 3c 19 cf eb 3c 22 58 28 3b 4e ff 0a bd
       0.0147758685 0.028785275 0.0025687297 -0.033934884
000190 d7 22 5b bc cb 69 30 3d 41 e9 c8 3c 1e 77 14 bd
       -0.013375006 0.043069642 0.024525287 -0.03624641
0001a0 2f 1b 5b 3c 33 11 23 bc 7e cc 2e 3c 86 e2 02 3d
       0.01337318 -0.009952831 0.010668872 0.03195431
0001b0 da cb d3 bc e5 87 05 bb 8d 9d 24 3d e9 db de bb
       -0.02585404 -0.002037519 0.040189315 -0.0068011177
0001c0 c4 a7 48 3d e5 92 70 ba 9c 62 08 3c c5 42 0d bc
       0.04898812 -0.00091771624 0.008324292 -0.008621876
0001d0 ba c9 b2 3c 6c 60 6e bc bc 73 56 3d 82 19 35 3d
       0.021824706 -0.014549356 0.052356467 0.04421378

classifier.0.weight f4 [84, 120]
000000 91 35 36 3c e5 f9 58 bd 4b 9a ca 3c fc e3 91 bb
       0.01112117 -0.052972693 0.024731776 -0.0044522267
000010 d5 b8 9c bd 52 ca 00 3d 3e db 7a bd 41 dc 2a bd
       -0.076524414 0.031442948 -0.061244242 -0.041713957
000020 7b 91 8a bd 2c c7 83 3d 25 2d 5d 3d c1 72 57 bd
       -0.067660294 0.064344734 0.05399813 -0.052599672
000030 8d 07 88 3d e8 69 8b bd 1c d7 06 3c c3 6f 7d bd
       0.06642065 -0.068073094 0.008229997 -0.061874162
000040 ca 37 74 3d 58 90 1b bd 6b 50 5d bc 2a a4 0f 3d
       0.059623517 -0.037979454 -0.013507943 0.03506867
000050 b3 eb a8 bd 2a ca 86 3d 8f f7 c0 3b 89 98 60 bd
       -0.08248081 0.065815285 0.0058888863 -0.05483297
000060 34 ae 30 3b 03 94 1f bd 7d 98 ad 3c 51 d7 60 3d
       0.0026959302 -0.038959514 0.021190876 0.05489284
000070 fc bc a4 bd b6 cc 8f 3d 44 88 c9 bc b6 d2 9b 3d
       -0.080438584 0.070214674 -0.02460111 0.07608549
000080 de 88 b7 3b 96 ee 1b 3d 65 99 31 bd e6 26 94 3c
       0.0056010326 0.03806933 -0.04335918 0.018084954
000090 e7 a7 d6 ba c7 6c 98 bc fa 85 2d bd 38 04 25 3b
       -0.0016376943 -0.018606557 -0.042364098 0.0025179517
0000a0 f3 15 bf bd 1c 5a 57 bd 5b 92 de bc ff 80 14 3b
       -0.09330358 -0.05257617 -0.027169397 0.0022659895
0000b0 f2 a6 76 bd b7 68 31 bd 06 64 67 3c 3e 56 63 3b
       -0.060217805 -0.043312754 0.014122969 0.0034688856
0000c0 dd aa 79 3c a4 ec 48 bd 41 7a 97 3d 94 87 ba bc
       0.015238491 -0.049053803 0.07396365 -0.022769727
0000d0 40 4b a4 bd e4 ec 5d 3d 43 4a 22 3c 11 8a 99 bb
       -0.08022165 0.054180995 0.009905401 -0.0046856483
0000e0 0c 61 a8 bd 00 51 41 bd 18 f8 48 3d 18 68 7a bc
       -0.08221635 -0.04719639 0.049064726 -0.015283607
0000f0 51 8a 63 bd 61 41 8c 3d 84 89 97 bd fd b1 8d 3d
       -0.05555183 0.068484075 -0.07399276 0.06918714
000100 07 e7 fb bc e3 03 1d 3d 61 1e 3f 3c 81 24 d0 3d
       -0.03074981 0.038333785 0.011664958 0.101632126
000110 dd cb f7 3c 2f 9b c9 bb 3f d8 af 3d 70 be 94 bd
       0.030248577 -0.0061525325 0.085861675 -0.072628856
000120 38 b3 74 3c 48 58 f2 3c 09 b0 55 bd 02 16 53 bd
       0.014935307 0.029583111 -0.052169833 -0.05153466
000130 ed 5b 38 bd df d7 43 bd d2 d0 49 bc 31 bc 66 bd
       -0.045009542 -0.047813293 -0.012317853 -0.056331817
000140 c7 e0 89 3d 64 2b 11 bb 33 58 c2 3d bb c3 91 3c
       0.06732326 -0.0022151107 0.09489479 0.017793527
000150 c7 f3 86 bb ff 59 02 3c 88 ed 2d bd a7 61 1b bd
       -0.004118416 0.007956027 -0.042462856 -0.037934925
000160 c3 61 19 3d 53 73 3e bc 84 72 1d 3c a5 2a fc bb
       0.03744675 -0.011624175 0.009609822 -0.0076955133
000170 23 75 bc 3d 56 cb c9 bd 98 38 72 bd 33 b1 42 bd
       0.092020296 -0.098532364 -0.059136003 -0.04753227
000180 c4 ee e6 bc f6 dc 92 3d 60 b7 7d 3d 7e 29 67 bd
       -0.028190024 0.07171051 0.06194246 -0.056436054
000190 29 2c e4 bc 48 78 d0 3d 43 f1 93 bd 43 52 1a 3c
       -0.027853088 0.10179192 -0.072237514 0.009419027
0001a0 9c 02 14 3d 21 da 2e 3d 81 c0 c7 3d 1d a9 73 3d
       0.0361353 0.042688493 0.09753514 0.05948745
0001b0 b4 b1 74 3c cf 17 b5 bd 80 c6 25 bd b9 75 80 bc
       0.014934946 -0.08842432 -0.040472507 -0.015681135
0001c0 ab 39 88 bd 39 60 1f bd 25 37 fe 3b 48 00 11 bd
       -0.06651624 -0.038910124 0.0077580386 -0.03540066
0001d0 4a 34 66 3c c1 02 19 3d 38 c7 7d 3d 6e 2a 8f bd
       0.014050553 0.037356142 0.061957568 -0.06990515
0001e0 b9 b6 a5 3d 98 0c 15 3d d9 46 f6 3b e4 ba d5 bc
       0.08091492 0.036388963 0.00751577 -0.026090093
0001f0 64 c8 e2 bc 1b ae 78 3b 93 6b 3d bc 88 2c b1 bd
       -0.027683444 0.0037945572 -0.011561292 -0.08651072
000200 41 e9 6c 3c 57 3c 76 bd d4 ea 9d bd dc 70 5c 3d
       0.014459909 -0.06011614 -0.077108055 0.05381857
000210 c6 1c 80 bc 44 17 c4 bc 19 47 4c bc b5 75 1e bd
       -0.01563872 -0.023936875 -0.012468123 -0.038686473
000220 ba b2 41 3d 9b 72 52 bb cc e1 25 bd b8 5f ad 3d
       0.047289588 -0.0032111767 -0.04049854 0.084655225
000230 3f 74 87 3d bd e5 8b 3d 9d c0 b9 bd 4f 38 92 3c
       0.06613969 0.068309285 -0.09069941 0.017849116
000240 d7 0f 8c 3b 3c dc a0 3d 3a 34 c9 3c 6f 0a 96 3c
       0.004274349 0.078545064 0.024561036 0.018315522
000250 28 0d 74 3d af 56 22 3d 1c a5 a7 bd 97 3c b4 bd
       0.05958286 0.03963345 -0.08185789 -0.08800619
000260 25 8e 4e bd b5 41 a2 bc 03 6e b3 3c 65 1d 6b 3d
       -0.05042853 -0.019806722 0.021903044 0.05740108
000270 c6 50 a8 bd 12 9d 60 bc b8 4e 92 bd 42 48 a1 3d
       -0.08218531 -0.0137093235 -0.07143921 0.0787511
000280 c8 91 6c 3d 52 be 56 3d 42 72 29 bc af d3 6b bd
       0.057756215 0.052427597 -0.010342183 -0.057574924
000290 d1 f2 3b bd c1 5f a1 ba 9a 57 0d 3a 08 e7 e4 ba
       -0.045885865 -0.0012311862 0.0005391777 -0.0017463872
0002a0 44 da 9f 3d f5 ed 41 bd b7 d4 8d 3d 9a 4c 25 3d
       0.07805303 -0.047346074 0.06925338 0.040356256
0002b0 11 b0 92 bd 11 ec 29 bd be da 62 bd a7 33 6b 37
       -0.07162488 -0.041484896 -0.05538439 1.4019118e-05
0002c0 92 2b 46 3d 3e 5d 54 3d 33 c0 9c bc 98 a8 a0 3d
       0.048381396 0.051846735 -0.019134616 0.07844657
0002d0 af fd 2f 3d 0e 41 6a 3c 18 40 97 bd 05 36 9e bd
       0.04296654 0.014297737 -0.07385272 -0.07725147
0002e0 af 21 69 3d 8d 47 47 3d 20 94 33 bd 25 94 8b bd
       0.05691689 0.04865222 -0.043842435 -0.06815366
0002f0 e7 97 8f 3b ce 82 aa bd 73 4d 7b 3d b1 27 44 3d
       0.004382122 -0.0832573 0.06135316 0.047889415
000300 86 e6 ce 3c d2 ea 85 bd d5 06 60 bc db dd 3b bd
       0.025256407 -0.06538929 -0.013673504 -0.045865875
000310 d8 4a 39 3d 69 ca b1 3d a7 bf 43 3b 17 27 c0 bc
       0.045237392 0.08681185 0.0029868872 -0.02345614
000320 cc 8f 80 3d d9 b5 ad bc d4 82 2d bd 3d 75 9c bd
       0.06277427 -0.021204876 -0.042361096 -0.07639549
000330 a7 f6 49 3c 3d 54 93 3d 95 5e 68 3d 23 f8 02 3d
       0.012326873 0.071938016 0.056730825 0.031974923
000340 ae 33 80 3d a8 fa 94 bd 2f 23 b6 3d 50 89 f3 bc
       0.06259857 -0.072743714 0.088934295 -0.029728562
000350 ec ec b4 bd 32 23 29 3d 51 c1 b7 3c 08 cb 9c bc
       -0.08834252 0.04129333 0.022431048 -0.019139782
000360 d6 3d b1 bd f0 03 81 3a da 1d 3b bd f0 dd 5f bd
       -0.086543724 0.0009843092 -0.045682766 -0.054655015
000370 10 39 a7 3d 84 51 2e 3d 14 39 a3 bd 43 a7 20 bd
       0.08165181 0.042558208 -0.07969871 -0.039222013
000380 38 5b 35 bd cc 18 a8 bd b5 a3 95 bd b7 83 b9 3d
       -0.044276446 -0.08207855 -0.07306615 0.09058326
000390 32 f3 c7 3b 23 80 97 3d 55 79 79 3c 22 0a b4 3d
       0.006101989 0.07397487 0.015226682 0.08790995
0003a0 dd 23 62 bd f1 62 bc 3c 80 d4 39 bd 36 a8 04 3d
       -0.055209983 0.022996398 -0.04536867 0.03238698
0003b0 5d 06 90 3d fb 4a 8c 3d 90 b9 7b bd 1f 5b 68 bb
       0.07032464 0.06850239 -0.061456263 -0.0035454703
0003c0 f5 84 5b 3c 6c 7d d2 3c d2 be 11 bd cd 91 f6 3c
       0.013398399 0.025694571 -0.03558237 0.03009882
0003d0 3d a1 92 bd a8 ee 0c bd ee 51 ab bc cf 21 8d bc
       -0.0715966 -0.034407288 -0.02091309 -0.017228035
0003e0 b2 b3 96 bd 2e 6e 76 3d 01 de 64 bc d9 12 32 3d
       -0.07358493 0.06016367 -0.0139689455 0.043475006
0003f0 b0 c9 37 bb 7f 20 a5 3b 45 bf aa 3d 19 44 8c 3d
       -0.00280438 0.005039274 0.08337263 0.06848926

classifier.0.bias f4 [84]
000000 c3 84 00 bc dd ce b0 bd 82 5c 30 3d 5e 9f ae 3d
       -0.007844153 -0.08633206 0.043056972 0.08526491
000010 46 db b1 3c 43 d0 27 3d be 45 a2 3d 36 fd 5e 3d
       0.021711003 0.0409701 0.079234585 0.0544407
000020 e0 2c 25 bd 84 69 42 3d 38 00 9b bd 79 1c ba 3d
       -0.040326 0.04746391 -0.07568401 0.09087462
000030 ce f0 7a 3d f2 06 46 bd 6b 27 dd bc 63 b4 66 bd
       0.061264805 -0.048346467 -0.026996335 -0.056324374
000040 49 d7 12 bd a6 a9 6b bd ec 12 ac bd a1 f1 58 bc
       -0.035849843 -0.057534836 -0.084020466 -0.013241203
000050 79 e9 18 3d f5 45 66 3d c6 7d f4 bc d7 c2 8a bd
       0.037332032 0.05621906 -0.02984513 -0.06775444
000060 80 4c 5d 3d 77 22 56 3b 96 0a ae ba b4 f0 40 3d
       0.054028034 0.0032674351 -0.0013278301 0.047104552
000070 64 9f d3 bc 9c 81 30 3d b7 f2 fe 3c 0e 63 65 bc
       -0.02583284 0.043092355 0.031121595 -0.014000667
000080 26 02 d7 3a bd 1c c5 bc ee 6c 24 bd 41 91 c2 bb
       0.0016403839 -0.024061555 -0.040142946 -0.005937726
000090 92 9e 9a bd 93 b6 91 bd 26 9a 37 3a d4 3c b1 bd
       -0.07549776 -0.071149014 0.0007003866 -0.0865418
0000a0 66 2f 1e bc 76 08 a7 bd f7 1c f8 3c 0c b5 89 3c
       -0.009654855 -0.08155911 0.030287249 0.016809963
0000b0 2b 78 2c bd 98 c2 96 ba 09 79 34 3d 44 2a 9e bd
       -0.04210679 -0.0011502085 0.04406074 -0.07722905
0000c0 e0 96 9c bd 45 0b b6 3c 68 25 c5 3c 8d 3b 3a 3d
       -0.076459646 0.02222217 0.024065688 0.04546695
0000d0 80 c7 4e 3c 5f 8c b9 bd c7 a8 4e bd 2b 1a 73 38
       0.012620807 -0.09059977 -0.050453927 5.7960086e-05
0000e0 fd 35 34 bd a8 b8 0c bd 34 93 a6 3c ec 39 57 bd
       -0.0439968 -0.03435579 0.020333864 -0.052545473
0000f0 28 f7 28 3c aa 8c c9 3d 7c 43 b4 3d e9 e7 3d bc
       0.010312833 0.09841283 0.08801934 -0.011590936
000100 41 dd 6c 3d 64 d1 98 bd 82 88 50 3d cf 2d 3f 3c
       0.05782819 -0.07461813 0.050911434 0.011668636
000110 c7 0a a6 3d 2b 77 85 3d 98 b8 ac bd 6f 76 ac 3d
       0.08107524 0.0651687 -0.08433646 0.08421027
000120 a4 2e 88 3d 80 40 9c 3d 50 6e 5b 3d d5 2b 37 bd
       0.06649521 0.0762949 0.053572 -0.044719536
000130 32 bf 75 bb 6e 70 a0 bb 16 ba 2e 3d e4 34 36 3d
       -0.0037497994 -0.004896215 0.042657934 0.044484034
000140 a8 2d 1b bd 4c fb a2 bc 98 53 1b bd 7a 8a 4a 3b
       -0.037885338 -0.019895218 -0.037921518 0.0030905292

classifier.2.weight f4 [10, 84]
000000 b4 ca d6 bd 66 52 b1 bd a7 26 b4 3d fe e1 de bc
       -0.10487881 -0.086582944 0.08796435 -0.02720737
000010 5e 23 1e 3c b5 96 3d bd 52 82 91 3b e0 35 e3 3c
       0.009651987 -0.046286304 0.004440584 0.02773565
000020 f0 2f a6 bd 92 cc d0 3d b0 cd a5 bd 86 a7 c2 bc
       -0.08114612 0.10195269 -0.080958724 -0.023761522
000030 65 02 4c 3d 7c 5c dd bd 8d 4b b2 3d 88 39 c6 3d
       0.04980697 -0.108086556 0.087058164 0.09678942
000040 52 a9 37 be 76 ea 9c bc 11 7b b3 bd 8b a2 2b 3e
       -0.17935684 -0.019154768 -0.087637074 0.16761224
000050 62 e5 fe bd 43 de 1e be 75 fd 9c bd 87 69 81 3d
       -0.12446095 -0.15514474 -0.076655306 0.06318956
000060 2d 7f b1 3c 78 84 e6 bd 30 49 e6 bc 5c 70 8f bd
       0.021667087 -0.11255735 -0.02811107 -0.07003853
000070 3f 0a 1a 3e 71 69 da bd 2b 5e d6 3c 29 4b 6e 3d
       0.15042971 -0.106646426 0.02616795 0.058177147
000080 a1 be 2c be 6a 2c db 3c d7 1b 36 bc f7 ad b9 3c
       -0.16869594 0.026754577 -0.011115036 0.02266596
000090 e9 d2 6c bd a2 19 07 be dc 2b 8a bb ab d3 70 bc
       -0.057818327 -0.13193372 -0.004216654 -0.014698903
0000a0 3b da 28 bd 85 89 23 3e 98 8d 85 bd 9c b8 c5 bd
       -0.041223746 0.15970428 -0.065211475 -0.09654352
0000b0 0e 3e d4 3c 5c c2 da bd 8d c5 d8 3d 3a 92 3f 3e
       0.025908496 -0.10681602 0.10584555 0.18708125
0000c0 95 96 03 3e 34 94 b4 3d d5 79 4c be 57 47 17 3d
       0.12850411 0.0881733 -0.1996835 0.03693327
0000d0 92 49 1b be ca af 23 bd 24 e8 bb bd aa 32 b1 bd
       -0.15164784 -0.039962567 -0.09175137 -0.086522415
0000e0 e4 d0 91 3d 03 a4 98 3d 87 2b 39 3d df 05 42 3d
       0.07119921 0.07453158 0.045207527 0.04736888
0000f0 f4 2e 32 3e 72 0c 66 3d f6 46 a2 bd f8 5b a1 3d
       0.17400724 0.056164213 -0.07923691 0.0787887
000100 a7 19 1c bd 30 3a 10 bc 30 65 4c 3d d4 45 37 3c
       -0.0381104 -0.0088029355 0.049901187 0.011186082
000110 5b 22 94 3d 6e 96 c5 bc 49 1c 6d bd d6 1e a8 3c
       0.07233115 -0.024119582 -0.057888303 0.020522516
000120 10 ad be 3d e3 a2 1e be cb f4 0e be 85 3f fe 3c
       0.09310353 -0.15491824 -0.13960569 0.031036148
000130 48 59 74 3d c4 dc aa 3c eb e5 17 be 04 8b 08 be
       0.059655458 0.020857222 -0.148338 -0.1333428
000140 d6 15 9f ba bf 97 13 3d b3 90 35 be 79 97 d9 3d
       -0.0012137245 0.03603339 -0.1773098 0.10624594
000150 f2 f0 e0 bd b9 a6 0b 3d 43 6d ca bc 55 32 c7 bd
       -0.10983457 0.034094546 -0.024710303 -0.09726397
000160 e2 8d cb 3c 3d 26 52 3c d2 95 d1 3d 26 0d 18 3e
       0.024847928 0.0128264995 0.10233654 0.14848766
000170 ca a1 43 3e 69 8d 02 3e b3 81 16 be 0b 0f 1b 3e
       0.19104686 0.12749256 -0.14697914 0.15142457
000180 64 71 44 3e 7d e1 9b bd 8a 3d ff 3d 22 20 6d be
       0.1918388 -0.07611368 0.124629095 -0.23156789
000190 66 bc 02 be 78 96 d3 3d d7 04 ec 3d c7 ef 83 3c
       -0.12767181 0.10331434 0.115243606 0.016105546
0001a0 64 1f c2 bd e0 dc 15 b9 4e 53 a8 3d 48 d2 df 3c
       -0.094786435 -0.0001429203 0.08219014 0.02732195
0001b0 21 8e a3 3d 89 cb 2c bd 5a a2 ae 3d ab fb 26 bd
       0.07986093 -0.042186294 0.0852706 -0.040767353
0001c0 d5 c1 54 3d 8e 41 27 3d 29 d2 0a be 2c b0 c5 3d
       0.051942665 0.040834002 -0.13556732 0.09652743
0001d0 49 93 be 3d b5 75 fc bd ae 06 f6 bb c8 b8 cb 3d
       0.09305436 -0.12327138 -0.0075081205 0.099473536
0001e0 27 88 a1 3d 7c c8 f1 3d 21 17 9c 3d b0 e2 2a bd
       0.07887297 0.118058175 0.07621599 -0.041720092
0001f0 b5 9d 29 3d 86 e5 ca bd ec 93 40 bc b6 dd 72 bd
       0.041410167 -0.09907059 -0.011754017 -0.05929347
000200 23 69 80 bd b8 f5 3c 3e 54 9e c0 bd ed ab 23 3e
       -0.06270053 0.1845311 -0.09405199 0.15983553
000210 17 09 e4 3d c1 58 8f 3d 8d 02 fc 3d 08 47 df bd
       0.11134546 0.0699935 0.12305174 -0.1090222
000220 ed 0e bf 3d 30 ca a8 bc 29 f4 de bd 42 e0 23 bc
       0.09329019 -0.020604223 -0.108864136 -0.010002198
000230 43 96 db 3c 1c 81 b5 bd f0 79 69 bd a6 5d be 3d
       0.026805049 -0.08862516 -0.057001054 0.09295206
000240 39 0c 8e bd 51 49 e2 3d 03 70 ba bd 8a 10 f0 bd
       -0.06935925 0.1104914 -0.09103396 -0.117219046
000250 03 7f ca 3d a9 86 cd 3d fc 31 03 3e c4 a4 f3 3d
       0.09887507 0.1003545 0.12812036 0.11896661
000260 36 88 1d 3e b5 e2 82 3d 78 7e 11 3c 55 eb cf 3c
       0.15383992 0.06390897 0.00888025 0.02538077
000270 e1 0a 8c 3d 18 68 8f 3d 97 e3 80 bd fd 32 72 3d
       0.068380125 0.07002276 -0.06293409 0.059130657
000280 ae a5 a7 bd f9 47 dc bd 60 c2 da 3c b2 38 f1 3d
       -0.08185898 -0.10755915 0.026704013 0.11778392
000290 32 83 51 3c 4c 6d 03 3e bb c4 b8 bd 28 60 1a be
       0.012787627 0.12834662 -0.09021898 -0.15075743
0002a0 11 9e c6 bc d7 cb c9 bd 3b da 01 3e 3b 2d 29 be
       -0.024245294 -0.098533325 0.12680905 -0.1652116
0002b0 2e 1f f5 3d df a8 07 3e 40 e2 c0 3d 22 09 c6 3d
       0.11968838 0.13248013 0.09418154 0.09669711
0002c0 77 e1 b9 3b 9e a1 2a bc b6 c3 0b 3e d4 a6 a7 bd
       0.0056726295 -0.010414509 0.13648877 -0.08186117
0002d0 23 9d 01 bd 9b 53 91 3d 3c 6e d9 bd f1 7a 1d 3d
       -0.031643998 0.070960246 -0.10616729 0.038447324
0002e0 10 f3 09 3e 83 89 42 3d a0 91 c2 bd 9b 6e b1 bc
       0.13471627 0.047494423 -0.09500432 -0.021659186
0002f0 14 14 2f be a4 ed 82 3d ca cc 0a 3e 6b 35 d9 3d
       -0.17097503 0.063929826 0.13554683 0.10605892
000300 e8 8f 9d 3b d5 a7 99 3d d4 95 da 3d d0 3c 3d 3e
       0.0048084147 0.075027145 0.10673109 0.1848023
000310 d1 0a dc 39 09 a2 e2 3d 09 2a a9 bd a0 c2 3c 3d
       0.0004196973 0.11066062 -0.08259971 0.046084046
000320 63 a0 0a be 49 09 b6 bd 4a 5c f4 bd eb ac 58 bd
       -0.13537745 -0.0888849 -0.11931665 -0.052899282
000330 83 8d ac bc da 8f a7 bd bf 9f 3f be 6d de 9e 3d
       -0.021063572 -0.081817344 -0.18713282 0.07757268
000340 27 aa 94 bc 2f 09 1b 3d 4c 7b 21 3e d8 f8 fd 3d
       -0.018147541 0.037850555 0.1576969 0.12400979
000350 75 03 1b be c1 40 79 bd 15 48 67 bd c7 71 0c 3d
       -0.15138038 -0.06085277 -0.056465227 0.034288194
000360 50 21 72 3c 98 3e 20 3c fe 90 cc 3c bf 5f 3c 3e
       0.01477845 0.0097805485 0.024971481 0.18395899
000370 68 9e 53 3d 25 b4 c2 3d 13 46 2d be f6 ae 45 3c
       0.05166474 0.09507016 -0.16921262 0.01206564
000380 e8 6d 69 3d f4 58 9d 3d 2a c1 eb bd 68 3f 29 bd
       0.05698958 0.07682982 -0.115114525 -0.041320235
000390 69 29 aa 3d c2 a6 34 3d 8c b0 2f be 3a bb 17 be
       0.083086796 0.044104345 -0.17157191 -0.14817515
0003a0 5f 27 4d bd 58 a4 42 bd 56 7b f9 bd 0e 0c cf bd
       -0.050086375 -0.04752001 -0.121817276 -0.10109721
0003b0 b9 7c 46 3e a2 68 35 bd 17 8c 5d 3d e6 b8 d7 3d
       0.19383515 -0.04428924 0.05408868 0.105333135
0003c0 a8 90 04 3c 0d 2f 37 bc 3a e4 05 3e 64 9f 0a 3e
       0.008091129 -0.011180651 0.13075343 0.13537365
0003d0 e3 63 87 3c 6b a3 c1 bc 3c 2f f1 3c a2 08 d1 bc
       0.016527122 -0.023637494 0.029441468 -0.025516812
0003e0 95 90 cc bd 16 53 4c bd 1a ac 0b 3e 71 a6 13 be
       -0.09988514 -0.049883924 0.1363987 -0.14418961
0003f0 fe 94 c7 3d 06 b9 22 bb 6f 9b 69 3c 06 32 d8 bd
       0.09745215 -0.002482952 0.01425825 -0.10556416

classifier.2.bias f4 [10]
000000 c7 80 9b bc 73 67 2a bc f8 e8 d4 bc 9f ea be 3c
       -0.018982304 -0.010400641 -0.025989994 0.023305235
000010 8f af 0f bd 7e 6f 79 3d d9 54 5d 3d 0b 3f f4 bc
       -0.035079535 0.060897343 0.054035995 -0.029815217
000020 1d be 89 bd 57 9a 66 3d
       -0.06725714 0.056299534
