checkpoints/noise_rate_0.2/models/tsf/epoch164.pth (torch, 250639 bytes, 10 tensors)

feature_extractor.0.weight f4 [6, 1, 5, 5]
0.14303301 -0.05043079 -0.031792264 0.07324743 -0.21548034 0.18726268 0.03896827 0.17072849
0.07029563 0.00096471136 0.110177346 0.09477223 0.16846362 0.008290104 0.055873226 -0.03203641
0.043167934 0.041309025 0.23923017 0.14452948 -0.13568182 -0.1760834 -0.06519899 -0.07674624
-0.017077498 0.106706604 0.26465243 0.1915314 -0.22079352 0.047679227 0.1664426 0.35093486
0.19920054 -0.2466207 -0.28405643 0.0265864 0.3436638 0.05025842 0.057303123 -0.14112684
0.2862325 0.052476227 0.26364982 0.053273078 -0.07495261 0.1457291 -0.019106198 0.18271059
0.054122526 0.08555417 -0.25339288 -0.14704286 0.060111664 -0.038584262 0.2515687 0.146717
-0.0013876192 -0.08524179 0.22734025 0.17039491 -0.07564857 0.20592777 0.2324329 0.29620913
-0.040143814 0.06409422 0.09331219 0.11716413 -0.10337785 -0.13762994 0.1954065 0.030831154
0.14902301 0.022005448 0.04514632 0.039084367 0.08919775 0.11205983 -0.18441226 0.10203846
-0.15322122 -0.14698787 0.030452149 0.004875564 0.18468887 -0.12952669 -0.16949733 0.1944235
0.05124291 0.20461607 0.06387844 -0.12250437 0.104794264 0.12321445 -0.0814555 -0.089064844
0.101754084 0.08442549 -0.04754676 -0.05399188 0.24037722 0.10651189 0.25111562 0.1701097
-0.12290908 -0.06747268 0.4546702 0.28155768 0.29132718 0.10974294 0.28512302 0.5206974
0.49363205 0.026167637 0.11077909 0.3765853 0.44395667 0.3530379 -0.013034482 -0.043900415
-0.0024298644 0.15704638 0.30360797 -0.02059483 0.21973877 -0.11211699 -0.15409553 0.02570937
0.24474008 0.30325747 -0.074132 0.16565885 0.38482642 0.4043994 0.31954437 0.25274622
0.29248032 0.2971644 0.14039148 0.02201567 -0.013767267 0.08081344 0.042465147 0.28163448
0.22409698 -0.026539866 0.10022251 0.13328068 0.24118708 0.24364932
00000000: 3f77 123e 8490 4ebd 9b38 02bd c002 963d
00000010: e1a6 5cbe cac1 3f3e 319d 1f3d 73d3 2e3e
00000020: 28f7 8f3d afe4 7c3a a9a4 e13d f117 c23d
00000030: ba81 2c3e 37d3 073c 53db 643d 9c38 03bd
00000040: dcd0 303d a733 293d c1f8 743e 89ff 133e
00000050: 2df0 0abe 354f 34be 0c87 85bd 222d 9dbd
00000060: 1ce6 8bbc fe88 da3d 8680 873e cf20 443e
00000070: b217 62be 4b4b 433d ee6f 2a3e bcad b33e
00000080: 3afb 4b3e 238a 7cbe d86f 91be b9cb d93c
00000090: b4f4 af3e c6db 4d3d aeb6 6a3d 8e83 10be
000000a0: 118d 923e 50f1 563d 1cfd 863e df34 5a3d
000000b0: c180 99bd 023a 153e 9a84 9cbc 7c18 3b3e
000000c0: 95af 5d3d 0637 af3d b6bc 81be 6792 16be
000000d0: a637 763d 880a 1ebd 9dcd 803e fb3c 163e
000000e0: c6e0 b5ba 3f93 aebd e2cb 683e 017c 2e3e
000000f0: a3ed 9abd bbde 523e e402 6e3e b9a8 973e
00000100: d76d 24bd d543 833d 761a bf3d bff3 ef3d
00000110: c4b7 d3bd ddee 0cbe a418 483e 9e91 fc3c
00000120: 7d99 183e c544 b43c 59eb 383d ee16 203d
00000130: 4fad b63d a07f e53d 91d6 3cbe 8af9 d03d
00000140: 06e6 1cbe fd83 16be c976 f93c 32c3 9f3b
00000150: 141f 3d3e a5a2 04be b590 2dbe f416 473e
00000160: 16e4 513d e086 513e b3d2 823d 92e3 fabd
00000170: 609e d63d dc57 fc3d 24d2 a6bd a167 b6bd
00000180: 7264 d03d 45e7 ac3d 64c0 42bd 9726 5dbd
00000190: 7225 763e e822 da3d 3a92 803e 3d31 2e3e
000001a0: c1b7 fbbd 1e2f 8abd 88ca e83e 5428 903e
000001b0: d628 953e e8c0 e03d a5fb 913e 6d4c 053f
000001c0: 57bd fc3e 835d d63c 26e0 e23d cacf c03e
000001d0: 4a4e e33e 62c1 b43e 948e 55bc ecd0 33bd
000001e0: 5c3e 1fbb c4d0 203e 8172 9b3e 7db6 a8bc
000001f0: 3303 613e 989d e5bd 38cb 1dbe 759c d23c
00000200: 259d 7a3e 9044 9b3e 85d2 97bd 79a2 293e
00000210: f807 c53e 700d cf3e 529b a33e f467 813e
00000220: fbbf 953e ef25 983e c9c2 0f3e 355a b43c
00000230: 1a90 61bc 8481 a53d efef 2d3d 6532 903e
00000240: ae79 653e 226a d9bc 7641 cd3d bb7a 083e
00000250: bff9 763e 357f 793e

feature_extractor.0.bias f4 [6]
-0.036892444 0.2409409 0.018087303 0.026303526 -0.049372032 0.017413933
00000000: 881c 17bd 36b9 763e d32b 943c 7e7a d73c
00000010: 543a 4abd aaa7 8e3c

feature_extractor.3.weight f4 [16, 6, 5, 5]
-0.036030736 -0.029583458 0.058660295 -0.02439778 -0.05392003 0.05055397 0.04635949 0.067115635
-0.0360215 0.023939352 -0.03207763 -0.011104062 -0.06783644 -0.045326367 -0.031116795 0.032681827
0.018306931 0.013628733 0.06938448 0.07262017 0.057267033 0.0051844423 -0.06740229 0.052357774
-0.017415863 -0.01465221 -0.047535423 0.024418378 -0.04295964 0.06594959 -0.09801876 -0.03178616
0.0366729 -0.04670697 0.012607992 -0.05192774 -0.018432975 0.039153222 0.041804075 -0.08112895
0.03271359 0.091405146 0.09977065 -0.087054506 -0.0059587467 -0.07641606 0.095436275 -0.011314131
0.011443651 -0.011226553 -0.008810134 0.006546374 0.011221848 0.033621185 0.01286344 0.030417407
-0.058862317 0.058313422 0.066475414 0.07113217 0.07016389 -0.039493233 -0.04142029 0.04990255
-0.06724115 0.08749952 -0.07127058 -0.077567875 0.013821443 -0.06078902 -0.015787978 0.06262122
0.045960218 0.069571674 -0.011316821 -0.06721336 0.07778862 -0.02270568 -0.03866477 0.02071289
-0.05313239 0.05494287 0.043306302 -0.07374429 -0.06507627 0.0044959206 0.03155226 -0.011180294
-0.050223988 0.0036597971 -0.07425375 -0.056751247 -0.06815341 0.06421627 0.075592734 -0.028580993
0.0041414015 0.029184923 0.012221993 -0.037108097 0.046609536 0.09593159 0.047049526 -0.0058048926
0.08486206 0.076772206 0.020666424 0.15167254 0.01466116 -0.055739984 0.06483737 -0.00916743
0.11240474 -0.098123364 -0.016502991 0.024493227 0.069029994 0.045388956 -0.10162243 -0.06839514
-0.08288728 0.019024245 -0.02882164 -0.04498992 -0.016411113 0.06673253 0.120554924 0.029284948
-0.03151903 -0.020226652 -0.031027468 0.11820685 -0.016917309 0.012698195 0.02764584 -0.02217506
0.08450323 0.020330127 -0.030217709 -0.04537387 5.815736e-05 -0.004009125 -0.1003076 -0.08510284
-0.009387909 0.00501956 0.031706866 -0.066777386 -0.027300924 -0.014901747 -0.07568634 0.08139182
0.030580154 0.08393605 0.0044920817 -0.020818198 -0.06038448 -0.0001370343 0.0690957 -0.07763627
-0.029046817 0.05684548 0.06035692 0.04157643 -0.014656616 -0.026978867 -0.043072797 -0.044827916
0.051347233 0.00090335554 -0.032404713 0.02549002 -0.050807644 0.0067294897 0.06733261 0.014002509
0.07890947 -0.04606957 0.018737016 -0.016468983 -0.04529472 -0.02693547 0.07238923 0.05070812
-0.04915482 -0.04614102 -0.07643278 0.099637255 0.01315953 0.0030811816 -0.019110238 -0.061239123
-0.088140465 -0.020690333 0.093246125 0.022302078 -0.034523513 -0.0028882057 0.07358489 0.084494196
0.07475441 0.023998896 0.05796906 0.012004557 -0.057266552 -0.06765036 0.07750847 0.0030488141
0.018932099 -0.0017257163 -0.054178096 -0.031386353 0.0065257894 -0.026615063 -0.06619503 0.009114739
-0.0035340236 0.0040751006 0.069211416 0.039294217 -0.021096438 0.12728624 0.11431968 0.03211371
-0.015999869 -0.06831273 0.07239361 -0.012267528 -0.05974086 0.055632558 0.045731433 0.04464087
-0.012944192 -0.038255423 0.017016318 0.070582695 0.010618609 -0.030691348 0.08664337 0.0032617948
0.05924919 0.034451637 0.10998935 0.06980392 -0.041599512 0.073742226 0.0228257 -0.057825357
-0.028861824 -0.07668066 -0.080854334 -0.0783413 0.070956804 0.0058905086 -0.019235604 0.04770756
00000000: f794 13bd 0259 f2bc c745 703d dadd c7bc
00000010: 40db 5cbd ae11 4f3d 73e3 3d3d ec73 893d
00000020: 488b 13bd 761c c43c d563 03bd d0ed 35bc
00000030: d5ed 8abd 24a8 39bd a6e8 febc 61dd 053d
00000040: 6bf8 953c 0d4b 5f3c 7319 8e3d e2b9 943d
00000050: d690 6a3d 41e2 a93b 360a 8abd 1b75 563d
00000060: b6ab 8ebc d30f 70bc 81b4 42bd 0d09 c83c
00000070: 73f6 2fbd 9410 873d 0fbe c8bd 3432 02bd
00000080: 5336 163d cf4f 3fbd c091 4e3c 2fb2 54bd
00000090: c000 97bc 215f 203d c03a 2b3d ef26 a6bd
000000a0: affe 053d 9f32 bb3d 8e54 cc3d a249 b2bd
000000b0: 9741 c3bb 0680 9cbd 1874 c33d e85e 39bc
000000c0: 277e 3b3c 93ef 37bc 6158 10bc f782 d63b
000000d0: d8db 373c 5eb6 093d 2ec1 523c ed2d f93c
000000e0: 9d19 71bd 0eda 6e3d 4324 883d bead 913d
000000f0: 16b2 8f3d a8c3 21bd 52a8 29bd 9e66 4c3d
00000100: bab5 89bd f332 b33d 4ff6 91bd e8db 9ebd
00000110: 5573 623c e8fd 78bd ca55 81bc 8e3f 803d
00000120: c840 3c3d 987b 8e3d 306a 39bc 28a7 89bd
00000130: a44f 9f3d 4301 babc f35e 1ebd 14ae a93c
00000140: 59a1 59bd c60b 613d f361 313d 3f07 97bd
00000150: b546 85bd 8452 933b f13c 013d 8d2d 37bc
00000160: abb7 4dbd 35d9 6f3b 5a12 98bd ff73 68bd
00000170: 0494 8bbd d283 833d 5dd0 9a3d b022 eabc
00000180: 98b4 873b 3815 ef3c c13e 483c a9fe 17bd
00000190: a4e9 3e3d c877 c43d 01b7 403d f836 bebb
000001a0: 29cc ad3d bf3a 9d3d a24c a93c 0c50 1b3e
000001b0: 5d35 703c 9c4f 64bd 74c9 843d fd32 16bc
000001c0: 7534 e63d e7f4 c8bd 4831 87bc 05a6 c83c
000001d0: 995f 8d3d c5e9 393d 6c1f d0bd c012 8cbd
000001e0: cec0 a9bd bcd8 9b3c 5c1b ecbc 5a47 38bd
000001f0: 9970 86bc 11ab 883d 80e5 f63d fde6 ef3c
00000200: 191a 01bd 5db2 a5bc 512d febc 6f16 f23d
00000210: 2b96 8abc 170c 503c 8779 e23c 79a8 b5bc
00000220: 0810 ad3d 5e8b a63c 218b f7bc f3d9 39bd
00000230: fded 7338 fa5e 83bb 126e cdbd 664a aebd
00000240: bfcf 19bc 1f7b a43b 0fdf 013d 95c2 88bd
00000250: 30a6 dfbc 7526 74bc 7101 9bbd c1b0 a63d
00000260: 3b83 fa3c aae6 ab3d 5032 933b ed8a aabc
00000270: b755 77bd ddb0 0fb9 0c82 8d3d c4ff 9ebd
00000280: 97f3 edbc ced6 683d d138 773d 0c4c 2a3d
00000290: 4e22 70bc c902 ddbc 1a6d 30bd 7a9d 37bd
000002a0: 7a51 523d 2acf 6c3a ceba 04bd 72d0 d03c
000002b0: ad1b 50bd 0d83 dc3b aee5 893d c86a 653c
000002c0: 4a9b a13d 72b3 3cbd 5f7e 993c f6e9 86bc
000002d0: f586 39bd c6a7 dcbc ce40 943d 51b3 4f3d
000002e0: 9156 49bd 5efe 3cbd ca88 9cbd 9e0e cc3d
000002f0: 129b 573c a6ed 493b 138d 9cbc e0d5 7abd
00000300: fd82 b4bd c67e a9bc d3f7 be3d d9b2 b63c
00000310: 8768 0dbd 0d48 3dbb adb3 963d 4b0b ad3d
00000320: d718 993d 5599 c43c f770 6d3d c3ae 443c
00000330: 5590 6abd 468c 8abd c3bc 9e3d 9dce 473b
00000340: 7d17 9b3c 6e31 e2ba dae9 5dbd fa8e 00bd
00000350: 4ad6 d53b d507 dabc 4391 87bd fc55 153c
00000360: 149b 67bb 6c88 853b b7be 8d3d f9f2 203d
00000370: 70d2 acbc 5357 023e 7020 ea3d aa89 033d
00000380: 2812 83bc 8be7 8bbd 1a43 943d befd 48bc
00000390: d5b2 74bd f7de 633d e250 3b3d 58d9 363d
000003a0: e013 54bc b8b1 1cbd ce65 8b3c a98d 903d
000003b0: adf9 2d3c 6c6c fbbc 1472 b13d d6c3 553b
000003c0: 47af 723d 291d 0d3d 1942 e13d 5cf5 8e3d
000003d0: 4064 2abd 2a06 973d f6fc ba3c 48da 6cbd
000003e0: a26f ecbc c00a 9dbd f596 a5bd 6771 a0bd
000003f0: cd51 913d 2b05 c13b fc93 9dbc 0169 433d

feature_extractor.3.bias f4 [16]
-0.02086355 -0.041424435 0.0051720752 0.029685149 0.04544955 -0.01924659 0.010322348 -0.037045453
-0.06453657 -0.047941715 -0.04948668 -0.050263554 0.01752997 -0.024720864 0.06743736 0.08259444
00000000: 09ea aabc abac 29bd 837a a93b 452e f33c
00000010: 4f29 3a3d 06ab 9dbc 111f 293c f9bc 17bd
00000020: c02b 84bd 885e 44bd 8cb2 4abd 28e1 4dbd
00000030: 039b 8f3c 6983 cabc 991c 8a3d 4627 a93d

feature_extractor.7.weight f4 [120, 400]
-0.04318645 0.011524348 0.030269252 -0.04747287 -0.01869295 0.032844238 -0.036618486 0.046445254
-0.0051088887 0.013921192 0.048133492 -0.031629357 0.043142013 -0.041239087 0.039814807 -0.0012210918
0.041421 -0.00047226544 -0.04143092 0.018870698 0.030395474 -0.010496204 -0.054426488 -0.0075956075
0.009373084 0.00844951 0.030940952 -0.0055114264 0.0021460825 0.0018400316 0.024887554 0.024026195
0.021729074 0.006131319 0.010442096 0.03693816 0.0137618715 -0.039038267 0.014076692 0.054900132
-0.013774247 0.03026533 -0.047941852 -0.0033730143 0.02505373 -0.037635602 -0.01434212 -0.0036231799
-0.012514314 -0.030806988 0.037822116 -0.0047054924 -0.018012332 0.024946775 0.009696649 -0.01458673
0.032584 -0.018890584 0.051831868 0.032000296 0.0031386656 0.017904215 -0.008874522 -0.030553058
-0.023665277 0.014753985 0.021058774 -0.007860016 -0.0124310525 -0.020449426 -0.025259938 -0.01938165
0.034403205 -0.049750596 0.019445302 0.029199198 -0.009089424 0.005101752 -0.0042652045 -0.041266613
0.011404307 -0.017254397 0.02185789 0.0045096264 -0.028380273 -0.057768065 0.027301315 0.04769056
0.03239217 0.020999884 0.010635936 0.021106292 0.029558318 -0.0019147308 -0.0007535876 0.008778147
0.026717035 -0.007012097 0.032786146 0.029053293 -0.030254245 -0.047605686 -0.015922591 -0.031026268
0.05491805 -0.021453751 -0.036544953 0.017987024 0.022123767 0.023897776 0.045032773 -0.055116594
0.024604974 -0.017441316 0.012821311 -0.030981693 0.053080317 -0.01022508 0.0139598055 -0.043305475
0.01780486 -0.037660908 0.009007685 0.04676278 0.036008697 0.025736786 -0.018735472 0.007351475
0.0074939034 -0.05620213 0.023116518 -0.037680265 0.019718546 0.05128833 -0.016419169 0.013460167
0.053574424 0.050533786 0.058355574 -0.022767492 0.0037136397 -0.050717846 0.00096398045 -0.051585164
0.004098369 0.016124213 -0.04891028 -0.0049501113 -0.025973115 0.030351069 -0.0091044735 0.022303954
-0.03170526 0.0056271856 0.03209538 0.004072278 -0.010899159 -0.023238128 0.020946803 0.017115813
0.009509782 0.037413053 -0.0049413727 -0.016227756 0.014307877 0.028986203 -0.061329883 -0.030519571
0.005725104 0.03701304 0.02725856 0.009861723 -0.053496916 -0.03333116 0.02094492 0.006647402
0.024199627 0.038155045 0.025832968 -0.022079526 -0.027765052 -0.013236772 -0.0028544504 -0.006571365
-0.011662411 0.002252442 0.03247809 -0.030673448 0.02376353 -0.046967294 -0.00015594876 -0.047682505
0.043028552 -0.038170874 -0.023830438 0.019945815 0.017617697 0.037413605 0.014124042 -0.042083338
-0.034918517 0.034101155 -0.048535794 0.04478173 -0.00836579 0.009082257 -0.0021370442 -0.012475362
-0.012175734 0.01463716 -0.008743427 0.008447378 0.04180686 0.004531164 -0.038816497 -0.03750705
0.032290835 0.017408106 0.009604498 -0.024389114 -0.040678363 0.043373838 -0.046766326 -0.024469284
0.020728592 0.03963472 -0.004666513 -0.039086264 0.018136276 0.00479128 -0.0049336087 -0.048639383
0.038717456 0.008063728 0.021712814 0.017883638 0.040803533 -0.023878383 -0.0005871446 -0.04051908
-0.05496961 -0.021994278 0.01985831 -0.029491788 0.031732094 0.007374471 -0.019721378 0.024195561
0.034285963 -0.021859745 0.02927909 0.027123982 0.037572883 -0.030446079 0.052560665 0.004156863
00000000: 46e4 30bd 9ed0 3c3c 39f7 f73c ea72 42bd
00000010: f521 99bc ae87 063d 44fd 15bd 613d 3e3d
00000020: 7768 a7bb b615 643c a027 453d c98d 01bd
00000030: aeb5 303d 51ea 28bd da14 233d 0b0d a0ba
00000040: 11a9 293d 659a f7b9 78b3 29bd b996 9a3c
00000050: eeff f83c 45f8 2bbc 4fee 5ebd 93e4 f8bb
00000060: 9091 193c d06f 0a3c e177 fd3c 3299 b4bb
00000070: 4aa5 0c3b 372d f13a fce0 cb3c 95d2 c43c
00000080: 2c01 b23c 3be9 c83b 5315 2b3c 784c 173d
00000090: 7979 613c 97e6 1fbd eda1 663c f6de 603d
000000a0: 61ad 61bc ffee f73c ad5e 44bd ca0d 5dbb
000000b0: 7b3d cd3c ca27 1abd 36fb 6abc df72 6dbb
000000c0: d608 4dbc f05e fcbc 5deb 1a3d 8830 9abb
000000d0: 998e 93bc 2e5d cc3c b2de 1e3c 2efd 6ebc
000000e0: cd76 053d 6dc0 9abc a74d 543d be12 033d
000000f0: 12b2 4d3b dcab 923c 7166 11bc 684a fabc
00000100: afdd c1bc b3ba 713c 7383 ac3c 4cc7 00bc
00000110: 9dab 4bbc 8e85 a7bc eeed cebc 44c6 9ebc
00000120: 60ea 0c3d 48c7 4bbd c14b 9f3c 2833 ef3c
00000130: cfeb 14bc 992c a73b 21c3 8bbb 2e07 29bd
00000140: 21d9 3a3c 1859 8dbc 510f b33c 7dc5 933b
00000150: bf7d e8bc 359e 6cbd 02a7 df3c 2d57 433d
00000160: a7ad 043d f307 ac3c 5942 2e3c 1ae7 ac3c
00000170: 4924 f23c b4f7 faba 688c 45ba 38d2 0f3c
00000180: afdd da3c bcc5 e5bb c44a 063d 2c01 ee3c
00000190: c0d7 f7bc 2efe 42bd 1870 82bc cd2a febc
000001a0: c0f1 603d c7bf afbc 29b0 15bd 8659 933c
000001b0: e73c b53c 45c5 c33c 4974 383d f0c1 61bd
000001c0: 5f90 c93c 17e1 8ebc 7a10 523c 52cd fdbc
000001d0: bf6a 593d 1887 27bc abb7 643c 1561 31bd
000001e0: 7fdb 913c 5342 1abd f894 133c 548a 3f3d
000001f0: db7d 133d f4d5 d23c 227b 99bc a4e4 f03b
00000200: 6b8f f53b 3434 66bd da5e bd3c 9f56 1abd
00000210: ca88 a13c b613 523d 7e81 86bc 0888 5c3c
00000220: db70 5b3d 84fc 4e3d 4106 6f3d e482 babc
00000230: 8960 733b 84bd 4fbd a2b3 7c3a f74a 53bd
00000240: 9c4b 863b ed16 843c 2556 48bd 8b34 a2bb
00000250: 92c5 d4bc cea2 f83c ee2a 15bc c8b6 b63c
00000260: 60dd 01bd 4164 b83b 7276 033d be70 853b
00000270: 6392 32bc e35d bebc a198 ab3c 7636 8c3c
00000280: ebce 1b3c 6e3e 193d 3deb a1bb 12f0 84bc
00000290: 966b 6a3c 7974 ed3c 0b35 7bbd 2e04 fabc
000002a0: a799 bb3b fc9a 173d 584d df3c 1093 213c
000002b0: 951f 5bbd 4186 08bd ae94 ab3c 73d2 d93b
000002c0: 4c3e c63c 7748 1c3d a99f d33c 1fe0 b4bc
000002d0: 8973 e3bc 0cdf 58bc bb11 3bbb 9b54 d7bb
000002e0: b213 3fbc b59d 133b bf07 053d e246 fbbc
000002f0: bcab c23c c760 40bd 2d86 23b9 bb4e 43bd
00000300: b53e 303d 1059 1cbd 0d38 c3bc 6865 a33c
00000310: fd52 903c 023f 193d 8768 673c 945f 2cbd
00000320: b806 0fbd a7ad 0b3d 78cd 46bd 0c6d 373d
00000330: ab10 09bc bfcd 143c a70d 0cbb 7665 4cbc
00000340: bb7c 47bc b3d0 6f3c 9740 0fbc df66 0a3c
00000350: ac3d 2b3d 297a 943b 0cfe 1ebd fea0 19bd
00000360: 6543 043d 729b 8e3c 2f5c 1d3c aecb c7bc
00000370: 5b9e 26bd c4a8 313d 0c8e 3fbd cf73 c8bc
00000380: 02cf a93c 0458 223d 8ce9 98bb eb18 20bd
00000390: 8792 943c 2b00 9d3b 1caa a1bb 173a 47bd
000003a0: 3296 1e3d ba1d 043c 12df b13c b580 923c
000003b0: 9b21 273d 999c c3bc 9bea 19ba 56f7 25bd
000003c0: d027 61bd 582d b4bc e5ad a23c c398 f1bc
000003d0: 83f9 013d 8ca5 f13b ba8e a1bc c535 c63c
000003e0: 706f 0c3d 3513 b3bc b4da ef3c 1d33 de3c
000003f0: 06e6 193d 0e6a f9bc da49 573d 4b36 883b

feature_extractor.7.bias f4 [120]
0.020814618 0.035551753 0.021330774 0.033002142 0.04198583 -0.030452171 0.037391182 -0.0015657735
-0.029591193 0.0040518898 0.023081645 -0.02753047 -0.036879387 -0.049276065 -0.026585933 -0.040085826
0.02959365 -0.021168493 -0.04446993 -0.028769 -0.010407358 0.030680398 0.035653733 0.016606295
0.04240391 -0.03922124 -0.02064868 0.03717771 -0.016055947 0.014595432 -0.013139848 0.024821607
-0.048276816 0.024410652 -0.027635833 -0.02760865 0.037338104 -0.025378121 0.006507435 0.0010977003
-0.036361255 0.027757239 -0.03669393 -0.01767506 -0.04808583 -0.011483029 0.016075429 0.013240812
0.02309266 -0.017020939 0.018797733 -0.012303267 0.04114457 -0.029345274 -0.0024181984 0.0013250228
0.036298893 -0.014564638 -0.038934324 0.015868753 0.047612287 -0.032624055 -0.016607147 -0.014741675
0.034042403 0.00682359 -0.041968334 0.038261954 -0.013050321 -0.046949226 0.04723788 -0.010458327
0.021361638 -0.0003151315 0.036981028 -0.021299 -0.014708925 -0.023772063 -0.031629074 -0.03173058
0.027733205 -0.033251207 0.00010761158 0.007708254 0.052299675 -0.017700985 -0.016093023 0.026378512
0.011415035 0.023183906 0.041484095 -0.04066643 0.013391879 0.0011890425 -0.045197885 -0.006309386
0.014877557 0.028748946 0.0026080396 -0.0344047 -0.01280877 0.04385003 0.024940442 -0.036235083
0.013455951 -0.0097797895 0.011368686 0.031924423 -0.026554452 -0.0019520052 0.040679976 -0.006835538
0.04893735 -0.00082052586 0.008988527 -0.008609667 0.021414008 -0.014856781 0.052786056 0.044874307
00000000: 6b83 aa3c b79e 113d e0bd ae3c 412d 073d
00000010: 55f9 2b3d d576 f9bc 7f27 193d a43a cdba
00000020: 3b69 f2bc b7c5 843b b815 bd3c 9587 e1bc
00000030: d70e 17bd b3d5 49bd beca d9bc 0931 24bd
00000040: 626e f23c 8c69 adbc 1a26 36bd f7ac ebbc
00000050: a083 2abc 7555 fb3c a609 123d ed09 883c
00000060: b9af 2d3d 73a6 20bd 6c27 a9bc a847 183d
00000070: c387 83bc ae21 6f3c 8448 57bc af56 cb3c
00000080: e9bd 45bd d9f8 c73c 8b64 e2bc 892b e2bc
00000090: d7ef 183d c7e5 cfbc 523c d53b b6e0 8f3a
000000a0: 8aef 14bd 2663 e33c 604c 16bd 4acb 90bc
000000b0: a6f5 44bd 5123 3cbc 9eb0 833c feef 583c
000000c0: d12c bd3c 7f6f 8bbc b4fd 993c a493 49bc
000000d0: 3587 283d 8065 f0bc a37a 1ebb 63ac ad3a
000000e0: 26ae 143d 85a0 6ebc 9979 1fbd 30ff 813c
000000f0: 1a05 433d cda0 05bd b60b 88bc 1187 71bc
00000100: 0c70 0b3d 6c98 df3b fde6 2bbd 91b8 1c3d
00000110: 03d1 55bc d54d 40bd 827c 413d 6759 2bbc
00000120: 9afe ae3c 3c38 a5b9 6b79 173d 3e7b aebc
00000130: b4fd 70bc a1bd c2bc 7d8d 01bd edf7 01bd
00000140: bf30 e33c 6b32 08bd 87ad e138 8595 fc3b
00000150: 2f38 563d a801 91bc 84d5 83bc c017 d83c
00000160: 2106 3b3c 2dec bd3c 3aeb 293d d891 26bd
00000170: 9d69 5b3c a5d9 9b3a 6b21 39bd f7be cebb
00000180: ffc0 733c e982 eb3c a5eb 2a3b f1eb 0cbd
00000190: e0db 51bc 179c 333d e64f cc3c 3d6b 14bd
000001a0: 5976 5c3c 693b 20bc ba43 3a3c 2fc3 023d
000001b0: b988 d9bc 6dda ffba 0ca0 263d a6fc dfbb
000001c0: 8872 483d 8f18 57ba 9d44 133c 900f 0dbc
000001d0: 6e6c af3c db69 73bc 3136 583d 1fce 373d

classifier.0.weight f4 [84, 120]
0.015394646 -0.054868065 0.0227823 -0.0044148513 -0.0764862 0.03338468 -0.062121727 -0.0447977
-0.07063273 0.06524329 0.056961223 -0.05368345 0.06731153 -0.06802123 0.008227775 -0.058375027
0.06328079 -0.037121825 -0.010538872 0.037501566 -0.08258146 0.0676536 0.005834729 -0.05447003
0.0020613538 -0.03531605 0.018564992 0.057739254 -0.08237028 0.06972639 -0.024391357 0.07607252
0.005728335 0.035738416 -0.044059787 0.017438386 0.0012385024 -0.019194512 -0.041243523 0.0023313581
-0.09765112 -0.052536316 -0.025231766 0.0023047088 -0.058627434 -0.041797556 0.015325011 0.0044910884
0.020274151 -0.04926031 0.07319551 -0.02283249 -0.08544141 0.055708542 0.007969795 -0.007914193
-0.08215384 -0.044273082 0.05099648 -0.015466892 -0.05420711 0.06856859 -0.07383261 0.07184008
-0.030652035 0.038304918 0.011167331 0.10383375 0.029307842 -0.0061489376 0.08586901 -0.07228831
0.01636 0.028529327 -0.052308124 -0.05433592 -0.047135606 -0.04799934 -0.012906928 -0.056289002
0.06373375 -0.0021222944 0.09802906 0.014987865 -0.000452311 0.007949994 -0.04018714 -0.03580907
0.03835347 -0.01145815 0.008713887 -0.0063908524 0.09431144 -0.10299827 -0.059712242 -0.0474398
-0.028055005 0.07145829 0.06266125 -0.054209515 -0.026215352 0.10166274 -0.075874366 0.009397567
0.033857383 0.044445403 0.102976106 0.05944238 0.01295354 -0.088108465 -0.041022666 -0.015339901
-0.06650326 -0.03565732 0.004420766 -0.03537146 0.0131257 0.038050286 0.06413177 -0.0694894
0.080666006 0.036420543 0.0073225065 -0.025799353 -0.027662367 0.003976826 -0.011986928 -0.086557485
0.0144194355 -0.06005827 -0.077012986 0.053780496 -0.016102392 -0.023918897 -0.012463231 -0.038713243
0.047035567 -0.0032053287 -0.040417224 0.0834934 0.065462686 0.067327574 -0.09063007 0.018332137
0.003338191 0.07802953 0.024314882 0.018016435 0.060063273 0.039639857 -0.08205146 -0.08725172
-0.051069543 -0.019913953 0.021683648 0.0572087 -0.082781576 -0.013809292 -0.07126013 0.07876886
0.059224408 0.052387733 -0.010721516 -0.057486113 -0.045932636 -0.001197905 0.000662038 -0.002132292
0.077135794 -0.04731801 0.06968905 0.040315732 -0.07227843 -0.04176872 -0.055219393 0.0007096304
0.04834474 0.05150086 -0.019457577 0.07820428 0.042766344 0.013295161 -0.07379712 -0.077194564
0.057093613 0.048613545 -0.043804556 -0.068071455 0.0041873343 -0.08319407 0.06130688 0.04759711
0.025150524 -0.06560972 -0.0137005 -0.046611078 0.045747515 0.08674617 0.0022874365 -0.023438498
0.06275567 -0.021195125 -0.041880943 -0.076295964 0.012311322 0.07188364 0.05681643 0.031221328
0.06216645 -0.0725833 0.08928289 -0.029891899 -0.08886058 0.041564696 0.022861833 -0.018248526
-0.08646905 0.0009836294 -0.0460089 -0.053662557 0.08159026 0.042359848 -0.07980138 -0.039192382
-0.044071727 -0.08192401 -0.07386894 0.09051392 0.0067995912 0.07411856 0.015059375 0.08783965
-0.055170268 0.022060653 -0.04537524 0.032362238 0.07027275 0.06843234 -0.06172025 -0.0033763913
0.012314974 0.025785683 -0.038066205 0.034204014 -0.071544394 -0.035044696 -0.019579245 -0.015095383
-0.08018791 0.058700107 -0.010412845 0.04330306 -0.0018322192 0.0050355974 0.0832041 0.06823037
00000000: d339 7c3c 56bd 60bd f2a1 ba3c 75aa 90bb
00000010: cca4 9cbd 60be 083d 5a73 7ebd cb7d 37bd
00000020: e5a7 90bd 469e 853d 2c50 693d 2de3 5bbd
00000030: a1da 893d b74e 8bbd cacd 063c a71a 6fbd
00000040: 5c99 813d 0e0d 18bd 3cab 2cbc 3e9b 193d
00000050: 7820 a9bd f88d 8a3d 4131 bf3b f71b 5fbd
00000060: c717 073b 90a7 10bd 9c15 983c ff7f 6c3d
00000070: c0b1 a8bd b6cc 8e3d 62d0 c7bc e9cb 9b3d
00000080: c2b4 bb3b 7262 123d 0978 34bd f2da 8e3c
00000090: 3f55 a23a cf3d 9dbc f8ee 28bd b3c9 183b
000000a0: 4ffd c7bd 5230 57bd d9b2 cebc 990a 173b
000000b0: 5223 70bd ea33 2bbd c115 7b3c fb29 933b
000000c0: fa15 a63c 2ec5 49bd 87e7 953d 340b bbbc
000000d0: e8fb aebd a42e 643d be93 023c 88aa 01bc
000000e0: 4640 a8bd b157 35bd afe1 503d d968 7dbc
000000f0: 4608 5ebd b06d 8c3d 8d35 97bd e420 933d
00000100: fa19 fbbc 9ee5 1c3d 2ef7 363c caa6 d43d
00000110: 0017 f03c 077d c9bb 17dc af3d e50b 94bd
00000120: 6805 863c 56b6 e93c 0b41 56bd 578f 5ebd
00000130: 4411 41bd f59a 44bd 9477 53bc 4c8f 66bd
00000140: d786 823d 3116 0bbb 76c3 c83d aa8f 753c
00000150: 2824 edb9 b140 023c 459b 24bd 88ac 12bd
00000160: 8718 1d3d f7ba 3bbc b1c4 0e3c 5b6a d1bb
00000170: 5b26 c13d c2f0 d2bd d394 74bd 3c50 42bd
00000180: 9cd3 e5bc b958 923d 8b54 803d cc0a 5ebd
00000190: 94c1 d6bc 8e34 d03d 0564 9bbd 41f8 193c
000001a0: 0aae 0a3d 620c 363d 23e5 d23d da79 733d
000001b0: 163b 543c 3672 b4bd 6207 28bd 3554 7bbc
000001c0: dc32 88bd 690d 12bd 13dc 903b aae1 10bd
000001d0: 2d0d 573c 9eda 1b3d 8457 833d 7550 8ebd
000001e0: 3834 a53d b52d 153d a3f1 ef3b 2a59 d3bc
000001f0: 309c e2bc 0950 823b d264 44bc 0d45 b1bd
00000200: 7f3f 6c3c a9ff 75bd fcb8 9dbd f048 5c3d
00000210: 2ae9 83bc 90f1 c3bc 9432 4cbc c791 1ebd
00000220: 5ea8 403d 7e10 52bb 888c 25bd 96fe aa3d
00000230: 4d11 863d 0ae3 893d 429c b9bd 472d 963c
00000240: 8dc5 5a3b f2cd 9f3d 0130 c73c 3497 933c
00000250: e804 763d 675d 223d 990a a8bd 08b1 b2bd
00000260: 4c2e 51bd 9622 a3bc e8a1 b13c ab53 6a3d
00000270: 6389 a9bd 5e40 62bc d5f0 91bd 9151 a13d
00000280: 4b95 723d 8594 563d 4ca9 2fbc 8f76 6bbd
00000290: dc23 3cbd 0603 9dba 9e8c 2d3a ecbd 0bbb
000002a0: 5ff9 9d3d 88d0 41bd 22b9 8e3d 1c22 253d
000002b0: b706 94bd ad15 2bbd bb2d 62bd 7d06 3a3a
000002c0: 2205 463d 91f2 523d 7f65 9fbc 9129 a03d
000002d0: c32b 2f3d f2d3 593c f222 97bd 2f18 9ebd
000002e0: feda 693d ff1e 473d 686c 33bd 0c69 8bbd
000002f0: e835 893b a761 aabd ec1c 7b3d 30f5 423d
00000300: 7908 ce3c 645e 86bd 1078 60bc 42eb 3ebd
00000310: bf61 3b3d faa7 b13d d1e8 153b 1802 c0bc
00000320: 0b86 803d 66a1 adbc 5a8b 2bbd 0f41 9cbd
00000330: 6db5 493c bb37 933d 58b8 683d dfc3 ff3c
00000340: 3fa2 7e3d 8ea6 94bd f3d9 b63d dbdf f4bc
00000350: 89fc b5bd be3f 2a3d bd48 bb3c ef7d 95bc
00000360: af16 b1bd 20ed 803a d473 3cbd 45cd 5bbd
00000370: cb18 a73d 8581 2d3d e86e a3bd 3188 20bd
00000380: 8e84 34bd c6c7 a7bd 9948 97bd 5d5f b93d
00000390: 1bcf de3b 79cb 973d 99bb 763c 46e5 b33d
000003a0: 38fa 61bd 8bb8 b43c 63db 39bd 448e 043d
000003b0: 29eb 8f3d 4126 8c3d 5fce 7cbd 7246 5dbb
000003c0: bfc4 493c 7f3c d33c 4feb 1bbd 8219 0c3d
000003d0: de85 92bd 078b 0fbd a764 a0bc a052 77bc
000003e0: 8f39 a4bd 866f 703d a39a 2abc 8d5e 313d
000003f0: 1327 f0ba a701 a53b e966 aa3d 5dbc 8b3d

classifier.0.bias f4 [84]
-0.007590881 -0.086296946 0.042469792 0.08664138 0.02207802 0.040761888 0.0794173 0.05438843
-0.039600007 0.04702812 -0.07470574 0.09211703 0.06142454 -0.048580933 -0.027331714 -0.055484716
-0.03459693 -0.058107007 -0.08254521 -0.012897732 0.037223995 0.056794867 -0.030146684 -0.06751974
0.054814193 0.004087059 -0.001614679 0.047166485 -0.026098507 0.04319524 0.031990804 -0.013974465
0.002719111 -0.023410203 -0.040253412 -0.006125519 -0.07513163 -0.07068862 0.0012267515 -0.08688215
-0.009138995 -0.0810009 0.030864013 0.017864821 -0.041935828 -0.00069746235 0.04539398 -0.07699573
-0.07628658 0.022682173 0.022890318 0.045057707 0.012244294 -0.09143492 -0.04841106 0.0020178773
-0.0435662 -0.03420524 0.020578595 -0.052214753 0.010425523 0.09882505 0.0893721 -0.011640655
0.057784814 -0.07444457 0.0518583 0.012160458 0.08138324 0.066036806 -0.083836146 0.085472144
0.06595598 0.077473745 0.054075 -0.044424903 -0.0035613591 -0.0049183993 0.043224756 0.043573655
-0.037829254 -0.01965469 -0.0371059 0.0035718156
00000000: edbc f8bb 74bc b0bd cef4 2d3d 0971 b13d
00000010: f7dc b43c f0f5 263d 8aa5 a23d 67c6 5e3d
00000020: 9e33 22bd 8fa0 403d 53ff 98bd daa7 bc3d
00000030: 4c98 7b3d cdfc 46bd c2e6 dfbc f143 63bd
00000040: 83b5 0dbd 9d01 6ebd 770d a9bd 0251 53bc
00000050: 3078 183d bca1 683d 2ef6 f6bc ca47 8abd
00000060: d984 603d bcec 853b a3a3 d3ba a531 413d
00000070: 89cc d5bc 7eed 303d ca08 033d 28f5 64bc
00000080: 1d33 323b c1c6 bfbc c3e0 24bd 94b8 c8bb
00000090: 9dde 99bd 32c5 90bd f3ca a03a 45ef b1bd
000000a0: b9bb 15bc cde3 a5bd 87d6 fc3c 3f59 923c
000000b0: e7c4 2bbd e8d5 36ba 0aef 393d f0af 9dbd
000000c0: 233c 9cbd f7cf b93c 7a84 bb3c 6e8e 383d
000000d0: 4b9c 483c 3b42 bbbd ad4a 46bd 5d3e 043b
000000e0: 7972 32bd cb1a 0cbd 7194 a83c 23df 55bd
000000f0: d0cf 2a3c ca64 ca3d b808 b73d 72b8 3ebc
00000100: c5af 6c3d 6576 98bd 5e69 543d a83c 473c
00000110: 42ac a63d 4e3e 873d 49b2 abbd 050c af3d
00000120: ee13 873d 8eaa 9e3d bf7d 5d3d e3f6 35bd
00000130: b165 69bb 862a a1bb 710c 313d 4a7a 323d
00000140: d9f2 1abd df02 a1bc 5bfc 17bd 1f15 6a3b

classifier.2.weight f4 [10, 84]
-0.10987355 -0.08680931 0.095920034 -0.029320054 0.00975803 -0.043238264 0.0058574476 0.02425882
-0.08129056 0.09960652 -0.0858254 -0.021024548 0.053673074 -0.109007195 0.09634706 0.10533373
-0.19473405 -0.02280733 -0.08931424 0.18002635 -0.1361984 -0.16381197 -0.07745356 0.06082195
0.021556986 -0.116059855 -0.02928518 -0.06645409 0.15655088 -0.10996045 0.028075324 0.0559657
-0.17886029 0.027854733 -0.010716714 0.024064807 -0.059963256 -0.14077109 -0.0042183762 -0.01050181
-0.049218863 0.17101334 -0.06494371 -0.1062466 0.022536328 -0.11261317 0.11358138 0.20345889
0.14361884 0.09151644 -0.20963347 0.03931451 -0.16089027 -0.04272126 -0.101229444 -0.08554202
0.07003371 0.07608241 0.04692726 0.05149217 0.18626732 0.058619887 -0.08557536 0.0784898
-0.038081687 -0.0070959297 0.048725806 0.011358665 0.067801975 -0.030331055 -0.05921598 0.016361428
0.09303903 -0.15828863 -0.14801084 0.031255435 0.06041656 0.023615504 -0.16289654 -0.13739865
-0.001063897 0.03511491 -0.18792967 0.10894246 -0.11210779 0.033795357 -0.028012196 -0.09518866
0.023313893 0.022965884 0.11052626 0.15850066 0.20321216 0.13887715 -0.150979 0.15701585
0.2075134 -0.076078184 0.122323066 -0.25244918 -0.13052627 0.103790216 0.11480978 0.016965035
-0.0988615 -0.0021239764 0.08731852 0.028852241 0.08403943 -0.04029038 0.08620367 -0.036855754
0.04994159 0.039262082 -0.1500845 0.1020034 0.106023714 -0.12896167 -0.0049521094 0.1066034
0.07887568 0.13001451 0.08537568 -0.04343321 0.04089874 -0.10531207 -0.021117557 -0.05423033
-0.06841473 0.19139752 -0.10526451 0.16153607 0.10917639 0.07620548 0.13383406 -0.11102715
0.096705005 -0.026506016 -0.118783854 -0.01502285 0.031304084 -0.090175465 -0.060258064 0.09488566
-0.07041362 0.112548664 -0.0923308 -0.128192 0.09880084 0.1039215 0.13087547 0.12635319
0.16700928 0.066497386 0.009707638 0.032401953 0.07798064 0.072309285 -0.06623672 0.059643164
-0.08377562 -0.11434095 0.03009044 0.12775743 0.010053063 0.13445759 -0.08977875 -0.16012207
-0.023605686 -0.09844834 0.13772541 -0.17580768 0.12548415 0.15627973 0.09353923 0.10269834
0.0021494275 -0.011862404 0.14728592 -0.085731834 -0.030923527 0.071180165 -0.10891128 0.04356637
0.1550903 0.04740163 -0.10072386 -0.020373294 -0.17954272 0.06824779 0.14347768 0.10163565
0.006596223 0.084489696 0.11539656 0.19642645 -0.0046972246 0.121292755 -0.09211212 0.05681411
-0.13554898 -0.10108251 -0.122774534 -0.055294808 -0.020332986 -0.08357229 -0.20313926 0.081231095
-0.017394492 0.04808393 0.16245747 0.1252782 -0.17214718 -0.06848572 -0.055608656 0.03368451
0.01461082 0.006666101 0.02511588 0.20322178 0.055852484 0.10215496 -0.18542592 0.0061685843
0.060926333 0.07579083 -0.12313361 -0.041989367 0.09192591 0.05011469 -0.20027326 -0.14756763
-0.05004865 -0.045616653 -0.1341259 -0.10740852 0.20928024 -0.046216145 0.055731412 0.115171485
0.008463792 -0.0069632167 0.14327589 0.15465559 0.015502661 -0.032829307 0.0293878 -0.021485824
-0.100590564 -0.06051922 0.14357017 -0.1548905 0.101726755 -0.0029368273 0.017825274 -0.110814184
00000000: 6205 e1bd 14c9 b1bd b971 c43d 9c30 f0bc
00000010: 25e0 1f3c 9b1a 31bd d5ef bf3b 6fba c63c
00000020: aa7b a6bd 81fe cb3d 3ac5 afbd ac3b acbc
00000030: 4cd8 5b3d 2a3f dfbd 9b51 c53d 36b9 d73d
00000040: 5d68 47be 70d6 babc 62ea b6bd d458 383e
00000050: 9877 0bbe 53be 27be f99f 9ebd 7020 793d
00000060: 4798 b03c cab0 edbd 79e7 efbc 1519 88bd
00000070: e04e 203e f232 e1bd 39fe e53c 4a3c 653d
00000080: 2727 37be 9c2f e43c 2895 2fbc 8f23 c53c
00000090: 089c 75bd 4c26 10be 4e3a 8abb c90f 2cbc
000000a0: b899 49bd 1f1e 2f3e 3501 85bd d197 d9bd
000000b0: 1b9e b83c bca1 e6bd 5b9d e83d 8757 503e
000000c0: d110 133e f96c bb3d 28aa 56be 4008 213d
000000d0: 6bc0 24be 7dfc 2ebd 6251 cfbd a830 afbd
000000e0: d56d 8f3d 18d1 9b3d cc36 403d 74e9 523d
000000f0: dcbc 3e3e 681b 703d 2242 afbd 43bf a03d
00000100: 8bfb 1bbd f984 e8bb b694 473d b219 3a3c
00000110: c3db 8a3d d578 f8bc 758c 72bd 6708 863c
00000120: 3f8b be3d 6a16 22be 2790 17be b305 003d
00000130: 5b77 773d 4d75 c13c 5ace 26be 3bb2 0cbe
00000140: 7672 8bba a7d4 0f3d a370 40be 391d df3d
00000150: c598 e5bd 006d 0a3d d579 e5bc 46f2 c2bd
00000160: c7fc be3c f322 bc3c 985b e23d ff4d 223e
00000170: d916 503e d035 0e3e 3d9a 1abe c3c8 203e
00000180: 657e 543e e1ce 9bbd 8484 fa3d 0541 81be
00000190: aea8 05be f78f d43d 6421 eb3d 42fa 8a3c
000001a0: e677 cabd 6932 0bbb 0dd4 b23d 895b ec3c
000001b0: dd1c ac3d 8707 25bd 8d8b b03d 0ff6 16bd
000001c0: 8d8f 4c3d 47d1 203d c0af 19be 29e7 d03d
000001d0: f622 d93d 870e 04be 4e45 a2bb e252 da3d
000001e0: 9389 a13d 8622 053e 72d9 ae3d 06e7 31bd
000001f0: 7085 273d dbad d7bd bafe acbc 9f20 5ebd
00000200: 061d 8cbd b6fd 433e eb94 d7bd b669 253e
00000210: df97 df3d 9e11 9c3d cc0b 093e 3462 e3bd
00000220: 460d c63d 2523 d9bc f344 f3bd 6622 76bc
00000230: b638 003d eaad b8bd 29d1 76bd 6a53 c23d
00000240: 0435 90bd ea7f e63d ee17 bdbd c344 03be
00000250: 1858 ca3d ccd4 d43d 3804 063e bb62 013e
00000260: 7b04 2b3e c82f 883d c90c 1f3c e9b7 043d
00000270: 50b4 9f3d e416 943d 1ea7 87bd 644c 743d
00000280: 8d92 abbd 972b eabd 3a80 f63c d8d2 023e
00000290: 9ab5 243c 40af 093e ecdd b7bd 0af7 23be
000002a0: b660 c1bc 499f c9bd e407 0d3e ee06 34be
000002b0: eb7e 003e cb07 203e 7f91 bf3d 8253 d23d
000002c0: 69dd 0c3b 875a 42bc 1fd2 163e 2c94 afbd
000002d0: 5653 fdbc e8c6 913d e10c dfbd a672 323d
000002e0: fecf 1e3e 3628 423d 5048 cebd e5e5 a6bc
000002f0: 0cda 37be 7fc5 8b3d d0eb 123e 5a26 d03d
00000300: 2125 d83b ef08 ad3d 0855 ec3d 0424 493e
00000310: 2deb 99bb 5668 f83d 47a5 bcbd eab5 683d
00000320: 5acd 0abe 5904 cfbd 3771 fbbd cf7c 62bd
00000330: 5d91 a6bc f327 abbd bd03 50be 7d5c a63d
00000340: e57e 8ebc a8f3 443d 405b 263e ee48 003e
00000350: 5a47 30be 3e42 8cbd e7c5 63bd c5f8 093d
00000360: 3962 6f3c 4f6f da3b d1bf cd3c 5f19 503e
00000370: 93c5 643d 9f36 d13d 4be0 3dbe d621 ca3b
00000380: e48d 793d 3938 9b3d 792d fcbd 0bfd 2bbd
00000390: a743 bc3d 1045 4d3d 6f14 4dbe f81b 17be
000003a0: d0ff 4cbd 87d8 3abd 4d58 09be 00f9 dbbd
000003b0: 8f4d 563e 244d 3dbd 9f46 643d 07df eb3d
000003c0: b7ab 0a3c b22b e4bb eab6 123e 095e 1e3e
000003d0: dffe 7d3c 0678 06bd afbe f03c 0a03 b0bc
000003e0: 6d02 cebd 00e3 77bd 0f04 133e 9d9b 1ebe
000003f0: 1e56 d03d c977 40bb 4f06 923c 8cf2 e2bd

classifier.2.bias f4 [10]
-0.019620683 -0.01089661 -0.02659247 0.025421288 -0.03880424 0.061831504 0.05585275 -0.029572474
-0.067344554 0.056733526
00000000: 8ebb a0bc b287 32bc 74d8 d9bc 4e40 d03c
00000010: 32f1 1ebd 0843 7d3d dac5 643d f941 f2bc
00000020: f1eb 89bd 6a61 683d
