checkpoints/noise_rate_0.2/models/tsf/epoch11.pth (torch, 250639 bytes, 10 tensors)

feature_extractor.0.weight f4 [6, 1, 5, 5]
00000000: a89c 093e 4426 77bd 92e0 afbc b7f5 c33d
00000010: 270e 4abe 6218 283e f191 8c3b 9e4c 133e
00000020: 26aa 683d d956 22bc d6cc bd3d b1e1 6c3d
00000030: 54e5 023e 0bb6 eabc 0a8f c73c 1267 ebbb
00000040: 9ece 593d 8a35 203d a6c8 623e 9352 de3d
00000050: c07b aabd e559 f4bd f356 a3bc e637 7ebd
00000060: bfd8 04bd f1c1 af3d b893 573e 89a9 2d3e
00000070: e2a6 44be 0db3 ba3d fd4a 1a3e a921 983e
00000080: 2d27 433e 6885 43be 8d04 64be c6bb bd3b
00000090: c0b7 913e dc9a f53c 6442 c53d 40c3 c6bd
000000a0: d037 913e df2a 313c a3d9 653e 947d 4b3d
000000b0: c242 8dbd 4bd3 263e 36c2 0abd 42ed 083e
000000c0: 8405 453c 6e67 343d 802d 5cbe 452d f2bd
000000d0: b7ea cc3d 9c0f f0bc 94ca 723e 23ac 243e
000000e0: 3375 d03a 5163 c8bd d794 363e 9872 ef3d
000000f0: 62d8 c8bd 879c 323e ce64 3e3e aded 7a3e
00000100: 5d47 86bd e5fa 2c3c b4c2 433d 26cc b13d
00000110: b523 d6bd c2e2 eabd 78fe 173e c5ba 82bb
00000120: e803 103e 65b8 2f3d b26b b03d fce5 023d
00000130: e55a 933d 4e38 da3d 97b5 2dbe d7ec fb3d
00000140: c2ee 15be 58c6 16be a38e f83c a868 95ba
00000150: a159 253e e2de efbd 907b 2cbe 4e7e 343e
00000160: 3802 8e3c 3eb9 283e 1fb3 843d e69f 0abe
00000170: 0be0 993d d1b0 be3d f320 bfbd a4e0 bdbd
00000180: 57de ad3d b81c 843d 06a9 61bd 9c08 1dbd
00000190: 72df 7f3e 611e b93d 37b2 803e 91ce 393e
000001a0: 8f15 cbbd afed 6fbd 0fa2 c33e d1c4 4e3e
000001b0: 1143 853e 05e0 c53d 0056 713e bcea c53e
000001c0: 234e cc3e 4c47 31bc 5c47 bb3d f7f3 a53e
000001d0: b08f b43e a557 963e 2114 2fbd 9c07 96bd
000001e0: 8c29 5b3a 99a8 1d3e 58c2 9d3e 5417 1fbd
000001f0: 4b40 403e a32b dbbd ee30 22be 5485 263d
00000200: 99d3 793e 93b5 9d3e 3410 bbbd 11a9 003e
00000210: 3b11 a53e e731 a23e 27fd 8b3e 596e 543e
00000220: 637c 773e 2953 603e 4799 343d c703 febc
00000230: f01b 07bd 5848 923d ffbf 263c 8362 623e
00000240: dff5 3b3e 5004 52bc 12e4 063e 5e33 1a3e
00000250: 5727 643e e938 673e
0.13438666 -0.060339227 -0.021469388 0.09568351 -0.19731961 0.16415551 0.0042898585 0.14384696
0.05680289 -0.009908401 0.09267585 0.057832424 0.12782794 -0.028651258 0.024360199 -0.007183918
0.05317556 0.03911356 0.22146854 0.108555935 -0.08324385 -0.119312085 -0.019938922 -0.062065028
-0.032433268 0.08581913 0.21052444 0.16959204 -0.19204286 0.091161825 0.15067668 0.2971318
0.19057913 -0.19093859 -0.22267361 0.0057902066 0.28460503 0.02998107 0.09631804 -0.0970521
0.28362894 0.010813444 0.22446303 0.049680308 -0.06897499 0.1629154 -0.03387662 0.13371757
0.012025241 0.04404395 -0.21501732 -0.11825041 0.10005706 -0.029304318 0.2371009 0.1608129
0.0015904069 -0.09784568 0.17830215 0.11691779 -0.09806897 0.17442523 0.18593141 0.24504729
-0.0655658 0.010557865 0.047793105 0.08681516 -0.10456029 -0.11469032 0.14843166 -0.00398955
0.1406399 0.04290046 0.08614291 0.03195761 0.07195071 0.106552705 -0.16963802 0.12301033
-0.1464186 -0.147241 0.030341452 -0.0011398988 0.16147472 -0.117124334 -0.1684401 0.17626306
0.017335042 0.16476914 0.06479477 -0.13537559 0.07513436 0.09311069 -0.093324564 -0.092713624
0.084896736 0.0645079 -0.055092834 -0.03833829 0.24987581 0.090389974 0.25135967 0.18145205
-0.09916221 -0.058576282 0.38209578 0.20192267 0.2602773 0.09661869 0.23567963 0.3865565
0.39903364 -0.010820221 0.0914447 0.32412693 0.35265875 0.29363742 -0.042743806 -0.0732567
0.0008360378 0.15396346 0.30812335 -0.038840607 0.18774526 -0.107016824 -0.15838978 0.040654495
0.24397124 0.30802593 -0.0913395 0.12564494 0.32239708 0.31678697 0.27341577 0.2074522
0.24168544 0.21906723 0.04409149 -0.03100766 -0.032985628 0.07142705 0.010177611 0.22107892
0.18355511 -0.012818411 0.1317294 0.15058658 0.22280632 0.22580303

feature_extractor.0.bias f4 [6]
00000000: 302d 43bd 73a3 703e 8ef1 c5b9 ec44 9c38
00000010: e32e c7bd 2fbf 2fbd
-0.047650516 0.23499851 -0.0003775474 7.4514974e-05 -0.0972574 -0.042906936

feature_extractor.3.weight f4 [16, 6, 5, 5]
00000000: 14be 32bd 8ad4 01bd 0eb7 7b3d 6db0 bcbc
00000010: 0c37 6fbd 0f4f 1e3d 8577 183d 8542 863d
00000020: f0e3 07bd cc59 b63c 2800 d8bc 8473 2bbc
00000030: 9bd0 7abd 3490 1dbd 8148 ecbc 1221 1a3d
00000040: 3339 b03c 29bf b43c e734 9e3d bbab 983d
00000050: 922f 5f3d 4695 ca3b fa70 5ebd 9c90 7c3d
00000060: 454f b7bc 393a 7bbc 80ca 7abd a9e6 403c
00000070: fb95 10bd 7293 913d d0ea 9bbd 0470 28bd
00000080: a502 053d 4932 15bd b698 9f3c e68a f6bc
00000090: 10e4 50bc fd90 fa3c 7bec 683d ff79 95bd
000000a0: fbf4 213d 554e 973d 5667 c73d f9bb 81bd
000000b0: ebcf 393b c797 89bd d349 a93d ac10 53bc
000000c0: d668 3b3d 649e a8bb a5e6 29bc 9eaa f63b
000000d0: 954f b63c e210 113d 1500 0c3c 1223 113d
000000e0: 5bd5 60bd e7ad 813d dd4a 863d 2a7f 8a3d
000000f0: 4cc7 963d 5d92 4bbd 5b1c 19bd 2d6e 723d
00000100: f1ca 8abd 688c a03d 744e 86bd 7b22 87bd
00000110: 314c d93c c594 88bd d0a0 85bc 0279 813d
00000120: d134 6e3d c3bf 8d3d 25a2 adbc b37e 80bd
00000130: b969 ad3d 72e5 85bc 4ac4 18bd 23bd a23c
00000140: 87cf 4fbd 0ac7 6c3d 15fb 433d 1dee 8cbd
00000150: 0492 88bd f2ca f8b9 e1ce 0e3d e265 9dbb
00000160: e7a1 2ebd 5de0 1e3b a385 93bd 1d7f 64bd
00000170: 9034 6bbd b019 883d a71f 953d f4b6 bfbc
00000180: 9bf3 cd3b 3d4b 0c3d 59b2 2d3c 31aa 1cbd
00000190: c538 1f3d 4461 943d c7f9 1c3d 17b3 833b
000001a0: c716 8e3d 22bb b03d 95ec b33b 2d02 fd3d
000001b0: c618 bf3c ebad 85bd 07a5 823d f3e3 b4bc
000001c0: a7a6 bf3d f9d7 92bd c852 89bb 494c e53c
000001d0: dbc1 2f3d f89a 913d 9ae5 81bd 09e5 82bd
000001e0: c1b1 a3bd 0586 453c e60d c5bc 260b 2fbc
000001f0: 6789 03bd bb38 1f3d a283 ce3d e35f 0d3d
00000200: 8c1e 03bd 0b13 36bd 642e 2ebd fbc5 d13d
00000210: 6ca4 0ebc 6c36 ff3b a907 923b a382 b7bc
00000220: d393 863d c172 043d 65df a1bc e780 64bd
00000230: 0fcb 8abc 41a3 a03b 9fd6 88bd fc5c 94bd
00000240: cddb d4bc e61e 4fbc f877 f13c 4b3f 06bd
00000250: 70ff debc bc2f 21bd 1d61 97bd dbf9 9f3d
00000260: 3e85 c03c c78e 9f3d bde4 37bc fdd3 49bc
00000270: 16a3 78bd 9c51 44bc d4c0 853d ee57 9ebd
00000280: 9104 cdbc 9f3c 6b3d 8498 6c3d 4c1e 313d
00000290: 3270 e6bb c0f5 62bc 4387 d3bc 5937 03bd
000002a0: 016e 393d ea7a 13bc fe41 27bd d58b bb3c
000002b0: 98ff 46bd c836 ff38 3122 823d d7de e23c
000002c0: 1b7f a93d 29e6 fcbc 8cb4 b53c bf36 bbbc
000002d0: 44f8 09bd e19f cdbc 86e4 713d b939 313d
000002e0: 0ca8 00bd f8da 46bd 29a8 84bd 8f8b ce3d
000002f0: 269f 6d3c 7a06 323c 6911 0ebd dfaa 53bd
00000300: c21a 89bd 6f20 8ebc faf6 bb3d 9ae3 223c
00000310: 0d00 ddbc f9c7 83bb d4ab a83d 3af7 b53d
00000320: 1ce3 b23d 7315 193d b881 533d 526f 96bb
00000330: 6891 68bd d8e2 81bd 3817 893d cc5d b0b8
00000340: 787e 033d 79f1 833a 8d18 8abd 2ae0 05bd
00000350: ecad de3c 4f01 26bc b18d 8fbd 713a 983c
00000360: b0a4 e83b 1ea4 11bb 3055 7b3d 2421 2a3d
00000370: 7bb8 c9bc 688b da3d 9c1f a73d 9024 253d
00000380: 76ea 68bb 471b 86bd 8b7b 8b3d 612c a2bc
00000390: 72e5 67bd 38b9 483d 2083 133d 22fb e13c
000003a0: 02ad 6fbc d901 e8bc e375 423c 1c48 863d
000003b0: f3ba 953c b942 02bd fe04 b03d f735 913b
000003c0: 34bb 823d 150e 043d 489d bb3d ad83 7c3d
000003d0: 4457 1bbd 40fb 833d 441b 443c 6a94 69bd
000003e0: 5688 8abc 61d6 9abd ccf6 13bd 6a37 02bd
000003f0: fd9b c13d bea0 bc3a 33db e1bc 70e8 973d
-0.043638304 -0.031696834 0.06145387 -0.023033345 -0.058402106 0.038649615 0.037223358 0.06555656
-0.033176363 0.022259615 -0.026367262 -0.010464553 -0.061234098 -0.0384676 -0.028843166 0.037629195
0.02151165 0.022063809 0.07724934 0.0745463 0.054488726 0.0061823456 -0.05430696 0.061661348
-0.022376666 -0.015333706 -0.061228275 0.011773744 -0.035299283 0.07108201 -0.07613146 -0.04112245
0.032473225 -0.03642491 0.019481998 -0.030095529 -0.012749687 0.030586714 0.05686615 -0.072986595
0.039540272 0.073879875 0.09736507 -0.06334681 0.0028352689 -0.06718402 0.08266034 -0.012882393
0.045754276 -0.0051458348 -0.010369931 0.0075276634 0.022254745 0.03541649 0.008544941 0.035433836
-0.05489097 0.06331997 0.06557248 0.06762536 0.073622316 -0.04970013 -0.037380558 0.059187103
-0.06776989 0.0783928 -0.065579325 -0.065983735 0.026525589 -0.066690005 -0.016312033 0.063219085
0.05815584 0.06921341 -0.02119548 -0.06274166 0.084674306 -0.01634476 -0.03729657 0.019865578
-0.050735023 0.057807006 0.047846872 -0.06881354 -0.06668475 -0.00047453452 0.034865264 -0.004803405
-0.04263487 0.0024242618 -0.072032236 -0.055785287 -0.057423174 0.066455245 0.07281428 -0.023402669
0.0062851436 0.03425144 0.010601603 -0.038248245 0.0388725 0.072451144 0.038324144 0.004019152
0.06937938 0.08629443 0.0054908493 0.123539306 0.023327243 -0.06527313 0.06379133 -0.02208135
0.09357958 -0.071701 -0.0041907765 0.027990477 0.042909484 0.07109636 -0.06342621 -0.06391341
-0.07992888 0.0120558785 -0.024054479 -0.01068381 -0.03211346 0.03887246 0.10083701 0.034515273
-0.032011554 -0.044451755 -0.04252471 0.1024284 -0.008706193 0.00778847 0.0044564796 -0.02240116
0.06571164 0.032336 -0.019759843 -0.055786993 -0.016942529 0.004902274 -0.06681561 -0.07244298
-0.025983715 -0.012641644 0.02947615 -0.032775205 -0.027221411 -0.039352164 -0.0739157 0.07811328
0.023501035 0.077909045 -0.011223969 -0.012318608 -0.060702406 -0.011982348 0.0653092 -0.07731615
-0.025026591 0.05743086 0.057762638 0.043241784 -0.0070324177 -0.013852537 -0.025821334 -0.032035206
0.045270924 -0.009001473 -0.04083442 0.022893826 -0.048583597 0.00012169551 0.06354178 0.027694149
0.082761966 -0.030871468 0.022180818 -0.022853253 -0.03368403 -0.02510065 0.059055828 0.04326794
-0.031410262 -0.04854867 -0.064773865 0.100852124 0.014503276 0.010865802 -0.034684572 -0.051676627
-0.06694557 -0.01734945 0.091779664 0.00994196 -0.026977563 -0.0040216413 0.082358986 0.08885045
0.08734724 0.03737397 0.05163738 -0.004590907 -0.056779295 -0.06342095 0.06693882 -8.409805e-05
0.032103032 0.0010066471 -0.06742964 -0.032684483 0.027182542 -0.010132148 -0.07009447 0.018582555
0.0070997104 -0.0022223066 0.061360538 0.04153551 -0.0246241 0.10671121 0.08160326 0.04031807
-0.003554014 -0.065481715 0.06810673 -0.019796552 -0.0566153 0.049004763 0.036013722 0.02758557
-0.014628651 -0.028321194 0.011868927 0.065567225 0.01827762 -0.031801913 0.08594702 0.004431482
0.063833624 0.032239992 0.091608584 0.061649013 -0.03792502 0.064444065 0.011969391 -0.057026304
-0.016910713 -0.07560421 -0.036124036 -0.03179113 0.094535805 0.0014391167 -0.027570343 0.07417381

feature_extractor.3.bias f4 [16]
00000000: af69 acbc 228b 49bd 529f ee3b e440 1b3d
00000010: c9ee 7a3d 9eb0 dcbc a882 033b ea42 27bd
00000020: 2908 83bd 7687 54bd 1a9c 4dbd f93d 4dbd
00000030: ae4d f53c df11 60bc c1ce 863d 452a 983d
-0.021046488 -0.049204953 0.007282176 0.03790368 0.06126288 -0.026939686 0.002006689 -0.0408353
-0.06398041 -0.051886998 -0.0501977 -0.05010793 0.029944267 -0.013676136 0.06582404 0.07429937

feature_extractor.7.weight f4 [120, 400]
00000000: fbc9 2abd 1291 3f3c 2af1 fb3c 31e2 35bd
00000010: e412 84bc 849a 0b3d 4188 13bd af89 3d3d
00000020: 214f 6ebb 4bcd 273c 0b53 3c3d 3c6a 1fbd
00000030: 9a32 363d b946 47bd a4f0 063d 71a8 1eba
00000040: ede4 363d df31 1bbb 887a 48bd 8512 833c
00000050: 7672 013d 9c5d 10bc bd37 4abd 1ae7 6cba
00000060: 19a7 0c3c a04d 323c 61f5 973c 4676 4abc
00000070: 9991 32bb 13cd 64bb 8cbd af3c d898 853c
00000080: c8ba 9b3c 1604 6bba 0f79 163c d8d8 1e3d
00000090: 245d 3d3c f279 41bd 9aaa 533c 59ad 6c3d
000000a0: 6cfe e1bb 40c9 0f3d e1f8 19bd 4ad0 bebb
000000b0: 7a54 0b3d b581 ddbc cb91 adbb d738 333b
000000c0: 16f3 39bc 1a36 afbc 899f 083d 1170 30bc
000000d0: 9c51 8bbc 159a 0e3d 9519 2f3c 098d b5bc
000000e0: 8a6d fe3c a65b f0bc 14de 4e3d a2da 2f3d
000000f0: 05af 9e3b 6f18 773c 6066 a6bc 098f 0ebd
00000100: d6e1 e2bc 3319 993c d1b0 c83c 7e47 90bb
00000110: c115 7fbc ea24 86bc 9ba8 aebc a6a8 aebc
00000120: aca1 053d 4e0d 42bd 55e1 003d 1ddb f23c
00000130: 5018 86bc 9fdd 35bc 575e 5fbc 87f7 27bd
00000140: f4d4 be3b 2156 04bd 08e9 623c 96ae f2bb
00000150: 6c70 08bd a58d 4fbd 3219 1f3d 1e7f 313d
00000160: aba4 333d 95c9 753c 9722 b63c 925f f03c
00000170: de06 303d 806e 8a39 f4ee a139 ddb4 d63c
00000180: fa4f 0b3d 3b26 78bc 3f6d d93c 1e43 3a3d
00000190: b6ff c1bc ab4c 3ebd 9afa e3ba d4f4 fbbc
000001a0: c3da 433d be1b 4bbc c891 a0bc d785 083d
000001b0: e777 823c bce2 8c3c 4913 483d 9710 2cbd
000001c0: bbff db3c a493 d8bc 6270 be3c db68 acbc
000001d0: e44b 493d 4eda 53bc f647 0b3c 5d8a f7bc
000001e0: 9421 da3c d9a3 4ebd be17 ce3c 43e5 473d
000001f0: 9095 323d 3b8f ce3c 4393 b9bc baec a83b
00000200: 5861 443c 8ab9 4abd 0eee b83c 7f32 33bd
00000210: 8275 b13c da8e 403d 3aef 8abc 94dc 113c
00000220: d33c 4b3d bd44 413d 4098 3c3d 2677 fabc
00000230: 5706 193c 71c6 2fbd 1399 013c 151d 5abd
00000240: d5fd 013c 280f b83c ab20 2ebd f270 4abb
00000250: 98a9 a4bc 9b5a 353d 803c 45bc d0d0 ba3c
00000260: 410e 12bd 72a0 d33b feca 093d 4e9f 8138
00000270: 22d4 a1bc 9af4 c2bc e987 e33c e7a7 873c
00000280: 40ab 853b 94ff 133d 6ba9 96bc ae3c 00bd
00000290: 9bfe 453a 6043 063d 42df 58bd 310b 02bd
000002a0: b781 4b3c 8658 fe3c 5465 f33c cc5b 833c
000002b0: 658a 3dbd 18d3 b0bc ab60 de3c 714e 1b3c
000002c0: cef7 e03c 6b7c 193d ac72 ec3c 0896 a8bc
000002d0: 15c4 ccbc e4ac 1abc f50f aaba 65ef 64bb
000002e0: 9c34 21bc 39ff ef3b 3ae9 013d bfb2 02bd
000002f0: a8ed d23c 6df3 48bd 169a 2b3b ad76 3abd
00000300: 93f6 463d 1ec8 2dbd afa8 dbbc b283 f33c
00000310: a414 c43c eab1 1c3d a167 673c f369 2cbd
00000320: c571 0fbd 4113 0c3d 643f 47bd d330 383d
00000330: 68ce 0abc 5677 153c 0e70 0cbb eaf8 4dbc
00000340: c2e9 48bc 5764 723c fcb1 0fbc 95c8 093c
00000350: 6e5c 2b3d 3261 933b 0793 20bd 9caf 1abd
00000360: 3c7f 023d 9a00 8f3c 22c5 1c3c b90c ccbc
00000370: e533 27bd a2db 303d f428 40bd 4881 cbbc
00000380: 3b50 a33c e1d8 313d 5dbc 5fbc 8662 35bd
00000390: 4cf8 463c edf4 133b 30d6 0abc d69e 31bd
000003a0: 60a6 1a3d 63ee b23b 4580 9e3c d6c5 e43c
000003b0: 7b9a 2f3d c858 7ebc 6b01 0d3b 7155 04bd
000003c0: db5c 2dbd afe8 99bc 5abf 7b3c 6b2d eebc
000003d0: 3433 043d d844 633c f71e 8bbc 6056 c63c
000003e0: 6cd2 1c3d 5e54 9cbc f12d d03c b968 123d
000003f0: 5b24 443d fa48 08bd 0ba9 373d 180a 953b
-0.04169653 0.011692302 0.030754644 -0.044405166 -0.016122289 0.034082904 -0.036018614 0.046273883
-0.0036363082 0.010241817 0.045977633 -0.038919672 0.04448185 -0.04865143 0.032944337 -0.00060523214
0.044651914 -0.0023680849 -0.04894498 0.016000042 0.0316033 -0.008811381 -0.049369562 -0.00090371224
0.008584761 0.010882765 0.018549623 -0.0123573 -0.0027247427 -0.0034912273 0.021452688 0.016308233
0.019009963 -0.00089651474 0.009184136 0.038781017 0.011557851 -0.047235437 0.012919093 0.057782505
-0.0068967845 0.035104036 -0.037590865 -0.00582317 0.03401611 -0.027039388 -0.005296921 0.0027347112
-0.01134946 -0.021388102 0.03335527 -0.010768906 -0.017006688 0.034814913 0.010687252 -0.022161977
0.031058092 -0.029340576 0.05050476 0.042933114 0.0048426413 0.015081509 -0.020312488 -0.034804378
-0.027695578 0.018688774 0.024498375 -0.004403054 -0.015569151 -0.016375024 -0.021320632 -0.021320652
0.032624885 -0.04737597 0.031464893 0.029645497 -0.016369015 -0.011100202 -0.013633332 -0.041007545
0.005823726 -0.0323087 0.013849504 -0.007406066 -0.03331034 -0.050672192 0.038842387 0.04333412
0.04385821 0.015001674 0.02223329 0.029342446 0.0429753 0.0002640374 0.00030886347 0.02620929
0.03401182 -0.015145834 0.02654135 0.045474164 -0.023681503 -0.046459835 -0.0017393411 -0.030756392
0.04781605 -0.012396751 -0.019600764 0.033330765 0.015926315 0.01719796 0.048846517 -0.04200801
0.02685534 -0.026437588 0.023246948 -0.021046093 0.04914464 -0.012930466 0.008501044 -0.030217344
0.02662734 -0.050449226 0.025157806 0.048802625 0.043599665 0.025214782 -0.022653228 0.005155173
0.011986099 -0.04949335 0.02257445 -0.04374933 0.021662477 0.047011234 -0.016959775 0.008902688
0.049618553 0.047184695 0.046043634 -0.030574393 0.00933989 -0.042913858 0.007910031 -0.05325039
0.007934053 0.022468165 -0.042511623 -0.0030890075 -0.0201004 0.04427586 -0.01203835 0.022804648
-0.035658125 0.0064583356 0.033640854 6.180872e-05 -0.019754473 -0.023798276 0.027774768 0.016559554
0.0040792525 0.03613241 -0.018391332 -0.03130787 0.0007552893 0.032779098 -0.05294729 -0.031748954
0.012421063 0.03104807 0.029711403 0.016034983 -0.04627456 -0.021585032 0.027145704 0.009479151
0.027461912 0.03747217 0.028863274 -0.020579353 -0.024995843 -0.009440634 -0.0012974726 -0.003493273
-0.009839203 0.007324126 0.031716563 -0.031908747 0.025748089 -0.049060274 0.0026184372 -0.045523334
0.048574995 -0.042427175 -0.026813833 0.029725883 0.023935623 0.03825561 0.014123828 -0.04209323
-0.03502061 0.03419805 -0.04864444 0.044968437 -0.008472063 0.00912269 -0.0021429094 -0.012571553
-0.012262763 0.014794431 -0.008770462 0.008409639 0.041836195 0.0044976706 -0.039202716 -0.03776513
0.03185962 0.017456342 0.0095684845 -0.02490841 -0.040820975 0.04317821 -0.046914056 -0.02484192
0.019935718 0.043419722 -0.013655749 -0.044283412 0.0121441595 0.0022576407 -0.008473918 -0.04336437
0.037756324 0.005460547 0.019348273 0.027926367 0.042871933 -0.015524097 0.0021515738 -0.032308046
-0.042324882 -0.01878771 0.015365446 -0.029074391 0.032275394 0.013871394 -0.016982539 0.024211109
0.03828661 -0.019083198 0.025412532 0.035744403 0.047886234 -0.03327272 0.044838946 0.0045483224

feature_extractor.7.bias f4 [120]
00000000: 7056 ac3c 60ef 173d 245b 9a3c 2abd fe3c
00000010: 7e9f 2c3d 35de 0abd aad6 113d b7e1 dc3a
00000020: 0c30 0abd 0029 913b 1571 b83c 5d1e e7bc
00000030: 12b8 25bd cf60 4abd c403 dbbc e175 2cbd
00000040: bb6f f43c 2e5c b5bc 9159 2ebd c688 f7bc
00000050: 965e 41bc 3e20 f33c 1fdc 133d 2c9a 723c
00000060: 1ceb 223d 8ebf 20bd da92 aabc f299 0c3d
00000070: f8a2 9bbc 531c 6a3c bb06 46bc 3537 de3c
00000080: 4e34 4bbd 7bca 9f3c bb28 e9bc 42a8 f3bc
00000090: 7d18 1f3d 6736 babc 13f3 ef3b 3f22 8c3a
000000a0: 68e9 10bd 13bd e43c ce85 08bd c9da 92bc
000000b0: 40b4 41bd c428 41bc 18a2 6a3c 32e2 643c
000000c0: 896f c43c b96e 88bc ba4d 963c 1ce9 48bc
000000d0: eff2 303d bfa9 dfbc 088c b9bb fdb9 83b9
000000e0: ea5b 163d 5a0b 83bc 50f2 15bd b26b 683c
000000f0: 8164 2d3d 9987 19bd 37de 87bc 7fa8 6ebc
00000100: 79ee 093d 718a e13b 57dc 34bd 1118 263d
00000110: 5845 5ebc 6461 40bd 3292 423d 523d 35bc
00000120: 2b50 ab3c 5260 163b 0f11 103d 0ca4 a9bc
00000130: f0a7 8fbc 043b cdbc 5c60 03bd 049a 01bd
00000140: 95bb f23c 53e8 07bd 0ce1 eaba 3641 ca3b
00000150: a841 4a3d 446a 91bc b822 98bc 32e2 a13c
00000160: 86b1 433c 6b5e 9b3c b6ea 2a3d 42cd 20bd
00000170: 1c55 683c 5870 74bb 44d0 38bd 4cb5 9ebb
00000180: ca65 653c be6b ed3c 7609 083b 5a90 03bd
00000190: 586b 5cbc 242d 1b3d 0101 b93c ba91 14bd
000001a0: d6e6 4c3c 3228 24bc a2ee f33b 6622 033d
000001b0: 1222 bdbc 87e0 3abb 94f5 203d e34e e5bb
000001c0: 3bfb 483d 783f bcba 914e de3b ee4d 0cbc
000001d0: cf2a ae3c 150f 71bc f93a 533d ff25 333d
0.02103731 0.03709352 0.018842287 0.03109606 0.04214429 -0.03390332 0.03560511 0.0016851936
-0.033737227 0.0044299364 0.02251486 -0.02821272 -0.040458746 -0.04940873 -0.026735194 -0.042104606
0.029838433 -0.022138681 -0.042565886 -0.030216586 -0.011802336 0.02967846 0.036098596 0.014807265
0.039775 -0.03924518 -0.020821977 0.0343265 -0.018998608 0.01428898 -0.012086566 0.027125934
-0.04961043 0.01950573 -0.028461805 -0.029743318 0.038841713 -0.02273102 0.007322678 0.0010691358
-0.035378844 0.027922189 -0.03333073 -0.01792659 -0.04729104 -0.011789504 0.014320873 0.013969945
0.023978965 -0.01665436 0.01834761 -0.012262609 0.04320043 -0.027302621 -0.005662445 -0.0002512484
0.03670875 -0.015996624 -0.03660804 0.014185833 0.042332176 -0.03748283 -0.016585452 -0.01456654
0.03367469 0.0068829586 -0.044155445 0.040550295 -0.0135663375 -0.04696788 0.047502704 -0.011061983
0.02091225 0.0022945595 0.03517252 -0.020708106 -0.017536134 -0.025052555 -0.032074317 -0.03164102
0.029630462 -0.033180546 -0.0017919852 0.0061723245 0.04937902 -0.017750867 -0.018571243 0.019761179
0.01194418 0.01896592 0.041727744 -0.03925825 0.014180448 -0.0037298407 -0.045120493 -0.0048433896
0.014001319 0.02898204 0.0020757592 -0.032120086 -0.013453327 0.037884846 0.022583487 -0.03627179
0.012506207 -0.010019349 0.0074442187 0.032015227 -0.023087535 -0.0028515176 0.0392967 -0.0069979294
0.049067717 -0.0014362177 0.006784268 -0.008563502 0.021260647 -0.0147130685 0.051569913 0.043737408

classifier.0.weight f4 [84, 120]
00000000: 3b9c 963b 0306 45bd c758 e93c e395 4bbc
00000010: f804 9dbd fddb 4b3c 4c8c 83bd 739a 03bd
00000020: 7bf0 87bd ec42 913d e4f8 183d 6265 56bd
00000030: 28bc 713d 40b4 8bbd 4c1f 073c 0f4d 93bd
00000040: fa82 513d be8f 47bd e31d 00bd 3bbc c63c
00000050: d9ae b7bd ee57 593d fc4d c43b dc9c 73bd
00000060: aa30 40bc a1ea 65bd b86d b73c 87bd 0d3d
00000070: a9e6 98bd ae72 7a3d 281c 02bd 0ae6 a73d
00000080: b245 a6bb dcf8 c13c cb75 1ebd 3405 873a
00000090: ab4c 2bbc be25 d9bc f041 4bbd db70 3a3b
000000a0: 5aed a8bd 4ccc 57bd ad6f 14bd ff88 1a3b
000000b0: 7104 69bd ba59 34bd d5f2 013c 6b09 863a
000000c0: 4bc1 103b c31f 46bd f693 913d 0816 bbbc
000000d0: 3c34 90bd a02d 4e3d a6cb 3d3c b59d 6bbb
000000e0: bdea a8bd f623 6abd ea77 623d b2fd d6bc
000000f0: a1fd 81bd 6f4b 5c3d 302e 98bd 7f02 5a3d
00000100: 6220 febc 9356 1d3d 374b 4e3c 7478 b93d
00000110: b01b 183d 0df5 c9bb c506 b03d 4323 96bd
00000120: 756f 373c fd87 f63c 40fe 8cbd 2f27 47bd
00000130: 8300 29bd 8e09 41bd c189 30bc 9a9d 67bd
00000140: e5c7 af3d 94c8 15bb b2c0 b93d 9b9b be3c
00000150: e93d 60bc 1f9f 023c 7c5c 53bd 3a64 6bbd
00000160: 746b 123d 8e18 42bc f201 033c 4589 29bc
00000170: dc3c 943d 548c babd 0f3f 6abd 3597 44bd
00000180: 93e7 eebc ffdf 933d 0db3 7c3d cbc7 86bd
00000190: 48b8 d9bc f70d 9f3d 6c66 90bd 04f5 1a3c
000001a0: e4cf 103d c60d 303d 921b 883d 702a 743d
000001b0: 1d8a b73c 0fa4 b0bd ddad 25bd a279 81bc
000001c0: e46d 88bd 1f8e 3ebd 4682 a43c 814c 11bd
000001d0: 5f38 773c c598 063d 6d74 453d b397 90bd
000001e0: 65cf a43d ae20 153d d618 003c 5367 dfbc
000001f0: 2441 e3bc 9b76 3d3b 5a44 3dbc 134c b0bd
00000200: a0ad 693c a8c0 76bd 5459 a0bd 36e8 5c3d
00000210: 0f36 75bc d47f c4bc d39a 4cbc 43f8 1fbd
00000220: 7eea 423d ac44 48bb f7b9 26bd f704 b23d
00000230: 3e9c 883d c20b 8e3d ed23 babd 0aff 8c3c
00000240: 73ec b23b af98 a23d 7a99 ce3c 0d7f 9b3c
00000250: 25c0 6e3d 32a1 223d 27f1 a6bd cc95 b7bd
00000260: 4f00 4bbd 368e a7bc 01bf b03c 9496 693d
00000270: d5a4 a6bd 4f19 5dbc 0cb2 92bd 514b a13d
00000280: 4abc 613d 8230 573d db00 17bc ac25 6dbd
00000290: 66c2 3bbd 15f4 83ba ef8a b239 8055 c4ba
000002a0: e156 a33d 1dea 43bd 02cc 8b3d 84c4 253d
000002b0: de1a 92bd 726e 27bd dc34 63bd c3ce 0ebb
000002c0: cd94 463d b723 563d 6b08 9bbc 48b4 a13d
000002d0: 4b5f 313d 89fb 7c3c d790 97bd a332 9ebd
000002e0: cfc9 673d 9db1 473d 3ff1 33bd dc36 8cbd
000002f0: a37d 453b c2dd aabd 0ed2 7b3d 21cc 443d
00000300: 36c0 ce3c c141 85bd d330 74bc 9964 3bbd
00000310: d850 323d 7928 b23d b5e4 6d3b 8c8c c0bc
00000320: 71d6 803d bec4 adbc b6e9 32bd bd0d 9dbd
00000330: b4f0 423c 59a2 933d 0282 6a3d d955 083d
00000340: 2324 813d f866 95bd 1ff8 b33d 86ab efbc
00000350: 867c b4bd 7f22 283d 5690 b03c 8153 afbc
00000360: 3659 b1bd 2d47 813a 29f1 38bd 5225 69bd
00000370: cf91 a73d fdda 2f3d ae18 a3bd 44fc 20bd
00000380: 0226 3bbd 199c a8bd 0d7d 92bd 07e7 b93d
00000390: 7666 823b a178 963d c181 7e3c ec69 b43d
000003a0: 3092 62bd 832a c13c dc7d 39bd 16ef 043d
000003b0: 896b 903d e8b5 8c3d 2f61 7abd 6fb3 69bb
000003c0: fe01 383c b33b 963c 3f26 13bd 8004 a43c
000003d0: 86ef 92bd 86ed e5bc 4446 eabc 1126 cfbc
000003e0: 080b 64bd e976 853d 1cff 55bc f66c 313d
000003f0: 9264 36bb c878 a53b 1418 ab3d 71ff 8a3d
0.004596261 -0.048101436 0.028484715 -0.0124258725 -0.07666963 0.012442586 -0.06423244 -0.032129716
-0.06637665 0.070928425 0.037346736 -0.05234278 0.05901733 -0.06821489 0.008247208 -0.07192432
0.0511503 -0.048721068 -0.031278502 0.024259677 -0.089688964 0.053062372 0.005990742 -0.059475765
-0.011730352 -0.056131963 0.022391185 0.034604575 -0.0746587 0.061144523 -0.031765133 0.08198173
-0.0050742263 0.023678236 -0.038686555 0.0010301233 -0.010455291 -0.026507255 -0.04962343 0.0028448615
-0.08248396 -0.052685067 -0.036239315 0.0023580191 -0.056889 -0.044030882 0.007931431 0.0010226195
0.0022087868 -0.048370134 0.071082994 -0.022837654 -0.07041213 0.05033648 0.011584198 -0.0035952155
-0.08247898 -0.0571632 0.05529014 -0.026244018 -0.06347204 0.053782877 -0.074306846 0.053225037
-0.0310213 0.03841264 0.012591175 0.09056178 0.03713578 -0.0061632455 0.08595041 -0.073309444
0.011196007 0.030094141 -0.06884432 -0.048621353 -0.041260254 -0.047128253 -0.010775031 -0.056546785
0.08583049 -0.002285515 0.09069957 0.023267558 -0.0136866355 0.007972508 -0.05160187 -0.05746863
0.035747007 -0.011846675 0.007996069 -0.010347669 0.072381705 -0.09108797 -0.057189044 -0.047995765
-0.029163158 0.07220458 0.061694194 -0.06581076 -0.02657713 0.077663355 -0.070507854 0.00945783
0.03535451 0.042981885 0.066458836 0.059610784 0.022404725 -0.08625042 -0.040449012 -0.01580507
-0.06661585 -0.046522256 0.02008165 -0.03547335 0.0150891235 0.032860536 0.048206735 -0.07060184
0.0804737 0.03640812 0.007818421 -0.027270949 -0.027741022 0.0028909806 -0.011551941 -0.0860826
0.014262587 -0.060242325 -0.07829538 0.05393239 -0.014966502 -0.023986734 -0.012488085 -0.03905512
0.04758691 -0.003055851 -0.040704694 0.08692353 0.06670426 0.069358364 -0.090888835 0.017211456
0.005460316 0.07939278 0.025219668 0.018981481 0.058288712 0.03970451 -0.08151465 -0.08964118
-0.04956084 -0.020453554 0.021575453 0.057028368 -0.08136908 -0.013494804 -0.07162866 0.078756936
0.055111207 0.052536495 -0.009216513 -0.057897255 -0.04583969 -0.0010067249 0.0003405432 -0.0014979094
0.07975555 -0.04783069 0.06826021 0.040470615 -0.07134031 -0.040876813 -0.055470333 -0.002179072
0.04848175 0.052280154 -0.018924912 0.07895714 0.04330377 0.01544083 -0.07400673 -0.07724502
0.056588944 0.04875337 -0.043931242 -0.06846401 0.00301347 -0.08343078 0.06147962 0.048046235
0.025238138 -0.06506682 -0.014904219 -0.045750234 0.04353413 0.08699126 0.003629965 -0.023504518
0.062909015 -0.021211978 -0.043679915 -0.07668636 0.011898208 0.072087 0.05725289 0.033284996
0.06305721 -0.0729503 0.0878756 -0.029256593 -0.088128135 0.041048523 0.0215532 -0.021402122
-0.08659594 0.0009863131 -0.045151863 -0.056920357 0.08182108 0.042933453 -0.07963692 -0.03930308
-0.045690544 -0.08232898 -0.07152758 0.09077268 0.0039794995 0.07347227 0.015533865 0.088092655
-0.055315197 0.023579841 -0.045286044 0.032454573 0.07051761 0.06870633 -0.061127838 -0.003565993
0.011230944 0.018339014 -0.035925146 0.020021677 -0.07174592 -0.028067362 -0.028597958 -0.025286706
-0.055674583 0.06516821 -0.013061311 0.043316804 -0.002783094 0.0050497986 0.08354202 0.06787003

classifier.0.bias f4 [84]
00000000: 66a4 39bc 275d b1bd 68ff 3d3d 5d75 9c3d
00000010: cd61 a23c 24c2 173d 683c a03d 77d7 593d
00000020: 03be 2fbd 0af0 4e3d 084e a1bd 6b42 b63d
00000030: eab8 723d c8f0 43bd ed0f bbbc 1da5 6fbd
00000040: fee5 2bbd c417 5abd aa2d b3bd f555 82bc
00000050: 1965 203d 478a 673d 715b e8bc bbce 8dbd
00000060: af70 563d 94dd db3a 69c9 82ba e6d4 3c3d
00000070: 5dc7 c7bc 6211 253d 5b70 fc3c 7a01 43bc
00000080: 12ca 85bb 9073 cdbc be13 25bd df42 7abb
00000090: e478 9cbd 096f 90bd 506e 26b9 c946 b1bd
000000a0: d38b 3abc 5aa4 a4bd 97ef e43c c323 2b3c
000000b0: e26f 3abd bfd2 79bb d1da 173d aafe 98bd
000000c0: ae46 9abd 7c43 9c3c 0029 de3c 9460 3a3d
000000d0: 3b7a 273c 84dd b4bd 3c26 5ebd 433f 37bb
000000e0: 23c3 3abd 3c7b 0fbd be90 b33c 9d87 56bd
000000f0: f38d 4f3c 2704 c83d 94f7 af3d 9085 55bc
00000100: 0c5a 6d3d 565f 9abd 8b59 373d e204 363c
00000110: ebf4 a43d 4c51 803d 3637 afbd d926 a33d
00000120: 7b0b 8a3d a3f6 993d ba69 403d a3ac 39bd
00000130: 5aa3 a5bb 1448 78bb cafc 1d3d 4b4a 3c3d
00000140: 638a 1abd 8db2 a8bc 5801 2ebd 7ea0 5db9
-0.0113307 -0.086603455 0.046386153 0.07639573 0.019822026 0.03705038 0.078240216 0.053184
-0.04290582 0.050521888 -0.078762114 0.08899387 0.05925838 -0.04783705 -0.022834742 -0.058507074
-0.041967385 -0.05324532 -0.08748944 -0.015910128 0.039158914 0.056528356 -0.028363915 -0.06924196
0.052353557 0.001677441 -0.0009978238 0.046101473 -0.024387056 0.04029978 0.030815294 -0.0119022075
-0.0040829265 -0.025079519 -0.04030203 -0.003818683 -0.076402456 -0.07052428 -0.00015872088 -0.08656079
-0.011385876 -0.0803916 0.027946277 0.010445538 -0.045516856 -0.003812 0.037073914 -0.07470448
-0.07533012 0.019075148 0.02711916 0.04550226 0.010222013 -0.08831313 -0.054235682 -0.002796129
-0.045596253 -0.035029635 0.021919604 -0.052375425 0.012668121 0.09766417 0.08592144 -0.013032332
0.057947204 -0.07537715 0.04476313 0.011109563 0.08054527 0.06265506 -0.085554525 0.07966394
0.06740471 0.07517745 0.04697583 -0.045330655 -0.0050548734 -0.0037884759 0.038571157 0.04596929
-0.037729632 -0.020592952 -0.04248175 -0.0002113599

classifier.2.weight f4 [10, 84]
00000000: 68ff c0bd 488f b0bd 5e7d 4f3d 5fb8 bcbc
00000010: 7bf7 f43c 91dc 35bd bfe3 ba38 fc9f 433d
00000020: 493d a1bd a99b d23d d58a 92bd 3805 c0bc
00000030: 2d91 6a3d e4e5 d6bd a375 7e3d c46f 893d
00000040: 9123 0cbe d81e 95bc 798d 9ebd ce9a 013e
00000050: b15a c2bd fb09 09be 542d a5bd b9da a63d
00000060: 9a09 a93c 1024 d6bd cb76 b5bc 96e1 9fbd
00000070: f3f8 083e 9151 c4bd 8d7e a43c 4c35 a33d
00000080: db86 fcbd 59bf b33c 042c 2db9 75c9 043d
00000090: 4ddf 50bd 33f2 b3bd 20b0 0b3c 862c f3bc
000000a0: 6a18 a3bc d355 033e 52bf 9cbd 25a0 6cbd
000000b0: 609c 603d 5b0a a3bd 383b a83d 829f 1c3e
000000c0: 57f3 be3d 2255 a43d c800 1ebe c310 363d
000000d0: e169 f9bd 7679 3fbd a545 a4bd 5ddc afbd
000000e0: 3f08 b13d 2076 993d 90fc e63c d35f 2c3d
000000f0: cd0e 193e e043 2e3d a769 1cbd 9eaf 973d
00000100: 146c 1cbd 6aa6 32bc 1727 5b3d 8e92 543c
00000110: 39a4 af3d 34f9 75bc f13d 61bd c3a1 213d
00000120: 4200 d13d ca04 08be b54c 01be 9a15 033d
00000130: ce40 833d 4fb6 3c3c 98a2 d4bd 3694 ebbd
00000140: bbb7 d1ba 2d8d 483d 645d 11be ffcc bb3d
00000150: a581 d1bd 7c5b 0c3d 9c07 27bd 81bd b8bd
00000160: b0c7 af3c 1a5e 20bc 1433 8d3d 701a 023e
00000170: 63c7 133e 40f4 a23d 4781 f4bd 7bf1 f03d
00000180: 60dc 213e 30a4 9cbd 3385 f13d a36b 2fbe
00000190: 0fca f4bd 2f0a b33d 9e27 db3d 1c62 e83b
000001a0: eab7 c9bd 98b7 443c 8ca7 7c3d eb54 d53c
000001b0: a59b 983d 6f76 66bd a76a b03d 1cef 48bd
000001c0: bd60 4a3d 73c4 503d 503a dbbd 9d9b 943d
000001d0: b7bb a63d 06d0 c8bd bcdd abbc 00d1 ba3d
000001e0: 95a5 9d3d f112 a03d 516e 4c3d 45b0 1bbd
000001f0: effb 5b3d bdba c3bd 89ed 433c cbaa 2bbd
00000200: c907 4abd a0fe 123e 0f28 acbd a254 053e
00000210: 484c ca3d ade0 723d d782 c13d 58d2 fbbd
00000220: ecff 933d 4ff9 c7bb a9dc 92bd af41 023c
00000230: b308 c93c 6769 a8bd 0e36 82bd bfac b03d
00000240: 823e a9bd fb72 e13d 9ccd 9cbd 376a c1bd
00000250: 53e9 ca3d 920b c23d 2b52 013e daa9 d23d
00000260: c57d d83d 674b 5f3d 94cd 523b be8b b33c
00000270: ea46 113d 42e2 8d3d 1667 4bbd 8411 493d
00000280: c27c 9dbd 8539 adbd 8ae2 f23c 846a c53d
00000290: 3c2a 863c a780 cc3d ccf4 96bd 98e3 ecbd
000002a0: ea9a b8bc fe3c cabd 8074 c23d 6d05 09be
000002b0: 3181 cf3d 89fb a23d 8938 c93d 8e35 be3d
000002c0: f6c8 cf3c 69c3 1f39 318a cd3d 4a54 7abd
000002d0: 6c97 47bd e84d 903d b91a babd 6b96 913c
000002e0: cc05 d63d 754a 0a3d 7d1e 78bd e323 94bc
000002f0: bea4 d6bd c35a 8a3d 13ab ef3d 3742 d13d
00000300: 5564 903b 3980 923d f6d7 c33d 4115 0f3e
00000310: 4cb0 af3c 03ed a93d 4906 25bd 637c 3d3c
00000320: 1537 00be 21dd 8ebd 2572 c3bd f7b9 6ebd
00000330: 5245 aabc 2d15 8dbd c8b9 03be abdc 933d
00000340: 9734 4bbc b670 1a3d 08d9 e83d 63b3 d13d
00000350: f019 d0bd f1c1 77bc 7956 02bd ce02 3e3d
00000360: 4190 ae3c 5d76 b73a 1642 9f3c 7c4c 043e
00000370: a609 143d 09fb 733d d18c 0cbe 7191 933c
00000380: 37da b13c f908 943d 1bd4 7abd 1734 12bd
00000390: 2844 763d 203d 9e3c fe03 febd fe99 07be
000003a0: 6f93 4dbd 0040 5cbd 33c0 b6bd 9b00 c0bd
000003b0: 135a 1f3e 7186 f1bc ddff 403d 5457 b73d
000003c0: a657 183c 0649 ccbc 0a02 d43d 9064 af3d
000003d0: 3d27 9c3c 34a7 07bd fa93 f53c 4a95 0abd
000003e0: b27b cabd 548f fbbc 3ebd d03d e317 ddbd
000003f0: 8f28 a13d 38e0 eaba 2d68 efba f624 d8bd
-0.09423715 -0.08621079 0.05065667 -0.023037134 0.029903164 -0.0443998 8.911592e-05 0.047759995
-0.07873017 0.10283596 -0.07155386 -0.023439988 0.057267357 -0.10493067 0.062123906 0.06710771
-0.13685443 -0.018203184 -0.077418275 0.1265671 -0.09489954 -0.13382713 -0.08065286 0.08147187
0.020634461 -0.10456097 -0.022151371 -0.07806699 0.13376217 -0.0958587 0.020079875 0.0796915
-0.12330409 0.021941828 -0.00016514963 0.032418687 -0.050994206 -0.0878643 0.008525878 -0.029684316
-0.019909102 0.12825708 -0.07653679 -0.057769913 0.05483663 -0.079609595 0.0821442 0.15295222
0.09323757 0.0802405 -0.15429986 0.04444958 -0.12178398 -0.046746694 -0.08021096 -0.08586953
0.08644151 0.07493234 0.028196603 0.042083573 0.14947052 0.0425452 -0.038186695 0.07406543
-0.03818901 -0.010903934 0.053504076 0.0129743945 0.08576245 -0.015013028 -0.054990713 0.03946091
0.10205127 -0.13283077 -0.12626918 0.032003023 0.06408845 0.011518075 -0.10382575 -0.11502878
-0.001600019 0.04896276 -0.14195782 0.09169959 -0.10229806 0.034266934 -0.04077874 -0.0902052
0.021457523 -0.009788061 0.06894508 0.12705398 0.14431529 0.07956743 -0.1193872 0.11764809
0.15806723 -0.07648504 0.11792984 -0.17130904 -0.11952602 0.08742177 0.10700916 0.0070917737
-0.09849532 0.012006663 0.061683223 0.026041469 0.07451562 -0.05626529 0.08614092 -0.049056157
0.049408663 0.0509686 -0.107044816 0.072562434 0.081412725 -0.09805302 -0.020979755 0.09121895
0.07697598 0.07816113 0.049909893 -0.0380099 0.05370706 -0.09557102 0.011958488 -0.041910928
-0.04932383 0.14354944 -0.08406078 0.13020566 0.09877831 0.0592963 0.09448784 -0.12295979
0.072265476 -0.006102718 -0.07170994 0.0079502305 0.02454028 -0.08223229 -0.06357966 0.08626699
-0.082638755 0.11008259 -0.076564044 -0.09444087 0.09907784 0.09474863 0.12629001 0.10286303
0.10570864 0.05451527 0.003216599 0.02191722 0.03546802 0.06927921 -0.049658857 0.04908897
-0.07689811 -0.084582366 0.029649038 0.09639457 0.01637756 0.09985476 -0.0737091 -0.115668476
-0.022534806 -0.098749146 0.09494877 -0.13380976 0.10132063 0.07958133 0.09825236 0.092875585
0.02536438 0.00015236218 0.100361235 -0.06111554 -0.04872839 0.070461094 -0.09087128 0.01777192
0.104503244 0.033762414 -0.06057595 -0.018083518 -0.10480641 0.06755593 0.11702552 0.102177076
0.0044064918 0.07153363 0.09562676 0.13972951 0.02144637 0.082971595 -0.040289197 0.011565301
-0.12521012 -0.06975771 -0.09543256 -0.05828282 -0.020785008 -0.068888046 -0.12863839 0.072198234
-0.012402675 0.037705146 0.113695204 0.102392934 -0.10161197 -0.015121923 -0.031820748 0.046389394
0.02130902 0.0013997067 0.019440692 0.12919801 0.036142014 0.059565578 -0.13725592 0.018013688
0.021710498 0.07228274 -0.061237436 -0.035694208 0.060123593 0.019316256 -0.12403105 -0.13242337
-0.05018943 -0.053771973 -0.08923378 -0.093751155 0.15561704 -0.029483052 0.04711901 0.089522034
0.009298241 -0.024937164 0.103519514 0.08564103 0.019061679 -0.03311844 0.029977787 -0.03383378
-0.09886874 -0.030707993 0.10192345 -0.10795572 0.07869064 -0.0017919606 -0.00182653 -0.10553925

classifier.2.bias f4 [10]
00000000: fbd4 3ebc d015 fbbb 5dea d6bc e1a0 a93c
00000010: d227 9ebc 2c94 1c3d 2e0f 653d 7ff8 fbbc
00000020: 58a2 85bd 1a37 593d
-0.011647458 -0.0076625124 -0.0262348 0.020706596 -0.019306097 0.038227245 0.05592268 -0.03075814
-0.06525105 0.053031065
