checkpoints/noise_rate_0.2/models/tsf/epoch145.pth (torch, 250639 bytes, 10 tensors)

feature_extractor.0.weight f4 [6, 1, 5, 5]
000000 c8 f8 10 3e 45 cb 58 bd de c0 02 bd bf 5c 9a 3d
       0.14157403 -0.052928228 -0.031922214 0.07537221
000010 0d a9 5b be e4 a1 3d 3e 51 9b 11 3d 92 8f 2c 3e
       -0.21451207 0.18518788 0.035548512 0.16851643
000020 44 79 8d 3d 67 36 a0 ba cd 27 dd 3d 3b d0 ba 3d
       0.06907895 -0.0012223244 0.10798607 0.09121748
000030 0c a3 28 3e 8a ef 8d 3b 15 5c 55 3d a2 82 f9 bc
       0.16468447 0.004331534 0.05208977 -0.030457798
000040 cc 19 33 3d c4 fc 26 3d d4 ec 72 3e 64 e1 0f 3e
       0.043725774 0.0407684 0.23723155 0.14050823
000050 1e b4 06 be 1f 34 2f be 2b 7e 7a bd 18 e1 9a bd
       -0.13154647 -0.17109726 -0.06115548 -0.075624645
000060 97 cc 9e bc 32 e6 d2 3d 9f 68 83 3e 14 b6 40 3e
       -0.019384665 0.102978125 0.25665757 0.18819457
000070 fb 85 5f be 6b f1 53 3d 11 73 27 3e 56 24 b0 3e
       -0.21828453 0.051743906 0.16352488 0.34402722
000080 a3 06 4b 3e 5f 75 76 be 97 08 8e be 44 2c be 3c
       0.1982675 -0.24068211 -0.2774093 0.023214467
000090 6f 6b ac 3e 4f 3c 49 3d ae 7d 7d 3d c3 ad 0a be
       0.33675715 0.04912978 0.061887436 -0.13542847
0000a0 23 e7 91 3e 6f a0 41 3d d9 04 85 3e 18 88 58 3d
       0.28496656 0.047272142 0.2598026 0.052864164
0000b0 ff b5 97 bd 37 92 17 3e c7 fc a1 bc 55 24 37 3e
       -0.0740776 0.1480187 -0.019773854 0.17884953
0000c0 52 f8 50 3d 0f 49 a9 3d d2 3d 80 be e7 d9 15 be
       0.051018067 0.08265888 -0.25047165 -0.14633904
0000d0 cd 29 80 3d 41 23 21 bd 9c 6e 7f 3e c3 b0 17 3e
       0.06257973 -0.03934026 0.24944538 0.14813523
0000e0 11 16 dd ba d8 d8 b2 bd ed 96 62 3e 76 f7 28 3e
       -0.0016867538 -0.08732766 0.22127886 0.16500649
0000f0 c9 46 9e bd f2 ff 4f 3e 06 7f 68 3e e7 68 94 3e
       -0.07728345 0.20312479 0.22704706 0.28986284
000100 95 f1 30 bd 7c 66 71 3d 9c ac b5 3d 41 fb e6 3d
       -0.04319914 0.058935627 0.08870813 0.11278392
000110 92 81 d6 bd fa 74 0b be 57 d9 42 3e 74 a1 d5 3c
       -0.10473932 -0.13618842 0.19028221 0.026077963
000120 7b d2 15 3e e2 65 bd 3c 09 1c 48 3d 0a 97 18 3d
       0.14631073 0.02311987 0.04885486 0.037253417
000130 7d f3 b0 3d c0 ab e3 3d da 38 3c be fd 90 d3 3d
       0.08640192 0.11116743 -0.18381062 0.10330389
000140 d6 48 1d be 79 f0 16 be 40 d1 f6 3c 5a fd 3c 3b
       -0.15359816 -0.1474017 0.030129075 0.0028837533
000150 5d 40 39 3e de 93 03 be 52 ea 2c be 83 7c 44 3e
       0.18090959 -0.12849376 -0.16886261 0.19188122
000160 7e 53 3e 3d 2f ed 4b 3e eb d6 82 3d 29 68 fc bd
       0.046466343 0.19914697 0.063886486 -0.123245545
000170 4e 75 cf 3d 50 9d f4 3d 0a 92 a9 bd 21 7b b6 bd
       0.10129796 0.119440675 -0.08279808 -0.08910204
000180 3f 62 cd 3d 9a 57 a8 3d 42 85 45 bd 59 7f 52 bd
       0.100285046 0.08219834 -0.048222788 -0.05139098
000190 e6 91 76 3e 14 e1 d2 3d ac d3 7f 3e 6a 5c 2e 3e
       0.24079093 0.102968365 0.2498309 0.1702744
0001a0 da 36 f9 bd 4d 50 8a bd 57 56 e4 3e 15 5e 8b 3e
       -0.12168665 -0.067535974 0.44597122 0.27220216
0001b0 de 1b 93 3e 84 70 db 3d 62 22 8f 3e 2f a6 01 3f
       0.28732198 0.1071482 0.2795592 0.506442
0001c0 0c 6d f7 3e ba ad ad 3c 1c a8 dd 3d 8b 4a be 3e
       0.48325384 0.021201003 0.1082308 0.37166247
0001d0 fd b4 dd 3e 07 c6 b0 3e 46 b3 90 bc ef f1 41 bd
       0.43302146 0.34526083 -0.01766361 -0.047349866
0001e0 48 01 e6 ba 60 a9 1d 3e 82 28 9a 3e 8c ce c9 bc
       -0.0017547989 0.15396643 0.3010903 -0.024634622
0001f0 ea 7d 5d 3e 07 ba e5 bd ba c5 1e be 96 05 d5 3c
       0.21630064 -0.112171225 -0.15505114 0.02600364
000200 f1 d4 77 3e 8a 3e 9a 3e f2 62 98 bd ce 56 27 3e
       0.24202324 0.3012584 -0.07440747 0.16341707
000210 95 2e c2 3e cb 5e ca 3e 75 f2 a0 3e 4e 93 7f 3e
       0.37926164 0.39525446 0.3143498 0.24958536
000220 49 05 94 3e 81 2c 94 3e f1 d4 04 3e b0 13 80 3c
       0.28910282 0.28940204 0.12971856 0.015634388
000230 9c d2 79 bc 73 7e a4 3d 35 d8 1d 3d e9 a9 8c 3e
       -0.015247967 0.08031931 0.03853627 0.2747338
000240 b3 b3 60 3e 8a c7 d6 bc 7f 8c d1 3d 3d 5b 08 3e
       0.2194355 -0.026218195 0.10231876 0.13316055
000250 dc 36 73 3e 73 04 77 3e
       0.23751396 0.24122791

feature_extractor.0.bias f4 [6]
000000 78 42 17 bd 79 3a 76 3e ff 4f 8d 3c 6d a0 c7 3c
       -0.036928624 0.24045743 0.01725006 0.02436849
000010 9e c5 58 bd 4f 8b 6c 3c
       -0.052922837 0.014437511

feature_extractor.3.weight f4 [16, 6, 5, 5]
000000 57 29 16 bd 66 fa f4 bc 2f b9 6f 3d b5 cb c6 bc
       -0.03666052 -0.029904556 0.058526214 -0.024267057
000010 c4 e5 5d bd 4b c8 49 3d fc b3 3a 3d a8 74 89 3d
       -0.0541742 0.04926328 0.045581803 0.067117035
000020 3e 94 11 bd e9 e1 c4 3c 01 d2 01 bd 6a 23 38 bc
       -0.035541765 0.024033504 -0.031694416 -0.011238912
000030 9b 15 8a bd 91 be 35 bd da 3a fc bc 4f 21 08 3d
       -0.06742402 -0.04437119 -0.030789781 0.03323489
000040 05 eb 95 3c 37 e9 66 3c 37 46 8f 3d 4b 30 95 3d
       0.018300543 0.014093689 0.06995814 0.07284602
000050 df 45 69 3d 8d 93 ae 3b 30 5a 87 bd 66 57 59 3d
       0.0569514 0.005327648 -0.06608999 0.053061865
000060 ec 44 92 bc 29 e2 6b bc c3 19 43 bd 0e 39 b7 3c
       -0.01785513 -0.0143971825 -0.04763199 0.022366073
000070 13 95 2c bd bb 4a 89 3d 7f e8 c3 bd d2 f8 05 bd
       -0.042134356 0.06703707 -0.095658295 -0.032707997
000080 d2 58 12 3d 47 01 3d bd f2 e0 5b 3c 15 eb 49 bd
       0.035729237 -0.046143796 0.01342033 -0.049296457
000090 3c 7e 8b bc e3 c9 1a 3d d6 c3 2f 3d 98 68 a4 bd
       -0.017027967 0.03779019 0.042911373 -0.08027762
0000a0 54 b1 09 3d 5d 9e b8 3d 5a 24 cb 3d b4 80 ae bd
       0.03361638 0.090145804 0.09919043 -0.08520642
0000b0 8c 56 93 bb 2c 77 98 bd 55 a0 c4 3d d2 12 38 bc
       -0.004496401 -0.07444605 0.096008934 -0.011234956
0000c0 27 d9 66 3c 27 ac 26 bc 83 ba 0d bc 0f 56 d5 3b
       0.014089859 -0.01017288 -0.008650425 0.006510503
0000d0 c5 04 4c 3c 66 ca 0a 3d 21 9c 47 3c 6a ab fe 3c
       0.012452309 0.03388443 0.01218322 0.031087596
0000e0 2c 86 6e bd 0b 72 70 3d 58 e9 87 3d fd 96 92 3d
       -0.058233425 0.05870251 0.06636304 0.07157705
0000f0 4f 5c 91 3d 17 4f 28 bd 2d ad 29 bd 65 29 53 3d
       0.070976846 -0.04109105 -0.04142492 0.05155315
000100 d2 83 88 bd ac 94 b1 3d ab 98 8e bd e9 aa 9a bd
       -0.06665768 0.08670935 -0.06962713 -0.0755213
000110 92 28 76 3c 0d b9 7b bd d5 1e 6f bc 2a 71 81 3d
       0.015024321 -0.061455775 -0.014594753 0.063204125
000120 77 57 3d 3d ed 49 8e 3d 67 16 44 bc 32 3d 88 bd
       0.04622599 0.06947694 -0.011968232 -0.06652297
000130 4b e2 a0 3d e7 7e b0 bc be ec 1c bd 21 4f aa 3c
       0.07855662 -0.021544887 -0.038311712 0.020789685
000140 88 7d 57 bd e4 29 62 3d e9 af 33 3d 65 0a 95 bd
       -0.05260995 0.05521573 0.043868933 -0.07277373
000150 da b9 84 bd f1 67 88 3b 00 d7 03 3d 9d 41 24 bc
       -0.06480761 0.0041627814 0.03218746 -0.010025409
000160 65 85 48 bd 98 8c 64 3b bd de 95 bd 49 82 66 bd
       -0.04895534 0.003487384 -0.073178746 -0.056276593
000170 1c 90 89 bd b9 30 84 3d bb 56 9a 3d d0 7c dd bc
       -0.0671694 0.064546056 0.07536074 -0.027037054
000180 e1 ef 7b 3b c5 03 f0 3c e0 db 4f 3c 5e b6 16 bd
       0.003844254 0.029298672 0.0126867 -0.036795013
000190 c0 01 40 3d d3 1d c1 3d cb fb 38 3d 8f 7f a4 bb
       0.04687667 0.09429517 0.045162003 -0.005020089
0001a0 a4 33 a9 3d 68 9b 9f 3d f7 4a 9e 3c 4c d2 15 3e
       0.08261803 0.07793313 0.019322855 0.14631003
0001b0 e5 c4 74 3c 94 0b 66 bd cf d5 83 3d 5f 8c 31 bc
       0.014939521 -0.056163386 0.06437265 -0.01083669
0001c0 2a ec de 3d 06 3b c6 bd 69 f5 61 bc 70 83 ce 3c
       0.108848885 -0.096792266 -0.0137914205 0.025209159
0001d0 49 5f 88 3d 62 e6 46 3d 55 b6 ca bd 66 99 8a bd
       0.06658799 0.048559554 -0.09898058 -0.0676754
0001e0 cf ca a5 bd bc 5e a0 3c 7d 48 f5 bc d9 eb 2e bd
       -0.08095323 0.019576423 -0.029941792 -0.04270539
0001f0 06 d5 90 bc d9 53 84 3d 11 1b f0 3d 2b 9a e9 3c
       -0.017679702 0.06461305 0.117239125 0.028515896
000200 c6 90 03 bd c8 ba bd bc db 72 02 bd a3 c0 eb 3d
       -0.03212049 -0.023160353 -0.031847816 0.11511352
000210 c8 08 88 bc 06 f1 45 3c ee 6c d6 3c 8c 7c b5 bc
       -0.01660575 0.01208139 0.026174989 -0.022154115
000220 28 d0 a5 3d c6 7a a6 3c a7 98 ea bc bb 94 39 bd
       0.08096343 0.020322215 -0.028637243 -0.045307856
000230 3d e1 87 ba 6b eb 30 bb 94 e0 c6 bd ef 08 ab bd
       -0.0010366809 -0.0026995789 -0.09710804 -0.08351313
000240 1b 3d 3b bc ce 60 8d 3b 1d ba 02 3d 67 3e 84 bd
       -0.011428143 0.0043145185 0.031915773 -0.06457215
000250 49 2f e4 bc ff 76 94 bc d3 b8 9b bd 59 bc a4 3d
       -0.027854579 -0.018123148 -0.07603612 0.08043737
000260 da 21 ec 3c b2 4f aa 3d bd dd 62 3b 98 31 a4 bc
       0.028824735 0.08315982 0.003461703 -0.02004318
000270 21 c2 76 bd 20 59 ff ba 78 41 8b 3d 7e 11 9e bd
       -0.06024373 -0.0019481517 0.067995965 -0.0771818
000280 46 08 e9 bc a7 3f 6c 3d 6a 2c 79 3d 5a d7 2e 3d
       -0.028446328 0.05767789 0.060833372 0.042685844
000290 f8 6b 53 bc cc 53 c7 bc 6d bc 29 bd 55 d9 2f bd
       -0.01290416 -0.02433195 -0.041439462 -0.042931873
0002a0 cd c1 51 3d 9d d9 8e 39 81 22 03 bd e9 cf cb 3c
       0.051210213 0.00027246485 -0.032015327 0.024879413
0002b0 4d fd 4f bd fd c2 b9 3b e4 db 89 3d ef 5a 7a 3c
       -0.050778676 0.0056689964 0.06731394 0.015280469
0002c0 4a 8d a0 3d c2 b8 36 bd f7 b9 89 3c 1c 51 88 bc
       0.07839449 -0.044609793 0.016812308 -0.016640238
0002d0 60 12 2f bd 35 70 d9 bc 43 84 91 3d 8c 67 47 3d
       -0.042742133 -0.026542762 0.07105305 0.048682734
0002e0 28 ae 3d bd 62 e1 39 bd 95 1a 9a bd ea f1 cd 3d
       -0.046308666 -0.045380957 -0.07524601 0.10055907
0002f0 b5 cf 5c 3c f8 07 8b 3b 97 db 9e bc 41 ec 7a bd
       0.013477256 0.0042428933 -0.019391818 -0.061260466
000300 02 8b ad bd b4 bf a0 bc 22 24 be 3d c5 54 ac 3c
       -0.08473779 -0.019622661 0.092842355 0.021036515
000310 1f 11 05 bd e1 3a 47 bb c0 62 97 3d e9 63 aa 3d
       -0.03248703 -0.0030400085 0.07391882 0.083198376
000320 b7 e1 9b 3d 0e c2 d1 3c 56 2f 64 3d fc e6 20 3c
       0.07611411 0.025605228 0.055709206 0.009820696
000330 39 8e 65 bd a7 5f 88 bd e5 6c 9a 3d 92 47 23 3b
       -0.056043837 -0.06658869 0.07540301 0.0024914485
000340 82 b1 aa 3c c6 9c 18 bb e8 c8 60 bd e1 39 02 bd
       0.020836595 -0.0023286804 -0.0548791 -0.03179348
000350 27 9a 1e 3c f3 57 c6 bc 39 72 8a bd 36 f8 24 3c
       0.0096803075 -0.02421186 -0.067600675 0.010068944
000360 c7 14 ad ba 0e 3a 6c 3b 87 73 89 3d 65 91 23 3d
       -0.0013205045 0.0036045345 0.06711488 0.03993358
000370 ba c4 b1 bc f0 64 00 3e 95 79 e2 3d 7b d2 0a 3d
       -0.021700252 0.12538505 0.11058346 0.033892136
000380 3f bf 5e bc 56 d5 8a bd 0f fb 92 3d c5 e8 55 bc
       -0.013595401 -0.06778972 0.07176792 -0.013055985
000390 a1 f3 70 bd e5 98 61 3d a7 4f 37 3d 86 68 2d 3d
       -0.058826093 0.055077452 0.044753697 0.04233601
0003a0 51 18 58 bc 91 69 16 bd 2c 31 82 3c 0d 89 8e 3d
       -0.013189391 -0.03672177 0.015892588 0.06959734
0003b0 51 8f 4f 3c bd 55 f4 bc 1e 51 b0 3d 5a 52 4e 3b
       0.012668447 -0.02982604 0.08609222 0.003148219
0003c0 14 4f 72 3d a2 31 0f 3d bf d8 dd 3d 9f ee 8c 3d
       0.059157446 0.034959443 0.10832357 0.06881451
0003d0 ab ea 23 bd 99 a5 94 3d 7e d7 af 3c 4b 79 6c bd
       -0.04001872 0.07258148 0.02146506 -0.05773286
0003e0 97 25 dc bc e5 f2 9b bd de 57 99 bd 3b cf 9a bd
       -0.026873393 -0.07614688 -0.074874625 -0.07559057
0003f0 2b 79 8f 3d ea 03 5f 3b 44 42 91 bc ac 40 4f 3d
       0.07005533 0.0034029433 -0.017731793 0.050598785

feature_extractor.3.bias f4 [16]
000000 72 bf a7 bc 89 08 2b bd a5 8d aa 3b f5 5b 00 3d
       -0.02047703 -0.041756187 0.0052048736 0.031337697
000010 39 a1 40 3d e3 f2 9c bc ed 84 28 3c 17 18 18 bd
       0.047028754 -0.019158786 0.010285598 -0.03713235
000020 66 02 84 bd c8 be 43 bd 95 6f 47 bd c6 cc 4d bd
       -0.0644577 -0.047789365 -0.048690397 -0.050244115
000030 f7 80 91 3c f3 4d c9 bc 77 8a 89 3d 0a 20 a8 3d
       0.01776169 -0.024573302 0.06715863 0.08209236

feature_extractor.7.weight f4 [120, 400]
000000 c2 4a 30 bd d5 17 42 3c ed 22 f4 3c a4 b3 43 bd
       -0.043040045 0.011846502 0.02980181 -0.04777874
000010 af f7 91 bc a2 e1 07 3d 8a f3 16 bd 74 72 3c 3d
       -0.0178183 0.033174165 -0.03685335 0.04600759
000020 da b0 8f bb 40 31 66 3c b1 2b 47 3d 38 37 09 bd
       -0.004385096 0.014049828 0.04862565 -0.033499926
000030 05 cf 2f 3d 87 e9 28 bd ba d0 23 3d a8 81 8e ba
       0.04292204 -0.041238334 0.03999398 -0.0010872381
000040 fd 6b 2b 3d 9f 70 83 ba 4f f1 28 bd be 6c 97 3c
       0.041851033 -0.001002807 -0.041245755 0.01848447
000050 77 45 f5 3c a7 e3 2d bc 9e 69 5d bd 5b 40 e2 bb
       0.02994035 -0.010613359 -0.054055803 -0.0069046444
000060 8d 33 1b 3c bd ae 16 3c e9 02 f3 3c 48 7c d8 bb
       0.00947274 0.009196934 0.029664474 -0.0066066124
000070 4c 54 ed 3a f9 bf e8 3a bb a2 c5 3c c8 bb bd 3c
       0.0018106787 0.0017757408 0.024125447 0.02316083
000080 e6 9a b5 3c eb 06 d3 3b e3 fe 30 3c fe 3e 15 3d
       0.022168588 0.0064400337 0.010802957 0.036437027
000090 f9 2f 59 3c bc 90 1f bd c9 bb 63 3c b3 21 61 3d
       0.0132560665 -0.03895639 0.013899752 0.05496378
0000a0 ae 2b 6a bc 1d bb f7 3c 65 b8 3b bd e5 ee 5a bb
       -0.014292641 0.03024059 -0.04583015 -0.0033406552
0000b0 4e ee d6 3c 81 d7 16 bd e6 67 61 bc 6a c1 4e bb
       0.02623668 -0.036826614 -0.0137576815 -0.003154839
0000c0 8f 09 49 bc 00 2f f9 bc 2b 8c 16 3d 8a 5a d4 bb
       -0.012270345 -0.03041792 0.03675477 -0.0064805197
0000d0 a2 10 93 bc a2 19 d3 3c b3 0e 24 3c 1b ac 75 bc
       -0.017952267 0.025769059 0.01001327 -0.014994646
0000e0 dd ab 06 3d 0d c5 a1 bc 1d 12 55 3d 11 7f 0b 3d
       0.032878745 -0.019747281 0.052019227 0.034056727
0000f0 2e c4 78 3b 0f ba 99 3c 08 5d 1e bc c6 9b 00 bd
       0.003795873 0.018765477 -0.009665735 -0.031398557
000100 94 3d c3 bc 34 8b 61 3c ad 84 aa 3c e0 e8 e4 bb
       -0.023833074 0.013766099 0.020815218 -0.0069857687
000110 ef ee 51 bc b9 9d a4 bc 25 33 d0 bc 16 96 a3 bc
       -0.012813314 -0.02009474 -0.025415013 -0.019969027
000120 a8 d1 08 3d 8c 47 4b bd 6f 49 a9 3c 76 da f4 3c
       0.03340307 -0.04962878 0.020664899 0.029889327
000130 1c 82 11 bc 28 e2 46 3b fd a1 b7 bb ce 95 28 bd
       -0.008881118 0.0030347202 -0.0056040273 -0.04115849
000140 f7 bd 2f 3c aa 3a 90 bc ce 3e b2 3c e2 9f 4c 3b
       0.0107264435 -0.017606098 0.021758463 0.0031223227
000150 78 c1 e5 bc e4 db 6b bd 1b 2d e7 3c 7d 37 46 3d
       -0.028046355 -0.05758275 0.02821975 0.04839276
000160 13 e4 0a 3d 0e 72 a0 3c 18 40 38 3c 73 6e 9e 3c
       0.033908915 0.019585636 0.01124575 0.019339776
000170 28 45 f6 3c 7e 45 99 ba ff a7 cd 39 84 f6 34 3c
       0.030062273 -0.0011693684 0.00039225814 0.011045102
000180 83 34 da 3c f1 f6 02 bc b9 49 03 3d 4e 02 fd 3c
       0.026636368 -0.007993446 0.03205273 0.030884888
000190 d7 7a ed bc ab 82 44 bd 05 29 77 bc ea 25 f0 bc
       -0.028989239 -0.047976177 -0.015085463 -0.029314954
0001a0 fb 17 60 3d 8e da a0 bc ef 21 0d bd f1 a8 a0 3c
       0.05471037 -0.019635465 -0.03445619 0.019611808
0001b0 79 22 ae 3c 9e e1 bc 3c 61 eb 37 3d 87 7e 61 bd
       0.021256672 0.023056801 0.04490221 -0.055052307
0001c0 40 e2 d2 3c f0 fa 81 bc 6a bd 6f 3c 25 88 f7 bc
       0.02574265 -0.015866727 0.014632562 -0.030216286
0001d0 75 fb 5a 3d ff 0a 23 bc 0f 05 4b 3c 27 aa 2d bd
       0.053462464 -0.009951352 0.012391343 -0.042398598
0001e0 46 0f 92 3c b7 1d 17 bd fc 06 35 3c 1d 12 40 3d
       0.017829549 -0.036893573 0.0110490285 0.046892274
0001f0 04 8c 18 3d bf e2 cf 3c fd fd 9e bc 4c 55 ed 3b
       0.037242904 0.025376676 -0.01940822 0.007242834
000200 a5 22 02 3c e4 2f 62 bd 55 28 c0 3c 1a 80 1c bd
       0.00794283 -0.055221453 0.023456732 -0.038208105
000210 e6 ac a4 3c 08 33 52 3d 54 6d 85 bc f8 8f 60 3c
       0.020101976 0.0513182 -0.016287483 0.0137062
000220 89 2c 5d 3d be b0 4d 3d 7f dd 68 3d f7 5b bd bc
       0.05399755 0.050217383 0.05685186 -0.023115141
000230 bd b4 4e 3b c6 ba 53 bd 03 62 3b 3a 8a af 53 bd
       0.0031540834 -0.051691793 0.0007148089 -0.05168108
000240 f9 a1 74 3b 59 ca 81 3c b0 76 4c bd 3c bc aa bb
       0.0037327989 0.015843557 -0.049917877 -0.0052104276
000250 5c 59 d3 bc a3 b3 02 3d f8 55 20 bc 2e ee b3 3c
       -0.025799446 0.031909596 -0.009786122 0.021964159
000260 33 f3 08 bd 41 7d ad 3b e0 23 03 3d af c5 98 3b
       -0.033435058 0.0052944724 0.032016635 0.0046622376
000270 d4 94 4f bc d9 4f be bc 36 c0 b4 3c df ad 93 3c
       -0.012669761 -0.023231434 0.02206431 0.018027244
000280 16 86 27 3c 13 ce 1a 3d 9e 53 d3 bb cd c2 8c bc
       0.01022484 0.037794184 -0.006449177 -0.017182732
000290 67 4f 67 3c fd 54 e3 3c 8f a1 78 bd 49 3c f1 bc
       0.014118052 0.027750487 -0.06070095 -0.029447692
0002a0 f1 43 b9 3b 98 dc 12 3d ce a5 d4 3c e7 17 16 3c
       0.005653851 0.035854906 0.025957968 0.009160972
0002b0 24 ca 59 bd c1 3c 04 bd d5 49 b0 3c 1a 93 e7 3b
       -0.053171292 -0.032284502 0.02151958 0.0070670964
0002c0 0e 89 c7 3c 63 21 1b 3d ae d6 d4 3c 79 cd b1 bc
       0.024357345 0.037873637 0.025981274 -0.021704422
0002d0 97 c8 e2 bc a7 7c 46 bc 75 2d 1d bb 1e 70 ca bb
       -0.02768354 -0.01211468 -0.0023983393 -0.006177916
0002e0 30 59 38 bc 72 59 59 3b 8f 50 06 3d b5 1e fc bc
       -0.011251733 0.0033164886 0.03279167 -0.030776361
0002f0 82 4c c0 3c 8c a9 3f bd 5d e8 32 3a 85 d0 40 bd
       0.023473982 -0.046792552 0.0006824786 -0.04707386
000300 79 3f 33 3d a5 26 1e bd 75 ae c5 bc 93 5f ab 3c
       0.043761704 -0.038611073 -0.02413104 0.020919597
000310 29 69 92 3c 1f 26 1b 3d 3e 85 68 3c 3d a2 2c bd
       0.01787241 0.037878152 0.014191924 -0.04214691
000320 01 15 0f bd 45 ba 0b 3d b2 de 46 bd 52 88 37 3d
       -0.03493214 0.034113187 -0.048552223 0.04480774
000330 e1 91 09 bc 4b e3 14 3c 5e 19 0c bb 7b b7 4c bc
       -0.008396597 0.009087394 -0.0021377425 -0.012494917
000340 11 f1 47 bc 73 ed 6f 3c c7 38 0f bc fe 25 0a 3c
       -0.012203471 0.014644015 -0.008741564 0.00843191
000350 d5 39 2b 3d 88 ea 93 3b ab 48 1f bd 98 c4 19 bd
       0.0418032 0.0045140423 -0.03888766 -0.037541002
000360 00 e7 03 3d 37 ad 8e 3c a4 0e 1d 3c 4a ad c8 bc
       0.03220272 0.01741658 0.00958601 -0.024496693
000370 ea 9b 26 bd 78 76 31 3d 80 a8 3f bd 36 da c8 bc
       -0.040676035 0.04332587 -0.046791553 -0.024518114
000380 22 9c a8 3c f7 d6 26 3d ba 80 cd bb f7 04 23 bd
       0.020582262 0.04073235 -0.006271449 -0.039799657
000390 a2 c0 94 3c 18 20 9f 3b f4 19 b8 bb 02 45 42 bd
       0.01815826 0.004856121 -0.005618328 -0.047429092
0003a0 33 c8 21 3d bf 3c fb 3b 77 ce ab 3c 2f 14 92 3c
       0.039497565 0.0076671536 0.020972474 0.01783189
0003b0 ff a5 22 3d a2 97 bc bc cc 0d 14 b9 b4 74 24 bd
       0.039709087 -0.023021523 -0.0001411952 -0.04015036
0003c0 45 99 59 bd e1 6d b4 bc e8 c7 9d 3c a1 6a eb bc
       -0.053124685 -0.02202505 0.019260362 -0.028737368
0003d0 c7 54 04 3d 02 e4 ff 3b 8e 9b 9c bc 68 a6 c0 3c
       0.032307412 0.007809163 -0.019117143 0.023516849
0003e0 5b c0 0b 3d 28 4a b1 bc ac 37 ed 3c e9 5b ea 3c
       0.03411899 -0.021641806 0.02895721 0.02860828
0003f0 3e 47 21 3d 83 f3 ec bc 6b da 57 3d 05 e2 91 3b
       0.039374582 -0.02892471 0.052698534 0.0044519925

feature_extractor.7.bias f4 [120]
000000 2f ee a9 3c 90 e9 11 3d 50 39 ac 3c 28 d9 05 3d
       0.020743458 0.035623133 0.021023422 0.0326778
000010 ce df 2b 3d e4 86 fc bc 94 b9 17 3d fe 68 9b ba
       0.041961484 -0.03082604 0.037042215 -0.0011856852
000020 1d 9f f5 bc 98 47 83 3b 9b e7 bd 3c 5e ca e2 bc
       -0.029983098 0.0040063374 0.023181727 -0.027684387
000030 14 41 18 bd 9d e1 49 bd 18 ef d9 bc ed 83 24 bd
       -0.03717144 -0.049287427 -0.026603267 -0.040164877
000040 ed 56 f3 3c 34 c3 ae bc 79 70 37 bd 24 b7 ec bc
       0.029704535 -0.021333314 -0.044784997 -0.028895922
000050 0d 8e 2b bc 71 a5 fb 3c 13 27 12 3d 80 82 87 3c
       -0.010470879 0.030718537 0.035681795 0.01654172
000060 34 2c 2d 3d c7 e4 20 bd 1a 44 ad bc cd 3d 17 3d
       0.042278484 -0.03928068 -0.021150637 0.036924172
000070 5f 01 85 bc 07 03 71 3c 41 a4 54 bc 1b 73 cc 3c
       -0.016236005 0.014710194 -0.012978614 0.02495723
000080 3f c4 45 bd 3d de c1 3c e3 9d e4 bc a2 75 e6 bc
       -0.048282858 0.023665542 -0.027907318 -0.028132264
000090 69 5f 19 3d 5f d8 d1 bc cb 15 d8 3b 55 b5 8c 3a
       0.037444506 -0.02561587 0.006594395 0.0010735194
0000a0 22 b9 13 bd 93 aa e3 3c 45 ce 14 bd 22 34 91 bc
       -0.03606523 0.027791297 -0.036329526 -0.017725054
0000b0 1e 35 45 bd a0 0f 3e bc 10 d7 82 3c 87 12 58 3c
       -0.04814636 -0.011600405 0.01597169 0.013188011
0000c0 3c 73 be 3c f1 0b 8b bc de 1e 99 3c 1a 6e 49 bc
       0.023248307 -0.016973468 0.018691476 -0.012294317
0000d0 ba 7e 28 3d f8 9d ef bc 9d 25 29 bb 66 43 b3 3a
       0.04113648 -0.02925013 -0.0025809773 0.0013676703
0000e0 19 d8 14 3d e4 7b 71 bc 31 b4 1e bd 1b 78 80 3c
       0.0363389 -0.0147390105 -0.038746063 0.01568227
0000f0 41 fe 41 3d 8c 74 07 bd 03 f4 87 bc 3d e4 6f bc
       0.047361616 -0.033070132 -0.016595846 -0.014641819
000100 41 20 0b 3d 28 01 e0 3b a0 dd 2c bd de 7b 1d 3d
       0.033966307 0.0068360753 -0.042203546 0.038448207
000110 1c b4 56 bc 7e 57 40 bd d3 9f 41 3d e8 02 2c bc
       -0.013104465 -0.04695844 0.04727156 -0.01049874
000120 28 07 b0 3c ec ce 33 b9 7c 2c 16 3d 6d a8 af bc
       0.021487787 -0.00017147855 0.036663517 -0.021442616
000130 81 7b 72 bc ea 70 c4 bc 52 68 02 bd bc f7 01 bd
       -0.014799953 -0.023979623 -0.03183777 -0.0317304
000140 19 c6 e1 3c a8 17 08 bd 4c b2 1f b9 e1 0f f3 3b
       0.02756028 -0.033225685 -0.00015229842 0.0074176644
000150 45 c5 54 3d bc 0e 91 bc 59 07 84 bc c7 6d d5 3c
       0.051945943 -0.017707221 -0.016116785 0.026053322
000160 c1 3c 3b 3c 93 30 bb 3c b5 8c 2a 3d 1a 89 26 bd
       0.011428059 0.02285031 0.041638095 -0.040658094
000170 fe 55 5c 3c 19 38 f6 39 55 4d 39 bd b0 80 ce bb
       0.0134482365 0.00046962572 -0.045239765 -0.006301962
000180 8a 8a 73 3c 1f 9d eb 3c 12 f7 29 3b 87 e1 0b bd
       0.014864573 0.028761445 0.002593462 -0.034150627
000190 87 9f 55 bc 31 33 32 3d 2f cf ca 3c 6f 71 14 bd
       -0.013038523 0.04350585 0.024756996 -0.03624099
0001a0 ba 66 5b 3c 01 b7 21 bc e8 be 34 3c 55 d4 02 3d
       0.013391191 -0.009870292 0.011031844 0.031940777
0001b0 ed 04 d7 bc 02 45 06 bb cd a3 25 3d 05 aa df bb
       -0.026247466 -0.002048791 0.040439416 -0.006825688
0001c0 ca 91 48 3d 40 9a 68 ba 19 47 0d 3c c9 53 0d bc
       0.04896716 -0.00088730827 0.008622908 -0.008625933
0001d0 d9 0e b1 3c d3 58 70 bc 91 63 57 3d 41 9b 36 3d
       0.021613525 -0.014669615 0.05258519 0.044581655

classifier.0.weight f4 [84, 120]
000000 f3 2f 57 3c 5b 02 5e bd b2 74 c3 3c ee 08 9e bb
       0.013133991 -0.054201465 0.023859356 -0.004822842
000010 87 ad 9c bd aa b4 04 3d 12 4b 7c bd 7f 57 31 bd
       -0.07650285 0.032398857 -0.06159503 -0.043296333
000020 a0 59 8d bd 7b f2 84 3d e1 bf 65 3d fa d6 59 bd
       -0.0690186 0.06491562 0.056091193 -0.053183533
000030 3a 35 89 3d 62 5b 8b bd e2 c6 06 3c 1a be 76 bd
       0.06699605 -0.06804539 0.008226128 -0.06023989
000040 ac c7 7d 3d 36 9c 1a bd fa 1c 40 bc 33 47 15 3d
       0.061958 -0.03774663 -0.011725659 0.036444854
000050 14 f7 a9 bd 28 86 88 3d 95 47 c0 3b c3 b2 60 bd
       -0.082990795 0.06666213 0.0058679082 -0.05485798
000060 a0 fa 25 3b de a5 16 bd 6c ef 9e 3c c4 11 67 3d
       0.0025326386 -0.036779277 0.019401275 0.056413427
000070 0e b9 a7 bd 0c 5c 8f 3d 97 40 c7 bc d8 06 9b 3d
       -0.08189593 0.069999784 -0.024322791 0.07569665
000080 aa 6a b1 3b 89 58 17 3d 9e 90 32 bd 26 36 90 3c
       0.0054143267 0.036949668 -0.04359495 0.017603945
000090 4b 09 3b 39 1a bb 98 bc 8a cc 29 bd ea 68 1e 3b
       0.00017837172 -0.018643904 -0.04145483 0.002417142
0000a0 e2 f8 c3 bd ae 43 57 bd e3 13 d4 bc 4b b8 15 3b
       -0.09568955 -0.05255478 -0.025888389 0.0022845443
0000b0 38 7b 73 bd 45 72 2d bd d8 03 77 3c 89 c9 83 3b
       -0.059443682 -0.042345304 0.0150766 0.0040218276
0000c0 8d 33 96 3c 7f 56 4a bd 61 fd 95 3d 08 b7 ba bc
       0.018335128 -0.049398895 0.07323719 -0.022792354
0000d0 1e 6f aa bd b5 43 62 3d 11 b0 09 3c ff 19 e1 bb
       -0.08321975 0.05524035 0.008403794 -0.006869554
0000e0 7d 4f a8 bd a3 c1 39 bd 3f 23 4c 3d c4 c3 7f bc
       -0.08218286 -0.045350682 0.0498383 -0.015610639
0000f0 85 02 60 bd 5b 89 8c 3d 2e 5a 97 bd 00 d4 90 3d
       -0.054689903 0.06862136 -0.07390247 0.07071686
000100 de be fb bc a5 f3 1c 3d 3b f3 39 3c ce b9 d1 3d
       -0.030730661 0.038318295 0.011349495 0.102405176
000110 17 ff f0 3c 1a 89 c9 bb d6 db af 3d 81 7e 94 bd
       0.029418511 -0.006150377 0.08586852 -0.07250691
000120 8b d2 81 3c c8 d7 ec 3c 2e 0a 57 bd 6e 1b 58 bd
       0.015847465 0.028911486 -0.052499942 -0.052760534
000130 37 8d 3d bd b1 59 44 bd 68 22 50 bc f3 a3 66 bd
       -0.04627725 -0.0479371 -0.012703516 -0.056308698
000140 d9 96 85 3d de e3 0d bb 75 45 c5 3d 54 0e 83 3c
       0.065229125 -0.0021650712 0.096323885 0.015998043
000150 c7 df 0f bb 6b 4c 02 3c 11 76 28 bd ca e9 15 bd
       -0.002195345 0.00795279 -0.041128222 -0.03659991
000160 24 39 1b 3d 2f 2c 3d bc ed 04 1b 3c 9f 88 ec bb
       0.03789629 -0.011546179 0.009461624 -0.007218435
000170 4b f6 bf 3d 83 01 cf bd a3 da 73 bd de ff 43 bd
       0.093731485 -0.1010771 -0.05953468 -0.047851436
000180 91 e2 e4 bc 25 96 92 3d 2a 78 7f 3d 1a 31 62 bd
       -0.027940067 0.07157544 0.062370457 -0.05522261
000190 ca b7 dc bc ea 89 d0 3d 1d f6 97 bd cf 23 1a 3c
       -0.026943106 0.10182555 -0.07419989 0.0094079515
0001a0 4e 7c 0e 3d 1a b1 32 3d 6f 24 cf 3d c3 8f 73 3d
       0.034786515 0.04362593 0.10114371 0.059463274
0001b0 6d 67 64 3c 58 ee b4 bd 59 62 26 bd 26 5a 7e bc
       0.013940674 -0.08834523 -0.040621135 -0.015524423
0001c0 84 35 88 bd c5 e8 19 bd 35 e4 c1 3b 59 f1 10 bd
       -0.06650832 -0.037575502 0.005917097 -0.035386417
0001d0 39 1d 5f 3c 87 9a 1b 3d 69 88 81 3d f9 3c 8f bd
       0.013617807 0.037989166 0.06324846 -0.069940515
0001e0 c9 ac a5 3d 3f de 14 3d a3 d9 f3 3b 2b 8a d3 bc
       0.08089597 0.036344763 0.007441716 -0.02582272
0001f0 ac b0 e2 bc 4f 78 84 3b 23 96 3f bc 22 50 b1 bd
       -0.027672134 0.004042662 -0.01169351 -0.08657862
000200 02 14 6d 3c 1b 1b 76 bd 24 8f 9d bd a1 5b 5c 3d
       0.014470102 -0.060084444 -0.076933175 0.05379832
000210 69 84 81 bc ba 02 c4 bc 55 3e 4c bc f5 f7 1d bd
       -0.015810208 -0.023927081 -0.012466033 -0.03856655
000220 46 29 41 3d bb 13 52 bb e8 21 25 bd f4 1b ac 3d
       0.047158502 -0.0032055217 -0.04031554 0.08403769
000230 00 0a 87 3d 69 e5 8a 3d 1b ad b9 bd 7b 8d 94 3c
       0.06593704 0.06782038 -0.090662204 0.01813387
000240 27 9e 7e 3b 6c 76 a0 3d 2b 65 c8 3c e9 c8 94 3c
       0.003885159 0.07835087 0.024462303 0.018162208
000250 bc cc 75 3d be 97 22 3d 59 c2 a7 bd b2 52 b3 bd
       0.060009703 0.039695494 -0.08191366 -0.08756007
000260 18 0a 50 bd bc 7a a1 bc c6 2d b3 3c 3b 5e 6b 3d
       -0.050790876 -0.019711845 0.021872412 0.057462912
000270 79 f9 a8 bd ea 84 61 bc 61 1f 92 bd 02 4e a1 3d
       -0.08250708 -0.013764599 -0.07134891 0.07876207
000280 ba 2d 70 3d e4 a7 56 3d 20 72 2d bc f5 a0 6b bd
       0.05863736 0.052406207 -0.010586292 -0.057526547
000290 00 12 3c bd f1 7e a2 ba 30 b4 21 3a b2 4e fc ba
       -0.045915604 -0.0012397451 0.00061685126 -0.0019249527
0002a0 bd e5 9e 3d 67 6d 41 bd 01 6b 8e 3d 17 34 25 3d
       0.07758663 -0.047223475 0.06954003 0.04033288
0002b0 36 38 93 bd 4e 80 2a bd 1f 90 62 bd 8b d6 23 3a
       -0.07188456 -0.041626267 -0.055313226 0.0006249926
0002c0 f2 16 46 3d a5 c5 53 3d 7c 70 9d bc 3d 9c a0 3d
       0.048361726 0.05170216 -0.019218676 0.078423
0002d0 bb b6 2f 3d a9 83 63 3c 74 30 97 bd fb 1f 9e bd
       0.042898875 0.013886371 -0.073822886 -0.077209435
0002e0 ea 85 69 3d f5 31 47 3d 69 80 33 bd c0 6e 8b bd
       0.057012476 0.048631627 -0.043823633 -0.06808233
0002f0 c0 86 93 3b 04 71 aa bd 69 33 7b 3d c1 b1 43 3d
       0.0045021474 -0.08322337 0.061328325 0.04777694
000300 5a b9 ce 3c ad 2d 86 bd cb b2 5c bc 1c e6 3c bd
       0.025234867 -0.06551681 -0.013470362 -0.046117887
000310 fb e0 3a 3d ef b7 b1 3d 2b d6 2e 3b 3d 13 c0 bc
       0.045624714 0.08677661 0.0026677947 -0.023446674
000320 03 85 80 3d 45 ad ad bc ec 24 2c bd 62 53 9c bd
       0.0627537 -0.021200785 -0.0420274 -0.076330915
000330 e1 19 4a 3c f1 44 93 3d dc 52 68 3d fb 98 01 3d
       0.012335272 0.07190884 0.056719646 0.031640034
000340 40 dc 7f 3d 6b d9 94 bd c9 b2 b6 3d 3e 48 f4 bc
       0.062465906 -0.07268032 0.08920819 -0.029819604
000350 09 41 b5 bd 7a ed 29 3d 93 53 ba 3c a3 0f 98 bc
       -0.08850295 0.04148624 0.02274493 -0.018562144
000360 fd 23 b1 bd 1c f7 80 3a 09 c2 3b bd 48 69 5d bd
       -0.08649442 0.0009839269 -0.045839343 -0.054055482
000370 ce 27 a7 3d 12 13 2e 3d 81 48 a3 bd 97 96 20 bd
       0.08161889 0.042498656 -0.079728134 -0.039206114
000380 f6 5b 34 bd a0 f2 a7 bd b6 73 96 bd 35 70 b9 3d
       -0.044033013 -0.08200574 -0.07346289 0.09054605
000390 1e 02 d8 3b 14 ae 97 3d 39 ff 77 3c 84 f6 b3 3d
       0.0065920493 0.0740625 0.015136533 0.087872535
0003a0 a8 0d 62 bd c9 d1 b9 3c 50 c3 39 bd 4a 9a 04 3d
       -0.055188805 0.022683041 -0.04535228 0.032373704
0003b0 b2 f7 8f 3d de 38 8c 3d d3 15 7c bd 20 be 67 bb
       0.07029666 0.06846784 -0.06154425 -0.0035361126
0003c0 51 6c 53 3c 3e f0 d1 3c 94 b8 15 bd 2c ee 04 3d
       0.012904243 0.025627252 -0.03655298 0.0324537
0003d0 44 92 92 bd 0f 8d 0e bd 57 46 a1 bc 31 e5 82 bc
       -0.07156804 -0.034802493 -0.019686861 -0.015978428
0003e0 5f c3 9d bd 9c 76 72 3d c7 52 46 bc 2c d2 31 3d
       -0.0770328 0.059195146 -0.012104697 0.043413326
0003f0 36 ea 09 bb 39 0f a5 3b 1c 98 aa 3d c9 bf 8b 3d
       -0.0021044142 0.005037215 0.08329794 0.068236895

classifier.0.bias f4 [84]
000000 ad 26 fb bb 95 b8 b0 bd 80 06 2f 3d 42 84 b0 3d
       -0.0076645226 -0.08628956 0.04273081 0.08618976
000010 25 c8 b4 3c fd 2f 27 3d 4c 6d a2 3d 38 13 5f 3d
       0.022068093 0.04081725 0.07931003 0.054461688
000020 93 ca 23 bd e2 8f 41 3d 10 d3 99 bd c3 b4 bb 3d
       -0.03998811 0.047256358 -0.0751096 0.09165337
000030 8a 0d 7b 3d 39 98 46 bd fd c2 de bc 73 13 65 bd
       0.06129221 -0.048485015 -0.027192587 -0.05592675
000040 9f 39 10 bd 85 d4 6d bd 95 63 aa bd 03 b9 52 bc
       -0.0352112 -0.058064003 -0.08319775 -0.012861493
000050 8c a3 18 3d 64 1e 67 3d d1 49 f6 bc 7f 27 8a bd
       0.037265345 0.056425467 -0.030064495 -0.067458145
000060 24 16 5f 3d 06 1a 74 3b 95 0c c7 ba 71 90 40 3d
       0.054464474 0.0037246956 -0.0015186245 0.04701275
000070 b7 43 d5 bc b9 db 30 3d 6b 59 01 3d 94 00 65 bc
       -0.026033266 0.043178294 0.031579416 -0.013977189
000080 49 5e 12 3b 2d f9 c1 bc 70 63 24 bd 79 88 cc bb
       0.002233403 -0.023678387 -0.040133893 -0.0062418547
000090 09 33 9a bd f7 5f 91 bd 51 77 87 3a 31 a2 b1 bd
       -0.075292654 -0.07098382 0.0010335242 -0.08673514
0000a0 3a a2 19 bc 35 71 a6 bd c8 34 fb 3c c3 58 8e 3c
       -0.009377057 -0.08127061 0.030664816 0.01737631
0000b0 9d af 2b bd d3 2d 7b ba a4 d6 37 3d db 14 9e bd
       -0.041915525 -0.00095817185 0.04488243 -0.077188216
0000c0 64 55 9c bd e7 5d ba 3c cc 9b c0 3c f0 3f 39 3d
       -0.076334745 0.022749854 0.02351179 0.04522699
0000d0 65 1c 4d 3c 57 95 ba bd 8f 85 4a bd 50 1d a2 3a
       0.012518977 -0.091105156 -0.049443778 0.0012368355
0000e0 7e 2b 33 bd 31 9a 0c bd 4d ae a7 3c d1 62 56 bd
       -0.04374265 -0.034326736 0.020468855 -0.052340332
0000f0 46 0b 27 3c 95 db c9 3d f3 d9 b5 3d 95 d0 3f bc
       0.010195559 0.09856335 0.08879461 -0.011707445
000100 d9 c4 6c 3d 87 7d 98 bd 71 d8 52 3d ff 7e 44 3c
       0.057804916 -0.074458174 0.051475946 0.011993169
000110 b0 b4 a6 3d f6 51 86 3d 50 44 ac bd af b3 ad 3d
       0.08139932 0.065586016 -0.08411467 0.084815376
000120 05 c4 87 3d 6a 1b 9d 3d 8a 3b 5d 3d af f0 36 bd
       0.06629185 0.076712444 0.05401186 -0.044663128
000130 8b be 71 bb cc 67 a5 bb da 64 30 3d 6c 04 34 3d
       -0.0036887254 -0.005047774 0.04306493 0.04394953
000140 ee 97 1a bd 7c 5d a2 bc 12 6d 19 bd 56 d4 60 3b
       -0.037742548 -0.019819967 -0.037457533 0.003430625

classifier.2.weight f4 [10, 84]
000000 7e 3b dd bd 10 96 b1 bd bf b0 be 3d 99 0e ee bc
       -0.10802363 -0.086712 0.093110554 -0.029059695
000010 04 76 14 3c 19 97 36 bd 02 f4 a6 3b fb 0e d4 3c
       0.00906134 -0.04457769 0.005095006 0.02588605
000020 2c 5d a6 bd d4 05 cf 3d 9e be ac bd cb 7b bc bc
       -0.0812324 0.101085335 -0.08434795 -0.023008248
000030 70 11 53 3d 74 58 de bd 80 69 bf 3d 5e 05 ce 3d
       0.0515303 -0.10856715 0.093462944 0.100596175
000040 8d d2 3f be 31 6e a3 bc 77 94 b5 bd aa e6 31 3e
       -0.18732662 -0.019950004 -0.08866208 0.17373148
000050 09 5e 04 be 26 38 23 be 50 1b 9d bd 30 95 79 3d
       -0.12926497 -0.15939388 -0.07671225 0.060933292
000060 65 6b b4 3c 3b 28 ea bd 20 a8 e8 bc 90 d5 8c bd
       0.022023866 -0.114334546 -0.02840048 -0.06876671
000070 1f d2 1d 3e b0 08 de bd ca 65 df 3c 7c 1d 6b 3d
       0.15412186 -0.10841501 0.027270216 0.057401165
000080 34 82 32 be 9b 00 e0 3c 84 30 32 bc 20 c4 be 3c
       -0.17432481 0.027344039 -0.010875825 0.023286879
000090 bf 9a 71 bd 16 12 0c be f5 22 74 bb 42 3c 4f bc
       -0.058985468 -0.13678774 -0.0037252281 -0.012648644
0000a0 cb cf 39 bd 66 9b 29 3e 21 2a 85 bd c9 06 d3 bd
       -0.045364182 0.16563186 -0.06502176 -0.103040285
0000b0 fd 91 c1 3c 39 5c e1 bd 99 49 e0 3d 97 e5 48 3e
       0.023629183 -0.11003918 0.10951538 0.19618832
0000c0 7b c9 0b 3e 33 fd b7 3d 83 26 52 be 81 62 1a 3d
       0.13651077 0.08983841 -0.20522504 0.037691597
0000d0 f9 2a 20 be 95 a7 28 bd 22 bd c5 bd 81 fb af bd
       -0.15641393 -0.041175444 -0.09655215 -0.085928924
0000e0 08 41 8f 3d 91 23 9a 3d 5b 35 41 3d d6 29 4b 3d
       0.069948256 0.07526315 0.047170024 0.049600445
0000f0 2b 3c 38 3e 8f f6 6c 3d b1 a2 aa bd 64 c6 a2 3d
       0.17991702 0.057852324 -0.08331812 0.07947996
000100 7f 09 1c bd fc 64 09 bc b0 0b 4a 3d ff 15 38 3c
       -0.038094994 -0.008385893 0.049327552 0.011235713
000110 2f 6a 8f 3d 80 af de bc 00 73 70 bd 38 ba 90 3c
       0.07002675 -0.027183294 -0.058703423 0.017666921
000120 9a 07 be 3d a4 89 20 be 39 21 13 be e4 2e fd 3c
       0.09278794 -0.15677506 -0.14368142 0.030906148
000130 c6 dd 74 3d f9 d3 b0 3c fc 8d 20 be b7 4f 0a be
       0.059781812 0.021585451 -0.15679163 -0.13506971
000140 06 08 8f ba 01 2f 0f 3d 50 76 3c be 3c 42 db 3d
       -0.0010912425 0.034956936 -0.18404508 0.107059926
000150 fa 01 e3 bd fd 04 0b 3d 98 2d d9 bc 0b b5 c5 bd
       -0.110843614 0.033940304 -0.026510999 -0.09653672
000160 bc 39 c5 3c b1 1d 94 3c bb 06 db 3d 83 d6 1c 3e
       0.024075381 0.018080564 0.10694643 0.15316205
000170 12 35 4a 3e 16 24 09 3e 92 26 18 be 1f 74 1d 3e
       0.19746807 0.13392672 -0.14858463 0.15376328
000180 ee 7d 4c 3e 62 d9 9b bd 12 ac fc 3d 35 d0 77 be
       0.19969913 -0.07609822 0.12337507 -0.24200518
000190 f6 94 04 be 4a d5 d4 3d 79 50 ea 3d db 85 81 3c
       -0.12947449 0.10392244 0.1144113 0.015810898
0001a0 17 47 c5 bd 98 3a a9 ba f0 7d ad 3d 96 db e4 3c
       -0.096327 -0.0012911139 0.08471286 0.027936738
0001b0 94 d0 a7 3d ad 3c 29 bd d7 05 b1 3d 1a ca 1f bd
       0.0819408 -0.04131763 0.08643692 -0.0390111
0001c0 20 c9 4f 3d f6 da 23 3d ec cf 12 be 19 ea ca 3d
       0.050728917 0.04000374 -0.14337128 0.09907932
0001d0 f2 03 cc 3d 79 4b 01 be d4 07 d4 bb 80 0c d4 3d
       0.0996169 -0.12626447 -0.0064706597 0.10353947
0001e0 7d 95 a1 3d 28 dc fc 3d 09 66 a5 3d fa da 2d bd
       0.07889841 0.12346679 0.08076102 -0.04244516
0001f0 60 9a 28 3d 18 70 d2 bd 7f cb 84 bc 7e 52 66 bd
       0.04116285 -0.102752864 -0.016210316 -0.056231014
000200 75 60 88 bd 99 17 40 3e 7e 01 ce bd b2 3c 25 3e
       -0.06659023 0.18759002 -0.10058878 0.16136435
000210 37 bd e0 3d 1d 2b 96 3d ce e3 03 3e 75 32 e0 bd
       0.1097359 0.07332442 0.1287987 -0.10947124
000220 1f 01 c2 3d 1c cb be bc 0a b2 ea bd 1b ac 43 bc
       0.0947287 -0.02329021 -0.114597395 -0.011942889
000230 76 e2 f2 3c 22 f4 b6 bd 7b 78 71 bd 81 55 c0 3d
       0.029649 -0.089332834 -0.05895279 0.093913086
000240 b5 07 8e bd 67 c8 e5 3d 2c eb ba bd ed 4c fc bd
       -0.06935064 0.11219864 -0.09126887 -0.1231936
000250 21 6a ca 3d 5a 6d d1 3d f0 04 04 3e e8 dd fa 3d
       0.09883524 0.10225935 0.12892509 0.122493565
000260 ca b4 24 3e ae 00 85 3d c4 2d 1c 3c 1d b3 ec 3c
       0.1608459 0.0649427 0.009532396 0.028894002
000270 0e 4c 95 3d 4b 2a 93 3d 48 d2 85 bd 40 14 73 3d
       0.07289897 0.07185801 -0.065342486 0.059345484
000280 45 66 a9 bd 35 f2 e1 bd 22 48 e8 3c a9 be fa 3d
       -0.082714595 -0.110325254 0.028354708 0.12243397
000290 46 3f 38 3c b4 7a 06 3e 08 83 b6 bd a5 63 1f be
       0.011245554 0.13132745 -0.08911711 -0.15565355
0002a0 00 17 c5 bc 24 b3 c9 bd f4 f1 06 3e 86 2e 2f be
       -0.024058819 -0.098486215 0.13178235 -0.17107591
0002b0 0f 0a fd 3d 71 50 14 3e 32 dd bf 3d 2e 40 cc 3d
       0.12355434 0.14483811 0.093683615 0.09973179
0002c0 c5 a3 52 3b 12 8e 30 bc f5 9b 10 3e f0 0a ac bd
       0.0032141071 -0.01077606 0.14121993 -0.08400524
0002d0 44 da fb bc 86 9a 91 3d 43 f9 dc bd 4d 2b 24 3d
       -0.030743726 0.07109551 -0.107897304 0.040080357
0002e0 f9 6e 15 3e 8c 32 3e 3d 09 66 c8 bd 37 f7 a9 bc
       0.14593114 0.046434924 -0.09785087 -0.020747764
0002f0 2a 57 33 be 89 5a 87 3d 62 bb 0e 3e e9 7d d6 3d
       -0.17513719 0.06609065 0.13938668 0.10473234
000300 24 98 b9 3b cd 7f a4 3d b7 26 e5 3d 6b e7 43 3e
       0.0056638885 0.080321886 0.11189025 0.19131248
000310 29 d6 0b bb ff 82 ef 3d 7f 65 b3 bd e0 42 55 3d
       -0.0021337366 0.116949074 -0.08759593 0.05206573
000320 68 c7 0b be e4 e2 c2 bd 10 13 f8 bd 3f 31 60 bd
       -0.13650286 -0.09515932 -0.12113011 -0.054734465
000330 b5 b3 aa bc bf 96 a8 bd 66 93 48 be 98 0d a2 3d
       -0.020837644 -0.082318775 -0.19587478 0.07912749
000340 54 b2 8e bc cf de 34 3d f3 6f 24 3e 4e df fe 3d
       -0.017419018 0.0441578 0.1605833 0.12444936
000350 2b 44 26 be 17 9f 85 bd 40 12 62 bd 87 d5 0d 3d
       -0.16236942 -0.065244846 -0.055193186 0.034627464
000360 b2 f2 75 3c df 87 0c 3c 72 f7 d0 3c 4b 70 47 3e
       0.015011476 0.008577316 0.025508616 0.1947643
000370 7b 32 5f 3d 17 5b cb 3d ff 7c 36 be 4c 71 21 3c
       0.0544915 0.099294834 -0.1782112 0.009853672
000380 cf 8b 77 3d a4 88 9b 3d 4a c7 f4 bd 17 06 2b bd
       0.060436066 0.075944215 -0.11952074 -0.041753855
000390 63 6f b2 3d b6 d4 3e 3d 0c 45 3f be 2e 24 17 be
       0.087126516 0.046589576 -0.18678683 -0.14759895
0003a0 25 12 4d bd 9c 02 3c bd 3a 7e 03 be ec 3e d5 bd
       -0.050066132 -0.045900926 -0.1284112 -0.10412392
0003b0 04 4d 4e 3e 60 97 3b bd df 5e 60 3d 2c 00 e4 3d
       0.20146567 -0.04579866 0.054777976 0.11132845
0003c0 bb dd 09 3c 05 a7 14 bc e9 ec 0c 3e 34 a1 15 3e
       0.008414681 -0.009073024 0.13762249 0.14612275
0003d0 2a b5 80 3c a7 08 ee bc 52 d3 e8 3c c1 e2 c0 bc
       0.015711386 -0.02905686 0.028421078 -0.023545625
0003e0 a3 6d cd bd 64 2a 62 bd 43 09 10 3e 1a 89 19 be
       -0.10030677 -0.055216208 0.14066033 -0.14993706
0003f0 87 0e cd 3d 54 07 32 bb d1 8d 82 3c 81 4d dc bd
       0.100125365 -0.0027165012 0.015936764 -0.1075697

classifier.2.bias f4 [10]
000000 05 90 9e bc 03 be 30 bc 59 07 d8 bc e5 8b c7 3c
       -0.019355783 -0.01078749 -0.026370691 0.0243587
000010 f1 26 18 bd bd 0f 7c 3d 3e df 60 3d 6d 33 f0 bc
       -0.037146512 0.061538447 0.0549004 -0.029321397
000020 bd a8 8a bd 65 0f 69 3d
       -0.067704655 0.056899447
