checkpoints/noise_rate_0.2/models/tsf/epoch5.pth (torch, 250639 bytes, 10 tensors)

feature_extractor.0.weight f4 [6, 1, 5, 5]
0.13285978 -0.06133166 -0.021604348 0.096809424 -0.19537821 0.16123271 0.0011937622 0.14069457
0.0548918 -0.010129371 0.090873115 0.05482441 0.12384784 -0.032361675 0.021750962 -0.0056563965
0.053585738 0.037872106 0.21867616 0.105058745 -0.07951733 -0.11609685 -0.018165383 -0.06252574
-0.034503903 0.08336912 0.2073832 0.16850182 -0.18970256 0.09500943 0.14726932 0.29216924
0.18867555 -0.1881618 -0.2186887 0.0011817927 0.2779365 0.025292242 0.095666245 -0.09660923
0.28031316 0.0049810563 0.21786252 0.044969942 -0.072560236 0.16202353 -0.03769217 0.12707756
0.0053094784 0.03768613 -0.21177399 -0.11514287 0.10333578 -0.02764903 0.2367115 0.16137451
0.0011787638 -0.09930875 0.17535993 0.113451235 -0.101253785 0.17026572 0.18159431 0.24108042
-0.06807425 0.0057789697 0.043117993 0.08374745 -0.10548939 -0.1139692 0.14456306 -0.006995549
0.13944781 0.043628484 0.08810845 0.031336617 0.07106124 0.10568493 -0.16982591 0.12342069
-0.14616688 -0.14739537 0.029780623 -0.0022199356 0.1594923 -0.116868086 -0.16900805 0.17472184
0.01467064 0.16148935 0.06453223 -0.13661788 0.07307371 0.09067415 -0.09534167 -0.09338006
0.083503164 0.062973425 -0.05618061 -0.038612407 0.24928975 0.0877169 0.24961345 0.18171862
-0.096774295 -0.061152965 0.37372598 0.19290763 0.25438952 0.093040235 0.22775325 0.3730462
0.38698727 -0.018642098 0.08580345 0.3163248 0.34300664 0.28577384 -0.048666317 -0.07865979
-0.001418296 0.15256134 0.30622333 -0.042330634 0.18296096 -0.10561096 -0.15820014 0.04050061
0.24246033 0.30685937 -0.09316598 0.120754994 0.31492817 0.3074828 0.2666229 0.20232016
0.23442884 0.21016961 0.034127247 -0.038579546 -0.036474105 0.06793376 0.0057973457 0.21450168
0.17718327 -0.012558287 0.13322817 0.15135266 0.22113216 0.22282177
00000000: 650c 083e e836 7bbd 9afb b0bc 0544 c63d
00000010: 3a11 48be 301a 253e 0378 9c3a 3d12 103e
00000020: 39d6 603d a9f5 25bc af1b ba3d 8f8f 603d
00000030: f0a3 fd3d ad8d 04bd 132f b23c 4b59 b9bb
00000040: b87c 5b3d c81f 1b3d a5ec 5f3e 0a29 d73d
00000050: fbd9 a2bd 2fc4 edbd 92cf 94bc 7f0d 80bd
00000060: f753 0dbd 6ebd aa3d 435c 543e be8b 2c3e
00000070: 6341 42be 4e94 c23d c5cd 163e 3597 953e
00000080: 2a34 413e 7dad 40be eeef 5fbe 62e6 9a3a
00000090: b14d 8e3e ad31 cf3c aaec c33d 0fdb c5bd
000000a0: 3585 8f3e 2138 a33b 5a17 5f3e 6732 383d
000000b0: 769a 94bd 7fe9 253e 1b63 1abd 9f20 023e
000000c0: 22fb ad3b c55c 1a3d 48db 58be 06d0 ebbd
000000d0: b6a1 d33d 3880 e2bc 8064 723e 5c3f 253e
000000e0: c080 9a3a 6362 cbbd 8e91 333e 1f59 e83d
000000f0: 255e cfbd 235a 2e3e dcf3 393e c9dd 763e
00000100: 836a 8bbd 835d bd3b 7e9c 303d c883 ab3d
00000110: d20a d8bd af68 e9bd 5708 143e eb3a e5bb
00000120: 68cb 0e3e c8b3 323d 3472 b43d d35a 003d
00000130: 8e88 913d 5771 d83d d8e6 2dbe fdc3 fc3d
00000140: c5ac 15be d0ee 16be 7ef6 f33c 577c 11bb
00000150: f351 233e 8958 efbd 7210 2dbe 48ea 323e
00000160: 205d 703c 775d 253e 7929 843d 8fe5 0bbe
00000170: aba7 953d 5eb3 b93d 7e42 c3bd 0b3e bfbd
00000180: b503 ab3d 36f8 803d a41d 66bd 0b28 1ebd
00000190: d045 7f3e eba4 b33d ab9a 7f3e 7214 3a3e
000001a0: 9a31 c6bd 887b 7abd 0359 bf3e 9489 453e
000001b0: 583f 823e e18b be3d 2638 693e e9ff be3e
000001c0: 3223 c63e 50b7 98bc b8b9 af3d 53f5 a13e
000001d0: 919e af3e f350 923e 5556 47bd 6218 a1bd
000001e0: 1ee6 b9ba 0a39 1c3e 4ec9 9c3e e362 2dbd
000001f0: 1e5a 3b3e 8f4a d8bd 38ff 21be f8e3 253d
00000200: 8547 783e ac1c 9d3e cecd bebd 654e f73d
00000210: 443e a13e 636e 9d3e cc82 883e 042d 4f3e
00000220: 1d0e 703e b436 573e 03c9 0b3d 9605 1ebd
00000230: df65 15bd db20 8b3d a9f7 bd3b 54a6 5b3e
00000240: 886f 353e 46c1 4dbc f76c 083e 31fc 1a3e
00000250: 7870 623e 642b 643e

feature_extractor.0.bias f4 [6]
-0.048686933 0.23290603 -0.0019183675 -0.0016998944 -0.10227027 -0.048271053
00000000: f36b 47bd eb7e 6e3e bb71 fbba fece deba
00000010: 1373 d1bd deb7 45bd

feature_extractor.3.weight f4 [16, 6, 5, 5]
-0.04395459 -0.03187569 0.06160091 -0.022605715 -0.058120042 0.038323887 0.03658023 0.06498628
-0.033727013 0.02173863 -0.02651393 -0.010767813 -0.061010066 -0.038096525 -0.028714648 0.03740351
0.0210949 0.022286423 0.077872366 0.07492088 0.054416537 0.006078088 -0.05409662 0.062036
-0.022455275 -0.01487575 -0.061790466 0.011454342 -0.034351237 0.07248552 -0.075478084 -0.041764364
0.031941015 -0.035766095 0.02022604 -0.030164368 -0.013677434 0.030111916 0.057895467 -0.07205557
0.039025225 0.07236648 0.096874624 -0.062133547 0.0041058273 -0.06680273 0.08192704 -0.013492504
0.047025643 -0.004503106 -0.009814913 0.008165762 0.023515435 0.03631554 0.009190773 0.035175376
-0.055099666 0.06358135 0.0658177 0.06725959 0.072808646 -0.05027042 -0.037049826 0.05982036
-0.06738133 0.07795598 -0.0651802 -0.065285355 0.02770946 -0.06646485 -0.016295237 0.06315895
0.05889151 0.06947622 -0.021415468 -0.062374067 0.0852304 -0.015944524 -0.03671908 0.02007979
-0.05094309 0.057838324 0.048094228 -0.06847381 -0.06662365 -0.0008420149 0.035105962 -0.004549993
-0.042331688 0.0024078956 -0.072133325 -0.055616524 -0.056823514 0.06647243 0.07251886 -0.02344468
0.0062408755 0.03449428 0.010345242 -0.038446523 0.039578177 0.07219391 0.038972355 0.0063972273
0.07170991 0.08585289 0.0037312692 0.122547574 0.02384075 -0.06503027 0.061807707 -0.023523463
0.09321741 -0.0697472 -0.0023927672 0.027002195 0.04143896 0.07237272 -0.060321897 -0.062030677
-0.07915719 0.01155474 -0.023984816 -0.00859431 -0.031467512 0.0386052 0.10112804 0.03678533
-0.029908234 -0.04301703 -0.043568444 0.101719685 -0.008200215 0.008344213 0.0037312922 -0.024054315
0.064641364 0.033444703 -0.018369567 -0.055608306 -0.01841292 0.005128723 -0.06468581 -0.070216686
-0.025444048 -0.013411503 0.02914029 -0.031048484 -0.025993101 -0.039378807 -0.07355978 0.07805249
0.023470197 0.07755128 -0.011898938 -0.012689266 -0.061895654 -0.013190717 0.06481201 -0.07712048
-0.02549009 0.05620454 0.05672552 0.042298753 -0.0074489387 -0.013446748 -0.025031533 -0.031615444
0.044597965 -0.010220933 -0.04153357 0.022673586 -0.048899777 -0.00045075818 0.0626009 0.029088965
0.0829177 -0.030916337 0.021884875 -0.023189098 -0.034432855 -0.02707938 0.05649472 0.042157564
-0.03036753 -0.04930385 -0.06527012 0.09980358 0.014521197 0.010555361 -0.035215773 -0.05043042
-0.0664015 -0.017423728 0.09028772 0.010340437 -0.026226895 -0.0044866093 0.082179494 0.088585645
0.08737051 0.03683255 0.050696496 -0.0052166367 -0.055402428 -0.06458984 0.06574 -0.00039739857
0.033794023 0.0027636013 -0.06875842 -0.032704 0.028602587 -0.008879131 -0.06992805 0.019760234
0.008095435 -0.0025053944 0.06050496 0.040433157 -0.024260715 0.105130985 0.07938368 0.039049778
-0.0038223267 -0.06566951 0.06759941 -0.020255517 -0.056413006 0.04924353 0.035067182 0.026792036
-0.01444611 -0.027668802 0.012025901 0.06520797 0.018060124 -0.031836875 0.085918605 0.004167368
0.06432316 0.031630516 0.09017913 0.06032628 -0.038547542 0.06407358 0.011072886 -0.057641447
-0.017077014 -0.07558139 -0.033714198 -0.030611528 0.09490936 0.0012098398 -0.02588491 0.0722165
00000000: ba09 34bd 1590 02bd 3c51 7c3d 9f2f b9bc
00000010: 480f 6ebd 82f9 1c3d 27d5 153d 8717 853d
00000020: 5625 0abd 3615 b23c be33 d9bc 7b6b 30bc
00000030: b1e5 79bd 1a0b 1cbd fb3a ebbc 6c34 193d
00000040: 36cf ac3c 0492 b63c 8c7b 9f3d 1e70 993d
00000050: e0e3 5e3d b32a c73b 6b94 5dbd 7619 7e3d
00000060: 20f4 b7bc 6bb9 73bc 0018 7dbd feaa 3b3c
00000070: e2b3 0cbd 4a73 943d 4194 9abd 1c11 2bbd
00000080: 95d4 023d 787f 12bd 15b1 a53c 441b f7bc
00000090: 5117 60bc 44ad f63c cc23 6d3d df91 93bd
000000a0: ead8 1f3d e134 943d 3466 c63d bf7f 7ebd
000000b0: 2d8a 863b dfcf 88bd 5dc9 a73d aa0f 5dbc
000000c0: f69d 403d cb8e 93bb bbce 20bc b0c9 053c
000000d0: 71a3 c03c 9bbf 143d e594 163c 0e14 103d
000000e0: 30b0 61bd f036 823d 6ecb 863d 65bf 893d
000000f0: b31c 953d 5be8 4dbd 8fc1 17bd 3206 753d
00000100: 39ff 89bd 63a7 9f3d 327d 85bd 54b4 85bd
00000110: f3fe e23c b91e 88bd 977d 85bc 7b59 813d
00000120: 3938 713d 8c49 8e3d 7e6f afbc f37b 7fbd
00000130: 478d ae3d 179e 82bc bf66 16bd 5f7e a43c
00000140: b4a9 50bd e1e7 6c3d 74fe 443d ff3b 8cbd
00000150: fb71 88bd aaba 5cba 45cb 0f3d 1c18 95bb
00000160: fe63 2dbd c9cd 1d3b a3ba 93bd 27ce 63bd
00000170: c6bf 68bd b322 883d c584 943d 0f0f c0bc
00000180: 4280 cc3b e049 0d3d 177f 293c 1a7a 1dbd
00000190: ba1c 223d 67da 933d 7aa1 1f3d d59f d13b
000001a0: a5dc 923d a4d3 af3d 4f88 743b 39fa fa3d
000001b0: ad4d c33c 972e 85bd 142a 7d3d 47b4 c0bc
000001c0: c5e8 be3d 9fd7 8ebd f9cf 1cbb b533 dd3c
000001d0: e6bb 293d 2638 943d 1814 77bd e113 7ebd
000001e0: 2a1d a2bd 1850 3d3c ce7b c4bc 26cf 0cbc
000001f0: 14e4 00bd 7c20 1e3d 381c cf3d 37ac 163d
00000200: 1d02 f5bc a032 30bd d374 32bd 6952 d03d
00000210: 325a 06bc 2ab6 083c b288 743b 8e0d c5bc
00000220: b162 843d 50fd 083d c67b 96bc 89c5 63bd
00000230: b1d6 96bc d90e a83b fe79 84bd c4cd 8fbd
00000240: 0970 d0bc ecbb 5bbc 9eb7 ee3c 6459 febc
00000250: 7cef d4bc ac4b 21bd 83a6 96bd fcd9 9f3d
00000260: 9244 c03c 35d3 9e3d c3f3 42bc a4e6 4fbc
00000270: 4c86 7dbd e11d 58bc 29bc 843d 58f1 9dbd
00000280: 98d0 d0bc bb36 663d 0559 683d 7541 2d3d
00000290: 3a16 f4bb c04f 5cbc ee0e cdbc 327f 01bd
000002a0: 5bac 363d b375 27bc 1b1f 2abd f5bd b93c
000002b0: 224b 48bd bd53 ecb9 e734 803d fb4b ee3c
000002c0: c1d0 a93d 4244 fdbc e947 b33c 10f7 bdbc
000002d0: 7709 0dbd 93d5 ddbc 0267 673d 69ad 2c3d
000002e0: 54c5 f8bc d5f2 49bd 57ac 85bd d265 cc3d
000002f0: 51ea 6d3c 65f0 2c3c 6a3e 10bd 2190 4ebd
00000300: 82fd 87bd 35bc 8ebc c5e8 b83d f06a 293c
00000310: c9d9 d6bc 6804 93bb b94d a83d 646c b53d
00000320: 4fef b23d badd 163d 21a7 4f3d 52f0 aabb
00000330: a8ed 62bd ae47 84bd b1a2 863d ef59 d0b9
00000340: 9a6b 0a3d 891d 353b 37d1 8cbd a1f4 05bd
00000350: f94f ea3c c679 11bc 7036 8fbd 37e0 a13c
00000360: b7a2 043c 8b31 24bb 0dd4 773d 3d9d 253d
00000370: 68be c6bc ea4e d73d e993 a23d a9f2 1f3d
00000380: 0080 7abb bc7d 86bd 8f71 8a3d e6ee a5bc
00000390: 5311 67bd 95b3 493d 9ba2 0f3d f97a db3c
000003a0: 61af 6cbc afa9 e2bc 4908 453c c28b 853d
000003b0: d3f2 933c 6267 02bd 18f6 af3d 6b8e 883b
000003c0: dcbb 833d 008f 013d d6af b83d b018 773d
000003d0: 07e4 1dbd 0239 833d 0d6b 353c 7019 6cbd
000003e0: 18e5 8bbc 6aca 9abd e617 0abd 07c5 fabc
000003f0: d75f c23d 7d93 9e3a 970c d4bc 3fe6 933d

feature_extractor.3.bias f4 [16]
-0.021190153 -0.049636666 0.00754517 0.038041998 0.061990168 -0.027811399 0.0015682373 -0.041048612
-0.06377449 -0.052416027 -0.05060043 -0.050096553 0.030599656 -0.012758255 0.065323815 0.073903866
00000000: f996 adbc d14f 4bbd 793d f73b edd1 1b3d
00000010: 67e9 7d3d bbd4 e3bc 508d cd3a 9722 28bd
00000020: 339c 82bd 30b2 56bd 6642 4fbd 0b32 4dbd
00000030: 21ac fa3c 0008 51bc 7ec8 853d e95a 973d

feature_extractor.7.weight f4 [120, 400]
-0.041213676 0.011790844 0.03135805 -0.04382745 -0.015705384 0.03435845 -0.03605878 0.046824228
-0.0032219314 0.010041802 0.045687485 -0.039377604 0.044722356 -0.048865855 0.03205177 -0.0004044088
0.044370364 -0.0023743953 -0.048982516 0.01536586 0.032111865 -0.008672561 -0.048749097 -0.0008474407
0.00820009 0.010874783 0.018830145 -0.011449538 -0.0026795072 -0.0034162872 0.021246308 0.01586399
0.018911693 -0.0016364737 0.008751787 0.03879063 0.011253634 -0.04728142 0.012581483 0.05724734
-0.0061874725 0.035438675 -0.036913868 -0.006097559 0.034398623 -0.025127036 -0.004501106 0.003390723
-0.010388252 -0.020134548 0.033505116 -0.010038011 -0.016340861 0.035681836 0.011027843 -0.022624023
0.031017011 -0.029157637 0.050249703 0.04338103 0.0044362578 0.014730748 -0.020544676 -0.035386387
-0.028197892 0.01859113 0.024724562 -0.0040657707 -0.015994973 -0.016199995 -0.021222714 -0.022016505
0.032789562 -0.04710384 0.032033265 0.029158127 -0.016130604 -0.010879976 -0.013409116 -0.040744346
0.005787238 -0.033752706 0.012213574 -0.0079730535 -0.034321 -0.049767233 0.039081283 0.043359198
0.044537596 0.014725533 0.023311978 0.030200575 0.043862637 0.0007290024 0.0006514631 0.028812084
0.035006486 -0.01586803 0.02768951 0.046731714 -0.02295876 -0.04659171 -0.0014237245 -0.030791106
0.047473732 -0.012385486 -0.01997761 0.034422856 0.015823282 0.016968675 0.048613977 -0.041931316
0.026538864 -0.026886893 0.02337996 -0.02046483 0.04890144 -0.012942579 0.00862812 -0.0302604
0.027131785 -0.05081498 0.0260783 0.04792096 0.04328001 0.026122257 -0.021490537 0.006169781
0.01299352 -0.04834656 0.022904636 -0.043818347 0.02173499 0.047392625 -0.016958795 0.0083356695
0.049135957 0.047004595 0.044958364 -0.03157768 0.0096339295 -0.04243536 0.008401947 -0.053292632
0.008086926 0.023318887 -0.04203985 -0.0033238817 -0.019722354 0.044605628 -0.010811741 0.024221169
-0.03462005 0.007997924 0.034356084 7.324018e-05 -0.01941245 -0.023283225 0.028301835 0.016739702
0.0035707266 0.03554891 -0.019509107 -0.032333266 -0.0006027529 0.033248175 -0.052175213 -0.03159625
0.01254681 0.030281711 0.029889207 0.016452558 -0.045700572 -0.020587698 0.027721863 0.009382985
0.027673567 0.037491415 0.028955247 -0.020574104 -0.024803655 -0.009458929 -0.0012191315 -0.0033282463
-0.0097866235 0.007239666 0.031484306 -0.03205789 0.025798509 -0.04914274 0.0024427637 -0.045691893
0.04855232 -0.042470638 -0.026893029 0.030075349 0.02424048 0.038296055 0.014148954 -0.042372383
-0.035024505 0.03420185 -0.048648823 0.04497297 -0.008473471 0.009124044 -0.002143147 -0.012573689
-0.0122633 0.014804649 -0.008771708 0.008410533 0.041839488 0.004497832 -0.03920996 -0.03777708
0.03184867 0.017457886 0.009569151 -0.024911812 -0.040835813 0.0431761 -0.046924368 -0.024855211
0.0199158 0.043306217 -0.014236399 -0.044495378 0.011823818 0.0017544233 -0.008367026 -0.043661185
0.03740935 0.005348032 0.018731521 0.028703365 0.043451726 -0.014957639 0.0023106902 -0.03204717
-0.041345514 -0.01883418 0.014718568 -0.029046528 0.032075148 0.014904857 -0.016145762 0.024889003
0.038926393 -0.018676126 0.025382305 0.035614394 0.0479893 -0.033950623 0.044223532 0.0038488344
00000000: accf 28bd 622e 413c 4c71 003d 6a84 33bd
00000010: 94a8 80bc 72bb 0c3d 5fb2 13bd c3ca 3f3d
00000020: 0a27 53bb 5f86 243c cd22 3b3d 694a 21bd
00000030: ca2e 373d 9027 48bd b748 033d d506 d4b9
00000040: b3bd 353d be9b 1bbb e4a1 48bd 17c1 7b3c
00000050: bb87 033d 5b17 0ebc 22ad 47bd c826 5eba
00000060: ac59 063c 252c 323c ad41 9a3c d896 3bbc
00000070: ac9a 2fbb cae3 5fbb bd0c ae3c 33f5 813c
00000080: b2ec 9a3c f27e d6ba a863 0f3c ece2 1e3d
00000090: 2961 383c 2aaa 41bd 9122 4e3c 307c 6a3d
000000a0: 48c0 cabb 2528 113d ff32 17bd 08ce c7bb
000000b0: 92e5 0c3d 37d7 cdbc 047e 93bb e436 5e3b
000000c0: 7d33 2abc 35f1 a4bc a93c 093d 7876 24bc
000000d0: 45dd 85bc 1e27 123d 20ae 343c 0456 b9bc
000000e0: 6317 fe3c ffdb eebc a2d2 4d3d 4fb0 313d
000000f0: 075e 913b 3c59 713c 4f4d a8bc 51f1 10bd
00000100: 44ff e6bc 6d4c 983c 2a8b ca3c 283a 85bb
00000110: e407 83bc dab5 84bc 42db adbc f55b b4bc
00000120: 594e 063d f5ef 40bd 5035 033d 06dd ee3c
00000130: 5424 84bc ed41 32bc e9b1 5bbc 8be3 26bd
00000140: dfa2 bd3b 4740 0abd 711b 483c 69a1 02bc
00000150: 2d94 0cbd bad8 4bbd b213 203d 6a99 313d
00000160: 0e6d 363d 5d43 713c c3f8 be3c 3267 f73c
00000170: 4fa9 333d 861a 3f3a f3c6 2a3a 5207 ec3c
00000180: f662 0f3d acfd 81bc 1cd5 e23c c169 3f3d
00000190: 0214 bcbc f3d6 3ebd 449c baba a13d fcbc
000001a0: d173 423d 7eec 4abc 16a8 a3bc fbfe 0c3d
000001b0: d49f 813c e401 8b3c 731f 473d 2cc0 2bbd
000001c0: 0868 d93c e741 dcbc 5487 bf3c dca5 a7bc
000001d0: e04c 483d 1c0d 54bc f55c 0d3c a9e4 f7bc
000001e0: 7a43 de3c 5e23 50bd 29a2 d53c c548 443d
000001f0: 6146 313d 58fe d53c ec0c b0bc e02b ca3b
00000200: c6e2 543c 0b07 46bd 81a2 bb3c de7a 33bd
00000210: 940d b23c c51e 423d 2ced 8abc 5592 083c
00000220: c942 493d e487 403d 4326 383d 9957 01bd
00000230: a1d7 1d3c b3d0 2dbd 52a8 093c 6049 5abd
00000240: 077f 043c 4007 bf3c fa31 2cbd 7bd5 59bb
00000250: c690 a1bc 64b4 363d bb23 31bc 796b c63c
00000260: c1cd 0dbd ba09 033c f7b8 0c3d 8698 9938
00000270: dc06 9fbc 76bc bebc 40d9 e73c b321 893c
00000280: da02 6a3b bc9b 113d 90d1 9fbc e36f 04bd
00000290: 1002 1eba 3d2f 083d adb5 55bd 126b 01bd
000002a0: 2391 4d3c 5a11 f83c 36da f43c 84c7 863c
000002b0: 8630 3bbd 88a7 a8bc f618 e33c 17bb 193c
000002c0: adb3 e23c 9990 193d 8e33 ed3c 068b a8bc
000002d0: 0931 cbbc a0f9 1abc 44cb 9fba b51e 5abb
000002e0: 1358 20bc b83a ed3b b0f5 003d 224f 03bd
000002f0: 6557 d33c e649 49bd c616 203b 6c27 3bbd
00000300: ccde 463d b1f5 2dbd c54e dcbc 9460 f63c
00000310: f993 c63c 53dc 1c3d 04d1 673c aa8e 2dbd
00000320: db75 0fbd 3d17 0c3d fd43 47bd 9435 383d
00000330: 50d4 0abc 047d 153c 0a74 0cbb e001 4ebc
00000340: 02ec 48bc 338f 723c 36b7 0fbc 55cc 093c
00000350: e25f 2b3d 8d62 933b 9f9a 20bd 24bc 1abd
00000360: c073 023d d703 8f3c eec7 1c3c db13 ccbc
00000370: 7443 27bd 6cd9 303d c433 40bd 289d cbbc
00000380: 7626 a33c dc61 313d c93f 69bc c940 36bd
00000390: b0b8 413c adf4 e53a da15 09bc 12d6 32bd
000003a0: 8c3a 193d 8b3e af3b d972 993c 5223 eb3c
000003b0: 70fa 313d e310 75bc f36e 173b e543 03bd
000003c0: ea59 29bd 234a 9abc 2626 713c fcf2 edbc
000003d0: 3b61 033d 8033 743c 1e44 84bc 06e4 cb3c
000003e0: 4871 1f3d adfe 98bc 8dee cf3c 66e0 113d
000003f0: 6e90 443d cf0f 0bbd bc23 353d ba3c 7c3b

feature_extractor.7.bias f4 [120]
0.021148192 0.037179064 0.01872448 0.031066585 0.042148963 -0.033960067 0.03556124 0.0017397346
-0.034061283 0.004560594 0.022351597 -0.02815691 -0.040674657 -0.04941416 -0.026738156 -0.042350322
0.029844485 -0.022108132 -0.042197954 -0.030229466 -0.011736927 0.029525755 0.036110178 0.014657142
0.03948317 -0.03928098 -0.02063583 0.034422446 -0.019270513 0.014136921 -0.012103581 0.027278045
-0.049509842 0.01923668 -0.028504932 -0.029723177 0.03889624 -0.022381488 0.0073322128 0.0010768274
-0.035374504 0.027925285 -0.033133853 -0.017937226 -0.047269102 -0.011776743 0.014274508 0.014117087
0.024025345 -0.016708096 0.01840202 -0.01226422 0.0433925 -0.02724867 -0.0057208044 -0.00043014507
0.03674951 -0.01604493 -0.03633924 0.014068112 0.04196236 -0.03772445 -0.016591296 -0.014490456
0.033657543 0.006883435 -0.044284645 0.04089245 -0.01359315 -0.04696691 0.04750136 -0.011075858
0.02077016 0.0023893667 0.03517325 -0.02058214 -0.017693907 -0.025068583 -0.032018986 -0.031618763
0.03001857 -0.033170905 -0.0017795399 0.0062445193 0.04920656 -0.017752822 -0.018735142 0.01942476
0.012017789 0.018674154 0.041605074 -0.03904679 0.0140504055 -0.003966494 -0.045070462 -0.0047116256
0.013778181 0.02899075 0.0020680793 -0.031851016 -0.013451299 0.037454717 0.02244585 -0.036275826
0.012383399 -0.010120306 0.0072986297 0.03201878 -0.022967596 -0.0028714002 0.039200712 -0.006998706
0.049075603 -0.0015585991 0.006873084 -0.008544088 0.02098662 -0.01474534 0.05154274 0.04377791
00000000: f93e ad3c 1349 183d 1564 993c 5a7f fe3c
00000010: 64a4 2c3d b619 0bbd aaa8 113d ce07 e43a
00000020: d883 0bbd 0971 953b b21a b73c 52a9 e6bc
00000030: 789a 26bd 8166 4abd fa09 dbbc 8877 2dbd
00000040: 6c7c f43c 1d1c b5bc c3d7 2cbd c9a3 f7bc
00000050: 3d4c 40bc ffdf f13c 44e8 133d 8224 703c
00000060: 1bb9 213d 18e5 20bd 790c a9bc 8dfe 0c3d
00000070: 32dd 9dbc 8b9e 673c 194e 46bc 3576 df3c
00000080: d5ca 4abd 3e96 9d3c 2d83 e9bc 057e f3bc
00000090: aa51 1f3d 6259 b7bc 0f43 f03b 5524 8d3a
000000a0: dbe4 10bd 91c3 e43c 5db7 07bd 17f1 92bc
000000b0: 3f9d 41bd 3ef3 40bc a0df 693c 5b4b 673c
000000c0: cdd0 c43c 6bdf 88bc d5bf 963c deef 48bc
000000d0: 56bc 313d 9a38 dfbc 9675 bbbb 1885 e1b9
000000e0: a786 163d a870 83bc 74d8 14bd f07d 663c
000000f0: b9e0 2b3d f484 1abd 78ea 87bc 6169 6dbc
00000100: 7edc 093d 708e e13b d163 35bd d77e 273d
00000110: ceb5 5ebc 6060 40bd c990 423d 8477 35bc
00000120: 2f26 aa3c ec96 1c3b d311 103d e09b a8bc
00000130: d0f2 90bc a15c cdbc 5726 03bd ad82 01bd
00000140: 81e9 f53c 37de 07bd 733f e9ba d39e cc3b
00000150: d18c 493d 5e6e 91bc 717a 99bc ad20 9f3c
00000160: 43e6 443c 8afa 983c 156a 2a3d 87ef 1fbd
00000170: ac33 663c 5df9 81bb ce9b 38bd fb63 9abb
00000180: e1bd 613c 027e ed3c 9d88 073b 3676 02bd
00000190: d662 5cbc 1e6a 193d 5ce0 b73c f695 14bd
000001a0: bde3 4a3c a4cf 25bc 5829 ef3b 2026 033d
000001b0: 8a26 bcbc 1a2e 3cbb ed90 203d 6755 e5bb
000001c0: 8003 493d e849 ccba 9c37 e13b 81fc 0bbc
000001d0: 22ec ab3c 7096 71bc 7b1e 533d 7750 333d

classifier.0.weight f4 [84, 120]
0.0046404935 -0.0479041 0.028534941 -0.012847874 -0.07667808 0.011551547 -0.064507484 -0.03177682
-0.06643609 0.07115011 0.03681823 -0.052392814 0.059041724 -0.06822249 0.00824813 -0.07221624
0.0511648 -0.04910409 -0.031815864 0.02391675 -0.09002816 0.052829243 0.005992339 -0.059620272
-0.012658485 -0.056902587 0.022290519 0.03397251 -0.07459464 0.060638126 -0.032236647 0.08219809
-0.005598099 0.022486344 -0.038472332 -0.000106586165 -0.01049189 -0.027024826 -0.04970276 0.0028451786
-0.08245972 -0.0526909 -0.03640344 0.0023581316 -0.056712057 -0.043813717 0.0077474443 0.0011532573
0.0021516748 -0.04863314 0.070955336 -0.02284019 -0.070322454 0.050324347 0.011424294 -0.0036758685
-0.08248814 -0.057414524 0.05554489 -0.027029425 -0.06365621 0.05314469 -0.07431507 0.052812245
-0.031033378 0.038416866 0.0126483925 0.0898678 0.037227355 -0.0061635165 0.08595989 -0.07331674
0.011307459 0.030219087 -0.06968499 -0.04850653 -0.041141137 -0.04712366 -0.010788176 -0.05655302
0.08625566 -0.0022857678 0.09064459 0.02303864 -0.01394638 0.007973391 -0.051920358 -0.05854931
0.035703864 -0.011854529 0.007951644 -0.010501225 0.072062485 -0.09101704 -0.05749244 -0.04785837
-0.029036505 0.072212905 0.061701134 -0.06654081 -0.026373211 0.07639914 -0.07067066 0.009458875
0.03513429 0.043053698 0.06529208 0.0596174 0.02303449 -0.086128816 -0.04036152 -0.015806802
-0.06662327 -0.046648085 0.019977782 -0.035477262 0.015042583 0.03302011 0.047449127 -0.0704966
0.08050193 0.036412105 0.0078466665 -0.027214969 -0.027744107 0.0030169443 -0.011414968 -0.08608983
0.014307047 -0.060248964 -0.07820056 0.0539406 -0.014938306 -0.023989405 -0.012489465 -0.038973197
0.047593176 -0.003043299 -0.0406193 0.08699791 0.066819154 0.06946723 -0.09089898 0.017222244
0.0055786907 0.07959643 0.025269268 0.01905544 0.05834985 0.039807525 -0.08150204 -0.08964427
-0.049490646 -0.020244129 0.021610882 0.057172656 -0.081378154 -0.013494511 -0.07161203 0.078765415
0.05512685 0.05254233 -0.009171832 -0.05790379 -0.045844786 -0.0010065596 0.00038689733 -0.0014961399
0.07980128 -0.04774149 0.06829486 0.04047513 -0.07133612 -0.040873438 -0.055432167 -0.0021206446
0.048487138 0.05232945 -0.018894278 0.079090014 0.043325838 0.015561618 -0.074014865 -0.07718809
0.05659843 0.04875878 -0.043936092 -0.068413734 0.0030896962 -0.08344008 0.061486416 0.0480516
0.025240954 -0.06506381 -0.014773114 -0.045697894 0.04354437 0.08700087 0.0036429935 -0.02350711
0.062916555 -0.021214325 -0.0436585 -0.07666342 0.011931258 0.072095 0.057269406 0.0334147
0.06309882 -0.07295688 0.08794613 -0.029219443 -0.088008255 0.041101538 0.02163921 -0.02135183
-0.08660216 0.0009864214 -0.045158077 -0.056871533 0.08183015 0.04300972 -0.07960463 -0.039307438
-0.045619216 -0.08233815 -0.071439736 0.09078283 0.003992972 0.07349622 0.015537242 0.088102356
-0.05532151 0.02365775 -0.045283288 0.032458194 0.07052695 0.06871341 -0.061045565 -0.0035613612
0.010245811 0.017002622 -0.03695262 0.019219013 -0.071753874 -0.028276952 -0.031247484 -0.026015006
-0.05534035 0.06485432 -0.013873518 0.04332269 -0.002809418 0.005050363 0.08355132 0.066475585
00000000: 480f 983b 1737 44bd 1cc2 e93c e47f 52bc
00000010: 6609 9dbd b342 3d3c 801c 84bd 6928 02bd
00000020: a50f 88bd 26b7 913d b6ce 163d d999 56bd
00000030: bcd5 713d 3cb8 8bbd 2a23 073c 1ce6 93bd
00000040: 2e92 513d 5f21 49bd 5a51 02bd 0fed c33c
00000050: af60 b8bd 7a63 583d 625b c43b 6334 74bd
00000060: 8965 4fbc b012 69bd 9b9a b63c c226 0b3d
00000070: 13c5 98bd af5f 783d 930a 04bd 7957 a83d
00000080: 4270 b7bb 4835 b83c 2a95 1dbd 0387 dfb8
00000090: 2de6 2bbc 2b63 ddbc 1f95 4bbd 2d76 3a3b
000000a0: a4e0 a8bd 6ad2 57bd c61b 15bd e28a 1a3b
000000b0: e74a 68bd 0376 33bd 46de fd3b e528 973a
000000c0: 1d03 0d3b 8b33 47bd 0851 913d 5a1b bbbc
000000d0: 3805 90bd e720 4e3d f62c 3b3c d7e6 70bb
000000e0: 8bef a8bd 7e2b 6bbd 0a83 633d d06c ddbc
000000f0: 305e 82bd 3fae 593d 8032 98bd a751 583d
00000100: b639 febc 015b 1d3d 343b 4f3c 9c0c b83d
00000110: b67b 183d 53f7 c9bb bd0b b03d 1627 96bd
00000120: ec42 393c 058e f73c 01b7 8ebd c8ae 46bd
00000130: 9c83 28bd bd04 41bd e4c0 30bc 24a4 67bd
00000140: cfa6 b03d d2cc 15bb dfa3 b93d 88bb bc3c
00000150: 5b7f 64bc d3a2 023c 71aa 54bd 67d1 6fbd
00000160: 373e 123d 8039 42bc 9d47 023c 540d 2cbc
00000170: 7f95 933d 2467 babd 317d 6bbd 2307 44bd
00000180: f7dd edbc 5ce4 933d 54ba 7c3d 8c46 88bd
00000190: a20c d8bc 2777 9c3d c7bb 90bd 66f9 1a3c
000001a0: f9e8 0f3d 1359 303d dbb7 853d 6031 743d
000001b0: d4b2 bc3c 4e64 b0bd 1f52 25bd 447d 81bc
000001c0: c871 88bd 1012 3fbd 72a8 a33c 9b50 11bd
000001d0: 2b75 763c 1840 073d 045a 423d 8560 90bd
000001e0: 32de a43d dc24 153d 4e8f 003c edf1 debc
000001f0: 9c47 e3bc edb7 453b d905 3bbc dd4f b0bd
00000200: 1b68 6a3c 9ec7 76bd 9d27 a0bd d2f0 5c3d
00000210: ccbf 74bc 6e85 c4bc 9da0 4cbc 5ca2 1fbd
00000220: 10f1 423d 1672 47bb 6c60 26bd f62b b23d
00000230: 7bd8 883d d644 8e3d 3f29 babd aa15 8d3c
00000240: 73cd b63b 7403 a33d 7f01 cf3c 271a 9c3c
00000250: 4100 6f3d 370d 233d 8bea a6bd 6a97 b7bd
00000260: b4b6 4abd 04d7 a5bc 4e09 b13c e02d 6a3d
00000270: 97a9 a6bd 1518 5dbc 54a9 92bd c34f a13d
00000280: b1cc 613d a036 573d 7445 16bc 862c 6dbd
00000290: bec7 3bbd 89ee 83ba 7bd8 ca39 201a c4ba
000002a0: da6e a33d 958c 43bd 2dde 8b3d 40c9 253d
000002b0: ac18 92bd e86a 27bd d70c 63bd 83fa 0abb
000002c0: 739a 463d 6857 563d 2cc8 9abc f2f9 a13d
000002d0: 6f76 313d 28f6 7e3c 1b95 97bd ca14 9ebd
000002e0: c1d3 673d 49b7 473d 55f6 33bd 801c 8cbd
000002f0: 807c 4a3b a2e2 aabd 2ed9 7b3d c1d1 443d
00000300: 1ec6 ce3c 2d40 85bd ee0a 72bc b72d 3bbd
00000310: 955b 323d 832d b23d 4abf 6e3b fc91 c0bc
00000320: 65da 803d aac9 adbc 41d3 32bd b601 9dbd
00000330: 537b 433c 8ba6 933d 5393 6a3d dadd 083d
00000340: f439 813d 6b6a 95bd 1a1d b43d 9d5d efbc
00000350: ac3d b4bd 165a 283d b644 b13c 08ea aebc
00000360: 795c b1bd cf4a 813a adf7 38bd 20f2 68bd
00000370: 9196 a73d f62a 303d c107 a3bd d600 21bd
00000380: 37db 3abd e7a0 a8bd ff4e 92bd 59ec b93d
00000390: 7ad7 823b 3085 963d eb8f 7e3c 026f b43d
000003a0: cf98 62bd e6cd c13c f87a 39bd e2f2 043d
000003b0: 6f70 903d 9eb9 8c3d ea0a 7abd ba65 69bb
000003c0: 0cde 273c 1549 8b3c a15b 17bd 3171 9d3c
000003d0: b2f3 92bd 11a5 e7bc b9fa ffbc 6c1d d5bc
000003e0: 90ac 62bd 57d2 843d c14d 63bc 2273 313d
000003f0: 361e 38bb 847d a53b f41c ab3d 5a24 883d

classifier.0.bias f4 [84]
-0.011401818 -0.08659254 0.046688 0.075617544 0.01979504 0.036603365 0.078348696 0.053217802
-0.0431076 0.050627094 -0.07882603 0.08888676 0.05909363 -0.047904972 -0.022649013 -0.05852505
-0.042226486 -0.05282817 -0.08774961 -0.016129436 0.039364308 0.056753486 -0.028183304 -0.06943047
0.05225035 0.0017740873 -0.0010301645 0.04599377 -0.02420193 0.039880563 0.030939829 -0.011889284
-0.0046690665 -0.025095724 -0.040420927 -0.0036360782 -0.07639581 -0.07045545 -0.00017090027 -0.0864529
-0.011408949 -0.0801595 0.028091328 0.009765978 -0.046141617 -0.0041751782 0.03648958 -0.07432801
-0.075213805 0.018679958 0.02723334 0.045503605 0.009973391 -0.08829171 -0.054631963 -0.0025598176
-0.04572915 -0.035090085 0.021860315 -0.05236421 0.013053338 0.09763181 0.08570484 -0.013325853
0.057953596 -0.07533079 0.04404622 0.011083715 0.08057018 0.06235459 -0.08564705 0.07945406
0.067344576 0.07536978 0.046424232 -0.045421775 -0.0051546465 -0.0036709558 0.037998557 0.045828797
-0.037725843 -0.020816987 -0.04287165 -0.00055149896
00000000: b1ce 3abc 6e57 b1bd eb3b 3f3d 5fdd 9a3d
00000010: 3529 a23c 69ed 153d 4875 a03d e9fa 593d
00000020: 9891 30bd 5b5e 4f3d 8b6f a1bd 430a b63d
00000030: 2a0c 723d 0138 44bd 6c8a b9bc f6b7 6fbd
00000040: aef5 2cbd 5a62 58bd 11b6 b3bd e121 84bc
00000050: 783c 213d 5876 683d ace0 e6bc 9031 8ebd
00000060: 7704 563d 7e88 e83a 9606 87ba f763 3c3d
00000070: 2043 c6bc cd59 233d 8675 fd3c 45cb 42bc
00000080: f8fe 98bb 8c95 cdbc 6a90 25bd 454b 6ebb
00000090: 6875 9cbd f24a 90bd b133 33b9 380e b1bd
000000a0: 9aec 3abc aa2a a4bd c91f e63c 7b01 203c
000000b0: fefe 3cbd efcf 88bb 1976 153d 4939 98bd
000000c0: b209 9abd b606 993c 7418 df3c fd61 3a3d
000000d0: 6f67 233c 49d2 b4bd c4c5 5fbd 9dc2 27bb
000000e0: 7d4e 3bbd 9fba 0fbd 6714 b33c db7b 56bd
000000f0: abdd 553c 30f3 c73d 0586 af3d ae54 5abc
00000100: c060 6d3d 0747 9abd cf69 343d 7898 353c
00000110: fb01 a53d 8767 7f3d b867 afbd cfb8 a23d
00000120: f4eb 893d 795b 9a3d 5627 3e3d 2f0c 3abd
00000130: 4fe8 a8bb 6b94 70bb 60a4 1b3d fab6 3b3d
00000140: 6a86 1abd 6388 aabc 2f9a 2fbd 7892 10ba

classifier.2.weight f4 [10, 84]
-0.094201915 -0.08621501 0.049893476 -0.024336787 0.030237973 -0.04386856 -0.00031553293 0.048845727
-0.07855112 0.10327999 -0.07048542 -0.023929907 0.05894126 -0.10458479 0.060790982 0.065300316
-0.13502708 -0.018440198 -0.07780448 0.123104066 -0.094215795 -0.13153179 -0.07854162 0.08423046
0.020799134 -0.10499502 -0.021306999 -0.07826308 0.1308087 -0.095288046 0.020495597 0.08133311
-0.11969326 0.021719106 0.00073537236 0.03447283 -0.050725468 -0.08340326 0.011865937 -0.03132345
-0.018004224 0.12536561 -0.07610794 -0.05563571 0.058939278 -0.077595 0.07798872 0.15002532
0.09256753 0.0797227 -0.15011132 0.045014128 -0.119289584 -0.046105593 -0.08009103 -0.084678195
0.08833062 0.0749713 0.02716763 0.042083826 0.14719336 0.041553367 -0.03228988 0.072806254
-0.038193233 -0.0108713 0.05108381 0.013231128 0.08642711 -0.014238898 -0.055475503 0.040478215
0.10272199 -0.1291286 -0.12425982 0.032393686 0.06469878 0.0113588255 -0.10098414 -0.112900786
-0.0020647992 0.05056962 -0.13900398 0.090051785 -0.10275165 0.034272455 -0.042701505 -0.08743241
0.02056469 -0.010133879 0.06694783 0.12411601 0.14080547 0.07471725 -0.116091214 0.11475056
0.15769525 -0.076488756 0.11789402 -0.16554886 -0.12046461 0.08460883 0.10424955 0.007836235
-0.09830087 0.012499662 0.059246074 0.027278883 0.07395724 -0.05749392 0.08636275 -0.048230242
0.0493201 0.051246375 -0.10546924 0.06948208 0.081470884 -0.09664035 -0.02214639 0.09088051
0.07686401 0.07246082 0.048943795 -0.03784629 0.05469838 -0.09487705 0.011310711 -0.039082527
-0.047587935 0.13820718 -0.083175726 0.12960047 0.0964644 0.059510745 0.09282651 -0.1234492
0.0691948 -0.004565514 -0.0701033 0.0076016965 0.025944421 -0.08220791 -0.064778164 0.086280264
-0.08263179 0.10995637 -0.073302865 -0.09286882 0.099088706 0.09472803 0.12606396 0.10065005
0.10099381 0.052900597 0.003000357 0.023286102 0.031173743 0.06726612 -0.049040843 0.047159974
-0.07613548 -0.08181787 0.029216774 0.09338651 0.016435802 0.095826596 -0.07123592 -0.1121119
-0.021984618 -0.098759875 0.09216937 -0.13467546 0.100735255 0.075419106 0.09669623 0.09225531
0.026985941 0.0006697144 0.09602609 -0.06137899 -0.04872983 0.07043539 -0.08956727 0.012482678
0.102185994 0.029689908 -0.05854086 -0.018149234 -0.099241465 0.06613884 0.1145994 0.10169688
0.004499945 0.07252266 0.095431186 0.13513035 0.022612188 0.081805155 -0.037203446 0.008274189
-0.12352615 -0.06888947 -0.09313816 -0.06002612 -0.020930745 -0.06746621 -0.12323018 0.071000434
-0.011530928 0.03837427 0.11037643 0.098562986 -0.0977363 -0.009315852 -0.032125857 0.047694493
0.021041896 1.9294514e-05 0.02049968 0.12514217 0.03464726 0.057091553 -0.13672635 0.01845788
0.017590255 0.07211315 -0.05786561 -0.035753116 0.05543675 0.016574167 -0.12150272 -0.12908798
-0.050194968 -0.053897522 -0.08767948 -0.09367856 0.15209804 -0.028116487 0.04655709 0.0880659
0.011491543 -0.025702694 0.101606555 0.08434749 0.019326877 -0.03725619 0.028307397 -0.034076866
-0.098845065 -0.030329172 0.097795784 -0.106017984 0.077975035 -0.0017875662 -0.0048488816 -0.10394876
00000000: efec c0bd 7f91 b0bd 1a5d 4c3d f15d c7bc
00000010: a0b5 f73c 85af 33bd 1d6e a5b9 7512 483d
00000020: 69df a0bd 7684 d33d a95a 90bd a708 c4bc
00000030: 646c 713d 8d30 d6bd f7ff 783d 2cbc 853d
00000040: 8a44 0abe e60f 97bc f557 9fbd fc1d fc3d
00000050: 36f4 c0bd 45b0 06be 6eda a0bd 0581 ac3d
00000060: f262 aa3c a107 d7bd 048c aebc 6548 a0bd
00000070: b7f2 053e 6126 c3bd 62e6 a73c f991 a63d
00000080: bd21 f5bd 44ec b13c 01c6 403a 6233 0d3d
00000090: 82c5 4fbd 54cf aabd 5969 423c 054d 00bd
000000a0: 987d 93bc d85f 003e 7bde 9bbd 45e2 63bd
000000b0: 506a 713d 21ea 9ebd 8db8 9f3d 3da0 193e
000000c0: 0c94 bd3d a845 a33d c8b6 19be bc60 383d
000000d0: 194e f4bd 38d9 3cbd c406 a4bd c36b adbd
000000e0: afe6 b43d 8e8a 993d a68e de3c 1760 2c3d
000000f0: dbb9 163e dd33 2a3d 6542 04bd 721b 953d
00000100: 8270 1cbd 891d 32bc 423d 513d 60c7 583c
00000110: b200 b13d 444a 69bc 483a 63bd 7ccc 253d
00000120: e85f d23d 4a3a 04be ef7b febd 3eaf 043d
00000130: cb80 843d 5e1a 3a3c c6d0 cebd 8738 e7bd
00000140: 9551 07bb 1722 4f3d 0f57 0ebe 126d b83d
00000150: 756f d2bd 4661 0c3d c6e7 2ebd c30f b3bd
00000160: 4877 a83c 9208 26bc f21b 893d 8930 fe3d
00000170: 4f2f 103e 5c05 993d 3bc1 edbd 5702 eb3d
00000180: dd7a 213e 23a6 9cbd 6c72 f13d a485 29be
00000190: 26b6 f6bd 6547 ad3d ca80 d53d 8d63 003c
000001a0: f751 c9bd 62cb 4c3c 03ac 723d f777 df3c
000001b0: e576 973d bf7e 6bbd f4de b03d 138d 45bd
000001c0: e003 4a3d b8e7 513d 4200 d8bd 9f4c 8e3d
000001d0: 35da a63d 60eb c5bd 596c b5bc 901f ba3d
000001e0: e16a 9d3d 5766 943d 4a79 483d b604 1bbd
000001f0: 690b 603d e64e c2bd 8f50 393c 0015 20bd
00000200: 91eb 42bd 2f86 0d3e 0958 aabd fcb5 043e
00000210: 218f c53d 8ac1 733d d31b be3d efd2 fcbd
00000220: 01b6 8d3d 4f9a 95bb 5292 8fbd a717 f93b
00000230: 6589 d43c 9f5c a8bd 6aaa 84bd b5b3 b03d
00000240: db3a a9bd ce30 e13d d01f 96bd 0232 bebd
00000250: 05ef ca3d c500 c23d e916 013e 9d21 ce3d
00000260: d8d5 ce3d 4cae 583d a3a1 443b 7fc2 be3c
00000270: 1460 ff3c d2c2 893d 0ddf 48bd d12a 413d
00000280: ebec 9bbd 2190 a7bd 0458 ef3c 6d41 bf3d
00000290: 60a4 863c bc40 c43d 23e4 91bd ec9a e5bd
000002a0: 1619 b4bc 9e42 cabd 4bc3 bc3d 5de8 09be
000002b0: 494e ce3d 5575 9a3d ac08 c63d 5af0 bc3d
000002c0: 9f11 dd3c c68f 2f3a 54a9 c43d 8968 7bbd
000002d0: ee98 47bd 6e40 903d 0b6f b7bd 2584 4c3c
000002e0: e446 d13d 4038 f33c 8ac8 6fbd b4ad 94bc
000002f0: 1c3f cbbd cd73 873d 17b3 ea3d 7446 d03d
00000300: 4674 933b c386 943d 6d71 c33d 9c5f 0a3e
00000310: 323d b93c 7689 a73d a462 18bd 7790 073c
00000320: 47fb fcbd ec15 8dbd 38bf bebd f3dd 75bd
00000330: f476 abbc b92b 8abd 1b60 fcbd ad68 913d
00000340: 38ec 3cbc 572e 1d3d 0a0d e23d 64db c93d
00000350: f829 c8bd 84a1 18bc 6796 03bd 4d5b 433d
00000360: 0e60 ac3c a7da a137 f2ee a73c 4525 003e
00000370: 49ea 0d3d d5d8 693d fe01 0cbe fb34 973c
00000380: 7019 903c 0fb0 933d 7d04 6dbd dc71 12bd
00000390: a511 633d 8cc6 873c 6bd6 f8bd a42f 04be
000003a0: 3d99 4dbd a6c3 5cbd 4d91 b3bd 8bda bfbd
000003b0: 97bf 1b3e 8c54 e6bc a6b2 3e3d e55b b43d
000003c0: 0647 3c3c 758e d2bc 1917 d03d 60be ac3d
000003d0: 6653 9e3c f299 18bd eae4 e73c 2f94 0bbd
000003e0: 486f cabd e274 f8bc 2849 c83d f51f d9bd
000003f0: 60b1 9f3d c54c eaba 5ee3 9ebb 16e3 d4bd

classifier.2.bias f4 [10]
-0.010687542 -0.0075165136 -0.025933307 0.021032225 -0.018354924 0.035005383 0.05685105 -0.030732581
-0.06496406 0.052328553
00000000: cd1a 2fbc 164d f6bb 1672 d4bc c64b ac3c
00000010: 115d 96bc ce61 0f3d a6dc 683d e5c2 fbbc
00000020: e10b 85bd 7756 563d
