checkpoints/noise_rate_0.2/models/tsf/epoch160.pth (torch, 250639 bytes, 10 tensors)

feature_extractor.0.weight f4 [6, 1, 5, 5]
0.14304836 -0.050841365 -0.03169534 0.074063525 -0.21482866 0.18736508 0.038615633 0.17061576
0.07052796 0.0008558316 0.11028531 0.09446204 0.1679887 0.0077426317 0.055096153 -0.031307865
0.043610442 0.041457187 0.2388477 0.14344078 -0.13449647 -0.17479661 -0.06419329 -0.0764723
-0.017730586 0.10557996 0.26240805 0.19045421 -0.22053196 0.04833787 0.16545415 0.34892493
0.19870391 -0.24554092 -0.28263673 0.025662454 0.3418899 0.04983069 0.05816875 -0.13992998
0.28597894 0.051230036 0.26269773 0.05305489 -0.0748904 0.14652678 -0.019007482 0.18202528
0.05339236 0.084666245 -0.25251302 -0.14658608 0.06090273 -0.03848879 0.25142217 0.14722335
-0.001248813 -0.085483395 0.22617854 0.1693584 -0.0759022 0.2054642 0.23147823 0.29504544
-0.04061271 0.06275523 0.09234466 0.116509646 -0.10327602 -0.13689011 0.19421305 0.030032918
0.14892355 0.022690501 0.04628748 0.038937107 0.08872635 0.11191647 -0.18424404 0.10226992
-0.1531162 -0.14697465 0.030445967 0.0044615217 0.18378922 -0.12930971 -0.16933993 0.19403058
0.05030772 0.20340306 0.0638148 -0.122647926 0.104068905 0.122363634 -0.08178888 -0.089112304
0.10144166 0.083849944 -0.047841366 -0.0534739 0.24105452 0.10619851 0.2509982 0.17017587
-0.122337215 -0.06719419 0.45292988 0.2794799 0.290453 0.10937433 0.2841355 0.51778907
0.49134576 0.025112178 0.11033399 0.3755828 0.44177002 0.35147926 -0.013796189 -0.04437223
-0.001953809 0.15690726 0.30334917 -0.021298926 0.21914832 -0.11160594 -0.1536513 0.026335381
0.24449147 0.3029301 -0.073569834 0.16565397 0.38396272 0.40259308 0.31842238 0.252683
0.2921576 0.29569653 0.13827549 0.02079252 -0.013940164 0.08092537 0.041923765 0.28056186
0.2235023 -0.02656215 0.10086362 0.13365749 0.24105379 0.24382868
00000000: 457b 123e 093f 50bd f9d2 01bd 9eae 973d
00000010: 0bfc 5bbe a2dc 3f3e 6d2b 1e3d e6b5 2e3e
00000020: f770 903d e359 603a 44dd e13d 5075 c13d
00000030: 3b05 2c3e e7b5 fd3b 81ac 613d ad3c 00bd
00000040: dda0 323d 03cf 293d 7e94 743e 24e2 123e
00000050: 71b9 09be e2fd 32be c677 83bd 829d 9cbd
00000060: bc3f 91bc 4e3a d83d 595a 863e 6e06 433e
00000070: 21d3 61be eefd 453d d06c 293e 4aa6 b23e
00000080: 0a79 4b3e 146f 7bbe c3b5 90be 113a d23c
00000090: 310c af3e 441b 4c3d 5b42 6e3d ce49 0fbe
000000a0: d56b 923e 96d6 513d 5180 863e 1650 593d
000000b0: 2360 99bd 1e0b 163e 94b5 9bbc d664 3a3e
000000c0: f3b1 5a3d 7f65 ad3d 6349 81be a91a 16be
000000d0: 2475 793d 6ca6 1dbd 68ba 803e b8c1 163e
000000e0: 36af a3ba eb11 afbd 599b 673e 4a6c 2d3e
000000f0: 9d72 9bbd 3565 523e a108 6d3e 3210 973e
00000100: 8359 26bd d085 803d 321f bd3d 9c9c ee3d
00000110: 6182 d3bd ec2c 0cbe c9df 463e 9807 f63c
00000120: 6a7f 183e 6ee1 b93c f197 3d3d 847c 1f3d
00000130: 29b6 b53d 7634 e53d 78aa 3cbe e472 d13d
00000140: 7eca 1cbe 8680 16be d269 f93c f531 923b
00000150: 3e33 3c3e c469 04be 7267 2dbe f4af 463e
00000160: 780f 4e3d e448 503e 55b1 823d d62e fbbd
00000170: 1422 d53d c999 fa3d ee80 a7bd 8380 b6bd
00000180: a5c0 cf3d 85b9 ab3d 4ff5 43bd 7307 5bbd
00000190: ffd6 763e 9b7e d93d d682 803e 9542 2e3e
000001a0: ef8b fabd 1c9d 89bd 6de6 e73e fd17 8f3e
000001b0: 41b6 943e a6ff df3d 357a 913e d38d 043f
000001c0: ac91 fb3e 0eb8 cd3c c9f6 e13d 644c c03e
000001d0: ae2f e23e 17f5 b33e 6909 62bc a8bf 35bd
000001e0: 7a0b 00bb 4cac 203e 9550 9b3e 167b aebc
000001f0: 6b68 603e a891 e4bd c456 1dbe 4cbd d73c
00000200: f95b 7a3e a719 9b3e c8ab 96bd 32a1 293e
00000210: c396 c43e ae20 ce3e 4208 a33e ab5f 813e
00000220: ae95 953e 8965 973e 1798 0d3e 1355 aa3c
00000230: 4965 64bc 33bc a53d 41b8 2b3d cea5 8f3e
00000240: c9dd 643e de98 d9bc 9691 ce3d 82dd 083e
00000250: ced6 763e 3aae 793e

feature_extractor.0.bias f4 [6]
-0.036845166 0.24112697 0.018185012 0.025917573 -0.04991711 0.017091341
00000000: f5ea 16bd fde9 763e bcf8 943c 1751 d43c
00000010: e275 4cbd 2403 8c3c

feature_extractor.3.weight f4 [16, 6, 5, 5]
-0.036236614 -0.029648382 0.058697417 -0.024318514 -0.0538825 0.050242074 0.04608824 0.067105666
-0.03590325 0.024123693 -0.03194356 -0.011215787 -0.06788334 -0.04515738 -0.031067414 0.032803394
0.018235642 0.013722382 0.069613025 0.07275109 0.057209328 0.0051577957 -0.06723403 0.05252588
-0.017386634 -0.014768276 -0.04748756 0.023855764 -0.042987682 0.06636271 -0.0975067 -0.032239344
0.035908047 -0.04687301 0.0130012 -0.051466905 -0.018552167 0.038391486 0.042035766 -0.08068467
0.032680128 0.09093284 0.09920662 -0.08671644 -0.0053148754 -0.07635391 0.095329314 -0.01159416
0.011733871 -0.010793134 -0.00874007 0.006240234 0.01112156 0.033572614 0.01291758 0.03049247
-0.058968913 0.058170523 0.06667772 0.07144201 0.070011556 -0.040036853 -0.04141643 0.050338
-0.06703589 0.08709602 -0.07114913 -0.07708905 0.014183678 -0.060880594 -0.015633155 0.06271091
0.045900803 0.069556415 -0.011451194 -0.06711132 0.07783903 -0.022623217 -0.038535606 0.020812262
-0.053220537 0.054816496 0.0434321 -0.07346404 -0.06495882 0.004208108 0.031428494 -0.0109872315
-0.049921077 0.0036172897 -0.07413903 -0.056672137 -0.068009466 0.064295284 0.07547115 -0.028322961
0.0039881594 0.029119423 0.012330132 -0.037063308 0.04652553 0.09547386 0.046310578 -0.005827267
0.08501539 0.07701245 0.019873247 0.1499499 0.015012436 -0.054948933 0.064472266 -0.010006443
0.111093834 -0.09758423 -0.015437443 0.024391122 0.06818082 0.045849975 -0.1007774 -0.0677248
-0.08269379 0.019044641 -0.029323053 -0.044661377 -0.016307632 0.066325836 0.1195975 0.028895272
-0.031488713 -0.02031955 -0.031446435 0.11703986 -0.017074876 0.013214871 0.027979994 -0.022496441
0.083335415 0.020403832 -0.02950804 -0.045202628 -0.00044651492 -0.0041440157 -0.099607386 -0.08424693
-0.00958078 0.0048016347 0.031629436 -0.0665265 -0.027205493 -0.015405101 -0.07575284 0.081057936
0.030011648 0.08358919 0.004056965 -0.0207171 -0.06046128 -0.00071920094 0.06865343 -0.07773934
-0.028883249 0.057060566 0.060562372 0.04192942 -0.01413021 -0.026231164 -0.042492896 -0.04422338
0.051571712 0.0010237639 -0.032125738 0.025475211 -0.05080493 0.006424319 0.06729501 0.014315296
0.07866073 -0.04610319 0.017694328 -0.016829282 -0.044831425 -0.026637442 0.071991235 0.049922995
-0.048551116 -0.045812108 -0.07579229 0.100152306 0.013329499 0.0036931501 -0.018623842 -0.060731497
-0.08707414 -0.020284442 0.09342084 0.02245976 -0.03343154 -0.0026855415 0.07371885 0.08405227
0.07492347 0.02407676 0.0572276 0.011469717 -0.056946203 -0.06732157 0.07701317 0.0027507416
0.019277386 -0.0018504921 -0.054098755 -0.031218525 0.0073589487 -0.025748556 -0.06629633 0.009895141
-0.0025341273 0.004257787 0.068994336 0.039353337 -0.020812094 0.12705119 0.113452844 0.032233853
-0.015675927 -0.068269715 0.072209336 -0.012626775 -0.059541646 0.05544649 0.045604933 0.04416102
-0.013089155 -0.037879784 0.016714007 0.07055404 0.011215358 -0.03040898 0.08659726 0.003122441
0.059546303 0.034721896 0.10977436 0.069584206 -0.041384008 0.07355986 0.02252657 -0.057881236
-0.028511176 -0.0765206 -0.0799795 -0.07837948 0.06979502 0.0044596144 -0.019270828 0.048072215
00000000: d86c 14bd 2ae1 f2bc b46c 703d 9f37 c7bc
00000010: e5b3 5cbd a2ca 4d3d 06c7 3c3d b26e 893d
00000020: 490f 13bd 0d9f c53c 40d7 02bd 6cc2 37bc
00000030: 6c06 8bbd f2f6 38bd 1781 febc da5c 063d
00000040: ea62 953c d7d3 603c 4691 8e3d 86fe 943d
00000050: 5454 6a3d ba02 a93b ffb1 89bd 6125 573d
00000060: 6a6e 8ebc a4f6 71bc 5182 42bd 2a6d c33c
00000070: da13 30bd 2ce9 873d 98b1 c7bd 670d 04bd
00000080: 5114 133d eafd 3fbd fc02 553c f6ce 52bd
00000090: b7fa 97bc 6440 1d3d b22d 2c3d 013e a5bd
000000a0: 99db 053d ff3a ba3d d72c cb3d 6498 b1bd
000000b0: 6828 aebb 705f 9cbd 043c c33d 6ff5 3dbc
000000c0: 6c3f 403c afd5 30bc 8332 0fbc e07a cc3b
000000d0: 3437 363c 7083 093d 42a4 533c 58cb f93c
000000e0: 6389 71bd 3744 6e3d 548e 883d 3050 923d
000000f0: 3862 8f3d affd 23bd 46a4 29bd 382f 4e3d
00000100: 1d4a 89bd 665f b23d a3b6 91bd dde0 9dbd
00000110: a862 683c ee5d 79bd 1a11 80bc 946e 803d
00000120: 7b02 3c3d 9873 8e3d ca9d 3bbc a971 89bd
00000130: 126a 9f3d 5354 b9bc 83d7 1dbd 7a7e aa3c
00000140: c7fd 59bd 4387 603d dce5 313d 5174 96bd
00000150: 2109 85bd 2be4 893b 2abb 003d ca03 34bc
00000160: 0b7a 4cbd 0d10 6d3b 34d6 97bd 0b21 68bd
00000170: 8c48 8bbd 3fad 833d 9e90 9a3d 8e05 e8bc
00000180: 1baf 823b db8b ee3c 5204 4a3c b2cf 17bd
00000190: 8e91 3e3d cd87 c33d 29b0 3d3d a9f2 bebb
000001a0: 8c1c ae3d b4b8 9d3d 38cd a23c 778c 193e
000001b0: b8f6 753c 2212 61bd 090a 843d 10f2 23bc
000001c0: 2a85 e33d 3eda c7bd 54ed 7cbc e4cf c73c
000001d0: 63a2 8b3d 2fcd 3b3d 6264 cebd 4db3 8abd
000001e0: 5d5b a9bd 8203 9c3c e636 f0bc d9ee 36bd
000001f0: 9597 85bc d7d5 873d 89ef f43d c7b5 ec3c
00000200: 4ffa 00bd 2f75 a6bc facd 00bd 98b2 ef3d
00000210: 9ce0 8bbc 3083 583c 4d36 e53c 754a b8bc
00000220: c2ab aa3d f025 a73c d8ba f1bc 6426 39bd
00000230: 381a eab9 86ca 87bb f5fe cbbd a889 acbd
00000240: b4f8 1cbc 0857 9d3b de8d 013d 0c3f 88bd
00000250: 0ede debc ad65 7cbc 4e24 9bbd b401 a63d
00000260: fdda f53c cf30 ab3d 4af0 843b e8b6 a9bc
00000270: 3fa6 77bd c288 3cba 2b9a 8c3d ce35 9fbd
00000280: 909c ecbc 57b8 693d 4010 783d 2fbe 2b3d
00000290: 6582 67bc bde2 d6bc 080d 2ebd 9323 35bd
000002a0: dc3c 533d d12f 863a 4796 03bd 64b1 d03c
000002b0: d518 50bd 1883 d23b f7d1 893d b48a 6a3c
000002c0: e018 a13d b3d6 3cbd b2f3 903c 90dd 89bc
000002d0: 28a1 37bd c436 dabc 2470 933d 0e7c 4c3d
000002e0: 89dd 46bd 7aa5 3bbd fd38 9bbd a71c cd3d
000002f0: f963 5a3c c708 723b 0791 98bc 97c1 78bd
00000300: ed53 b2bd 8f2b a6bc 6d53 bf3d 88fd b73c
00000310: 83ef 08bd e9ff 2fbb e9f9 963d 9923 ac3d
00000320: 7a71 993d a03c c53c 7d67 6a3d 7beb 3b3c
00000330: 6c40 69bd e4df 89bd 15b9 9d3d c945 343b
00000340: 9ceb 9d3c 368c f2ba a896 5dbd febd ffbc
00000350: 5623 f13b a3ee d2bc 5fc6 87bd 3b1f 223c
00000360: 9a13 26bb e884 8b3b e74c 8d3d f730 213d
00000370: 207e aabc b519 023e f759 e83d a507 043d
00000380: cd6a 80bc fed0 8bbd 7de2 933d 88e0 4ebc
00000390: f1e1 73bd dc1b 633d 3dcc 3a3d 30e2 343d
000003a0: e573 56bc d527 1bbd d0eb 883c a37e 903d
000003b0: 9fc0 373c 411c f9bc e759 b13d dea1 4c3b
000003c0: d3e6 733d 8c38 0e3d 61d1 e03d 2a82 8e3d
000003d0: 4782 29bd 8da6 963d a489 b83c e014 6dbd
000003e0: 4590 e9bc d5b6 9cbd 4bcc a3bd 6c85 a0bd
000003f0: b1f0 8e3d f521 923b dbdd 9dbc 5fe7 443d

feature_extractor.3.bias f4 [16]
-0.020847863 -0.04140736 0.005305372 0.03017735 0.0457206 -0.019261118 0.010479046 -0.037197348
-0.06447036 -0.047869895 -0.049077496 -0.0502673 0.017530506 -0.02437107 0.067470714 0.08252317
00000000: 23c9 aabc c49a 29bd b0d8 ad3b 7d36 f73c
00000010: 8645 3b3d 7ec9 9dbc 4eb0 2b3c 3f5c 18bd
00000020: 0909 84bd 3913 44bd 7c05 49bd 16e5 4dbd
00000030: 239c 8f3c d7a5 c7bc 162e 8a3d e801 a93d

feature_extractor.7.weight f4 [120, 400]
-0.043145254 0.0115920175 0.030135605 -0.047547836 -0.018425163 0.03291898 -0.0368157 0.04629391
-0.004827947 0.013959185 0.04818528 -0.03199512 0.04314929 -0.041170478 0.039794154 -0.0011473204
0.041585132 -0.000771851 -0.041071076 0.01880941 0.030352272 -0.010628646 -0.05418541 -0.007188479
0.009337312 0.008564494 0.030769931 -0.005640275 0.0021466063 0.001826239 0.024830904 0.023997406
0.02181858 0.0062522595 0.010551072 0.036956392 0.01367485 -0.038913142 0.014092487 0.054870423
-0.013818299 0.030374188 -0.047257856 -0.0033187543 0.025104351 -0.037254754 -0.014169293 -0.0035713343
-0.012462035 -0.030827723 0.03748201 -0.005097447 -0.017922262 0.025171338 0.0098052425 -0.014740773
0.032677688 -0.019124689 0.051855076 0.032498058 0.0033977637 0.018322906 -0.008757611 -0.030823927
-0.02360278 0.0148412045 0.021207122 -0.0072789276 -0.012468108 -0.020252354 -0.025147086 -0.019691281
0.034279644 -0.049808465 0.019603798 0.029260056 -0.008944339 0.0048425896 -0.004513432 -0.041300897
0.01140587 -0.017180117 0.021832006 0.004408333 -0.028167808 -0.057668064 0.02761653 0.04815693
0.033076745 0.020707335 0.01069214 0.020828651 0.029767739 -0.0018942277 -0.0006522187 0.009512705
0.027086012 -0.007708219 0.032427955 0.029371262 -0.030064512 -0.04787051 -0.01592025 -0.030395487
0.05509429 -0.021291908 -0.036411088 0.018413104 0.022002397 0.023389008 0.04507158 -0.054923534
0.02457004 -0.017422432 0.013086309 -0.030603394 0.052946642 -0.010374777 0.013625471 -0.043282077
0.017691277 -0.037707694 0.009841202 0.0469796 0.035895403 0.025548711 -0.018995974 0.00727112
0.007590031 -0.055836573 0.022946252 -0.038147304 0.019664908 0.051342573 -0.016273858 0.013493831
0.053729907 0.050723128 0.058009747 -0.022873277 0.00392953 -0.050613247 0.0012150531 -0.051479645
0.004006411 0.016109243 -0.049250502 -0.0050001987 -0.025963638 0.030621443 -0.00924297 0.022347746
-0.031871095 0.0057211327 0.032152154 0.0039339038 -0.011381276 -0.023270652 0.02119281 0.017313052
0.009733936 0.037836395 -0.0054206694 -0.016344009 0.014390583 0.029004456 -0.061050337 -0.029991072
0.0059368815 0.036810216 0.026959877 0.00975681 -0.05336445 -0.033086196 0.02106574 0.006797821
0.02428808 0.038109228 0.025854066 -0.02200263 -0.027782548 -0.013124433 -0.0028578998 -0.0064160223
-0.011545119 0.0022991723 0.03236949 -0.03072883 0.023628939 -0.047006104 1.231162e-05 -0.0473841
0.04315649 -0.038324386 -0.02385284 0.020275299 0.017670086 0.03749543 0.0142521635 -0.042006608
-0.034921356 0.034103688 -0.048539236 0.044785246 -0.008368948 0.009083814 -0.0021371515 -0.012479346
-0.012181592 0.014646087 -0.008743128 0.008443537 0.041805867 0.0045268843 -0.03883595 -0.037512686
0.032270163 0.017410405 0.009596311 -0.024428373 -0.040677715 0.043366145 -0.046773586 -0.024481986
0.020703932 0.03993159 -0.0048450637 -0.03912091 0.018243922 0.004790225 -0.0049346657 -0.048350044
0.038998906 0.008076862 0.021684185 0.017925955 0.04045528 -0.02370656 -0.00035050052 -0.04051217
-0.05440783 -0.021822818 0.019649988 -0.029296905 0.03167559 0.007729284 -0.019489463 0.024111414
0.0341936 -0.0218437 0.029001111 0.027248342 0.037995912 -0.029901264 0.052756302 0.0042913826
00000000: 14b9 30bd 72ec 3d3c f2de f63c 85c1 42bd
00000010: 5ef0 96bc 0dd6 063d 0fcc 16bd af9e 3d3d
00000020: c133 9ebb 11b5 643c ee5d 453d 510d 03bd
00000030: 4fbd 303d 60a2 28bd 32ff 223d af61 96ba
00000040: 2c55 2a3d 0b56 4aba 253a 28bd 3116 9a3c
00000050: 54a5 f83c c623 2ebc 85f1 5dbd 558d ebbb
00000060: 86fb 183c 1752 0c3c 3911 fc3c 0ed2 b8bb
00000070: 14ae 0c3b 6a5e ef3a 2e6a cb3c 3596 c43c
00000080: e1bc b23c c1df cc3b 67de 2c3c 965f 173d
00000090: 7a0c 603c 6363 1fbd 2de4 663c cfbf 603d
000000a0: 2666 62bc 4ad3 f83c 7491 41bd 757f 59bb
000000b0: a4a7 cd3c 7198 18bd 5326 68bc 0c0d 6abb
000000c0: 902d 4cbc 6c8a fcbc bc86 193d 7c08 a7bb
000000d0: b5d1 92bc 1f34 ce3c 2ba6 203c 4883 71bc
000000e0: 0ad9 053d 61ab 9cbc fd65 543d af1c 053d
000000f0: 04ad 5e3b eb19 963c 157c 0fbc 7682 fcbc
00000100: 9e5a c1bc 8628 733c 8fba ad3c 1284 eebb
00000110: 0947 4cbc 44e8 a5bc 4301 cebc 9c4f a1bc
00000120: d068 0c3d f603 4cbd 2598 a03c c9b2 ef3c
00000130: 478b 12bc 96ae 9e3b 69e5 93bb 212b 29bd
00000140: b0df 3a3c 51bd 8cbc 09d9 b23c c773 903b
00000150: 2dc0 e6bc 5935 6cbd 103c e23c 3340 453d
00000160: 7b7b 073d 6ea2 a93c 162e 2f3c d9a0 aa3c
00000170: 79db f33c bc47 f8ba a8f9 2aba 2ddb 1b3c
00000180: 7ce3 dd3c 3a95 fcbb 2dd3 043d 009c f03c
00000190: da49 f6bc de13 44bd 2f6b 82bc f5ff f8bc
000001a0: 8daa 613d 5e6c aebc cb23 15bd 14d7 963c
000001b0: 5f3e b43c 4e9a bf3c fa9c 383d 80f7 60bd
000001c0: 1c47 c93c 7db9 8ebc f567 563c f8b3 fabc
000001d0: 94de 583d f8fa 29bc 5e3d 5f3c 8c48 31bd
000001e0: 4ced 903c 6273 1abd fe3c 213c ae6d 403d
000001f0: 0f07 133d 884b d13c 729d 9bbc 9342 ee3b
00000200: cbb5 f83b e4b4 64bd c7f9 bb3c 5940 1cbd
00000210: 4d18 a13c 974c 523d c150 85bc 3b15 5d3c
00000220: e413 5c3d 0ec3 4f3d a19b 6d3d bd60 bbbc
00000230: 49c3 803b d64f 4fbd 6b42 9f3a 52dc 52bd
00000240: 3648 833b 88f7 833c e5ba 49bd b5d8 a3bb
00000250: b2b1 d4bc d2d9 fa3c d36f 17bc 9f12 b73c
00000260: 448b 02bd 5778 bb3b fab1 033d fae7 803b
00000270: 8878 3abc 18a2 bebc 8b9c ad3c 1ad4 8d3c
00000280: 167b 1f3c 56fa 1a3d df9f b1bb dfe3 85bc
00000290: 7bc6 6b3c c19a ed3c eb0f 7abd d6af f5bc
000002a0: 2c8a c23b 4fc6 163d f6da dc3c 07db 1f3c
000002b0: ae94 5abd 6485 07bd 0f92 ac3c 41c0 de3b
000002c0: ccf7 c63c 6c18 1c3d e8cb d33c dc3e b4bc
000002d0: 3a98 e3bc dd07 57bc 9a4b 3bbb 7f3d d2bb
000002e0: bd27 3dbc b6ad 163b df95 043d 07bb fbbc
000002f0: 7a91 c13c 7989 40bd 018e 4e37 d415 42bd
00000300: dcc4 303d 08fa 1cbd 0867 c3bc 6218 a63c
00000310: dbc0 903c cf94 193d e881 693c 1f0f 2cbd
00000320: b209 0fbd 4fb0 0b3d 14d1 46bd bc70 373d
00000330: e91d 09bc 47d4 143c 740f 0cbb 2c76 4cbc
00000340: 4d95 47bc 24f6 6f3c 563f 0fbc c356 0a3c
00000350: a13c 2b3d 4256 943b 7212 1fbd e7a6 19bd
00000360: b82d 043d 44a0 8e3c d839 1d3c 031e c8bc
00000370: ad9d 26bd b3a0 313d a995 3fbd 728e c8bc
00000380: 4b9b a93c 4f8f 233d 57c3 9ebb 3f3d 20bd
00000390: 4774 953c 52f7 9c3b fab2 a1bb b20a 46bd
000003a0: 51bd 1f3d d154 043c 08a3 b13c 74d9 923c
000003b0: 70b4 253d 4234 c2bc 62c3 b7b9 17f0 25bd
000003c0: bfda 5ebd c4c5 b2bc 03f9 a03c 1000 f0bc
000003d0: 43be 013d ef45 fd3b 5ea8 9fbc 4d85 c53c
000003e0: 970e 0c3d 8ff1 b2bc bd93 ed3c ea37 df3c
000003f0: 9aa1 1b3d 7ff3 f4bc fe16 583d ba9e 8c3b

feature_extractor.7.bias f4 [120]
0.020824626 0.035563283 0.0212975 0.03294114 0.04198916 -0.030525796 0.037261836 -0.0014984626
-0.029685555 0.0040706596 0.023089577 -0.027574241 -0.03699275 -0.049277145 -0.026587727 -0.040106606
0.029639652 -0.021190772 -0.04457513 -0.028827755 -0.010376077 0.030586997 0.03566202 0.016656512
0.042315286 -0.03929234 -0.020627262 0.03714298 -0.01608042 0.014540237 -0.0131754065 0.024920138
-0.04825291 0.024321012 -0.027695214 -0.027722595 0.037375946 -0.025427338 0.0064923456 0.0010924656
-0.03631377 0.027764017 -0.036649328 -0.017686501 -0.04814601 -0.011530101 0.016062325 0.013208663
0.02308298 -0.016998108 0.018727211 -0.012304086 0.04112443 -0.02932458 -0.0024383678 0.0013463879
0.036306497 -0.014624106 -0.038848534 0.015923522 0.04750789 -0.032771014 -0.01660213 -0.014719659
0.034022886 0.006826677 -0.04204468 0.03837328 -0.013046863 -0.046949055 0.04724526 -0.010493294
0.02135425 -0.00032772805 0.03689659 -0.021327505 -0.014690421 -0.023825102 -0.031567596 -0.031731475
0.027814345 -0.03324227 7.702498e-05 0.0077413446 0.052267123 -0.017702308 -0.016140362 0.02637871
0.01139592 0.023182126 0.041546803 -0.040645473 0.01336892 0.0010639431 -0.045192495 -0.006354026
0.014906835 0.028749388 0.002593413 -0.034338173 -0.012877754 0.04378196 0.024887905 -0.036237277
0.013433007 -0.009794005 0.011283807 0.031928767 -0.02651426 -0.0019409097 0.040620048 -0.006836227
0.048939776 -0.00081686466 0.008986837 -0.008615199 0.021402234 -0.014817443 0.052695677 0.0447923
00000000: 6898 aa3c ceaa 113d 1878 ae3c 4aed 063d
00000010: d3fc 2b3d 3c11 fabc de9f 183d 1068 c4ba
00000020: 1f2f f3bc 2b63 853b 5a26 bd3c 60e3 e1bc
00000030: b685 17bd d5d6 49bd 81ce d9bc d346 24bd
00000040: dbce f23c 4598 adbc 6994 36bd 2f28 ecbc
00000050: 6c00 2abc 9591 fa3c 5712 123d 3d73 883c
00000060: cb52 2d3d 01f1 20bd 81fa a8bc 3d23 183d
00000070: 16bb 83bc 2d3a 6e3c a9dd 57bc 5125 cc3c
00000080: d8a4 45bd dc3c c73c 13e1 e2bc 7f1a e3bc
00000090: 8517 193d fe4c d0bc bebd d43b 1031 8f3a
000000a0: bfbd 14bd 5d71 e33c 9b1d 16bd 48e3 90bc
000000b0: c034 45bd c0e8 3cbc 2395 833c 2669 583c
000000c0: 8518 bd3c 9e3f 8bbc cf69 993c 1497 49bc
000000d0: 1772 283d 1a3a f0bc 06cd 1fbb 4879 b03a
000000e0: 1fb6 143d f299 6fbc a41f 1fbd 0c72 823c
000000f0: a297 423d e63a 06bd 3101 88bc ba2a 71bc
00000100: 955b 0b3d 51b2 df3b 0b37 2cbd 4d2d 1d3d
00000110: 82c2 55bc a74d 40bd 3f84 413d 11ec 2bbc
00000120: 1cef ae3c ead2 abb9 e120 173d 05b7 aebc
00000130: 17b0 70bc dc2c c3bc 064d 01bd ddf8 01bd
00000140: e9da e33c 0c29 08bd 7988 a138 1bab fd3b
00000150: 0d16 563d 6e04 91bc cb38 84bc 2a18 d83c
00000160: f4b5 3a3c 71e8 bd3c fb2c 2a3d de7b 26bd
00000170: 5109 5b3c 0274 8b3a c41b 39bd 6f35 d0bb
00000180: cc3b 743c d683 eb3c 40f6 293b 2fa6 0cbd
00000190: 37fd 52bc b654 333d b8e1 cb3c 8a6d 14bd
000001a0: 1d16 5c3c 0977 20bc b8df 383c bdc7 023d
000001b0: 6f34 d9bc 1f66 feba 3561 263d 6e02 e0bb
000001c0: 1375 483d dc22 56ba 873d 133c c326 0dbc
000001d0: bd53 af3c dcc4 72bc 6cd7 573d 2178 373d

classifier.0.weight f4 [84, 120]
0.0151190525 -0.05470461 0.023104964 -0.004453504 -0.07648886 0.03358238 -0.062047966 -0.044513967
-0.07032315 0.06504328 0.05673212 -0.05350655 0.067156926 -0.06802646 0.008225498 -0.058568846
0.06328925 -0.03706707 -0.010515872 0.037261628 -0.08278023 0.06742039 0.0058432156 -0.054605227
0.0022373977 -0.03598694 0.018932445 0.05719537 -0.08220916 0.06995778 -0.024565222 0.07618603
0.005486135 0.03614329 -0.043996442 0.017559307 0.001145466 -0.01893258 -0.04104212 0.002348721
-0.09715259 -0.052540198 -0.025729736 0.0023013991 -0.058797143 -0.04196893 0.015129815 0.004423393
0.02006365 -0.04922996 0.07319104 -0.02282453 -0.085035324 0.055401754 0.008162568 -0.007897758
-0.08215995 -0.04450184 0.05035169 -0.015571838 -0.054179 0.0685524 -0.07384591 0.07168582
-0.03062685 0.038307734 0.011254952 0.10319673 0.029151704 -0.0061491053 0.08586975 -0.072375216
0.01634379 0.028666276 -0.052357834 -0.054327525 -0.04682649 -0.047944333 -0.012925016 -0.056293193
0.06416755 -0.0021310735 0.09782585 0.015507033 -0.00054229086 0.007950583 -0.040202353 -0.036020353
0.03809732 -0.011285461 0.008861855 -0.0067218305 0.094399594 -0.10247168 -0.05946349 -0.047619097
-0.027912842 0.071486875 0.062666446 -0.054698296 -0.026477521 0.10215667 -0.075405076 0.009398862
0.034145106 0.044239175 0.102521144 0.05944679 0.013019357 -0.088121474 -0.04070438 -0.015388347
-0.06650669 -0.036063336 0.004747557 -0.035375558 0.013321226 0.038017757 0.064047344 -0.06950913
0.08073063 0.036375154 0.0073368405 -0.025789116 -0.027664423 0.00402193 -0.011869198 -0.0865902
0.014420408 -0.060063567 -0.07695952 0.053784437 -0.016012574 -0.023920467 -0.012464026 -0.038645793
0.047052883 -0.0032064118 -0.04035389 0.083612 0.06561116 0.06743211 -0.090636835 0.018307725
0.0035027096 0.078118764 0.024348328 0.018067084 0.060095757 0.03966189 -0.08202477 -0.08729702
-0.05101531 -0.019813085 0.0217673 0.05731086 -0.08273381 -0.013802697 -0.07128285 0.07876737
0.05914121 0.052391622 -0.010692104 -0.057494562 -0.045924082 -0.0012237822 0.00065169466 -0.002099871
0.07723836 -0.04725347 0.0696668 0.040319618 -0.07219326 -0.041725963 -0.055253956 0.0007927805
0.048348315 0.0515461 -0.019333808 0.07829461 0.042792138 0.01346322 -0.073802546 -0.07719772
0.057069015 0.04861734 -0.043807924 -0.06809091 0.0043312847 -0.08320024 0.061311394 0.047642767
0.025157515 -0.06559897 -0.013575051 -0.046479367 0.045747243 0.08675258 0.0023942224 -0.02344022
0.062759146 -0.021196617 -0.04188546 -0.07629725 0.01231224 0.071888946 0.05677858 0.031349182
0.062280912 -0.07261642 0.08931464 -0.029899219 -0.088743955 0.04156986 0.022835502 -0.018281177
-0.086468585 0.000983689 -0.04598895 -0.053702652 0.08159631 0.04240801 -0.07977739 -0.039195273
-0.04402408 -0.08194742 -0.07374132 0.09052068 0.006798658 0.07411777 0.015069402 0.08784661
-0.055172972 0.022248762 -0.045366418 0.03236465 0.07027799 0.068440124 -0.061648984 -0.00344137
0.012424033 0.025694823 -0.038093302 0.033467356 -0.07154937 -0.03528887 -0.019764576 -0.015360371
-0.079823375 0.058669508 -0.0107405875 0.04330935 -0.0018399154 0.0050358404 0.083226785 0.06800239
00000000: e7b5 773c f111 60bd 9f46 bd3c b3ee 91bb
00000010: 31a6 9cbd ad8d 093d 0226 7ebd 4754 36bd
00000020: 9505 90bd 6935 853d f15f 683d af29 5bbd
00000030: 9289 893d 7551 8bbd 3dc4 063c e3e5 6fbd
00000040: cb9d 813d a4d3 17bd c44a 2cbc a69f 183d
00000050: ae88 a9bd b413 8a3d 7278 bf3b bba9 5fbd
00000060: 4ea1 123b 0b67 13bd 3718 9b3c b145 6a3d
00000070: 475d a8bd 0646 8f3d 013d c9bc 6c07 9c3d
00000080: 09c5 b33b fd0a 143d 9d35 34bd 89d8 8f3c
00000090: 7623 963a 7f18 9bbc c81b 28bd 00ed 193b
000000a0: f0f7 c6bd 6434 57bd 2bc7 d2bc 12d3 163b
000000b0: 46d5 70bd 9de7 2bbd 0be3 773c 1cf2 903b
000000c0: 865c a43c 5ba5 49bd 2fe5 953d 82fa babc
000000d0: 0027 aebd f3ec 623d 4bbc 053c 9965 01bc
000000e0: 7a43 a8bd 9047 36bd 933d 4e3d 0621 7fbc
000000f0: cdea 5dbd 3365 8c3d 863c 97bd 04d0 923d
00000100: 29e5 fabc 92e8 1c3d b166 383c cf58 d33d
00000110: 8ecf ee3c 6f7e c9bb 7bdc af3d 7539 94bd
00000120: 69e3 853c 8ad5 ea3c 2b75 56bd 8a86 5ebd
00000130: 22cd 3fbd 4761 44bd 72c3 53bc b193 66bd
00000140: 476a 833d 7ba9 0bbb eb58 c83d 3611 7e3c
00000150: 8628 0eba 2943 023c 39ab 24bd 148a 13bd
00000160: ef0b 1c3d a7e6 38bc 5031 113c cd42 dcbb
00000170: 9354 c13d acdc d1bd fd8f 73bd 3e0c 43bd
00000180: 79a9 e4bc b667 923d 4457 803d 520b 60bd
00000190: 63e7 d8bc 8437 d13d fa6d 9abd affd 193c
000001a0: bddb 0b3d 2334 353d 9bf6 d13d 7a7e 733d
000001b0: 244f 553c 0879 b4bd a3b9 26bd 681f 7cbc
000001c0: a934 88bd 26b7 13bd 6591 9b3b f6e5 10bd
000001d0: 4641 5a3c 82b8 1b3d 412b 833d ce5a 8ebd
000001e0: 1a56 a53d 1dfe 143d e169 f03b b243 d3bc
000001f0: 80a0 e2bc 65ca 833b 0677 42bc 3456 b1bd
00000200: 9343 6c3c 3705 76bd f49c 9dbd 124d 5c3d
00000210: cd2c 83bc dbf4 c3bc ea35 4cbc 0d4b 1ebd
00000220: 86ba 403d aa22 52bb 1f4a 25bd c53c ab3d
00000230: 255f 863d d919 8a3d ce9f b9bd 15fa 953c
00000240: b78d 653b bbfc 9f3d 2576 c73c 6c01 943c
00000250: f826 763d 8274 223d 9afc a7bd c8c8 b2bd
00000260: 6ef5 50bd 0d4f a2bc 5651 b23c cbbe 6a3d
00000270: 5870 a9bd b524 62bc befc 91bd c950 a13d
00000280: 0e3e 723d 9998 563d ef2d 2fbc 6b7f 6bbd
00000290: e41a 3cbd 5167 a0ba 7dd6 2a3a fd9d 09bb
000002a0: 252f 9e3d db8c 41bd 78ad 8e3d 2f26 253d
000002b0: 0fda 93bd d8e8 2abd f951 62bd 99d2 4f3a
000002c0: e208 463d 0122 533d ef61 9ebc ed58 a03d
000002d0: cf46 2f3d d694 5c3c ca25 97bd d719 9ebd
000002e0: 33c1 693d fa22 473d f06f 33bd 3f73 8bbd
000002f0: 73ed 8d3b e364 aabd a821 7b3d 1025 433d
00000300: 2217 ce3c c158 86bd e469 5ebc 2661 3ebd
00000310: 7661 3b3d 56ab b13d 63e8 1c3b b405 c0bc
00000320: de87 803d 87a4 adbc 1790 2bbd bc41 9cbd
00000330: 47b9 493c 833a 933d a890 683d 0068 003d
00000340: 451a 7f3d ebb7 94bd 98ea b63d 35ef f4bc
00000350: 64bf b5bd 2845 2a3d 8511 bb3c 68c2 95bc
00000360: 7116 b1bd 20ef 803a e95e 3cbd 50f7 5bbd
00000370: f71b a73d 06b4 2d3d 5462 a3bd 398b 20bd
00000380: 9852 34bd 0dd4 a7bd b005 97bd e862 b93d
00000390: 47c7 de3b 0fcb 973d a7e5 763c ece8 b33d
000003a0: 0efd 61bd 0943 b63c 23d2 39bd cc90 043d
000003b0: e8ed 8f3d 562a 8c3d a583 7cbd 9c88 61bb
000003c0: 2c8e 4b3c f37d d23c b907 1cbd 1115 093d
000003d0: 7a88 92bd 108b 10bd 52e9 a1bc 11aa 7bbc
000003e0: 707a a3bd 704f 703d 4af9 2fbc 2565 313d
000003f0: 5129 f1ba b103 a53b ce72 aa3d d644 8b3d

classifier.0.bias f4 [84]
-0.007616254 -0.086290054 0.042465314 0.086530395 0.022093587 0.040683787 0.07944143 0.054271176
-0.039754234 0.0470826 -0.0746869 0.09198463 0.0612898 -0.048589073 -0.027328517 -0.05549641
-0.03476533 -0.058022145 -0.08269964 -0.0129323 0.0372641 0.056739505 -0.030118503 -0.06745749
0.054762244 0.0040374575 -0.0015179102 0.04710396 -0.02606013 0.043163717 0.032044016 -0.014059158
0.002640971 -0.023451734 -0.040192705 -0.006122828 -0.07514194 -0.07076037 0.0011617299 -0.086824
-0.0091733085 -0.081112415 0.030852849 0.017784975 -0.042114228 -0.00068478205 0.0452735 -0.07700373
-0.07624597 0.022700824 0.022917336 0.045140043 0.01226461 -0.09136012 -0.04852494 0.0019358686
-0.043635197 -0.034271147 0.020549066 -0.052231044 0.01038173 0.09880196 0.08927765 -0.011636562
0.057789046 -0.074397 0.051642835 0.012093331 0.08137894 0.065983534 -0.08388921 0.08525623
0.06599012 0.077386156 0.054126054 -0.04452281 -0.003604541 -0.00490834 0.043170262 0.04352879
-0.037775546 -0.019793302 -0.0371527 0.0035508764
00000000: c591 f9bb d7b8 b0bd 1cf0 2d3d d936 b13d
00000010: 9cfd b43c 0ba4 263d 30b2 a23d 744b 5e3d
00000020: 56d5 22bd afd9 403d 72f5 98bd 7062 bc3d
00000030: 030b 7b3d 5605 47bd 0ee0 dfbc 3450 63bd
00000040: 1766 0ebd a1a8 6dbd 6e5e a9bd ffe1 53bc
00000050: 3ea2 183d af67 683d 14bb f6bc 2727 8abd
00000060: 604e 603d a64c 843b 9df4 c6ba 15f0 403d
00000070: 0e7c d5bc 70cc 303d 9640 033d 6258 66bc
00000080: 2414 2d3b da1d c0bc 1ba1 24bd 01a2 c8bb
00000090: 04e4 99bd d0ea 90bd 3045 983a c8d0 b1bd
000000a0: a54b 16bc 441e a6bd 1dbf fc3c ccb1 913c
000000b0: f87f 2cbd f282 33ba b570 393d 22b4 9dbd
000000c0: d926 9cbd 14f7 b93c 23bd bb3c c4e4 383d
000000d0: 81f1 483c 041b bbbd 16c2 46bd f9bc fd3a
000000e0: d2ba 32bd e75f 0cbd 8456 a83c 38f0 55bd
000000f0: 2218 2a3c af58 ca3d 33d7 b63d 47a7 3ebc
00000100: 35b4 6c3d 745d 98bd 7087 533d 1b23 463c
00000110: 00aa a63d 6022 873d 1bce abbd d19a ae3d
00000120: d425 873d a27c 9e3d 48b3 5d3d 8d5d 36bd
00000130: 2a3a 6cbb 24d6 a0bb 4dd3 303d 3f4b 323d
00000140: 88ba 1abd 9025 a2bc 6e2d 18bd d2b5 683b

classifier.2.weight f4 [10, 84]
-0.10919829 -0.08678911 0.09551043 -0.029417071 0.009468573 -0.043745883 0.0058896258 0.024562225
-0.081218034 0.10004572 -0.08579669 -0.021450749 0.05297106 -0.10891299 0.0960422 0.10378014
-0.19287646 -0.022178428 -0.08948624 0.17875862 -0.13412039 -0.16277285 -0.07735161 0.061095823
0.0216432 -0.11567157 -0.029120438 -0.06711993 0.15619525 -0.10985712 0.028150486 0.05632736
-0.17819598 0.027752437 -0.010415823 0.023775224 -0.059749667 -0.13989872 -0.0036887797 -0.011174349
-0.04831326 0.17050663 -0.064611875 -0.10606663 0.0228853 -0.11201923 0.11288429 0.20185366
0.14238104 0.09135666 -0.20858867 0.0392091 -0.15984176 -0.041967437 -0.100258626 -0.08559497
0.0698574 0.07586877 0.047435276 0.0513926 0.18473251 0.058206167 -0.08503633 0.0789776
-0.03808449 -0.0075265826 0.048563924 0.011333897 0.06828377 -0.02962479 -0.059025414 0.01663575
0.09284491 -0.15771972 -0.1474114 0.0314941 0.06027623 0.022848135 -0.16203628 -0.1370304
-0.0010726299 0.034979872 -0.18694603 0.10819639 -0.1119238 0.033819284 -0.027518211 -0.096084386
0.023630569 0.021646997 0.10987033 0.15699808 0.20164423 0.1376894 -0.15026149 0.1561825
0.20514001 -0.076082274 0.12258505 -0.25009915 -0.13043593 0.103599645 0.114772715 0.017184606
-0.098501384 -0.0020127546 0.08681001 0.028590087 0.08368642 -0.04030944 0.08633468 -0.037091468
0.05031602 0.039268028 -0.14859271 0.10103725 0.10362958 -0.12887019 -0.0057802647 0.10522658
0.07896386 0.12779087 0.0834707 -0.042967495 0.040916797 -0.104216374 -0.02014118 -0.055203922
-0.06892521 0.19002777 -0.10413336 0.16173215 0.10921662 0.07532 0.13201948 -0.11028752
0.09579307 -0.025902947 -0.118657574 -0.014893903 0.031007154 -0.0900612 -0.060015008 0.09467738
-0.06998955 0.11238684 -0.09264989 -0.12701851 0.09880808 0.10366449 0.130414 0.124690525
0.16610436 0.06601005 0.009760639 0.031512417 0.07619171 0.07163188 -0.066425405 0.05996524
-0.083574176 -0.11340012 0.028961783 0.12559603 0.010172225 0.13322143 -0.089694306 -0.15988272
-0.024012728 -0.0984561 0.1364289 -0.17485665 0.12476407 0.1531881 0.09357853 0.10182431
0.0020709692 -0.011737777 0.14581506 -0.08547203 -0.030826185 0.07115307 -0.108774364 0.042211298
0.15175146 0.045871638 -0.10032605 -0.01982848 -0.17933144 0.06696108 0.14258514 0.10253057
0.006353465 0.08324394 0.11454781 0.19521853 -0.0041563115 0.12028894 -0.09131813 0.055053737
-0.13601252 -0.099731915 -0.12253188 -0.05539481 -0.020566093 -0.08400733 -0.20137432 0.08096606
-0.017724559 0.047324248 0.16207096 0.124484144 -0.16936158 -0.06793826 -0.056564905 0.03438145
0.014657707 0.007169257 0.025353238 0.20134833 0.054998282 0.10113902 -0.18414028 0.006752885
0.06073623 0.075723164 -0.12285253 -0.0420225 0.09062914 0.04908123 -0.19707346 -0.14784706
-0.05005233 -0.045596726 -0.1330194 -0.10707415 0.20707752 -0.046475265 0.055449888 0.11392581
0.0084437635 -0.008251493 0.14155494 0.15286489 0.0155403735 -0.032098435 0.028548475 -0.022238832
-0.10053759 -0.059532907 0.14263538 -0.15367079 0.10146644 -0.00289445 0.017319424 -0.110032395
00000000: 5aa3 dfbd 7dbe b1bd f99a c33d 12fc f0bc
00000010: 1322 1b3c e22e 33bd c3fd c03b b836 c93c
00000020: a455 a6bd c5e4 cc3d 2db6 afbd 7bb9 afbc
00000030: 2ff8 583d c60d dfbd c6b1 c43d af8a d43d
00000040: 6881 45be 89af b5bc 9044 b7bd 800c 373e
00000050: db56 09be edad 26be 856a 9ebd 9d3f 7a3d
00000060: 154d b13c 37e5 ecbd fc8d eebc 2d76 89bd
00000070: a6f1 1f3e c5fc e0bd d99b e63c 85b7 663d
00000080: 0279 36be 1459 e33c 21a7 2abc 42c4 c23c
00000090: 11bc 74bd 9c41 0fbe 74bf 71bb 9e14 37bc
000000a0: 20e4 45bd 4a99 2e3e 3b53 84bd 7639 d9bd
000000b0: f479 bb3c 576a e5bd e12f e73d bab2 4e3e
000000c0: 56cc 113e 3319 bb3d 4598 55be b999 203d
000000d0: 8fad 23be 0ce6 2bbd 6554 cdbd 6a4c afbd
000000e0: 6611 8f3d 1661 9b3d 7e4b 423d 0c81 523d
000000f0: 852a 3d3e 9769 6e3d 8727 aebd 02bf a13d
00000100: 7bfe 1bbd 8da1 f6bb f7ea 463d cfb1 393c
00000110: 5cd8 8b3d b0af f2bc a2c4 71bd b247 883c
00000120: 7925 be3d 4781 21be 04f3 16be f5ff 003d
00000130: 35e4 763d 032c bb3c d7ec 25be b251 0cbe
00000140: 7d97 8cba 0e47 0f3d c86e 3fbe 1296 dd3d
00000150: 4e38 e5bd 1786 0a3d df6d e1bc e4c7 c4bd
00000160: e594 c13c 0b55 b13c b203 e13d 1bc4 203e
00000170: d37b 4e3e 73fe 0c3e 26de 19be 4eee 1f3e
00000180: 3910 523e 06d1 9bbd df0d fb3d ff0c 80be
00000190: ff90 05be 0d2c d43d f50d eb3d bbc6 8c3c
000001a0: 18bb c9bd 6be8 03bb 72c9 b13d c235 ea3c
000001b0: c963 ab3d 831b 25bd 3dd0 b03d 39ed 17bd
000001c0: 2c18 4e3d 83d7 203d b028 18be 9eec ce3d
000001d0: bf3b d43d 8cf6 03be 6068 bdbb 0881 d73d
000001e0: ceb7 a13d 9cdb 023e b0f2 aa3d affe 2fbd
000001f0: 5f98 273d 656f d5bd 1eff a4bc 821d 62bd
00000200: a928 8dbd a496 423e df43 d5bd 1d9d 253e
00000210: f7ac df3d 5f41 9a3d 1d30 073e 6cde e1bd
00000220: 282f c43d 6b32 d4bc be02 f3bd 8f05 74bc
00000230: b702 fe3c 0272 b8bd 4cd2 75bd 37e6 c13d
00000240: ae56 8fbd 122b e63d 3abf bdbd 2411 02be
00000250: e45b ca3d 0c4e d43d 3f8b 053e bf5d ff3d
00000260: 4317 2a3e 4730 873d 16eb 1f3c 2a13 013d
00000270: 660a 9c3d bcb3 923d 0b0a 88bd 1d9e 753d
00000280: f028 abbd 523e e8bd 4341 ed3c 3f9c 003e
00000290: 67a9 263c 336b 083e a6b1 b7bd 4cb8 23be
000002a0: 57b6 c4bc 5aa3 c9bd 04b4 0b3e 9f0d 33be
000002b0: 4e84 ff3d 57dd 1c3e 1aa6 bf3d 4489 d03d
000002c0: 19b9 073b ce4f 40bc 8b50 153e f60b afbd
000002d0: 3287 fcbc b3b8 913d 18c5 debd c1e5 2c3d
000002e0: bc64 1b3e e6e3 3b3d be77 cdbd 566f a2bc
000002f0: a9a2 37be e422 893d d701 123e 8cfb d13d
00000300: ba30 d03b cc7b aa3d 0b98 ea3d 5ee7 473e
00000310: ab31 88bb 0c5a f63d 0005 bbbd 0780 613d
00000320: de46 0bbe 3f40 ccbd fff1 fabd abe5 62bd
00000330: 397a a8bc 090c acbd 1235 4ebe 89d1 a53d
00000340: 1833 91bc 12d7 413d eef5 253e 8bf1 fe3d
00000350: 1f6d 2dbe 3723 8bbd 9ab0 67bd 90d3 0c3d
00000360: e126 703c 16ec ea3b 98b1 cf3c 422e 4e3e
00000370: e145 613d f921 cf3d 458f 3cbe 4e47 dd3b
00000380: 8ec6 783d bf14 9b3d 1b9a fbbd c91f 2cbd
00000390: c59b b93d 6609 493d a0cd 49be 3865 17be
000003a0: ac03 4dbd a2c3 3abd 3d36 08be b149 dbbd
000003b0: 210c 543e d95c 3ebd 6c1f 633d ef51 e93d
000003c0: b657 0a3c 4531 07bc c7f3 103e 9d88 1c3e
000003d0: 0d9d 7e3c a679 03bd 7ede e93c 362e b6bc
000003e0: a7e6 cdbd c7d8 73bd 020f 123e e05b 1dbe
000003f0: a3cd cf3d d0b0 3dbb 77e1 8d3c aa58 e1bd

classifier.2.bias f4 [10]
-0.019644093 -0.011040274 -0.02660511 0.025195025 -0.038561065 0.061641943 0.055748627 -0.029465102
-0.06711071 0.05684929
00000000: a6ec a0bc 44e2 34bc f6f2 d9bc cc65 ce3c
00000010: 35f2 1dbd 437c 7c3d ac58 643d cc60 f1bc
00000020: 5771 89bd cdda 683d
