checkpoints/noise_rate_0.2/models/tsf/epoch44.pth (torch, 250639 bytes, 10 tensors)

feature_extractor.0.weight f4 [6, 1, 5, 5]
000000 b6 ed 0a 3e 2e 0d 7e bd 15 be e1 bc ef e2 b0 3d
       0.13567242 -0.062024288 -0.027556458 0.08637034
000010 b8 40 53 be 22 cf 2e 3e 19 1d 48 3c 07 24 1b 3e
       -0.20630157 0.17071202 0.012213969 0.15150462
000020 35 d3 76 3d d8 53 1c bc 89 72 c3 3d 2d f2 87 3d
       0.060260016 -0.009541474 0.0954333 0.06637988
000030 52 b9 0f 3e 2a ce 8a bc a9 76 08 3d 30 46 8f bc
       0.14035538 -0.01694401 0.03331629 -0.017489523
000040 0e eb 42 3d 09 2d 25 3d 02 3c 6a 3e 10 a4 f5 3d
       0.047587447 0.040326152 0.22874454 0.11994183
000050 07 46 d0 bd e7 e5 0b be ef db fe bc 0f db 82 bd
       -0.10169607 -0.1366192 -0.031110732 -0.06389438
000060 87 c8 db bc ab 1f b8 3d a5 81 62 3e ba e8 2f 3e
       -0.026829017 0.08990415 0.22119768 0.17178622
000070 06 d9 50 be c6 0e 98 3d ba 99 1e 3e c3 e6 9e 3e
       -0.20395288 0.07424693 0.1548833 0.31035432
000080 44 c6 43 3e 54 ec 55 be 98 6e 79 be 8b cb 4a 3c
       0.19118601 -0.20890933 -0.24358594 0.01237763
000090 2b 2b 9a 3e c4 de 18 3d 8a 4b b0 3d cd ea df bd
       0.3011106 0.03732182 0.08608158 -0.109334566
0000a0 a9 ee 91 3e 72 31 be 3c d9 21 74 3e 48 d7 5d 3d
       0.28502396 0.023216937 0.23841037 0.054160386
0000b0 be b4 89 bd 50 10 23 3e 9e 77 de bc 44 b1 1a 3e
       -0.06723927 0.15924191 -0.027156647 0.15106684
0000c0 66 37 ee 3c f2 a3 79 3d 4f 40 6c be 5f 1b 08 be
       0.02907915 0.060947366 -0.23071407 -0.13291691
0000d0 f4 c5 ab 3d 82 f9 18 bd 01 97 73 3e a4 97 1e 3e
       0.08387366 -0.037347324 0.23788072 0.15487534
0000e0 27 63 5e ba 1e a3 c3 bd 48 aa 41 3e 25 f7 04 3e
       -0.0008483403 -0.095525965 0.18912613 0.12984903
0000f0 8e 7f b6 bd 08 4b 3f 3e b5 94 4c 3e 7e fd 83 3e
       -0.08911048 0.18680966 0.19978602 0.25779337
000100 6d b1 75 bd 66 b9 e9 3c 31 7c 81 3d 97 6d c1 3d
       -0.05998366 0.028530788 0.06322516 0.09444731
000110 84 7f d9 bd 8d b6 fc bd fb b5 26 3e 67 01 9f 3b
       -0.10620025 -0.12339506 0.16280358 0.004852462
000120 d0 d5 0f 3e ff d9 0e 3d 8d 3a 94 3d 85 6d 0b 3d
       0.14046407 0.034875866 0.0723773 0.034039993
000130 ec fa 9a 3d 43 e4 dc 3d 50 ff 31 be b7 1d ee 3d
       0.07567391 0.10785725 -0.1738255 0.116267614
000140 c7 85 17 be d6 1b 17 be 29 54 f6 3c 6a 74 5f ba
       -0.14797126 -0.14756712 0.030069428 -0.0008524122
000150 8d ff 29 3e 26 22 f2 bd dd bd 2a be f5 0a 39 3e
       0.16601391 -0.118229195 -0.1667399 0.18070586
000160 5c 09 cf 3c c1 4f 33 3e cb 27 86 3d 06 4c 06 be
       0.025273018 0.17510892 0.06550559 -0.13114938
000170 27 d4 a7 3d 43 68 cd 3d cb a3 b6 bd 09 3a bc bd
       0.08194762 0.10029652 -0.0891796 -0.09190757
000180 90 34 b5 3d c8 98 8c 3d 60 97 5b bd 39 74 28 bd
       0.08847916 0.06865078 -0.05361116 -0.041126464
000190 d2 43 7b 3e 00 18 b9 3d 92 93 7b 3e fb 6f 2e 3e
       0.2453759 0.09037781 0.24568012 0.17034905
0001a0 b5 9a eb bd be 89 78 bd 61 48 cd 3e 46 76 62 3e
       -0.115041174 -0.060678236 0.40094283 0.2211543
0001b0 d9 a0 88 3e d0 c9 c8 3d 48 2f 81 3e fd 95 d9 3e
       0.26685217 0.09804118 0.25231385 0.42497244
0001c0 7f 32 da 3e c9 a2 06 bb cf 0c c5 3d 7f de ae 3e
       0.4261665 -0.0020543805 0.09621584 0.34154126
0001d0 b0 8a c0 3e 1f c5 9c 3e 61 1e 20 bd 3d 8f 8a bd
       0.3760581 0.3061914 -0.03909147 -0.06765602
0001e0 3d e8 04 bb 18 0b 16 3e 84 53 99 3e 8e 0a 27 bd
       -0.0020280026 0.1465267 0.2994653 -0.04078155
0001f0 2e fc 45 3e 71 d7 e5 bd 26 be 26 be 39 66 ff 3c
       0.1933448 -0.11222733 -0.16283473 0.031176673
000200 26 40 73 3e 40 b4 99 3e 58 25 ac bd 9c 84 0f 3e
       0.2375494 0.30020332 -0.0840556 0.1401543
000210 a7 34 af 3e 1d ab ae 3e 84 73 92 3e c8 12 66 3e
       0.34219858 0.34114924 0.28603756 0.22468102
000220 c8 11 86 3e 85 97 78 3e c2 bf 8e 3d 10 ae 8b bc
       0.2618544 0.2427655 0.06970169 -0.017050773
000230 8c 4b d9 bc 74 65 97 3d d7 cb 84 3c e2 02 71 3e
       -0.026525281 0.073923975 0.01621048 0.23536256
000240 31 93 47 3e 49 f0 b1 bc a6 40 ed 3d 9b 79 0d 3e
       0.19489743 -0.021721022 0.11584596 0.1381592
000250 fc ac 61 3e 2a 5e 68 3e
       0.22038645 0.2269217

feature_extractor.0.bias f4 [6]
000000 bf 72 34 bd 9f fe 73 3e 06 9d 9d 3b 2a f2 fb 3b
       -0.044054743 0.23827599 0.0048099784 0.0076887803
000010 2e 5d a7 bd 1a 73 c4 bc
       -0.081720695 -0.023980666

feature_extractor.3.weight f4 [16, 6, 5, 5]
000000 5f ea 2a bd 86 9d 02 bd e9 05 71 3d c5 a0 d0 bc
       -0.04172742 -0.031888507 0.058843527 -0.025467286
000010 cf c1 70 bd 3a 59 2a 3d 9b 91 24 3d d7 72 88 3d
       -0.05877858 0.041589 0.040177923 0.06662529
000020 3a f0 06 bd da 3c c0 3c 62 2e dd bc 6c b3 25 bc
       -0.03294394 0.023466516 -0.026999656 -0.010113578
000030 ee fe 81 bd 51 a5 26 bd b0 03 f6 bc 88 20 18 3d
       -0.06347452 -0.040685 -0.030031055 0.0371404
000040 2a 98 b1 3c 7a d5 a5 3c 69 e4 98 3d 58 40 97 3d
       0.021679003 0.020243395 0.07465441 0.073853195
000050 07 74 60 3d 9e eb d8 3b d3 48 66 bd e6 ea 75 3d
       0.054798152 0.0066198846 -0.056221794 0.06003847
000060 46 37 a6 bc 01 d2 61 bc 04 32 67 bd 19 84 40 3c
       -0.020290028 -0.013782979 -0.056444183 0.011750245
000070 22 d3 23 bd 57 43 88 3d 40 74 a1 bd aa e4 19 bd
       -0.039996274 0.06653469 -0.07883501 -0.037571587
000080 96 51 08 3d 27 10 29 bd 79 8e 81 3c 78 76 06 bd
       0.03328093 -0.04127517 0.015815007 -0.032827824
000090 12 4f 21 bc f6 ff 05 3d be 9b 50 3d 13 3f 9d bd
       -0.009845512 0.032714806 0.050929777 -0.07678046
0000a0 c8 65 1f 3d ef bc a5 3d a2 13 cb 3d ee 55 8f bd
       0.038915426 0.08092677 0.09915854 -0.06998812
0000b0 9e ca b7 39 d7 53 8e bd bb a4 b4 3d 98 ec 2f bc
       0.00035055442 -0.06949585 0.08820482 -0.010737561
0000c0 b8 9c 18 3d 70 50 a2 bb 35 c1 2a bc 73 9b b5 3b
       0.037258834 -0.0049534366 -0.010422041 0.0055422126
0000d0 fe 96 91 3c 35 5c 07 3d 0b 01 f6 3b 60 61 12 3d
       0.017772194 0.03304692 0.0075074486 0.035737395
0000e0 4d 71 61 bd ac 03 7e 3d d8 1d 85 3d 96 79 8d 3d
       -0.055039693 0.06201522 0.06499833 0.06907956
0000f0 e3 70 99 3d 7c 7f 43 bd e2 8a 22 bd 56 5f 67 3d
       0.074922346 -0.047729 -0.03968323 0.056487404
000100 87 36 8a bd d1 e6 a4 3d e8 20 89 bd 8b 1d 8d bd
       -0.067486815 0.08051837 -0.066957295 -0.068904005
000110 d0 9a b7 3c a4 fa 84 bd b4 ab 7d bc a0 9c 82 3d
       0.022412688 -0.064931184 -0.015482832 0.0637753
000120 ec 2d 5e 3d 83 67 8f 3d 6d 30 95 bc cd a4 83 bd
       0.054243013 0.07002165 -0.018211568 -0.06427918
000130 c2 e4 a7 3d 8e 5d 92 bc ed ad 1d bd 2f 78 a1 3c
       0.08197929 -0.017866876 -0.038495947 0.019710628
000140 4a a4 4e bd 11 76 69 3d 18 d7 3d 3d 69 11 90 bd
       -0.050449647 0.056997363 0.046347708 -0.07034571
000150 89 4b 87 bd f8 d0 bb 3a 22 59 0a 3d a2 e9 ce bb
       -0.06606204 0.0014329245 0.03377641 -0.0063144723
000160 33 f6 35 bd 77 b4 42 3b 53 1b 92 bd c7 13 66 bd
       -0.044424247 0.0029709616 -0.07134118 -0.056171205
000170 ed 30 78 bd ed 15 88 3d 00 93 97 3d be 7c bc bc
       -0.060593534 0.06644807 0.07401085 -0.0230087
000180 96 19 be 3b e5 de 06 3d ca 3c 49 3c 2e 52 1a bd
       0.00580139 0.032927413 0.01228256 -0.03767603
000190 58 85 2d 3d a2 ca 9c 3d 29 01 0b 3d 97 c7 bc bb
       0.042363495 0.07655837 0.033936653 -0.0057610977
0001a0 ef 59 83 3d fe 25 b6 3d 3b 1f 4f 3c 56 73 01 3e
       0.06413638 0.08893965 0.012641723 0.12641653
0001b0 db d5 96 3c a8 78 86 bd 55 0d 8a 3d ec 26 89 bc
       0.018412521 -0.06565982 0.06740824 -0.016742192
0001c0 af ae c1 3d 4d 7d a9 bd d7 87 19 bc 10 07 e6 3c
       0.094571464 -0.08275852 -0.009370766 0.02807954
0001d0 56 83 4d 3d 18 ae 84 3d 4e 05 9c bd 6f 98 85 bd
       0.05017408 0.06478518 -0.07618199 -0.06523215
0001e0 a3 c5 a8 bd de 21 85 3c ff d5 cc bc bb 63 9a bc
       -0.08240821 0.0162515 -0.025004385 -0.018846383
0001f0 a9 c4 dc bc 3c d5 36 3d 44 a7 cc 3d 0f 9c d1 3c
       -0.026949244 0.04463695 0.09992841 0.02558711
000200 29 23 1e bd 0a 8c 36 bd e0 e9 18 bd 82 c5 d5 3d
       -0.03860775 -0.044567145 -0.037332416 0.10438062
000210 2c a1 51 bc 06 bc cd 3b 0d a2 17 3c 09 26 97 bc
       -0.012794774 0.0062785177 0.0092549445 -0.018450754
000220 ca a2 8e 3d 88 9a d0 3c 20 b1 c8 bc 96 0c 59 bd
       0.06964643 0.025464311 -0.024498522 -0.05299052
000230 fd 54 2e bc 20 10 58 3b 57 76 9c bd 2b e1 9e bd
       -0.01064038 0.0032968596 -0.07639759 -0.07757791
000240 af b3 b7 bc 02 1f ec bb 5f 70 00 3d bc 3e 2a bd
       -0.022424547 -0.007205845 0.031357165 -0.041563734
000250 ea cb de bc 5d 13 0a bd cc 3a 9b bd 5a 17 a0 3d
       -0.027196843 -0.033709873 -0.07579574 0.07816954
000260 f2 c3 c1 3c 42 75 a3 3d 26 23 e0 bb 45 ff 5b bc
       0.023653004 0.079813495 -0.0068401275 -0.01342756
000270 c5 a8 72 bd 9e 0b 15 bc 01 61 88 3d cb bc 9d bd
       -0.059242982 -0.009097008 0.06659127 -0.07702025
000280 6e a8 c5 bc 6c ca 76 3d b4 e1 75 3d 8d 0f 3b 3d
       -0.024128165 0.06025164 0.0600297 0.045669127
000290 f1 c0 c2 bb ff f4 75 bc 37 51 f5 bc 16 80 0e bd
       -0.0059434106 -0.015012025 -0.029945953 -0.03479012
0002a0 d1 1a 42 3d db ed 9f bb 70 50 15 bd ec 9c c1 3c
       0.047388855 -0.0048806495 -0.036453664 0.023634396
0002b0 1d 0d 45 bd d6 fc c3 3a dd 9a 85 3d 7b 76 b8 3c
       -0.04810821 0.001495267 0.065236785 0.022517433
0002c0 84 94 a4 3d 06 16 10 bd 7b 33 a4 3c 60 c6 9f bc
       0.080361396 -0.035177253 0.020044079 -0.019503772
0002d0 08 e3 06 bd 87 d8 be bc 0f 23 83 3d 7a f1 3b 3d
       -0.032931358 -0.023296608 0.06403171 0.045884587
0002e0 5d bc 06 bd d2 c9 3a bd ba ec 88 bd 9c 8e cf 3d
       -0.03289448 -0.045602627 -0.06685777 0.101346225
0002f0 9e 05 60 3c f2 b1 3f 3c 08 2b f3 bc 8c af 67 bd
       0.013673214 0.01170014 -0.029683605 -0.0565639
000300 78 c6 90 bd 99 50 8e bc 38 da c0 3d 1a c5 46 3c
       -0.07069105 -0.017372416 0.09416622 0.012131954
000310 e1 3e f0 bc d6 15 48 bb 8a be a4 3d 11 ee af 3d
       -0.029326858 -0.0030530593 0.08044155 0.085903294
000320 7f af ad 3d 0e 01 0f 3d 3d d0 56 3d 1c e9 3e ba
       0.08480739 0.034913115 0.052444685 -0.0007282661
000330 99 06 70 bd 24 40 7e bd 27 25 8d 3d f1 25 83 39
       -0.058600042 -0.062072888 0.06891852 0.00025014536
000340 f4 ba e1 3c bc 8c 8b bb e8 af 80 bd 38 07 08 bd
       0.027554967 -0.00425872 -0.062835515 -0.03321001
000350 ed d5 b3 3c 3d 05 73 bc dc ce 90 bd f2 6e 6e 3c
       0.021952594 -0.014832792 -0.07070705 0.014552819
000360 ca 7b 6e 3b b1 45 a3 39 cb f1 82 3d 14 7c 32 3d
       0.0036389702 0.00031141707 0.063937746 0.04357536
000370 2e 0a c7 bc 46 1e ea 3d be 9f ba 3d 81 95 2c 3d
       -0.024296846 0.114315554 0.091125 0.042134766
000380 6a 9f 87 bb 67 c7 85 bd 79 ea 8d 3d 28 40 90 bc
       -0.0041388767 -0.065321736 0.06929488 -0.017608717
000390 f5 c6 68 bd a2 08 4a 3d 79 d7 1e 3d 4c 12 00 3d
       -0.056830365 0.04932464 0.03877971 0.03126745
0003a0 96 02 6d bc 40 d2 fa bc 8b ed 3b 3c 9d 41 87 3d
       -0.014465949 -0.030617833 0.011470209 0.066043116
0003b0 75 0b 95 3c 53 fb fc bc 1e 8e af 3d 73 b9 9a 3b
       0.01819394 -0.03088156 0.085720286 0.0047218143
0003c0 f7 d1 7a 3d 03 09 0b 3d 61 e4 c7 3d ee e9 85 3d
       0.061235394 0.03394414 0.09760357 0.06538759
0003d0 73 ef 13 bd a2 b1 87 3d ab d1 80 3c e0 23 66 bd
       -0.03611703 0.06625678 0.015724977 -0.056186557
0003e0 38 ee 94 bc 6b 61 9b bd e9 cb 48 bd ad 7f 3b bd
       -0.018179998 -0.075869404 -0.04902259 -0.045776058
0003f0 88 c1 ab 3d e9 df be 3a 4c fc d7 bc 02 36 95 3d
       0.083865225 0.001456258 -0.026365422 0.07285692

feature_extractor.3.bias f4 [16]
000000 9c 49 a6 bc 52 35 40 bd d0 9d d3 3b 88 20 19 3d
       -0.020298772 -0.04692585 0.0064580217 0.03738454
000010 d5 49 67 3d 3e e4 c2 bc ab 87 88 3b 2f 55 24 bd
       0.056466896 -0.023790475 0.0041665635 -0.0401203
000020 f7 df 83 bd f1 34 4e bd 24 3b 48 bd 4d 88 4d bd
       -0.06439202 -0.050343458 -0.048884526 -0.050178815
000030 74 86 cf 3c 5e b8 98 bc 5b 96 89 3d 19 a0 9d 3d
       0.025332667 -0.0186426 0.06718131 0.07696552

feature_extractor.7.weight f4 [120, 400]
000000 d1 af 2d bd 0e 87 43 3c de d0 f5 3c ae 1c 39 bd
       -0.042404 0.011934055 0.030006822 -0.045193367
000010 22 ea 86 bc 89 9e 0b 3d 1d 40 15 bd 1f 97 3a 3d
       -0.016469065 0.034086738 -0.036438096 0.045554277
000020 bc 47 8a bb 48 62 33 3c 25 1e 44 3d bb a6 19 bd
       -0.004219977 0.010948725 0.04788031 -0.037512522
000030 6c 5c 31 3d 26 f0 40 bd 8e f6 13 3d cc 07 db b5
       0.04330103 -0.047104023 0.036123805 -1.6319041e-06
000040 b9 d5 36 3d 3a 26 21 bb 06 3c 43 bd d5 5f 93 3c
       0.044637416 -0.0024589435 -0.047664665 0.017990032
000050 f7 21 fe 3c 8b 95 1b bc 6d 27 52 bd 80 68 c9 ba
       0.031022055 -0.009496103 -0.05130713 -0.0015366226
000060 3f df 22 3c 55 0f 3b 3c 2a 52 a8 3c 1c b2 4a bc
       0.009940921 0.01141723 0.020546991 -0.012371566
000070 0f 2c e5 ba 71 1d 0d bb 57 c3 b8 3c 6b 8e 96 3c
       -0.0017484444 -0.002153244 0.022554083 0.018378457
000080 71 d1 a8 3c 79 5e 4a 3b b5 3a 33 3c e7 08 1c 3d
       0.020607682 0.0030879064 0.01093929 0.038094427
000090 4b 74 41 3c f9 69 36 bd e9 4e 6c 3c 4c df 72 3d
       0.011807512 -0.044534657 0.0144231105 0.059294984
0000a0 1a d1 1b bc 58 f5 0a 3d 2a 46 21 bd d8 8d 68 bb
       -0.009510303 0.033925384 -0.039373554 -0.0035484936
0000b0 74 53 09 3d 07 2b 00 bd 56 41 f0 bb 24 90 c0 3a
       0.033526853 -0.031291034 -0.0073320074 0.0014691395
0000c0 67 88 52 bc 61 f8 c9 bc 61 90 07 3d d5 a6 40 bc
       -0.012849904 -0.02465457 0.033096675 -0.011758526
0000d0 a5 59 92 bc 81 1c ff 3c a6 5a 1f 3c 26 25 a6 bc
       -0.017865011 0.031141521 0.009726202 -0.020281386
0000e0 05 57 02 3d 80 f1 e6 bc 8e 11 50 3d 43 c2 27 3d
       0.03182127 -0.028191328 0.05079799 0.040956747
0000f0 f0 4f aa 3b 1b 07 88 3c c0 0b 94 bc 6f 8f 08 bd
       0.0051975176 0.01660495 -0.01807201 -0.033339914
000100 8c 40 d2 bc 1d ca 8e 3c c2 a3 bb 3c d9 b5 9c bb
       -0.025665544 0.01743036 0.022905234 -0.00478242
000110 fa f0 64 bc 2b 32 89 bc f5 d0 b3 bc 9c 11 9f bc
       -0.013973469 -0.016747555 -0.021950224 -0.019417576
000120 85 5a 05 3d 00 f4 45 bd 0c 0c ef 3c 9d b1 ff 3c
       0.03255703 -0.0483284 0.02918055 0.031212622
000130 a3 53 77 bc d5 c1 12 bc c0 0f 4a bc 76 89 27 bd
       -0.015095624 -0.008957346 -0.012332857 -0.040902577
000140 a9 75 01 3c 7d 50 db bc 2c 46 9e 3c 8d 56 5b bb
       0.0079015875 -0.026771778 0.01932057 -0.0033468336
000150 27 a5 ed bc 8c 7e 58 bd e8 66 10 3d d7 16 36 3d
       -0.029009415 -0.05285506 0.03525439 0.044455376
000160 e5 33 2d 3d 66 5b 87 3c 43 6e 9f 3c 4c c8 d4 3c
       0.04228582 0.016523074 0.019461757 0.025974415
000170 04 34 1d 3d 3d 87 8e 39 79 24 ca 3a ef e6 ac 3c
       0.038379684 0.0002718511 0.0015422247 0.021106211
000180 49 0b 02 3d 1d c2 3d bc 3d 27 d0 3c 6e 30 29 3d
       0.031749044 -0.011581925 0.025409335 0.04130595
000190 4c ca ca bc d1 41 3c bd 15 f0 84 bb f8 79 f6 bc
       -0.024754666 -0.045961205 -0.0040569403 -0.030087456
0001a0 c0 ae 4a 3d e9 b9 4f bc 66 25 ac bc 77 24 ee 3c
       0.04948306 -0.012678602 -0.021013927 0.029070122
0001b0 a0 3e 81 3c 8e 09 8f 3c a1 f3 49 3d d7 19 35 bd
       0.015776932 0.01746061 0.04930461 -0.044214096
0001c0 f2 a7 df 3c 7f a0 c0 bc d6 da b2 3c 77 d3 c0 bc
       0.027301762 -0.02351403 0.021832865 -0.023538334
0001d0 bd a9 48 3d 10 c9 52 bc 82 f0 fd 3b 1a 12 03 bd
       0.04899 -0.01286532 0.007749618 -0.031999685
0001e0 6d 2e c0 3c da 45 44 bd 03 98 b0 3c 46 59 4e 3d
       0.023459638 -0.04791818 0.02155686 0.050378107
0001f0 38 9a 33 3d f5 7d c2 3c 46 17 bf bc 8a 4d a3 3b
       0.043848246 0.023741702 -0.023326527 0.0049836086
000200 da 87 35 3c f5 0d 54 bd 42 8f b8 3c 12 cc 2e bd
       0.011079753 -0.051771123 0.022529248 -0.042675085
000210 54 0f b0 3c 20 bb 42 3d 2b 3c 89 bc 7d 0f 3f 3c
       0.021491684 0.047541738 -0.016752323 0.011661408
000220 61 c8 53 3d ee 8f 45 3d 3a eb 4b 3d 6b ee dc bc
       0.051704768 0.048232965 0.049784876 -0.026969155
000230 c4 23 00 3c b7 df 3d bd 52 67 91 3b ce 5a 59 bd
       0.007821027 -0.04635593 0.0044373656 -0.053065114
000240 e9 1b e0 3b e8 d5 a6 3c 3f b1 39 bd 5d ae 3c bb
       0.0068392646 0.02036567 -0.04533505 -0.0028790452
000250 ed 95 ad bc 7b 51 2e 3d 5a be 4f bc ac d4 af 3c
       -0.021189654 0.042558175 -0.012679661 0.021463715
000260 ba 3c 14 bd 71 0c 87 3b 5c 1b 05 3d be 8d 01 3b
       -0.036190726 0.004121356 0.032496795 0.0019768323
000270 77 1f 9f bc 11 4e c8 bc b3 49 d3 3c f4 fe 8b 3c
       -0.019424183 -0.024451287 0.025791978 0.017089345
000280 e2 a3 df 3b 13 e2 1c 3d dd 7f 66 bc 34 60 da bc
       0.0068249563 0.03830154 -0.014068571 -0.026657201
000290 31 28 d4 3b 20 e9 f6 3c 94 22 6a bd 9c 9c 01 bd
       0.0064745178 0.03014046 -0.057161883 -0.031643495
0002a0 9a b7 36 3c 93 1b 0a 3d 2f 3e ea 3c e7 fd 58 3c
       0.011152172 0.033717703 0.028594105 0.013244129
0002b0 c5 65 46 bd ad be c8 bc d3 1a d7 3c 4b be 16 3c
       -0.0484369 -0.024504984 0.026257908 0.009200643
0002c0 7a 06 d8 3c d5 6a 19 3d 31 09 e6 3c df 4c a9 bc
       0.026370276 0.0374554 0.028080555 -0.020666538
0002d0 e6 8b d5 bc 46 92 1e bc 6f 1a aa ba 84 3b 89 bb
       -0.026067685 -0.009678429 -0.0012977849 -0.004188003
0002e0 8e 82 28 bc 51 4e e2 3b 8b 0a 05 3d 8b 13 00 bd
       -0.010285033 0.0069063087 0.032480758 -0.031268638
0002f0 18 3d cd 3c 50 b8 46 bd df b0 38 3b 25 ba 38 bd
       0.025053546 -0.048515618 0.0028181595 -0.045099396
000300 43 69 44 3d 95 35 2c bd 7b c2 d7 bc f8 77 e1 3c
       0.047951948 -0.042043287 -0.026337853 0.027523026
000310 5b d9 b2 3c 99 e3 1a 3d 31 f3 65 3c c7 9b 29 bd
       0.021832159 0.03781471 0.014035032 -0.041408326
000320 5a 5b 0f bd 57 fd 0b 3d 40 26 47 bd ac 13 38 3d
       -0.03499923 0.03417715 -0.048620462 0.044940636
000330 cc a0 0a bc ac 4e 15 3c 24 5a 0c bb 3f c9 4d bc
       -0.0084611885 0.009112995 -0.0021416033 -0.012560188
000340 69 d8 48 bc 48 9d 71 3c 12 99 0f bc 84 b0 09 3c
       -0.012258627 0.014746971 -0.008764522 0.008403901
000350 78 49 2b 3d 2d 4f 93 3b 9f 51 20 bd 87 6b 1a bd
       0.041818112 0.0044955225 -0.03914034 -0.037700202
000360 f6 b2 02 3d 43 eb 8e 3c ee ad 1c 3c 20 df cb bc
       0.03190895 0.017446166 0.009562952 -0.024886668
000370 1b fb 26 bd 22 f0 30 3d da ef 3f bd 66 17 cb bc
       -0.040766817 0.04319776 -0.0468596 -0.02479143
000380 8a e8 a3 3c 75 4a 34 3d ac 02 3e bc 5a 6b 30 bd
       0.020008344 0.04401632 -0.011597317 -0.04307113
000390 6b 0e 6d 3c 71 e3 80 3b 70 ad fe bb 55 4d 30 bd
       0.01446877 0.003933363 -0.00777214 -0.0430425
0003a0 e3 e1 22 3d df 00 d2 3b 8f 0f b0 3c fb c4 cc 3c
       0.039766204 0.0064087952 0.021491794 0.024996271
0003b0 6e 47 26 3d 02 c4 98 bc 73 12 0a 3b e3 18 09 bd
       0.040595464 -0.018648151 0.0021068125 -0.033471
0003c0 77 e9 38 bd 04 42 9e bc 15 eb 92 3c 6a c8 e6 bc
       -0.045144524 -0.019318588 0.017934361 -0.028171737
0003d0 e8 12 09 3d ac 27 3c 3c a6 72 95 bc 48 cb ba 3c
       0.033465296 0.011484068 -0.018243145 0.02280201
0003e0 ca a1 12 3d d0 e8 a9 bc 61 bf d5 3c dc 6f 14 3d
       0.035798825 -0.020740896 0.026092233 0.03623949
0003f0 24 b5 42 3d 9b 8d fd bc 88 9e 40 3d ce aa cc 3b
       0.04753603 -0.030951312 0.047026187 0.0062459474

feature_extractor.7.bias f4 [120]
000000 10 2b aa 3c 36 cf 15 3d da 43 9f 3c 34 ac 00 3d
       0.020772487 0.036574565 0.019441534 0.031414226
000010 e0 84 2c 3d ce a2 07 bd db f6 11 3d bf 93 6a 3a
       0.042118907 -0.033114247 0.03563581 0.00089484075
000020 e4 69 05 bd ef 5d 82 3b 24 42 b8 3c da 33 e8 bc
       -0.03257169 0.003978483 0.022492476 -0.028345037
000030 ff 97 21 bd 7c 41 4a bd 97 e2 da bc 46 7a 28 bd
       -0.039451595 -0.049378857 -0.026719375 -0.041132234
000040 f6 f4 f4 3c e6 34 b3 bc 8f f0 33 bd 77 f3 f6 bc
       0.029901963 -0.02187581 -0.043930586 -0.03014539
000050 82 f8 3e bc a5 df f7 3c 3a 7a 13 3d 6e cd 7f 3c
       -0.011655929 0.03025801 0.036005236 0.015612943
000060 10 47 27 3d c6 26 22 bd 2b a6 ae bc 53 d1 0c 3d
       0.040839255 -0.03958776 -0.02131947 0.034379315
000070 65 9b 91 bc a2 0e 74 3c a0 b5 4a bc 23 68 da 3c
       -0.017774293 0.014896067 -0.012372404 0.026660984
000080 3b 65 4a bd 5a 84 aa 3c 87 9e e9 bc 46 e7 f3 bc
       -0.049412947 0.020815063 -0.028517975 -0.029773366
000090 dc ea 1c 3d 46 9c c6 bc c0 fb e3 3b a1 4b 89 3a
       0.038309917 -0.024244439 0.006957501 0.001047481
0000a0 48 95 10 bd 5e 99 e4 3c ab 8c 0d bd b2 6e 92 bc
       -0.035298616 0.027905162 -0.03455798 -0.01787505
0000b0 be 77 42 bd d2 18 42 bc de 9e 6e 3c bd 5b 5b 3c
       -0.047477476 -0.011846738 0.014564244 0.013388571
0000c0 fe dc c2 3c 59 8d 89 bc 40 e0 95 3c 84 c2 48 bc
       0.023787018 -0.016791033 0.018295407 -0.012253407
0000d0 c7 d6 2c 3d 89 93 e6 bc 16 68 9b bb b9 fe 59 39
       0.042197015 -0.028146522 -0.0047426326 0.00020789624
0000e0 d8 e9 15 3d 8b 0d 82 bc 99 5e 1a bd 09 7e 6f 3c
       0.036599964 -0.015875598 -0.03768787 0.0146174515
0000f0 58 5b 35 3d 8a 10 14 bd bf c4 87 bc 21 1e 73 bc
       0.044276565 -0.036148585 -0.016573308 -0.014838726
000100 17 0b 0a 3d 93 86 e1 3b 37 01 32 bd ff ea 20 3d
       0.033701982 0.0068824976 -0.04345819 0.03928661
000110 1c 94 5b bc fb 76 40 bd d6 65 42 3d 52 a1 32 bc
       -0.013402011 -0.04698847 0.0474604 -0.01090272
000120 67 16 ae 3c 4e 62 de 3a 21 c4 11 3d 9d b9 b0 bc
       0.021250917 0.0016966553 0.035587434 -0.021572882
000130 32 72 86 bc 33 c4 cb bc d9 31 03 bd cf c2 01 bd
       -0.016411874 -0.024873829 -0.03202996 -0.031679925
000140 27 0e e8 3c 73 f6 07 bd 3d c4 c4 ba 69 0a d1 3b
       0.02832706 -0.033194017 -0.0015012097 0.006379415
000150 21 b2 4d 3d b5 53 91 bc f0 d8 90 bc 83 d7 b1 3c
       0.050218705 -0.01774011 -0.017681569 0.02170921
000160 4f c2 3f 3c 5b c7 a4 3c f2 05 2c 3d d9 82 24 bd
       0.011704042 0.020114591 0.041997857 -0.04016385
000170 3c 9a 6c 3c eb 14 39 bb 36 28 39 bd 30 61 ae bb
       0.014441069 -0.0028241228 -0.045204364 -0.0053216442
000180 46 85 6c 3c 61 d5 ec 3c 2c 13 17 3b ea 0b 06 bd
       0.014436072 0.02891034 0.0023052199 -0.032726206
000190 d6 d2 5f bc cc 88 24 3d 8b 58 be 3c ca 80 14 bd
       -0.013661107 0.040169522 0.02323558 -0.036255635
0001a0 43 07 53 3c 7a c0 24 bc 95 8b 08 3c 77 0e 03 3d
       0.012880149 -0.010055656 0.00833406 0.031996217
0001b0 17 83 c4 bc 15 b2 31 bb 57 3d 21 3d 0d 2b e5 bb
       -0.02398829 -0.0027114202 0.03936514 -0.0069936574
0001c0 d8 d9 48 3d 87 4a 93 ba 99 b4 e2 3b 95 07 0d bc
       0.049035877 -0.0011237421 0.0069185016 -0.008607765
0001d0 9d 4e b5 3c b4 64 6f bc 76 b6 53 3d 60 ed 32 3d
       0.022132212 -0.014611412 0.05168768 0.04368341

classifier.0.weight f4 [84, 120]
000000 82 14 ce 3b be 55 48 bd 24 e0 e1 3c 88 b6 0a bc
       0.006289066 -0.048909895 0.027572699 -0.00846637
000010 9b ec 9c bd 53 a4 a6 3c 63 f4 7f bd 9b d0 0e bd
       -0.076623164 0.020342028 -0.062488925 -0.03486691
000020 0e 80 85 bd 27 df 8c 3d 76 6e 2e 3d 4c 38 55 bd
       -0.06518565 0.068785004 0.042585813 -0.052055642
000030 20 b4 78 3d 56 9e 8b bd 07 0a 07 3c a4 13 8e bd
       0.060718656 -0.068173096 0.008242137 -0.0693734
000040 64 e3 53 3d 67 e8 3b bd 81 5f b7 bc c0 7b e3 3c
       0.05173053 -0.045875933 -0.022384407 0.02776897
000050 9a 31 b0 bd f7 3a 68 3d 06 f5 c5 3b 96 b1 6e bd
       -0.08603211 0.05669686 0.006041172 -0.058274828
000060 a3 5a b3 bb 62 0e 48 bd 9b 71 d1 3c 7f 4f 28 3d
       -0.005473451 -0.04884184 0.025566867 0.04109144
000070 03 7d 9a bd 8b 9b 85 3d 51 5b dd bc 3c f2 a2 3d
       -0.07543375 0.06523808 -0.027021082 0.07956359
000080 09 5e 83 ba 86 5a 05 3d 9e ae 22 bd eb f8 23 3c
       -0.0010022531 0.032557033 -0.03971731 0.010008077
000090 07 f5 1a bc 77 72 b0 bc 1b ee 3e bd c6 b7 39 3b
       -0.009457833 -0.021538956 -0.046613794 0.0028338297
0000a0 3c 1d aa bd a7 aa 57 bd 14 b3 08 bd 50 76 19 3b
       -0.08306357 -0.05265298 -0.033373907 0.0023416467
0000b0 59 be 6f bd 44 79 36 bd 66 4d 10 3c a7 1b 3b 3a
       -0.05853114 -0.04454924 0.008807516 0.00071376044
0000c0 c6 12 8e 3b 4b 91 40 bd e9 e3 93 3d bc f6 ba bc
       0.004335734 -0.047013562 0.07221205 -0.02282273
0000d0 9b a2 92 bd 83 f8 51 3d c0 d1 47 3c b3 57 73 bb
       -0.07159921 0.05126239 0.012196004 -0.003713113
0000e0 f5 9c a8 bd b9 06 61 bd 30 bc 57 3d 20 11 9f bc
       -0.08233062 -0.05493805 0.052669704 -0.019417346
0000f0 30 fa 7e bd 27 e8 74 3d b4 fe 97 bd 96 66 6e 3d
       -0.062250316 0.05979171 -0.07421628 0.058203302
000100 64 1b fd bc 36 3e 1d 3d ec a4 49 3c de b2 c4 3d
       -0.03089685 0.038389407 0.012307387 0.09604429
000110 f7 78 0f 3d 54 e1 c9 bb 80 f0 af 3d 02 7b 95 bd
       0.03502747 -0.0061608944 0.085907936 -0.072988525
000120 25 60 4c 3c 89 ba f4 3c 0f 87 7b bd fd 70 48 bd
       0.0124740945 0.029874103 -0.0614081 -0.04893588
000130 42 b1 2f bd 7a 1c 41 bd 1c 5b 2f bc 6e 4b 67 bd
       -0.042893656 -0.047146298 -0.0107028745 -0.05646842
000140 4c 53 a7 3d bd af 15 bb 61 b9 ba 3d 27 a7 ca 3c
       0.081701845 -0.0022840344 0.091173895 0.024737908
000150 ca 7c 46 bc c1 8a 02 3c ec 60 49 bd b9 e0 4a bd
       -0.012114713 0.007967652 -0.049164698 -0.04953072
000160 40 6f 14 3d 76 b9 3b bc 71 bd 15 3c 4f b6 f6 bb
       0.03623891 -0.011457792 0.009139405 -0.007529057
000170 ee 59 a2 3d 55 a0 b9 bd 98 8f 65 bd f2 ef 43 bd
       0.07927309 -0.09063784 -0.056045145 -0.04783625
000180 a9 b8 f4 bc 39 b0 93 3d 99 9c 7d 3d a8 a0 78 bd
       -0.02987321 0.07211346 0.06191692 -0.06070009
000190 7e 50 dd bc 94 3d b5 3d 5b a4 8f bd 1e db 1a 3c
       -0.02701592 0.08849636 -0.0701377 0.009451656
0001a0 78 40 19 3d 5d a0 2f 3d 76 8f 9a 3d 48 04 74 3d
       0.037414998 0.042877544 0.07546894 0.059574395
0001b0 84 03 a8 3c b0 2d b2 bd 26 ec 22 bd a7 65 81 bc
       0.020509489 -0.087001204 -0.03977599 -0.015795542
0001c0 6e 57 88 bd 38 48 37 bd 9f 9c 90 3c fa 35 11 bd
       -0.06657301 -0.044746608 0.017652808 -0.035451867
0001d0 b6 54 7e 3c 63 5f 09 3d db 05 60 3d 8c b5 8f bd
       0.015523126 0.033538233 0.054693084 -0.07017049
0001e0 9f bb a4 3d 02 16 15 3d 69 15 fc 3b 51 90 e0 bc
       0.080435984 0.03639794 0.007692982 -0.027412565
0001f0 90 1d e3 bc 4a fc 22 3b 24 25 44 bc cc 3c b0 bd
       -0.027724057 0.0024869614 -0.011971746 -0.08605346
000200 03 c1 66 3c 73 9a 76 bd f2 f7 a0 bd ea c2 5c 3d
       0.0140841035 -0.060205888 -0.07859792 0.053896822
000210 1b 8c 76 bc 05 61 c4 bc 21 7b 4c bc 38 10 21 bd
       -0.015048052 -0.023972044 -0.012480528 -0.039322108
000220 e3 c8 42 3d 9b 5b 4b bb 43 c1 28 bd 43 30 b1 3d
       0.04755486 -0.0031029943 -0.041199934 0.08651783
000230 e7 b1 87 3d 7a fd 8c 3d aa 06 ba bd 17 18 8d 3c
       0.06625729 0.06884284 -0.09083302 0.017223401
000240 89 b6 a5 3b e8 c5 a0 3d 2b 67 cc 3c 05 84 98 3c
       0.0050571603 0.078502476 0.024951538 0.01861764
000250 69 81 6e 3d 0e 0a 21 3d aa 0f a7 bd 55 4a b7 bd
       0.058228884 0.03931623 -0.081572846 -0.089497246
000260 7a 32 4c bd f5 6b ad bc c1 2e af 3c ef 67 67 3d
       -0.049852826 -0.021169642 0.021384599 0.056495603
000270 52 8c a6 bd 77 65 5d bc ed ea 92 bd f8 34 a1 3d
       -0.08132233 -0.013512961 -0.07173715 0.07871431
000280 5c 7e 61 3d dd 0e 57 3d c1 2d 1b bc 9d fa 6c bd
       0.055052146 0.05250441 -0.009471358 -0.05785619
000290 0e a8 3b bd 86 da 85 ba a8 df 29 39 a9 b8 c4 ba
       -0.045814566 -0.001021222 0.00016200414 -0.0015008646
0002a0 03 c7 a2 3d 29 a6 44 bd 09 b2 8b 3d 7a aa 25 3d
       0.07948115 -0.048010025 0.06821067 0.040445782
0002b0 5c 01 92 bd 62 bd 27 bd f8 9d 63 bd c0 69 12 bb
       -0.071291655 -0.040952094 -0.055570573 -0.0022340864
0002c0 bc 75 46 3d 16 47 55 3d 0b f9 9b bc b5 9b a0 3d
       0.048452124 0.052069746 -0.019039651 0.07842199
0002d0 9a 10 31 3d 2e 73 75 3c 61 79 97 bd 31 8f 9e bd
       0.043228723 0.014981074 -0.07396198 -0.07742155
0002e0 70 8e 67 3d 6b 92 47 3d 46 d5 33 bd 5d ab 8c bd
       0.056532323 0.04872362 -0.043904565 -0.068686225
0002f0 03 43 3d 3b f2 c2 aa bd f4 aa 7b 3d 31 ad 44 3d
       0.0028879053 -0.08337964 0.06144233 0.04801673
000300 ad ab ce 3c 45 3d 85 bd 81 fd 7a bc 4c 30 3c bd
       0.025228346 -0.06505827 -0.015319229 -0.045944497
000310 ec 9d 32 3d c2 0c b2 3d 94 8e 6a 3b a4 6e c0 bc
       0.043607637 0.086938396 0.003579055 -0.023490258
000320 44 c1 80 3d ac a9 ad bc 89 c8 32 bd 4e 02 9d bd
       0.062868625 -0.02119907 -0.043648276 -0.07666455
000330 86 be 41 3c 46 8b 93 3d 51 19 6a 3d 13 d9 05 3d
       0.0118252095 0.07204299 0.05715305 0.03267772
000340 00 c6 80 3d d7 52 95 bd 68 5c b3 3d 42 01 f1 bc
       0.062877655 -0.07291191 0.087578595 -0.029419545
000350 f4 8b b5 bd 73 46 27 3d 54 8d ae 3c fe 50 af bc
       -0.088645846 0.04083867 0.021307625 -0.021400925
000360 7c 3f b1 bd 4a 33 81 3a 91 c6 38 bd 4f c0 69 bd
       -0.08654687 0.0009857204 -0.045111243 -0.057068165
000370 a4 77 a7 3d f9 72 2e 3d 70 14 a3 bd 21 e3 20 bd
       0.081771165 0.042590115 -0.079628825 -0.039279107
000380 10 20 3c bd 76 81 a8 bd 4b 5f 93 bd c4 c9 b9 3d
       -0.045929015 -0.08227818 -0.0719591 0.09071687
000390 f1 35 83 3b fd 82 96 3d 21 02 7e 3c f3 4d b4 3d
       0.004004233 0.07349203 0.015503437 0.0880393
0003a0 25 6e 62 bd 4b bc bf 3c d1 7f 39 bd 34 da 04 3d
       -0.055280823 0.023405215 -0.04528791 0.032434657
0003b0 e5 4c 90 3d d9 a0 8c 3d 30 08 7c bd ae 43 6b bb
       0.070459165 0.06866617 -0.061531246 -0.0035898495
0003c0 49 00 58 3c 58 6c b0 3c bd 62 0d bd 95 73 c7 3c
       0.013183662 0.021536037 -0.034517992 0.024347106
0003d0 a1 d8 92 bd 05 d1 ec bc e7 5c c6 bc 21 71 cb bc
       -0.07170225 -0.028908262 -0.024214221 -0.024834218
0003e0 4a db 73 bd 49 40 84 3d a7 49 3f bc f7 98 31 3d
       -0.059535302 0.06457574 -0.011675275 0.04335877
0003f0 ea 93 1e bb be 5e a5 3b 40 fd aa 3d be 2d 8f 3d
       -0.002419705 0.0050466945 0.08349085 0.069911465

classifier.0.bias f4 [84]
000000 e4 8e 26 bc dc 6d b1 bd 6e 66 37 3d d8 62 a4 3d
       -0.010165904 -0.08663532 0.04477542 0.080266654
000010 a0 7b a4 3c 27 73 1f 3d 19 0f a0 3d 6e b5 5b 3d
       0.02007848 0.038928177 0.0781538 0.05363982
000020 19 7c 2c bd b2 87 4a 3d fc 48 9f bd d6 b2 b6 3d
       -0.042110536 0.049445815 -0.077775925 0.08920829
000030 75 46 74 3d a4 45 44 bd f1 fa c7 bc 97 21 6e bd
       0.059637506 -0.047917977 -0.02441165 -0.058137503
000040 ac 92 24 bd 9d e4 60 bd af 7b b1 bd 5c 84 76 bc
       -0.04017894 -0.054905523 -0.08666169 -0.015046205
000050 3c a2 1c 3d 80 52 65 3d 6e b5 f1 bc 2f 27 8d bd
       0.038240656 0.05598688 -0.029505458 -0.06892239
000060 1b 5d 58 3d 32 b5 d7 3a 3d 77 82 ba 6d 42 3d 3d
       0.052823167 0.0016457199 -0.0009953749 0.046205927
000070 7a f9 cd bc b6 69 2b 3d 6c 3b fa 3c 9f 86 56 bc
       -0.025143374 0.04184886 0.030545913 -0.01309362
000080 2e 72 a6 ba 1b 90 cc bc fc 1f 25 bd f5 dd 8b bb
       -0.0012698823 -0.024971059 -0.040313706 -0.0042684027
000090 d3 fa 9b bd 33 0c 91 bd d3 ae 89 b9 80 8c b1 bd
       -0.076162 -0.07082405 -0.0002626093 -0.086693764
0000a0 02 86 34 bc 9d 5d a7 bd 84 3f eb 3c be 5f 58 3c
       -0.011018278 -0.08172152 0.02871681 0.0132064205
0000b0 c5 74 33 bd f4 a8 33 bb 27 e5 22 3d 8c cc 9b bd
       -0.043812532 -0.0027413936 0.039769318 -0.076073736
0000c0 7f 8d 9b bd 42 df a7 3c 58 24 d3 3c 6a 2d 3b 3d
       -0.075953476 0.0204922 0.025774166 0.045697607
0000d0 5a 92 39 3c ca 92 b5 bd 33 fb 57 bd f5 3d 25 bb
       0.011326397 -0.088658884 -0.052729797 -0.0025213931
0000e0 76 4c 38 bd 14 23 0e bd 4e 0a ad 3c c8 08 55 bd
       -0.044994794 -0.03470142 0.021123078 -0.052010328
0000f0 80 ea 3a 3c 14 a6 c8 3d 48 5a b0 3d a0 bd 43 bc
       0.011408448 0.09797302 0.0861097 -0.011947066
000100 2e 35 6d 3d 84 4e 9a bd 8b 39 43 3d 47 66 37 3c
       0.057912044 -0.07534507 0.0476623 0.011193818
000110 7a 58 a4 3d d5 ae 82 3d 85 ad ae bd 17 d2 a6 3d
       0.08024688 0.06381003 -0.0852919 0.0814554
000120 bf d3 88 3d 15 12 9a 3d 9e 60 49 3d 32 42 39 bd
       0.06681012 0.0752298 0.049164407 -0.045229144
000130 69 53 8d bb 47 b8 85 bb 4d 04 26 3d 90 6d 3a 3d
       -0.004312922 -0.0040808055 0.040531445 0.045514643
000140 73 ae 19 bd 0d 26 a2 bc 3a 32 26 bd b7 c5 c3 3a
       -0.037519883 -0.019793535 -0.040575244 0.0014936243

classifier.2.weight f4 [10, 84]
000000 a9 c8 c2 bd 18 81 b0 bd a3 01 6f 3d 4b c6 d6 bc
       -0.09510929 -0.08618373 0.05835117 -0.0262176
000010 58 92 c0 3c 5d 90 45 bd df 71 51 3b 09 6e 2e 3d
       0.023507282 -0.04823338 0.0031958742 0.042585406
000020 ea 08 a3 bd 63 44 d3 3d 11 91 97 bd 50 c1 b7 bc
       -0.079606846 0.10315778 -0.07400716 -0.022431046
000030 a9 6f 45 3d 83 2b da bd c4 d0 88 3d db 26 9e 3d
       0.04820219 -0.106528305 0.06680444 0.07722255
000040 d0 03 13 be 48 15 90 bc 5c db a8 bd 9f cf 0e 3e
       -0.14356923 -0.017588273 -0.082449645 0.13946389
000050 2c 19 cb bd 31 4f 0d be a0 a6 a2 bd c2 11 95 3d
       -0.099169105 -0.1379974 -0.079419374 0.07278778
000060 cb 67 a5 3c fb bb d5 bd c0 ee ce bc 3d b8 97 bd
       0.020191094 -0.10436245 -0.02526033 -0.074081875
000070 88 f7 0b 3e e0 22 cb bd 5f b2 a2 3c 3e 32 90 3d
       0.13668644 -0.09918761 0.019860445 0.07040833
000080 da 8a 0e be 50 03 cc 3c 14 60 8c bb 8f 88 d6 3c
       -0.13920155 0.024903923 -0.0042839143 0.026188163
000090 ab c2 57 bd 73 f7 d6 bd d7 b4 76 b9 0e 2c ca bc
       -0.052675884 -0.10496416 -0.00023527756 -0.02467921
0000a0 a0 a3 e7 bc 67 52 0f 3e 26 d8 8c bd a8 02 8e bd
       -0.028276265 0.13996278 -0.068771645 -0.069341004
0000b0 08 ff 2d 3d 63 b0 b5 bd d0 df b7 3d fe 02 22 3e
       0.042479545 -0.08871534 0.08978236 0.15821454
0000c0 08 00 d0 3d 1c 4e a3 3d 66 bb 2b be 92 b9 29 3d
       0.10156256 0.079738826 -0.16770706 0.04143674
0000d0 39 04 06 be b5 31 39 bd df eb a1 bd 01 57 ae bd
       -0.13087548 -0.04521342 -0.07906317 -0.085126884
0000e0 4e 1f 9e 3d ad b6 98 3d 50 ca 0f 3d 81 e7 2d 3d
       0.07720815 0.07456718 0.03510505 0.042457107
0000f0 03 ee 21 3e db 53 32 3d 97 12 5a bd 4d 8a 96 3d
       0.1581345 0.043537002 -0.053240385 0.073505975
000100 b7 53 1c bd 7e 35 33 bc 1f 86 53 3d 3d 82 4a 3c
       -0.038165774 -0.0109380465 0.05164158 0.012360153
000110 45 d9 aa 3d 8a 3a 8e bc e9 c0 62 bd 9d 27 07 3d
       0.08342222 -0.017361898 -0.055359755 0.032996763
000120 96 b9 ce 3d 63 dd 0e be 1e f9 02 be af b4 05 3d
       0.100939915 -0.1395164 -0.12790343 0.032643016
000130 48 69 7a 3d e4 70 86 3c e3 f5 ed bd 35 c0 fc bd
       0.06113556 0.016411252 -0.11619165 -0.12341348
000140 36 41 a4 ba 1d 12 2c 3d 31 58 1b be 51 65 c3 3d
       -0.0012531641 0.04200946 -0.15170361 0.09540809
000150 e9 74 d1 bd c5 39 0c 3d c4 4b 02 bd ed 71 ca bd
       -0.10227377 0.03423478 -0.031810537 -0.09885011
000160 1d 79 cd 3c cf 59 bb bb 54 20 a1 3d 0a c3 08 3e
       0.025082165 -0.005717493 0.07867494 0.13355651
000170 65 8b 23 3e a8 96 c4 3d 3d 56 06 be fd 01 04 3e
       0.15971144 0.09599048 -0.13118835 0.12891383
000180 84 5b 25 3e 91 7a 9c bd e6 bf f9 3d cb 6b 3f be
       0.16148192 -0.07640565 0.12194805 -0.18693464
000190 fa 3f f6 bd e2 cb c5 3d f0 38 e7 3d 44 2f 2e 3c
       -0.12023921 0.09658028 0.11290157 0.010631386
0001a0 b8 76 c2 bd e1 9f 07 3c c8 00 91 3d a0 87 be 3c
       -0.094953 0.008277864 0.07080227 0.02325803
0001b0 9d 68 9b 3d e5 e0 4e bd 5c 37 ae 3d 84 d8 45 bd
       0.07588313 -0.050507445 0.08506653 -0.04830219
0001c0 de 6a 55 3d 6f c5 48 3d 0e 65 e8 bd 16 83 ac 3d
       0.05210387 0.049016412 -0.113474 0.0842344
0001d0 2b 16 a6 3d 74 fe db bd 70 01 8e bc 6a a4 ba 3d
       0.08109697 -0.107418925 -0.01733467 0.09113391
0001e0 8a 87 9f 3d 1f 0f be 3d 0b 83 63 3d c4 c6 1e bd
       0.07789524 0.09280228 0.055544894 -0.038763776
0001f0 22 a1 45 3d f9 7e bd bd 7f 03 d6 3b 2a 83 5d bd
       0.04824937 -0.09252734 0.0065311785 -0.054080166
000200 46 a3 5a bd 1c 29 25 3e a9 c4 ad bd 2c 43 0f 3e
       -0.053378366 0.16128963 -0.084847756 0.13990468
000210 01 de d7 3d 3d 13 6e 3d 2f 57 cd 3d ff 69 f0 bd
       0.10540391 0.058123816 0.100263946 -0.11738967
000220 0a 0e a0 3d 92 99 41 bc 6f b1 a7 bd b2 d9 84 3a
       0.07815178 -0.011816399 -0.0818814 0.0010135679
000230 58 62 a6 3c 26 ea aa bd 98 58 6b bd 21 b2 b1 3d
       0.020310566 -0.083454415 -0.057457536 0.086765535
000240 4d 36 9b bd 38 a2 de 3d e5 54 b1 bd 86 ea cb bd
       -0.075787164 0.108707845 -0.086587705 -0.09956841
000250 00 ca ca 3d c1 68 c3 3d 4b c3 01 3e b2 74 d9 3d
       0.0990181 0.095414646 0.12672155 0.10617961
000260 83 ea f9 3d ea 0f 79 3d cc 0b a3 3b 5b 82 99 3c
       0.12202933 0.060806192 0.0049757715 0.018738916
000270 ff 35 41 3d 5b 3f 8d 3d f8 18 5c bd 8d bf 5d 3d
       0.047170635 0.0689685 -0.05373475 0.054137755
000280 84 cb a2 bd 89 35 ba bd bd 20 ea 3c f8 4e d7 3d
       -0.07948974 -0.09092242 0.028580064 0.10513109
000290 54 e6 83 3c 25 94 e0 3d b3 ca ac bd 8c 46 01 be
       0.01610104 0.10965756 -0.08437099 -0.12624568
0002a0 75 83 ca bc 0c 1e ca bd 96 00 d8 3d 52 5a 10 be
       -0.024720887 -0.09869012 0.10546987 -0.14096954
0002b0 4a ef d9 3d 36 c2 c2 3d b5 e2 c6 3d 86 9c bd 3d
       0.10641344 0.09509699 0.0971121 0.0925837
0002c0 18 3d 96 3c 84 36 80 bb 58 67 ec 3d 41 d9 89 bd
       0.018339679 -0.003912749 0.11543149 -0.06730891
0002d0 83 78 30 bd 2d a8 90 3d a7 35 cb bd 15 20 dc 3c
       -0.04308368 0.07063327 -0.09922343 0.026870767
0002e0 89 2e dd 3d d8 0a 31 3d a0 e6 9a bd 79 85 ad bc
       0.107998915 0.043223232 -0.075635195 -0.021181809
0002f0 6d ce 08 be 5a 88 88 3d 11 9d f9 3d 35 d1 da 3d
       -0.13359995 0.06666632 0.12188161 0.10684434
000300 fd c8 92 3b eb 05 87 3d d1 15 c7 3d 46 a2 20 3e
       0.004479526 0.06592926 0.09720958 0.15686902
000310 6b 7d 39 3c 8c 04 b8 3d 7e b1 61 bd 04 93 cf 3c
       0.011321406 0.08985242 -0.05510091 0.025338657
000320 53 ad 04 be 2b 25 95 bd e3 6b d7 bd b1 fb 56 bd
       -0.12956743 -0.0728248 -0.10518625 -0.052486125
000330 a9 b6 aa bc 30 9b 97 bd 4a 31 19 be d4 92 94 3d
       -0.020839052 -0.074026465 -0.14960209 0.07254568
000340 0c 78 7a bc 3d ff f9 3c 6d 82 09 3e 76 36 e9 3d
       -0.0152874105 0.030517215 0.1342866 0.11387341
000350 11 f8 eb bd 7d b1 15 bd 00 92 38 bd d4 92 22 3d
       -0.11521924 -0.03654622 -0.04506111 0.039690807
000360 66 60 a3 3c 28 15 fa 3b d1 5a b5 3c a5 14 14 3e
       0.019943427 0.0076319166 0.022138031 0.14461
000370 a8 41 2b 3d c4 ab 8f 3d f5 17 10 be 7b 78 91 3c
       0.04181066 0.070151836 -0.14071639 0.017757645
000380 33 6c 16 3d 9d e7 98 3d 2b c6 a8 bd 31 0f 14 bd
       0.03672428 0.07466052 -0.082409225 -0.0361473
000390 04 aa 8b 3d 13 e0 ec 3c a9 c0 05 be 06 23 11 be
       0.06819537 0.02891544 -0.13061775 -0.14173517
0003a0 98 73 4d bd 98 b2 59 bd 5a dc cd bd a4 96 bd bd
       -0.050159067 -0.053148836 -0.10051794 -0.09257248
0003b0 eb 82 2c 3e be f5 0f bd ca b8 4a 3d 0d ab b8 3d
       0.16846816 -0.035146467 0.049492635 0.09017
0003c0 90 fa db 3b a5 d9 a1 bc 8f b3 e6 3d ed 97 cb 3d
       0.006713219 -0.019757101 0.11264717 0.09941087
0003d0 40 2f 96 3c 02 7b a9 bc cd be 05 3d 85 2d e8 bc
       0.018333077 -0.020688538 0.032652665 -0.028342018
0003e0 ab ca ca bd 7f b2 0c bd f8 39 ea 3d fd 15 f6 bd
       -0.09901937 -0.034349915 0.11436838 -0.12015913
0003f0 27 90 ab 3d 3a 94 ef ba 69 e9 c8 3b 59 ec cf bd
       0.08377104 -0.0018278428 0.0061313403 -0.101525016

classifier.2.bias f4 [10]
000000 2e f5 73 bc 4c 2a 0f bc 37 a5 df bc 3f 06 ac 3c
       -0.014889998 -0.008738112 -0.02730046 0.020999072
000010 af 7b d7 bc 4f be 4e 3d 41 c3 5a 3d 23 73 fb bc
       -0.026304094 0.05047446 0.053408865 -0.03069455
000020 75 94 84 bd 97 7a 60 3d
       -0.064736284 0.05480441
