checkpoints/noise_rate_0.2/models/tsf/epoch74.pth (torch, 250639 bytes, 10 tensors)

feature_extractor.0.weight f4 [6, 1, 5, 5]
000000 bd 42 0c 3e 03 2a 7b bd 3d 41 fa bc d0 60 a7 3d
       0.13697334 -0.061319362 -0.030548686 0.081727624
000010 9a f4 56 be db 84 34 3e 47 7a a6 3c ca 2d 21 3e
       -0.20991746 0.17628805 0.020321978 0.15740123
000020 32 3f 80 3d 70 29 05 bc 7e c9 cc 3d ae 16 9b 3d
       0.062620535 -0.008127555 0.09999369 0.07572685
000030 b1 fd 18 3e 31 7e 23 bc 14 4f 1f 3d 59 78 b1 bc
       0.14940526 -0.009978817 0.038893774 -0.021663832
000040 e1 68 3f 3d 67 ea 27 3d 63 57 6d 3e 63 4c 01 3e
       0.04673088 0.040995028 0.23177867 0.12626795
000050 46 d2 e3 bd cd 2a 17 be 95 99 25 bd c1 f0 89 bd
       -0.11124091 -0.14762421 -0.04042967 -0.06735373
000060 2a 2d c9 bc c0 96 bc 3d af b5 6c 3e 05 b0 35 3e
       -0.024557669 0.09208441 0.23116182 0.17742927
000070 de e4 54 be 78 9a 88 3d b1 84 20 3e 1d 9b a4 3e
       -0.20790431 0.066700876 0.15675618 0.32149592
000080 4f b5 47 3e d2 8d 5f be 61 91 82 be 42 18 80 3c
       0.19502757 -0.21831444 -0.2550154 0.015636567
000090 3e 4d a0 3e e0 3f 2d 3d 94 34 9f 3d bd 6b f3 bd
       0.3130893 0.042297244 0.077737 -0.11885784
0000a0 31 4a 92 3e ff fb 00 3d 7e 4d 7b 3e 1f 27 57 3d
       0.2857223 0.031490322 0.2454128 0.052527543
0000b0 b9 b5 90 bd 41 02 22 3e bd 19 b9 bc fe 8b 24 3e
       -0.07065911 0.15821172 -0.02259528 0.16069028
0000c0 6e 6b 16 3d 47 8d 8c 3d 90 eb 75 be a3 d7 10 be
       0.036723547 0.06862884 -0.24015641 -0.14144759
0000d0 4e d5 95 3d 4d 36 29 bd dd ba 75 3e c4 4d 1a 3e
       0.07316075 -0.04131155 0.23997064 0.15068728
0000e0 89 b9 4c bb b6 0b c2 bd a5 43 4a 3e 16 d4 0f 3e
       -0.0031238517 -0.0947489 0.19752367 0.14045748
0000f0 64 05 ae bd 58 42 45 3e 4e 70 55 3e 39 a2 88 3e
       -0.08497122 0.1926359 0.20843622 0.26686266
000100 4b 56 65 bd 00 35 20 3d d4 60 93 3d f8 df cb 3d
       -0.0559905 0.039113045 0.07196203 0.09954828
000110 23 90 db bd 01 70 04 be 0c fb 2f 3e 9b 19 37 3c
       -0.10720851 -0.12933351 0.1718561 0.011175538
000120 fe dc 10 3e 69 7e fa 3c 15 f2 82 3d 0c 6c 0e 3d
       0.14146802 0.030577855 0.0639383 0.03477101
000130 82 0f a1 3d e4 aa dd 3d 9b b6 36 be 4b c7 e1 3d
       0.07864286 0.108236104 -0.17843096 0.1102434
000140 01 e7 19 be 75 9c 17 be 7d c9 ec 3c 84 57 f5 ba
       -0.15029527 -0.14805777 0.02890467 -0.0018718098
000150 9c bd 2c 3e bb 1d f8 bd 01 a4 2a be 9e a0 3b 3e
       0.16869205 -0.12115046 -0.16664125 0.1832299
000160 a2 33 f3 3c d1 14 39 3e 76 0d 84 3d 8f 9e 03 be
       0.029687706 0.18074347 0.0644788 -0.12853454
000170 5a ea b1 3d 70 25 d6 3d e8 b7 b4 bd be 14 bb bd
       0.08687277 0.104563594 -0.0882414 -0.09134816
000180 da 0c bd 3d 7e cb 94 3d f5 70 56 bd 48 06 34 bd
       0.09230967 0.072653756 -0.052353818 -0.043951303
000190 f2 ab 76 3e b8 70 b9 3d 59 0b 7a 3e 1e dc 2b 3e
       0.2408903 0.090547025 0.24418391 0.16783187
0001a0 af c5 f5 bd 87 ad 87 bd 05 2a d3 3e ae 7c 70 3e
       -0.12000596 -0.066248946 0.41242996 0.23485062
0001b0 99 90 8a 3e 39 7b c9 3d 4f 5b 85 3e 5c f3 e6 3e
       0.27063444 0.09837956 0.26046225 0.45107543
0001c0 d4 22 e3 3e 77 9a dc 3a 2d 71 c5 3d b5 f3 b4 3e
       0.4436251 0.0016830702 0.09640727 0.35342184
0001d0 36 2a ca 3e 49 7d a2 3e e4 25 14 bd 00 32 84 bd
       0.3948533 0.3173621 -0.036168948 -0.06454849
0001e0 44 02 8b 3a bd 8a 18 3e 11 c9 98 3e f5 d6 1e bd
       0.0010605534 0.14896674 0.29840901 -0.038779218
0001f0 0d 55 4b 3e 7a d2 eb bd 0d fb 27 be 4d 82 d0 3c
       0.19856663 -0.115147546 -0.16404362 0.025452757
000200 92 e4 70 3e 0e 58 98 3e b4 5d a6 bd e7 f4 16 3e
       0.23524693 0.2975468 -0.08123341 0.1474186
000210 3a 38 b5 3e 3d 54 b7 3e 3d af 96 3e 40 51 6f 3e
       0.3539446 0.35806456 0.2943057 0.23370838
000220 4e 13 8b 3e e1 e0 83 3e 6a b2 b3 3d bb ee 0e bc
       0.27163166 0.25757506 0.08774264 -0.00872391
000230 b6 55 be bc 27 d1 9a 3d c4 fa b8 3c 8c 47 7d 3e
       -0.02323423 0.07559424 0.022580512 0.24734324
000240 d1 9b 4e 3e f3 83 d0 bc 98 20 e2 3d a2 67 0b 3e
       0.20176627 -0.025453543 0.11041373 0.13613752
000250 1f 47 66 3e 01 7d 6c 3e
       0.22488068 0.2309456

feature_extractor.0.bias f4 [6]
000000 47 92 27 bd 27 fb 74 3e 15 5c 16 3c 0c ee 60 3c
       -0.040910985 0.23923932 0.0091772275 0.01372863
000010 c3 7b 92 bd 7d 98 1e bc
       -0.07152512 -0.009679911

feature_extractor.3.weight f4 [16, 6, 5, 5]
000000 ac fd 25 bd 6d 96 01 bd 78 48 6d 3d 4e cc d3 bc
       -0.040525123 -0.031637598 0.05793044 -0.025854256
000010 b5 8b 6c bd 79 4a 33 3d 6d 11 2d 3d f9 0a 8a 3d
       -0.057750423 0.043772195 0.042252947 0.06740374
000020 83 f4 06 bd 57 aa c8 3c c7 b9 ea bc 84 15 2f bc
       -0.03294803 0.024495287 -0.028653039 -0.010686282
000030 4d e1 84 bd 76 90 2a bd 31 f2 f5 bc 92 a5 11 3d
       -0.06488285 -0.041641675 -0.030022712 0.03555829
000040 81 37 a8 3c 9d 3e 94 3c 4d ec 94 3d f6 69 96 3d
       0.020534279 0.018096263 0.07271633 0.07344429
000050 02 4e 61 3d d4 9a cd 3b fe 3f 71 bd 95 a8 6c 3d
       0.055006035 0.0062745605 -0.05889892 0.05777796
000060 16 a0 9c bc 67 2f 5a bc 31 b2 57 bd 08 39 79 3c
       -0.019119304 -0.013316966 -0.05266017 0.015211351
000070 c9 55 24 bd e3 48 88 3d 4b b7 ab bd 2d 26 14 bd
       -0.040120874 0.06654527 -0.0838457 -0.03616922
000080 0c 18 10 3d 95 27 2f bd ff 59 79 3c 26 58 1b bd
       0.035179183 -0.042762358 0.015219211 -0.03792586
000090 59 f1 2e bc 5d 49 10 3d f3 34 45 3d c7 87 a0 bd
       -0.010677659 0.035226215 0.0481462 -0.078383975
0000a0 5e ec 16 3d d3 25 ae 3d b3 e4 cc 3d ab b1 9a bd
       0.03684651 0.08503308 0.100045584 -0.07553419
0000b0 df 57 8e ba d9 9e 90 bd d9 ec bc 3d 86 47 28 bc
       -0.0010859928 -0.07061548 0.092248626 -0.010270959
0000c0 5e 96 eb 3c c4 36 c9 bb bd e4 24 bc 04 e5 b8 3b
       0.028758224 -0.006140562 -0.010064301 0.005642535
0000d0 83 60 84 3c 73 c5 08 3d fd ed 10 3c 2f 93 0d 3d
       0.016159302 0.033391427 0.008845803 0.034564193
0000e0 f8 8e 61 bd d8 e2 7b 3d 04 db 86 3d 62 52 91 3d
       -0.055067986 0.061495632 0.06584743 0.070957914
0000f0 8b 6b 98 3d 3c a0 38 bd e4 e8 24 bd ef c2 61 3d
       0.07442387 -0.045074686 -0.040261164 0.055117544
000100 36 3a 88 bd 44 f6 a8 3d c7 19 89 bd a7 14 91 bd
       -0.06651728 0.082500964 -0.0669437 -0.07084017
000110 69 85 9f 3c a1 a2 81 bd c1 c7 62 bc 16 f4 82 3d
       0.019472795 -0.06329847 -0.01384157 0.06394212
000120 3c 2f 50 3d d4 b0 8f 3d c1 b7 80 bc 82 d4 84 bd
       0.050826296 0.07016149 -0.01571262 -0.06485845
000130 3b 39 a5 3d ca 39 98 bc a6 1a 1d bd c4 89 a5 3c
       0.080675565 -0.018582243 -0.038355492 0.020207293
000140 af c3 4e bd 60 1f 6a 3d da 7a 3b 3d 47 76 91 bd
       -0.050479587 0.057158828 0.045771457 -0.07102638
000150 52 55 85 bd e5 df 44 3b ec cf 09 3d 20 51 eb bb
       -0.06510414 0.0030040678 0.033645555 -0.0071813017
000160 2e c4 3b bd 85 ab 69 3b 06 cb 90 bd 04 92 65 bd
       -0.04584139 0.0035655212 -0.07069974 -0.056047454
000170 29 c7 80 bd 7e 2e 87 3d 4c a7 99 3d 68 fd bd bc
       -0.06287987 0.066006646 0.075026125 -0.023192123
000180 9a b4 9c 3b 2b b8 01 3d 76 6c 55 3c 5f 1e 18 bd
       0.0047822716 0.031669777 0.013026347 -0.03713834
000190 8f c1 36 3d 48 c6 a9 3d e8 e0 18 3d e0 28 c1 bb
       0.044618186 0.08289772 0.037323862 -0.0058947653
0001a0 a1 71 8b 3d 9f a6 b0 3d 64 a6 84 3c c0 48 08 3e
       0.06808782 0.086255305 0.016192622 0.13309002
0001b0 0c 2e 93 3c 6e 92 7b bd 8c 15 88 3d 42 33 57 bc
       0.017966293 -0.061418943 0.06644735 -0.013134779
0001c0 cb f0 cb 3d 41 17 b4 bd 1b 8c 27 bc e2 ac d7 3c
       0.09958037 -0.08793498 -0.010226275 0.026327554
0001d0 bc 20 66 3d 9f 8b 73 3d ac bf ae bd d2 22 87 bd
       0.05618356 0.059459325 -0.08532652 -0.06598438
0001e0 02 88 a6 bd ca 7e 9c 3c 63 68 e2 bc 13 9e dd bc
       -0.0813141 0.019103426 -0.027637666 -0.027052915
0001f0 fd f8 bb bc 6a 7b 51 3d 26 b7 d6 3d b1 31 cd 3c
       -0.022945875 0.051143087 0.104841515 0.025048109
000200 78 d4 1a bd 05 a6 1c bd 96 87 0f bd 96 89 dd 3d
       -0.037800282 -0.038244266 -0.035041414 0.10817258
000210 5a 17 5d bc ab f0 0d 3c 4b bd 86 3c e6 e0 95 bc
       -0.013494337 0.008663337 0.016447684 -0.018295716
000220 22 28 98 3d 7f 73 be 3c 70 c8 cf bc b4 13 45 bd
       0.0742953 0.023248432 -0.02536413 -0.048114493
000230 1f f9 e4 bb f2 8d 19 3b bc 71 ab bd 0a 1e a4 bd
       -0.0069877054 0.0023430553 -0.083713025 -0.08013542
000240 9d e2 96 bc c6 d1 21 bb e1 fe 03 3d 66 9d 4c bd
       -0.018418605 -0.0024691685 0.032225493 -0.049954794
000250 db a1 e0 bc 75 95 e7 bc d3 f3 9b bd 2d fe a1 3d
       -0.027420929 -0.028269509 -0.07614865 0.07909808
000260 47 45 cf 3c 57 5a a7 3d 65 49 32 bb bc 83 83 bc
       0.025301589 0.08171528 -0.002720439 -0.016054027
000270 0b 19 75 bd c3 40 e9 bb d6 c5 89 3d 94 54 9c bd
       -0.059838336 -0.007118316 0.06727187 -0.076333195
000280 9c 33 cf bc 3a 9d 75 3d 23 78 78 3d cc 26 3b 3d
       -0.025293164 0.059964396 0.060661446 0.045691296
000290 8a db e8 bb 7b d5 87 bc 0b 1f 0c bd d6 c9 19 bd
       -0.007106249 -0.016581288 -0.034209292 -0.037546
0002a0 65 f5 47 3d d1 54 28 bb b0 52 07 bd 18 71 c3 3c
       0.04881801 -0.002568532 -0.03303784 0.023857638
0002b0 12 74 4a bd ed fd 05 3b 99 bf 86 3d 55 10 a6 3c
       -0.0494271 0.002044554 0.06579513 0.02027146
0002c0 b7 58 a3 3d 41 c4 19 bd 33 05 9a 3c 95 cb 8c bc
       0.079759054 -0.037540678 0.018801307 -0.01718692
0002d0 ac 22 0c bd 93 d4 ca bc 3b 6e 86 3d 34 2c 42 3d
       -0.034212753 -0.024759566 0.065639935 0.047405437
0002e0 c8 b5 0f bd 79 b7 34 bd 20 72 90 bd 90 a2 cc 3d
       -0.03508547 -0.044120286 -0.070530176 0.09991944
0002f0 c0 65 5c 3c 88 7a 24 3c 40 ce ca bc 6c 2a 73 bd
       0.013451993 0.010038979 -0.02475655 -0.05936663
000300 f7 10 9b bd 8e 97 96 bc b6 e6 be 3d 33 d1 77 3c
       -0.07571595 -0.018382814 0.09321348 0.015125561
000310 d2 b5 fa bc 8b af 78 bb e9 c4 9f 3d ce 6f ac 3d
       -0.030604277 -0.0037946429 0.078012295 0.084197626
000320 9f 66 a9 3d 35 7b 03 3d 6b 25 56 3d a4 0a 2e 3b
       0.082715265 0.03209992 0.05228178 0.0026556635
000330 06 87 6c bd 9c b4 80 bd 45 8c 8e 3d f2 49 50 3a
       -0.057745956 -0.062844485 0.06960348 0.0007945589
000340 0a c3 d0 3c ed 8b bf bb b1 27 76 bd 03 d8 08 bd
       0.025483627 -0.005845538 -0.060096446 -0.03340913
000350 09 ac 94 3c 59 cc 95 bc 38 af 91 bd 09 af 4f 3c
       0.018148439 -0.018285917 -0.071134984 0.012676009
000360 9b 92 c4 3a f5 57 97 3a df 38 83 3d ab 32 32 3d
       0.0014997305 0.0011546599 0.06407332 0.043505352
000370 65 41 c7 bc 0a fe f2 3d 51 4e c8 3d ba ba 29 3d
       -0.024323175 0.1186486 0.09780563 0.041437842
000380 a2 7c ac bb 0b 17 86 bd dd 39 8f 3d b4 e7 83 bc
       -0.005263881 -0.06547364 0.069934584 -0.016101696
000390 7c 67 6a bd 93 12 4f 3d d7 38 26 3d b0 a8 0c 3d
       -0.057227597 0.050554823 0.04058155 0.03434056
0003a0 2b ab 62 bc e0 0d 05 bd e7 6b 40 3c f1 06 88 3d
       -0.013834755 -0.032483935 0.011744476 0.06641949
0003b0 3f 41 8c 3c 67 11 f6 bc e0 17 ae 3d 1a 57 8e 3b
       0.017120956 -0.030037595 0.085006475 0.0043438794
0003c0 05 3e 74 3d aa 1e 0d 3d 00 07 cf 3d 0b 18 88 3d
       0.05962946 0.03445307 0.10108757 0.06645211
0003d0 75 47 14 bd 08 cf 8a 3d d4 01 8e 3c 46 6e 66 bd
       -0.03620096 0.06777769 0.017334856 -0.05625751
0003e0 ac dd a1 bc ba 7c 9a bd 72 db 62 bd 77 7d 62 bd
       -0.019759022 -0.07543321 -0.05538506 -0.055295434
0003f0 37 87 9f 3d d6 79 2e 3b 0c 19 b0 bc d3 cb 89 3d
       0.07789462 0.0026622913 -0.021496318 0.067283295

feature_extractor.3.bias f4 [16]
000000 d6 3c a4 bc 92 25 37 bd 9a 9a c1 3b 87 2a 14 3d
       -0.02004854 -0.044713564 0.0059083225 0.03617337
000010 aa dc 59 3d eb d8 af bc b6 d2 d5 3b cd 68 1f bd
       0.053188957 -0.02146574 0.006525363 -0.038918305
000020 8d f5 83 bd cd a9 49 bd f3 b0 44 bd c6 4c 4d bd
       -0.064433195 -0.0492342 -0.048020314 -0.050122045
000030 1c 42 b1 3c 59 23 b4 bc 04 29 89 3d f5 99 a1 3d
       0.021637969 -0.021989511 0.06697276 0.07890693

feature_extractor.7.weight f4 [120, 400]
000000 c5 f4 2d bd f8 d1 3f 3c 4a ba f3 3c f3 94 3b bd
       -0.04246976 0.011707775 0.029751915 -0.045796346
000010 52 60 8b bc e1 a0 0d 3d 0c 20 18 bd 8e 78 3b 3d
       -0.017013703 0.034577254 -0.037139937 0.045769267
000020 df 33 73 bb 3e 18 32 3c 41 78 49 3d ea 3b 17 bd
       -0.0037109775 0.010870038 0.04918695 -0.036922373
000030 34 7b 2f 3d e6 bd 37 bd 69 c3 19 3d 67 68 72 39
       0.042842105 -0.044858836 0.037539873 0.00023117811
000040 d4 c1 32 3d 42 e1 23 bb 78 96 37 bd d9 31 96 3c
       0.04364188 -0.002500609 -0.044821233 0.018334316
000050 14 c1 f8 3c 8c b9 2f bc 78 1a 55 bd fb 9b 24 bb
       0.030365504 -0.01072539 -0.052027196 -0.0025117386
000060 02 33 20 3c d5 e5 3a 3c 13 d4 c2 3c 6a f7 31 bc
       0.009777786 0.011407335 0.023782765 -0.010862211
000070 fd 86 f8 ba 0a b6 df ba 6a 69 bb 3c c4 26 a5 3c
       -0.0018961128 -0.0017067802 0.022877414 0.020160086
000080 53 11 b5 3c c4 d1 98 3b b7 fe 2c 3c ef ed 14 3d
       0.022102987 0.004663678 0.010558776 0.036359724
000090 8a 3c 38 3c ce 01 29 bd 79 aa 72 3c ab 59 6b 3d
       0.011244902 -0.041261487 0.014811152 0.05745856
0000a0 b5 cf 5d bc 47 cc 01 3d 3c e0 25 bd 4d f0 4c bb
       -0.013538291 0.031688955 -0.04049705 -0.003127116
0000b0 56 55 00 3d c8 eb 0c bd d4 20 2c bc 10 ba 61 ba
       0.031331383 -0.034404546 -0.010505874 -0.00086107943
0000c0 82 57 63 bc 14 56 de bc 90 72 07 3d 6f 64 39 bc
       -0.013875844 -0.027140655 0.03306824 -0.011315449
0000d0 97 65 94 bc 63 b9 e6 3c 6e 4d 21 3c 31 2f 9a bc
       -0.018114848 0.028164571 0.009845121 -0.01882133
0000e0 45 9f 05 3d 4e f2 cf bc 00 8b 4c 3d 5e 42 20 3d
       0.032622594 -0.025384095 0.04993725 0.039125793
0000f0 48 ba a2 3b ed 4b 95 3c 6d 69 70 bc ae b3 08 bd
       0.004966054 0.01822468 -0.014673573 -0.03337448
000100 23 c2 ce bc 62 9d 70 3c 15 01 b4 3c 31 f8 8a bb
       -0.025239056 0.0146859605 0.021973172 -0.0042410125
000110 72 b4 62 bc df 85 8f bc d7 90 c5 bc 37 d4 a1 bc
       -0.013836967 -0.01751989 -0.024116917 -0.019754512
000120 a7 89 05 3d 30 6b 4a bd ea 8d da 3c 60 05 02 3d
       0.03260198 -0.04941863 0.026678998 0.031743407
000130 f3 2f 41 bc d1 5c c4 bb a8 07 3a bc 4e 7c 2d bd
       -0.011791217 -0.00599251 -0.011354364 -0.042354874
000140 e9 db 20 3c 00 c9 bb bc b4 73 af 3c 68 46 1a ba
       0.009818056 -0.022922993 0.021417476 -0.0005885125
000150 01 88 e6 bc 3d 3a 60 bd f1 82 00 3d 35 41 40 3d
       -0.028141024 -0.05474304 0.031374875 0.046937186
000160 14 c8 29 3d 66 1e 8d 3c 1e cc 78 3c cd fd aa 3c
       0.041450575 0.01722641 0.015185384 0.020872975
000170 72 37 0a 3d 43 d5 86 38 59 40 09 3b 84 c0 91 3c
       0.033744283 6.429341e-05 0.0020942895 0.017791994
000180 f4 1f e6 3c d2 6e 43 bc 38 03 d5 3c 7d 1a 19 3d
       0.028091408 -0.011928277 0.026002511 0.037378777
000190 01 48 ce bc d3 55 41 bd fd a9 e7 bb be 25 e7 bc
       -0.025180819 -0.04720099 -0.0070698247 -0.028216239
0001a0 ea 83 50 3d 0e 93 5f bc 94 86 d0 bc 14 ca d7 3c
       0.050907053 -0.0136459 -0.025454797 0.026341476
0001b0 58 82 8e 3c b9 47 90 3c b2 99 45 3d c0 6d 44 bd
       0.017396137 0.017612325 0.04824228 -0.04795623
0001c0 e8 c5 e0 3c ad 42 ac bc 07 49 a1 3c 6d 4f cf bc
       0.027438119 -0.021027887 0.019688142 -0.025306428
0001d0 b2 43 4c 3d 8b ac 3e bc 2b bd 0f 3c b3 b9 11 bd
       0.049869247 -0.011637817 0.0087731285 -0.035577487
0001e0 6f 8e a7 3c 0d 85 32 bd 79 d7 a5 3c 97 dd 49 3d
       0.02045366 -0.04358392 0.020244347 0.04928359
0001f0 51 4e 29 3d 26 72 c4 3c 7e 56 b9 bc 40 d1 ac 3b
       0.041334454 0.023980211 -0.02262425 0.005273968
000200 32 87 1c 3c 32 ba 58 bd ef c9 be 3c b0 87 29 bd
       0.009553717 -0.052911945 0.023289649 -0.041389167
000210 04 d3 aa 3c d0 2c 47 3d 8a 60 8f bc 76 9a 60 3c
       0.020852573 0.04862672 -0.017502088 0.013708701
000220 ac 83 5b 3d 5b c0 4b 3d 73 6b 55 3d 25 01 d8 bc
       0.05359237 0.04974399 0.052104425 -0.026367733
000230 64 78 b7 3b 8f 99 49 bd 1d 57 2c 3b f0 0e 57 bd
       0.0055990685 -0.04921871 0.002629704 -0.05250448
000240 b2 41 c5 3b 06 1f 91 3c 15 29 47 bd 27 cf 60 bb
       0.0060197944 0.017714988 -0.048623163 -0.003430316
000250 b6 8d b8 bc 52 34 23 3d 58 6f 42 bc ee e7 ae 3c
       -0.02252851 0.03984482 -0.011867367 0.021350827
000260 4a e2 16 bd be 48 8b 3b 69 fe 04 3d a4 8f 7c 3b
       -0.0368369 0.004250615 0.032469187 0.0038537765
000270 b6 58 98 bc 82 41 cb bc 76 dc bd 3c d0 70 8c 3c
       -0.018596988 -0.02481151 0.023176413 0.017143637
000280 85 44 1d 3c 16 5c 22 3d 92 53 40 bc 36 04 c4 bc
       0.009598856 0.0396386 -0.011738675 -0.02392779
000290 cc 59 1b 3c 0a 93 e8 3c 64 e4 72 bd 1e bd f2 bc
       0.009481858 0.028390426 -0.05929984 -0.029631194
0002a0 c1 74 2b 3c 9f a2 0f 3d 1d 8c d4 3c 2e f0 2d 3c
       0.010464848 0.035067197 0.025945717 0.010616345
0002b0 3c 24 4e bd b8 52 dd bc 4e 99 ce 3c 10 68 0f 3c
       -0.050327525 -0.027016982 0.025219586 0.008752838
0002c0 e5 3f d2 3c 03 28 1a 3d f3 dc df 3c 7b ab aa bc
       0.025665233 0.037635814 0.027327036 -0.020833721
0002d0 f4 95 da bc 89 ad 21 bc 35 ba c0 ba cb 0c 9e bb
       -0.026682831 -0.009868034 -0.0014703932 -0.0048233024
0002e0 9b df 2c bc 1d ed ce 3b b2 39 07 3d ae 87 fd bc
       -0.010551359 0.006314887 0.033014007 -0.030948486
0002f0 fd 69 c5 3c 97 82 44 bd 8a 70 35 3b a2 1d 37 bd
       0.02409839 -0.047976103 0.0027685487 -0.044705994
000300 77 48 40 3d 37 16 2a bd 93 04 d3 bc d6 bf d0 3c
       0.046944108 -0.041525092 -0.025759017 0.0254821
000310 52 42 a4 3c 45 48 1b 3d d0 39 6e 3c b1 79 29 bd
       0.020051155 0.03791072 0.014540151 -0.04137582
000320 25 47 0f bd 6b e9 0b 3d 7f 11 47 bd 19 ea 37 3d
       -0.034979958 0.03415815 -0.04860067 0.044900987
000330 2d 6d 0a bc 29 28 15 3c 38 46 0c bb f1 9a 4d bc
       -0.008448881 0.009103813 -0.0021404158 -0.012549148
000340 79 c6 48 bc 1c de 70 3c 8a 78 0f bc bb af 09 3c
       -0.012254351 0.0147013925 -0.008756766 0.008403714
000350 c5 3c 2b 3d 2b 50 93 3b 99 ff 1f bd 41 33 1a bd
       0.041806 0.0044956408 -0.039062116 -0.037646536
000360 9a eb 02 3d 35 da 8e 3c 80 9e 1c 3c 1f 6f cb bc
       0.03196297 0.017438034 0.009559274 -0.02483326
000370 c4 d0 26 bd 26 0c 31 3d 22 be 3f bd 90 8e ca bc
       -0.04072644 0.043224476 -0.046812184 -0.024726182
000380 2b cc a4 3c 31 2f 35 3d 24 ee 26 bc 1b 6d 29 bd
       0.020116886 0.04423446 -0.010188613 -0.041363817
000390 ad 2d 85 3c ad fc 74 3b 59 a6 e9 bb 88 dd 32 bd
       0.016257131 0.0037382052 -0.007130426 -0.0436683
0003a0 05 38 28 3d f5 8c 01 3c f6 4c b2 3c 2d bc b1 3c
       0.04106905 0.007907142 0.021765213 0.021696175
0003b0 20 10 1e 3d f6 e2 a9 bc 35 17 0e 3b f4 28 10 bd
       0.038589597 -0.020738106 0.0021681313 -0.035195306
0003c0 ee 02 42 bd 6f c0 ab bc a2 72 95 3c 15 b5 e7 bc
       -0.047366075 -0.020965783 0.018243138 -0.028284589
0003d0 8a ca 08 3d 86 7f 25 3c 41 6c 9b bc 8e c0 b3 3c
       0.03339628 0.010101205 -0.018972518 0.021942403
0003e0 2e 4c 0d 3d 49 e7 b2 bc 4f 55 dd 3c 2b 5b 0d 3d
       0.03449648 -0.021838801 0.027018217 0.034510773
0003f0 ba 2f 3c 3d 17 f7 f4 bc 7b a0 48 3d 28 8a c0 3b
       0.045943953 -0.029902978 0.04898117 0.0058758445

feature_extractor.7.bias f4 [120]
000000 45 a1 a9 3c 40 7a 14 3d 3f 36 a3 3c fd 27 02 3d
       0.020706782 0.0362494 0.019923327 0.031776417
000010 f3 61 2c 3d d5 82 04 bd 41 4c 12 3d 44 e0 a7 39
       0.0420856 -0.032351334 0.035717253 0.00032019813
000020 ad 41 02 bd a5 2f 7c 3b 41 5d b9 3c 04 51 e6 bc
       -0.031800915 0.0038480547 0.022627475 -0.028114803
000030 9d d1 1d bd 02 25 4a bd 2c e9 da bc 7a 71 26 bd
       -0.03852998 -0.0493517 -0.026722513 -0.040635563
000040 47 02 f5 3c 8b 1a b2 bc 79 96 37 bd 0e c2 f4 bc
       0.029908312 -0.021741172 -0.044821236 -0.029877689
000050 e7 45 39 bc f1 a0 fa 3c 43 ef 12 3d 3e 44 84 3c
       -0.01130817 0.030594321 0.03587271 0.016145822
000060 fd 3b 2a 3d 73 9d 22 bd 0b 51 b1 bc d9 db 0f 3d
       0.041561116 -0.039700937 -0.02164509 0.035121772
000070 b0 f9 8c bc 7f e4 77 3c ec 21 4b bc c6 ad d4 3c
       -0.017208904 0.015130161 -0.012398224 0.025961768
000080 8e 78 48 bd eb be b1 3c 2a 38 e9 bc ed 4f f2 bc
       -0.048943095 0.021697482 -0.028469164 -0.029579127
000090 7b 94 1b 3d 71 d8 cf bc d4 67 de 3b 6e 38 89 3a
       0.0379834 -0.025371762 0.0067872796 0.0010469088
0000a0 0b d6 10 bd 09 79 e4 3c 90 fe 10 bd 56 02 92 bc
       -0.035360377 0.027889745 -0.03539902 -0.01782338
0000b0 50 e2 43 bd dc 8b 41 bc 90 23 76 3c 51 b9 58 3c
       -0.04782325 -0.01181313 0.015023127 0.013227777
0000c0 a0 93 c1 3c cb 00 8b bc d1 fb 95 3c 32 d8 48 bc
       0.023629963 -0.016968152 0.018308552 -0.012258576
0000d0 90 a7 2a 3d d4 d5 eb bc e5 72 7d bb 03 b1 25 3a
       0.041663706 -0.028788485 -0.0038673219 0.0006320627
0000e0 c8 98 15 3d 27 28 7f bc 34 4e 1d bd ab 4c 73 3c
       0.036522657 -0.015573538 -0.03840466 0.014849822
0000f0 ae d6 3a 3d b3 e5 0f bd 30 bc 87 bc 41 52 73 bc
       0.04561489 -0.035131168 -0.016569227 -0.014851154
000100 e3 7f 0a 3d 4c 89 e1 3b e2 f0 2f bd e0 1d 1f 3d
       0.03381337 0.006882822 -0.042954333 0.03884685
000110 15 6f 5b bc 8a 6c 40 bd ca 27 42 3d ff 0b 32 bc
       -0.013393183 -0.04697851 0.047401227 -0.010867118
000120 6b 06 b1 3c da 5d 8b 3a 28 95 12 3d 1a b5 b2 bc
       0.021609506 0.0010632828 0.035786778 -0.021814872
000130 0c 0c 80 bc c4 6d ca bc eb f4 02 bd e6 cc 01 bd
       -0.015630744 -0.024710543 -0.031971853 -0.031689547
000140 d5 a1 e3 3c 02 f8 07 bd 56 2c 8b ba 8d d9 d8 3b
       0.027787128 -0.033195503 -0.0010618072 0.006617731
000150 8d 30 50 3d 33 3f 91 bc 02 63 8a bc 08 c7 bf 3c
       0.05082755 -0.017730331 -0.016892914 0.023410335
000160 5d 70 3c 3c f5 93 ab 3c c8 ff 2b 3d 88 8d 25 bd
       0.011501399 0.020944575 0.04199198 -0.040418178
000170 db 45 69 3c 3c 03 f7 ba 94 f8 38 bd 17 fd bb bb
       0.014237846 -0.0018845568 -0.045158938 -0.005736958
000180 b1 e9 6e 3c 94 5c ec 3c fa cc 22 3b 96 6c 08 bd
       0.014582084 0.028852738 0.0024841414 -0.03330668
000190 e2 fb 60 bc 4c 09 2b 3d 2f 77 c3 3c 98 79 14 bd
       -0.013731929 0.041756913 0.023860542 -0.036248773
0001a0 58 64 56 3c ec cc 25 bc 73 b5 19 3c 2f fd 02 3d
       0.013085447 -0.010119658 0.00938164 0.031979736
0001b0 8a 3a cb bc 2a 24 24 bb 3d ad 22 3d b4 c1 e3 bb
       -0.024808187 -0.002504597 0.039715994 -0.0069505814
0001c0 b6 c8 48 3d 88 86 8b ba 4e 09 f7 3b 43 1b 0d bc
       0.049019538 -0.0010644952 0.007538951 -0.008612457
0001d0 82 5a b5 3c 39 0d 6d bc 24 41 54 3d 26 3f 33 3d
       0.022137884 -0.014468485 0.051819935 0.043761395

classifier.0.weight f4 [84, 120]
000000 88 bc 02 3c 8c e2 50 bd 61 d5 d6 3c a2 71 b7 bb
       0.00797952 -0.050997302 0.026224794 -0.005598263
000010 c8 d6 9c bd 39 29 db 3c c9 0e 7d bd 07 fc 1b bd
       -0.07658154 0.026753055 -0.06178168 -0.03808215
000020 3f 40 85 bd 48 e8 86 3d 0b 1f 47 3d 8e 62 55 bd
       -0.065063946 0.06587273 0.04861359 -0.052095942
000030 27 b8 82 3d 6a 8a 8b bd b1 f6 06 3c 91 7a 87 bd
       0.063827805 -0.0681351 0.008237527 -0.066151746
000040 93 85 5d 3d 9b 30 2b bd a9 75 91 bc 0f 46 00 3d
       0.054082464 -0.0417944 -0.0177563 0.031316813
000050 b8 5a aa bd 81 6d 7a 3d 12 a2 c2 3b b5 45 66 bd
       -0.083180845 0.061139587 0.0059397304 -0.05621882
000060 e0 02 36 ba 13 8d 35 bd 3b 3e cd 3c dd 60 42 3d
       -0.00069431774 -0.044323992 0.025054088 0.047455657
000070 0f 2f 9e bd 00 23 8e 3d 56 29 cf bc 9a 8a 9e 3d
       -0.077238195 0.069402695 -0.025288265 0.0774128
000080 f5 0c 48 3b b0 7a 19 3d fb 5a 2a bd fa a8 7f 3c
       0.00305253 0.03747052 -0.041590672 0.015604252
000090 59 0d e0 bb 2b 86 9f bc f7 18 38 bd 3f 5c 34 3b
       -0.0068375287 -0.019473156 -0.044945683 0.0027520803
0000a0 20 02 b1 bd 11 8c 57 bd cc bb fe bc bc 46 14 3b
       -0.086429834 -0.052623812 -0.031095408 0.0022625169
0000b0 0e 9b 76 bd 1c fa 37 bd 0a b8 33 3c 75 4b 74 3a
       -0.060206465 -0.044916257 0.010969171 0.00093191053
0000c0 aa 47 0b 3c b8 8c 42 bd e6 b2 96 3d bb b9 ba bc
       0.008500973 -0.04749748 0.07358341 -0.022793641
0000d0 e9 31 98 bd 4f 46 54 3d 0c 58 3b 3c b2 6d 5c bb
       -0.074313946 0.051824864 0.011434566 -0.003363472
0000e0 b0 83 a8 bd 36 c7 56 bd 9f 67 4c 3d 60 da 85 bc
       -0.082282424 -0.052436076 0.04990351 -0.01633948
0000f0 b2 6b 72 bd c0 91 85 3d cd d3 97 bd 39 ff 81 3d
       -0.059184738 0.0652194 -0.07413445 0.06347508
000100 6e 30 fc bc 10 28 1d 3d d5 94 49 3c 78 21 ca 3d
       -0.030784812 0.038368285 0.012303551 0.09869665
000110 97 b4 04 3d 0a ce c9 bb 08 e3 af 3d e6 09 95 bd
       0.032398786 -0.006158595 0.08588225 -0.072772786
000120 55 de 58 3c 99 00 f4 3c 98 5e 62 bd 44 34 4e bd
       0.013236602 0.029785441 -0.055265993 -0.050342813
000130 80 0e 33 bd b1 02 42 bd b5 25 41 bc 88 02 67 bd
       -0.043715 -0.047365848 -0.011788775 -0.0563989
000140 b9 70 99 3d 2f 50 15 bb 18 4e bd 3d 9b 60 b4 3c
       0.07492203 -0.002278339 0.09243411 0.022018721
000150 7e d4 15 bc 3d 78 02 3c d1 e2 3f bd 91 e4 30 bd
       -0.0091449 0.007963237 -0.04684717 -0.043186728
000160 ef 75 15 3d 11 42 34 bc 81 21 24 3c 76 e9 04 bc
       0.036489423 -0.01100208 0.010017754 -0.008112302
000170 43 25 b0 3d 18 98 bd bd 6b 03 66 bd 34 c1 3f bd
       0.08600857 -0.09257525 -0.056155603 -0.046815112
000180 98 61 ee bc b2 65 93 3d 35 dd 7c 3d 46 05 70 bd
       -0.02909927 0.07197131 0.061734397 -0.05859878
000190 af d0 e4 bc 9e 0f c6 3d 75 34 8f bd 1b b2 1a 3c
       -0.02793154 0.096709475 -0.06992427 0.009441878
0001a0 72 ac 1a 3d 6f 73 2b 3d 4c 2a ae 3d 98 e1 73 3d
       0.037762113 0.041858133 0.08504161 0.059541315
0001b0 fe b4 8f 3c c7 78 b4 bd 81 fd 23 bd 7d 53 81 bc
       0.017542358 -0.08812099 -0.040036682 -0.01578688
0001c0 5c 41 88 bd db 98 2c bd a8 7d 52 3c 96 21 11 bd
       -0.06653091 -0.04213796 0.012847342 -0.03543242
0001d0 85 34 7a 3c 42 20 11 3d 01 98 6e 3d e6 26 8f bd
       0.015271311 0.035431154 0.05825043 -0.06989841
0001e0 f7 5b a5 3d aa cd 14 3d 50 a6 fe 3b fa 3e dc bc
       0.080741815 0.03632895 0.007771291 -0.026885498
0001f0 38 fd e2 bc ff f7 3f 3b 45 63 3c bc b1 a4 b0 bd
       -0.027708635 0.0029292104 -0.011498277 -0.086251624
000200 3f f9 68 3c c3 77 76 bd 95 e9 9f bd b0 a3 5c 3d
       0.014219581 -0.060172807 -0.07808224 0.053867042
000210 0b bb 76 bc 03 45 c4 bc ce 62 4c bc df c1 1f bd
       -0.015059243 -0.023958689 -0.012474729 -0.03900325
000220 9e ac 42 3d c2 44 4f bb e1 a1 28 bd c6 39 b0 3d
       0.0475279 -0.0031626676 -0.041170005 0.086047694
000230 54 fc 87 3d 0e e0 8c 3d 10 ec b9 bd 5b d2 8e 3c
       0.06639925 0.068786725 -0.090782285 0.01743429
000240 84 df a4 3b 51 e0 a0 3d 57 73 cb 3c fc 3c 98 3c
       0.005031528 0.07855285 0.024835272 0.018583767
000250 de 9e 70 3d d1 fd 21 3d 56 42 a7 bd 96 41 b6 bd
       0.058745258 0.0395487 -0.081669495 -0.08899228
000260 21 55 4b bd 78 b7 a7 bc d7 eb b0 3c 6a 6c 69 3d
       -0.049641732 -0.020473227 0.021596832 0.056988157
000270 53 c4 a6 bd 7f 51 5e bc f5 d1 92 bd 7b 3a a1 3d
       -0.081429146 -0.013569235 -0.071689524 0.078724824
000280 09 ec 63 3d 47 f0 56 3d a3 54 21 bc 7b 71 6c bd
       0.055645023 0.05247524 -0.009846839 -0.05772541
000290 d1 b9 3b bd 68 66 8c ba 76 eb f1 39 7c 4c cc ba
       -0.045831505 -0.0010711672 0.00046142534 -0.0015586759
0002a0 99 d7 a1 3d 10 70 42 bd 0a ce 8c 3d 04 8c 25 3d
       0.0790245 -0.047470152 0.06875236 0.040416732
0002b0 fe 0b 92 bd 2f ab 28 bd 18 44 63 bd 4a 0f ae ba
       -0.071311936 -0.04117888 -0.05548486 -0.0013279703
0002c0 82 59 46 3d fd 9b 54 3d 4f 38 9c bc 3b e9 a0 3d
       0.048425205 0.051906575 -0.019069819 0.07856985
0002d0 92 ac 30 3d 60 c9 77 3c a3 63 97 bd 23 62 9e bd
       0.043133326 0.015123695 -0.07392051 -0.07733562
0002e0 bc fb 67 3d 0f 76 47 3d af bb 33 bd 33 55 8c bd
       0.056636557 0.048696574 -0.04388016 -0.06852188
0002f0 5e b5 6e 3b 92 aa aa bd 72 87 7b 3d 4f 90 44 3d
       0.0036424021 -0.08333315 0.061408468 0.047989186
000300 d1 cb ce 3c cb 68 85 bd 79 6c 6c bc 24 d0 3b bd
       0.025243672 -0.06514128 -0.014430159 -0.045852795
000310 ba ac 34 3d 90 f3 b1 3d 7b 0b 63 3b 74 53 c0 bc
       0.044110037 0.08689034 0.0034644294 -0.023477294
000320 c8 94 80 3d f3 a5 ad bc 21 9b 30 bd e4 85 9c bd
       0.06278378 -0.021197295 -0.043116692 -0.07642725
000330 41 79 44 3c 4f 76 93 3d 03 71 69 3d ec 79 05 3d
       0.0119918 0.072003 0.056992542 0.032586977
000340 ab da 80 3d 71 49 95 bd 22 1e b4 3d 67 67 f3 bc
       0.062917076 -0.072893985 0.0879481 -0.029712392
000350 e5 35 b5 bd 87 93 27 3d 39 75 b1 3c 73 78 a8 bc
       -0.0884817 0.040912177 0.021662341 -0.020565247
000360 5d 3a b1 bd 3e 21 81 3a 67 e9 38 bd d9 f7 66 bd
       -0.0865371 0.0009851826 -0.045144465 -0.05638871
000370 da 5f a7 3d 4c 27 2f 3d a1 f6 a2 bd 65 cc 20 bd
       0.08172579 0.042762086 -0.07957197 -0.039257426
000380 b6 7c 39 bd e3 6e a8 bd 50 6a 93 bd 2a af b9 3d
       -0.04528495 -0.08224275 -0.07198012 0.09066613
000390 27 72 94 3b b9 d6 96 3d 67 24 7d 3c 85 34 b4 3d
       0.0045302096 0.07365174 0.0154505735 0.0879908
0003a0 b2 56 62 bd 6c b8 c0 3c 6e a2 39 bd 38 c7 04 3d
       -0.05525846 0.02352544 -0.04532092 0.032416552
0003b0 ce 2e 90 3d 7c 76 8c 3d 79 fe 7b bd a6 01 6c bb
       0.07040177 0.068585366 -0.06152198 -0.0036011725
0003c0 a3 36 64 3c 30 a2 c2 3c 00 fb 0f bd 96 6a da 3c
       0.013929042 0.023758978 -0.03515148 0.026662152
0003d0 bb c3 92 bd a5 f5 01 bd b2 c9 c9 bc e8 31 b6 bc
       -0.07166239 -0.031728406 -0.024632309 -0.022240594
0003e0 d9 07 85 bd ef f2 80 3d 86 05 61 bc a7 e9 31 3d
       -0.064956374 0.06296336 -0.013734227 0.04343572
0003f0 15 44 28 bb 12 47 a5 3b 8b e4 aa 3d da f2 8c 3d
       -0.0025675346 0.0050438726 0.08344372 0.06882258

classifier.0.bias f4 [84]
000000 1d 20 13 bc 4e 2d b1 bd 54 f7 32 3d ba 9a a9 3d
       -0.008979824 -0.08651219 0.0436929 0.08281465
000010 ef c3 a8 3c 8f 49 24 3d 97 00 a1 3d ec b6 5d 3d
       0.02060124 0.040109213 0.07861441 0.054129526
000020 d8 45 29 bd 97 33 46 3d bf 5e 9d bd 75 ea b7 3d
       -0.041326374 0.048389044 -0.07684087 0.08980266
000030 07 6a 77 3d 83 b4 44 bd 96 b8 d2 bc be f6 6a bd
       0.06040385 -0.048023712 -0.025722783 -0.057364218
000040 4a d9 1c bd 28 ea 65 bd 31 d2 af bd fc 6a 6a bc
       -0.03829316 -0.056131512 -0.08585013 -0.014307734
000050 33 64 1a 3d 90 ee 64 3d b9 60 f3 bc 11 34 8c bd
       0.037693214 0.055891573 -0.029709207 -0.068458684
000060 4a d9 59 3d 36 0c 11 3b b5 4a a7 ba be 97 3e 3d
       0.05318574 0.0022132522 -0.0012763353 0.04653143
000070 25 cd d0 bc cb 89 2f 3d 47 b3 fa 3c a7 d4 5e bc
       -0.025488446 0.04285602 0.030603064 -0.013600505
000080 b7 cb e5 38 86 30 cb bc 05 09 25 bd 06 ba a5 bb
       0.00010957516 -0.024803411 -0.040291805 -0.005057576
000090 78 52 9b bd c2 92 91 bd a4 aa 18 b8 ae 7e b1 bd
       -0.07584089 -0.0710807 -3.6398545e-05 -0.0866674
0000a0 9c d9 2b bc c0 b4 a7 bd 7d 88 f1 3c c6 07 77 3c
       -0.010488894 -0.08188772 0.029484028 0.015077537
0000b0 c1 4e 2f bd e5 5a f5 ba 6f 53 2b 3d de 71 9d bd
       -0.042799715 -0.0018719105 0.041827615 -0.07687734
0000c0 ab 00 9c bd 18 c1 af 3c 7c ad cc 3c 2a 45 3b 3d
       -0.07617315 0.021454379 0.024985068 0.045720257
0000d0 a3 de 47 3c 38 3e b7 bd 47 77 55 bd 64 c8 db ba
       0.012199077 -0.08947414 -0.052115705 -0.0016768095
0000e0 dd 05 37 bd 05 a0 0d bd 2f fe a8 3c b8 69 55 bd
       -0.044683326 -0.034576435 0.020629017 -0.052102774
0000f0 a0 9d 30 3c 12 2f c9 3d dc ca b0 3d c4 59 3f bc
       0.010779768 0.09823431 0.08632442 -0.011679117
000100 b8 13 6d 3d ec 97 99 bd a4 9a 4a 3d a1 25 39 3c
       0.057880133 -0.0749968 0.049463883 0.011300475
000110 52 ce a4 3d 90 be 83 3d 6e d8 ad bd 4e 2b a9 3d
       0.08047165 0.06432831 -0.08488546 0.08260213
000120 67 a1 88 3d 6c cb 9a 3d c4 06 52 3d 7b e1 37 bd
       0.0667141 0.07558331 0.051275983 -0.04489277
000130 4e 92 83 bb 00 1c 92 bb e8 b9 2a 3d 8b 78 38 3d
       -0.0040152436 -0.0044589043 0.0416812 0.045036834
000140 db 2b 1a bd 00 43 a1 bc 87 66 21 bd 19 3b 11 3b
       -0.03763948 -0.019685268 -0.03940442 0.002216047

classifier.2.weight f4 [10, 84]
000000 25 bf c8 bd 2a 94 b0 bd 36 fb 8e 3d d2 58 ca bc
       -0.09802083 -0.0862201 0.069815084 -0.024700556
000010 77 b2 8b 3c c4 10 49 bd 32 5b 9f 3b f7 ae 16 3d
       0.017052872 -0.049088255 0.0048631663 0.036787953
000020 97 ab a4 bd 60 04 d4 3d 16 d7 9b bd 3f 92 b4 bc
       -0.08040541 0.10352397 -0.07609384 -0.022042392
000030 c1 67 40 3d 27 89 db bd 16 37 96 3d f1 e4 b0 3d
       0.046973947 -0.10719519 0.073347256 0.08637417
000040 14 7c 20 be 88 f6 91 bc 73 38 ad bd 7a 92 1b 3e
       -0.15672332 -0.01781775 -0.084580325 0.15192595
000050 28 81 dd bd 25 29 13 be 6c 11 a0 bd 28 32 8f 3d
       -0.1081565 -0.14371164 -0.07815823 0.069919884
000060 b9 4c a4 3c aa c3 da bd 43 b8 d9 bc 61 11 94 bd
       0.020056115 -0.10681851 -0.02657712 -0.07229877
000070 74 54 10 3e b1 77 d2 bd aa eb bb 3c e5 c4 83 3d
       0.14094716 -0.102767356 0.022939522 0.06434039
000080 46 13 1a be 0f ba d0 3c 4d 8f 00 bc dd 34 bf 3c
       -0.15046415 0.025479345 -0.007846666 0.023340637
000090 34 22 60 bd f0 38 ee bd 47 de 37 bb 77 51 a7 bc
       -0.05472012 -0.11631954 -0.0028056072 -0.020424588
0000a0 3d cf 06 bd 01 ae 17 3e 97 cd 87 bd 6b 19 a2 bd
       -0.03291248 0.14812471 -0.0663101 -0.07915004
0000b0 ed 44 0e 3d 8f 18 c5 bd 0b 86 c9 3d 20 e7 2a 3e
       0.0347337 -0.09623825 0.0984002 0.1668973
0000c0 a9 5d e4 3d 87 aa a9 3d 1a 77 38 be 36 d7 18 3d
       0.11150677 0.08284479 -0.18014184 0.037314616
0000d0 32 b6 0d be 56 e4 2a bd e0 4c a6 bd d8 64 b0 bd
       -0.13839033 -0.041721664 -0.081201315 -0.086129844
0000e0 a3 d3 98 3d aa fe 97 3d ad 93 27 3d 17 5f 34 3d
       0.074622415 0.0742162 0.04091232 0.044035997
0000f0 92 72 27 3e d2 4f 44 3d 39 c1 82 bd 6b f7 99 3d
       0.16352299 0.047927685 -0.063845105 0.07517894
000100 a3 3d 1c bd 3f a0 18 bc 31 ff 50 3d 1c 6c 43 3c
       -0.03814472 -0.009315549 0.05102462 0.011927631
000110 cf 0e a1 3d 50 56 9d bc ec b0 63 bd fe f3 e7 3c
       0.07864153 -0.019206196 -0.055588648 0.028314587
000120 33 94 c7 3d 94 2f 17 be 54 81 04 be 73 d8 02 3d
       0.09745064 -0.14764243 -0.1293996 0.031944703
000130 ef 91 75 3d 3f 86 a3 3c de e9 01 be f4 40 03 be
       0.059953626 0.019961474 -0.1268687 -0.12817746
000140 81 61 a5 ba c4 90 1d 3d 76 ec 25 be 4e e4 cf 3d
       -0.0012617559 0.038468137 -0.16203484 0.101509675
000150 e1 64 d7 bd e3 f6 0b 3d 9d f9 dc bc 6c d8 cb bd
       -0.10517288 0.034170996 -0.026974494 -0.099533886
000160 af 6d cf 3c 44 d4 de b9 89 cd b5 3d 55 6a 0e 3e
       0.025320856 -0.0004250129 0.08877093 0.1390775
000170 7a 19 32 3e aa 73 e0 3d cf 9f 0e be a8 a2 0e 3e
       0.17392531 0.10959561 -0.1392815 0.13929236
000180 c4 6f 32 3e ed 23 9c bd 4e f0 fd 3d 4c 40 52 be
       0.17425448 -0.0762404 0.1239935 -0.2053234
000190 5b 9b fb bd 72 5e cb 3d 02 64 eb 3d 95 03 62 3c
       -0.12285491 0.099301234 0.11493684 0.013794799
0001a0 6e ca bf bd 3b 31 8e 3b 2c f5 99 3d d2 7e c9 3c
       -0.09364782 0.004339365 0.07517466 0.024596605
0001b0 24 1b 9e 3d 7e 38 3f bd 7a f5 ab 3d 8a c5 3b bd
       0.077200204 -0.046684735 0.0839643 -0.045842685
0001c0 27 83 59 3d 88 06 3b 3d a2 d5 f8 bd 3c 28 b6 3d
       0.053103592 0.045660526 -0.12150122 0.08894393
0001d0 fc 06 ac 3d f2 2d e9 bd 59 28 56 bc 1f 2b bf 3d
       0.0839977 -0.113857165 -0.013071143 0.093343966
0001e0 a1 90 a0 3d 4d 0c d7 3d 83 cc 84 3d 13 ec 24 bd
       0.07840086 0.10500393 0.0648432 -0.0402642
0001f0 0b 02 34 3d 32 a1 bf bd 17 2f 47 ba af f1 76 bd
       0.04394726 -0.093569174 -0.00075982645 -0.06028908
000200 58 08 64 bd 18 66 32 3e 4c 34 b1 bd f2 6d 19 3e
       -0.05567202 0.17421758 -0.08652553 0.14983347
000210 89 1e e0 3d b5 e8 81 3d 54 2f dc 3d 30 b4 e7 bd
       0.10943324 0.063432135 0.107512146 -0.11313665
000220 d5 ea ac 3d dd c1 79 bc db 01 bf bd 21 e2 6c bb
       0.08443228 -0.0152439745 -0.09326526 -0.0036145526
000230 41 e3 b2 3c f9 c0 af bd 85 e9 63 bd bf 2d b7 3d
       0.021836879 -0.085817285 -0.055642623 0.08944272
000240 3c 3f 94 bd 73 35 e0 3d 54 55 b7 bd 55 12 d7 bd
       -0.072386235 0.10947695 -0.08951822 -0.105015434
000250 86 ad ca 3d c7 be c5 3d 18 88 02 3e c0 7b e4 3d
       0.09896378 0.096555285 0.12747228 0.11156416
000260 67 54 09 3e cb 61 80 3d e8 d5 d5 3b f1 28 a9 3c
       0.13411103 0.062686525 0.0065257438 0.020649405
000270 ee 98 67 3d 0b 3f 8f 3d bd 9f 6e bd 7e b6 67 3d
       0.05654233 0.06994446 -0.058257807 0.056570522
000280 bd d3 a5 bd ac 68 c8 bd b5 63 d0 3c 19 6f e0 3d
       -0.080970265 -0.097855896 0.025438169 0.1095869
000290 97 bf 7a 3c b2 98 f2 3d ef 5d b7 bd 33 a0 0a be
       0.015304468 0.118455306 -0.08953463 -0.13537674
0002a0 ae 06 cf bc 50 00 ca bd a6 ab e8 3d 85 89 1c be
       -0.02527174 -0.09863341 0.11360864 -0.15286835
0002b0 bc e4 e7 3d 66 71 de 3d ae af c2 3d f2 77 be 3d
       0.113229245 0.10861473 0.095061645 0.093002215
0002c0 23 50 50 3c 73 28 f3 bb 49 02 00 3e 31 6c 98 bd
       0.012714419 -0.0074205934 0.12500872 -0.07442511
0002d0 77 0a 1a bd fc e3 90 3d 89 16 d2 bd a5 a4 f1 3c
       -0.037607636 0.070747346 -0.102582045 0.029497454
0002e0 23 d8 e9 3d 1a 1a 3a 3d 1d 69 af bd d0 9f c0 bc
       0.11418178 0.04543505 -0.08564971 -0.023513705
0002f0 6e ba 1c be e5 0b 82 3d 93 6c 00 3e b8 ed dc 3d
       -0.15305492 0.06349925 0.12541418 0.10787529
000300 44 92 90 3b c9 34 8a 3d 6d 04 cc 3d ee 3a 2c 3e
       0.0044119675 0.06748349 0.09961782 0.16819355
000310 40 93 c5 3b 82 8d c7 3d b3 45 8a bd 30 c3 0f 3d
       0.0060295165 0.09743787 -0.06751575 0.035098255
000320 83 82 08 be 8a 48 9f bd 19 60 e4 bd 8f 8a 56 bd
       -0.13331036 -0.077775076 -0.11151142 -0.052378234
000330 27 9a ab bc eb 10 a0 bd e2 64 29 be 99 a7 9a 3d
       -0.020947529 -0.07815727 -0.1654239 0.07551498
000340 d9 ae 8b bc 16 61 ef 3c ad 6a 17 3e c4 61 f1 3d
       -0.017051147 0.029221099 0.14786787 0.117862254
000350 b3 cc 03 be 95 22 46 bd 2f 80 5f bd 5b ce 11 3d
       -0.12871055 -0.048372824 -0.054565605 0.035597187
000360 cb 0d 8f 3c 2d 85 1f 3c 85 54 c0 3c 40 39 24 3e
       0.017462632 0.009736341 0.023477802 0.16037464
000370 92 15 39 3d e9 fa a3 3d 11 b1 1a be 0e 90 87 3c
       0.045186587 0.08006842 -0.15106608 0.016548183
000380 3d 80 3e 3d 47 28 9d 3d 15 68 cd bd 63 56 1f bd
       0.046509016 0.07673698 -0.10029618 -0.038900744
000390 e1 04 95 3d 7c cc 11 3d a4 12 12 be 76 92 15 be
       0.07276321 0.035595402 -0.14264923 -0.14606652
0003a0 a6 56 4d bd 1b a0 54 bd 9f 90 df bd 59 0b c1 bd
       -0.050131463 -0.0519105 -0.10916256 -0.094259925
0003b0 5f 72 38 3e 9e 62 20 bd e8 fd 50 3d af 82 bf 3d
       0.18012379 -0.03915655 0.051023394 0.09351098
0003c0 d4 33 f9 3b e5 fb 83 bc 25 d1 f0 3d 10 85 e7 3d
       0.0076050553 -0.016111324 0.11758641 0.113046765
0003d0 a4 a4 8f 3c ae 54 9f bc 0a bd fd 3c 25 16 e1 bc
       0.017534561 -0.019449558 0.03097393 -0.02747638
0003e0 e7 5c cb bd 5f 2d 1f bd dd d5 fd 3d 2f 66 08 be
       -0.09929829 -0.03886163 0.12394307 -0.1332023
0003f0 75 94 b8 3d 99 2f 00 bb d9 7b 27 3c a1 13 ce bd
       0.09012691 -0.001955962 0.010222399 -0.10062338

classifier.2.bias f4 [10]
000000 6b cb 89 bc 1c b5 1a bc c9 83 dc bc e5 f9 ae 3c
       -0.01682063 -0.009442594 -0.026918309 0.021359393
000010 1e 36 fc bc 6e 71 69 3d 95 30 5a 3d d0 1a fb bc
       -0.030787524 0.05699294 0.053268988 -0.030652434
000020 4f 93 86 bd 61 45 64 3d
       -0.06571066 0.055730227
