checkpoints/noise_rate_0.2/models/tsf/epoch189.pth (torch, 250639 bytes, 10 tensors)

feature_extractor.0.weight f4 [6, 1, 5, 5]
00000000: 86ac 143e 1912 3ebd 2397 f0bc 1067 953d
00000010: 66de 5cbe 5123 423e 1220 2f3d bb07 323e
00000020: 16c7 933d a406 713b 3206 e73d 4f2b ca3d
00000030: c938 313e 8f2d 553c 22b5 783d 374d 0bbd
00000040: a5ff 2a3d 21c9 283d 7c1d 773e 20bc 183e
00000050: d1b5 10be babb 3bbe f6bb 92bd 71bd a1bd
00000060: 7c13 76bc d40d e43d 6bb0 8c3e bfcc 483e
00000070: b5d2 64be 9b2f 2e3d 77c1 2e3e 7f8a b83e
00000080: 9f92 4d3e fcf2 81be 7c5d 95be 4a2d fe3c
00000090: df9a b43e 1185 523d b33c 553d de2a 17be
000000a0: 1202 933e af26 6f3d 4ab4 883e a73a 5b3d
000000b0: e2de 9bbd 44a5 123e e2ec 95bc a5fd 3e3e
000000c0: 9230 6b3d d70b b53d e7df 82be d6b8 15be
000000d0: 3fbd 6f3d 0418 16bd f2b8 823e 43bd 163e
000000e0: e442 c13a 0f25 a6bd 8533 713e 6d23 363e
000000f0: f55f 93bd 980a 583e a775 753e 5d8c 9b3e
00000100: c642 15bd 793b 933d b7c4 cc3d 0a5b fb3d
00000110: 3e4b d2bd 5c25 10be 3b03 4f3e 51e8 163d
00000120: bb4b 1b3e fc81 9e3c 07ab 223d 207f 2b3d
00000130: bc92 be3d d2ce e83d 56c1 3cbe dfa1 cf3d
00000140: f6d5 1bbe 4af3 14be 0408 023d 1ef7 fc3b
00000150: 89fa 413e 7125 05be 6b9a 2dbe ddef 4a3e
00000160: 1a76 6b3d 35c5 583e 41e4 853d 9366 f6bd
00000170: 4358 e23d 370e 043e 4883 a2bd d6cf b4bd
00000180: 8630 d53d fdb3 b43d 6d86 3abd 5ea1 6abd
00000190: 7431 783e 0c09 ea3d 166c 833e fdcd 313e
000001a0: 48b7 f9bd 10a0 84bd 44c8 ef3e 1305 973e
000001b0: 73a5 983e 5caf eb3d fc68 963e ad45 0a3f
000001c0: 56f2 013f e065 093d 9490 ec3d f93a c43e
000001d0: 2687 ea3e 9040 b93e 0830 f5bb cdad 20bd
000001e0: 4690 8dbb 4ed8 233e 7639 9c3e fa93 81bc
000001f0: 6281 653e 9730 e4bd 0627 1bbe 884e e63c
00000200: 231a 813e 4e91 9e3e 068f 95bd 4068 2e3e
00000210: 75df c93e 3fa8 d63e 9f26 a83e 4dbc 833e
00000220: 21be 983e fad5 9d3e c700 1f3e 28a9 fb3c
00000230: d0ae 36bc 85db a83d 1fae 3f3d 5a39 943e
00000240: 500b 6a3e 61f3 d3bc 6165 c93d 3c85 073e
00000250: a52e 7a3e 6617 7b3e
0.14518937 -0.046403978 -0.029368943 0.07295048 -0.21569213 0.18958785 0.042755194 0.17385761
0.07215707 0.003677764 0.112804785 0.09871542 0.17306818 0.01301135 0.060719617 -0.034009185
0.041747708 0.041207436 0.24132341 0.14915514 -0.14131857 -0.18333331 -0.07164757 -0.07897461
-0.015019294 0.1113545 0.27478346 0.19609354 -0.22346003 0.04252587 0.17065988 0.36043164
0.20075463 -0.25380695 -0.29172885 0.031027455 0.35274407 0.051396433 0.05205984 -0.14762446
0.28712517 0.0583865 0.2670005 0.053522732 -0.07610871 0.14320856 -0.018301431 0.18651445
0.057419367 0.08840149 -0.2556145 -0.1462129 0.05853009 -0.036643997 0.25531727 0.14720635
0.0014744666 -0.08112537 0.2355481 0.17786951 -0.07196037 0.21097791 0.23970662 0.30380526
-0.036440633 0.07189078 0.09998458 0.12273224 -0.102682576 -0.14076751 0.20216076 0.036842648
0.15165608 0.01934909 0.039713886 0.041869283 0.09305331 0.11367573 -0.18433127 0.10138296
-0.15218338 -0.14545932 0.031745926 0.0077198884 0.18943228 -0.13002564 -0.16953437 0.19818063
0.057485677 0.21168979 0.065376766 -0.12031283 0.11051991 0.12896048 -0.07935196 -0.08828704
0.10409646 0.088233925 -0.045538355 -0.057282798 0.24237615 0.11427507 0.256684 0.17363735
-0.12193161 -0.06475842 0.46832478 0.2949606 0.29813728 0.115080565 0.29376972 0.54012567
0.507604 0.03354442 0.115510136 0.38326243 0.45806235 0.3618207 -0.0074825324 -0.03922825
-0.0043201772 0.16000482 0.3051259 -0.015817631 0.22412637 -0.1114208 -0.15151605 0.028113618
0.25215253 0.30970234 -0.0730267 0.17031956 0.39428297 0.41925237 0.32841966 0.257296
0.29832557 0.30827314 0.1552764 0.030720308 -0.011150077 0.08244995 0.046796914 0.28950006
0.22855878 -0.025872888 0.098337896 0.13234419 0.24431856 0.24520645

feature_extractor.0.bias f4 [6]
00000000: aba1 18bd 6523 773e 20fd a03c aadd ed3c
00000010: 5003 38bd 71ee af3c
-0.037263554 0.24134596 0.01965195 0.029036362 -0.044925034 0.021476002

feature_extractor.3.weight f4 [16, 6, 5, 5]
00000000: 77d6 12bd ee40 eebc cdae 733d b569 c6bc
00000010: f13b 5cbd bdc1 523d bd9d 3f3d c4af 893d
00000020: 1dc8 13bd 1f16 ca3c ffe4 03bd 8275 35bc
00000030: 934f 8cbd 7e68 3dbd fe16 febc cacc 043d
00000040: d91f 9a3c 0546 593c d8b3 8c3d 06da 943d
00000050: baaa 693d a2af a83b 223d 8cbd c46d 533d
00000060: f77c 89bc e503 82bc 976c 48bd f069 db3c
00000070: 427a 2fbd d457 853d 0315 cfbd 8c3c 05bd
00000080: 3717 1a3d 9338 3cbd 4eff 513c f68c 5ebd
00000090: 468c aebc c4ff 263d 9830 283d f714 a7bd
000000a0: 874e 023d 35d7 bd3d cbd4 ce3d 13d5 b5bd
000000b0: 6c9f efbb 5dd3 a2bd fac1 c03d f997 34bc
000000c0: 0f33 163c c303 48bc e671 25bc d917 cb3b
000000d0: 5df0 1f3c ce1a 093d 88ce 663c 3d2a ec3c
000000e0: 480e 75bd f22c 703d f266 893d 8459 913d
000000f0: caaf 8c3d d5af 16bd e7fd 24bd 4c28 463d
00000100: 6d03 89bd 39b9 b43d 387d 95bd e6c1 a2bd
00000110: 788e 523c 97ff 72bd 7385 8fbc 7859 7c3d
00000120: 8719 3c3d d2dc 8f3d 3450 21bc dee2 8bbd
00000130: 16bf 9d3d e7ff c2bc 59ae 20bd 17cb a93c
00000140: 1d4f 5ebd b597 5f3d b4c2 303d 8f2d 99bd
00000150: d0fb 84bd 8b2e 913b 26e4 fb3c b7c3 4bbc
00000160: ebfa 53bd 4764 983b 6907 9abd c328 6bbd
00000170: 47e0 8dbd c5fb 823d 9e23 9c3d 0f35 fbbc
00000180: 6a67 a33b 16ae ee3c a68e 413c dc82 18bd
00000190: 73e6 323d 09a9 c23d e575 493d 4617 b7bb
000001a0: ccd2 b43d f811 983d c0b9 9f3c 784d 223e
000001b0: 97c1 8a3c ebc3 59bd 2cf5 853d 3a19 fcbb
000001c0: 12bc f03d abe1 c9bd 4334 90bc b787 bf3c
000001d0: 51e0 953d 7cae 323d 0464 d4bd 9e72 8abd
000001e0: bfcb b0bd 13d0 8b3c da3a dbbc 8a9d 3ebd
000001f0: f6a0 69bc b31b 883d 1366 fd3d 7ec2 003d
00000200: 3270 f6bc 3360 84bc 104a 04bd 7548 f83d
00000210: 3c84 81bc 501f 763c 29ca 003d 6607 bebc
00000220: 8952 b73d 4ebf af3c 0687 fdbc 0f84 30bd
00000230: 05d2 8d3a b6ce 83bb 32ea d2bd 62da afbd
00000240: a65c aabb 18c3 b53b 75ac fe3c ffbd 8bbd
00000250: 4e1c d7bc 0b7a 26bc ed5f 9bbd b245 a83d
00000260: f438 053d 4e01 ae3d cf40 c63b ffb5 b8bc
00000270: 5aae 7bbd a4d0 4f3a 4760 8e3d 6241 a1bd
00000280: 8d73 f5bc 74c1 633d f416 723d 1591 203d
00000290: e43b 88bc ff15 f9bc 490e 36bd 4ecc 3fbd
000002a0: e419 543d 899b ed3a 49ce 05bd e4ff d23c
000002b0: a15f 4fbd c3b6 033c f2d7 883d 44b8 2f3c
000002c0: c64e a33d aa03 46bd c5f4 ab3c 69a2 86bc
000002d0: 6d24 48bd a4c0 e3bc 1fb3 953d 950c 553d
000002e0: 1d2b 5abd cd91 41bd f856 9ebd 11c4 c83d
000002f0: d67d 4f3c c2c0 bc38 f1dc 98bc f10f 7bbd
00000300: 302c bbbd 1900 b2bc e3d2 bd3d b10c c83c
00000310: 55f4 16bd cec0 06bb 7681 933d a88d ae3d
00000320: dbbe 953d a768 b73c 9acc 793d fa2f 733c
00000330: 1f7f 72bd 0d91 8cbd 5b2c a33d 9ace 4a3b
00000340: edbe 8b3c c1a6 03ba 6a2a 5bbd 8cfb ffbc
00000350: 8443 8c3b 5919 edbc b458 82bd cdee 083c
00000360: e008 9bbb 7f22 bf3b 2f9e 923d d32c 1d3d
00000370: 663a 9cbc fdd8 053e 01dd f03d c2c4 e83c
00000380: 110d 99bc de36 8cbd a573 953d 3b02 3bbc
00000390: 5ecd 76bd 7872 673d 1e78 3d3d aecd 403d
000003a0: c052 4dbc f1c4 23bd 3bee 993c 6520 923d
000003b0: fd92 043c 2b30 02bd eac4 b13d a303 5e3b
000003c0: c62e 743d 6cf4 0f3d 4b4f e33d 4df8 8f3d
000003d0: af78 30bd bf0a 9b3d 8671 c83c 9230 71bd
000003e0: 3b1a febc d981 9ebd 33b2 b5bd 1706 a6bd
000003f0: 2708 933d 1539 113c 0828 aebc 302a 333d
-0.03584906 -0.029083695 0.059492875 -0.024220327 -0.053768102 0.051454294 0.04678129 0.06722978
-0.036079515 0.024668751 -0.03220081 -0.011075379 -0.06851115 -0.04624223 -0.031016823 0.032421865
0.018814014 0.013261323 0.0687024 0.07268147 0.057047583 0.00514789 -0.06847598 0.051618353
-0.01678322 -0.015870998 -0.048931684 0.026783913 -0.042841204 0.065108925 -0.101114295 -0.032528445
0.037619796 -0.04595239 0.012817217 -0.05433365 -0.021307122 0.04077126 0.041061968 -0.081582956
0.03181317 0.09269563 0.10099181 -0.08878531 -0.0073127057 -0.079504706 0.09411998 -0.011022561
0.009167447 -0.012207928 -0.010097956 0.006197911 0.009761897 0.03347283 0.014087327 0.028828735
-0.059828073 0.058636613 0.067090884 0.07097152 0.068694666 -0.03678878 -0.040281203 0.048378274
-0.066901065 0.08824391 -0.07299274 -0.079471394 0.01285135 -0.05932578 -0.017519688 0.06160876
0.045922782 0.0702454 -0.009845782 -0.06830381 0.077024624 -0.023803664 -0.03922877 0.020726724
-0.054274667 0.05458804 0.043154433 -0.07479393 -0.06493342 0.004430597 0.030748438 -0.012436799
-0.051752966 0.004650626 -0.075209446 -0.05741192 -0.06927543 0.063956775 0.07623981 -0.030664949
0.004986693 0.029135745 0.011813795 -0.037234172 0.043676805 0.09504897 0.0491847 -0.005587491
0.08829269 0.07425302 0.019497752 0.15849864 0.016938014 -0.053165358 0.065409034 -0.007693437
0.117546216 -0.09857496 -0.017603045 0.023380144 0.073181756 0.043623433 -0.10370639 -0.06760143
-0.086326115 0.017066991 -0.026761461 -0.04653696 -0.0142595675 0.06645908 0.12372985 0.031435482
-0.030082796 -0.016159153 -0.032297194 0.12123195 -0.015810125 0.015022114 0.031442795 -0.023196887
0.08951289 0.021453526 -0.030948173 -0.04309469 0.0010820037 -0.0040224446 -0.102985755 -0.08586575
-0.005199033 0.0055469386 0.031088093 -0.06823348 -0.026258614 -0.010160933 -0.07586656 0.08216418
0.032525018 0.084963426 0.0060502063 -0.02254772 -0.06144557 0.0007927513 0.06951957 -0.07873799
-0.029962325 0.055604413 0.05910392 0.03920086 -0.01663012 -0.030405996 -0.044447217 -0.0468257
0.051782504 0.0018128018 -0.032667432 0.025756784 -0.05062831 0.008039179 0.06681813 0.010725085
0.07974009 -0.048343338 0.020990739 -0.016434865 -0.048862863 -0.02780182 0.07309555 0.052013952
-0.053263772 -0.047258187 -0.07731432 0.09803022 0.012664279 9.0004425e-05 -0.01866004 -0.0612945
-0.091392875 -0.021728562 0.09268739 0.024420114 -0.036854107 -0.0020561698 0.07202427 0.085231125
0.073117934 0.02238877 0.06098614 0.0148429815 -0.059203263 -0.06863604 0.079674445 0.0030945898
0.017058814 -0.00050221017 -0.053507246 -0.031247877 0.0042805094 -0.02894275 -0.06364575 0.008357716
-0.0047312826 0.0058329697 0.071590774 0.038372826 -0.019070815 0.13071056 0.11760903 0.028414134
-0.018682988 -0.068464026 0.07297448 -0.011414106 -0.060254447 0.05650565 0.04625713 0.04707115
-0.012531936 -0.03998274 0.018790355 0.07135085 0.008091685 -0.031784218 0.086801365 0.003387668
0.05961492 0.03514521 0.11099108 0.070297815 -0.043083843 0.07570409 0.024468195 -0.05888421
-0.031018367 -0.0773961 -0.088718794 -0.0810663 0.07179289 0.008863707 -0.021259323 0.043741405

feature_extractor.3.bias f4 [16]
00000000: 63d5 abbc 0b4f 29bd 12f1 ad3b de76 e53c
00000010: 3691 363d ef37 a1bc f3ba 2c3c 42cd 15bd
00000020: d12c 84bd 74e2 43bd b261 4dbd 7a46 4dbd
00000030: b67f 913c 70b6 cbbc 5bce 8a3d 5e3f aa3d
-0.020975774 -0.041335147 0.005308279 0.028010782 0.044572078 -0.019679992 0.010542619 -0.036572702
-0.064538606 -0.047823384 -0.050141998 -0.05011604 0.017761093 -0.024867266 0.067776404 0.083128676

feature_extractor.7.weight f4 [120, 400]
00000000: 71a8 32bd 9d5f 363c a6f6 fd3c 049d 3fbd
00000010: 4417 9bbc 9ad5 053d 6aa8 17bd 75ee 3f3d
00000020: 3f4d c3bb ac3c 643c d8d8 433d 6a24 f3bc
00000030: d8e0 2f3d 36fd 29bd 4ac3 213d 1226 8eba
00000040: 67d6 253d 19e3 773a 2b94 27bd 1cc3 a33c
00000050: dfaa fe3c cad5 28bc ee83 5ebd 4be9 febb
00000060: bed0 153c 4c67 e23b cd9e 033d fb89 82bb
00000070: 6ccb 183b a538 fd3a 9b39 cf3c b1f8 ce3c
00000080: 88c4 b13c 6e7d bf3b df8e 293c 43ff 173d
00000090: 2f27 6e3c b8c8 1dbd 7ff8 743c 1c3f 603d
000000a0: 9058 59bc af86 fc3c 9e87 4dbd b373 6dbb
000000b0: 4429 bf3c c446 19bd aab9 69bc 50cb 8bbb
000000c0: 6ce7 58bc 04e8 00bd aac0 1f3d adfd 01bb
000000d0: 96c5 96bc d334 c73c 7c3b 173c 0526 78bc
000000e0: 7961 033d f539 92bc b9e5 513d 426a f13c
000000f0: a481 7c3a 6749 873c 44cc efbb 7e19 efbc
00000100: 44f3 bfbc 2d3f 793c f964 ae3c a71a 0abc
00000110: ebae 3abc 04d0 a3bc 29e6 cabc 4791 9fbc
00000120: e5ce 0c3d 9ce2 4cbd a031 933c 2819 e43c
00000130: bd17 27bc 357f d83b c7e5 60bb 9fab 2abd
00000140: 5add 433c 7328 92bc eaf4 b43c e331 cb3b
00000150: 2619 e6bc 7101 6dbd 581d cf3c 0674 403d
00000160: 1faa 003d 1327 bb3c e408 1f3c fac6 bd3c
00000170: 2688 e43c bf2d 79bb c7e1 1ebb 44d5 023c
00000180: 5ed7 e03c cb83 cfbb 60bc 063d 8e47 d93c
00000190: 107b 02bd 471d 3ebd e325 80bc 1068 04bd
000001a0: 3618 653d 8edd c3bc e549 1fbd 6776 8e3c
000001b0: 8434 b93c a22f cc3c 8320 393d 0d04 61bd
000001c0: 089c c13c 5601 a0bc 64c2 343c e9c2 00bd
000001d0: 30ef 573d 540c 19bc ead7 8b3c 30da 37bd
000001e0: de59 943c d66c 15bd a916 073c 097a 3b3d
000001f0: 0f6d 0b3d cea2 d43c 0649 8fbc 301d f83b
00000200: 1315 f53b 935f 69bd ab5b b53c b629 19bd
00000210: 60d1 9a3c 9e85 503d 89b6 8bbc 8c05 4d3c
00000220: 2d47 573d 4b5c 503d 79af 773d cfd9 b8bc
00000230: cd1e 843b f7aa 4cbd f6ac e13a 4928 4ebd
00000240: 8595 c53b 55bb 833c 01f3 44bd 49b4 a7bb
00000250: 76c9 d3bc e296 e93c 9604 05bc 7614 b93c
00000260: 88e8 f1bc 6d13 d13b 3692 033d 7271 3e3b
00000270: 3ae6 16bc 3f64 c3bc 643c a03c 3530 843c
00000280: 30d1 0e3c 8e5b 143d 4b44 54bb f943 7ebc
00000290: 00fc 653c 7a6b f53c b00b 7fbd 770b fdbc
000002a0: e23e e53b b337 203d 5af5 e73c 0c90 1e3c
000002b0: 22ce 5bbd 7ebd 0bbd 9d0a aa3c 6c98 c43b
000002c0: 032a c83c 8964 1e3d 282c d23c f242 b9bc
000002d0: c46a dfbc 4b14 6ebc 8377 5abb 75c0 d7bb
000002e0: 1769 43bc 9026 683a 38a9 033d de69 fbbc
000002f0: 0987 c43c d14f 42bd 89b3 9cba f411 45bd
00000300: 2189 2b3d 51ee 18bd d14f bdbc 9d0e 9d3c
00000310: 7e54 8f3c 7373 183d 1af1 6b3c d022 2bbd
00000320: 91f3 0ebd 0d9d 0b3d 74b7 46bd 0d58 373d
00000330: 5281 08bc 14c4 143c 21fe 0bbb 19db 4bbc
00000340: ad95 46bc 62d9 6f3c c245 0fbc 7ded 0a3c
00000350: 4843 2b3d 0a52 953b 5175 1ebd c46b 19bd
00000360: eebf 043d 9b7e 8e3c 2f80 1d3c 4275 c6bc
00000370: 2a9b 26bd 18ef 313d d068 3fbd c1df c7bc
00000380: 0a90 ab3c ab49 1a3d e257 55bb 6684 1cbd
00000390: 42fb 8d3c c202 873b 70e3 86bb 881b 4fbd
000003a0: 7b58 1d3d 1511 1b3c 65b7 bb3c 4194 913c
000003b0: 5f3a 2c3d 10d9 ccbc a991 56ba 8148 27bd
000003c0: 474e 6abd c9f7 b1bc c581 a53c 8392 febc
000003d0: 276b fb3c b020 f43b 3d00 a0bc edaf d33c
000003e0: 3fc7 0b3d a531 b8bc d224 ee3c ca16 d03c
000003f0: 5b77 133d 6529 04bd e377 563d 6917 603b
-0.04361767 0.011131194 0.0310014 -0.0467806 -0.018931992 0.03267441 -0.037025847 0.04685827
-0.005960136 0.013930481 0.04781422 -0.02968045 0.042939037 -0.041501246 0.039492883 -0.0010845086
0.040487673 0.00094561424 -0.04091279 0.019990496 0.031087337 -0.010304878 -0.054325037 -0.0077792755
0.009144006 0.0069092866 0.032133866 -0.0039837337 0.0023314608 0.001931925 0.025296023 0.02526507
0.021700159 0.00584381 0.0103490045 0.03710867 0.014535709 -0.0385215 0.014951824 0.054747686
-0.013265744 0.03082594 -0.050178163 -0.0036232292 0.023335107 -0.037421003 -0.014265457 -0.00426618
-0.013238769 -0.031471267 0.0390021 -0.001983504 -0.018404763 0.02431718 0.009230491 -0.015145783
0.03207538 -0.017849902 0.05124447 0.029469613 0.0009632355 0.016514493 -0.0073180515 -0.02918696
-0.023431428 0.015212816 0.021288382 -0.008429206 -0.011394243 -0.01999665 -0.024767952 -0.019478453
0.034376998 -0.0500208 0.017967999 0.027844027 -0.010198531 0.006606961 -0.0034316645 -0.041667577
0.01195463 -0.017841553 0.02208944 0.0062010153 -0.028088164 -0.057862703 0.025282547 0.04698565
0.03141224 0.02284578 0.0097067095 0.023166168 0.027896952 -0.0038021652 -0.002424346 0.007985417
0.027446445 -0.0063328496 0.032894492 0.026523378 -0.031855643 -0.04641464 -0.015643066 -0.032325804
0.055931292 -0.023909356 -0.03888883 0.017390443 0.02260805 0.024925057 0.04519702 -0.054935504
0.023633972 -0.019531887 0.011032674 -0.03143588 0.05271834 -0.009341318 0.01707073 -0.044885814
0.018109258 -0.036480747 0.008245149 0.04577068 0.034039553 0.025956538 -0.017490875 0.007571839
0.007479319 -0.056975912 0.022138437 -0.037393294 0.018898666 0.050908677 -0.017054813 0.0125135295
0.052558113 0.050869267 0.06047008 -0.022564797 0.004031992 -0.049967732 0.0017217684 -0.050331388
0.006029787 0.016080538 -0.04808331 -0.005117927 -0.0258529 0.02851433 -0.008118769 0.022592764
-0.029529825 0.0063804896 0.03212186 0.0029059318 -0.009210164 -0.023851512 0.019560046 0.016136268
0.008716866 0.036220126 -0.0032389339 -0.015519136 0.014037132 0.029958475 -0.062267005 -0.030889256
0.0069960216 0.03911562 0.028315235 0.009677898 -0.05366338 -0.03411626 0.020757014 0.0059996154
0.024434095 0.038670097 0.025655821 -0.02261493 -0.02727259 -0.014531205 -0.0033335395 -0.006584222
-0.011926911 0.0008855844 0.0321438 -0.03069013 0.023990171 -0.0474394 -0.0011955361 -0.048112825
0.041878823 -0.03733665 -0.023109348 0.019172007 0.017496344 0.037219476 0.014400745 -0.041781247
-0.03490025 0.034085322 -0.0485148 0.044761706 -0.008331614 0.009079952 -0.002136119 -0.012442374
-0.012120646 0.01463923 -0.008744659 0.008479473 0.04181221 0.004556899 -0.0386861 -0.03745629
0.0324096 0.017394355 0.009613081 -0.024225835 -0.04067532 0.04344091 -0.046730816 -0.024398686
0.020942707 0.03766791 -0.0032553603 -0.038212202 0.017331723 0.004120202 -0.004116468 -0.050563365
0.03841446 0.009464522 0.022914598 0.017770888 0.042047855 -0.025005847 -0.0008185157 -0.04084063
-0.057203557 -0.021724598 0.02020348 -0.031075722 0.030690743 0.0074501857 -0.019531364 0.025840724
0.034125563 -0.02248461 0.029070292 0.025401492 0.036002498 -0.03226604 0.052360427 0.003419364

feature_extractor.7.bias f4 [120]
00000000: c5e9 aa3c f336 113d 0856 b13c 6069 083d
00000010: 1be9 2b3d fda8 f5bc 6dbe 1a3d b505 f8ba
00000020: 303a efbc 3cb5 893b 0fb8 bd3c 3c23 e0bc
00000030: 63fc 15bd 25cc 49bd c5c5 d9bc a301 24bd
00000040: c1e2 f33c 53fe aabc 51d8 33bd c725 e9bc
00000050: c0e4 27bc aca6 fa3c a1eb 113d 7a1c 893c
00000060: 5019 2e3d 09c3 20bd f049 a4bc 6ec7 193d
00000070: da68 82bc ccc9 6d3c 6347 59bc f070 cb3c
00000080: daaf 45bd 56c8 ce3c aad9 e0bc 2f15 ddbc
00000090: d763 183d 3894 cdbc 1970 d43b 8bc7 943a
000000a0: c453 16bd f00b e33c 319d 17bd 8f80 90bc
000000b0: 5c7c 45bd 0ff0 3abc 599c 843c 0b6d 593c
000000c0: e868 bb3c ae39 8cbc a400 9a3c 364d 49bc
000000d0: 65ff 283d 6ebc efbc 1f17 17bb 9c9d b13a
000000e0: 8b88 143d e139 6cbc c726 20bd a445 843c
000000f0: ac6f 443d 90c9 03bd 8213 88bc a839 73bc
00000100: 97c9 0b3d 6a24 df3b 024c 2bbd 1d26 1c3d
00000110: 8d4f 53bc 343a 40bd 9357 413d 474f 2bbc
00000120: bdd5 ae3c a937 0fba f2fa 183d bb4a acbc
00000130: 6882 6ebc 6a56 c0bc 38e5 00bd e4ee 01bd
00000140: 9154 e43c 3a4c 08bd cd7f 023a 8be3 063c
00000150: 8567 573d 65f0 90bc 1822 83bc 6c91 db3c
00000160: 7113 3a3c 76ae c13c f4ae 283d 624f 26bd
00000170: 209b 5a3c bb3b 023b 5298 39bd 9b9a ccbb
00000180: 3444 763c 407b eb3c 25d9 2b3b 0f24 0ebd
00000190: 8dea 4abc 9222 353d 56e6 cd3c 6b5d 14bd
000001a0: da33 5d3c 0653 1fbc 0ac3 3b3c 21a1 023d
000001b0: 9f96 dcbc 22b8 03bb e30f 283d b4a4 e0bb
000001c0: ad4f 483d 0341 4aba d1f0 183c cabb 0cbc
000001d0: da65 ae3c 15eb 77bc d9ff 583d d471 393d
0.020863423 0.035452794 0.021647468 0.03330362 0.041970354 -0.029987806 0.03777926 -0.0018922599
-0.02920255 0.004202513 0.023159055 -0.027360551 -0.036617648 -0.049266953 -0.026583562 -0.040040623
0.02977121 -0.020873224 -0.043907467 -0.028460396 -0.010247409 0.030597053 0.035625104 0.016737211
0.04250461 -0.0392485 -0.020054787 0.037543707 -0.015919138 0.014513444 -0.013261649 0.024834126
-0.04826341 0.025242012 -0.02744754 -0.02698764 0.03720459 -0.02509509 0.0064830896 0.0011350972
-0.03670098 0.027715653 -0.037015144 -0.017639427 -0.0482143 -0.0114097735 0.016187834 0.013270627
0.022877172 -0.017117348 0.018799134 -0.012286475 0.04125919 -0.029264655 -0.0023054553 0.0013551
0.03626303 -0.014418096 -0.03909948 0.016146488 0.04795806 -0.032174647 -0.016610865 -0.014845289
0.034127798 0.006809761 -0.041820534 0.038122285 -0.012897384 -0.046930507 0.047202658 -0.010455913
0.021342153 -0.0005463311 0.037348695 -0.021031728 -0.014557458 -0.023478705 -0.0314686 -0.031721964
0.027872356 -0.03327582 0.000497815 0.008232961 0.05258896 -0.017692754 -0.016007468 0.026802741
0.011357174 0.02364276 0.041182473 -0.04060305 0.013342649 0.0019872028 -0.04531128 -0.0062440163
0.015030909 0.028745294 0.0026221958 -0.034702357 -0.012385023 0.044222422 0.025134247 -0.036221903
0.013501132 -0.009724384 0.011460075 0.031891946 -0.02692729 -0.0020098765 0.041030776 -0.0068555716
0.04890411 -0.0007715376 0.009334759 -0.008589694 0.021288801 -0.0151317315 0.05297837 0.04527457

classifier.0.weight f4 [84, 120]
00000000: 0f48 943c 8461 63bd 1814 b63c 5792 7ebb
00000010: 259d 9cbd ab3c 0e3d 0c60 80bd 9866 41bd
00000020: 8033 95bd 93ae 853d 8aa1 6c3d f8ab 5dbd
00000030: 4c0d 8b3d a83d 8bbd 2ee4 063c 32b4 64bd
00000040: 43f2 843d bc66 17bd b62c 0ebc 607f 223d
00000050: d804 a8bd 3eb2 8c3d b8fb bc3b 0ffc 5ebd
00000060: 0f96 f13a 0d0c 08bd 0923 943c 409d 713d
00000070: 2242 aabd af41 8f3d a084 c9bc 44d7 9c3d
00000080: 6b1e cb3b 4a73 0c3d 86fb 34bd 990a 8d3c
00000090: 67f7 1e3b ef58 a4bc 879e 27bd 498f 0e3b
000000a0: 0838 cbbd 4b17 57bd 3b8e cbbc 6f21 1d3b
000000b0: 5a12 6cbd 95d6 28bd 5fa3 7a3c 610f 9c3b
000000c0: e293 b73c 944b 45bd f425 973d 69b4 bbbc
000000d0: 50a7 b5bd b6af 653d a7b3 dc3b d955 1ebc
000000e0: c12b a8bd 7571 31bd d0b4 563d 8fc2 6bbc
000000f0: 5692 5cbd 03bb 8c3d eafd 96bd 6710 963d
00000100: 22e8 fabc 29d3 1c3d 71f5 383c fa5f d73d
00000110: 5408 ec3c bb6c c9bb f3e0 af3d 0192 93bd
00000120: 6088 8d3c c7ef e93c bd74 57bd e1af 67bd
00000130: 4c01 47bd 1e2c 45bd 6bbe 51bc b373 66bd
00000140: 2962 803d 5f06 08bb 1d83 cc3d 4f46 5f3c
00000150: 040d b73a 4331 023c b944 21bd ae0d 0fbd
00000160: 0197 1d3d 72c7 30bc e7e1 0a3c f67c cbbb
00000170: 21dd c23d cdc5 d5bd b6cc 73bd b4ad 40bd
00000180: 3b00 e5bc fce6 913d 5873 803d d66f 56bd
00000190: 8361 cfbc 164e d03d d000 a0bd f3cd 193c
000001a0: 6894 053d 0344 3a3d c6ba d73d fc5a 733d
000001b0: 016e 3d3c 44f2 b3bd 0bbb 29bd 1743 77bc
000001c0: f226 88bd 5a48 09bd ac3d 663b 31bd 10bd
000001d0: b211 4c3c 0e6d 1a3d 3dbf 873d 52dc 8cbd
000001e0: 3118 a53d eaf4 153d 1d09 ee3b 14a2 d1bc
000001f0: 3c81 e2bc a8e4 883b 0eda 45bc 5736 b1bd
00000200: 8cd6 6e3c 35d7 75bd 4cb9 9dbd 5b2f 5c3d
00000210: d180 87bc 68dc c3bc 701d 4cbc 688e 1ebd
00000220: 1b0c 403d 4349 52bb b0b1 24bd 5dbd a93d
00000230: 3a7e 853d a8dd 883d 1786 b9bd f1e0 983c
00000240: f62c 383b 10c9 9f3d b842 c53c dd92 923c
00000250: b043 773d 2e24 223d 4a61 a8bd 7e1a b2bd
00000260: fb22 52bd e598 a1bc 263e b03c 3168 6a3d
00000270: f31a aabd 2c41 63bc 04c0 91bd 8a60 a13d
00000280: fe7b 763d 087b 563d 49d2 2fbc 5e33 6bbd
00000290: 3a43 3cbd 6d5f 96ba ccbe 2f3a c091 1dbb
000002a0: 12c0 9c3d a25b 42bd ea3e 8f3d 8209 253d
000002b0: d686 94bd a1ae 2bbd 5043 61bd a12d 913a
000002c0: b2ed 453d e8be 523d b370 9fbc 4928 a03d
000002d0: d388 2e3d fb07 503c 2c11 97bd 1215 9ebd
000002e0: c73e 6a3d 8b05 473d 515a 33bd c91c 8bbd
000002f0: 2291 863b 704d aabd 55ff 7a3d f3ec 413d
00000300: 002d cd3c 9776 86bd c334 5dbc 010d 40bd
00000310: bd47 3c3d fb92 b13d ea95 003b 89eb bfbc
00000320: c175 803d 0e8e adbc 9164 2abd b02d 9cbd
00000330: 3edc 493c 5926 933d 7e6a 693d fccc fc3c
00000340: 978a 7d3d 6860 94bd 346b b73d ae0f f5bc
00000350: 25fa b5bd 030f 2b3d 61c9 bd3c 3723 91bc
00000360: 9908 b1bd bbe6 803a d04e 3dbd 9c23 59bd
00000370: f104 a73d a401 2d3d 0eb6 a3bd 5475 20bd
00000380: 209a 33bd a99b a7bd 6423 98bd cb49 b93d
00000390: 7ac1 e63b b8d4 973d 0256 753c 58ce b33d
000003a0: 18da 61bd 8b41 b13c 3b19 3abd 727e 043d
000003b0: 00da 8f3d 1713 8c3d ce5e 7dbd d3b5 4abb
000003c0: f064 303c f1c3 ce3c 05aa 26bd 2771 0f3d
000003d0: f276 92bd 8fe1 19bd 42cc aebc 983c 76bc
000003e0: 9c41 adbd be1d 703d 1afc 01bc 0fdc 303d
000003f0: 67b0 07bb d0f3 a43b c21e aa3d 51f2 8a3d
0.018100766 -0.05551292 0.022226378 -0.003884455 -0.076471604 0.034725826 -0.062683195 -0.04721698
-0.072852135 0.06527438 0.057771243 -0.05411908 0.067896456 -0.06798869 0.008233113 -0.05583591
0.0649152 -0.03696321 -0.008677652 0.039672256 -0.08204049 0.068699345 0.005767312 -0.0544396
0.0018431562 -0.033214618 0.018083112 0.058987856 -0.08313395 0.0699495 -0.024599373 0.07658246
0.0061986945 0.034289636 -0.044185184 0.017216967 0.002425635 -0.020061938 -0.040922668 0.0021752885
-0.099227965 -0.05251245 -0.024848094 0.0023976227 -0.05763469 -0.041220266 0.01529774 0.0047625755
0.022409383 -0.04816778 0.07380286 -0.022913175 -0.08869803 0.056075774 0.0067352834 -0.009664022
-0.082114704 -0.04332109 0.05241853 -0.014389648 -0.053850494 0.06871607 -0.07372649 0.07327347
-0.030628268 0.038287316 0.011288987 0.10516353 0.028812565 -0.006146995 0.085878275 -0.072055824
0.017276943 0.028556718 -0.052601565 -0.056564216 -0.04858522 -0.048137777 -0.012801747 -0.056262683
0.062687226 -0.002075575 0.099859454 0.013627603 0.0013965671 0.007946315 -0.03937218 -0.034925155
0.038474087 -0.010789739 0.008476711 -0.006209965 0.09514833 -0.10438118 -0.0595214 -0.047040656
-0.027954211 0.07124135 0.06272 -0.05235275 -0.025315052 0.10171144 -0.07812655 0.009387481
0.032612234 0.045475017 0.10533671 0.05941294 0.0115618715 -0.08786443 -0.041438144 -0.015091679
-0.06648053 -0.033516265 0.0035131974 -0.035336677 0.012455391 0.03770166 0.06628273 -0.0687796
0.08061255 0.03661052 0.00726427 -0.02558998 -0.027649514 0.0041776486 -0.012075914 -0.08652943
0.014577519 -0.06001969 -0.07701358 0.0537561 -0.016540917 -0.023908809 -0.01245819 -0.038710028
0.046886545 -0.0032087124 -0.04020852 0.08288071 0.065182164 0.066829026 -0.09058779 0.018661948
0.002810297 0.078020215 0.024079666 0.017892295 0.060367286 0.039585285 -0.082216814 -0.08696459
-0.05130289 -0.019726226 0.02151401 0.05722827 -0.083059214 -0.013870519 -0.07116702 0.078797415
0.060176842 0.052363425 -0.010731288 -0.057422034 -0.04596255 -0.0011472531 0.0006704151 -0.0024043173
0.07653822 -0.04745067 0.06994422 0.04029227 -0.072522804 -0.041914586 -0.054995835 0.001107622
0.048322387 0.051451594 -0.019462919 0.07820184 0.042610954 0.012697215 -0.07376322 -0.077188626
0.057188775 0.04858927 -0.043787304 -0.067926 0.0041066566 -0.08315551 0.06127866 0.047345113
0.025045872 -0.06565588 -0.013501349 -0.0468874 0.045966852 0.086706124 0.0019620606 -0.023427742
0.0627246 -0.021185901 -0.041599814 -0.07625902 0.012320576 0.071850486 0.056986324 0.030859463
0.061899748 -0.072449505 0.08955994 -0.029914703 -0.08885602 0.041762363 0.023167314 -0.017716987
-0.08644218 0.0009834388 -0.04621774 -0.053012475 0.081552394 0.042237893 -0.079937086 -0.039174393
-0.043848157 -0.08183987 -0.07428625 0.09047278 0.007042107 0.0741362 0.014974119 0.08779591
-0.05513963 0.021637699 -0.045434218 0.03234715 0.07024002 0.068395786 -0.06185799 -0.003093113
0.010766253 0.025239917 -0.040689487 0.03502002 -0.07151593 -0.037568625 -0.021337632 -0.015029095
-0.084597796 0.058622114 -0.007933641 0.043178614 -0.002070451 0.0050339475 0.08306648 0.067844994

classifier.0.bias f4 [84]
00000000: 59a9 f8bb 36a8 b0bd b425 2b3d 8947 b23d
00000010: 39a3 b53c 63f0 263d 3959 a33d 38d8 5e3d
00000020: 2df2 20bd 5c5c 403d c328 98bd bbd9 bd3d
00000030: b457 7c3d 8c38 47bd 0f56 dfbc 29e1 60bd
00000040: f732 0bbd 7e18 6ebd eca0 a7bd 2421 58bc
00000050: 6ca8 183d 6a57 6a3d 52a2 f4bc 2b7a 8abd
00000060: c6b6 613d 5b7f 963b 1e30 ddba a7d2 413d
00000070: ec1c d6bc 2eb3 313d 3d65 043d 0db2 5fbc
00000080: 6147 4e3b 2173 bdbc 14df 24bd a0ee c5bb
00000090: e09a 99bd 22c3 8fbd 2c77 bb3a 1651 b2bd
000000a0: 942d 0fbc 7eb2 a5bd ccd1 fe3c 3d6d 953c
000000b0: e5e7 2bbd 9e6b 9cb9 fe2c 3d3d 6ad1 9cbd
000000c0: c5a2 9bbd 8098 ba3c aa9e b63c ee97 363d
000000d0: d72b 473c 3b52 bcbd d836 43bd e236 5e3b
000000e0: 10b6 31bd aa73 0bbd 7a9f aa3c 9319 56bd
000000f0: ca98 2d3c d4ce ca3d bd06 b83d 406a 3abc
00000100: 0994 6c3d dc5d 98bd 4aef 563d b3fd 473c
00000110: 44f3 a63d 104a 883d 694a abbd 9c7e b03d
00000120: b3bb 863d 815c a03d 633d 5e3d e636 35bd
00000130: 3314 67bb 0fc2 9cbb 5690 323d 4e5f 313d
00000140: dcc6 1abd 8a80 9cbc bc3d 17bd 40c0 693b
-0.007588547 -0.08625834 0.041784003 0.087050505 0.022172557 0.040756594 0.07976002 0.05440542
-0.039293457 0.04696308 -0.0742965 0.092700444 0.061607078 -0.04863791 -0.027262716 -0.05490223
-0.03398415 -0.058128826 -0.0818499 -0.013191495 0.037269995 0.05721227 -0.029862557 -0.06761583
0.055105947 0.0045928187 -0.0016875302 0.047320034 -0.026136838 0.04338377 0.03232311 -0.01365329
0.003147565 -0.023126187 -0.040251806 -0.006040409 -0.07500243 -0.070196405 0.0014302484 -0.08706872
-0.008738894 -0.08090685 0.031105898 0.018240565 -0.0419692 -0.0002983482 0.046185486 -0.0765713
-0.07599405 0.022777796 0.022292454 0.044578485 0.012156448 -0.09195372 -0.047659725 0.0033907224
-0.04338652 -0.034045853 0.020827997 -0.052270483 0.01059551 0.099027306 0.0898566 -0.011377871
0.057758365 -0.07439777 0.052474298 0.012206483 0.08151868 0.06654751 -0.08363802 0.08617899
0.065787695 0.07830144 0.05425776 -0.04424181 -0.0035259842 -0.004783876 0.04359468 0.04330378
-0.037787303 -0.019104261 -0.03692411 0.0035667568

classifier.2.weight f4 [10, 84]
00000000: 51f7 e6bd 5b2f b2bd 24a5 cb3d aae6 fabc
00000010: 4e2d 3e3c 041e 27bd 2ea5 ee3b 01cb ba3c
00000020: 9451 a6bd 5b39 ca3d 6146 b8bd c826 9abc
00000030: 0fcd 643d 576d e0bd 4f76 d13d d7df de3d
00000040: d5f0 4fbe 8d44 cabc f9fb b8bd ae49 3e3e
00000050: 334a 11be aedc 2dbe 1774 a0bd 8e85 743d
00000060: df1b b03c 0faa f1bd b0ff efbc ad31 88bd
00000070: 798b 253e 9b44 e4bd 3293 ed3c 405d 6a3d
00000080: c15e 3dbe 5f97 e33c 0717 29bc c3b3 ca3c
00000090: a101 7cbd 997c 13be 75d7 84bb 1b8c 07bc
000000a0: ac89 5cbd 98d4 343e e7f2 87bd c22d e5bd
000000b0: 42be b73c 36c7 eabd 7c81 f13d 4734 5c3e
000000c0: d075 1b3e 8b1e bf3d d882 5bbe 3e4f 2d3d
000000d0: 3ce0 29be f09b 3cbd eb73 dabd 15f0 adbd
000000e0: f9b7 8c3d bc72 9e3d 29da 443d fcc3 5c3d
000000f0: a268 473e 368e 6e3d f6d3 b5bd a2b9 a33d
00000100: 2fe9 1bbd ff5e a9bb ad60 483d d273 403c
00000110: cbeb 863d 677f 0ebd a34f 72bd 1919 663c
00000120: 7725 c23d 5c15 25be 4a72 1dbe 9722 003d
00000130: 0fe9 773d 8ed3 c63c 5459 30be c145 0dbe
00000140: 7d48 8bba 1301 153d 2395 48be 5b55 e23d
00000150: 9e37 e8bd bc94 093d 89d4 fbbc ccda bcbd
00000160: 3996 c23c e497 f23c 43d2 ed3d 40bc 293e
00000170: 62c8 543e 7c72 133e 9048 1cbe f088 263e
00000180: 28f3 5d3e b2bf 9bbd 85cf f83d 3c96 86be
00000190: 8dd0 05be ee88 d13d e9c1 ed3d 2058 ab3c
000001a0: d576 ccbd 3f42 0abb be3e ba3d 8a5c ff3c
000001b0: 86b2 b33d 81fb 1bbd 6769 b03d b723 08bd
000001c0: 0d48 4b3d 1c9d 1f3d de99 20be edf8 d53d
000001d0: cc41 e83d 2669 07be a288 68bb 457d e03d
000001e0: 5b06 a23d 202f 0a3e f838 b93d e8e9 36bd
000001f0: cc18 2c3d 67a3 d8bd 484a e9bc fca6 56bd
00000200: 00a0 92bd 9ddd 463e 8a0e dcbd 6d31 263e
00000210: 2c2b de3d 3bb9 a43d 7a87 0f3e e257 eabd
00000220: 685c c83d dea8 f9bc bae5 fdbd 0a8d 9fbc
00000230: 3a5d 0c3d d5ca b9bd 6f70 78bd 0773 c53d
00000240: 3139 91bd 2ece e73d e6be bdbd 4831 08be
00000250: 5d40 ca3d e6b1 d93d a779 0b3e 8d80 053e
00000260: 9f53 313e f107 8c3d bb71 1c3c cfe8 1b3d
00000270: 952a a83d 7139 933d 0a8a 87bd d0b8 763d
00000280: dc95 aebd 2d5b f0bd faed 083d 7707 073e
00000290: 02de 083c 4276 0c3e f0ca b6bd 00d7 27be
000002a0: 1e3a c2bc 0f86 c9bd 3449 133e 7923 39be
000002b0: a0b2 033e 0a61 2c3e b1ea c13d f1cb d63d
000002c0: ad82 d63a 69d2 5abc 2b2a 1e3e f885 b0bd
000002d0: 26b7 00bd 130b 923d c6fe e4bd ae22 4d3d
000002e0: 34c1 293e 5d78 473d 41d4 d5bd 41a1 9ebc
000002f0: 2029 3fbe f605 923d f36e 163e 451b cc3d
00000300: 1b16 ea3b 842d ba3d 4884 f13d 2343 513e
00000310: dd94 1ebc 0654 003e 06a4 c6bd d118 7f3d
00000320: df67 0abe 9c14 e0bd a6e9 00be f006 68bd
00000330: 5155 a0bc b0d0 acbd d892 5abe 2c94 ad3d
00000340: a012 a1bc 65e8 603d 6025 2b3e 2a04 023e
00000350: 3228 3dbe 99ad 93bd eaad 5dbd 1c1e 033d
00000360: aa4b 893c 3516 af3b 7ced c83c 9cbe 593e
00000370: 8fb4 6f3d 8c38 d53d e400 47be 1bd9 5a3a
00000380: 3571 7b3d a485 9b3d 75b4 02be 3339 2fbd
00000390: 28ef cb3d 5618 5c3d 8406 5ebe e83c 1abe
000003a0: b1e7 4cbd 2148 3abd 22dc 12be d1df e3bd
000003b0: c175 603e 12ba 40bd 5796 6a3d b563 f63d
000003c0: f991 f23b 9fb1 54bb 0dab 193e 6f0c 2a3e
000003d0: df47 7f3c e6d0 11bd 3357 033d c09d b0bc
000003e0: 91e6 cebd da44 88bd 0b7f 173e a363 25be
000003f0: 683e d43d 61ea 4fbb 8ccf aa3c 9903 f0bd
-0.112776406 -0.087004386 0.099436074 -0.030627567 0.011607481 -0.04080011 0.0072828745 0.022801878
-0.081210285 0.09874221 -0.08997799 -0.01881732 0.05585962 -0.10958355 0.10227644 0.10882538
-0.20306714 -0.02469089 -0.09032435 0.18582794 -0.14188461 -0.16978714 -0.078346424 0.05969768
0.021497665 -0.11800014 -0.029296726 -0.066501 0.16166486 -0.11145898 0.029000852 0.057217836
-0.18493177 0.02778214 -0.010320432 0.02474392 -0.06152499 -0.14402999 -0.004054005 -0.00827315
-0.05384223 0.17659223 -0.06638127 -0.11190368 0.02242959 -0.11463778 0.11792275 0.21504317
0.1518166 0.093319975 -0.21436632 0.0423119 -0.16589445 -0.04604715 -0.10666641 -0.08493058
0.068710275 0.077367276 0.048059616 0.053897843 0.19473508 0.05824109 -0.08878319 0.07994391
-0.038064178 -0.005168795 0.048920322 0.011746364 0.06587943 -0.03478947 -0.05915798 0.01404407
0.09479802 -0.16121429 -0.15375629 0.031282987 0.060524996 0.024270799 -0.17221576 -0.1379614
-0.0010626462 0.036377978 -0.19588141 0.110514365 -0.11338733 0.03358911 -0.030740993 -0.0922142
0.023753272 0.029613443 0.1161237 0.16575718 0.20779565 0.14399141 -0.15262055 0.16263175
0.21674788 -0.07604922 0.12148956 -0.26286495 -0.13067837 0.102311954 0.11609251 0.020916045
-0.09983603 -0.0021096615 0.090939984 0.031172056 0.08774285 -0.03808165 0.08613854 -0.033237185
0.04962926 0.03896819 -0.15683696 0.104478694 0.11340675 -0.13223705 -0.003548183 0.10961393
0.079113685 0.1349454 0.09044069 -0.044656664 0.042015836 -0.105780415 -0.028477803 -0.052405342
-0.07159424 0.19420476 -0.107449606 0.16229792 0.10848078 0.080431424 0.14016524 -0.114425436
0.0978325 -0.03047603 -0.123973325 -0.019476432 0.034268595 -0.0907189 -0.0606541 0.0964108
-0.070909865 0.113186225 -0.092649266 -0.1330005 0.098755576 0.106296346 0.13620625 0.1303732
0.17317055 0.06837452 0.0095486 0.03806382 0.08211247 0.071886905 -0.06618126 0.060234845
-0.08524677 -0.117361404 0.033430077 0.13186441 0.008353712 0.13716987 -0.08925426 -0.1639061
-0.023709353 -0.09840023 0.14383394 -0.18079938 0.12861109 0.16833892 0.09468592 0.104881175
0.0016365849 -0.01335583 0.15445773 -0.086193025 -0.031424664 0.071310185 -0.11181407 0.0500819
0.16577607 0.04869877 -0.10440875 -0.019364001 -0.18668032 0.07130043 0.14690761 0.09966139
0.0071437485 0.09090713 0.11792809 0.20435767 -0.009679046 0.12532052 -0.09699254 0.062279526
-0.13516186 -0.10941431 -0.1258913 -0.05664724 -0.019571932 -0.084382415 -0.21345079 0.08475527
-0.019662201 0.05490913 0.16713476 0.12696901 -0.18472365 -0.072108455 -0.054120935 0.032011136
0.016759712 0.0053432235 0.024527304 0.21264118 0.058521803 0.10411176 -0.19433933 0.0008348391
0.06138726 0.07593849 -0.12764151 -0.04277916 0.09957725 0.053734146 -0.21682173 -0.15062296
-0.050025646 -0.045478944 -0.14341787 -0.11126674 0.2191992 -0.04705245 0.05727228 0.12030736
0.007402655 -0.0032454503 0.15006657 0.16606306 0.0155811 -0.03559961 0.03206558 -0.021559596
-0.10102571 -0.066537574 0.14794557 -0.1615129 0.103634655 -0.0031725394 0.02085092 -0.11719436

classifier.2.bias f4 [10]
00000000: e103 a3bc 5352 29bc fab9 dabc 08e8 d43c
00000010: 82e7 25bd 1512 7f3d 07d0 6a3d 8189 f7bc
00000020: b172 89bd 1b20 663d
-0.01989931 -0.010334569 -0.026700009 0.025989547 -0.040503986 0.062273104 0.057327297 -0.030216934
-0.06711329 0.056182962
