checkpoints/noise_rate_0.2/models/tsf/epoch120.pth (torch, 250639 bytes, 10 tensors)

feature_extractor.0.weight f4 [6, 1, 5, 5]
00000000: e520 0f3e 8d43 67bd 2e26 03bd a20d 9e3d
00000010: c37d 5abe 2abf 3a3e a0cd f83c aca6 283e
00000020: 85a6 883d 7e3f 74bb ecb2 d63d 45c8 af3d
00000030: e501 233e 0c23 42ba 1324 443d 2f6b e6bc
00000040: 6744 363d a10f 253d b1e0 703e 7e62 0b3e
00000050: bfa6 00be aa9c 27be c7fd 5ebd 4329 95bd
00000060: a63f abbc b0ce c93d 04b6 7d3e 1618 3d3e
00000070: b8a8 5cbe 4b9f 643d f0d0 243e 2e40 ac3e
00000080: 175a 4a3e 9914 6fbe 6b88 8abe 30a7 a43c
00000090: b300 a83e 3c91 403d 67b9 883d 5738 05be
000000a0: 7876 913e 173a 253d a7fc 813e 8518 533d
000000b0: a68a 96bd 2f29 1b3e beed adbc 214c 303e
000000c0: e1b4 3c3d a3df a03d e375 7dbe 1572 15be
000000d0: 0b51 843d e905 2abd 7e2b 7b3e f5c1 183e
000000e0: db23 23bb edd5 b9bd 2099 593e dabb 203e
000000f0: 9a0b a3bd 65b0 4c3e 6abd 613e c96d 903e
00000100: 7c09 41bd 5ce0 563d 770e aa3d 7790 dc3d
00000110: 47d8 d8bd c129 09be 012a 3c3e d81e a63c
00000120: 000d 133e 1674 cd3c d3d9 5c3d e6bc 123d
00000130: deeb aa3d 821a e13d cc21 3bbe e583 d73d
00000140: 3a87 1dbe d323 18be 4271 ea3c c8b6 d7b9
00000150: ec09 343e 9e4f 02be b2e5 2cbe bc21 403e
00000160: 8ffe 1f3d 92b6 443e db02 823d 9b28 00be
00000170: ef59 c43d 08f7 e83d a3f6 acbd 0b2d b8bd
00000180: 1187 c83d 4d81 a23d 5665 48bd 380d 44bd
00000190: b9cc 753e 7de4 c73d 34c8 7c3e 7dfd 2c3e
000001a0: 5c8c f9bd 007a 8bbd 49c0 dd3e 9330 843e
000001b0: 5cbc 8f3e 583f d33d 702f 8b3e 9fed f83e
000001c0: 70f4 ef3e 06b6 603c 641e d53d 09c6 ba3e
000001d0: a44f d63e 4587 ab3e f703 c6bc 5099 54bd
000001e0: 5110 96ba b572 1a3e 2743 993e 0204 eebc
000001f0: 36e5 593e df9a e6bd 79c1 21be 3d62 d03c
00000200: 3f91 743e bbef 983e 45b4 9bbd c8b5 223e
00000210: a62a be3e bfec c33e 682c 9d3e 6df3 793e
00000220: 432a 913e 83a7 8e3e 118f eb3d 5e9f d63b
00000230: 6d3e 98bc 4c75 a03d ed62 063d 28b8 873e
00000240: 24f9 593e a211 ddbc 31dd d53d 6094 083e
00000250: 01fc 6d3e b216 733e
0.13977392 -0.056460906 -0.032018833 0.07717444 -0.21337037 0.18236986 0.030371487 0.1646983
0.06672386 -0.003726929 0.104833454 0.0858312 0.15918691 -0.0007405735 0.047885966 -0.028127281
0.044498827 0.040298108 0.23523213 0.1361179 -0.12563609 -0.16368356 -0.05444124 -0.07283261
-0.020904373 0.09853876 0.24776465 0.1846622 -0.21548736 0.055815976 0.16095328 0.33642715
0.19760929 -0.23347701 -0.27057204 0.020099252 0.32813033 0.047013506 0.06675988 -0.13009773
0.28410697 0.040338602 0.2538807 0.051537056 -0.07350664 0.15152429 -0.021231528 0.17216541
0.046070937 0.07855155 -0.24752001 -0.145943 0.0646077 -0.041509543 0.2452831 0.14917739
-0.0024893198 -0.09074006 0.21249819 0.1569666 -0.07961197 0.19989164 0.22044912 0.2820876
-0.047128186 0.05246006 0.0830354 0.10769742 -0.10588127 -0.13394834 0.18375398 0.02027838
0.14360428 0.025079768 0.05391867 0.03582468 0.08345769 0.10991384 -0.18274611 0.10523204
-0.15383616 -0.14857416 0.028618459 -0.00041144178 0.1758191 -0.12725684 -0.16884497 0.18762869
0.039061125 0.1921027 0.06348201 -0.1251549 0.09587466 0.113752425 -0.0844548 -0.08992966
0.09791387 0.079348184 -0.048924766 -0.04786417 0.24003877 0.097603776 0.24685746 0.16893573
-0.121849746 -0.06810379 0.43310764 0.2581831 0.28073394 0.10314816 0.2718463 0.4861879
0.4686618 0.013715273 0.10406187 0.36479214 0.41857636 0.3350164 -0.024171812 -0.051904023
-0.0011448954 0.1508282 0.29934046 -0.029054645 0.21278843 -0.11260008 -0.1579646 0.025437469
0.23883532 0.298704 -0.07602743 0.15889657 0.37141913 0.3826656 0.30697942 0.24409266
0.28352556 0.27862176 0.11501897 0.00654976 -0.018584454 0.078348726 0.032809187 0.26507688
0.21286446 -0.026985947 0.104425795 0.1333785 0.23240663 0.23739126

feature_extractor.0.bias f4 [6]
00000000: a522 1bbd fc34 753e 8d15 763c aba2 ae3c
00000010: 7916 70bd 6487 f43b
-0.037874836 0.23945993 0.015019787 0.0213178 -0.05861518 0.007462429

feature_extractor.3.weight f4 [16, 6, 5, 5]
00000000: 793d 1bbd b03f fbbc 07bc 6e3d 2499 cabc
00000010: ef6b 62bd 105c 423d bb44 353d ed43 893d
00000020: 6f47 0ebd a871 c53c cb45 fabc f84f 36bc
00000030: f60b 89bd 8302 32bd 43f8 fabc 0b09 0a3d
00000040: 2e5c 983c 3d51 763c 12f3 8f3d 47bc 943d
00000050: 6391 653d a890 bb3b 1b7c 82bd 7b35 5e3d
00000060: 9ca0 98bc 7edd 5bbc 74e7 47bd 69f4 a13c
00000070: ff3f 26bd a7ea 893d 2c15 bbbd 3b45 0abd
00000080: 3510 103d e457 38bd b016 623c 570c 3bbd
00000090: 464f 6ebc 83f8 153d ada5 353d 4932 a4bd
000000a0: c41f 0a3d b57f b63d e9e6 cb3d fc07 a9bd
000000b0: d899 6bbb 8dc3 96bd a035 c43d 307d 2dbc
000000c0: 2129 963c 7c8c 17bc 18c5 12bc 5f5e d83b
000000d0: 4938 673c 65d4 0a3d e9c5 2d3c 36e0 033d
000000e0: e314 6abd d317 743d 803c 873d e562 923d
000000f0: ba67 933d 1b91 2fbd b26e 29bd ae7a 583d
00000100: d81c 88bd 7d8e ae3d 5b2f 8bbd 3110 97bd
00000110: dece 843c 3096 80bd bdfc 5ebc 5d82 823d
00000120: 7d9c 403d d515 8e3d ea6c 60bc 5797 86bd
00000130: 0576 a23d f5d6 a5bc bda2 1cbd ab78 a83c
00000140: d47b 54bd c808 653d c9a1 363d 4569 93bd
00000150: b94f 84bd 4f0c 793b 83c1 063d d20f 0fbc
00000160: 1b6b 43bd 5e6d 5a3b 29d3 92bd 68a2 64bd
00000170: bdec 86bd ca05 853d dfa2 993d c562 cdbc
00000180: 6d36 803b ea53 f53c 2987 523c 08dc 17bd
00000190: 0f77 413d e92b bc3d e185 2f3d a2f7 82bb
000001a0: 4bff 9d3d 1b8e a53d e25f 993c aae6 0f3e
000001b0: 9c2e 7f3c 6ad9 6fbd 4a7c 833d d2ef 3dbc
000001c0: ac0b d73d 26cb c2bd 1fcf 54bc 0289 c73c
000001d0: 2bd2 823d a977 553d 95cb c4bd 4589 8cbd
000001e0: aa41 a6bd f8d1 a63c 4e0f f5bc d574 1fbd
000001f0: 6ea9 a8bc bb6e 793d 920b e83d 0b59 e33c
00000200: bcce 0abd 3c2a edbc 4c8c 04bd 7252 e53d
00000210: f5f9 81bc 5d10 283c 8956 b93c e3a6 aabc
00000220: 55b0 9f3d 4189 a53c 5e98 e3bc c54e 3ebd
00000230: 71a5 37bb 5935 38ba c523 bfbd fd87 aabd
00000240: 5d16 81bc f763 263b 3bbe 043d bdd3 78bd
00000250: b356 ecbc 736b bdbc e985 9bbd c2a8 a33d
00000260: e41d de3c 3695 a83d 6b17 a63a d608 99bc
00000270: 192c 75bd 77ca 72bb 9fc5 8a3d 368e 9cbd
00000280: 6998 dfbc 1a0d 713d 560b 7b3d 4d48 343d
00000290: 7e35 2dbc 61f2 a6bc c13b 1ebd 210b 27bd
000002a0: ddc6 4f3d 8a72 ecb9 6c58 00bd 3563 cd3c
000002b0: 68f9 4bbd 6228 a33b c1ce 8a3d 915e 8c3c
000002c0: e48c a03d 07a2 2dbd 2cd6 7b3c 0873 91bc
000002d0: 869d 20bd 95ac d1bc 87da 8d3d 8658 403d
000002e0: d16e 2cbd f269 36bd c53b 95bd 29f2 cd3d
000002f0: 7bb5 503c d17f e43b 29fa a1bc 75dd 77bd
00000300: 9138 a5bd 3dad 99bc dd23 bf3d e3bc 993c
00000310: ea6a 02bd b4fd 44bb f0b5 9a3d 2fb4 a93d
00000320: 25b0 9f3d c2de e03c 70de 593d d729 d73b
00000330: d05f 65bd e0b0 85bd b239 963d 9349 c63a
00000340: c409 b93c d11e 6ebb 204f 62bd ec98 03bd
00000350: 5a66 4f3c 9572 b2bc 836a 8ebd 391e 393c
00000360: 99b7 b338 8bf8 383b c436 863d 0f5f 283d
00000370: 639f bebc 2071 fc3d 8ffa da3d 71fd 173d
00000380: a880 21bc 6ae1 89bd bab6 903d cd17 6ebc
00000390: baa9 6fbd 01d8 5b3d fe4b 323d 334e 213d
000003a0: 25ff 60bc 9678 0fbd 7423 673c ec43 8c3d
000003b0: 2088 6d3c 4284 f2bc 6f23 af3d b1b3 553b
000003c0: 9aaf 703d f182 0e3d 1560 d93d aabf 8a3d
000003d0: ef8b 1dbd ef99 913d 041f a53c 8856 69bd
000003e0: 1c68 c5bc ed3b 9bbd 07a1 89bd 4fe6 8fbd
000003f0: 53e7 8f3d e52f ffb9 377d 9ebc 971a 663d
-0.03790042 -0.030670017 0.058284786 -0.024731226 -0.055278715 0.04745108 0.044255 0.06702409
-0.034736093 0.024102047 -0.030550858 -0.0111274645 -0.066917345 -0.043459427 -0.030635959 0.03370003
0.018598642 0.015034017 0.07028784 0.072624736 0.056046855 0.0057240315 -0.063713275 0.05425022
-0.018631272 -0.013419507 -0.048804715 0.019769864 -0.040588375 0.067342095 -0.091348976 -0.03375743
0.035171706 -0.045005694 0.013799354 -0.045666065 -0.014545267 0.036613952 0.044347454 -0.08017404
0.0337217 0.08911077 0.09956152 -0.08253476 -0.0035949852 -0.07361517 0.09580541 -0.010588929
0.018330159 -0.009249803 -0.008958124 0.006603047 0.0141125405 0.03389396 0.0106062675 0.032196246
-0.057148825 0.059593033 0.06603336 0.07147769 0.07197519 -0.042862993 -0.041365333 0.05285137
-0.066461265 0.08523271 -0.06796142 -0.07376135 0.016211923 -0.06278646 -0.013610062 0.06372521
0.04702424 0.06937758 -0.013697842 -0.065718345 0.07932667 -0.020244101 -0.038241137 0.020565351
-0.051875904 0.055916578 0.044587884 -0.07197813 -0.064605184 0.0038001721 0.03289939 -0.008731799
-0.047709566 0.0033329348 -0.07169182 -0.055818945 -0.06588123 0.06495245 0.07501768 -0.025071511
0.003912738 0.02994724 0.0128496075 -0.037075073 0.047232684 0.09188063 0.042852286 -0.0039968053
0.07714709 0.08083745 0.018722478 0.14052835 0.015575077 -0.05855695 0.06420191 -0.011592822
0.10500273 -0.09511404 -0.012988835 0.024357323 0.063877426 0.05211607 -0.09609143 -0.068621196
-0.08117993 0.020363793 -0.029914524 -0.03892978 -0.020588603 0.060896616 0.11330332 0.02775242
-0.033888564 -0.028950803 -0.03236036 0.11197366 -0.01586626 0.010257808 0.022624271 -0.02083153
0.077973045 0.02020705 -0.027782615 -0.04646184 -0.0028022195 -0.00070269924 -0.09332994 -0.08326719
-0.015757734 0.0025389174 0.03240798 -0.060748804 -0.028849935 -0.023122525 -0.07593901 0.079911724
0.027113862 0.08231585 0.0012671774 -0.018680971 -0.059856508 -0.0037046948 0.067759745 -0.07644312
-0.027294355 0.058850385 0.061290108 0.044014264 -0.010571836 -0.020379247 -0.038631205 -0.040782098
0.05072676 -0.00045098766 -0.031334326 0.02507172 -0.0497984 0.0049791792 0.067777164 0.017134937
0.07839373 -0.04239085 0.015370887 -0.017755046 -0.039212726 -0.025594989 0.069264464 0.046959423
-0.04209787 -0.04453463 -0.07286791 0.10055954 0.012738581 0.0069732447 -0.019772606 -0.060513932
-0.0806743 -0.018759364 0.09333012 0.018766826 -0.031840242 -0.0030058445 0.07554233 0.082863204
0.07797269 0.02744997 0.05319065 0.006566267 -0.055999577 -0.06527877 0.07335223 0.0015128128
0.022587664 -0.0036334286 -0.05525124 -0.03212826 0.01265868 -0.021783153 -0.06953909 0.01129871
8.569583e-05 0.0028224315 0.065534145 0.04110628 -0.02326936 0.123262644 0.106923215 0.037106935
-0.009857334 -0.067324474 0.07066102 -0.014532042 -0.058511473 0.053672794 0.043529503 0.039381217
-0.013732706 -0.03502711 0.014107574 0.068488926 0.014497787 -0.029604081 0.0855168 0.0032608325
0.058761217 0.034792844 0.10614029 0.06774838 -0.03846353 0.07109439 0.020156391 -0.05696729
-0.024097495 -0.07579789 -0.06720167 -0.0702635 0.070265435 -0.00048673074 -0.019346816 0.0561777

feature_extractor.3.bias f4 [16]
00000000: 8497 a5bc d09a 2ebd 59bb b23b 9e5c 073d
00000010: 240a 483d 943d a0bc 03b0 183c c737 1abd
00000020: 55e6 83bd 07d0 44bd c008 46bd 416c 4dbd
00000030: b742 933c dabe c7bc b1be 883d 1d70 a63d
-0.02021385 -0.04262811 0.0054544625 0.03304731 0.048837796 -0.019560613 0.009319308 -0.03765085
-0.06440417 -0.048049953 -0.04834819 -0.050152067 0.017976148 -0.024382997 0.066769965 0.08126853

feature_extractor.7.weight f4 [120, 400]
00000000: 42e9 2ebd b3f3 3f3c d56f f13c d6cb 41bd
00000010: 35c1 8ebc a09f 0b3d 4196 18bd 9b37 3b3d
00000020: 7cc1 89bb dee4 503c fc80 4a3d f832 0fbd
00000030: 9d7c 2f3d 344f 2cbd db50 223d d953 28ba
00000040: 5f31 2e3d 525a c2ba 05bf 2cbd 240d 973c
00000050: 3cc1 f43c 4e6c 2dbc f50a 57bd 2c4c b1bb
00000060: efb7 233c 3903 2e3c 5fea e33c c07a 05bc
00000070: 8822 333a 3879 8e3a 551a c43c e502 b63c
00000080: 5a0c ba3c a098 cc3b 0ed2 373c 26af 143d
00000090: a697 513c b6a2 1fbd a889 6e3c 75e5 673d
000000a0: 24dc 72bc 6326 fb3c 254b 31bd 10d2 3fbb
000000b0: 84c1 ec3c 4c42 16bd b5f1 5ebc 3967 52bb
000000c0: e5e0 59bc 6f99 edbc f16a 0e3d 7608 18bc
000000d0: 9eab 92bc 91b9 d63c 3a78 223c 0091 81bc
000000e0: 9bfb 053d 7bd8 afbc d84c 523d 188f 143d
000000f0: b85a 9d3b e24a 9f3c c4e0 38bc 3ea0 03bd
00000100: 3e0b c3bc 42f6 623c 7c38 ae3c cfd8 b6bb
00000110: a84a 57bc aa0c 9abc 0780 d1bc a052 a0bc
00000120: da22 093d 5026 49bd 1bbb bf3c 58a3 003d
00000130: 1517 10bc 2e66 01ba 0712 f5bb ddf5 29bd
00000140: 106c 3a3c d0ec 97bc 54d5 b73c e01e 503b
00000150: 0a31 dfbc eafc 67bd 69c0 ee3c de13 473d
00000160: 189f 183d d455 9d3c f831 4c3c ff70 9b3c
00000170: 3694 013d 8cb5 143a fad7 123b f419 4f3c
00000180: 58de cf3c c359 2bbc 0fe0 ee3c 15f5 063d
00000190: 0155 ddbc 19c9 46bd 6446 4abc 3eab e6bc
000001a0: 59b5 5a3d 7510 8cbc 513b 00bd 2abe b53c
000001b0: dcef a03c 9127 ae3c 1dfa 3c3d b0eb 59bd
000001c0: 2f5c db3c f13b 88bc c289 893c d9fc e8bc
000001d0: 2990 583d c6f9 22bc 57bb 303c 68ba 22bd
000001e0: 4a72 993c 2f20 17bd fa8c 723c 14ff 3f3d
000001f0: 579d 1f3d 3b10 cb3c 4a90 acbc b25d cc3b
00000200: f365 083c 3fcd 5ebd a3c3 c63c 792c 20bd
00000210: b7f3 a63c 582d 503d 3849 88bc ab0f 733c
00000220: e946 613d 41a1 4d3d 8377 623d f68a c0bc
00000230: c525 623b ad62 52bd e423 683a 2b5a 55bd
00000240: 5aec 9b3b b1d9 823c 2837 4abd b5ee 42bb
00000250: 7d2c c1bc 297a 113d 5786 35bc 06cd ae3c
00000260: 2980 0fbd 9506 a03b 7250 033d af31 a83b
00000270: 3582 78bc 7767 c3bc 9c6a b63c 7e31 913c
00000280: 2752 3e3c 1487 1f3d 3c5f fbbb fdaf 97bc
00000290: b7f1 553c 808f e33c a74b 76bd a9b1 ebbc
000002a0: cc3f f63b 0815 113d 16d7 d33c fe78 2c3c
000002b0: 6f42 51bd c42b f7bc c049 c03c df6c 013c
000002c0: 2e0f cb3c 5fd0 1a3d f784 d93c ba99 aebc
000002d0: 1c02 e1bc 604d 39bc 9f3a 02bb ae1f bcbb
000002e0: ca2b 34bc 2968 9e3b 787c 083d 5b41 fcbc
000002f0: 662e c13c 2446 40bd e1ad f23a 8511 3dbd
00000300: d37a 373d be0e 22bd b80e c9bc adad b63c
00000310: 63b7 953c 509f 1c3d d4ec 733c 399f 2abd
00000320: 0427 0fbd dfca 0b3d 00f3 46bd 27ab 373d
00000330: 01f3 09bc 15f9 143c d228 0cbb c023 4dbc
00000340: 986b 48bc 1625 703c 8654 0fbc b6f7 093c
00000350: 6834 2b3d b268 933b 318d 1fbd fae8 19bd
00000360: 1482 033d 96c1 8e3c 97c7 1c3c 5fb9 c9bc
00000370: 05a1 26bd 8b3b 313d 5fa9 3fbd cf77 c9bc
00000380: 6b4b a73c 4314 313d 71cf f4bb c71a 23bd
00000390: fd09 943c ace3 9c3b ae27 d4bb ec8a 3bbd
000003a0: 4faf 263d 2495 003c 555d ae3c e6b8 973c
000003b0: 1f7f 203d 7a34 b2bc b458 833a 04ea 1bbd
000003c0: be11 50bd 27a0 b3bc d07c 9e3c 8d2f e5bc
000003d0: 663c 083d fbd7 063c 9952 a2bc ce9f af3c
000003e0: dd1c 093d 8170 b3bc cd0d ea3c dcac fc3c
000003f0: 3c38 2d3d 55c2 e7bc 41f4 543d e989 af3b
-0.04270292 0.011715817 0.029472271 -0.047313534 -0.017426113 0.034087777 -0.03725267 0.045707326
-0.0042039733 0.012749879 0.049439415 -0.034960717 0.04284345 -0.04206772 0.03962789 -0.00064211857
0.042527553 -0.0014827943 -0.042174358 0.018438883 0.029877298 -0.010584904 -0.052500684 -0.0054106917
0.009992584 0.0106208855 0.027821718 -0.008146942 0.00068334537 0.0010869866 0.023938337 0.022218177
0.022710968 0.0062437803 0.0112195145 0.036299847 0.012792503 -0.038973533 0.014559187 0.05661531
-0.014822993 0.030657953 -0.043284554 -0.0029269494 0.02890087 -0.03668432 -0.013607432 -0.0032104983
-0.013298248 -0.029003827 0.034769956 -0.009279361 -0.0179041 0.026211532 0.00991636 -0.015816212
0.032710653 -0.02146553 0.051342815 0.036269277 0.0048020743 0.019444887 -0.011284057 -0.03213524
-0.023809072 0.013852658 0.021267168 -0.005580045 -0.013140358 -0.018804867 -0.025573744 -0.019570649
0.033480503 -0.049108803 0.023404649 0.031405777 -0.008794566 -0.00049361854 -0.0074789557 -0.04149424
0.011378303 -0.018545538 0.02244059 0.0031756684 -0.027245063 -0.056637682 0.029144483 0.04860293
0.0372611 0.019205965 0.012463085 0.01897478 0.031635486 0.00056728045 0.0022406564 0.012640465
0.025374576 -0.010458413 0.029159574 0.032948572 -0.027018072 -0.048531625 -0.012345884 -0.028157827
0.053395603 -0.017097691 -0.03130657 0.022185404 0.019645624 0.021259101 0.046136964 -0.053203285
0.026777355 -0.016630145 0.01678932 -0.02844088 0.052871857 -0.009947246 0.010786853 -0.039728552
0.018731255 -0.036895927 0.014804119 0.04687412 0.03896841 0.024788013 -0.021064896 0.0062367553
0.008325088 -0.054394957 0.024263209 -0.039104912 0.020379884 0.050824493 -0.016636476 0.0148352785
0.054999266 0.05020261 0.055289757 -0.023503762 0.0034507376 -0.051363636 0.0008855446 -0.052087944
0.0047584 0.015972944 -0.049369007 -0.0029744331 -0.023580784 0.03551689 -0.011079392 0.021337997
-0.035034332 0.004883597 0.03205914 0.005132876 -0.0151677625 -0.023853047 0.022267632 0.017723795
0.011616266 0.03894718 -0.007671265 -0.018516535 0.013058118 0.027778387 -0.06013074 -0.028771238
0.0075149294 0.035420448 0.025859397 0.010526894 -0.051088747 -0.030172236 0.023472667 0.007899492
0.024787512 0.037796374 0.02655266 -0.021313537 -0.027466826 -0.011309952 -0.0019871367 -0.005741081
-0.010996768 0.004834194 0.033321828 -0.030792883 0.023581695 -0.04694189 0.0018514955 -0.046159286
0.04479487 -0.03956484 -0.024543151 0.022299612 0.018275922 0.03823787 0.014888007 -0.041655753
-0.034949318 0.03412902 -0.048571587 0.044840958 -0.008419753 0.009092589 -0.0021386635 -0.0125207305
-0.012232684 0.0146572795 -0.008748179 0.008420875 0.041798025 0.0044985646 -0.03895301 -0.0375757
0.032106474 0.017426293 0.00956907 -0.024624525 -0.040680904 0.043269675 -0.046792384 -0.024593262
0.020421704 0.043232214 -0.007471018 -0.03982046 0.018071169 0.004787883 -0.0064744567 -0.045786783
0.04069453 0.007848058 0.021284739 0.018520784 0.039183732 -0.021753538 0.0010020942 -0.03806497
-0.05079817 -0.021926953 0.019346625 -0.027976776 0.033260725 0.008230205 -0.019814776 0.021438506
0.03347479 -0.021904232 0.028571034 0.030844145 0.042289957 -0.028290907 0.05199075 0.0053570163

feature_extractor.7.bias f4 [120]
00000000: 9610 aa3c 6fba 123d c524 a93c 81eb 043d
00000010: 0225 2c3d 9457 00bd ec42 153d f7bb 28ba
00000020: f9ee fabc fa8b 803b a1dd bc3c 0dc1 e3bc
00000030: ccd1 19bd 58f9 49bd 5558 dabc 0bf8 24bd
00000040: 2fae f33c 48e8 afbc 44cf 38bd 231c f0bc
00000050: 3691 31bc 3ece fc3c e748 123d 0d52 873c
00000060: b17c 2c3d 070a 22bd b979 afbc 0e83 143d
00000070: c00b 88bc c8f7 733c 8bff 50bc 8948 cf3c
00000080: 9873 46bd 8b1b bb3c 39e7 e6bc 9241 ebbc
00000090: f23a 1a3d 8dce d2bc 3d66 db3b ac14 8b3a
000000a0: 811c 12bd 7118 e43c 3bdc 13bd 8972 91bc
000000b0: 0ca5 44bd 5a5f 3fbc 12f4 803c 23d5 573c
000000c0: 3eac bf3c e184 8bbc feda 973c a071 49bc
000000d0: adf0 283d 0fd7 efbc 9aca 44bb cc3a 983a
000000e0: 7217 153d ad81 76bc 00a7 1ebd f892 7b3c
000000f0: 58dc 3f3d ae75 0abd 9fcf 87bc aabb 6fbc
00000100: 58d7 0a3d e4ad e03b 7f2b 2ebd 5329 1e3d
00000110: 62ac 5bbc 1861 40bd 65c6 413d 52c9 2dbc
00000120: 99fc b03c a49f 8239 4ca1 143d 93d4 b1bc
00000130: 6aa8 74bc 091e c7bc f7a6 02bd 60ee 01bd
00000140: fe52 e23c 11eb 07bd 682d 06ba 9d78 ea3b
00000150: 4f6c 533d e91f 91bc fc96 84bc 0fa9 cf3c
00000160: 4c01 3a3c 2f9a b63c 0d09 2b3d b313 26bd
00000170: be25 613c 432e ecb9 d9df 38bd e393 c5bb
00000180: d66c 713c c7d8 eb3c 393f 283b d9bb 0abd
00000190: dfe0 5bbc 3269 303d 9ca3 c83c a577 14bd
000001a0: 4259 5a3c 3137 23bc 8aa5 2d3c 76e4 023d
000001b0: baf1 d2bc a448 08bb 978a 243d bfd7 debb
000001c0: 6eac 483d 6fd1 76ba c1a4 093c 9042 0dbc
000001d0: 7ce4 b23c cc14 6ebc f557 563d fbf1 343d
0.020759862 0.03582233 0.020647416 0.032451157 0.04202748 -0.03133352 0.036440775 -0.00064367004
-0.03063153 0.0039229365 0.0230549 -0.027802015 -0.037553594 -0.04931006 -0.026653448 -0.040275615
0.029746143 -0.021473065 -0.04511954 -0.029310292 -0.010837844 0.030860063 0.035714056 0.016518617
0.042111102 -0.039560344 -0.021420347 0.036257796 -0.016607165 0.014890619 -0.012756239 0.025303142
-0.048450083 0.022840282 -0.028186427 -0.02871779 0.03765387 -0.025733257 0.0066955374 0.0010611019
-0.035671715 0.027843686 -0.0360987 -0.01775481 -0.048008963 -0.011680448 0.015741382 0.013173374
0.023397561 -0.017031135 0.01853704 -0.012295157 0.04124515 -0.029277353 -0.0030027987 0.0011614203
0.036399312 -0.015045566 -0.038733482 0.015354864 0.046840996 -0.033803634 -0.016578494 -0.014632145
0.033896774 0.006856667 -0.04252195 0.03861363 -0.0134077985 -0.046967596 0.047308344 -0.0106070805
0.021604823 0.00024914474 0.036286637 -0.021707809 -0.014932731 -0.024306314 -0.03189751 -0.031721473
0.027627464 -0.03318316 -0.00051184604 0.0071554915 0.051616963 -0.017715411 -0.016185276 0.025349168
0.011352848 0.022290317 0.04175668 -0.04054613 0.013741909 -0.00045047895 -0.045135353 -0.0060295924
0.014735421 0.02878989 0.002567245 -0.03387055 -0.013420313 0.043069072 0.024492078 -0.036246914
0.013326945 -0.009961889 0.01059855 0.03195616 -0.02575003 -0.002079525 0.040171232 -0.0068006213
0.048992567 -0.00094153633 0.008401097 -0.008621827 0.021837465 -0.014531326 0.052329976 0.044176083

classifier.0.weight f4 [84, 120]
00000000: 636e 2d3c ceb6 58bd 53ff c83c 593e a0bb
00000010: 02ba 9cbd e0f9 f93c dd0e 7cbd ed53 2bbd
00000020: a117 8abd 1fc5 833d 9b57 5b3d 1cb0 57bd
00000030: 58d8 873d e36b 8bbd 0bd9 063c 4d63 7ebd
00000040: 6b86 723d 0cb3 1dbd 5de5 6bbc 574c 0e3d
00000050: ce5d a9bd 1009 863d 42fe c03b a108 61bd
00000060: f072 f83a 6bc6 21bd 0786 ad3c 3c7e 5d3d
00000070: ab87 a4bd 567c 8f3d fb6b cabc 1937 9b3d
00000080: cedf a83b d8d7 193d e38c 31bd 61e5 8f3c
00000090: 1d01 06bb 8462 9bbc 8480 2ebd b7c4 253b
000000a0: 4f9d bebd 2b5d 57bd c9e5 e1bc fa97 123b
000000b0: cf1d 77bd 5b21 32bd f813 643c 130c 423b
000000c0: 832e 703c a0ea 49bd 6453 973d 127f babc
000000d0: bff2 a3bd 28b8 5c3d 4441 233c 51ff 9cbb
000000e0: 6863 a8bd c571 43bd 2118 483d fdfc 80bc
000000f0: 76aa 65bd a282 8b3d 7e8d 97bd c3e6 8c3d
00000100: e537 fdbc 1a06 1d3d 1e2b 3b3c eeb8 ce3d
00000110: def4 f63c 909d c9bb 5ed9 af3d a7dd 94bd
00000120: 8c9e 6d3c bd89 f13c a56f 58bd 76ac 54bd
00000130: 54a9 39bd 4dc6 43bd 4b14 4cbc bfbf 66bd
00000140: 85cd 893d f385 11bb c53a c13d 3afb 8d3c
00000150: 87a9 9dbb d95b 023c e0aa 2fbd 5dd5 1cbd
00000160: 54f8 183d 4fa2 3ebc 1bda 1c3c b4c2 05bc
00000170: 4fd8 ba3d e66b c9bd 6baf 71bd b944 43bd
00000180: 5631 e9bc 2ae6 923d c6d0 7d3d 4d27 69bd
00000190: 640f e5bc c19f ce3d de28 94bd cd59 1a3c
000001a0: 71e1 113d d147 2e3d 9a64 c53d 92ac 733d
000001b0: f7d7 763c 1dfd b4bd d25a 26bd 0c9e 80bc
000001c0: ba3a 88bd c810 21bd 1751 023c 5202 11bd
000001d0: 382a 663c 485d 173d 7cf4 7b3d 3b33 8fbd
000001e0: a877 a53d ee7c 143d 9ad7 f43b e9e4 d6bc
000001f0: a0cb e2bc acb3 733b e245 3fbc b256 b1bd
00000200: 31ab 6a3c 3c40 76bd 86f4 9dbd f773 5c3d
00000210: 88a9 7fbc 111a c4bc e947 4cbc ca82 1ebd
00000220: 65d4 413d a85c 53bb 9ac6 25bd 71a7 ad3d
00000230: 2f65 873d 04c1 8b3d 46c3 b9bd 65c3 913c
00000240: 9a62 893b 8a71 a03d b631 c93c 5b68 953c
00000250: 059c 733d 2284 223d 71a5 a7bd 5453 b4bd
00000260: 74b5 4ebd b645 a3bc 2ebc b33c 02f4 6a3d
00000270: 8837 a8bd 6779 60bc 7748 92bd 0b48 a13d
00000280: 0d45 6c3d 61c1 563d 13ce 2abc c0da 6bbd
00000290: 8dec 3bbd a493 a0ba 119f 0c3a 5036 e9ba
000002a0: 3307 a03d 0cf0 41bd f8d2 8d3d dd4f 253d
000002b0: 1cd1 92bd 0be6 29bd 5ced 62bd a278 fdb8
000002c0: 622e 463d 2722 543d 2d70 9dbc 1368 a03d
000002d0: acfb 2f3d 502a 6a3c 3a42 97bd fc2f 9ebd
000002e0: f811 693d 754a 473d 5396 33bd 26ea 8bbd
000002f0: d4fa 8b3b 3b85 aabd 0051 7b3d 2c34 443d
00000300: abe5 ce3c ef00 86bd ac22 61bc 077b 3cbd
00000310: 520c 393d eecc b13d f02f 3f3b cc29 c0bc
00000320: a061 803d 45b6 adbc 6094 2dbd ac95 9cbd
00000330: af0a 493c 5356 933d d72c 683d 6ea9 023d
00000340: fc47 803d c915 95bd db20 b63d a64e f4bc
00000350: 4c20 b5bd 961d 293d ac7b b73c 9863 9dbc
00000360: a03e b1bd b305 813a dcfc 3abd 252c 60bd
00000370: 6f3b a73d a04b 2e3d 413d a3bd 89a9 20bd
00000380: 351a 36bd f11e a8bd a4bf 95bd 6086 b93d
00000390: 4cc7 c53b aa75 973d 3841 7a3c d10c b43d
000003a0: b225 62bd 684e bc3c a0fb 39bd 1caa 043d
000003b0: 0a09 903d c03f 8c3d de9b 7bbd b88d 6dbb
000003c0: 07f8 5f3c 53cd d23c 55b2 11bd f6e4 f53c
000003d0: 41a3 92bd a020 0cbd e791 adbc 9d1f 90bc
000003e0: c4b1 95bd eec0 763d 4a8c 69bc 631b 323d
000003f0: 58c6 2fbb da22 a53b c3c2 aa3d 115a 8c3d
0.0105854 -0.05290871 0.02453581 -0.004890245 -0.07652666 0.030514657 -0.061537612 -0.041828085
-0.06742788 0.06434082 0.053550344 -0.052658185 0.06633061 -0.06807687 0.008230458 -0.06210642
0.059210222 -0.03850083 -0.014397946 0.034740772 -0.08269845 0.06544697 0.005889685 -0.05493987
0.0018955152 -0.039495867 0.021182073 0.054075465 -0.08033689 0.07006137 -0.024709692 0.075788684
0.0051536327 0.03755936 -0.04334725 0.017565431 -0.002044744 -0.018967874 -0.04260303 0.0025294253
-0.09307348 -0.052579086 -0.02757539 0.0022368417 -0.060331162 -0.04348884 0.013920777 0.0029609248
0.014659527 -0.04929602 0.073889524 -0.02276567 -0.080052845 0.053886563 0.009964291 -0.0047911783
-0.08222085 -0.04771592 0.048851136 -0.015745634 -0.056070767 0.068120256 -0.07400034 0.06879952
-0.030910442 0.038335897 0.011423854 0.10093866 0.030146059 -0.006152816 0.085863814 -0.07268839
0.014503133 0.029484624 -0.052840848 -0.051922284 -0.0453275 -0.047796536 -0.01245601 -0.056335207
0.06728653 -0.0022205084 0.094350375 0.017331708 -0.004811469 0.0079564685 -0.04288757 -0.038289417
0.0373462 -0.011635377 0.009573485 -0.008164097 0.09123289 -0.09835033 -0.059005182 -0.04767296
-0.028465908 0.071728066 0.06196668 -0.056922246 -0.02796144 0.100890644 -0.07234357 0.009420824
0.03561539 0.04254896 0.09638329 0.059490748 0.0150661385 -0.0883734 -0.040613957 -0.015700363
-0.06651826 -0.039322644 0.007953904 -0.035402603 0.014048152 0.036954194 0.061512455 -0.06992193
0.08079463 0.036251955 0.007471991 -0.0262322 -0.027684987 0.003718595 -0.011674376 -0.08659114
0.014323042 -0.060119852 -0.07712655 0.05382153 -0.015604384 -0.02393821 -0.012468317 -0.03869895
0.047321696 -0.0032251272 -0.040472604 0.084792025 0.06611096 0.06823924 -0.090704486 0.017793367
0.0041926624 0.07834156 0.024559837 0.018238237 0.059474964 0.039676793 -0.08185852 -0.08804956
-0.050466016 -0.019930702 0.021940317 0.05736161 -0.08213717 -0.01370082 -0.07142728 0.07875069
0.05768304 0.052430514 -0.0104251085 -0.057581663 -0.04587989 -0.0012251032 0.0005364279 -0.0017792676
0.07813873 -0.047348067 0.06925005 0.040359367 -0.07168791 -0.04147915 -0.055402145 -0.0001208645
0.048384078 0.051790383 -0.019218529 0.078323506 0.042964622 0.014292315 -0.073856786 -0.07723996
0.056901902 0.048654992 -0.043844532 -0.0683177 0.0042718444 -0.08326193 0.061356544 0.047901317
0.025255999 -0.06543147 -0.013741177 -0.046015766 0.045177765 0.08681665 0.002917286 -0.02345743
0.062686205 -0.021205077 -0.04237783 -0.07645735 0.012270614 0.071941994 0.056683388 0.031899862
0.0626373 -0.07279546 0.088929854 -0.029822659 -0.08844051 0.04128798 0.022397839 -0.019212529
-0.08654523 0.0009843617 -0.0456513 -0.0547296 0.08165633 0.04255259 -0.07970668 -0.03922418
-0.044458587 -0.082090266 -0.07311943 0.09058833 0.006035721 0.073954895 0.015274338 0.08791507
-0.05521173 0.022986606 -0.045405984 0.03238879 0.07032974 0.06848097 -0.061427943 -0.00362478
0.013669974 0.025732672 -0.03557046 0.030016404 -0.071600445 -0.0342108 -0.021187736 -0.0175932
-0.07309297 0.060242586 -0.014254639 0.04348315 -0.0026821103 0.005039555 0.08337929 0.06853116

classifier.0.bias f4 [84]
00000000: 652c 04bc 26d7 b0bd 5f87 303d cc79 ae3d
00000010: dcc3 b13c 0fe0 273d 1c30 a23d 5ac8 5e3d
00000020: e053 25bd 4ccf 423d ff09 9bbd 884a ba3d
00000030: e6fd 7a3d 23e1 45bd c99b dcbc be77 66bd
00000040: a431 13bd aa07 6bbd 9822 acbd 17f7 59bc
00000050: 2457 183d 4f5d 663d 13cc f3bc 0af9 8abd
00000060: 5be8 5c3d 9e9c 533b 0c2f baba 4bc3 403d
00000070: 318e d3bc 72f2 303d f7c3 fe3c 5b79 65bc
00000080: 81ed ce3a 0aa5 c6bc 8da3 24bd 0505 bfbb
00000090: 9aa6 9abd ebc2 91bd 1fe4 193a 3475 b1bd
000000a0: 7597 1ebc 6c3e a7bd 8731 f83c 13eb 893c
000000b0: abc9 2cbd c01d 8aba ee3f 343d 4e11 9ebd
000000c0: c289 9cbd 0a2c b63c be39 c53c 702a 3a3d
000000d0: 03c0 4d3c 3d6d b9bd 17bc 4ebd 0c3c 8a38
000000e0: 572f 34bd abd2 0cbd d5fa a53c e14b 57bd
000000f0: 7bdf 293c a995 c93d 22e5 b33d 0125 3fbc
00000100: 95e0 6c3d 77ed 98bd 278a 503d 8447 3e3c
00000110: d00c a63d 055d 853d fdcd acbd 9c72 ac3d
00000120: 34f5 873d dc5a 9c3d ddf1 5a3d f46a 37bd
00000130: 5893 77bb 3297 9fbb 6abb 2e3d 25ee 353d
00000140: bb32 1bbd 76b7 a2bc 1da9 1bbd 8e07 423b
-0.008067225 -0.08634786 0.04309785 0.08519325 0.021699838 0.040985163 0.079193324 0.05439029
-0.040363193 0.047560975 -0.07570266 0.09096247 0.061277293 -0.04831041 -0.026929753 -0.05626654
-0.035936013 -0.057380356 -0.08405036 -0.01330354 0.03719248 0.05624133 -0.029760396 -0.06785782
0.05393253 0.0032289396 -0.0014204695 0.047061246 -0.025824638 0.043199964 0.031099303 -0.014005984
0.0015787334 -0.024248619 -0.040195037 -0.005829456 -0.07551308 -0.07117256 0.00058704795 -0.08664933
-0.009679665 -0.08166203 0.030297054 0.016835725 -0.042184513 -0.0010537431 0.04400628 -0.07718144
-0.07643463 0.022237796 0.024075385 0.045450628 0.012557986 -0.09054039 -0.050472345 6.5915374e-05
-0.04399046 -0.034380596 0.020261208 -0.0525626 0.010368223 0.098429985 0.08783938 -0.011666537
0.057831366 -0.07467168 0.050913002 0.01161373 0.081079125 0.06511883 -0.08437727 0.084202975
0.06638566 0.076345176 0.053453315 -0.044779733 -0.0037777033 -0.004870319 0.0426592 0.044416565
-0.037890177 -0.019862872 -0.038003076 0.0029606554

classifier.2.weight f4 [10, 84]
00000000: 55af d5bd 0644 b1bd 024c b13d d501 dcbc
00000010: f015 203c 7cb5 3ebd 000d 983b 1af6 e73c
00000020: 6b3f a6bd 1f09 d13d 56cc a4bd cc66 c1bc
00000030: aaef 4a3d bb5f ddbd 27a7 af3d d11e c63d
00000040: d7ad 35be a662 9abc fc7c b3bd c7c0 2a3e
00000050: ce49 fcbd 5bd8 1dbe 2cfd 9cbd 48e0 813d
00000060: 25eb ae3c 9efb e5bd d160 e6bc bf74 8fbd
00000070: 1d51 193e 5903 dabd 6458 d53c 509c 6e3d
00000080: c372 2bbe 8728 db3c e4bb 31bc ab83 b93c
00000090: 7d27 6cbd 6511 06be 4a8f 8cbb 8240 75bc
000000a0: ee04 27bd 5a24 233e ec15 86bd e60b c3bd
000000b0: 9fd5 d53c e86d d9bd 429b d83d 8dec 3d3e
000000c0: 6195 023e a236 b43d ca7f 4bbe d242 163d
000000d0: 5c8a 1abe 95ce 23bd 9d2b bbbd 7d20 b1bd
000000e0: 29ad 913d 5d7b 983d fa3b 393d 3f5e 413d
000000f0: a9ef 313e 5f6e 643d 4316 a1bd 770e a03d
00000100: db1b 1cbd 5d8a 12bc 5513 4c3d 5b94 373c
00000110: 817e 943d 9f00 c3bc ed45 6cbd 05f6 ad3c
00000120: e3b5 be3d 8d13 1ebe 6c4b 0ebe 7f63 fe3c
00000130: d2a7 733d 04df ac3c d261 16be cb27 08be
00000140: 57ad 9fba 1a05 143d 98ee 34be 3190 d93d
00000150: fe30 e0bd f1cb 0b3d 8ff7 c6bc baee c6bd
00000160: 5da4 cb3c 5d62 473c 306c d03d 526c 173e
00000170: ee3b 433e 5412 023e cc30 16be 02f4 1a3e
00000180: cae9 433e d3e2 9bbd 00b0 ff3d cbca 6bbe
00000190: 58d1 01be 004f d33d 61dd ec3d a77d 853c
000001a0: 73b0 c0bd 85fb d539 6b76 a83d aca2 e23c
000001b0: 8125 a33d 75d1 2cbd 5c59 ae3d 4127 28bd
000001c0: 3cef 543d 4f80 293d 5d24 0abe eb03 c53d
000001d0: 8e44 be3d 33d1 fabd f951 f8bb 3222 cc3d
000001e0: db79 a13d a6e0 f13d 24aa 9c3d 9f5b 2bbd
000001f0: 3d33 2b3d aa4a cabd 927b 30bc 1d38 74bd
00000200: 503b 7bbd 67d3 3c3e 0f0b c0bd 6f7c 233e
00000210: 3e5b e43d 40a0 8e3d 0f1c fc3d 702b dfbd
00000220: de77 bf3d d3fc a5bc 61fd dcbd 3263 12bc
00000230: e3b2 d93c 0c30 b5bd c8af 68bd 2c08 be3d
00000240: e50b 8ebd 19c2 e13d bd32 b9bd 5a5c eebd
00000250: dc81 ca3d 62ed cc3d 8c22 033e f870 f33d
00000260: 7ad2 1c3e 42ad 823d c372 0d3c 3fc3 cd3c
00000270: d422 8c3d c1a3 903d e223 80bd 5840 733d
00000280: 7e42 a7bd 927f dabd 6d31 d93c 60c5 f13d
00000290: 0c36 553c 78be 023e 3386 b8bd f33d 19be
000002a0: 9270 c7bc 4bcf c9bd 4556 013e e061 28be
000002b0: af67 f43d 589e 063e 6e46 c13d b230 c63d
000002c0: 3ef6 c83b 6a8b 28bc 4847 0b3e f407 a7bd
000002d0: f5e1 00bd 5d56 913d 8c83 d8bd 87f6 193d
000002e0: e74a 083e 7662 433d 3563 c1bd f299 b2bc
000002f0: 7c37 2ebe e842 823d 5f3c 0a3e 1c86 d83d
00000300: 9850 a73b ff4c 983d c65a d93d cb3c 3c3e
00000310: e331 973a 6d62 e13d b831 a8bd 4150 3a3d
00000320: e62c 0abe 247f b4bd cb46 f3bd cdac 56bd
00000330: 3833 adbc 7c91 a6bd 9202 3ebe f68f 9f3d
00000340: bc68 93bc 6a81 163d 99f9 203e 248a fd3d
00000350: d0f3 19be 6559 76bd 50c5 68bd c938 0f3d
00000360: 4f6c 753c c846 223c 6863 ca3c 2855 3b3e
00000370: 253f 513d aff4 c03d 0317 2cbe 665f 523c
00000380: 5c83 673d 2174 9d3d bf60 ebbd 3d2f 29bd
00000390: 9c06 aa3d 32a2 353d 2aed 2dbe 17b0 17be
000003a0: 442a 4dbd 98cf 43bd 3933 f7bd f1ac cdbd
000003b0: 96f6 453e a992 34bd 2873 5d3d 48a0 d63d
000003c0: c8d0 053c bf44 38bc c69a 043e ab35 093e
000003d0: 1855 883c c8a7 bebc a5cb ef3c 285b d0bc
000003e0: 147d ccbd 45c0 48bd 42d9 0a3e c4f6 12be
000003f0: 5fa9 c63d e4e5 20bb 9959 613c df7b d7bd
-0.104338326 -0.086555526 0.086570755 -0.026856342 0.009770855 -0.046559796 0.0046402216 0.028315593
-0.08117565 0.10206818 -0.080467865 -0.023608588 0.049544968 -0.10809275 0.08576804 0.096738465
-0.17742096 -0.018845867 -0.08764073 0.16675101 -0.123187646 -0.15414564 -0.07665476 0.063416064
0.02135236 -0.11229633 -0.028122338 -0.070046894 0.14972349 -0.1064517 0.026043124 0.05825454
-0.16742997 0.026752723 -0.010848019 0.022645792 -0.057654846 -0.13092573 -0.0042895423 -0.014968993
-0.040776186 0.15931836 -0.0654715 -0.09523754 0.026102839 -0.10616666 0.10576488 0.18547268
0.12752296 0.08799483 -0.19872966 0.03668482 -0.15091842 -0.039991934 -0.09139178 -0.08648775
0.07113106 0.07445405 0.045223214 0.04720902 0.1737658 0.05576932 -0.07865574 0.07815259
-0.038112503 -0.008944121 0.049823124 0.011204804 0.07250691 -0.023804007 -0.057683874 0.021235475
0.09312036 -0.15437146 -0.13895959 0.031053303 0.059486218 0.021102436 -0.14685753 -0.1329643
-0.0012182397 0.036137678 -0.17669141 0.106232055 -0.109468445 0.03413004 -0.024287967 -0.09713502
0.024858648 0.012169448 0.10176885 0.14787415 0.1906583 0.12702304 -0.14667052 0.15132144
0.19132152 -0.07611623 0.12484741 -0.23026578 -0.12677515 0.103178024 0.11565662 0.016295267
-0.09408655 0.00040813923 0.082257114 0.027665459 0.07966138 -0.04219194 0.08513138 -0.04105306
0.051985964 0.04138213 -0.13490434 0.09619888 0.092904195 -0.12246933 -0.0075781313 0.0996746
0.0788457 0.118104264 0.07649639 -0.041835424 0.04179691 -0.09877522 -0.010771649 -0.059623826
-0.06133586 0.18440019 -0.09377109 0.15965436 0.111502156 0.06964159 0.12310039 -0.10896957
0.09349035 -0.020262158 -0.10790516 -0.008934783 0.026574558 -0.08847055 -0.056808263 0.092789024
-0.069358625 0.11023349 -0.09042881 -0.116387084 0.0988805 0.10006215 0.12806147 0.118867815
0.15314665 0.063807026 0.008633318 0.025117515 0.068425804 0.070624836 -0.06256844 0.059387535
-0.08166979 -0.10668863 0.026512826 0.118052244 0.013013374 0.1276797 -0.090099715 -0.14965038
-0.02434567 -0.09853991 0.12630565 -0.16443586 0.119338386 0.13146341 0.094372615 0.09677257
0.00613287 -0.010287145 0.1360141 -0.08155814 -0.03146549 0.070965506 -0.105719656 0.037588622
0.13309823 0.04770132 -0.0944275 -0.021801922 -0.17013353 0.063604176 0.13499592 0.10572454
0.005106043 0.07436561 0.10613017 0.18382566 0.0011535253 0.11005101 -0.08212608 0.045486692
-0.1349369 -0.08813313 -0.11878737 -0.05241089 -0.021142587 -0.08133218 -0.18555668 0.0779113
-0.017994277 0.036744513 0.15720214 0.12379864 -0.15034413 -0.060143847 -0.056828797 0.034966264
0.014979436 0.009904571 0.024705604 0.18294203 0.05108561 0.0942167 -0.16805653 0.012840128
0.05652176 0.076881655 -0.11493062 -0.041304816 0.08302042 0.044344135 -0.16985002 -0.14813267
-0.050089136 -0.0478054 -0.12070317 -0.100427516 0.19332346 -0.04408518 0.0540649 0.1047979
0.008167453 -0.011246859 0.12949666 0.13399379 0.016642138 -0.023273364 0.02927191 -0.025434092
-0.09984794 -0.049011488 0.1355944 -0.14351946 0.09700274 -0.0024551088 0.013754272 -0.105216734

classifier.2.bias f4 [10]
00000000: 59e1 9abc 50f7 24bc 9d32 d4bc 25f9 bd3c
00000010: 1bae 10bd 999c 793d ec04 5d3d cccc f6bc
00000020: 2235 89bd de62 663d
-0.018906282 -0.0100687295 -0.02590304 0.02319009 -0.03532229 0.06094036 0.053959772 -0.030126952
-0.066995874 0.05624663
