checkpoints/noise_rate_0.2/models/est/epoch20.pth (torch, 250639 bytes, 10 tensors)

feature_extractor.0.weight f4 [6, 1, 5, 5]
0	0x3e01ce20	0.12676287
1	0xbd8842e3	-0.06653383
2	0xbcc95d31	-0.02458057
3	0x3dc6872b	0.0969375
4	0xbe46380f	-0.19357322
5	0x3e1bf8bd	0.15231605
6	0xbc03c0b2	-0.008041548
7	0x3e06d171	0.13165833
8	0x3d466ab2	0.048441596
9	0xbc5d37aa	-0.013502041
10	0x3dac8c37	0.08425181
11	0x3d3bb7ed	0.045829702
12	0x3de74e8a	0.11294277
13	0xbd2ded84	-0.04246284
14	0x3c63a62c	0.013894599
15	0xbbc1ea0f	-0.0059177945
16	0x3d4ff413	0.050769877
17	0x3d018609	0.031621967
18	0x3e575e51	0.21032073
19	0x3dc536ea	0.09629615
20	0xbd9997f2	-0.074996844
21	0xbde78cbf	-0.11306142
22	0xbc917647	-0.017756594
23	0xbd85a48d	-0.06525526
24	0xbd222554	-0.03958638
25	0x3d952410	0.07282269
26	0x3e478320	0.19483614
27	0x3e24c7a4	0.16091782
28	0xbe41de3c	-0.18932432
29	0x3dcc6c4f	0.09981596
30	0x3e095e3e	0.13414857
31	0x3e8d7f71	0.27636293
32	0x3e385202	0.18000033
33	0xbe3fdf18	-0.18737447
34	0xbe5c2937	-0.21500097
35	0xbc5f17ae	-0.0136164855
36	0x3e853480	0.26016617
37	0x3c510900	0.012758493
38	0x3db92c8d	0.090417005
39	0xbdcc99cc	-0.09990272
40	0x3e891d98	0.2678039
41	0xbc3cac33	-0.011515665
42	0x3e4e1ce4	0.20128208
43	0x3d01be9c	0.03167592
44	0xbdac2df8	-0.08407205
45	0x3e1e4530	0.1545608
46	0xbd4de59c	-0.0502678
47	0x3de275ee	0.110576496
48	0xbc3964ba	-0.011315519
49	0x3cb2919c	0.021797948
50	0xbe5408a0	-0.20706415
51	0xbde37d4e	-0.11107884
52	0x3dd9153e	0.10599755
53	0xbceaae48	-0.028647557
54	0x3e6e60c7	0.23279105
55	0x3e2576d9	0.16158618
56	0xba8ec426	-0.0010892197
57	0xbdd7cddd	-0.10537312
58	0x3e2a487d	0.16629215
59	0x3dd5fabf	0.10448217
60	0xbddd556b	-0.10807308
61	0x3e249a9b	0.16074602
62	0x3e2e2073	0.17004566
63	0x3e6bf575	0.23042853
64	0xbd99a9a7	-0.07503062
65	0xbb722141	-0.003694609
66	0x3d065781	0.032798294
67	0x3d9950a1	0.07486082
68	0xbde21b6b	-0.11040386
69	0xbdebfe36	-0.11523096
70	0x3e0c358e	0.13692304
71	0xbc606192	-0.013695138
72	0x3e0a60a4	0.13513428
73	0x3d2f741a	0.042835332
74	0x3db6dd4a	0.08928926
75	0x3ceff789	0.029292839
76	0x3d8b7ad7	0.06810539
77	0x3dd1dfd5	0.10247771
78	0xbe30f692	-0.17281559
79	0x3df743c0	0.12073469
80	0xbe15f48d	-0.1464407
81	0xbe187e11	-0.1489184
82	0x3cd84f82	0.0264051
83	0xbbf60d35	-0.0075088986
84	0x3e1c460a	0.15261093
85	0xbdeee859	-0.116654105
86	0xbe2ea05e	-0.17053363
87	0x3e2e7b41	0.17039205
88	0x3c02938f	0.007969751
89	0x3e1d9c8d	0.1539175
90	0x3d84f552	0.06492104
91	0xbe0d7685	-0.13814743
92	0x3d8ddb93	0.06926646
93	0x3daffad2	0.08592762
94	0xbdcb6505	-0.09931377
95	0xbdbda5da	-0.09260149
96	0x3da986ec	0.082776874
97	0x3d7afe7d	0.061277855
98	0xbd6aefd7	-0.057357635
99	0xbd1e4408	-0.0386391
100	0x3e73d075	0.23809989
101	0x3d8fdaa0	0.07024121
102	0x3e6ef87a	0.23336974
103	0x3e2fd0f5	0.17169555
104	0xbdca884f	-0.0988928
105	0xbda0dcfb	-0.07854649
106	0x3eb05af8	0.34444404
107	0x3e26fb15	0.16306718
108	0x3e6f1e1c	0.2335133
109	0x3da47006	0.08029179
110	0x3e4d1d2c	0.2003066
111	0x3eab9a33	0.33516082
112	0x3eb4ae10	0.3528905
113	0xbd293072	-0.041305967
114	0x3d8dde7e	0.06927203
115	0x3e9565a2	0.29179102
116	0x3ea0f90b	0.31440005
117	0x3e860e78	0.26182914
118	0xbd87101f	-0.06594872
119	0xbdc0be2d	-0.09411273
120	0xbc36510e	-0.011127723
121	0x3e130d24	0.14360482
122	0x3e980a2b	0.29695258
123	0xbd5ab352	-0.05339367
124	0x3e2d7ed6	0.16942915
125	0xbddaadfb	-0.106777154
126	0xbe27af84	-0.16375548
127	0x3cf2cf65	0.029639909
128	0x3e68e965	0.22745283
129	0x3e96a30a	0.29421264
130	0xbdcf3308	-0.10117155
131	0x3dd6830f	0.10474216
132	0x3e94bb5f	0.29049203
133	0x3e8efb57	0.27926132
134	0x3e7ab2d8	0.24482286
135	0x3e4047bf	0.18777369
136	0x3e5ad485	0.21370132
137	0x3e3c86d3	0.18410806
138	0x3be9d06a	0.0071354406
139	0xbd725b1b	-0.059168916
140	0xbd3e5c0b	-0.046474498
141	0x3d6502e8	0.055910975
142	0xbc1d3c26	-0.00959686
143	0x3e492de0	0.19646406
144	0x3e24fb7b	0.16111557
145	0xbc639ca9	-0.013892331
146	0x3e07c425	0.13258417
147	0x3e1766da	0.14785329
148	0x3e5b9a2a	0.21445528
149	0x3e5bdaa1	0.21470119

feature_extractor.0.bias f4 [6]
0	0xbd556878	-0.052101582
1	0x3e66f7e5	0.22555502
2	0xbbb8d7bc	-0.005640952
3	0xbb9e3444	-0.004828008
4	0xbdedac32	-0.11605109
5	0xbd7a880e	-0.061164908

feature_extractor.3.weight f4 [16, 6, 5, 5]
0	0xbd354acf	-0.044260796
1	0xbd046b9f	-0.032329198
2	0x3d7a9e5d	0.061186183
3	0xbcb9ffae	-0.022704925
4	0xbd6d12db	-0.05787931
5	0x3d1b1818	0.037864774
6	0x3d10d907	0.035363223
7	0x3d81f0fd	0.06344793
8	0xbd0f92a8	-0.03505197
9	0x3ca91ae7	0.02064271
10	0xbcd8a64d	-0.026446486
11	0xbc393323	-0.011303696
12	0xbd78bab4	-0.06072493
13	0xbd19142e	-0.03737276
14	0xbce617f5	-0.028087595
15	0x3d1750f0	0.036942422
16	0x3ca50b96	0.020147126
17	0x3cb75bac	0.02238258
18	0x3da19b39	0.078909345
19	0x3d9b0848	0.07569939
20	0x3d5e9a6a	0.05434648
21	0x3bafe8bd	0.0053683207
22	0xbd5e5da3	-0.054288518
23	0x3d8065f7	0.06269448
24	0xbcb7a47c	-0.0224173
25	0xbc4e8090	-0.012603894
26	0xbd7d71d8	-0.061876148
27	0x3c12270b	0.008920441
28	0xbd1159c6	-0.035486005
29	0x3d97da48	0.07414681
30	0xbd95d0d3	-0.07315221
31	0xbd30c30a	-0.043154754
32	0x3ceb916f	0.028755872
33	0xbd14b0cc	-0.03630142
34	0x3cb0a2b1	0.021561952
35	0xbcf3eda2	-0.029776398
36	0xbc84d874	-0.016216494
37	0x3cdecaab	0.027196249
38	0x3d701b2f	0.058619674
39	0xbd8eee9b	-0.06979104
40	0x3d1dd8db	0.038536888
41	0x3d8d177e	0.068892464
42	0x3dc0c0ee	0.094117984
43	0xbd78781a	-0.060661413
44	0x3be5717c	0.007002054
45	0xbd872991	-0.06599725
46	0x3da23fbf	0.07922315
47	0xbc8a5f08	-0.016891018
48	0x3d445d71	0.047940675
49	0xbb683414	-0.0035431432
50	0xbc0587d5	-0.008150061
51	0x3c0a4afc	0.008440729
52	0x3cc3d86f	0.023906915
53	0x3d18ee4d	0.037336636
54	0x3c2664ac	0.010155838
55	0x3d0c48c5	0.034249086
56	0xbd6a7dce	-0.057248883
57	0x3d8075ac	0.06272444
58	0x3d87698e	0.0661193
59	0x3d895b62	0.06706883
60	0x3d919b73	0.07109728
61	0xbd54d4e5	-0.051960845
62	0xbd15969b	-0.03652058
63	0x3d7c6263	0.061617266
64	0xbd877e0e	-0.0661584
65	0x3d9d9fad	0.07696471
66	0xbd85ed71	-0.06539429
67	0xbd838062	-0.064209715
68	0x3cf6f114	0.030144252
69	0xbd862e28	-0.06551772
70	0xbc8abf4c	-0.01693692
71	0x3d7df9f5	0.062005956
72	0x3d74919c	0.059709176
73	0x3d8fd9c7	0.070239596
74	0xbcb0d21d	-0.021584565
75	0xbd7da7b3	-0.06192751
76	0x3daeaf50	0.08529532
77	0xbc8112e2	-0.015756074
78	0xbd124d79	-0.035718415
79	0x3ca9fbac	0.02074989
80	0xbd53a0a3	-0.051666867
81	0x3d6a28d0	0.057167828
82	0x3d465fd0	0.048431218
83	0xbd8a3547	-0.06748443
84	0xbd879883	-0.06620886
85	0xbae8b189	-0.0017753105
86	0x3d0fcc80	0.035107136
87	0xbb8039d4	-0.0039131436
88	0xbd2adfe4	-0.041717425
89	0x3b215c6e	0.0024621743
90	0xbd94d602	-0.07267381
91	0xbd644c8c	-0.055737063
92	0xbd64bc8c	-0.055843875
93	0x3d88bcce	0.06676637
94	0x3d940235	0.072269835
95	0xbcc5c4c9	-0.024141686
96	0x3bbfc972	0.0058528716
97	0x3d0f842d	0.035038162
98	0x3c235787	0.009969599
99	0xbd1fd062	-0.03901709
100	0x3d30a37f	0.043124672
101	0x3d92278e	0.07136451
102	0x3d0f7e84	0.035032764
103	0x3bcdd69d	0.0062816874
104	0x3d988380	0.07446957
105	0x3db024c7	0.08600765
106	0xbadc7f8e	-0.0016822682
107	0x3deef198	0.11667174
108	0x3cbcff7d	0.023071045
109	0xbd831728	-0.06400901
110	0x3d736788	0.059424907
111	0xbce3fe4f	-0.027831225
112	0x3db99653	0.09061875
113	0xbd87f46a	-0.06638415
114	0x3b109818	0.0022063311
115	0x3cd31f68	0.025771812
116	0x3d183fc8	0.0371702
117	0x3d931741	0.0718217
118	0xbd606d59	-0.054791782
119	0xbd6b4aba	-0.05744431
120	0xbda00448	-0.078133166
121	0x3bf7fc7a	0.0075679393
122	0xbcdfacb2	-0.027304027
123	0xbbd54bc4	-0.006509276
124	0xbcf76bed	-0.03020283
125	0x3d20c916	0.03925427
126	0x3dca9a2b	0.098926865
127	0x3d186d13	0.037213396
128	0xbce17fcb	-0.027526757
129	0xbd27dcb1	-0.040981952
130	0xbd3d8617	-0.046270456
131	0x3dc71677	0.09721082
132	0xbc23f6d9	-0.010007584
133	0x3c145f00	0.009055853
134	0x3b547667	0.0032419206
135	0xbce459ce	-0.027874853
136	0x3d799627	0.060934212
137	0x3d0e9582	0.03481055
138	0xbc701abd	-0.014654812
139	0xbd5d5db7	-0.05404445
140	0xbcb46454	-0.022020496
141	0x3b5b2e37	0.0033444294
142	0xbd7bf2c4	-0.061510816
143	0xbd85f591	-0.06540979
144	0xbcc311a0	-0.023812115
145	0xbc862190	-0.016373426
146	0x3cd4ed82	0.025992159
147	0xbcf2827b	-0.029603234
148	0xbcc4010d	-0.023926282
149	0xbd2223b2	-0.039584823
150	0xbd94ae71	-0.072598346
151	0x3d9ef72a	0.077619866
152	0x3cb99125	0.022652218
153	0x3d9d63c3	0.07685044
154	0xbc4d6121	-0.012535364
155	0xbc66057e	-0.014039395
156	0xbd84e9dc	-0.06489918
157	0xbc883206	-0.016625416
158	0x3d81200e	0.06304942
159	0xbd9d94e9	-0.07694418
160	0xbcdd1bff	-0.026990889
161	0x3d5a91be	0.053361647
162	0x3d5d00b0	0.053955734
163	0x3d225f48	0.03964165
164	0xbc1183f3	-0.008881557
165	0xbc51f7a5	-0.012815391
166	0xbcc548da	-0.02408259
167	0xbd03516a	-0.032060064
168	0x3d2d1973	0.0422606
169	0xbc5f8f7a	-0.013645047
170	0xbd301fb0	-0.04299897
171	0x3cb19289	0.021676319
172	0xbd4e1fb7	-0.050323214
173	0xbb1c9a53	-0.0023895695
174	0x3d75ec94	0.06004007
175	0x3d037132	0.032090373
176	0x3daa32c4	0.08310464
177	0xbd08fdc0	-0.03344512
178	0x3ca22f09	0.019797819
179	0xbcb0e0ab	-0.021591505
180	0xbd169505	-0.03676321
181	0xbd0021e5	-0.031282324
182	0x3d4a5243	0.049394857
183	0x3d1bfe0d	0.03808408
184	0xbce6c2fb	-0.028169146
185	0xbd5461c6	-0.051851057
186	0xbd8980d0	-0.06714022
187	0x3dc390d0	0.09549105
188	0x3c4ddc91	0.012564794
189	0x3c141173	0.009037363
190	0xbd11b5e3	-0.03557385
191	0xbd48de26	-0.049039982
192	0xbd8a3acc	-0.06749496
193	0xbc9ea508	-0.019365802
194	0x3db13fc1	0.08654738
195	0x3c3b3271	0.0114256
196	0xbcd48fda	-0.0259475
197	0xbbd91ec7	-0.0066259834
198	0x3da77f99	0.08178634
199	0x3db47330	0.08811033
200	0x3db1cb19	0.08681316
201	0x3d0ceb57	0.034404125
202	0x3d442324	0.047885075
203	0xbbb3477d	-0.0054711686
204	0xbd55bc14	-0.05218132
205	0xbd8b47aa	-0.06800778
206	0x3d7da609	0.06192592
207	0xbaf4058b	-0.0018617375
208	0x3d15f50f	0.03661066
209	0x3bc012d0	0.0058616176
210	0xbd924118	-0.07141322
211	0xbd09cf14	-0.03364475
212	0x3cf67605	0.030085573
213	0xbbefad81	-0.0073143844
214	0xbd901d72	-0.07036866
215	0x3cb2e9a9	0.021839933
216	0x3c0dca98	0.008654259
217	0xbb90ed97	-0.004422854
218	0x3d6cdc9b	0.057827573
219	0x3d1690ef	0.036759313
220	0xbccb30ae	-0.024803486
221	0x3dce93a7	0.10086756
222	0x3d99ecfe	0.07515906
223	0x3d1544df	0.036442634
224	0xbb910ea7	-0.0044267955
225	0xbd88c2e4	-0.066777974
226	0x3d866c85	0.06563667
227	0xbcaddaab	-0.021222433
228	0xbd63c18f	-0.055604514
229	0x3d4d4469	0.05011407
230	0x3d07428b	0.033022445
231	0x3ccb481d	0.02481466
232	0xbc6a7d0d	-0.014312041
233	0xbcd7ee4a	-0.026358742
234	0x3c4bfe84	0.012450818
235	0x3d83eb4d	0.064413644
236	0x3c8afe91	0.01696709
237	0xbd0517f2	-0.03249354
238	0x3daedc52	0.085381165
239	0x3b511ee8	0.003190929
240	0x3d83d751	0.06437553
241	0x3ceef7fa	0.029170979
242	0x3db2286d	0.08699117
243	0x3d6a056c	0.057134077
244	0xbd23d7d2	-0.040000744
245	0x3d7f6c67	0.06235924
246	0x3c107b57	0.008818469
247	0xbd7225f2	-0.05911822
248	0xbc8f4eae	-0.017493572
249	0xbd9ad3ef	-0.075599544
250	0xbcee8503	-0.02911616
251	0xbcf987a8	-0.030460194
252	0x3dbb22c8	0.09137493
253	0x3a5bcf5c	0.0008385086
254	0xbc9d4526	-0.019198012
255	0x3d8875e8	0.06663114

feature_extractor.3.bias f4 [16]
0	0xbcb53bcd	-0.022123242
1	0xbd4b3071	-0.049606744
2	0x3c04be8b	0.00810207
3	0x3d1cc75e	0.03827607
4	0x3d7ebcb7	0.06219169
5	0xbcf202d7	-0.02954237
6	0x3972dffe	0.00023162362
7	0xbd2a13a7	-0.04152265
8	0xbd822de5	-0.0635641
9	0xbd5decf5	-0.054181058
10	0xbd521620	-0.05129063
11	0xbd4d2ff3	-0.050094556
12	0x3cfa142e	0.0305272
13	0xbc3587c7	-0.011079735
14	0x3d83107e	0.0639963
15	0x3d95c411	0.07312787

feature_extractor.7.weight f4 [120, 400]
0	0xbd213c2f	-0.039364036
1	0x3c5ee386	0.0136040505
2	0x3d05b5b5	0.032643992
3	0xbd2c6c4f	-0.04209548
4	0xbc6ac771	-0.014329777
5	0x3d13758b	0.03600077
6	0xbd117c22	-0.035518773
7	0x3d3da883	0.046303283
8	0xbb15500e	-0.0022783312
9	0x3c1e2038	0.009651236
10	0x3d3b9cff	0.04580402
11	0xbd272ad8	-0.040812343
12	0x3d355099	0.044266317
13	0xbd482015	-0.04885872
14	0x3cf46923	0.02983529
15	0x3910ce37	0.00013809731
16	0x3d306f13	0.04307468
17	0xbb10a9e4	-0.002207392
18	0xbd4b4609	-0.049627338
19	0x3c592d5a	0.013255442
20	0x3d071e56	0.032987915
21	0xbc102499	-0.008797788
22	0xbd46705d	-0.048447
23	0xbb386d80	-0.002814144
24	0x3bf1b87e	0.0073767295
25	0x3c5d5679	0.013509386
26	0x3ca0d49b	0.019632628
27	0xbc1bd41d	-0.009511021
28	0xbae9f249	-0.0017848696
29	0xbb595a60	-0.003316544
30	0x3cb788dd	0.022404129
31	0x3c76d0a5	0.015064393
32	0x3c95cfe8	0.018287614
33	0xbb44b97a	-0.003001778
34	0x3becd42d	0.0072274418
35	0x3d223631	0.039602462
36	0x3c252e27	0.010081804
37	0xbd43d923	-0.0478145
38	0x3c4217be	0.011846481
39	0x3d67508e	0.056473307
40	0xbbadeb3c	-0.005307583
41	0x3d0e8558	0.034795135
42	0xbd177d4f	-0.036984738
43	0xbbd9a513	-0.006641993
44	0x3d148b53	0.036265682
45	0xbcb12175	-0.021622399
46	0xbb4b0eb1	-0.0030984099
47	0x3bb7b81c	0.0056066643
48	0xbbe4ac59	-0.0069785533
49	0xbc81c6e2	-0.015841905
50	0x3d0e7f1b	0.034789186
51	0xbc163427	-0.0091677075
52	0xbc73a53e	-0.01487094
53	0x3d190105	0.037354488
54	0x3c40616e	0.011741979
55	0xbcb86275	-0.022507885
56	0x3cfbd727	0.030742241
57	0xbcea8f61	-0.028632822
58	0x3d4bd062	0.049759276
59	0x3d31ecca	0.04343871
60	0x3b8b5602	0.0042521963
61	0x3c629a18	0.013830684
62	0xbcab2e44	-0.020896085
63	0xbd1532ba	-0.03642533
64	0xbcefffd6	-0.029296797
65	0x3c921c43	0.017835742
66	0x3cc7102b	0.024299702
67	0xbb76749e	-0.003760613
68	0xbc869f0f	-0.016433267
69	0xbc7ac026	-0.015304601
70	0xbcb64a9b	-0.022252372
71	0xbcc6cfc6	-0.024268996
72	0x3d06699a	0.032815553
73	0xbd3d780c	-0.046257064
74	0x3d0a0596	0.033696733
75	0x3cf32b7f	0.029683826
76	0xbc700ba4	-0.014651213
77	0xbc106fec	-0.008815747
78	0xbc53b594	-0.01292171
79	0xbd2389f1	-0.039926473
80	0x3bda36ee	0.00665938
81	0xbd09a1a5	-0.033601422
82	0x3c1d6dd4	0.009608705
83	0xbc286174	-0.010277141
84	0xbd117aee	-0.035517626
85	0xbd41d006	-0.047317527
86	0x3d27f468	0.04100457
87	0x3d2b1e57	0.04177698
88	0x3d388eb3	0.045057964
89	0x3c81919f	0.015816508
90	0x3cd18e9a	0.025580693
91	0x3cf5cf18	0.030005977
92	0x3d2e7279	0.04258964
93	0x3b1d7112	0.0024023694
94	0x3b0ca75f	0.0021462066
95	0x3d0d0007	0.034423854
96	0x3d131741	0.03591085
97	0xbc871033	-0.016487217
98	0x3d010a8c	0.0315042
99	0x3d496dc2	0.04917694
100	0xbca8e208	-0.020615593
101	0xbd3a989f	-0.045555707
102	0xbb5684f7	-0.0032733062
103	0xbd036bcf	-0.032085236
104	0x3d405d29	0.046963844
105	0xbc38d846	-0.011282032
106	0xbcb6dfa8	-0.022323444
107	0x3d06ad0f	0.032879885
108	0x3c835036	0.016029458
109	0x3c833f87	0.016021503
110	0x3d459c83	0.048244964
111	0xbd36072e	-0.04444044
112	0x3cd0cfa3	0.025489634
113	0xbce05952	-0.027386341
114	0x3cb2b7fb	0.021816244
115	0xbca2be85	-0.019866237
116	0x3d41bf75	0.04730173
117	0xbc4eba23	-0.012617621
118	0x3bda9645	0.0066707456
119	0xbd046066	-0.032318495
120	0x3cde3965	0.027126977
121	0xbd53625d	-0.05160748
122	0x3ccfe65d	0.0253784
123	0x3d32f1f4	0.043687776
124	0x3d2fc255	0.04290994
125	0x3cf01ea9	0.029311495
126	0xbc89aa61	-0.016804876
127	0x3c2ad472	0.0104266275
128	0x3c78c726	0.015184199
129	0xbd3d6dfd	-0.04624747
130	0x3cd2a41c	0.02571302
131	0xbd29bf41	-0.04144216
132	0x3cad47ae	0.021152344
133	0x3d3f8bf8	0.046764344
134	0xbc8a8bd5	-0.01691238
135	0x3c17f73d	0.009275255
136	0x3d48d807	0.049034145
137	0x3d3a4696	0.045477472
138	0x3d316387	0.043307807
139	0xbd06071a	-0.032721616
140	0x3c2e6c9e	0.010646014
141	0xbd2c8c8d	-0.042126227
142	0x3c09e894	0.008417267
143	0xbd589f7f	-0.052886482
144	0x3bfa80b2	0.007644736
145	0x3cc74a54	0.024327435
146	0xbd2ef3af	-0.042712864
147	0xbba4fec2	-0.0050352523
148	0xbcac5492	-0.02103642
149	0x3d323888	0.043510944
150	0xbbcd7c79	-0.006270942
151	0x3cf2ff5d	0.029662782
152	0xbd021ee1	-0.03176773
153	0x3c3a0699	0.011354112
154	0x3d1776b3	0.036978435
155	0x3b33b060	0.002741836
156	0xbc95cabd	-0.01828515
157	0xbcbe38bb	-0.02322041
158	0x3ced937a	0.029000986
159	0x3c8a63aa	0.016893227
160	0x3b91c8c9	0.0044489843
161	0x3d0cc664	0.034368888
162	0xbcb04c83	-0.021520859
163	0xbd08e7ac	-0.033424065
164	0xbb52c8ed	-0.0032163218
165	0x3d0c6f5e	0.034285896
166	0xbd53014b	-0.051514905
167	0xbcfd1fde	-0.030898985
168	0x3c4a74de	0.012356965
169	0x3ce753e2	0.02823824
170	0x3cea36a3	0.028590506
171	0x3c7ca3ec	0.015419941
172	0xbd3df8c2	-0.046379812
173	0xbca26723	-0.01982457
174	0x3cf0ddc2	0.029402617
175	0x3c11dd7e	0.0089029055
176	0x3ce0cfa2	0.027442757
177	0x3d19dce6	0.03756418
178	0x3ceccf4c	0.02890744
179	0xbca93a2a	-0.020657618
180	0xbccd580b	-0.025066396
181	0xbc1d7ba4	-0.009611998
182	0xbab8d8ec	-0.0014102734
183	0xbb6a2610	-0.0035728253
184	0xbc1f5a7c	-0.009726163
185	0x3be1e855	0.006894151
186	0x3cff90d9	0.031196998
187	0xbd067199	-0.03282318
188	0x3cd22d30	0.025656313
189	0xbd4a2aca	-0.049357213
190	0x3b0f43e6	0.002186054
191	0xbd3c9f9e	-0.04605066
192	0x3d45e8a5	0.04831757
193	0xbd2dd008	-0.042434722
194	0xbcdf87cf	-0.027286438
195	0x3cfa9511	0.030588659
196	0x3cc9e6cc	0.024646185
197	0x3d1d2575	0.0383658
198	0x3c61b361	0.013775677
199	0xbd31d253	-0.04341347
200	0xbd0f7c43	-0.035030615
201	0x3d0c1d6c	0.034207746
202	0xbd474b31	-0.048655692
203	0x3d383ce7	0.044979956
204	0xbc0b177e	-0.008489488
205	0x3c158667	0.009126282
206	0xbb0c7a17	-0.0021435076
207	0xbc4e10f1	-0.012577281
208	0xbc48f3e8	-0.012265183
209	0x3c72c497	0.0148173785
210	0xbc0fc5b6	-0.008775165
211	0x3c09d727	0.008413113
212	0x3d2b63ca	0.041843213
213	0x3b93627c	0.0044978242
214	0xbd20a3ad	-0.039218593
215	0xbd1acbce	-0.03779202
216	0x3d02642c	0.031833813
217	0x3c8f088d	0.017460132
218	0x3c1cc63f	0.00956875
219	0xbccc1ab1	-0.024915071
220	0xbd2759a1	-0.04085696
221	0x3d30d33f	0.04317021
222	0xbd4046d5	-0.04694255
223	0xbccbf6ed	-0.024898017
224	0x3ca28c33	0.019842243
225	0x3d342f31	0.043990318
226	0xbc6647cc	-0.014055204
227	0xbd3855f9	-0.045003865
228	0x3c3aa7f5	0.011392583
229	0x3a894f28	0.0010475861
230	0xbbf54f63	-0.0074862703
231	0xbd34355f	-0.04399621
232	0x3d1472ec	0.03624241
233	0x3babc24a	0.005241667
234	0x3c907d48	0.017637864
235	0x3cf542ab	0.029939016
236	0x3d33ce1f	0.043897744
237	0xbc6ae826	-0.014337575
238	0x3b21c9c3	0.002468691
239	0xbd0233f7	-0.03178784
240	0xbd22597e	-0.039636128
241	0xbca2a4b4	-0.019853927
242	0x3c53a79d	0.01291838
243	0xbcf2cd88	-0.02963902
244	0x3d01f779	0.03173015
245	0x3c8cdce8	0.01719518
246	0xbc67d386	-0.014149552
247	0x3cddd91b	0.027081063
248	0x3d271371	0.040790025
249	0xbc88034c	-0.016603135
250	0x3ce7b51a	0.028284598
251	0x3d0e0367	0.034671213
252	0x3d3e1763	0.046409022
253	0xbd1224f9	-0.03567979
254	0x3d2fd5ef	0.042928632
255	0x3b73253a	0.0037101046

feature_extractor.7.bias f4 [120]
0	0x3caf24de	0.021379884
1	0x3d184c9d	0.03718244
2	0x3c97ad5d	0.018515283
3	0x3cffbca1	0.031217875
4	0x3d2cac0f	0.042156275
5	0xbd0b12af	-0.033953365
6	0x3d102e53	0.03520043
7	0x3ad92ce9	0.001656917
8	0xbd0e34c3	-0.034718286
9	0x3ba11f90	0.0049170926
10	0x3cb1ea44	0.021718152
11	0xbce5fe50	-0.028075367
12	0xbd27ab04	-0.040934578
13	0xbd4a6f79	-0.049422715
14	0xbcdb13b8	-0.026742801
15	0xbd2f9dec	-0.042875215
16	0x3cf34c27	0.029699398
17	0xbcb605c4	-0.022219546
18	0xbd2b5d98	-0.041837305
19	0xbcf973b9	-0.030450689
20	0xbc3a09d3	-0.011354881
21	0x3cf07f27	0.029357506
22	0x3d141785	0.036155242
23	0x3c6f1246	0.014591759
24	0x3d1de60a	0.03854946
25	0xbd213e80	-0.039366245
26	0xbca49992	-0.02009276
27	0x3d0e9770	0.03481239
28	0xbca441d9	-0.02005093
29	0x3c5e407c	0.013565179
30	0xbc47f9b6	-0.012205532
31	0x3cdeb6c3	0.027186757
32	0xbd496547	-0.04916885
33	0x3c988458	0.018617794
34	0xbce925c8	-0.028460398
35	0xbcf5b0fa	-0.029991616
36	0x3d1f9397	0.038959112
37	0xbcb353e7	-0.021890594
38	0x3be623a4	0.0070232917
39	0x3a90b77a	0.0011041008
40	0xbd10f8cf	-0.035393532
41	0x3ce4cdd7	0.027930183
42	0xbd06dd5f	-0.03292596
43	0xbc9328c9	-0.017963784
44	0xbd41f7f0	-0.047355592
45	0xbc41573d	-0.011800584
46	0x3c656223	0.014000448
47	0x3c680814	0.014162082
48	0x3cc4e057	0.024032755
49	0xbc8c542a	-0.017129976
50	0x3c973b9d	0.018461043
51	0xbc48fada	-0.012266839
52	0x3d32652e	0.043553524
53	0xbcde0704	-0.027102955
54	0xbbc602ca	-0.006042813
55	0xba85da8b	-0.0010212226
56	0x3d169991	0.036767546
57	0xbc85176d	-0.016246522
58	0xbd1393ab	-0.0360295
59	0x3c62dbfe	0.013846396
60	0x3d287435	0.04112645
61	0xbd1cbeee	-0.038268022
62	0xbc87e700	-0.016589642
63	0xbc69dd6b	-0.014273982
64	0x3d09e184	0.033662334
65	0x3be19156	0.0068837805
66	0xbd3627cf	-0.04447156
67	0x3d2c384b	0.042045873
68	0xbc5f23b3	-0.013619351
69	0xbd4056ca	-0.04695777
70	0x3d428835	0.04749318
71	0xbc354e18	-0.011065982
72	0x3ca5935f	0.020211874
73	0x3b4b8142	0.0031052385
74	0x3d0f8654	0.035040215
75	0xbcaa5a50	-0.020795017
76	0xbc95f50a	-0.01830532
77	0xbccecd19	-0.025244283
78	0xbd035b22	-0.032069333
79	0xbd014ebc	-0.031569228
80	0x3cfcd975	0.03086541
81	0xbd07c6d4	-0.0331486
82	0xbb0b012e	-0.002121042
83	0x3bd08254	0.0063631926
84	0x3d48e41c	0.049045667
85	0xbc917502	-0.017755989
86	0xbc9a6d7a	-0.01885103
87	0x3c9b6783	0.018970257
88	0x3c45bd17	0.012069008
89	0x3c94761e	0.018122729
90	0x3d27c3a4	0.04095806
91	0xbd1e7369	-0.038684282
92	0x3c5e5e70	0.01357232
93	0xbb883753	-0.004156986
94	0xbd37e6e9	-0.044897947
95	0xbb975bc6	-0.0046190945
96	0x3c5a3707	0.013318784
97	0x3ced9e35	0.029006103
98	0x3b15ff8e	0.0022887918
99	0xbd01121f	-0.031511422
100	0xbc5ad371	-0.013356076
101	0x3d1606ce	0.036627583
102	0x3cb2ca79	0.021825062
103	0xbd149cb7	-0.036282267
104	0x3c45ca4c	0.012072157
105	0xbc22b954	-0.009931881
106	0x3bed005a	0.007232708
107	0x3d032c21	0.032024506
108	0xbcbd9706	-0.023143303
109	0xbb3d9b5d	-0.0028931715
110	0x3d1f3f9e	0.03887903
111	0xbbe55fb4	-0.006999934
112	0x3d490a8d	0.049082328
113	0xbaf9a52a	-0.0019046415
114	0x3be23dd5	0.0069043436
115	0xbc0bf5bb	-0.008542473
116	0x3ca7d416	0.020486873
117	0xbc75effe	-0.015010832
118	0x3d52f118	0.051499456
119	0x3d33ce90	0.043898165

classifier.0.weight f4 [84, 120]
0	0x3b9b819e	0.004745676
1	0xbd4381a5	-0.04773106
2	0x3cea26fd	0.028583044
3	0xbc57885a	-0.013155067
4	0xbd9d1059	-0.07669134
5	0x3c368bb3	0.011141705
6	0xbd84222b	-0.064518295
7	0xbcfdf2a1	-0.030999484
8	0xbd884f0b	-0.06655701
9	0x3d9233fd	0.07138822
10	0x3d1595a4	0.03651966
11	0xbd5695a6	-0.05238881
12	0x3d71f294	0.05906923
13	0xbd8bbe79	-0.06823439
14	0x3c07294f	0.008249595
15	0xbd94322c	-0.07236132
16	0x3d50f831	0.051017944
17	0xbd4a82ca	-0.049441136
18	0xbd036ea6	-0.032087944
19	0x3cc1bc3d	0.02364933
20	0xbdb8e971	-0.090289004
21	0x3d588cb3	0.052868556
22	0x3bc49d2d	0.006000182
23	0xbd749aaa	-0.05971781
24	0xbc54357c	-0.012952205
25	0xbd6b7ac9	-0.057490144
26	0x3cb64a0d	0.022252107
27	0x3d0a706c	0.03379862
28	0xbd98a706	-0.07453732
29	0x3d76d687	0.060263183
30	0xbd04b258	-0.032396644
31	0x3da90607	0.08253103
32	0xbbc21de4	-0.0059239734
33	0x3cb22890	0.021747857
34	0xbd1cff68	-0.038329512
35	0xba546428	-0.00081020826
36	0xbc2c1f2d	-0.01050548
37	0xbcdfce9f	-0.027320204
38	0xbd4b4c2c	-0.04963319
39	0x3b3a7e85	0.002845676
40	0xbda8a628	-0.08234817
41	0xbd57dc14	-0.052700117
42	0xbd14c3b4	-0.03631945
43	0x3b1a7f5b	0.0023574445
44	0xbd66f50c	-0.05638604
45	0xbd330250	-0.043703377
46	0x3bf7b377	0.0075592357
47	0x3ac37507	0.0014912196
48	0x3b0bb68f	0.002131853
49	0xbd477602	-0.048696525
50	0x3d90ef3b	0.070768796
51	0xbcbb23b3	-0.022844171
52	0xbd8f3df3	-0.06994238
53	0x3d4eb3f2	0.050464578
54	0x3c3c282d	0.011484188
55	0xbb632579	-0.0034659787
56	0xbda905a9	-0.08253033
57	0xbd6b9139	-0.057511542
58	0x3d6534ac	0.055958435
59	0xbce205a6	-0.027590584
60	0xbd82613b	-0.063662015
61	0x3d5722f7	0.05252358
62	0xbd983956	-0.07432811
63	0x3d57e55a	0.05270896
64	0xbcfe4971	-0.031040879
65	0x3d1d61f5	0.038423497
66	0x3c528668	0.012849428
67	0x3db7ded3	0.08978047
68	0x3d1892bb	0.037249308
69	0xbbca0394	-0.0061649773
70	0x3db013c1	0.08597518
71	0xbd962c07	-0.07332616
72	0x3c3b532d	0.011433405
73	0x3cf90a26	0.030400347
74	0xbd901dc5	-0.07036928
75	0xbd44ddb8	-0.04806301
76	0xbd28ac0c	-0.0411797
77	0xbd3fd188	-0.046830684
78	0xbc2e1fb1	-0.010627673
79	0xbd67b718	-0.056571096
80	0x3db217f1	0.08695973
81	0xbb15d398	-0.0022861715
82	0x3db99c7e	0.09063052
83	0x3cbf9cdd	0.023390228
84	0xbc69f7ef	-0.014280303
85	0x3c02a8cf	0.007974817
86	0xbd54eb9c	-0.051982507
87	0xbd72dfb7	-0.059295382
88	0x3d125cc5	0.035733003
89	0xbc426228	-0.011864223
90	0x3c0369ff	0.008020877
91	0xbc226959	-0.009912812
92	0x3d934b34	0.07192078
93	0xbdb9d17f	-0.09073161
94	0xbd6cf486	-0.057850383
95	0xbd42dbe5	-0.04757299
96	0xbced0362	-0.028932277
97	0x3d93eafd	0.07222555
98	0x3d7d0fe0	0.061782718
99	0xbd89374d	-0.06700001
100	0xbcd6a806	-0.026203167
101	0x3d9add07	0.07561689
102	0xbd900c97	-0.07033651
103	0x3c1b004f	0.009460523
104	0x3d104cc5	0.035229463
105	0x3d316a22	0.043314107
106	0x3d83d1b2	0.064364806
107	0x3d743c58	0.05962786
108	0x3cc1581e	0.023601588
109	0xbdafdfd3	-0.08587613
110	0xbd253c2e	-0.040340595
111	0xbc8182eb	-0.015809497
112	0xbd8877f3	-0.066635035
113	0xbd402635	-0.046911437
114	0x3ca554b7	0.020181997
115	0xbd11573f	-0.035483595
116	0x3c776159	0.015098893
117	0x3d09ac1a	0.033611394
118	0x3d40b486	0.04704716
119	0xbd9089a4	-0.07057503
120	0x3da52bb1	0.08064974
121	0x3d1539af	0.036431964
122	0x3c01fbcb	0.007933567
123	0xbcdd794a	-0.027035374
124	0xbce351db	-0.027748993
125	0x3b60f914	0.003432815
126	0xbc331e10	-0.01093246
127	0xbdb043bf	-0.086066715
128	0x3c6cab49	0.014445134
129	0xbd76d29c	-0.060259447
130	0xbd9f975e	-0.07792543
131	0x3d5d0076	0.053955518
132	0xbc731d84	-0.01483858
133	0xbcc48e4f	-0.02399364
134	0xbc4ca9ad	-0.012491626
135	0xbd1e97af	-0.038718875
136	0x3d43065e	0.047613494
137	0xbb44a0c7	-0.0030003057
138	0xbd259418	-0.040424436
139	0x3db2881d	0.08717368
140	0x3d899f05	0.06719784
141	0x3d8efb61	0.069815405
142	0xbdba3196	-0.09091489
143	0x3c8d7b34	0.017270662
144	0x3bc265f9	0.0059325662
145	0x3da4445e	0.080208525
146	0x3cd03386	0.025415193
147	0x3c9e1115	0.019295255
148	0x3d6fe818	0.05857095
149	0x3d241ca1	0.040066365
150	0xbda6d9c1	-0.08147002
151	0xbdb77bde	-0.08959173
152	0xbd4985e3	-0.04919995
153	0xbca0b2b2	-0.019616459
154	0x3cb26820	0.021778166
155	0x3d6bb8cc	0.057549283
156	0xbda6acf1	-0.08138455
157	0xbc5ce7ab	-0.013482968
158	0xbd92a1ea	-0.07159789
159	0x3da15794	0.07878032
160	0x3d621d9f	0.05520403
161	0x3d574049	0.05255154
162	0xbc135ebf	-0.008994757
163	0xbd6d3759	-0.05791411
164	0xbd3bd01b	-0.04585276
165	0xba8093c4	-0.0009809663
166	0x3a07aa9f	0.0005175266
167	0xbac144eb	-0.0014745271
168	0x3da3a353	0.07990136
169	0xbd42807f	-0.047485825
170	0x3d8c0793	0.06837382
171	0x3d25d0c3	0.040482294
172	0xbd920d86	-0.07131486
173	0xbd273ef7	-0.040831532
174	0xbd621009	-0.055191074
175	0xbaffe9e9	-0.0019524667
176	0x3d46a87f	0.048500534
177	0x3d56e41a	0.05246363
178	0xbc998aae	-0.018742885
179	0x3da2d0f9	0.079500146
180	0x3d31b387	0.0433841
181	0x3c82b5a5	0.015955755
182	0xbd979be9	-0.074027844
183	0xbd9da1bd	-0.07696865
184	0x3d67e5b8	0.05661556
185	0x3d47c03a	0.048767306
186	0xbd33fb5f	-0.043940898
187	0xbd8ba6b7	-0.06818908
188	0x3b5ca369	0.0033666736
189	0xbdaaea44	-0.08345464
190	0x3d7be49b	0.061497312
191	0x3d44daa6	0.048060082
192	0x3ccecfc4	0.025245555
193	0xbd84fac4	-0.06493142
194	0xbc6bbfc7	-0.014388985
195	0xbd3a76b7	-0.04552337
196	0x3d329afc	0.043604836
197	0x3db23597	0.08701628
198	0x3b721dd2	0.0036944044
199	0xbcc09582	-0.02350879
200	0x3d80fcd2	0.06298222
201	0xbcadce15	-0.021216432
202	0xbd32cbd5	-0.04365142
203	0xbd9cd6ab	-0.07658132
204	0x3c45154a	0.0120290015
205	0x3d93ad40	0.07210779
206	0x3d6b1ea7	0.05740228
207	0x3d0aa7e6	0.033851527
208	0x3d817c82	0.06322576
209	0xbd9564fb	-0.07294651
210	0x3db47b1c	0.08812544
211	0xbcee7162	-0.0291068
212	0xbdb38120	-0.08764863
213	0x3d28ed41	0.041241888
214	0x3cb3b90d	0.021938825
215	0xbcad4396	-0.021150392
216	0xbdb16000	-0.08660889
217	0x3a815076	0.0009865898
218	0xbd38e0a8	-0.045136124
219	0xbd685c56	-0.056728683
220	0x3da79e1b	0.08184453
221	0x3d30eba5	0.043193478
222	0xbda2c646	-0.07947974
223	0xbd210831	-0.039314453
224	0xbd3a1398	-0.045428842
225	0xbda8a577	-0.08234685
226	0xbd91b108	-0.07113844
227	0x3db9f4af	0.09079873
228	0x3b850be8	0.004060257
229	0x3d96cc94	0.07363239
230	0x3c7eb126	0.015545165
231	0x3db47723	0.08811786
232	0xbd62a314	-0.055331305
233	0x3cc3d0b1	0.023903223
234	0xbd391d4a	-0.045193948
235	0x3d04fc7d	0.032467354
236	0x3d907b3c	0.07054755
237	0x3d8cc44d	0.06873379
238	0xbd78f091	-0.060776297
239	0xbb684768	-0.0035442952
240	0x3c12cd1e	0.008960037
241	0x3c6ee69f	0.014581352
242	0xbd199885	-0.03749897
243	0x3c9baf48	0.019004479
244	0xbd92fa63	-0.07176664
245	0xbce87d04	-0.028379925
246	0xbd112fb4	-0.035445884
247	0xbce7a7c7	-0.028278245
248	0xbd5e7ab5	-0.05431624
249	0x3d80fff3	0.062988184
250	0xbc7d63d9	-0.0154657
251	0x3d319ac3	0.043360483
252	0xbb429b69	-0.0029694682
253	0x3ba58506	0.005051258
254	0x3dab2496	0.083565876
255	0x3d82aabd	0.06380222

classifier.0.bias f4 [84]
0	0xbc3baefa	-0.011455292
1	0xbdb136d7	-0.08653038
2	0x3d40552e	0.046956234
3	0x3d96f11e	0.07370208
4	0x3c9ea181	0.01936412
5	0x3d128c71	0.035778467
6	0x3da108b8	0.07862991
7	0x3d590b4f	0.0529893
8	0xbd33ea5a	-0.043924667
9	0x3d4ebc64	0.050472632
10	0xbda24d87	-0.079249434
11	0x3db6061d	0.08887885
12	0x3d6eef4e	0.058333687
13	0xbd440af6	-0.047862016
14	0xbcb81720	-0.022471964
15	0xbd700a71	-0.058603708
16	0xbd2f9af0	-0.04287237
17	0xbd55c773	-0.052192163
18	0xbdb52265	-0.08844451
19	0xbc8ca12b	-0.017166695
20	0x3d218932	0.03943748
21	0x3d6a1238	0.05714628
22	0xbce481e3	-0.027893966
23	0xbd8f51fa	-0.06998058
24	0x3d552a90	0.052042544
25	0x3aab2379	0.0013056836
26	0xbaa88587	-0.0012857177
27	0x3d3bc78c	0.0458446
28	0xbcc454a9	-0.02396615
29	0x3d1e6e5a	0.03867946
30	0x3cfc2b38	0.030782327
31	0xbc54e544	-0.012994114
32	0xbbcb492a	-0.00620379
33	0xbcce41ac	-0.0251778
34	0xbd28627a	-0.04110954
35	0xbb3a407f	-0.002841979
36	0xbd9c3dec	-0.07628998
37	0xbd90efe9	-0.07077009
38	0xb85cb9fa	-5.262529e-05
39	0xbdb05b24	-0.08611134
40	0xbc462a1d	-0.0120950015
41	0xbda46c41	-0.0802846
42	0x3ce68083	0.028137451
43	0x3c098804	0.008394245
44	0xbd462900	-0.048378944
45	0xbba218c2	-0.004946799
46	0x3d0e58b1	0.03475255
47	0xbd969ddf	-0.0735433
48	0xbd994ee7	-0.074857526
49	0x3c8e832e	0.017396536
50	0x3cddc785	0.027072677
51	0x3d3b0b9e	0.045665376
52	0x3c148c47	0.009066648
53	0xbdb47810	-0.088119626
54	0xbd6514e0	-0.05592811
55	0xbad58b93	-0.0016292207
56	0xbd3c3a75	-0.045954186
57	0xbd101cb4	-0.035183623
58	0x3cad7278	0.021172747
59	0xbd566a05	-0.0523472
60	0x3c638de5	0.013888811
61	0x3dc7bb56	0.09752528
62	0x3dad6fd1	0.08468593
63	0xbc7783de	-0.015107123
64	0x3d6d6b84	0.057963863
65	0xbd997c22	-0.074943796
66	0x3d2ceda9	0.042218838
67	0x3c30d11e	0.010792045
68	0x3da477d9	0.080306716
69	0x3d7d203a	0.06179831
70	0xbdaf83ad	-0.08570037
71	0x3da18655	0.0788695
72	0x3d89001e	0.066894755
73	0x3d9c0f2e	0.07620083
74	0x3d3a8226	0.045534275
75	0xbd3bacfb	-0.045819264
76	0xbbae38e4	-0.0053168405
77	0xbb5ee878	-0.0034013074
78	0x3d16b3d9	0.03679261
79	0x3d37db9c	0.04488717
80	0xbd1afa3d	-0.037836302
81	0xbcaf6ee0	-0.021415174
82	0xbd336244	-0.043794885
83	0xbaea305b	-0.0017867194

classifier.2.weight f4 [10, 84]
0	0xbdc0e088	-0.09417826
1	0xbdb08a4f	-0.0862013
2	0x3d3805b5	0.044927318
3	0xbcd2c7cc	-0.025730036
4	0x3d07acc8	0.03312376
5	0xbd355651	-0.04427177
6	0x3a0b9c3a	0.0005325709
7	0x3d4d7a90	0.050165713
8	0xbda07e28	-0.078365624
9	0x3dd31daa	0.10308392
10	0xbd910518	-0.0708105
11	0xbcc28a7d	-0.023747677
12	0x3d71a1e1	0.05899227
13	0xbdd59c45	-0.10430197
14	0x3d5ed268	0.054399878
15	0x3d8554e1	0.0651033
16	0xbe0472ba	-0.1293439
17	0xbc92b215	-0.017907182
18	0xbd9afc49	-0.07567651
19	0x3de6cc4c	0.11269435
20	0xbdbc8c8b	-0.09206494
21	0xbe02df87	-0.12780581
22	0xbd9d8ae6	-0.076925084
23	0x3db5b93a	0.0887322
24	0x3ca87dc0	0.020567775
25	0xbdd76b7f	-0.1051855
26	0xbca295eb	-0.019846877
27	0xbda28867	-0.07936173
28	0x3dff7764	0.12473944
29	0xbdbfc513	-0.09363761
30	0x3cb674c0	0.022272468
31	0x3db0b248	0.086277544
32	0xbde6d0cb	-0.11270293
33	0x3cb83323	0.022485321
34	0x3b119c5d	0.0022218444
35	0x3d221593	0.039571356
36	0xbd4d55ba	-0.050130583
37	0xbd99df86	-0.07513337
38	0x3c6e1e25	0.014533554
39	0xbd0ebf93	-0.03485067
40	0xbc6d9e6c	-0.014503103
41	0x3df9a305	0.12189297
42	0xbd9bcfd7	-0.07608002
43	0xbd4b8980	-0.049691677
44	0x3d87a5a4	0.0662339
45	0xbd96620a	-0.07342918
46	0x3d9cd013	0.076568745
47	0x3e1137bd	0.14181419
48	0x3dbce3e0	0.09223151
49	0x3d9fd6c5	0.07804636
50	0xbe1180fa	-0.14209357
51	0x3d33a262	0.043856032
52	0xbde6cd4c	-0.11269626
53	0xbd36d750	-0.04463893
54	0xbd9c496f	-0.07631194
55	0xbdaa2ef7	-0.08309739
56	0x3db98872	0.09059228
57	0x3d99a859	0.07502813
58	0x3ce06047	0.027389659
59	0x3d2c706a	0.042099394
60	0x3e108631	0.1411369
61	0x3d2ad783	0.041709434
62	0xbcb13db3	-0.021635866
63	0x3d966700	0.073438644
64	0xbd1c7774	-0.038199857
65	0xbc369501	-0.011143924
66	0x3d510ffe	0.051040642
67	0x3c556918	0.013025545
68	0x3db1160b	0.086467825
69	0xbc4a7672	-0.012357341
70	0xbd65459a	-0.05597458
71	0x3d2efd38	0.042721957
72	0x3dd2eb06	0.102987334
73	0xbdfdf061	-0.12399364
74	0xbdf265cd	-0.11835823
75	0x3d0cd5a4	0.03438343
76	0x3d8629b0	0.0655092
77	0x3c406dd9	0.01174494
78	0xbdbfb967	-0.093615346
79	0xbde1d883	-0.110276245
80	0xbb00bea7	-0.0019644888
81	0x3d5df32a	0.054186977
82	0xbe088310	-0.13331246
83	0x3db11209	0.08646018
84	0xbdd2c400	-0.1029129
85	0x3d0c7b7c	0.03429745
86	0xbd3660d1	-0.044525925
87	0xbdaba1ae	-0.08380447
88	0x3cad72c5	0.02117289
89	0xbc206abd	-0.009791073
90	0x3d838a5a	0.06422873
91	0x3ded84ef	0.11597621
92	0x3e08df1f	0.13366364
93	0x3d86d218	0.06583041
94	0xbdde291b	-0.10847684
95	0x3dde91ef	0.108676784
96	0x3e1bd147	0.15216552
97	0xbd9ca151	-0.07647956
98	0x3df710a9	0.120637245
99	0xbe1ac370	-0.15113616
100	0xbdf40e51	-0.11916793
101	0x3da72fdd	0.08163426
102	0x3dc6a5d2	0.096995965
103	0x3c250275	0.010071387
104	0xbdbc6887	-0.091996245
105	0x3c87208b	0.01649501
106	0x3d656987	0.05600884
107	0x3d0137a2	0.031547196
108	0x3d952aed	0.07283578
109	0xbd6b88c0	-0.05750346
110	0x3db133f9	0.08652491
111	0xbd425e8f	-0.04745346
112	0x3d4a561b	0.049398523
113	0x3d542abc	0.051798567
114	0xbdc99bf0	-0.09844196
115	0x3d8921bc	0.066958874
116	0x3da44893	0.08021655
117	0xbdc4bc87	-0.09606271
118	0xbccc2637	-0.024920566
119	0x3db4aed9	0.08822412
120	0x3d9c9823	0.07646205
121	0x3d734660	0.059393287
122	0x3d3f2ee9	0.046675596
123	0xbd14f75d	-0.036368717
124	0x3d664aa0	0.05622351
125	0xbdba1124	-0.090853006
126	0x3c49a903	0.012308362
127	0xbd09c617	-0.03363618
128	0xbd33aee5	-0.043867964
129	0x3e003709	0.12520994
130	0xbda01bd7	-0.0781781
131	0x3e05025c	0.12989181
132	0x3db9dba4	0.09075096
133	0x3d776489	0.060398612
134	0x3db82a3e	0.08992432
135	0xbdf5d50e	-0.120035276
136	0x3d8733ab	0.06601652
137	0x3a999ce4	0.0011719731
138	0xbd8935ee	-0.066997394
139	0x3c0311d4	0.007999856
140	0x3cec7079	0.028862225
141	0xbda85bba	-0.082206205
142	0xbd83ed13	-0.06441703
143	0x3db0bcca	0.08629759
144	0xbda5101c	-0.08059713
145	0x3ddf3e16	0.10900514
146	0xbd8623d4	-0.065498024
147	0xbdb6555d	-0.089030005
148	0x3dcaf800	0.099105835
149	0x3dc1fcc3	0.094720386
150	0x3dff25dc	0.12458393
151	0x3dbccfb3	0.09219303
152	0x3dbb1cc6	0.091363475
153	0x3d4cc8e9	0.04999629
154	0x3b175740	0.0023092777
155	0x3cd6741e	0.026178416
156	0x3ca1bab3	0.019742345
157	0x3d82878d	0.063735105
158	0xbd3fba2f	-0.046808418
159	0x3d329a3b	0.043604117
160	0xbd993c06	-0.07482152
161	0xbd9a0e8e	-0.07522307
162	0x3ce451e6	0.027871083
163	0x3db4eae8	0.08833867
164	0x3c88b733	0.016688919
165	0x3daac25f	0.083378546
166	0xbd8317e5	-0.06401042
167	0xbddb4ab4	-0.10707608
168	0xbcaadc70	-0.020857066
169	0xbdca49ec	-0.09877381
170	0x3db4d9b2	0.088305846
171	0xbe0bca89	-0.1365148
172	0x3dccf82a	0.10008271
173	0x3d9153ac	0.07096037
174	0x3dc12399	0.09430618
175	0x3dbd16cf	0.09232866
176	0x3ced41ad	0.02896198
177	0x3adc8fb1	0.0016827491
178	0x3db5ba6b	0.08873447
179	0xbd7a71f6	-0.061143838
180	0xbd38d46c	-0.045124456
181	0x3d904c3e	0.07045792
182	0xbdb0490a	-0.08607681
183	0x3be13a03	0.0068733706
184	0x3dcf1f69	0.10113413
185	0x3cc146ec	0.023593388
186	0xbd565e05	-0.052335758
187	0xbc9e89f5	-0.019352892
188	0xbdbba5ad	-0.091624595
189	0x3d80a1ec	0.06280884
190	0x3de47745	0.11155561
191	0x3dd09906	0.10185437
192	0x3b9d1eb4	0.00479492
193	0x3d9af8fb	0.075670205
194	0x3dc1026c	0.0942429
195	0x3e031c74	0.12803823
196	0x3ccca549	0.024981158
197	0x3da2057e	0.07911204
198	0xbd027b9d	-0.031856168
199	0x3aaea6b2	0.0013324826
200	0xbdf22fb7	-0.11825507
201	0xbd85841d	-0.06519339
202	0xbdb6a5a6	-0.08918314
203	0xbd78ff7f	-0.060790535
204	0xbcaba048	-0.020950451
205	0xbd827390	-0.06369698
206	0xbde74c3a	-0.11293836
207	0x3d8c735c	0.068579406
208	0xbc0d659b	-0.008630182
209	0x3d1c3bd6	0.038143
210	0x3dd9fc0b	0.106437765
211	0x3dc3a9e4	0.095538884
212	0xbdbc3965	-0.09190635
213	0xb96eb93b	-0.00022766452
214	0xbcf18832	-0.029483888
215	0x3d47acb0	0.048748672
216	0x3cafd645	0.021464476
217	0xbb0d831b	-0.0021593038
218	0x3cbdbce9	0.023161368
219	0x3df3d622	0.11906077
220	0x3d0a7f51	0.033812825
221	0x3d62ab37	0.055339064
222	0xbe088225	-0.13330896
223	0x3ca2abf1	0.019857379
224	0x3c66989d	0.014074472
225	0x3d93571e	0.07194351
226	0xbd5e3041	-0.054245237
227	0xbd12963e	-0.035787813
228	0x3d41657b	0.04721592
229	0x3c385cd4	0.011252601
230	0xbdeb8fa5	-0.115020074
231	0xbdffa245	-0.12482122
232	0xbd4da254	-0.050203636
233	0xbd6113e8	-0.054950625
234	0xbdadc308	-0.08484465
235	0xbdbeb746	-0.093123004
236	0x3e132f30	0.1437347
237	0xbcd725be	-0.026263114
238	0x3d3b8a7f	0.045786377
239	0x3db3d64d	0.08781109
240	0x3c8e6bbc	0.017385356
241	0xbcd033d8	-0.025415346
242	0x3dca3f54	0.0987536
243	0x3da6f44b	0.08152064
244	0x3c9ea1a7	0.019364191
245	0xbd2f4645	-0.042791624
246	0x3cee167f	0.029063461
247	0xbd122ed9	-0.03568921
248	0xbdca6c70	-0.09883964
249	0xbcf2eef4	-0.029654957
250	0x3dc11edd	0.09429715
251	0xbdcc61b5	-0.09979574
252	0x3d9f1d33	0.07769241
253	0xbae79d6f	-0.001767082
254	0xbbeae836	-0.007168795
255	0xbdce1b2c	-0.100637764

classifier.2.bias f4 [10]
0	0xbc1464f9	-0.009057277
1	0xbbd2fd11	-0.0064388593
2	0xbcc8350c	-0.024439357
3	0x3cbabcc4	0.022795089
4	0xbc8f8f94	-0.017524518
5	0x3cdf8d42	0.027289037
6	0x3d6f53f9	0.058429692
7	0xbcfaf409	-0.030633943
8	0xbd81d08c	-0.06338605
9	0x3d4cc84b	0.0499957
