checkpoints/noise_rate_0.2/models/est/epoch21.pth (torch, 250639 bytes, 10 tensors)

feature_extractor.0.weight f4 [6, 1, 5, 5]
0	0x3e01ca36	0.12674794
1	0xbd889957	-0.06669872
2	0xbccc9458	-0.02497308
3	0x3dc55d1a	0.09636898
4	0xbe46ad7b	-0.19402115
5	0x3e1c47ff	0.1526184
6	0xbbfe445e	-0.007759615
7	0x3e072f08	0.13201535
8	0x3d474311	0.048647944
9	0xbc5adf7b	-0.013358946
10	0x3daca0f2	0.084291354
11	0x3d3d56f7	0.046225514
12	0x3de8f380	0.11374569
13	0xbd2a90d9	-0.041642044
14	0x3c70a2cb	0.01468725
15	0xbbd77459	-0.006575149
16	0x3d4f01c0	0.05053878
17	0x3d036449	0.03207806
18	0x3e583e1f	0.21117447
19	0x3dc76b10	0.097372174
20	0xbd9bf74c	-0.076155275
21	0xbde93f34	-0.11389008
22	0xbc93ccb0	-0.018041939
23	0xbd852088	-0.065003455
24	0xbd1f4511	-0.038884226
25	0x3d94f45e	0.07273172
26	0x3e4886a6	0.19582614
27	0x3e258579	0.16164197
28	0xbe425276	-0.18976769
29	0x3dca60a0	0.09881711
30	0x3e09cc09	0.1345674
31	0x3e8e3fbb	0.27782997
32	0x3e38d013	0.18048124
33	0xbe40fb78	-0.18845928
34	0xbe5d7957	-0.21628319
35	0xbc535d1c	-0.012900617
36	0x3e8602ec	0.26174104
37	0x3c5b497a	0.013384217
38	0x3db817fd	0.089889504
39	0xbdcd9b94	-0.1003944
40	0x3e895c8e	0.26828426
41	0xbc27f965	-0.010252331
42	0x3e4f4a3f	0.20243166
43	0x3d04bad0	0.03240472
44	0xbdaacb90	-0.08339608
45	0x3e1e0ac8	0.154338
46	0xbd4b597e	-0.049645893
47	0x3de5113e	0.11184929
48	0xbc203d3f	-0.009780227
49	0x3cbfaf8c	0.023399137
50	0xbe556194	-0.20838004
51	0xbde68815	-0.11256424
52	0x3dd62589	0.10456378
53	0xbcf0a740	-0.029376626
54	0x3e6e44fe	0.23268506
55	0x3e249b18	0.16074789
56	0xbaf02d15	-0.0018323982
57	0xbdd8374b	-0.10557421
58	0x3e2aba3e	0.16672608
59	0x3dd73907	0.10508924
60	0xbddcc630	-0.10779989
61	0x3e2501ec	0.16114014
62	0x3e2eda13	0.17075376
63	0x3e6ca55c	0.23109955
64	0xbd99470d	-0.07484255
65	0xbb3d8b7b	-0.0028922248
66	0x3d093b96	0.03350409
67	0x3d9a3bb0	0.07530916
68	0xbde26303	-0.11054041
69	0xbded5bf6	-0.11589806
70	0x3e0cd730	0.13753963
71	0xbc5a2a3c	-0.0133157335
72	0x3e0a6023	0.13513236
73	0x3d2d4faf	0.04231232
74	0x3db55f09	0.08856017
75	0x3cee678a	0.029102106
76	0x3d8b1025	0.06790189
77	0x3dd126bd	0.10212467
78	0xbe317dcd	-0.17333145
79	0x3df6039f	0.120124094
80	0xbe163507	-0.14668666
81	0xbe18bf51	-0.14916731
82	0x3cd67d04	0.026182659
83	0xbbf9fade	-0.0076287827
84	0x3e1c4bf3	0.15263347
85	0xbdef752f	-0.11692273
86	0xbe2edd9b	-0.17076723
87	0x3e2e75a7	0.17037068
88	0x3c0608cf	0.008180811
89	0x3e1df326	0.15424785
90	0x3d84568f	0.06461822
91	0xbe0db415	-0.13838227
92	0x3d8dd2ae	0.069249496
93	0x3db03a6b	0.08604892
94	0xbdcb435b	-0.099249564
95	0xbdbea440	-0.09308672
96	0x3da8b856	0.08238284
97	0x3d7a2fa6	0.061080597
98	0xbd6bcf2d	-0.057570625
99	0xbd1f7352	-0.038928337
100	0x3e71b7ff	0.23605345
101	0x3d8e0081	0.0693369
102	0x3e6e6393	0.23280172
103	0x3e2eed3f	0.1708269
104	0xbdcd5787	-0.1002646
105	0xbda34dea	-0.07973845
106	0x3eb0d500	0.34537506
107	0x3e285838	0.16439903
108	0x3e6f774f	0.23385356
109	0x3da424ca	0.080148295
110	0x3e4deb70	0.20109344
111	0x3ead0b78	0.33797812
112	0x3eb5e483	0.35525903
113	0xbd267ae4	-0.04064454
114	0x3d8eda73	0.0697526
115	0x3e95e8c6	0.29279155
116	0x3ea20e06	0.31651324
117	0x3e86bce0	0.26315975
118	0xbd86228f	-0.0654956
119	0xbdbf0121	-0.09326387
120	0xbc45374f	-0.012037112
121	0x3e127692	0.14303043
122	0x3e97d6e3	0.29656133
123	0xbd5901c5	-0.052980203
124	0x3e2ee568	0.17079699
125	0xbddebde1	-0.1087606
126	0xbe298ac5	-0.16556843
127	0x3cea8912	0.028629813
128	0x3e68ec53	0.227464
129	0x3e9691e8	0.29408193
130	0xbdd16003	-0.10223391
131	0x3dd5d4e7	0.104409985
132	0x3e9547b0	0.29156256
133	0x3e8ffcf7	0.28122684
134	0x3e7b9a9b	0.24570696
135	0x3e4077ad	0.18795653
136	0x3e5b8b29	0.21439804
137	0x3e3e211e	0.1856732
138	0x3c132e13	0.008983153
139	0xbd6f9b37	-0.058497634
140	0xbd3ea51a	-0.046544172
141	0x3d64710c	0.055771872
142	0xbc1708fb	-0.00921845
143	0x3e4a1d8e	0.19737837
144	0x3e25970b	0.161709
145	0xbc76c4c3	-0.01506156
146	0x3e062d40	0.13103199
147	0x3e166ec9	0.14690699
148	0x3e5b603b	0.21423428
149	0x3e5c1227	0.214913

feature_extractor.0.bias f4 [6]
0	0xbd53b058	-0.051681846
1	0x3e67e71d	0.22646756
2	0xbba8fdbc	-0.0051572006
3	0xbb9b1af8	-0.0047334395
4	0xbdea094a	-0.11427553
5	0xbd733f0e	-0.059386306

feature_extractor.3.weight f4 [16, 6, 5, 5]
0	0xbd3448a5	-0.04401459
1	0xbd039135	-0.032120902
2	0x3d7ae76f	0.06125587
3	0xbcba1b9a	-0.02271824
4	0xbd6d31b1	-0.057908718
5	0x3d1ba0e8	0.03799525
6	0x3d11cd04	0.03559591
7	0x3d8268de	0.06367658
8	0xbd0ef76d	-0.034903932
9	0x3caa43f1	0.02078435
10	0xbcd93c90	-0.026518136
11	0xbc38d21b	-0.011280562
12	0xbd78f2b8	-0.06077835
13	0xbd19555f	-0.03743493
14	0xbce671e3	-0.028130477
15	0x3d17407d	0.036926735
16	0x3ca53ee2	0.020171586
17	0x3cb6b6f0	0.022304028
18	0x3da14c57	0.07875889
19	0x3d9af09e	0.07565425
20	0x3d5e8a87	0.05433133
21	0x3bb281b6	0.0054475917
22	0xbd5e9841	-0.05434442
23	0x3d7ff1e4	0.062486544
24	0xbcb81c4e	-0.022474434
25	0xbc4dbc81	-0.01255715
26	0xbd7c58aa	-0.061607994
27	0x3c18b97d	0.009321568
28	0xbd119ab6	-0.035547934
29	0x3d97227a	0.07379623
30	0xbd962560	-0.073313475
31	0xbd2fe61e	-0.042944066
32	0x3cefc3c7	0.029268159
33	0xbd14b02f	-0.036300834
34	0x3caf94d1	0.021433266
35	0xbcf4c19c	-0.029877476
36	0xbc83d507	-0.01609279
37	0x3ce1bb29	0.027555065
38	0x3d6ff6c0	0.05858493
39	0xbd8f69d0	-0.07002604
40	0x3d1dd143	0.038529646
41	0x3d8dc029	0.06921417
42	0x3dc17500	0.09446144
43	0xbd797de9	-0.060911093
44	0x3bd3ccc3	0.0064636185
45	0xbd875fc2	-0.06610061
46	0x3da319d2	0.07963909
47	0xbc863b87	-0.016385807
48	0x3d43003e	0.047607653
49	0xbb825c1e	-0.0039782664
50	0xbc083f6a	-0.0083159
51	0x3c080106	0.008301025
52	0x3cc26f2f	0.023734657
53	0x3d1855b6	0.037191115
54	0x3c275a5e	0.010214416
55	0x3d0c4306	0.034243606
56	0xbd69d1bb	-0.05708478
57	0x3d80825e	0.062748656
58	0x3d8795f8	0.06620401
59	0x3d89c9aa	0.067279175
60	0x3d919c81	0.07109929
61	0xbd54921f	-0.051897164
62	0xbd15e247	-0.036592748
63	0x3d7b8169	0.061402712
64	0xbd879f56	-0.06622188
65	0x3d9db756	0.07700984
66	0xbd85cef4	-0.06533614
67	0xbd83b065	-0.06430129
68	0x3cf3a14b	0.029739996
69	0xbd866cd5	-0.06563727
70	0xbc8a3c38	-0.016874418
71	0x3d7eaea3	0.062178265
72	0x3d73e22a	0.05954186
73	0x3d8f56de	0.069989905
74	0xbcb0d9ab	-0.021588167
75	0xbd7e140d	-0.06203084
76	0x3dae99e4	0.08525446
77	0xbc811809	-0.015758531
78	0xbd127d75	-0.035764176
79	0x3caa2f13	0.0207744
80	0xbd536b22	-0.05161584
81	0x3d6a8323	0.057253968
82	0x3d466922	0.048440106
83	0xbd8a6efb	-0.06759449
84	0xbd879849	-0.06620843
85	0xbadda795	-0.0016910905
86	0x3d101259	0.035173748
87	0xbb815a78	-0.0039475523
88	0xbd2b51bb	-0.04182599
89	0x3b216470	0.0024626516
90	0xbd94b908	-0.072618544
91	0xbd63e87b	-0.055641633
92	0xbd651c36	-0.055935107
93	0x3d8899f1	0.06669987
94	0x3d94194b	0.07231387
95	0xbcc524f1	-0.024065467
96	0x3bc361bf	0.00596258
97	0x3d0f0f80	0.03492689
98	0x3c23c1ff	0.009994983
99	0xbd1f6f47	-0.03892448
100	0x3d30d6e4	0.043173686
101	0x3d927d53	0.0715281
102	0x3d110b98	0.035411447
103	0x3bc3e7f4	0.0059785787
104	0x3d980628	0.07423049
105	0x3db01731	0.085981734
106	0xba985b15	-0.0011623824
107	0x3df0674e	0.11738454
108	0x3cbdb973	0.023159718
109	0xbd82f353	-0.06394067
110	0x3d72d903	0.05928899
111	0xbce34c2b	-0.02774628
112	0x3dba3105	0.09091381
113	0xbd888621	-0.06666208
114	0x3adb170e	0.0016715245
115	0x3cd0a307	0.025468362
116	0x3d199203	0.037492763
117	0x3d932ead	0.07186637
118	0xbd63e07f	-0.055634018
119	0xbd6e18d1	-0.058129136
120	0xbda0b172	-0.07846345
121	0x3c01aee9	0.007915237
122	0xbcdc4dcc	-0.026892565
123	0xbbeb6d59	-0.007184666
124	0xbcfb5b6b	-0.03068324
125	0x3d210e03	0.039320003
126	0x3dcaf6de	0.099103674
127	0x3d16eaf0	0.036845148
128	0xbce44de7	-0.027869178
129	0xbd2754fa	-0.040852524
130	0xbd3cc19b	-0.046083074
131	0x3dc80f0f	0.09768497
132	0xbc21a078	-0.009864919
133	0x3c15a669	0.009133914
134	0x3b70db5b	0.003675184
135	0xbce44087	-0.0278628
136	0x3d7a9289	0.061174903
137	0x3d0dcbd4	0.034618214
138	0xbc7776bc	-0.015103992
139	0xbd5d50ee	-0.05403226
140	0xbcb28302	-0.021790985
141	0x3b6578b7	0.0035014579
142	0xbd7dd3e9	-0.06196967
143	0xbd8791f7	-0.066196375
144	0xbcc3b7dd	-0.023891384
145	0xbc83bdd0	-0.01608172
146	0x3cd7e1a1	0.026352705
147	0xbcf5de64	-0.03001327
148	0xbcc8f9bd	-0.024533147
149	0xbd224794	-0.039619043
150	0xbd951961	-0.07280231
151	0x3d9ee2f3	0.07758131
152	0x3cb9cdd5	0.022681156
153	0x3d9d7418	0.07688159
154	0xbc4ae515	-0.012383719
155	0xbc665be7	-0.014059997
156	0xbd84ba9c	-0.064809054
157	0xbc869803	-0.016429907
158	0x3d813e8b	0.06310757
159	0xbd9db924	-0.077013284
160	0xbcdd7c49	-0.027036803
161	0x3d5a7f2a	0.05334393
162	0x3d5c9496	0.05385264
163	0x3d226673	0.039648484
164	0xbc0f83e8	-0.008759476
165	0xbc56cfa5	-0.01311103
166	0xbcc95b0a	-0.024579544
167	0xbd04b31f	-0.032397386
168	0x3d2d4a73	0.04230733
169	0xbc59a42f	-0.013283773
170	0xbd2f65d3	-0.042821717
171	0x3cb1ea22	0.021718089
172	0xbd4dca81	-0.05024195
173	0xbb10beae	-0.002208631
174	0x3d7742d4	0.060366467
175	0x3d0207e4	0.031745806
176	0x3da9aad6	0.082845375
177	0xbd096f03	-0.033553135
178	0x3ca1d11c	0.019753031
179	0xbcb2c6ef	-0.021823375
180	0xbd15cefc	-0.03657435
181	0xbd009233	-0.031389426
182	0x3d4a7cce	0.04943543
183	0x3d1b9990	0.037988245
184	0xbceb135d	-0.028695757
185	0xbd53ced5	-0.051710922
186	0xbd8ab1a9	-0.06772167
187	0x3dc2849e	0.09497951
188	0x3c445f34	0.011985589
189	0x3c11f81b	0.008909251
190	0xbd12bc60	-0.03582418
191	0xbd4c34af	-0.04985493
192	0xbd8b933a	-0.068151906
193	0xbca11666	-0.019664
194	0x3db18c55	0.08669344
195	0x3c38ef72	0.011287557
196	0xbcd740c0	-0.026275992
197	0xbbd6b5d2	-0.0065524364
198	0x3da72404	0.08161166
199	0x3db4313d	0.08798454
200	0x3db1b48e	0.08677016
201	0x3d0d2019	0.03445444
202	0x3d44e8cc	0.048073575
203	0xbbb2b958	-0.0054542236
204	0xbd5641f8	-0.052309006
205	0xbd8b23a9	-0.06793911
206	0x3d7d5549	0.061848912
207	0xbb09da24	-0.0021034563
208	0x3d13f6a4	0.036123887
209	0x3bb9ec86	0.0056739477
210	0xbd92c199	-0.07165832
211	0xbd0c130b	-0.03419785
212	0x3cf13de8	0.029448465
213	0xbbfa954f	-0.0076471935
214	0xbd8fd810	-0.070236325
215	0x3cac9d4e	0.021071102
216	0x3c0483cf	0.008088066
217	0xbb8d6098	-0.0043144934
218	0x3d6e3a47	0.058161046
219	0x3d192379	0.037387345
220	0xbccc10ea	-0.024910409
221	0x3dcf9f86	0.101378486
222	0x3d9b0e86	0.075711295
223	0x3d16dc2c	0.036831066
224	0xbb88600f	-0.0041618417
225	0xbd88a9d2	-0.06673016
226	0x3d86c7a3	0.065810464
227	0xbcad64e9	-0.021166282
228	0xbd640e28	-0.055677563
229	0x3d4d2e8b	0.050093215
230	0x3d076671	0.03305668
231	0x3ccc1a6d	0.024914945
232	0xbc6bc59b	-0.0143903745
233	0xbcd8f790	-0.026485234
234	0x3c4c1446	0.012456005
235	0x3d837583	0.06418898
236	0x3c89edf8	0.016837105
237	0xbd04f03c	-0.032455668
238	0x3daf118c	0.08548269
239	0x3b5ac4f0	0.0033381544
240	0x3d83322b	0.06406053
241	0x3cf03b11	0.02932504
242	0x3db2ed54	0.08736673
243	0x3d6bf5c4	0.057607427
244	0xbd22fe9b	-0.039793592
245	0x3d7f819c	0.062379465
246	0x3c12426f	0.008926972
247	0xbd71c878	-0.059029073
248	0xbc8fe45f	-0.01756495
249	0xbd9ae35f	-0.07562899
250	0xbcf3459e	-0.029696282
251	0xbcfdeb79	-0.030996071
252	0x3dbac020	0.09118676
253	0x3a23fc64	0.00062555657
254	0xbc9fa9a1	-0.019490065
255	0x3d88ab8d	0.06673346

feature_extractor.3.bias f4 [16]
0	0xbcb2c74e	-0.021823552
1	0xbd4b67a1	-0.049659375
2	0x3c01cc0e	0.007922186
3	0x3d1d0092	0.038330622
4	0x3d7e1f29	0.062041435
5	0xbcf02806	-0.02931596
6	0x39c37e24	0.0003728728
7	0xbd296c91	-0.041363303
8	0xbd82442f	-0.06360661
9	0xbd5d3285	-0.054003257
10	0xbd51a37f	-0.051181313
11	0xbd4d48c7	-0.050118234
12	0x3cf93bc1	0.030424
13	0xbc3b11fe	-0.011417864
14	0x3d8359e0	0.06413627
15	0x3d96581d	0.07341025

feature_extractor.7.weight f4 [120, 400]
0	0xbd214012	-0.039367743
1	0x3c6378ed	0.013883811
2	0x3d06fa7e	0.03295373
3	0xbd2c41e8	-0.04205504
4	0xbc6962d2	-0.014244752
5	0x3d13d123	0.03608812
6	0xbd114ee8	-0.03547564
7	0x3d3dd471	0.046345178
8	0xbb205639	-0.0024465455
9	0x3c2016b0	0.009771034
10	0x3d3ccbaa	0.046092667
11	0xbd261cf4	-0.040554956
12	0x3d357faf	0.04431122
13	0xbd47bbb5	-0.048762996
14	0x3cf7ee06	0.030264866
15	0x39cde844	0.00039273698
16	0x3d31f581	0.04344702
17	0xbb084811	-0.0020794908
18	0xbd4af30a	-0.049548186
19	0x3c5f384b	0.013624261
20	0x3d07e3a8	0.033176094
21	0xbc0c3055	-0.008556445
22	0xbd46fcc4	-0.0485809
23	0xbb2db307	-0.0026504414
24	0x3bfc97ba	0.007708517
25	0x3c5f4753	0.013627845
26	0x3ca3ce1d	0.019995743
27	0xbc1a079b	-0.009401227
28	0xbac10bdb	-0.0014728265
29	0xbb362883	-0.0027795143
30	0x3cba5585	0.022745857
31	0x3c7e0239	0.01550346
32	0x3c986d5b	0.018606832
33	0xbb25046e	-0.0025179642
34	0x3c00dbe3	0.007864925
35	0x3d249b19	0.040186975
36	0x3c2ce26f	0.010552033
37	0xbd429253	-0.047502827
38	0x3c48f612	0.012265699
39	0x3d69b113	0.057053637
40	0xbb9d847a	-0.004807052
41	0x3d0fe628	0.035131603
42	0xbd16af75	-0.036788423
43	0xbbc44745	-0.0059899413
44	0x3d168255	0.036745388
45	0xbcaf9aad	-0.02143606
46	0xbb35f87f	-0.0027766523
47	0x3bc27b75	0.0059351274
48	0xbbd69a6e	-0.006549171
49	0xbc7ffa67	-0.015623665
50	0x3d0eca34	0.034860805
51	0xbc14e766	-0.009088373
52	0xbc72b96c	-0.014814716
53	0x3d195655	0.03743585
54	0x3c41fe1c	0.01184037
55	0xbcb7790f	-0.022396592
56	0x3cfc295a	0.030781437
57	0xbcea7099	-0.028618144
58	0x3d4c765c	0.049917564
59	0x3d324a55	0.04352792
60	0x3b90734b	0.0044082752
61	0x3c628dfe	0.013827799
62	0xbcaa6654	-0.020800747
63	0xbd1436ec	-0.03618519
64	0xbced167b	-0.028941384
65	0x3c942fdd	0.01808923
66	0x3cc7922d	0.024361694
67	0xbb712a8e	-0.0036799046
68	0xbc846250	-0.01616016
69	0xbc79789b	-0.0152265085
70	0xbcb37a21	-0.021908822
71	0xbcc3c190	-0.023896009
72	0x3d0732ec	0.033007547
73	0xbd3ca3d7	-0.046054687
74	0x3d09e496	0.033665262
75	0x3cf43177	0.029808743
76	0xbc6d6af1	-0.014490829
77	0xbc0e6c16	-0.008692762
78	0xbc4e513a	-0.012592608
79	0xbd227cf5	-0.03966995
80	0x3be1db05	0.0068925642
81	0xbd075b99	-0.03304634
82	0x3c293904	0.010328535
83	0xbc1ead19	-0.009684824
84	0xbd0f6b46	-0.035014413
85	0xbd3fada9	-0.046796475
86	0x3d28ed10	0.041241705
87	0x3d2c6b7e	0.0420947
88	0x3d397097	0.04527339
89	0x3c837031	0.016044708
90	0x3cd51cbf	0.026014684
91	0x3cf93603	0.030421263
92	0x3d2ff18a	0.04295496
93	0x3b335303	0.0027362711
94	0x3b27a9a0	0.0025583282
95	0x3d0cb044	0.034347787
96	0x3d155a06	0.036462806
97	0xbc802329	-0.015641766
98	0x3d02352c	0.03178899
99	0x3d4ab09c	0.049484834
100	0xbca8d0f6	-0.020607453
101	0xbd395768	-0.045249373
102	0xbb445d28	-0.0029962752
103	0xbd034558	-0.032048553
104	0x3d409031	0.04701251
105	0xbc36c748	-0.011155911
106	0xbcb56267	-0.022141648
107	0x3d06480f	0.032783564
108	0x3c829e0c	0.015944503
109	0x3c84c69c	0.016207986
110	0x3d46282b	0.04837815
111	0xbd35ae64	-0.044355765
112	0x3cd248ea	0.025669534
113	0xbcdfd979	-0.027325379
114	0x3cb43dd7	0.022002144
115	0xbca20dc3	-0.019781953
116	0x3d42e3aa	0.0475804
117	0xbc5166c8	-0.012780853
118	0x3bd87de0	0.0066068023
119	0xbd03780c	-0.032096907
120	0x3cdec4cb	0.027193448
121	0xbd53851b	-0.05164061
122	0x3ccc7c39	0.024961578
123	0x3d33feb6	0.043944083
124	0x3d312d10	0.043255866
125	0x3ceff353	0.02929083
126	0xbc885dec	-0.016646348
127	0x3c2fc40d	0.0107278945
128	0x3c7d6c57	0.015467725
129	0xbd3cc04a	-0.04608182
130	0x3cd254de	0.025675233
131	0xbd29c200	-0.04144478
132	0x3caecf12	0.021338973
133	0x3d400d95	0.046887953
134	0xbc8a6527	-0.016893936
135	0x3c1bbf9b	0.0095061315
136	0x3d496027	0.049163964
137	0x3d3abf38	0.045592517
138	0x3d32e03c	0.043670878
139	0xbd044cda	-0.032299854
140	0x3c343921	0.010999949
141	0xbd2b3511	-0.041798655
142	0x3c0f5d9f	0.008750348
143	0xbd57fdec	-0.052732393
144	0x3c003c82	0.007826926
145	0x3cca36d4	0.024684347
146	0xbd2d43f9	-0.042301152
147	0xbb9a106c	-0.0047016647
148	0xbcab6125	-0.020920346
149	0x3d331d16	0.04372891
150	0xbbca79c3	-0.006179066
151	0x3cf4c203	0.029877668
152	0xbd0065dc	-0.03134714
153	0x3c3f4ca7	0.01167599
154	0x3d185bcb	0.037196916
155	0x3b3683eb	0.0027849625
156	0xbc95325a	-0.018212486
157	0xbcbdefd3	-0.023185646
158	0x3ced23c4	0.028947718
159	0x3c8a98c4	0.016918547
160	0x3b932f92	0.004491755
161	0x3d0d934f	0.034564313
162	0xbcacfec0	-0.021117568
163	0xbd073d21	-0.03301728
164	0xbb2fa14a	-0.0026799017
165	0x3d0dc56a	0.034612097
166	0xbd51c9c8	-0.051217824
167	0xbcfc2fa4	-0.030784436
168	0x3c4c9c16	0.012488386
169	0x3ceaaa27	0.028645588
170	0x3ceed200	0.02915287
171	0x3c80e5ef	0.01573464
172	0xbd3d5363	-0.046222102
173	0xbca15a16	-0.019696277
174	0x3cf222b0	0.029557556
175	0x3c121d04	0.008918051
176	0x3ce0de87	0.02744986
177	0x3d19e599	0.037572477
178	0x3cecde80	0.02891469
179	0xbca92708	-0.020648494
180	0xbccd6f64	-0.02507753
181	0xbc1d7a54	-0.009611685
182	0xbab929a7	-0.0014126793
183	0xbb6802f6	-0.0035402155
184	0xbc1fc5be	-0.009751735
185	0x3be14eae	0.0068758344
186	0x3cff27e9	0.03114696
187	0xbd064515	-0.032780726
188	0x3cd24caf	0.025671331
189	0xbd4a0f12	-0.04933078
190	0x3b0c3103	0.0021391518
191	0xbd3c9ee9	-0.046049986
192	0x3d45f0a5	0.0483252
193	0xbd2dc6cf	-0.042425927
194	0xbcdf59bf	-0.027264474
195	0x3cf9b5e6	0.030482244
196	0x3cc92da6	0.0245579
197	0x3d1cfdf2	0.03832812
198	0x3c60f28a	0.013729701
199	0xbd3187ec	-0.043342516
200	0xbd0f7b02	-0.03502942
201	0x3d0c1c28	0.03420654
202	0xbd4749d4	-0.048654392
203	0x3d383b35	0.04497834
204	0xbc0b0136	-0.008484175
205	0x3c1584bf	0.009125887
206	0xbb0c78d3	-0.0021434322
207	0xbc4e0dc2	-0.012576522
208	0xbc48f3ad	-0.012265128
209	0x3c72b73a	0.014814192
210	0xbc0fc39b	-0.008774663
211	0x3c09d457	0.008412442
212	0x3d2b63ec	0.04184334
213	0x3b936255	0.004497806
214	0xbd20a28b	-0.039217513
215	0xbd1aca75	-0.037790734
216	0x3d026698	0.031836122
217	0x3c8f075d	0.017459566
218	0x3c1cc58c	0.009568583
219	0xbccc1811	-0.02491382
220	0xbd275648	-0.04085377
221	0x3d30d3f6	0.04317089
222	0xbd4044b0	-0.046940506
223	0xbccbea37	-0.024891956
224	0x3ca2a4a8	0.019853905
225	0x3d3456ca	0.04402808
226	0xbc646133	-0.01393919
227	0xbd37d9da	-0.044885494
228	0x3c3bfd26	0.0114739295
229	0x3a9f17ee	0.0012137869
230	0xbbeddcf5	-0.007259006
231	0xbd335711	-0.043784205
232	0x3d156646	0.03647449
233	0x3baefec1	0.0053404276
234	0x3c92bf1b	0.017913392
235	0x3cf64874	0.030063845
236	0x3d345cf2	0.044033952
237	0xbc6b919d	-0.014377979
238	0x3b22a4dd	0.0024817504
239	0xbd02190e	-0.031762175
240	0xbd22b6fd	-0.039725292
241	0xbca10204	-0.019654281
242	0x3c57d5cb	0.013173531
243	0xbcf151eb	-0.029458007
244	0x3d03472b	0.032050293
245	0x3c8c4e59	0.017127203
246	0xbc66b932	-0.01408224
247	0x3cde06a4	0.027102776
248	0x3d274069	0.04083291
249	0xbc87304c	-0.016502522
250	0x3ce8c0a1	0.028412165
251	0x3d0f4b06	0.034983657
252	0x3d3ec85d	0.0465778
253	0xbd115657	-0.03548273
254	0x3d30f4cc	0.043202206
255	0x3b845b1b	0.004039181

feature_extractor.7.bias f4 [120]
0	0x3caf985a	0.021434952
1	0x3d17fbbc	0.037105307
2	0x3c985ea1	0.01859981
3	0x3cff64cc	0.031175993
4	0x3d2caa83	0.0421548
5	0xbd0b0b4b	-0.033946317
6	0x3d10ae22	0.035322316
7	0x3ae10752	0.0017168319
8	0xbd0de3a8	-0.034640938
9	0x3b9d329e	0.004797294
10	0x3cb2b3ca	0.021814246
11	0xbce5ac5c	-0.028036289
12	0xbd271587	-0.040792014
13	0xbd4a6da5	-0.04942097
14	0xbcdb11c0	-0.026741862
15	0xbd2fae82	-0.042891033
16	0x3cf52062	0.029922668
17	0xbcb57555	-0.022150675
18	0xbd2bd77b	-0.041953545
19	0xbcf8ee80	-0.030387163
20	0xbc3a4af9	-0.011370414
21	0x3cf078c3	0.029354459
22	0x3d14096f	0.03614181
23	0x3c6ea8f8	0.0145666525
24	0x3d1e5bd2	0.038661785
25	0xbd21b681	-0.03948069
26	0xbca4f2ed	-0.020135367
27	0x3d0d902e	0.03456133
28	0xbca22126	-0.019791197
29	0x3c5f981e	0.013647107
30	0xbc491dad	-0.012275142
31	0x3ce0450d	0.027376676
32	0xbd49a919	-0.04923353
33	0x3c99b2ff	0.01876211
34	0xbce90dd7	-0.028448982
35	0xbcf56f4e	-0.0299603
36	0x3d1f9554	0.03896077
37	0xbcb3d801	-0.021953585
38	0x3be5d3eb	0.007013788
39	0x3a8f741d	0.0010944639
40	0xbd11295a	-0.035439827
41	0x3ce4cbbb	0.027929178
42	0xbd07ab8d	-0.033122588
43	0xbc931b0d	-0.017957235
44	0xbd41d2be	-0.04732012
45	0xbc406ef6	-0.011745205
46	0x3c6508ab	0.013979117
47	0x3c673f4a	0.01411421
48	0x3cc554fb	0.024088373
49	0xbc8c00dd	-0.017090255
50	0x3c974352	0.018464718
51	0xbc48f7fe	-0.012266157
52	0x3d323796	0.043510042
53	0xbcde23d9	-0.027116703
54	0xbbc47877	-0.005995806
55	0xba80caf4	-0.000982611
56	0x3d169dab	0.036771458
57	0xbc84a8e6	-0.016193818
58	0xbd144725	-0.03620066
59	0x3c62c6b3	0.013841319
60	0x3d296a15	0.041360933
61	0xbd1c522b	-0.0381643
62	0xbc87e6da	-0.01658957
63	0xbc6b6b0f	-0.0143687865
64	0x3d09e2fa	0.033663727
65	0x3be18f3a	0.006883529
66	0xbd35f49a	-0.044422723
67	0x3d2ac893	0.04169519
68	0xbc5d92c7	-0.013523764
69	0xbd4058bc	-0.046959624
70	0x3d428935	0.047494132
71	0xbc35497a	-0.011064881
72	0x3ca66c4a	0.020315308
73	0x3b4dae57	0.0031384432
74	0x3d0ff41a	0.035144903
75	0xbcaa9c4d	-0.020826483
76	0xbc93f777	-0.018062336
77	0xbccebefd	-0.025237555
78	0xbd02fcc6	-0.031979345
79	0xbd01521f	-0.031572457
80	0x3cfd253f	0.03090155
81	0xbd07ccc7	-0.033154275
82	0xbb07d4f8	-0.0020726305
83	0x3bd38fd1	0.0064563532
84	0x3d49512a	0.04914967
85	0xbc91739a	-0.017755318
86	0xbc9a1b4a	-0.01881184
87	0x3c9c4bb5	0.019079069
88	0x3c4639cf	0.012098744
89	0x3c95947e	0.018259283
90	0x3d285468	0.04109612
91	0xbd1f4bcf	-0.038890656
92	0x3c602d52	0.01368268
93	0xbb8b05c8	-0.0042426325
94	0xbd37e975	-0.044900376
95	0xbb98a76f	-0.0046586315
96	0x3c5cba00	0.01347208
97	0x3ced9842	0.029003266
98	0x3b1d0107	0.0023956911
99	0xbd01eebd	-0.03172182
100	0xbc5b9819	-0.013402962
101	0x3d16862d	0.036749054
102	0x3cb3f363	0.021966642
103	0xbd149b4f	-0.036280926
104	0x3c46a28b	0.012123714
105	0xbc235b4b	-0.009970496
106	0x3beba28a	0.007191007
107	0x3d032add	0.0320233
108	0xbcbdc07e	-0.023163076
109	0xbb3c7a0f	-0.0028759276
110	0x3d1f737a	0.038928486
111	0xbbe55d98	-0.0069996826
112	0x3d490774	0.049079373
113	0xbae3881e	-0.0017359292
114	0x3be219f7	0.006900068
115	0xbc0be2d9	-0.008537971
116	0x3ca8d913	0.020611322
117	0xbc76d0b4	-0.015064407
118	0x3d525fae	0.05136078
119	0x3d339d12	0.043850966

classifier.0.weight f4 [84, 120]
0	0x3b9b5ed3	0.0047415285
1	0xbd43b136	-0.047776423
2	0x3ce95f07	0.028487695
3	0xbc58d912	-0.013235347
4	0xbd9d0ef1	-0.076688655
5	0x3c33800d	0.010955823
6	0xbd8495e5	-0.064739026
7	0xbd0029bd	-0.031289805
8	0xbd885948	-0.06657654
9	0x3d91f243	0.07126286
10	0x3d15a0a5	0.036530156
11	0xbd569f5d	-0.052398074
12	0x3d71cca2	0.059033044
13	0xbd8bbd35	-0.06823198
14	0x3c07280b	0.008249293
15	0xbd94571e	-0.07243179
16	0x3d51133a	0.051043727
17	0xbd4a6ddb	-0.049421173
18	0xbd03b292	-0.03215272
19	0x3cc1f429	0.023675995
20	0xbdb8e308	-0.09027678
21	0x3d5824ec	0.052769586
22	0x3bc497ad	0.0059995265
23	0xbd74e12c	-0.059785053
24	0xbc56aea5	-0.013103162
25	0xbd6b7820	-0.057487607
26	0x3cb65b38	0.022260293
27	0x3d09bab7	0.03362533
28	0xbd98bce9	-0.07457907
29	0x3d77087f	0.060310837
30	0xbd04dc9b	-0.03243695
31	0x3da8d23a	0.082432225
32	0xbbc58860	-0.00602822
33	0x3cb18d66	0.02167387
34	0xbd1d2c6f	-0.038372453
35	0xba6c0e91	-0.0009004856
36	0xbc2c1ff2	-0.010505663
37	0xbce02bf1	-0.027364703
38	0xbd4b6930	-0.04966086
39	0x3b3a7cd5	0.0028455753
40	0xbda8c390	-0.082404256
41	0xbd57da1c	-0.05269824
42	0xbd1565e0	-0.03647411
43	0x3b1a8443	0.002357737
44	0xbd674cd1	-0.056469742
45	0xbd330b3f	-0.043711897
46	0x3bf4cce9	0.0074707163
47	0x3ab5ad1c	0.0013860795
48	0x3b0ba9c3	0.0021310903
49	0xbd47c165	-0.04876842
50	0x3d90ffca	0.07080038
51	0xbcbb2203	-0.022843366
52	0xbd8f7f6c	-0.07006726
53	0x3d4e464c	0.05036001
54	0x3c3a1a7b	0.0113588525
55	0xbb6cd656	-0.0036138496
56	0xbda8fdb6	-0.082515165
57	0xbd6c031d	-0.057620157
58	0x3d647aef	0.0557813
59	0xbce29e12	-0.027663264
60	0xbd826aa3	-0.063679956
61	0x3d5743b4	0.0525548
62	0xbd9837ee	-0.07432543
63	0x3d575a91	0.052576605
64	0xbcfe46d4	-0.031039633
65	0x3d1d608d	0.038422156
66	0x3c513601	0.012769223
67	0x3db71adc	0.0894067
68	0x3d187705	0.03722288
69	0xbbca01d8	-0.0061647706
70	0x3db01211	0.08597196
71	0xbd962b80	-0.07332516
72	0x3c3bec7a	0.011469955
73	0x3cf801c1	0.030274274
74	0xbd901589	-0.070353575
75	0xbd45a3fe	-0.0482521
76	0xbd288764	-0.041144744
77	0xbd404b99	-0.046947096
78	0xbc2f08c3	-0.010683241
79	0xbd67b1ac	-0.056565925
80	0x3db192f1	0.08670605
81	0xbb15d230	-0.0022860877
82	0x3db99d89	0.090632506
83	0x3cbdbc3f	0.023161052
84	0xbc6a43a7	-0.014298356
85	0x3c02a78b	0.007974516
86	0xbd552489	-0.052036796
87	0xbd72f69a	-0.05931721
88	0x3d12571f	0.035727616
89	0xbc425ea0	-0.011863381
90	0x3c03120c	0.007999908
91	0xbc274c7c	-0.010211106
92	0x3d93196b	0.071825825
93	0xbdba0cc2	-0.090844646
94	0xbd6ca181	-0.05777121
95	0xbd439d6f	-0.047757562
96	0xbcecf610	-0.028925925
97	0x3d93e9a2	0.07222296
98	0x3d7cce68	0.06172028
99	0xbd89628a	-0.06708248
100	0xbcd6f105	-0.026237974
101	0x3d9acd63	0.07558706
102	0xbd907bbd	-0.07054851
103	0x3c1afee7	0.0094601875
104	0x3d0f88f5	0.03504272
105	0x3d312783	0.043250572
106	0x3d83cbb4	0.06435338
107	0x3d743a18	0.059625715
108	0x3cc0b666	0.023524474
109	0xbdb0311e	-0.08603118
110	0xbd24f37e	-0.040271275
111	0xbc8181cb	-0.01580896
112	0xbd8876af	-0.06663262
113	0xbd3ff5c2	-0.046865232
114	0x3ca3bdef	0.019988028
115	0xbd1155d7	-0.035482254
116	0x3c76a5ff	0.015054225
117	0x3d089178	0.033341855
118	0x3d409632	0.047018237
119	0xbd907f6d	-0.070555545
120	0x3da51278	0.08060163
121	0x3d153325	0.03642573
122	0x3c016a8e	0.00789894
123	0xbcde00e5	-0.027100036
124	0xbce34fbf	-0.027747987
125	0x3b588ccd	0.0033042908
126	0xbc357a9c	-0.011076596
127	0xbdb04981	-0.0860777
128	0x3c6bf558	0.014401756
129	0xbd76d05c	-0.0602573
130	0xbd9fc01a	-0.07800312
131	0x3d5cfd8b	0.053952735
132	0xbc739445	-0.014866893
133	0xbcc48c7b	-0.023992768
134	0xbc4ca7d9	-0.01249119
135	0xbd1eef04	-0.03880216
136	0x3d4300a9	0.04760805
137	0xbb45a9e3	-0.0030161075
138	0xbd25c5bb	-0.040471774
139	0x3db26dc9	0.08712346
140	0x3d8964c0	0.0670867
141	0x3d8ec19a	0.0697052
142	0xbdba2fe6	-0.09091167
143	0x3c8d4a8f	0.017247466
144	0x3bbefd70	0.005828552
145	0x3da3e44c	0.080025285
146	0x3ccfd165	0.025368402
147	0x3c9d78c7	0.01922263
148	0x3d6f9e0b	0.05850033
149	0x3d23cecb	0.039992135
150	0xbda6e196	-0.08148496
151	0xbdb7855d	-0.08960984
152	0xbd49e5d1	-0.049291436
153	0xbca23c58	-0.019804165
154	0x3cb1e92c	0.02171763
155	0x3d6b4695	0.05744036
156	0xbda6acc9	-0.08138425
157	0xbc5cef7b	-0.013484831
158	0xbd92a26c	-0.07159886
159	0x3da155fc	0.07877728
160	0x3d62013d	0.055176962
161	0x3d573e51	0.052549664
162	0xbc144c64	-0.009051416
163	0xbd6d3509	-0.057911906
164	0xbd3bce6b	-0.045851152
165	0xba819c66	-0.0009888529
166	0x39f8a416	0.000474245
167	0xbac1f391	-0.001479732
168	0x3da3988a	0.07988079
169	0xbd42d196	-0.047563158
170	0x3d8bfb95	0.06835095
171	0x3d25cf37	0.04048082
172	0xbd9211ee	-0.07132326
173	0xbd275211	-0.04084975
174	0xbd6268d6	-0.05527576
175	0xbb034b00	-0.0020033717
176	0x3d46a4cb	0.048497003
177	0x3d56bc09	0.052425418
178	0xbc99e133	-0.018784141
179	0x3da28bb6	0.07936804
180	0x3d319e0a	0.04336361
181	0x3c81c301	0.015840055
182	0xbd979a81	-0.07402516
183	0xbd9dc6e4	-0.07703951
184	0x3d67e2c7	0.056612756
185	0x3d47be66	0.048765562
186	0xbd33fab5	-0.043940265
187	0xbd8bd0b5	-0.06826917
188	0x3b574833	0.003284943
189	0xbdaae8b8	-0.08345169
190	0x3d7be237	0.061495032
191	0x3d44d8d2	0.04805834
192	0x3ccecdcc	0.025244616
193	0xbd85173c	-0.06498572
194	0xbc6d9800	-0.014501572
195	0xbd3aaccf	-0.04557496
196	0x3d328341	0.043582205
197	0x3db233e7	0.08701306
198	0x3b70e747	0.0036758946
199	0xbcc09623	-0.02350909
200	0x3d80ef65	0.06295661
201	0xbcadcfcf	-0.021217255
202	0xbd32ca82	-0.043650158
203	0xbd9ce731	-0.07661284
204	0x3c4486bf	0.011995017
205	0x3d93abd8	0.07210511
206	0x3d6aebd0	0.057353795
207	0x3d0a179c	0.033713922
208	0x3d816ccc	0.063195795
209	0xbd95687d	-0.0729532
210	0x3db45f0f	0.088071935
211	0xbceeb8db	-0.02914088
212	0xbdb3bbfc	-0.087760895
213	0x3d28c297	0.0412012
214	0x3cb2df0c	0.021834873
215	0xbcadbea8	-0.021209076
216	0xbdb15fc2	-0.086608425
217	0x3a814f56	0.0009865563
218	0xbd38eac8	-0.04514578
219	0xbd688644	-0.05676867
220	0x3da79c8f	0.08184158
221	0x3d30a812	0.043129034
222	0xbda2dd28	-0.079523385
223	0xbd2106a5	-0.039312977
224	0xbd3a4ff8	-0.04548642
225	0xbda8a537	-0.08234637
226	0xbd91e4be	-0.07123707
227	0x3db9f2ff	0.09079551
228	0x3b84559b	0.0040385253
229	0x3d96b0c3	0.07357933
230	0x3c7ea4da	0.015542233
231	0x3db47573	0.08811464
232	0xbd62a0ef	-0.05532926
233	0x3cc33bb1	0.023832174
234	0xbd3945a3	-0.045232426
235	0x3d04fa21	0.032465104
236	0x3d907860	0.0705421
237	0x3d8cc18f	0.06872856
238	0xbd7948e0	-0.060860515
239	0xbb689759	-0.00354906
240	0x3c1034bb	0.008801634
241	0x3c748144	0.014923397
242	0xbd1ac6f0	-0.037787378
243	0x3c987cc5	0.018614182
244	0xbd92f8fb	-0.071763955
245	0xbced5f1a	-0.028976012
246	0xbd11dd80	-0.03561163
247	0xbce75f09	-0.028243558
248	0xbd5f47e9	-0.05451194
249	0x3d8163b3	0.06317844
250	0xbc77dae1	-0.015127868
251	0x3d31979e	0.043357484
252	0xbb492398	-0.0030691382
253	0x3ba5837a	0.0050510736
254	0x3dab230a	0.083562925
255	0x3d82958b	0.06376179

classifier.0.bias f4 [84]
0	0xbc3bcbe1	-0.011462183
1	0xbdb141f1	-0.086551555
2	0x3d400033	0.04687519
3	0x3d97a10a	0.07403763
4	0x3c9e58c3	0.019329434
5	0x3d141148	0.036149293
6	0x3da0abc1	0.078452595
7	0x3d5946fd	0.053046215
8	0xbd33759d	-0.043813337
9	0x3d4f16bf	0.0505588
10	0xbda2a694	-0.079419285
11	0x3db53abc	0.08849093
12	0x3d6ef14d	0.05833559
13	0xbd4411bb	-0.04786847
14	0xbcb702c1	-0.02234018
15	0xbd700356	-0.05859693
16	0xbd2f8af4	-0.042857125
17	0xbd54b819	-0.05193338
18	0xbdb4cc63	-0.08828046
19	0xbc8cf1da	-0.017205168
20	0x3d2210f6	0.039566956
21	0x3d697bfc	0.057003006
22	0xbce8063a	-0.028323282
23	0xbd8f9b3b	-0.0701203
24	0x3d552b3a	0.052043177
25	0x3ab5a6dc	0.0013858932
26	0xba94bfa8	-0.0011348622
27	0x3d3a755a	0.04552207
28	0xbcc58ff5	-0.024116496
29	0x3d1f4ea9	0.038893376
30	0x3cfbfaf9	0.030759322
31	0xbc4f0b42	-0.012636961
32	0xbbc0532a	-0.005869289
33	0xbcd04764	-0.025424667
34	0xbd26f4a5	-0.040760655
35	0xbb3b8f61	-0.0028619396
36	0xbd9c3957	-0.07628124
37	0xbd912a63	-0.07088163
38	0xb9255b4a	-0.00015769634
39	0xbdb0c196	-0.086306736
40	0xbc425024	-0.011859927
41	0xbda4d4c5	-0.08048395
42	0x3ce58203	0.028016096
43	0x3c09eb17	0.008417866
44	0xbd455f9b	-0.04818688
45	0xbb9ddccf	-0.004817582
46	0x3d101a33	0.035181236
47	0xbd96fbc0	-0.07372236
48	0xbd99bd9c	-0.07506868
49	0x3c905cfd	0.017622465
50	0x3cdb79fa	0.026791561
51	0x3d3b369b	0.045706373
52	0x3c16df69	0.009208539
53	0xbdb433b6	-0.087989256
54	0xbd62f042	-0.05540491
55	0xbaea8670	-0.0017892849
56	0xbd3b8be2	-0.0457877
57	0xbd0fff2c	-0.03515546
58	0x3cad63b4	0.021165706
59	0xbd56680d	-0.052345324
60	0x3c64a8b0	0.013956234
61	0x3dc7d86d	0.09758077
62	0x3dad1b26	0.08452444
63	0xbc7082df	-0.01467964
64	0x3d6d6944	0.057961717
65	0xbd996c7c	-0.07491395
66	0x3d2e876f	0.04260963
67	0x3c2fa49f	0.010720401
68	0x3da489c1	0.08034087
69	0x3d7d63dc	0.06186281
70	0xbdaf84f1	-0.085702784
71	0x3da24c88	0.079247534
72	0x3d892240	0.06695986
73	0x3d9ba816	0.07600419
74	0x3d39df54	0.045378998
75	0xbd3bcb2f	-0.045848068
76	0xbbab2642	-0.0052230665
77	0xbb60a880	-0.0034280121
78	0x3d175d4b	0.036954205
79	0x3d388a24	0.045053616
80	0xbd1b5232	-0.037920184
81	0xbcae81fd	-0.021302218
82	0xbd333411	-0.043750826
83	0xbac0da6f	-0.0014713536

classifier.2.weight f4 [10, 84]
0	0xbdc0ce9a	-0.09414406
1	0xbdb08d5f	-0.086207144
2	0x3d372a52	0.044718094
3	0xbcd6cc89	-0.026220577
4	0x3d04a3b3	0.03238268
5	0xbd366b2a	-0.044535793
6	0x396f9500	0.00022848323
7	0x3d4e3d1c	0.050351247
8	0xbda03320	-0.07822251
9	0x3dd5241f	0.1040728
10	0xbd90e8c6	-0.07075648
11	0xbcc347e4	-0.023837991
12	0x3d72834c	0.059207246
13	0xbdd5a46b	-0.10431751
14	0x3d5f61ef	0.054536756
15	0x3d84a54c	0.064768404
16	0xbe04463e	-0.1291742
17	0xbc93491f	-0.017979203
18	0xbd9d1595	-0.07670132
19	0x3de7eb9a	0.11324234
20	0xbdbce26a	-0.092228726
21	0xbe028918	-0.1274761
22	0xbd9d88d2	-0.07692112
23	0x3db47b61	0.08812595
24	0x3caa3239	0.020775901
25	0xbdd752ec	-0.10513863
26	0xbca3f7bb	-0.020015588
27	0xbda1b999	-0.07896728
28	0x3dff0a84	0.124531776
29	0xbdbfed42	-0.09371425
30	0x3cb4c575	0.022066811
31	0x3daf1f67	0.085509114
32	0xbde6d6a9	-0.11271412
33	0x3cbe1454	0.023203053
34	0x3b05535c	0.0020343876
35	0x3d221b93	0.039577078
36	0xbd4dc4b8	-0.050236434
37	0xbd9a2de7	-0.075282864
38	0x3c74697e	0.014917729
39	0xbd0c40a5	-0.034241337
40	0xbc755bfb	-0.014975543
41	0x3df8a64b	0.12141093
42	0xbd98c62c	-0.07459673
43	0xbd487525	-0.048939843
44	0x3d8749a1	0.066058405
45	0xbd971bf8	-0.073783815
46	0x3d9a66ad	0.07539115
47	0x3e106383	0.1410046
48	0x3dbcde63	0.092221044
49	0x3da05286	0.0782824
50	0xbe113b07	-0.14182673
51	0x3d35b2d0	0.044359982
52	0xbde6130c	-0.11234102
53	0xbd37ffc6	-0.04492166
54	0xbd9dd8a8	-0.077073395
55	0xbda7da6a	-0.08195956
56	0x3db8fdbc	0.09032771
57	0x3d99a2f3	0.07501783
58	0x3ce151b9	0.027504789
59	0x3d2c6ede	0.04209792
60	0x3e10d8f6	0.14145264
61	0x3d2b285d	0.04178654
62	0xbcb3a9f7	-0.021931631
63	0x3d93d7c1	0.07218886
64	0xbd1c760c	-0.038198516
65	0xbc377ea8	-0.011199631
66	0x3d4cc4c7	0.04999235
67	0x3c5bb370	0.01340948
68	0x3db28564	0.087168485
69	0xbc4ff005	-0.012691502
70	0xbd650ba5	-0.05591931
71	0x3d2e62c0	0.042574644
72	0x3dd55959	0.10417432
73	0xbdfba0db	-0.1228654
74	0xbdf4149c	-0.119179934
75	0x3d0bd329	0.034136925
76	0x3d866a4f	0.065632455
77	0x3c4219d1	0.011846975
78	0xbdbfeef1	-0.09371746
79	0xbde13b3f	-0.109976284
80	0xbb04e52c	-0.0020278199
81	0x3d5c5e33	0.053800773
82	0xbe083bd5	-0.13304074
83	0x3db16423	0.08661678
84	0xbdd2c5d4	-0.10291639
85	0x3d0c71d8	0.034288257
86	0xbd31c416	-0.043399893
87	0xbda8ffc5	-0.08251909
88	0x3ca802ce	0.02050915
89	0xbc0dbabe	-0.00865048
90	0x3d8263c6	0.063666865
91	0x3defd2f3	0.11710157
92	0x3e09841d	0.13429303
93	0x3d86c288	0.06580073
94	0xbddf350e	-0.10898791
95	0x3ddfcc50	0.109276414
96	0x3e1c4f70	0.15264678
97	0xbd9ca141	-0.07647944
98	0x3df91472	0.12162103
99	0xbe191aeb	-0.14951675
100	0xbdf41b5e	-0.119192824
101	0x3da77198	0.08175963
102	0x3dcb5247	0.099278025
103	0x3c3f4803	0.011674884
104	0xbdbd6256	-0.09247272
105	0x3c83ef32	0.016105268
106	0x3d6b8b64	0.05750598
107	0x3cff53ba	0.031167854
108	0x3d957158	0.07297009
109	0xbd6c31af	-0.05766457
110	0x3db1a7e2	0.08674599
111	0xbd437024	-0.047714368
112	0x3d4c6a35	0.049905974
113	0x3d543aeb	0.051814
114	0xbdc8cf65	-0.09805182
115	0x3d894572	0.06702699
116	0x3da6595e	0.08122514
117	0xbdc4e257	-0.096134834
118	0xbccaecd5	-0.024771133
119	0x3db612f1	0.088903315
120	0x3d9cf324	0.07663563
121	0x3d72c15b	0.05926643
122	0x3d428517	0.047490206
123	0xbd168e1e	-0.036756627
124	0x3d66d745	0.05635764
125	0xbdb91b30	-0.09038389
126	0x3c3270bc	0.010891136
127	0xbd0a2be4	-0.033733264
128	0xbd30d136	-0.04316827
129	0x3e00966e	0.12557384
130	0xbda02968	-0.078203976
131	0x3e04dfb8	0.12975967
132	0x3dba7706	0.09104733
133	0x3d768b98	0.06019172
134	0x3dba879e	0.09107898
135	0xbdf71f4e	-0.12066518
136	0x3d87420f	0.066043966
137	0x3a2e1538	0.0006640735
138	0xbd867308	-0.06564909
139	0x3be0e656	0.0068633957
140	0x3ceb3494	0.028711595
141	0xbda85942	-0.082201496
142	0xbd832838	-0.064041555
143	0x3db0bb1a	0.08629437
144	0xbda5566d	-0.08073125
145	0x3dddc890	0.1082927
146	0xbd868490	-0.06568253
147	0xbdb4f0c8	-0.08834988
148	0x3dcaf62c	0.09910235
149	0x3dc25726	0.094892785
150	0x3e00eeeb	0.1259114
151	0x3dbea1dd	0.09308217
152	0x3dbcef97	0.09225386
153	0x3d4f0804	0.050544754
154	0x3b2d470b	0.002644005
155	0x3cd78334	0.02630768
156	0x3caae1e0	0.020859659
157	0x3d7f09ae	0.06226509
158	0xbd3d28dc	-0.046181545
159	0x3d30daf6	0.043177567
160	0xbd996040	-0.07489061
161	0xbd999221	-0.07498575
162	0x3cef036e	0.02917644
163	0x3db594a3	0.08866241
164	0x3c88809f	0.016662894
165	0x3dacb836	0.08433573
166	0xbd83b1bf	-0.06430387
167	0xbdd85649	-0.105633326
168	0xbcadfc26	-0.021238398
169	0xbdca48f1	-0.09877194
170	0x3db42f9b	0.087981425
171	0xbe0a9f64	-0.13537365
172	0x3dcb88bb	0.09938189
173	0x3d8ce834	0.06880227
174	0x3dbf137f	0.093298905
175	0x3dbd100e	0.09231578
176	0x3cea973d	0.02863657
177	0x3af67215	0.001880231
178	0x3db20640	0.08692598
179	0xbd8262e3	-0.063665174
180	0xbd3a3122	-0.045457013
181	0x3d9049ed	0.0704535
182	0xbdb4c971	-0.088274844
183	0x3b43fc4f	0.0029905026
184	0x3dcad730	0.09904325
185	0x3cb8dc6d	0.022566045
186	0xbd5b8815	-0.053596575
187	0xbca9bda5	-0.020720312
188	0xbdbf1cbb	-0.09331652
189	0x3d807077	0.06271451
190	0x3de1793d	0.110094525
191	0x3dd305af	0.103038184
192	0x3b99cec3	0.0046938374
193	0x3d991623	0.07474925
194	0x3dc23628	0.09482986
195	0x3e01e945	0.12686642
196	0x3cbf760c	0.023371719
197	0x3da2f2f8	0.07956499
198	0xbd0a00d5	-0.0336922
199	0x3aa2753e	0.001239456
200	0xbdf39990	-0.11894524
201	0xbd85edc8	-0.06539494
202	0xbdb7f3d1	-0.08982051
203	0xbd7caef3	-0.061690282
204	0xbcac17db	-0.021007469
205	0xbd82de8f	-0.06390106
206	0xbde95bd4	-0.11394468
207	0x3d8aebbe	0.067832455
208	0xbc13b370	-0.009014949
209	0x3d12e315	0.035861094
210	0x3dd7bc8e	0.10534011
211	0x3dc39b03	0.095510505
212	0xbdbabf4f	-0.091185205
213	0xbae2e23b	-0.0017309854
214	0xbd00cd16	-0.031445585
215	0x3d420e21	0.047376756
216	0x3c9ff7ed	0.0195274
217	0xba86f0c3	-0.0010295141
218	0x3cbc017d	0.022949928
219	0x3df10653	0.117687844
220	0x3d0b6392	0.034030505
221	0x3d5de5d2	0.05417425
222	0xbe0a3abd	-0.1349897
223	0x3c9eda87	0.019391311
224	0x3c707951	0.014677362
225	0x3d935f32	0.071958914
226	0xbd5edb92	-0.054408617
227	0xbd1294d6	-0.035786472
228	0x3d38aa5c	0.045084342
229	0x3c49c5d5	0.012315233
230	0xbdeb109c	-0.11477777
231	0xbe002793	-0.12515096
232	0xbd4da080	-0.050201893
233	0xbd6048f7	-0.054757085
234	0xbdaebf38	-0.08532566
235	0xbdbec161	-0.09314228
236	0x3e138145	0.14404781
237	0xbcdb9581	-0.026804687
238	0x3d3b830f	0.045779284
239	0x3db1ece0	0.086877584
240	0x3c8477f3	0.016170477
241	0xbcdd2423	-0.02699477
242	0x3dc76ab5	0.097371496
243	0x3da5e9a9	0.08101208
244	0x3ca0a764	0.019611068
245	0xbd33456c	-0.043767378
246	0x3cdf4655	0.027255217
247	0xbd0f21c9	-0.03494433
248	0xbdca5ec1	-0.09881354
249	0xbcf412de	-0.029794153
250	0x3dbf7e62	0.093502775
251	0xbdce5d41	-0.100763805
252	0x3d9f0f58	0.077665985
253	0xbae89f62	-0.0017747695
254	0xbbc53b5a	-0.006019038
255	0xbdd0caf8	-0.10194963

classifier.2.bias f4 [10]
0	0xbc118815	-0.008882542
1	0xbbdb4c7e	-0.006692468
2	0xbccefab7	-0.025266035
3	0x3cb3f31c	0.02196651
4	0xbc8bb391	-0.017053397
5	0x3cf24005	0.029571543
6	0x3d6f82ec	0.058474466
7	0xbcfc2c54	-0.030782856
8	0xbd80e769	-0.06294138
9	0x3d4735f3	0.048635434
