checkpoints/noise_rate_0.2/models/est/epoch22.pth (torch, 250639 bytes, 10 tensors)

feature_extractor.0.weight f4 [6, 1, 5, 5]
0.12672052 -0.066852435 -0.025318323 0.095849544 -0.19447558 0.15295964 -0.00748274 0.13234
0.048891135 -0.013229685 0.08434093 0.04658768 0.11449261 -0.040853694 0.015343534 -0.007355225
0.05021868 0.03243729 0.21191563 0.09822314 -0.077423856 -0.11467355 -0.01826828 -0.06478436
-0.03843228 0.07302677 0.19715007 0.16253461 -0.19018108 0.097662434 0.13539486 0.27963355
0.18124422 -0.1893302 -0.21753864 -0.011764059 0.26355758 0.014195169 0.08951387 -0.10093182
0.26913333 -0.008908171 0.20352155 0.032931294 -0.08310088 0.15447417 -0.04896409 0.112986065
-0.008693216 0.024335057 -0.20919661 -0.11352223 0.103829876 -0.029284418 0.2332938 0.16061799
-0.0018738359 -0.10498144 0.16802663 0.10636256 -0.10681936 0.16228513 0.17226952 0.23253845
-0.07410513 -0.0015421639 0.034805227 0.076410994 -0.11007846 -0.115999006 0.13862722 -0.012493895
0.13560113 0.042188447 0.088238426 0.029289769 0.068257116 0.10242055 -0.17311251 0.12028926
-0.14668725 -0.14901824 0.02657957 -0.0069809966 0.15344258 -0.11699284 -0.17064504 0.17090243
0.009028568 0.15518913 0.06447893 -0.1383131 0.06970969 0.08670529 -0.098730884 -0.09332637
0.082376815 0.06133336 -0.05736916 -0.038892478 0.23521249 0.06950283 0.23325698 0.17081487
-0.101101846 -0.07984376 0.3471942 0.166653 0.23492827 0.08024559 0.20272484 0.3414623
0.3583088 -0.039539702 0.070176825 0.29440585 0.31898645 0.26488593 -0.06500629 -0.09284307
-0.012121012 0.14296035 0.29650024 -0.052761313 0.17144912 -0.109455556 -0.16607358 0.029007625
0.22878884 0.29509497 -0.10197756 0.10537834 0.2939321 0.28434664 0.24766016 0.18915163
0.2160562 0.18818478 0.011680524 -0.056945473 -0.046031024 0.056096334 -0.008391759 0.1987073
0.16273351 -0.015656624 0.12993929 0.14638075 0.21440907 0.215342
00000000: 06c3 013e eee9 88bd 5f68 cfbc c44c c43d
00000010: 9b24 47be 74a1 1c3e c631 f5bb 2384 073e
00000020: 1242 483d 52c1 58bc f0ba ac3d b9d2 3e3d
00000030: 1a7b ea3d 3456 27bd 7263 7b3c 1904 f1bb
00000040: 1ab2 4d3d f7dc 043d 6900 593e 3729 c93d
00000050: 6690 9ebd f7d9 eabd 5ca7 95bc aaad 84bd
00000060: 2b6b 1dbd 0f8f 953d b5e1 493e 796f 263e
00000070: d4be 42be 3e03 c83d f3a4 0a3e 212c 8f3e
00000080: 1698 393e c7df 41be 73c2 5ebe 0abe 40bc
00000090: 05f1 863e db92 683c 0c53 b73d 58b5 cebd
000000a0: d8cb 893e 94f3 11bc f467 503e f7e2 063d
000000b0: cb30 aabd 7a2e 1e3e 928e 48bd 3d65 e73d
000000c0: fe6d 0ebc 505a c73c a337 56be 587e e8bd
000000d0: c2a4 d43d e0e5 efbc 92e4 6e3e 0b79 243e
000000e0: 809b f5ba 8200 d7bd 2c0f 2c3e 9dd4 d93d
000000f0: 1cc4 dabd 132e 263e 6c67 303e 8f1e 6e3e
00000100: 6ec4 97bd 6f22 caba ed8f 0e3d 5e7d 9c3d
00000110: d170 e1bd e390 edbd 4bf4 0d3e 32b3 4cbc
00000120: 06db 0a3e cbcd 2c3d 59b6 b43d 19f1 ef3c
00000130: 63ca 8b3d dec1 d13d 6844 31be 375a f63d
00000140: 2f35 16be 3d98 18be 66bd d93c d8c0 e4bb
00000150: 0d20 1d3e f199 efbd 93bd 2ebe 0c01 2f3e
00000160: 8fec 133c e6e9 1e3e 870d 843d f3a1 0dbe
00000170: f4c3 8e3d 8b92 b13d 6b33 cabd e521 bfbd
00000180: 2db5 a83d b038 7b3d edfb 6abd b84d 1fbd
00000190: 8bdb 703e 8057 8e3d ebda 6e3e 18ea 2e3e
000001a0: 7c0e cfbd 2085 a3bd 70c3 b13e 16a7 2a3e
000001b0: 0991 703e cd57 a43d 1a97 4f3e 26d4 ae3e
000001c0: 4074 b73e 62f4 21bd deb8 8f3d 5dbc 963e
000001d0: 3152 a33e 219f 873e 0522 85bd 8224 bebd
000001e0: 3697 46bc 3364 123e e1ce 973e 3f1c 58bd
000001f0: 5c90 2f3e 3c2a e0bd 310f 2abe 66a1 ed3c
00000200: 9f47 6a3e b016 973e 9cd9 d0bd 99d0 d73d
00000210: 457e 963e e295 913e a09a 7d3e f7b0 413e
00000220: d63d 5d3e 83b3 403e ab5f 3f3c a83f 69bd
00000230: 078b 3cbd 45c5 653d 977d 09bc ed79 4b3e
00000240: 9da3 263e 5242 80bc ce0e 053e d6e4 153e
00000250: 0d8e 5b3e 9d82 5c3e

feature_extractor.0.bias f4 [6]
-0.051375296 0.22735168 -0.0044728196 -0.004415403 -0.11255082 -0.057504565
00000000: e76e 52bd e1ce 683e bb90 92bb 16af 90bb
00000010: 0b81 e6bd e889 6bbd

feature_extractor.3.weight f4 [16, 6, 5, 5]
-0.04387741 -0.031980086 0.06134013 -0.022700857 -0.05789399 0.038142208 0.035807855 0.063885644
-0.03478617 0.020902907 -0.026627842 -0.011360334 -0.06102945 -0.03772019 -0.02837945 0.036819518
0.020073093 0.022068046 0.07844339 0.07541898 0.054222737 0.0054088053 -0.054497607 0.06219243
-0.022613091 -0.012834616 -0.06147917 0.009612236 -0.035561703 0.07348464 -0.07357447 -0.04282813
0.029490208 -0.03652656 0.021126758 -0.030117657 -0.01620815 0.027441496 0.058074705 -0.07061703
0.03832625 0.06914614 0.09432337 -0.06149384 0.005590259 -0.066406325 0.07964488 -0.016228348
0.047059376 -0.0045722467 -0.0085379 0.008210702 0.02361837 0.03708228 0.010296918 0.034272414
-0.05696851 0.062669754 0.06616967 0.06730102 0.07096747 -0.052110516 -0.03699254 0.06097499
-0.066575125 0.07676074 -0.06564606 -0.06461048 0.029119544 -0.065934576 -0.016988127 0.06221085
0.05928255 0.06965524 -0.021704836 -0.06213351 0.085224405 -0.015732963 -0.035837814 0.020741405
-0.05156833 0.05726324 0.04840188 -0.06774361 -0.06626075 -0.0016861574 0.03510153 -0.004044129
-0.041964497 0.0024350355 -0.0726619 -0.055647444 -0.056109823 0.06657155 0.07228554 -0.024060136
0.005948475 0.034735136 0.009961979 -0.038872335 0.042768914 0.07160286 0.035827264 0.005828878
0.07411607 0.08595125 -0.00080271426 0.117710665 0.02280383 -0.06420943 0.058895808 -0.028268585
0.09014981 -0.06783135 0.00034017945 0.024692748 0.036944665 0.07099508 -0.05718324 -0.059544187
-0.07919759 0.0077095116 -0.02698772 -0.008166188 -0.031506423 0.039206468 0.099256955 0.036585566
-0.028119896 -0.04069175 -0.045968987 0.0979451 -0.009972975 0.008928408 0.0036976233 -0.028185347
0.06069557 0.033672072 -0.016060995 -0.054670088 -0.02221403 0.0028686412 -0.06297775 -0.06749676
-0.024455711 -0.016258983 0.026341753 -0.030685654 -0.02536899 -0.03991224 -0.07289989 0.077557385
0.022661397 0.076805055 -0.012417414 -0.013979919 -0.0646652 -0.016226608 0.0631691 -0.07705325
-0.026958345 0.05340842 0.053801265 0.03969658 -0.008697711 -0.0132990405 -0.025018409 -0.0327681
0.042194817 -0.013140867 -0.04241879 0.021901978 -0.050195992 -0.0021589433 0.060415722 0.031710714
0.08257961 -0.033855308 0.019467883 -0.022344222 -0.036000144 -0.03142233 0.04942982 0.03781391
-0.029125929 -0.05123105 -0.06820891 0.094451 0.011351327 0.008816016 -0.03570941 -0.050410543
-0.068763874 -0.020068437 0.086643726 0.011411556 -0.026293216 -0.006376293 0.08139835 0.08766155
0.086733595 0.034326185 0.048013438 -0.005681142 -0.052768875 -0.067851365 0.06172016 -0.0024529265
0.035525866 0.005299697 -0.07180965 -0.034720026 0.028801264 -0.008049098 -0.07044423 0.020427996
0.0075503546 -0.0042974222 0.05828268 0.03757202 -0.024867743 0.101889156 0.07615692 0.03703216
-0.0043302253 -0.06680385 0.06582807 -0.021189151 -0.055839002 0.049958333 0.032993224 0.024896996
-0.014443236 -0.026624562 0.012333199 0.06391088 0.016636811 -0.03246854 0.085572116 0.0033607632
0.06373083 0.029385664 0.087663025 0.05801592 -0.03972174 0.06240022 0.008963327 -0.05900574
-0.017703397 -0.07573857 -0.029747589 -0.031814773 0.09035415 -0.0002492502 -0.020746663 0.067485176
00000000: cdb8 33bd 8dfd 02bd ca3f 7b3d 26f7 b9bc
00000010: 4022 6dbd 013b 1c3d 42ab 123d 7ad6 823d
00000020: f17b 0ebd 933c ab3c a222 dabc b220 3abc
00000030: 04fa 79bd 7c80 1abd 057c e8bc 10d0 163d
00000040: 5470 a43c 0cc8 b43c eea6 a03d 4475 9a3d
00000050: a918 5e3d 593c b13b e238 5fbd 7dbd 7e3d
00000060: 173f b9bc 4848 52bc 95d1 7bbd a47c 1d3c
00000070: 26a9 11bd 1d7f 963d 36ae 96bd 8d6c 2fbd
00000080: 7395 f13c e09c 15bd 0612 ad3c 4eb9 f6bc
00000090: f4c6 84bc fdcc e03c bedf 6d3d a99f 90bd
000000a0: fcfb 1c3d 7e9c 8d3d 9c2c c13d f7e0 7bbd
000000b0: 7e2e b73b 0a00 88bd db1c a33d 50f1 84bc
000000c0: 55c1 403d c9d2 95bb 8ce2 0bbc 2e86 063c
000000d0: 507b c13c 97e3 173d 68b4 283c 3b61 0c3d
000000e0: d057 69bd 0059 803d f783 873d 1ed5 893d
000000f0: 6557 913d d671 55bd 7d85 17bd e9c0 793d
00000100: 8a58 88bd bc34 9d3d 7171 86bd 8052 84bd
00000110: 1c8c ee3c b508 87bd af2a 8bbc ced0 7e3d
00000120: 42d2 723d 68a7 8e3d 57ce b1bc b57f 7ebd
00000130: 228a ae3d 6ae2 80bc acca 12bd e1e9 a93c
00000140: 5039 53bd dc8c 6a3d 0d41 463d 29bd 8abd
00000150: b7b3 87bd 0e02 ddba 9fc6 0f3d 9d84 84bb
00000160: f7e2 2bbd 1e95 1f3b c3cf 94bd 93ee 63bd
00000170: 6ad3 65bd aa56 883d 710a 943d c319 c5bc
00000180: 6deb c23b 6e46 0e3d 9237 233c 9938 1fbd
00000190: 752e 2f3d 85a4 923d 9cbf 123d 2c00 bf3b
000001a0: 2bca 973d 3507 b03d 3e6d 52ba 4a12 f13d
000001b0: 19cf ba3c 3c80 83bd bb3c 713d 8593 e7bc
000001c0: 77a0 b83d 2aeb 8abd 1d5a b239 7248 ca3c
000001d0: 4a53 173d de65 913d f938 6abd 9be4 73bd
000001e0: 5932 a2bd 12a0 fc3b 5a15 ddbc 7acb 05bc
000001f0: e10c 01bd f696 203d 3b47 cb3d bfda 153d
00000200: b25b e6bc 64ac 26bd fa49 3cbd 7197 c83d
00000210: b065 23bc 7548 123c d353 723b f5e4 e6bc
00000220: eb9b 783d baeb 093d 5992 83bc beed 5fbd
00000230: 33fa b5bc d0ff 3b3b 7bfa 80bd be3b 8abd
00000240: 5857 c8bc 8f31 85bc a9ca d73c 7b60 fbbc
00000250: a1d2 cfbc 047b 23bd 8a4c 95bd 68d6 9e3d
00000260: 65a4 b93c f84b 9d3d 6972 4bbc 080c 65bc
00000270: 306f 84bd aaed 84bc cd5e 813d 18ce 9dbd
00000280: bfd7 dcbc cac2 5a3d b75e 5c3d e298 223d
00000290: d880 0ebc 38e4 59bc 68f3 ccbc d837 06bd
000002a0: 79d4 2c3d cb4c 57bc 53bf 2dbd c76b b33c
000002b0: 509a 4dbd 0f7d 0dbb 7a76 773d 18e3 013d
000002c0: 801f a93d ddab 0abd 1c7b 9f3c 3b0b b7bc
000002d0: e374 13bd b3b4 00bd ec76 4a3d c2e2 1a3d
000002e0: 8099 eebc a6d7 51bd 1db1 8bbd 876f c13d
000002f0: ebfa 393c 0d71 103c 0844 12bd 497b 4ebd
00000300: 13d4 8cbd 9066 a4bc 4472 b13d 89f7 3a3c
00000310: df64 d7bc 39f0 d0bb 2eb4 a63d e687 b33d
00000320: 62a1 b13d 9d99 0c3d bda9 443d e028 babb
00000330: 2d24 58bd a8f5 8abd 47ce 7c3d 47c1 20bb
00000340: 9283 113d 15a9 ad3b f010 93bd 9636 0ebd
00000350: a1f0 eb3c 5de0 03bc 1145 90bd 9d58 a73c
00000360: f768 f73b 64d1 8cbb d2b9 6e3d 1ee5 193d
00000370: 70b7 cbbc 43ab d03d 29f8 9b3d 09af 173d
00000380: 90e4 8dbb 75d0 88bd ded0 863d df94 adbc
00000390: 70b7 64bd 1ca1 4c3d e723 073d c9f4 cb3c
000003a0: 53a3 6cbc c11b dabc 3011 4a3c b5e3 823d
000003b0: ec49 883c bbfd 04bd 6f40 af3d 4040 5c3b
000003c0: 4f85 823d 34ba f03c ac88 b33d 1aa2 6d3d
000003d0: 43b3 22bd 6097 7f3d ebda 123c 01b0 71bd
000003e0: b706 91bc d31c 9bbd 37b1 f3bc 3550 02bd
000003f0: 990b b93d ccad 82b9 e8f4 a9bc ab35 8a3d

feature_extractor.3.bias f4 [16]
-0.02168653 -0.049787506 0.0076541775 0.038246986 0.06217009 -0.02899344 0.000743868 -0.04106395
-0.06364879 -0.053660646 -0.051334042 -0.050142273 0.030125156 -0.011968535 0.06433782 0.07374943
00000000: f3a7 b1bc fced 4bbd e5cf fa3b dfa8 1c3d
00000010: 10a6 7e3d a783 edbc 2300 433a ac32 28bd
00000020: 4c5a 82bd 44cb 5bbd a543 52bd fc61 4dbd
00000030: 08c9 f63c ad17 44bc 8cc3 833d f109 973d

feature_extractor.7.weight f4 [120, 400]
-0.0393634 0.014093268 0.033207446 -0.042074922 -0.014337157 0.035953064 -0.035619196 0.04636775
-0.002610712 0.009640581 0.0461792 -0.040378265 0.04450966 -0.0487056 0.030366044 0.0004007854
0.04360292 -0.0021057224 -0.049577855 0.013746445 0.03304374 -0.008675347 -0.04888833 -0.0024983932
0.0077774194 0.013589173 0.020248964 -0.009439796 -0.0015796036 -0.002757851 0.022848193 0.015923599
0.018832106 -0.0025678182 0.0078952275 0.04005664 0.010763093 -0.047333512 0.012330147 0.057056744
-0.0050175213 0.03506443 -0.036669407 -0.005731514 0.036595505 -0.021539861 -0.0025623278 0.006219626
-0.0064615994 -0.015864221 0.034896288 -0.009050026 -0.014909493 0.037261195 0.011838893 -0.022274483
0.030938119 -0.028783947 0.049723007 0.04342324 0.004374625 0.014030442 -0.02062104 -0.036079686
-0.028714523 0.018015841 0.024389 -0.003614738 -0.016106639 -0.015299954 -0.021814184 -0.023620104
0.033073425 -0.04615534 0.033424783 0.029798035 -0.014501043 -0.0088395355 -0.012619623 -0.039781
0.0070533277 -0.03251784 0.010996871 -0.009377344 -0.034945823 -0.047034834 0.040779617 0.04225286
0.045304652 0.015856653 0.025805753 0.030164236 0.043094873 0.0027029328 0.0023863686 0.03412336
0.036905468 -0.014902812 0.03177749 0.049485166 -0.020670112 -0.0452473 -0.0028197025 -0.031905703
0.046968605 -0.011338405 -0.022216141 0.032777835 0.015953762 0.016221777 0.048416305 -0.044113807
0.025797594 -0.027536582 0.021870073 -0.01991174 0.04774203 -0.013049568 0.006479882 -0.032004815
0.026940499 -0.05180362 0.02471189 0.04437202 0.043384757 0.029298866 -0.0165846 0.010705055
0.015455592 -0.046098378 0.025534384 -0.04163365 0.021265104 0.04675313 -0.01709312 0.009532095
0.049268007 0.045972425 0.044086393 -0.032199506 0.010915933 -0.041932274 0.0087679215 -0.052903578
0.0076163686 0.024549004 -0.042489424 -0.0048058913 -0.021116681 0.043638166 -0.006179269 0.029773608
-0.031143418 0.011795292 0.037343755 0.0027275772 -0.018401189 -0.023508757 0.028500378 0.016701715
0.004563571 0.034946788 -0.02064883 -0.03288514 -0.002434083 0.034414243 -0.051284805 -0.030909656
0.01233804 0.028835556 0.029056896 0.0154899955 -0.046477865 -0.020038584 0.029277876 0.00892414
0.027474137 0.03758784 0.02892422 -0.020641737 -0.025091594 -0.009626772 -0.0014277722 -0.0035234413
-0.009766006 0.0068765013 0.031120881 -0.0326949 0.025663428 -0.04932656 0.002113855 -0.04601997
0.048351087 -0.042438176 -0.027228307 0.030358102 0.02443301 0.03824323 0.0136966435 -0.04324885
-0.035028182 0.034205373 -0.048653048 0.044976663 -0.008482511 0.0091254115 -0.0021433567 -0.012575782
-0.012264797 0.01481114 -0.008774093 0.008411507 0.041842394 0.004497774 -0.03921631 -0.037790205
0.03183751 0.017458923 0.009568643 -0.024916438 -0.04085078 0.043171685 -0.046937454 -0.024886597
0.019862058 0.04401296 -0.0138256885 -0.044717316 0.011510958 0.0011851034 -0.0073188003 -0.043747995
0.036707032 0.005455741 0.018028133 0.029910807 0.043771915 -0.01458999 0.0023970688 -0.031911172
-0.03989296 -0.019566199 0.013431478 -0.029263552 0.032234527 0.017067898 -0.013988432 0.027166603
0.040965375 -0.01649476 0.028310742 0.035056163 0.046491973 -0.035566434 0.043249976 0.0041149626
00000000: 843b 21bd 73e7 663c 8804 083d c156 2cbd
00000010: 65e6 6abc 8543 133d 6fe5 11bd 1cec 3d3d
00000020: 7b18 2bbb 87f3 1d3c 6726 3d3d ae63 25bd
00000030: c34f 363d 867f 47bd 36c2 f83c 8120 d239
00000040: fa98 323d 2900 0abb 2612 4bbd c538 613c
00000050: df58 073d 0b23 0ebc 213f 48bd 15bc 23bb
00000060: b9d9 fe3b 1fa5 5e3c 28e1 a53c 60a9 1abc
00000070: b40a cfba 10bd 34bb 222c bb3c 3572 823c
00000080: ca45 9a3c d748 28bb fc5a 013c 6e12 243d
00000090: af57 303c c9e0 41bd 6304 4a3c 55b4 693d
000000a0: 056a a4bb b89f 0f3d a932 16bd 6dcf bbbb
000000b0: 2be5 153d 5d74 b0bc baec 27bb 01ce cb3b
000000c0: d3bb d3bb aff5 81bc 69ef 0e3d 8f46 14bc
000000d0: f246 74bc 329f 183d ebf7 413c fa78 b6bc
000000e0: f071 fd3c 50cc ebbc 5aaa 4b3d 91dc 313d
000000f0: 0459 8f3b f0df 653c 75ed a8bc 4bc8 13bd
00000100: b83a ebbc f595 933c 71cb c73c 3de5 6cbb
00000110: 12f2 83bc a9ac 7abc a9b3 b2bc f37e c1bc
00000120: 0078 073d 620d 3dbd 6de8 083d 021b f43c
00000130: c895 6dbc b3d3 10bc 89c2 4ebc 67f1 22bd
00000140: 9a1f e73b 6d31 05bd 382c 343c 6ea3 19bc
00000150: 5a23 0fbd 99a7 40bd 8708 273d 5611 2d3d
00000160: 5f91 393d d0e5 813c 9666 d33c fd1a f73c
00000170: 4084 303d b023 313b 9f64 1c3b f0c4 0b3d
00000180: 302a 173d ed2a 74bc 1d29 023d f5b0 4a3d
00000190: 5e54 a9bc 3c55 39bd c2ca 38bb 8eaf 02bd
000001a0: 2762 403d b8c4 39bc a0fe b5bc 0d42 063d
000001b0: 77b1 823c 88e3 843c 2d50 463d aeb0 34bd
000001c0: 7a55 d33c 6694 e1bc de28 b33c f21d a3bc
000001d0: 268d 433d dbcd 55bc 3155 d43b 7b17 03bd
000001e0: 52b2 dc3c 0830 54bd 9770 ca3c 6fbf 353d
000001f0: 37b4 313d 2d04 f03c 6ddc 87bc 4164 2f3c
00000200: 7439 7d3c a7d1 3cbd 7c2d d13c 0c88 2abd
00000210: 2834 ae3c 3680 3f3d df06 8cbc 812c 1c3c
00000220: 40cd 493d 954d 3c3d ef93 343d a1e3 03bd
00000230: bed8 323c 2dc1 2bbd 54a7 0f3c 6cb1 58bd
00000240: bb92 f93b fe1a c93c 6409 2ebd bd7a 9dbb
00000250: e4fc acbc efbd 323d 777b cabb c8e7 f33c
00000260: 7b20 ffbc 0a41 413c c4f5 183d 27c1 323b
00000270: 17be 96bc 7095 c0bc a079 e93c 09d2 883c
00000280: 028a 953b 5d24 0f3d bc27 a9bc 92b2 06bd
00000290: 2385 1fbb f3f5 0c3d 0410 52bd 3f36 fdbc
000002a0: 7e25 4a3c 8b38 ec3c ba08 ee3c c0c9 7d3c
000002b0: 935f 3ebd f527 a4bc 28d8 ef3c 8e36 123c
000002c0: 7111 e13c b5f5 193d 7cf2 ec3c dc18 a9bc
000002d0: e38c cdbc 9cb9 1dbc 1624 bbba 89e9 66bb
000002e0: 9901 20bc 4654 e13b 38f1 fe3c 16eb 05bd
000002f0: 1c3c d23c a60a 4abd 9a88 0a3b 707f 3cbd
00000300: ca0b 463d a7d3 2dbd e60d dfbc 8eb1 f83c
00000310: bc27 c83c efa4 1c3d e367 603c b525 31bd
00000320: b679 0fbd ef1a 0c3d 6b48 47bd 7339 383d
00000330: 3bfa 0abc c082 153c 8f77 0cbb a70a 4ebc
00000340: 4af2 48bc 6caa 723c 37c1 0fbc 6bd0 093c
00000350: ee62 2b3d 1062 933b 48a1 20bd e7c9 1abd
00000360: 0d68 023d 0406 8f3c ccc5 1c3c 8f1d ccbc
00000370: 2653 27bd cbd4 303d 7d41 40bd fade cbbc
00000380: c1b5 a23c ef46 343d 2485 62bc 8129 37bd
00000390: 7598 3c3c 7955 9b3a 8cd2 efbb 1931 33bd
000003a0: 1d5a 163d 13c6 b23b bcaf 933c 8207 f53c
000003b0: 2e4a 333d da0a 6fbc 2418 1d3b 4ab5 02bd
000003c0: cd66 23bd 4b49 a0bc b40f 5c3c 1eba efbc
000003d0: 5a08 043d fad1 8b3c bc2f 65bc 7f8c de3c
000003e0: 4fcb 273d 0520 87bc eeeb e73c 0d97 0f3d
000003f0: 5e6e 3e3d 1cae 11bd e326 313d cfd6 863b

feature_extractor.7.bias f4 [120]
0.021441089 0.037147176 0.018498057 0.031129004 0.042153325 -0.033900794 0.035276566 0.0017323461
-0.034502495 0.00487898 0.02187323 -0.028066132 -0.04077314 -0.049419228 -0.026740924 -0.04270254
0.029930413 -0.022146104 -0.0419213 -0.030370569 -0.011464879 0.029583454 0.036138155 0.014582417
0.03879309 -0.03955129 -0.020431586 0.034548014 -0.01964762 0.013825019 -0.012252957 0.027285835
-0.049230963 0.018736191 -0.028400557 -0.030000716 0.039002 -0.021920778 0.007096942 0.0010912442
-0.035458535 0.027928172 -0.033086892 -0.017952314 -0.04723603 -0.011701411 0.0141029395 0.014153671
0.024090676 -0.017152961 0.018484812 -0.012266065 0.0435365 -0.02707461 -0.0058560385 -0.00084352796
0.03677533 -0.016093783 -0.03606561 0.013747565 0.041515645 -0.038032737 -0.016594255 -0.014311054
0.0336562 0.0068832776 -0.044397566 0.041605733 -0.013632113 -0.046963196 0.04749291 -0.011081767
0.020434307 0.002985555 0.035169628 -0.020796185 -0.018028697 -0.0250909 -0.032117285 -0.031578057
0.030618005 -0.0331596 -0.0020291707 0.006256976 0.049158443 -0.017754648 -0.018724691 0.019134792
0.012132996 0.01833055 0.041232433 -0.03893581 0.013837727 -0.0041497457 -0.045005117 -0.0045482134
0.013489377 0.0289998 0.002469155 -0.031697318 -0.013340742 0.036892965 0.022012655 -0.036279585
0.01210407 -0.009920263 0.007220018 0.032022092 -0.023154875 -0.0028300928 0.03900895 -0.006999431
0.04907916 -0.0018151588 0.0068506813 -0.008533737 0.02067232 -0.014924447 0.05139576 0.04385633
00000000: 39a5 af3c a327 183d 3d89 973c 4102 ff3c
00000010: f7a8 2c3d 8fdb 0abd 297e 103d e40f e33a
00000020: 7d52 0dbd dadf 9f3b 7d2f b33c f2ea e5bc
00000030: bc01 27bd d16b 4abd c80f dbbc dce8 2ebd
00000040: a030 f53c bf6b b5bc abb5 2bbd b3cb f8bc
00000050: 30d7 3bbc 0059 f23c 9a05 143d 17eb 6e3c
00000060: 81e5 1e3d 8900 22bd 2460 a7bc 3882 0d3d
00000070: 0cf4 a0bc 5582 623c a0c0 48bc 8b86 df3c
00000080: 68a6 49bd a47c 993c 49a8 e8bc 10c4 f5bc
00000090: 90c0 1f3d 3493 b3bc 778d e83b 1408 8f3a
000000a0: f83c 11bd 9fc9 e43c 1f86 07bd bb10 93bc
000000b0: 917a 41bd 46b7 3fbc 0410 673c cde4 673c
000000c0: cf59 c53c 5e84 8cbc 766d 973c 9bf7 48bc
000000d0: 5453 323d 93cb ddbc 03e4 bfbb 3420 5dba
000000e0: baa1 163d 1cd7 83bc 88b9 13bd 783d 613c
000000f0: 4f0c 2a3d 37c8 1bbd adf0 87bc e978 6abc
00000100: 15db 093d 1e8d e13b 39da 35bd c66a 2a3d
00000110: 3a59 5fbc 7b5c 40bd ed87 423d 4d90 35bc
00000120: d965 a73c 4da9 433b 070e 103d c35c aabc
00000130: ebb0 93bc 6e8b cdbc 6a8d 03bd fe57 01bd
00000140: 9cd2 fa3c 5cd2 07bd d6fb 04bb 5207 cd3b
00000150: 5d5a 493d 3272 91bc 8664 99bc 91c0 9c3c
00000160: 79c9 463c f329 963c 57e3 283d 287b 1fbd
00000170: a2b7 623c 97fa 87bb 4957 38bd 2e09 95bb
00000180: 8c02 5d3c fd90 ed3c 8cd1 213b 0cd5 01bd
00000190: 2193 5abc 141d 173d e253 b43c e799 14bd
000001a0: 2650 463c 9988 22bc e795 ec3b 9929 033d
000001b0: 4baf bdbc 1479 39bb d9c7 1f3d 7c5b e5bb
000001c0: 3b07 493d 9fea edba ae7b e03b 16d1 0bbc
000001d0: ff58 a93c ab85 74bc 5c84 523d b2a2 333d

classifier.0.weight f4 [84, 120]
0.004645132 -0.047795728 0.028517708 -0.013060613 -0.07668597 0.011201983 -0.06463733 -0.031513803
-0.06654 0.07128909 0.036635097 -0.0523965 0.059038777 -0.06822956 0.008248991 -0.072376214
0.051164098 -0.0493314 -0.031896412 0.023753589 -0.09022048 0.052709304 0.005992688 -0.05975484
-0.012967086 -0.05730602 0.022384752 0.03374004 -0.074625164 0.060376503 -0.03232186 0.082406454
-0.0058984007 0.021950059 -0.038341854 -0.00053934153 -0.010508744 -0.02718033 -0.049661286 0.0028454748
-0.08238544 -0.052696362 -0.036415786 0.002358227 -0.056508485 -0.04369171 0.0075353594 0.0013257714
0.0021455649 -0.04867316 0.07087222 -0.022842562 -0.07011854 0.050384693 0.011385036 -0.003673297
-0.082508326 -0.057543766 0.055704024 -0.027391061 -0.06368444 0.052668635 -0.074322745 0.05268008
-0.031038271 0.038420815 0.012743086 0.08958668 0.03727447 -0.0061640237 0.08596874 -0.073323086
0.011471876 0.030175194 -0.07010368 -0.048352513 -0.041145463 -0.046967007 -0.0106066335 -0.056561977
0.08667203 -0.002286004 0.09063595 0.023222813 -0.014183983 0.007974214 -0.052054036 -0.059120964
0.035686128 -0.011858237 0.0079745315 -0.010228984 0.07197181 -0.09086248 -0.057660893 -0.0477803
-0.028937967 0.072220355 0.061668724 -0.066848345 -0.026282012 0.07586999 -0.070628926 0.009459852
0.03509863 0.043156236 0.064590886 0.05962357 0.023428295 -0.086068995 -0.040274948 -0.015808424
-0.06663021 -0.046794657 0.020078102 -0.035480913 0.015021196 0.033223826 0.047218945 -0.07050778
0.080577545 0.03642431 0.007888067 -0.027128171 -0.027746981 0.0032269154 -0.011161351 -0.08608464
0.01438202 -0.060255155 -0.07805742 0.053949587 -0.014890175 -0.023991896 -0.012490754 -0.0388441
0.04760358 -0.003019554 -0.040502887 0.08709191 0.06701271 0.069643624 -0.09090845 0.01724123
0.0057656076 0.07991592 0.02534376 0.019176962 0.058465865 0.039951805 -0.08148794 -0.08962049
-0.04934554 -0.01991067 0.021682778 0.057373606 -0.08138226 -0.013488715 -0.07159932 0.0787741
0.05516667 0.052547786 -0.009086537 -0.05790976 -0.045849543 -0.0009945667 0.00045621573 -0.0014830672
0.07986095 -0.0476018 0.06833648 0.040479343 -0.07132678 -0.040862117 -0.055317197 -0.0020320066
0.04849526 0.052404094 -0.018814461 0.079299934 0.043357175 0.015773915 -0.07402248 -0.07707698
0.05660907 0.04876382 -0.043938655 -0.06830917 0.003231154 -0.08344874 0.061492752 0.048056595
0.025243608 -0.06501852 -0.014569429 -0.045603056 0.04357356 0.08700984 0.0036712028 -0.023508219
0.062945075 -0.021216517 -0.0436509 -0.07662092 0.011979954 0.07210243 0.05733126 0.03363966
0.063168764 -0.072953716 0.08803884 -0.02915755 -0.08781881 0.04117277 0.021790268 -0.021241385
-0.08660699 0.0009865228 -0.04515031 -0.05678714 0.08183863 0.043107998 -0.07954387 -0.039311502
-0.045514908 -0.08234351 -0.07128681 0.09079229 0.004030584 0.07355276 0.015541663 0.08811142
-0.055327248 0.023785181 -0.045241687 0.032463614 0.07053639 0.068726145 -0.060907066 -0.003549859
0.009690927 0.015415329 -0.037271965 0.019062543 -0.07176127 -0.028369166 -0.03387074 -0.027067155
-0.05459168 0.06354841 -0.014668197 0.043357182 -0.0027863677 0.005050889 0.083559975 0.064471394
00000000: 3136 983b 74c5 43bd f89d e93c 2efc 55bc
00000010: 890d 9dbd 8688 373c 9460 84bd 9e14 01bd
00000020: 2046 88bd 0400 923d af0e 163d b69d 56bd
00000030: a5d2 713d f1bb 8bbd c726 073c fb39 94bd
00000040: 7291 513d b90f 4abd d0a5 02bd e396 c23c
00000050: 84c5 b8bd b6e5 573d 4f5e c43b 7ec1 74bd
00000060: e773 54bc b8b9 6abd 3a60 b73c ff32 0a3d
00000070: 14d5 98bd 5a4d 773d ed63 04bd b7c4 a83d
00000080: 5f47 c1bb 9cd0 b33c 590c 1dbd 9962 0dba
00000090: de2c 2cbc 49a9 debc a269 4bbd 257b 3a3b
000000a0: b3b9 a8bd 24d8 57bd b828 15bd 7c8c 1a3b
000000b0: 7175 67bd 14f6 32bd 2deb f63b 82c5 ad3a
000000c0: 9b9c 0c3b 825d 47bd 7425 913d 5320 bbbc
000000d0: 4f9a 8fbd 2e60 4e3d 4d88 3a3c b2bb 70bb
000000e0: 20fa a8bd 03b3 6bbd e729 643d 3863 e0bc
000000f0: fd6c 82bd 11bb 573d 8636 98bd 11c7 573d
00000100: f943 febc 255f 1d3d 60c8 503c 3979 b73d
00000110: 1dad 183d 94fb c9bb 6110 b03d 6a2a 96bd
00000120: 89f4 3b3c f831 f73c 8592 8fbd 490d 46bd
00000130: 2588 28bd 7a60 40bd 72c7 2dbc 88ad 67bd
00000140: 1b81 b13d c8d0 15bb 579f b93d c53d be3c
00000150: f063 68bc 47a6 023c 9d36 55bd d328 72bd
00000160: 9e2b 123d 0d49 42bc 9ca7 023c 7897 27bc
00000170: f565 933d 1c16 babd d42d 6cbd 47b5 43bd
00000180: 510f edbc 44e8 933d 5898 7c3d c9e7 88bd
00000190: 604d d7bc ba61 9b3d e6a5 90bd 7ffd 1a3c
000001a0: 95c3 0f3d 98c4 303d 3a48 843d d837 743d
000001b0: b2ec bf3c f144 b0bd 58f7 24bd ab80 81bc
000001c0: 6b75 88bd c1ab 3fbd d57a a43c 6f54 11bd
000001d0: 761b 763c b515 083d a768 413d 6266 90bd
000001e0: d705 a53d a831 153d f33c 013c e63b debc
000001f0: a34d e3bc a87a 533b 19de 36bc 254d b0bd
00000200: 90a2 6b3c 1cce 76bd 92dc 9fbd 3efa 5c3d
00000210: ecf5 73bc a78a c4bc 05a6 4cbc fe1a 1fbd
00000220: f9fb 423d b6e3 45bb 5be6 25bd 3e5d b23d
00000230: f63d 893d 51a1 8e3d 362e babd 7b3d 8d3c
00000240: 6ced bc3b f5aa a33d b89d cf3c 0119 9d3c
00000250: e779 6f3d 81a4 233d 26e3 a6bd f38a b7bd
00000260: 8d1e 4abd b41b a3bc 15a0 b13c 9600 6b3d
00000270: beab a6bd c5ff 5cbc aaa2 92bd 5154 a13d
00000280: 72f6 613d 593c 573d b3df 14bc c932 6dbd
00000290: bbcc 3bbd 1f5c 82ba 3d30 ef39 7a63 c2ba
000002a0: 238e a33d 1bfa 42bd fff3 8b3d abcd 253d
000002b0: c613 92bd 095f 27bd 4994 62bd 6a2b 05bb
000002c0: f7a2 463d ada5 563d c920 9abc 0168 a23d
000002d0: 4b97 313d 4c38 813c 1999 97bd 89da 9dbd
000002e0: eade 673d 92bc 473d 05f9 33bd aee5 8bbd
000002f0: c5c1 533b 2ce7 aabd d3df 7b3d fed6 443d
00000300: afcb ce3c 6e28 85bd 9db4 6ebc 45ca 3abd
00000310: 307a 323d 3732 b23d 9098 703b 4f94 c0bc
00000320: 59e9 803d 43ce adbc 49cb 32bd 6eeb 9cbd
00000330: 9247 443c 70aa 933d 2fd4 6a3d bdc9 093d
00000340: a05e 813d c268 95bd b54d b43d d0db eebc
00000350: 59da b3bd c7a4 283d 8181 b23c 6a02 aebc
00000360: 015f b1bd 364e 813a 88ef 38bd a299 68bd
00000370: 039b a73d 0392 303d e6e7 a2bd 1905 21bd
00000380: d76d 3abd b7a3 a8bd d2fe 91bd 4ff1 b93d
00000390: fd12 843b d4a2 963d 76a2 7e3c c373 b43d
000003a0: d39e 62bd 24d9 c23c 594f 39bd 91f8 043d
000003b0: 6275 903d 4bc0 8c3d b079 79bd c0a4 68bb
000003c0: b2c6 1e3c 9390 7c3c 7daa 18bd 0d29 9c3c
000003d0: 93f7 92bd 7466 e8bc 0cbc 0abd f0bb ddbc
000003e0: 879b 5fbd ab25 823d e152 70bc 4d97 313d
000003f0: 7e9b 36bb ee81 a53b 7e21 ab3d 9409 843d

classifier.0.bias f4 [84]
-0.011425306 -0.08656252 0.046992246 0.0743205 0.019448994 0.036473915 0.07845906 0.053018745
-0.043663252 0.050553627 -0.07928184 0.08847116 0.058571648 -0.047895283 -0.022416592 -0.058754135
-0.042421926 -0.052156527 -0.088133395 -0.017072268 0.039445378 0.05700825 -0.028049031 -0.07006193
0.052071035 0.0015053404 -0.0011306219 0.045599435 -0.024025114 0.038881842 0.030578699 -0.01240789
-0.0055818767 -0.025518985 -0.04072502 -0.003150425 -0.07631469 -0.07078615 -0.00019216417 -0.086292885
-0.011791163 -0.080453716 0.027988913 0.00862281 -0.047614373 -0.0047536814 0.035419114 -0.073673375
-0.07526955 0.01793489 0.02686586 0.045884345 0.009340316 -0.088176884 -0.055728678 -0.0019803985
-0.045644447 -0.035144307 0.020885179 -0.052348815 0.013916956 0.097516514 0.08457377 -0.014556025
0.05795957 -0.07507892 0.04310214 0.0108742 0.08048261 0.061978623 -0.08576702 0.07940027
0.06714621 0.07585675 0.04571947 -0.045678 -0.0052266507 -0.003685691 0.03709203 0.045143344
-0.03790863 -0.021178462 -0.043554638 -0.0011253468
00000000: 3531 3bbc b147 b1bd f17a 403d 5935 983d
00000010: 7f53 9f3c ac65 153d 25af a03d 2f2a 593d
00000020: 3dd8 32bd 5211 4f3d 845e a2bd 5e30 b53d
00000030: d3e8 6f3d d82d 44bd 00a3 b7bc 2da8 70bd
00000040: 9dc2 2dbd 15a2 55bd 487f b4bd 24db 8bbc
00000050: 7a91 213d 7c81 693d 15c7 e5bc a17c 8fbd
00000060: 7048 553d d84e c53a 6031 94ba 79c6 3a3d
00000070: 51d0 c4bc 9142 1f3d 2e80 fa3c 764a 4bbc
00000080: 2de8 b6bb 310d d1bc 47cf 26bd 5c77 4ebb
00000090: e04a 9cbd 54f8 90bd ad7f 49b9 53ba b0bd
000000a0: b92f 41bc ebc4 a4bd 0149 e53c b046 0d3c
000000b0: 4a07 43bd c5c4 9bbb a213 113d 11e2 96bd
000000c0: ec26 9abd 31ec 923c cb15 dc3c 39f1 3b3d
000000d0: 2008 193c 1596 b4bd c143 64bd 93c9 01bb
000000e0: acf5 3abd 7af3 0fbd 6517 ab3c b66b 56bd
000000f0: f203 643c bdb6 c73d 0335 ad3d 657c 6ebc
00000100: 0467 6d3d fac2 99bd df8b 303d b329 323c
00000110: 11d4 a43d 4cdd 7d3d 9fa6 afbd 9c9c a23d
00000120: f483 893d c95a 9b3d 5744 3b3d db18 3bbd
00000130: 5344 abbb a28b 71bb d0ed 173d 3ae8 383d
00000140: 1446 1bbd 747e adbc 5966 32bd 5f80 93ba

classifier.2.weight f4 [10, 84]
-0.0941575 -0.08621484 0.044957846 -0.027071875 0.031997453 -0.0440369 -0.0003662255 0.05025431
-0.07825054 0.10459766 -0.070985116 -0.024879614 0.059236735 -0.10446925 0.055317026 0.06444257
-0.12933274 -0.017348802 -0.07763149 0.11315815 -0.092346266 -0.12717111 -0.07734999 0.08644893
0.02078411 -0.105215065 -0.02018729 -0.07925814 0.12529445 -0.09381387 0.021048259 0.08520393
-0.11298173 0.023256648 0.0017123653 0.039334755 -0.050492246 -0.07573978 0.014038204 -0.033365536
-0.015432788 0.1200295 -0.074145645 -0.048522934 0.06453306 -0.07440126 0.07417264 0.14130194
0.091334954 0.077944 -0.14267215 0.04454345 -0.11278867 -0.045529895 -0.07736315 -0.08107449
0.089083694 0.07500856 0.02744263 0.042096164 0.14218956 0.041482214 -0.02458076 0.07086007
-0.038197175 -0.011766417 0.049414262 0.013638098 0.08769199 -0.013266533 -0.05574916 0.04195602
0.10460841 -0.1220307 -0.120330326 0.03339618 0.065666996 0.011623078 -0.094376035 -0.10979055
-0.0020787208 0.053131804 -0.1333818 0.08690417 -0.10290422 0.034281157 -0.042483084 -0.08240173
0.020371491 -0.00819798 0.06467604 0.11833529 0.13575135 0.0679414 -0.11016541 0.110688545
0.15315363 -0.0764912 0.12189055 -0.15018664 -0.11920089 0.083066285 0.10110452 0.012096613
-0.09250951 0.01585215 0.058833193 0.030583583 0.073188126 -0.05756355 0.08700773 -0.047973003
0.050250247 0.051316302 -0.09775068 0.06758059 0.0810169 -0.096185274 -0.024406033 0.09016823
0.07680846 0.06109532 0.04861188 -0.037188675 0.056353383 -0.09004377 0.011552912 -0.034519874
-0.043491747 0.12755023 -0.07840063 0.13035232 0.092656806 0.05970104 0.092534274 -0.12082393
0.06757397 0.00069204654 -0.06433311 0.0075261863 0.02825337 -0.082221515 -0.06331272 0.086291045
-0.08044403 0.10830661 -0.06583821 -0.08834001 0.09909886 0.09490922 0.12642168 0.09461814
0.0941118 0.051117036 0.0029139807 0.025665656 0.02320176 0.06309009 -0.045941427 0.04424193
-0.07499885 -0.07501444 0.029903065 0.08955871 0.016600898 0.086521044 -0.06497404 -0.10577653
-0.021372328 -0.09876911 0.08987273 -0.1338964 0.099084854 0.070449986 0.094497785 0.09178357
0.028127616 0.0019523122 0.08919978 -0.0630521 -0.04673696 0.07043935 -0.086445995 0.007633587
0.09951156 0.024550116 -0.05450824 -0.018422693 -0.092059 0.06456582 0.113179445 0.10397478
0.0046065166 0.07424177 0.09570821 0.12862189 0.023080437 0.08016334 -0.0310089 0.0033642552
-0.11971045 -0.06603541 -0.090489775 -0.06027535 -0.02106582 -0.06540492 -0.11349718 0.068130285
-0.009362767 0.03851961 0.10790072 0.09659372 -0.089268595 -0.0040664305 -0.031448998 0.04786007
0.021032909 -0.00051239325 0.025361737 0.12030977 0.03618397 0.05633144 -0.13276756 0.019768417
0.015395871 0.07197523 -0.053763714 -0.03578299 0.046991978 0.012822972 -0.11313383 -0.12422764
-0.05020015 -0.05432568 -0.08551857 -0.09356676 0.14555092 -0.026848579 0.04591102 0.08700785
0.015380063 -0.026600566 0.100063145 0.082651176 0.019873215 -0.040776648 0.02831064 -0.03377813
-0.098802686 -0.030447112 0.09491702 -0.1008767 0.07767105 -0.0017792986 -0.0052540726 -0.102712445
00000000: a6d5 c0bd 6891 b0bd b825 383d d6c5 ddbc
00000010: c30f 033d 0960 34bd f401 c0b9 77d7 4d3d
00000020: d241 a0bd 4c37 d63d a560 91bd 55d0 cbbc
00000030: 38a2 723d f9f3 d5bd 1b94 623d 77fa 833d
00000040: cd6f 04be 131f 8ebc 42fd 9ebd 76bf e73d
00000050: 0a20 bdbd 2539 02be ac69 9ebd 230c b13d
00000060: 7043 aa3c ff7a d7bd d15f a5bc 1752 a2bd
00000070: 304d 003e 7c21 c0bd 666d ac3c 667f ae3d
00000080: f762 e7bd ba84 be3c 7271 e03a 7b1d 213d
00000090: f5d0 4ebd 751d 9bbd 7f00 663c 4daa 08bd
000000a0: ced9 7cbc 07d2 f53d acd9 97bd fcbf 46bd
000000b0: e929 843d b05f 98bd d3e7 973d 75b1 103e
000000c0: d20d bb3d 1ba1 9f3d a618 12be 3173 363d
000000d0: bffd e6bd 8e7d 3abd 9270 9ebd 620a a6bd
000000e0: 8371 b63d 179e 993d 5ecf e03c 076d 2c3d
000000f0: 249a 113e 41e9 293d 975d c9bc 161f 913d
00000100: a474 1cbd eec7 40bc 9c66 4a3d 5472 5f3c
00000110: dc97 b33d df5b 59bc 3b59 64bd 13da 2b3d
00000120: ef3c d63d 3beb f9bd bf6f f6bd 6fca 083d
00000130: 6b7c 863d b96e 3e3c 3948 c1bd ded9 e0bd
00000140: 263b 08bb bca0 593d 3d95 08be d0fa b13d
00000150: 73bf d2bd 666a 0c3d be02 2ebd 3dc2 a8bd
00000160: 1de2 a63c d250 06bc df74 843d c659 f23d
00000170: 6702 0b3e dc24 8b3d 679e e1bd adb0 e23d
00000180: 4ed4 1c3e 6ba7 9cbd c1a1 f93d 87ca 19be
00000190: 991f f4bd a81e aa3d e30f cf3d df30 463c
000001a0: a075 bdbd 5edc 813c 13fb 703d 6c8a fa3c
000001b0: a8e3 953d c2c7 6bbd 1c31 b23d 577f 44bd
000001c0: 34d3 4d3d 0b31 523d 8231 c8bd b167 8a3d
000001d0: 30ec a53d c9fc c4bd 29ef c7bc 1faa b83d
000001e0: c14d 9d3d 163f 7a3d 401d 473d 2753 18bd
000001f0: ced2 663d de68 b8bd 6d48 3d3c b664 0dbd
00000200: 6724 32bd 879c 023e 8290 a0bd 147b 053e
00000210: dac2 bd3d 1489 743d 9c82 bd3d 8972 f7bd
00000220: 3964 8a3d 756a 353a 14c1 83bd 3a9e f63b
00000230: 9d73 e73c c163 a8bd 19aa 81bd 5cb9 b03d
00000240: d7bf a4bd dbcf dd3d 2fd6 86bd 9beb b4bd
00000250: 58f4 ca3d c45f c23d af74 013e 28c7 c13d
00000260: b0bd c03d 1960 513d 7cf8 3e3b c840 d23c
00000270: 9e11 be3c 6135 813d 142d 3cbd 0737 353d
00000280: ff98 99bd 2ca1 99bd 46f7 f43c 8f6a b73d
00000290: 9bfe 873c f231 b13d 1c11 85bd 5ea1 d8bd
000002a0: 0515 afbc 7647 cabd 320f b83d 231c 09be
000002b0: 00ed ca3d 1548 903d 0e88 c13d 06f9 bb3d
000002c0: e36b e63c bae4 ff3a 60ae b63d 7621 81bd
000002d0: 416f 3fbd 8242 903d 990a b1bd 2b23 fa3b
000002e0: b7cc cb3d 531d c93c 0844 5fbd 30eb 96bc
000002f0: 6e89 bcbd 163b 843d a0ca e73d bbf0 d43d
00000300: 43f2 963b 120c 983d aa02 c43d 75b5 033e
00000310: 2f13 bd3c ad2c a43d 6006 febc d67a 5c3b
00000320: c12a f5bd 933d 87bd b452 b9bd 49e3 76bd
00000330: 3a92 acbc 04f3 85bd 3671 e8bd e487 8b3d
00000340: 4b66 19bc bdc6 1d3d 0dfb dc3d eed2 c53d
00000350: 74d2 b6bd b13f 85bb aad0 00bd ec08 443d
00000360: 354d ac3c 2152 06ba 6bc3 cf3c f864 f63d
00000370: a435 143d ccbb 663d 38f4 07be 60f1 a13c
00000380: f73e 7c3c c067 933d 5737 5cbd 2f91 12bd
00000390: a97a 403d 7117 523c b6b2 e7bd 106b febd
000003a0: ac9e 4dbd 9b84 5ebd 5c24 afbd ee9f bfbd
000003b0: 4d0b 153e 8df1 dbbc 320d 3c3d 2c31 b23d
000003c0: a9fc 7b3c 6ee9 d9bc e8ed cc3d 0545 a93d
000003d0: 27cd a23c 6a05 27bd b7eb e73c f05a 0abd
000003e0: 1059 cabd 396c f9bc db63 c23d 7198 cebd
000003f0: 0012 9f3d 5b37 e9ba 5b2a acbb e75a d2bd

classifier.2.bias f4 [10]
-0.009049063 -0.0067711533 -0.024879158 0.022214605 -0.017469492 0.03088038 0.05825736 -0.03016968
-0.06446162 0.04847682
00000000: 8542 14bc 8de0 ddbb 60cf cbbc 67fb b53c
00000010: 2e1c 8fbc daf8 fc3c 459f 6e3d 6826 f7bc
00000020: 7404 84bd a18f 463d
