checkpoints/noise_rate_0.2/models/est/epoch28.pth (torch, 250639 bytes, 10 tensors)

feature_extractor.0.weight f4 [6, 1, 5, 5]
0	0x3e0263b4	0.12733346
1	0xbd89594a	-0.06706484
2	0xbcdf1550	-0.027231842
3	0x3dbd5138	0.09244007
4	0xbe4a7123	-0.1976972
5	0x3e1fda53	0.15610628
6	0xbb95e2b6	-0.004574145
7	0x3e09f66e	0.13472912
8	0x3d4b8122	0.049683698
9	0xbc57ddf5	-0.013175477
10	0x3db0515f	0.0860927
11	0x3d4d4c5b	0.050121646
12	0x3df4aeb3	0.11947384
13	0xbd145f87	-0.036223914
14	0x3ca0bb01	0.01962042
15	0xbc21402b	-0.009841959
16	0x3d4c11a4	0.04982151
17	0x3d0fc941	0.03510404
18	0x3e5de17c	0.21668047
19	0x3dd5c0a6	0.104371354
20	0xbdaa2466	-0.08307724
21	0xbdf2ee84	-0.118618995
22	0xbc9ffd69	-0.019530015
23	0xbd811214	-0.06302276
24	0xbd0bf152	-0.034165688
25	0x3d991c83	0.07476141
26	0x3e51c377	0.2048472
27	0x3e2b8558	0.16750085
28	0xbe459540	-0.19295216
29	0x3dba0d97	0.09084623
30	0x3e0f8e6f	0.14019178
31	0x3e947194	0.28992903
32	0x3e3d28c8	0.18472588
33	0xbe48936d	-0.19587488
34	0xbe675c4b	-0.225938
35	0xbbabe209	-0.0052454513
36	0x3e8c570a	0.27410156
37	0x3c94c9a7	0.018162562
38	0x3db00e42	0.085964695
39	0xbdd6da37	-0.1049084
40	0x3e8c28d5	0.27374902
41	0xba90516d	-0.0011010595
42	0x3e5696cf	0.20955966
43	0x3d116b74	0.035502866
44	0xbda60a61	-0.08107448
45	0x3e1eb0e7	0.1549717
46	0xbd38d82c	-0.045128033
47	0x3df4ffff	0.1196289
48	0xbae3d4fc	-0.00173822
49	0x3cff75be	0.031184074
50	0xbe5caee0	-0.21551085
51	0xbdf6159c	-0.120158404
52	0x3dc9816b	0.09839138
53	0xbcf9d91a	-0.03049903
54	0x3e705b2b	0.23472278
55	0x3e21989f	0.15780877
56	0xbb73e6c0	-0.0037216395
57	0xbdd2ca39	-0.10292477
58	0x3e31bfb0	0.17358279
59	0x3de46980	0.11152935
60	0xbdd3cf9b	-0.10342332
61	0x3e2ade4e	0.16686365
62	0x3e376ec5	0.17913349
63	0x3e748418	0.23878515
64	0xbd930e3c	-0.07180449
65	0x3b86183a	0.0040922435
66	0x3d238b3c	0.039927706
67	0x3da42b14	0.08016029
68	0xbde15958	-0.11003369
69	0xbdf40992	-0.11915888
70	0x3e1219b4	0.14267617
71	0xbc285383	-0.010273817
72	0x3e0ac05b	0.1354994
73	0x3d1fcfbd	0.039016474
74	0x3dab80f8	0.08374208
75	0x3cf07a0c	0.029355071
76	0x3d8c507e	0.0685129
77	0x3dd0b274	0.10190287
78	0xbe322b06	-0.17399225
79	0x3df45af0	0.119314075
80	0xbe17045a	-0.14747754
81	0xbe19556b	-0.1497399
82	0x3cdaaf10	0.026694804
83	0xbbaf6520	-0.005352631
84	0x3e200277	0.1562594
85	0xbdf1effd	-0.11813352
86	0xbe2f120d	-0.1709673
87	0x3e30e920	0.1727643
88	0x3c4f3f23	0.01264933
89	0x3e232458	0.15931833
90	0x3d818ab0	0.06325281
91	0xbe0d8377	-0.13819681
92	0x3d931721	0.07182146
93	0x3db7820c	0.08960351
94	0xbdc6b941	-0.09703303
95	0xbdc230af	-0.09481942
96	0x3da840c6	0.082154796
97	0x3d7e7db5	0.062131602
98	0xbd69f4f7	-0.057118382
99	0xbd23ca74	-0.039987996
100	0x3e6a1396	0.22859034
101	0x3d8da7f3	0.069167994
102	0x3e713be8	0.23558009
103	0x3e2e89c7	0.17044745
104	0xbdda816a	-0.10669215
105	0xbda73238	-0.08163875
106	0x3eb72c90	0.35776186
107	0x3e383a07	0.17990886
108	0x3e76169a	0.2403206
109	0x3da33174	0.07968417
110	0x3e594875	0.21219046
111	0x3eb99892	0.36249214
112	0x3ec08344	0.37600148
113	0xbd0cfc96	-0.034420572
114	0x3d91a9b6	0.07112448
115	0x3e9b55ab	0.30338797
116	0x3eaaab7c	0.33333957
117	0x3e8c1bac	0.27364862
118	0xbd83655c	-0.06415817
119	0xbdbba908	-0.091630995
120	0xbc5d40de	-0.013504235
121	0x3e10f92f	0.14157556
122	0x3e96a8a3	0.29425535
123	0xbd57c81e	-0.05268108
124	0x3e33baa7	0.17551671
125	0xbdee07cf	-0.11622583
126	0xbe300622	-0.1718984
127	0x3ce56a45	0.028004775
128	0x3e6e9864	0.2330032
129	0x3e987f4c	0.2978462
130	0xbdd2e9ba	-0.10298486
131	0x3ddd84b1	0.108163245
132	0x3e9bff0e	0.3046803
133	0x3e9906ab	0.298879
134	0x3e82a207	0.25514242
135	0x3e46d635	0.19417651
136	0x3e654dcf	0.22392963
137	0x3e4dba96	0.20090708
138	0x3cca6edd	0.024711067
139	0xbd539d81	-0.05166388
140	0xbd34a1ff	-0.044099804
141	0x3d6bf8a8	0.057610184
142	0xbb96fbc9	-0.004607652
143	0x3e514b4c	0.2043888
144	0x3e299177	0.16559397
145	0xbca73653	-0.020411646
146	0x3dfbc13a	0.122927144
147	0x3e116dcc	0.1420204
148	0x3e5a7380	0.21333122
149	0x3e5cbe5d	0.21556993

feature_extractor.0.bias f4 [6]
0	0xbd470990	-0.048593104
1	0x3e6e92b1	0.23298146
2	0xbabde221	-0.0014486947
3	0xbb41402a	-0.0029487708
4	0xbdcfd4b2	-0.1014799
5	0xbd3ec994	-0.04657896

feature_extractor.3.weight f4 [16, 6, 5, 5]
0	0xbd30d33e	-0.043170206
1	0xbd00c5fc	-0.031438813
2	0x3d7b6bfc	0.06138228
3	0xbcba1e5c	-0.022719555
4	0xbd6d1d82	-0.05788947
5	0x3d1f6e70	0.03892368
6	0x3d174adf	0.036936637
7	0x3d84db89	0.064871855
8	0xbd0ba3bd	-0.0340917
9	0x3cb101ed	0.021607364
10	0xbcdd291e	-0.026997145
11	0xbc39bbcf	-0.011336281
12	0xbd7caa7c	-0.061686024
13	0xbd1d5e4e	-0.038420014
14	0xbced1e04	-0.028944977
15	0x3d158193	0.036500525
16	0x3ca315f1	0.019907923
17	0x3cae089d	0.021244342
18	0x3d9e991f	0.07744049
19	0x3d9999fe	0.07500075
20	0x3d5c7e76	0.05383154
21	0x3bb5516e	0.005533389
22	0xbd608f3f	-0.05482411
23	0x3d7b1090	0.061295092
24	0xbcba36a5	-0.022731135
25	0xbc62a121	-0.013832361
26	0xbd791127	-0.060807373
27	0x3c2d3dfc	0.01057386
28	0xbd11f957	-0.03563818
29	0x3d9482e1	0.07251526
30	0xbd993bef	-0.074821346
31	0xbd2bf1c8	-0.041978627
32	0x3cfba388	0.030717626
33	0xbd16d73b	-0.036826354
34	0x3ca9fbc0	0.020749927
35	0xbcffaf2d	-0.03121146
36	0xbc83ef0a	-0.016105194
37	0x3ce89fa6	0.028396439
38	0x3d6a94f7	0.05727097
39	0xbd931f4c	-0.07183704
40	0x3d1a0026	0.037597798
41	0x3d8fa020	0.07012963
42	0x3dc3f922	0.09569003
43	0xbd80c114	-0.06286827
44	0x3b43efda	0.0029897601
45	0xbd8aa93d	-0.06770561
46	0x3da6669f	0.08125042
47	0xbc634132	-0.013870524
48	0x3d3a4223	0.04547323
49	0xbbc68032	-0.0060577625
50	0xbc1a8d2c	-0.009433072
51	0x3bf68385	0.0075230026
52	0x3cb9d158	0.02268283
53	0x3d164f64	0.036696807
54	0x3c2a32ef	0.01038812
55	0x3d0c1df0	0.034208238
56	0xbd6865ed	-0.05673783
57	0x3d80d2f9	0.0629024
58	0x3d88c323	0.066778444
59	0x3d8b2331	0.067938216
60	0x3d906d9b	0.070521556
61	0xbd55f1c3	-0.052232515
62	0xbd1a0747	-0.037604596
63	0x3d753fd7	0.059875336
64	0xbd8a7238	-0.06760067
65	0x3d9c8c1a	0.0764391
66	0xbd86d58e	-0.06583701
67	0xbd853f1a	-0.06506176
68	0x3cdceceb	0.02696844
69	0xbd88aa55	-0.06673113
70	0xbc89e87f	-0.016834496
71	0x3d81a60c	0.06330499
72	0x3d7088cd	0.058724213
73	0x3d8cd762	0.068770185
74	0xbcb09b47	-0.021558417
75	0xbd805c29	-0.06267578
76	0x3dad797f	0.08470439
77	0xbc7ecbd1	-0.015551523
78	0xbd132bfc	-0.03593062
79	0x3ca96249	0.020676749
80	0xbd5356ae	-0.051596336
81	0x3d6b093b	0.05738185
82	0x3d46f53f	0.04857373
83	0xbd8c0213	-0.06836333
84	0xbd88370b	-0.066511236
85	0xbab16db4	-0.0013536722
86	0x3d10f610	0.035390913
87	0xbb86f003	-0.004117967
88	0xbd2f4ebd	-0.0427997
89	0x3b14df46	0.002271609
90	0xbd941214	-0.07230011
91	0xbd6178ad	-0.055046726
92	0xbd67e574	-0.056615308
93	0x3d876590	0.066111684
94	0x3d943817	0.07237261
95	0xbcc19114	-0.023628749
96	0x3bd1ae11	0.006398924
97	0x3d0bf405	0.034168262
98	0x3c26446d	0.01014815
99	0xbd1dba4e	-0.038507752
100	0x3d28c5bc	0.0412042
101	0x3d9296f9	0.07157702
102	0x3d15b0c6	0.036545537
103	0x3b9ab7c8	0.0047216155
104	0x3d9688c5	0.073503055
105	0x3daf6048	0.08563286
106	0x3a29c5d6	0.0006476318
107	0x3df60043	0.12011769
108	0x3cbd2b2d	0.023091877
109	0xbd838076	-0.06420986
110	0x3d6b8c24	0.057506695
111	0xbceceb73	-0.028920865
112	0x3db8bdb9	0.09020562
113	0xbd8ffedc	-0.070310324
114	0xbb65ee7a	-0.003508477
115	0x3cb19969	0.021679597
116	0x3d1813e3	0.03712834
117	0x3d8fbf8a	0.07018955
118	0xbd7d7c4f	-0.061886128
119	0xbd81a49b	-0.06330224
120	0xbda7bbd0	-0.08190119
121	0x3c0966e6	0.008386349
122	0xbccbbd61	-0.024870576
123	0xbc2dc1e3	-0.010605308
124	0xbd0679e8	-0.032831103
125	0x3d1ebf42	0.038756616
126	0x3dcc156a	0.09965022
127	0x3d0e8cd1	0.03480226
128	0xbcf1a9a8	-0.029499844
129	0xbd274d83	-0.040845405
130	0xbd3974c0	-0.045277357
131	0x3dcb099c	0.09913942
132	0xbc1a9524	-0.009434972
133	0x3c1d08a0	0.009584576
134	0x3b9632d8	0.0045836978
135	0xbcedeaf8	-0.029042706
136	0x3d77c808	0.0604935
137	0x3d025836	0.031822406
138	0xbc97729b	-0.018487265
139	0xbd661eca	-0.056181706
140	0xbcb77bb4	-0.022397853
141	0x3b32ef72	0.0027303365
142	0xbd86368c	-0.06553373
143	0xbd927b75	-0.07152454
144	0xbccfcdb2	-0.025366638
145	0xbc7f2310	-0.015572324
146	0x3ce7a6fe	0.02827787
147	0xbd042d5c	-0.03226982
148	0xbce0c879	-0.027439343
149	0xbd21c616	-0.03949555
150	0xbd97a63f	-0.07404756
151	0x3d9e8a3e	0.07741211
152	0x3cba3364	0.022729583
153	0x3d9d6f20	0.07687211
154	0xbc3c7c71	-0.0115042785
155	0xbc6a6596	-0.014306447
156	0xbd83cacf	-0.06435167
157	0xbc77ae14	-0.015117187
158	0x3d823e74	0.06359568
159	0xbd9e0148	-0.07715088
160	0xbcda7e01	-0.026671411
161	0x3d5d0644	0.053961053
162	0x3d5ce210	0.053926528
163	0x3d24b2f9	0.040209744
164	0xbc06ed87	-0.008235342
165	0xbc6de0be	-0.014518915
166	0xbcde76b3	-0.02715621
167	0xbd0ab569	-0.033864412
168	0x3d2f6bad	0.042827297
169	0xbc39c5c2	-0.011338653
170	0xbd296ec1	-0.04136539
171	0x3cb5ef31	0.022208782
172	0xbd4af494	-0.049549654
173	0xba88ade0	-0.0010427795
174	0x3d7d60bf	0.061859842
175	0x3cef08ae	0.029178943
176	0x3da3c532	0.079965964
177	0xbd107d8f	-0.035275992
178	0x3c984faa	0.018592674
179	0xbcc4daec	-0.024030171
180	0xbd10b8f6	-0.035332642
181	0xbd0632fc	-0.032763466
182	0x3d4eb65a	0.050466873
183	0x3d1cf50a	0.038319625
184	0xbd003a6f	-0.031305727
185	0xbd4efe60	-0.05053556
186	0xbd915da7	-0.07097941
187	0x3dbfb087	0.09359842
188	0x3c2aa2a7	0.010414756
189	0x3c0e7a45	0.0086961435
190	0xbd16c5a7	-0.03680959
191	0xbd5e12a0	-0.05421698
192	0xbd903e83	-0.07043173
193	0xbca2bbac	-0.01986488
194	0x3db36b2d	0.087606765
195	0x3c2241af	0.0099033555
196	0xbce88366	-0.028382968
197	0xbb9d7611	-0.0048053344
198	0x3da6f420	0.08152032
199	0x3db15a5a	0.08659811
200	0x3daf8795	0.08570782
201	0x3d0909a8	0.033456475
202	0x3d478811	0.048713747
203	0xbbbb2a87	-0.0057118568
204	0xbd5bc865	-0.053657908
205	0xbd8baef0	-0.06820476
206	0x3d7e0f36	0.062026225
207	0xbb3ed60f	-0.0029119288
208	0x3d093dc2	0.033506162
209	0x3b8473bd	0.0040421174
210	0xbd945765	-0.07243232
211	0xbd145ded	-0.036222387
212	0x3cdae4fa	0.026720513
213	0xbc1c87b6	-0.00955384
214	0xbd9023a9	-0.07038052
215	0x3c88c8f8	0.016697392
216	0x3bad9a46	0.005297932
217	0xbb4808a0	-0.003052272
218	0x3d769bab	0.06020705
219	0x3d2329ed	0.039834905
220	0xbcd3a26e	-0.025834288
221	0x3dd79e6a	0.10528262
222	0x3da3765b	0.07981559
223	0x3d1e6b8a	0.038676776
224	0xbb972191	-0.0046121557
225	0xbd89e3f1	-0.067329295
226	0x3d885907	0.066576056
227	0xbcaa8f2a	-0.02082022
228	0xbd66663f	-0.056249853
229	0x3d4b69f1	0.04966158
230	0x3d078387	0.03308442
231	0x3cd3c977	0.025852902
232	0xbc6a9b58	-0.014319263
233	0xbcde5400	-0.027139664
234	0x3c4807a7	0.012208856
235	0x3d8099d1	0.06279338
236	0x3c841fe4	0.016128488
237	0xbd03acc7	-0.032147195
238	0x3db00256	0.085941955
239	0x3b752ec5	0.003741191
240	0x3d7ec866	0.062202834
241	0x3cf8a414	0.030351676
242	0x3db88483	0.090096496
243	0x3d772198	0.060334772
244	0xbd1fb4bf	-0.038990732
245	0x3d80eb9f	0.06294941
246	0x3c2a23c3	0.010384503
247	0xbd6e24ac	-0.05814044
248	0xbc979792	-0.018504892
249	0xbd9c6ea4	-0.076382905
250	0xbd0cac76	-0.03434416
251	0xbd1bc41f	-0.038028833
252	0x3db4205d	0.08795235
253	0xbb27f7c8	-0.0025629867
254	0xbcc10673	-0.023562646
255	0x3d8a1556	0.06742351

feature_extractor.3.bias f4 [16]
0	0xbca79a9f	-0.020459471
1	0xbd4dec2f	-0.05027407
2	0x3bddc9d1	0.006768443
3	0x3d1bc73e	0.03803181
4	0x3d7c7261	0.061632518
5	0xbce153a0	-0.027505696
6	0x3b01caa3	0.0019804619
7	0xbd24ebe6	-0.040264033
8	0xbd82e66d	-0.063916065
9	0xbd560fc7	-0.05226114
10	0xbd517f6a	-0.051146902
11	0xbd4d80fd	-0.05017184
12	0x3cf203bf	0.029542802
13	0xbc6b7c05	-0.01437283
14	0x3d854091	0.06506456
15	0x3d99a515	0.0750219

feature_extractor.7.weight f4 [120, 400]
0	0xbd219be6	-0.039455317
1	0x3c7cce02	0.015429975
2	0x3d0d2ee8	0.03446856
3	0xbd2ea923	-0.04264177
4	0xbc7886ea	-0.015168885
5	0x3d11c0b1	0.035584155
6	0xbd1370ee	-0.03599637
7	0x3d3cf8fb	0.046135884
8	0xbb89e2e1	-0.0042079543
9	0x3c0d4dce	0.008624507
10	0x3d3fb4ee	0.046803407
11	0xbd22ed65	-0.03977718
12	0x3d36854a	0.044560708
13	0xbd47d752	-0.04878933
14	0x3cfba96d	0.030720437
15	0x3a36c476	0.0006972024
16	0x3d33cb5e	0.043895118
17	0xbb160220	-0.002288945
18	0xbd4acb06	-0.049510024
19	0x3c6a541f	0.014302283
20	0x3d05d69e	0.032675378
21	0xbc1150b1	-0.008869336
22	0xbd4f7e1c	-0.050657377
23	0xbb1be0e3	-0.0023785166
24	0x3bfe5265	0.007761287
25	0x3c59bf35	0.013290216
26	0x3caa1073	0.020759797
27	0xbc2f0dcf	-0.010684445
28	0xbb4babd5	-0.0031077762
29	0xbb27653e	-0.0025542523
30	0x3cbdc36d	0.023164475
31	0x3c895613	0.016764676
32	0x3c983d3e	0.01858389
33	0xbb639b4f	-0.0034730022
34	0x3c0138a4	0.007887039
35	0x3d21ffa0	0.039550424
36	0x3c3d75a0	0.0115636885
37	0xbd40bd10	-0.047055304
38	0x3c3b47b5	0.0114306705
39	0x3d66bcb3	0.0563323
40	0xbbbfff40	-0.0058592856
41	0x3d0c90bd	0.03431772
42	0xbd189509	-0.037251506
43	0xbbb460a1	-0.005504683
44	0x3d111820	0.035423398
45	0xbcba221b	-0.02272134
46	0xbb287b84	-0.0025708387
47	0x3be29eb4	0.0069158915
48	0xbbc5a635	-0.0060317763
49	0xbc8da6ef	-0.017291514
50	0x3d0f2158	0.03494391
51	0xbc171657	-0.009221635
52	0xbc80b9dc	-0.015713625
53	0x3d13fcd8	0.036129802
54	0x3c447abd	0.011992154
55	0xbcb32f01	-0.021873
56	0x3cfd6e14	0.030936278
57	0xbcf4adfb	-0.029868117
58	0x3d473cd5	0.048642
59	0x3d315c3a	0.043300845
60	0x3b888dc8	0.0041672923
61	0x3c69463c	0.014237937
62	0xbca54757	-0.020175619
63	0xbd13c8fd	-0.03608035
64	0xbce00be0	-0.027349412
65	0x3c9192c6	0.017770182
66	0x3cc87f1e	0.024474677
67	0xbb7193b6	-0.0036861724
68	0xbc860018	-0.016357467
69	0xbc809770	-0.015697211
70	0xbcb07d6c	-0.02154418
71	0xbcb7de43	-0.02244485
72	0x3d09119d	0.033464063
73	0xbd3e9d09	-0.04653648
74	0x3d026f6a	0.031844534
75	0x3cf11313	0.02942804
76	0xbc765bf7	-0.015036575
77	0xbc2657d6	-0.010152778
78	0xbc5fd69a	-0.013662005
79	0xbd281285	-0.041033287
80	0x3be7ac09	0.0070700687
81	0xbcfaf02d	-0.030632103
82	0x3c5176bb	0.012784655
83	0xbc160117	-0.009155533
84	0xbd112407	-0.03543475
85	0xbd457593	-0.04820783
86	0x3d20ab0b	0.03922562
87	0x3d2d84b0	0.04236287
88	0x3d34788b	0.04406027
89	0x3c634ec5	0.013873761
90	0x3ccbcd9a	0.024878312
91	0x3ceadfc7	0.028671158
92	0x3d2e3d13	0.042538714
93	0x3ac48ec6	0.0014996163
94	0x3a569b3f	0.00081865856
95	0x3d03f6ac	0.032217667
96	0x3d188fc5	0.037246484
97	0xbc46b596	-0.012128254
98	0x3d02d62f	0.031942543
99	0x3d483811	0.048881594
100	0xbcabd595	-0.020975867
101	0xbd36dfbf	-0.044646975
102	0xbb0e167b	-0.002168088
103	0xbd027e33	-0.031858634
104	0x3d3f1d91	0.046659056
105	0xbc406d76	-0.0117448475
106	0xbcb4a537	-0.022051437
107	0x3d0430f6	0.032273255
108	0x3c7901f2	0.015198218
109	0x3c840f51	0.016120585
110	0x3d46e6d2	0.04855997
111	0xbd3428f6	-0.043984376
112	0x3cd39979	0.025830017
113	0xbce65152	-0.028114948
114	0x3caf7fc9	0.021423237
115	0xbca987ea	-0.020694692
116	0x3d45ae95	0.048262198
117	0xbc623288	-0.013805993
118	0x3bb810e9	0.00561725
119	0xbd022112	-0.03176982
120	0x3cd36e0c	0.02580931
121	0xbd56f600	-0.052480698
122	0x3cb8ca02	0.022557262
123	0x3d3993fc	0.045307145
124	0x3d34d08a	0.04414419
125	0x3cefe5ff	0.029284475
126	0xbc843ae6	-0.016141366
127	0x3c30648d	0.010766161
128	0x3c767ce4	0.015044425
129	0xbd3f5b9a	-0.046718217
130	0x3cc9b92d	0.024624432
131	0xbd2e25cb	-0.04251651
132	0x3ca87f1d	0.020568425
133	0x3d3b36df	0.045706626
134	0xbc984e7f	-0.018592117
135	0x3c1f6989	0.009729751
136	0x3d49f99e	0.04931032
137	0x3d3d7d58	0.046262115
138	0x3d37d6cf	0.04488259
139	0xbd03c57e	-0.032170765
140	0x3c311b09	0.010809668
141	0xbd2f3fdd	-0.042785514
142	0x3c09f44c	0.008420061
143	0xbd5c1809	-0.05373386
144	0x3bcd7a28	0.0062706657
145	0x3cc51bf2	0.024061177
146	0xbd30f0de	-0.04319846
147	0xbbaf629d	-0.005352332
148	0xbcb8f7f2	-0.022579167
149	0x3d2ca4ea	0.04214946
150	0xbbc9f0cc	-0.0061627384
151	0x3cf23f61	0.029571237
152	0xbcf9e115	-0.030502835
153	0x3c4107d8	0.011781655
154	0x3d1a7981	0.03771353
155	0x3b0eeda5	0.0021809128
156	0xbc9e6946	-0.019337308
157	0xbcd18f9f	-0.02558118
158	0x3cd1c7af	0.025607912
159	0x3c7c9c34	0.015418101
160	0x3b8b7241	0.0042555635
161	0x3d0fd551	0.035115544
162	0xbca2d72e	-0.019877996
163	0xbd0693f8	-0.032855958
164	0xba9499fc	-0.0011337395
165	0x3d08e1cc	0.03341846
166	0xbd552096	-0.05203303
167	0xbd03aa6f	-0.03214496
168	0x3c2c8bf7	0.010531417
169	0x3cf11545	0.029429087
170	0x3cecff36	0.028930288
171	0x3c689136	0.014194777
172	0xbd452ec4	-0.048140302
173	0xbcb6fc19	-0.022337006
174	0x3cde72e3	0.027154392
175	0x3c124e24	0.008929763
176	0x3ce0ba2e	0.027432527
177	0x3d1a867f	0.03772592
178	0x3ced8124	0.028992243
179	0xbca8bd87	-0.020598186
180	0xbccf6573	-0.02531693
181	0xbc205963	-0.009786936
182	0xbac034b4	-0.0014664144
183	0xbb626cae	-0.0034549641
184	0xbc22e12e	-0.009941382
185	0x3bd96afb	0.0066350675
186	0x3cfd1a76	0.030896407
187	0xbd04bed6	-0.032408558
188	0x3cd17138	0.025566682
189	0xbd49a87b	-0.04923294
190	0x3af3ace8	0.0018590959
191	0xbd3c335e	-0.045947425
192	0x3d465f62	0.048430808
193	0xbd2dec15	-0.042461473
194	0xbcddb3c1	-0.027063252
195	0x3cf290a5	0.029609988
196	0x3cc261bb	0.023728242
197	0x3d1b4ab2	0.037913032
198	0x3c5a2e17	0.013316653
199	0xbd2f6bb6	-0.04282733
200	0xbd0f722b	-0.03502099
201	0x3d0c1357	0.03419813
202	0xbd474059	-0.04864535
203	0x3d3830d3	0.044968437
204	0xbc0ac08b	-0.008468757
205	0x3c157826	0.009122884
206	0xbb0c6ff7	-0.002142904
207	0xbc4df713	-0.012571114
208	0xbc48e147	-0.012260742
209	0x3c726430	0.014794394
210	0xbc0fb3f4	-0.0087709315
211	0x3c09ba1a	0.0084061865
212	0x3d2b5db4	0.04183741
213	0x3b935fd5	0.004497508
214	0xbd209b45	-0.039210577
215	0xbd1ac59a	-0.037786104
216	0x3d02771c	0.031851873
217	0x3c8f00d8	0.017456457
218	0x3c1cc337	0.009568027
219	0xbccc0cf2	-0.024908517
220	0xbd27400b	-0.04083256
221	0x3d30db52	0.04317791
222	0xbd40326a	-0.04692308
223	0xbccb8288	-0.024842516
224	0x3ca344b4	0.019930221
225	0x3d3346d3	0.043768715
226	0xbc5b3243	-0.013378683
227	0xbd361bb2	-0.044460006
228	0x3c3ab265	0.011395072
229	0x3a3a19ff	0.00070992106
230	0xbbf2835f	-0.0074009146
231	0xbd32ddda	-0.043668605
232	0x3d18cf97	0.037307348
233	0x3bb5c81f	0.005547538
234	0x3c962113	0.018326318
235	0x3cef80b3	0.029236173
236	0x3d2f3a98	0.04278049
237	0xbc7f182b	-0.015569727
238	0x3b03cf45	0.0020112556
239	0xbd080a80	-0.03321314
240	0xbd28303d	-0.04106163
241	0xbca0730e	-0.019586112
242	0x3c6a237e	0.014290689
243	0xbceb6a00	-0.028737068
244	0x3d05d82c	0.03267686
245	0x3c874b73	0.01651547
246	0xbc614ddb	-0.013751472
247	0x3cde8db0	0.027167171
248	0x3d286fe6	0.04112234
249	0xbc85537a	-0.016275156
250	0x3ce36394	0.027757443
251	0x3d0e8db0	0.034803092
252	0x3d393835	0.04521962
253	0xbd16eabd	-0.036844958
254	0x3d32de3e	0.043668978
255	0x3b914ede	0.0044344505

feature_extractor.7.bias f4 [120]
0	0x3cafec25	0.021474907
1	0x3d17a795	0.037025053
2	0x3c997362	0.018731777
3	0x3cfd1626	0.03089435
4	0x3d2c9faf	0.042144474
5	0xbd0a9f3a	-0.033843257
6	0x3d116364	0.035495177
7	0x3ae562c7	0.0017500751
8	0xbd0b607c	-0.03402756
9	0x3b941b14	0.0045198295
10	0x3cb800df	0.022461353
11	0xbce61f37	-0.028091056
12	0xbd25a514	-0.040440634
13	0xbd4a60d9	-0.049408767
14	0xbcdb03f8	-0.02673529
15	0xbd2ce111	-0.042206828
16	0x3cf8a56a	0.030352313
17	0xbcb1abc5	-0.021688351
18	0xbd2cd34e	-0.042193703
19	0xbcf5c770	-0.030002326
20	0xbc3e17c3	-0.011602345
21	0x3cf39765	0.029735276
22	0x3d13cac1	0.036082033
23	0x3c71635e	0.014733164
24	0x3d2256f8	0.03963372
25	0xbd222def	-0.039594587
26	0xbcac6604	-0.021044739
27	0x3d0bb1fc	0.034105286
28	0xbc9a529d	-0.018838221
29	0x3c684388	0.014176257
30	0xbc492848	-0.01227767
31	0x3ce05296	0.02738313
32	0xbd4a92ca	-0.049456395
33	0x3c9caac2	0.019124392
34	0xbce7e290	-0.028306276
35	0xbcf4fba8	-0.029905155
36	0x3d1f6d7d	0.038922776
37	0xbcb5c94d	-0.022190714
38	0x3beca176	0.007221396
39	0x3a8bb1be	0.001065783
40	0xbd112f3f	-0.035445448
41	0x3ce4bcf7	0.027922137
42	0xbd08f4c0	-0.033436537
43	0xbc92d500	-0.017923832
44	0xbd417475	-0.047230203
45	0xbc3d4ab2	-0.011553453
46	0x3c6b09a8	0.014345564
47	0x3c68f62f	0.014218851
48	0x3cc6148a	0.024179716
49	0xbc8b20e1	-0.016983451
50	0x3c980602	0.018557552
51	0xbc48f2d3	-0.012264925
52	0x3d315e2f	0.04330271
53	0xbcde80b3	-0.027160978
54	0xbbb93d52	-0.005653062
55	0xb939777b	-0.00017687485
56	0x3d16d3b1	0.03682298
57	0xbc82860e	-0.015933063
58	0xbd14cf9a	-0.036330797
59	0x3c61ae57	0.013774476
60	0x3d2d9967	0.042382624
61	0xbd199c98	-0.037502855
62	0xbc880095	-0.01660184
63	0xbc6e6d01	-0.014552356
64	0x3d09d408	0.033649474
65	0x3be18076	0.006881769
66	0xbd35357f	-0.04424047
67	0x3d264922	0.04059709
68	0xbc5ea017	-0.013587973
69	0xbd406f55	-0.046981174
70	0x3d4287cf	0.0474928
71	0xbc35fa77	-0.011107079
72	0x3cab2237	0.020890338
73	0x3b33a9b4	0.0027414383
74	0x3d1164df	0.03549659
75	0xbcaaf116	-0.020866912
76	0xbc8c9947	-0.017162932
77	0xbccd5a4c	-0.025067471
78	0xbd033736	-0.032035075
79	0xbd017a60	-0.031610847
80	0x3cf57334	0.02996216
81	0xbd07f74f	-0.033194836
82	0xbae47027	-0.0017428444
83	0x3bcac5b2	0.006188118
84	0x3d4b57df	0.049644347
85	0xbc9169c2	-0.017750625
86	0xbc95ddad	-0.01829418
87	0x3ca23375	0.019799927
88	0x3c46c3de	0.012131659
89	0x3c9b20f6	0.018936615
90	0x3d2b3087	0.041794326
91	0xbd222af1	-0.039591733
92	0x3c690a5c	0.014223661
93	0xbb8d6d88	-0.0043160357
94	0xbd39a5b0	-0.045324028
95	0xbb9d9b28	-0.004809756
96	0x3c63c2c4	0.013901416
97	0x3ced55ad	0.028971517
98	0x3b27fc2e	0.0025632489
99	0xbd02c178	-0.031922787
100	0xbc5ba8fd	-0.013406989
101	0x3d1a38b0	0.037651718
102	0x3cb92c87	0.02260424
103	0xbd149177	-0.03627154
104	0x3c4b1ec5	0.012397473
105	0xbc259379	-0.010105961
106	0x3bf323b0	0.0074200258
107	0x3d032201	0.03201485
108	0xbcbd8e0c	-0.023139022
109	0xbb2984c9	-0.00258665
110	0x3d20f972	0.03930039
111	0xbbe54ed4	-0.0069979224
112	0x3d4900f0	0.04907316
113	0xbac18bb7	-0.001476637
114	0x3bdd0354	0.0067447815
115	0xbc0b5618	-0.008504413
116	0x3caec7b2	0.021335457
117	0xbc71377e	-0.014722703
118	0x3d517fe4	0.051147357
119	0x3d33280d	0.043739367

classifier.0.weight f4 [84, 120]
0	0x3b91681d	0.00443746
1	0xbd44617e	-0.04794454
2	0x3ce76c9b	0.02825003
3	0xbc5f72dd	-0.013638225
4	0xbd9d0519	-0.07666988
5	0x3c2c3071	0.010509596
6	0xbd85f45d	-0.06540749
7	0xbd07fc46	-0.03319957
8	0xbd880a41	-0.06642581
9	0x3d904a2e	0.07045399
10	0x3d17a258	0.037020057
11	0xbd5690f7	-0.052384343
12	0x3d711474	0.058857396
13	0xbd8bb459	-0.06821508
14	0x3c071f2f	0.008247181
15	0xbd951eeb	-0.07281288
16	0x3d51b26f	0.05119556
17	0xbd49e12d	-0.04928701
18	0xbd05c2e2	-0.032656558
19	0x3cc41179	0.023934113
20	0xbdb8cc49	-0.09023339
21	0x3d555b3f	0.052088972
22	0x3bc3de49	0.005977426
23	0xbd76a866	-0.06021919
24	0xbc5ddd14	-0.013541479
25	0xbd68f0f9	-0.056870434
26	0x3cb51874	0.022106387
27	0x3d070321	0.03296197
28	0xbd999697	-0.07499426
29	0x3d7875ea	0.060659327
30	0xbd0589f8	-0.03260228
31	0x3da869b4	0.08223286
32	0xbbd899bd	-0.006610124
33	0x3cb57cd8	0.022154257
34	0xbd1e25c2	-0.038610227
35	0xba4f62a3	-0.00079111214
36	0xbc2c352e	-0.010510726
37	0xbce53f3f	-0.02798426
38	0xbd4c2012	-0.049835272
39	0x3b3a7105	0.0028448713
40	0xbda89130	-0.08230817
41	0xbd57cc54	-0.052685097
42	0xbd17e825	-0.037086625
43	0x3b1ac2dc	0.002361468
44	0xbd694f35	-0.056960303
45	0xbd33d9cb	-0.043908875
46	0x3bea3d1a	0.007148397
47	0x3a7187ca	0.00092136546
48	0x3b0f3586	0.002185197
49	0xbd46d517	-0.048543062
50	0x3d91be06	0.07116322
51	0xbcbb1633	-0.022837734
52	0xbd91111c	-0.070833415
53	0x3d4c37ea	0.04985801
54	0x3c341652	0.01099165
55	0xbb8f9e81	-0.004382909
56	0xbda8d3f8	-0.08243555
57	0xbd6e047d	-0.05810975
58	0x3d5f102f	0.054458793
59	0xbce2df8e	-0.02769449
60	0xbd82c046	-0.063843295
61	0x3d59252e	0.053013973
62	0xbd982db0	-0.07430589
63	0x3d55aaa3	0.052164685
64	0xbcfe2b8e	-0.031026628
65	0x3d1d56b5	0.03841277
66	0x3c49e41f	0.012322455
67	0x3db43a8d	0.0880023
68	0x3d175013	0.0369416
69	0xbbc9e54d	-0.006161368
70	0x3db00645	0.08594946
71	0xbd96258e	-0.07331382
72	0x3c364551	0.011124925
73	0x3cefeefb	0.02928876
74	0xbd8f96b7	-0.070111685
75	0xbd4adb6c	-0.049525663
76	0xbd285112	-0.04109294
77	0xbd42b99f	-0.047540303
78	0xbc34e58e	-0.011041058
79	0xbd678d74	-0.056531385
80	0x3dadf3fd	0.08493803
81	0xbb15c858	-0.002285501
82	0x3db9cd7c	0.09072396
83	0x3cb4b5e0	0.022059381
84	0xbc6b41ca	-0.014358947
85	0x3c029eaf	0.007972403
86	0xbd5798e2	-0.052636035
87	0xbd71bac0	-0.05901599
88	0x3d11c1c3	0.035585176
89	0xbc417ce3	-0.0118095605
90	0x3c01f7f0	0.007932648
91	0xbc3b7c56	-0.011443218
92	0x3d922003	0.07135012
93	0xbdbaac6e	-0.091149196
94	0xbd6b01d7	-0.0573748
95	0xbd47f2e6	-0.04881563
96	0xbceed020	-0.029151976
97	0x3d93dfd8	0.07220429
98	0x3d7af5c2	0.06126953
99	0xbd88b69f	-0.06675457
100	0xbcdc0896	-0.026859563
101	0x3d9c02c9	0.07617719
102	0xbd92772d	-0.07151637
103	0x3c1af50f	0.009457841
104	0x3d0b28ec	0.033974573
105	0x3d2e8140	0.04260373
106	0x3d8495d2	0.064738885
107	0x3d742a58	0.059610695
108	0x3cba2983	0.022724872
109	0xbdb0f038	-0.08639568
110	0xbd2592e0	-0.040423274
111	0xbc8179eb	-0.015805205
112	0xbd886dd3	-0.06661572
113	0xbd3ee42b	-0.046604317
114	0x3c9b38f0	0.018948048
115	0xbd114bff	-0.035472866
116	0x3c74368a	0.014905581
117	0x3d00aa0e	0.031412177
118	0x3d4184c2	0.04724575
119	0xbd902a94	-0.07039371
120	0x3da4bcbc	0.08043811
121	0x3d1524db	0.0364121
122	0x3bffe45e	0.007809206
123	0xbcdfca87	-0.027318252
124	0xbce340fb	-0.027740946
125	0x3b3af2e1	0.0028526115
126	0xbc3e88b4	-0.011629272
127	0xbdb04294	-0.08606449
128	0x3c68f15e	0.014217703
129	0xbd76c09c	-0.06024228
130	0xbda05370	-0.078284144
131	0x3d5ce1ad	0.05392616
132	0xbc74e407	-0.014946944
133	0xbcc47faf	-0.023986666
134	0xbc4c9b0d	-0.012488139
135	0xbd200c38	-0.039074153
136	0x3d42d46f	0.047565874
137	0xbb48afa0	-0.0030622259
138	0xbd26edae	-0.040754013
139	0x3db21680	0.08695698
140	0x3d8884ab	0.066659294
141	0x3d8dfaa2	0.0693257
142	0xbdba2416	-0.09088914
143	0x3c8cd5b2	0.017191742
144	0x3bb42a71	0.0054982235
145	0x3da25c52	0.07927765
146	0x3cce3874	0.025173403
147	0x3c9b18d6	0.018932741
148	0x3d6ec2ee	0.05829137
149	0x3d22c54c	0.03973894
150	0xbda702f6	-0.08154862
151	0xbdb7903f	-0.0896306
152	0xbd4b1e62	-0.049589522
153	0xbca7c8ba	-0.020481456
154	0x3cb029fd	0.021504397
155	0x3d699c6f	0.057033952
156	0xbda6ac3e	-0.08138321
157	0xbc5d743d	-0.013516483
158	0xbd92ae6f	-0.07162177
159	0x3da14ac8	0.078755915
160	0x3d61d179	0.05513141
161	0x3d573089	0.05253652
162	0xbc178469	-0.009247878
163	0xbd6d247b	-0.05789612
164	0xbd3bc29b	-0.045839887
165	0xba8a73f3	-0.001056312
166	0x39a2e74b	0.00031071375
167	0xbac3470f	-0.0014898496
168	0x3da353a1	0.07974935
169	0xbd4384f0	-0.0477342
170	0x3d8bc7c1	0.068252094
171	0x3d25c463	0.040470492
172	0xbd9213a9	-0.07132656
173	0xbd278580	-0.0408988
174	0xbd638cf0	-0.05555433
175	0xbb0adfa0	-0.002119042
176	0x3d4692fa	0.04848001
177	0x3d564c1c	0.052318677
178	0xbc9b0824	-0.01892478
179	0x3da19e11	0.07891477
180	0x3d315c04	0.043300644
181	0x3c7cbd0d	0.015425933
182	0xbd9790a9	-0.074006386
183	0xbd9e3f90	-0.07726967
184	0x3d67c7e5	0.05658712
185	0x3d47b19a	0.04875336
186	0xbd33f207	-0.043931987
187	0xbd8c61e9	-0.068546124
188	0x3b448e86	0.0029992177
189	0xbdaadde4	-0.083431035
190	0x3d7bd17b	0.061479073
191	0x3d44cc06	0.048046134
192	0x3cceb727	0.025233818
193	0xbd857649	-0.06516702
194	0xbc740431	-0.014893577
195	0xbd3b37d0	-0.045707524
196	0x3d323945	0.043511648
197	0x3db22817	0.08699053
198	0x3b6d8538	0.0036242735
199	0xbcc08f6c	-0.023505889
200	0x3d80c01d	0.06286643
201	0xbcadca9d	-0.021214778
202	0xbd32e678	-0.043676823
203	0xbd9d2581	-0.07673169
204	0x3c42beda	0.011886323
205	0x3d93a200	0.072086334
206	0x3d6a300e	0.057174735
207	0x3d07f259	0.033190105
208	0x3d8137d3	0.06309476
209	0xbd956f95	-0.07296673
210	0x3db3eb17	0.08785074
211	0xbcefb431	-0.029260727
212	0xbdb4991e	-0.08818267
213	0x3d2818f3	0.04103942
214	0x3cb06f53	0.021537459
215	0xbcaf5e04	-0.021407135
216	0xbdb15b9d	-0.08660052
217	0x3a814776	0.0009863216
218	0xbd392a0f	-0.045206126
219	0xbd69018c	-0.05688624
220	0x3da790b2	0.08181895
221	0x3d2fb9eb	0.042901915
222	0xbda2f2ba	-0.07956453
223	0xbd20fbd1	-0.03930265
224	0xbd3b0f12	-0.04566867
225	0xbda89d71	-0.082331546
226	0xbd92786d	-0.07151876
227	0x3db9e72f	0.09077298
228	0x3b819742	0.003954799
229	0x3d9668b1	0.07344187
230	0x3c7e4bfa	0.015521044
231	0x3db469a3	0.08809211
232	0xbd6291bf	-0.055314776
233	0x3cc126e2	0.023578111
234	0xbd39a922	-0.045327313
235	0x3d04ec95	0.032452185
236	0x3d90640c	0.070503324
237	0x3d8cb571	0.06870545
238	0xbd7a4ab5	-0.061106402
239	0xbb69c399	-0.0035669564
240	0x3c57cf25	0.013171946
241	0x3c9547b3	0.018222665
242	0xbd168432	-0.036747165
243	0x3ca081b1	0.019593092
244	0xbd92ef23	-0.07174518
245	0xbcf18d7d	-0.029486412
246	0xbce5c1d1	-0.02804652
247	0xbcd1c5ad	-0.025606954
248	0xbd603214	-0.05473526
249	0x3d8318e5	0.06401233
250	0xbc5eada2	-0.013591202
251	0x3d3199b0	0.04335946
252	0xbb0095a1	-0.0019620436
253	0x3ba578a6	0.005049783
254	0x3dab1836	0.08354227
255	0x3d86a430	0.06574285

classifier.0.bias f4 [84]
0	0xbc3ca0d0	-0.01151295
1	0xbdb16feb	-0.08663925
2	0x3d40d769	0.04708043
3	0x3d9b8253	0.07593217
4	0x3c9ed978	0.019390807
5	0x3d1a1c86	0.03762486
6	0x3d9f6417	0.077827625
7	0x3d59d1fb	0.05317877
8	0xbd316741	-0.04331136
9	0x3d4e0f33	0.050307464
10	0xbda1a03c	-0.078918904
11	0x3db39cab	0.087701164
12	0x3d720fd7	0.059097137
13	0xbd4488bd	-0.047981966
14	0xbcbaa986	-0.022785913
15	0xbd6eb6e1	-0.058279876
16	0xbd2abd34	-0.041684344
17	0xbd5652cb	-0.05232505
18	0xbdb4ab7a	-0.08821769
19	0xbc89fe94	-0.016845025
20	0x3d2288a0	0.039681077
21	0x3d671173	0.056413125
22	0xbcef6be7	-0.029226257
23	0xbd8f75a5	-0.07004861
24	0x3d558a30	0.05213374
25	0x3ae390b1	0.0017361847
26	0xba70760a	-0.00091728626
27	0x3d38c07c	0.045105442
28	0xbcc7ee2c	-0.024405561
29	0x3d212c1d	0.03934871
30	0x3cfa9e5d	0.030593092
31	0xbc399c49	-0.011328765
32	0xbb937eb4	-0.004501188
33	0xbcd0ebd3	-0.025503075
34	0xbd24f704	-0.040274635
35	0xbb6f9b15	-0.0036560942
36	0xbd9c9d1c	-0.07647154
37	0xbd915df0	-0.07097995
38	0xb9adc85d	-0.00033146414
39	0xbdb0fcbd	-0.08641956
40	0xbc391ee8	-0.0112988725
41	0xbda52ab5	-0.08064786
42	0x3ce0f245	0.027459273
43	0x3c1bb64b	0.009503911
44	0xbd3bdeed	-0.045866895
45	0xbb8d9112	-0.0043202722
46	0x3d187a62	0.03722609
47	0xbd988cf0	-0.07448757
48	0xbd9c0d19	-0.07619686
49	0x3c9e6e21	0.019339623
50	0x3cd871cf	0.026421456
51	0x3d3cd27f	0.046099182
52	0x3c1eb036	0.009685567
53	0xbdb51167	-0.0884121
54	0xbd615fa8	-0.055022866
55	0xbb259aee	-0.0025269347
56	0xbd37eed8	-0.044905514
57	0xbd0ee130	-0.034882724
58	0x3cac580f	0.021038083
59	0xbd565b79	-0.05233333
60	0x3c5f97aa	0.013646999
61	0x3dc7ab3c	0.09749457
62	0x3dadcb76	0.08486073
63	0xbc555fe3	-0.013023349
64	0x3d6d5984	0.057946697
65	0xbd9a7119	-0.07541103
66	0x3d36c6ab	0.04462306
67	0x3c35244a	0.011056015
68	0x3da4c12e	0.080446586
69	0x3d7ed9e7	0.062219527
70	0xbdaffd5c	-0.08593246
71	0x3da4ccc4	0.080468684
72	0x3d8a4810	0.06752026
73	0x3d9a32ae	0.07529198
74	0x3d3bd373	0.04585595
75	0xbd399c6e	-0.0453152
76	0xbba038b9	-0.0048895744
77	0xbb73028c	-0.0037080375
78	0x3d1b9310	0.037982047
79	0x3d396ffe	0.04527282
80	0xbd1b436b	-0.03790609
81	0xbcab3e3e	-0.020903703
82	0xbd30ec3c	-0.04319404
83	0x3a30b10b	0.00067402486

classifier.2.weight f4 [10, 84]
0	0xbdc0a79c	-0.09406969
1	0xbdb0b157	-0.08627575
2	0x3d494061	0.049133662
3	0xbceb53d9	-0.028726505
4	0x3cdd7147	0.027031554
5	0xbd356fa5	-0.044295926
6	0xbaa9d849	-0.0012958135
7	0x3d53f172	0.051743932
8	0xbd9ef0a4	-0.07760742
9	0x3de43f04	0.11144832
10	0xbd92c574	-0.071665674
11	0xbcc5d005	-0.024147043
12	0x3d79e210	0.061006606
13	0xbdd69dec	-0.1047934
14	0x3d7afa1b	0.061273675
15	0x3d8249e1	0.063617475
16	0xbe06d747	-0.1316806
17	0xbc778641	-0.015107692
18	0xbda589c3	-0.080829166
19	0x3df02471	0.11725701
20	0xbdb8345f	-0.08994364
21	0xbe00c8f7	-0.12576662
22	0xbd9efe60	-0.07763362
23	0x3da9baf9	0.08287615
24	0x3cae3ae8	0.021268323
25	0xbdd4c38d	-0.10388861
26	0xbca955d4	-0.020670809
27	0xbda3df25	-0.08001546
28	0x3e02c23a	0.12769404
29	0xbdc162f1	-0.094427
30	0x3cb8c7d5	0.022556225
31	0x3da42459	0.08014745
32	0xbdea32ad	-0.11435447
33	0x3cd73468	0.026270106
34	0x397a562c	0.0002387396
35	0x3d25d13d	0.04048275
36	0xbd524bcd	-0.05134182
37	0xbd9aefc6	-0.075652644
38	0x3c8fde81	0.017562153
39	0xbd00721c	-0.031358823
40	0xbc91657e	-0.01774859
41	0x3df1da18	0.11809176
42	0xbd8626d8	-0.065503776
43	0xbd3ff494	-0.046864107
44	0x3d80a1ef	0.062808864
45	0xbd9c6d86	-0.076380774
46	0x3d90ef3c	0.0707688
47	0x3e125d77	0.14293467
48	0x3dbf0bb8	0.09328407
49	0x3da253fa	0.079261735
50	0xbe11841b	-0.1421055
51	0x3d3cca78	0.046091527
52	0xbde06472	-0.109566584
53	0xbd363b9d	-0.044490445
54	0xbd9dad52	-0.07699074
55	0xbd93219e	-0.07184146
56	0x3dadb4e5	0.084817685
57	0x3d991a07	0.074756674
58	0x3cecbe4a	0.02889933
59	0x3d2c5362	0.042071708
60	0x3e1240f9	0.14282598
61	0x3d2a43a6	0.04156842
62	0xbce2c358	-0.027681038
63	0x3d8a924d	0.06766186
64	0xbd1c6c34	-0.038189128
65	0xbc4f99ba	-0.012670929
66	0x3d3d0c01	0.046154026
67	0x3c88dfb4	0.016708232
68	0x3db8cc87	0.090233855
69	0xbc7d4c95	-0.015460153
70	0xbd67d645	-0.056600828
71	0x3d1dfcb5	0.03857108
72	0x3de46cc7	0.1115356
73	0xbdee8fb2	-0.116485015
74	0xbdfe8fe3	-0.12429788
75	0x3cfe2c4c	0.031026982
76	0x3d86d00d	0.06582651
77	0x3c45c36e	0.01207052
78	0xbdc73ca6	-0.09728365
79	0xbddc4e7b	-0.107571565
80	0xbb2b2e04	-0.0026119957
81	0x3d525dac	0.051358864
82	0xbe0a8fc4	-0.13531405
83	0x3db94c39	0.090477414
84	0xbdd26d47	-0.10274749
85	0x3d0c4f3d	0.034255255
86	0xbd224831	-0.03961963
87	0xbda3094c	-0.079607576
88	0x3c932d93	0.017966067
89	0xbbfdb76e	-0.007742814
90	0x3d811e9a	0.06304665
91	0x3dfe1b38	0.12407535
92	0x3e0eea3c	0.13956541
93	0x3d8f65ac	0.07001814
94	0xbdea5f4e	-0.11443959
95	0x3de5b42f	0.11216008
96	0x3e1c019a	0.15234986
97	0xbd9cb5b7	-0.07651847
98	0x3df97a31	0.12181509
99	0xbe1a6713	-0.15078382
100	0xbdf44a41	-0.11928225
101	0x3da76dba	0.081752256
102	0x3de087e5	0.1096342
103	0x3c854df4	0.016272523
104	0xbdc79a65	-0.09746245
105	0x3c5bc071	0.013412581
106	0x3d859c2a	0.065239266
107	0x3ce3e23d	0.02781784
108	0x3d967702	0.07346918
109	0xbd6d0127	-0.057862427
110	0x3db3737b	0.087622605
111	0xbd47a1de	-0.048738353
112	0x3d52f18b	0.051499885
113	0x3d47d1db	0.04878412
114	0xbdc89ccc	-0.09795532
115	0x3d86f67e	0.065899834
116	0x3da5d47e	0.0809717
117	0xbdc74c7c	-0.09731385
118	0xbcb6bca1	-0.022306742
119	0x3db70791	0.0893699
120	0x3d9eedb0	0.07760179
121	0x3d7cd2de	0.061724536
122	0x3d483835	0.04888173
123	0xbd1c14ed	-0.038105894
124	0x3d5f4f9b	0.054519277
125	0xbdb23444	-0.08701375
126	0x3bcfaa54	0.0063374434
127	0xbd202133	-0.03909416
128	0xbd352ab0	-0.044230163
129	0x3e054521	0.13014652
130	0xbda4f18d	-0.08053885
131	0x3e0282db	0.1274523
132	0x3dc0bff2	0.09411611
133	0x3d688870	0.056770742
134	0x3dc5b467	0.0965355
135	0xbe001947	-0.12509643
136	0x3d8bc6d9	0.068250366
137	0xb9e61409	-0.00043883946
138	0xbd82bd58	-0.06383771
139	0x3b4ff27a	0.003173022
140	0x3cdc1dac	0.026869617
141	0xbda8ee9c	-0.08248636
142	0xbd8065a4	-0.062693864
143	0x3db0a9d7	0.086261444
144	0xbda8aea4	-0.08236435
145	0x3dd34443	0.10315754
146	0xbd8a9bb3	-0.067679785
147	0xbdb7875f	-0.08961367
148	0x3dcae960	0.09907794
149	0x3dc2a8e0	0.095048666
150	0x3e04620f	0.12928031
151	0x3dc9172e	0.09818874
152	0x3dcb4586	0.0992537
153	0x3d57c741	0.052680258
154	0x3b863de2	0.0040967325
155	0x3cc03199	0.02346115
156	0x3ce3516b	0.027748784
157	0x3d66591b	0.05623732
158	0xbd2f58bf	-0.042809244
159	0x3d2fe102	0.042939194
160	0xbd9acc5a	-0.07558508
161	0xbd9ed58d	-0.07755575
162	0x3cfdf49a	0.031000424
163	0x3db48ddf	0.08816122
164	0x3c84ffcc	0.016235255
165	0x3dbac12e	0.09118877
166	0xbd8970e9	-0.06710989
167	0xbdd921b5	-0.10602132
168	0xbcc4212a	-0.023941595
169	0xbdca429c	-0.09875986
170	0x3dc11290	0.09427369
171	0xbe0258fc	-0.12729257
172	0x3dc1d35e	0.09464143
173	0x3d8ca091	0.06866563
174	0x3db7441b	0.08948537
175	0x3dba4c9e	0.09096645
176	0x3cd6ffe4	0.026245065
177	0x3a7f87df	0.00097477244
178	0x3db6cb9c	0.08925554
179	0xbd9a48c8	-0.07533413
180	0xbd53bb4d	-0.051692296
181	0x3d90200a	0.07037361
182	0xbdb8ee6d	-0.09029851
183	0x3bd0a03d	0.006366758
184	0x3db0abd4	0.086265236
185	0x3cd61d8e	0.02613714
186	0xbd7be62a	-0.0614988
187	0xbc8f7a0f	-0.017514257
188	0xbdce939a	-0.100867465
189	0x3d83b734	0.064314276
190	0x3dea20a9	0.11432011
191	0x3dd6f661	0.10496212
192	0x3b951137	0.0045491713
193	0x3d8b4e43	0.068020366
194	0x3dcc293c	0.09968802
195	0x3e028505	0.12746055
196	0x3c97a7d8	0.018512651
197	0x3dabe805	0.083938636
198	0xbd11ef68	-0.035628706
199	0x3bdaee5d	0.006681247
200	0xbdfa9a7a	-0.12236495
201	0xbd902fa5	-0.070403375
202	0xbdc5396e	-0.096300945
203	0xbd79e651	-0.061010662
204	0xbcaf6b2b	-0.021413406
205	0xbd8e7b3d	-0.069570996
206	0xbdf6e6bf	-0.1205573
207	0x3d89c7e6	0.06727581
208	0xbc49b988	-0.0123123005
209	0x3d076769	0.033057604
210	0x3dd5cf27	0.10439902
211	0x3dd01aa9	0.10161335
212	0xbdb229f8	-0.08699411
213	0xbc426cc8	-0.011866756
214	0xbd2632f3	-0.040575933
215	0x3d3231cb	0.043504518
216	0x3c7e1245	0.0155072855
217	0x3b480b45	0.0030524295
218	0x3cc00cdb	0.02344363
219	0x3df00316	0.117193386
220	0x3d13bf36	0.036071025
221	0x3d5dfa32	0.054193683
222	0xbe083192	-0.1330016
223	0x3c5b6135	0.013389875
224	0x3c96c2c6	0.018403422
225	0x3d9409da	0.072284415
226	0xbd639e04	-0.055570617
227	0xbd12746a	-0.035755552
228	0x3d2d0137	0.042237487
229	0x3c9aadbf	0.018881677
230	0xbde9145b	-0.113808356
231	0xbe0106ee	-0.126003
232	0xbd4d93b4	-0.05018969
233	0xbd57a84b	-0.05265073
234	0xbdb3e24d	-0.08783398
235	0xbdc11a19	-0.09428806
236	0x3e1739db	0.14768164
237	0xbce23c88	-0.027616754
238	0x3d3f3ce9	0.046688948
239	0x3da8f5ac	0.08249983
240	0x3bfbe913	0.0076876967
241	0xbd10cdbe	-0.03535246
242	0x3dcff986	0.10155015
243	0x3da884ec	0.08228478
244	0x3cb15962	0.021649066
245	0xbd14dd1b	-0.036343675
246	0x3cd53709	0.02602722
247	0xbcec0b11	-0.02881387
248	0xbdc9d167	-0.098543935
249	0xbd061716	-0.03273686
250	0x3dba5bb2	0.09099521
251	0xbdd50ce4	-0.10402849
252	0x3d9f4971	0.0777768
253	0xbaf0628a	-0.0018339914
254	0xbacfadc6	-0.0015844635
255	0xbddc85dd	-0.1076772

classifier.2.bias f4 [10]
0	0xbc0c6acb	-0.008570383
1	0xbc22ef44	-0.009944741
2	0xbce6b876	-0.02816413
3	0x3cae3936	0.021267515
4	0xbc90ec8a	-0.017690916
5	0x3d20ce9d	0.03925954
6	0x3d6bc898	0.057564348
7	0xbcf1a6fe	-0.029498573
8	0xbd839009	-0.06423957
9	0x3d40b187	0.047044303
